results/JumpOver_v3/JumpOver/JumpOver-97692.onnx (onnx, 201284 bytes, 12 tensors)

network_body.observation_encoder.processors.0.conv_layers.0.weight f4 [16, 3, 8, 8]
-0.062002473 -0.008793287 0.06021145 0.013445914 -0.023862805 -0.021009393 0.026740499 0.060949013
0.072118774 0.09064917 0.06911002 -0.040656876 0.06120257 -0.06676462 0.049508486 -0.031727944
0.016232401 -0.045825046 0.07510492 -0.06959252 -0.04515309 0.06933827 0.046117987 -0.03193667
0.06700757 -0.0488521 -0.048717692 0.015495755 0.052453995 -0.026305612 -0.055807024 -0.015707102
0.06789294 0.011004895 0.06259619 -0.067455746 -0.050358552 -0.057666223 0.018512756 -0.039987564
0.048336856 0.009871349 0.028858703 -0.067877956 -0.058969848 0.028487712 0.06524117 0.013859592
0.02564776 0.023363376 0.02432682 0.012503117 0.03576895 0.073043756 0.042942375 -0.041078422
-0.055993132 -0.022696014 -0.059595883 -0.04826808 -0.017890591 0.061779395 0.043920398 -0.0025669783
0.046328723 0.0039955815 -0.13103402 0.115778394 -0.02992342 -0.1596446 -0.033684876 0.06516829
-0.05586632 0.09657946 0.10364244 0.081489705 0.105764255 0.057295766 -0.027034441 -0.09231269
0.01879736 -0.031773016 0.09239869 -0.05113468 0.10873817 -0.037035726 0.05180651 0.004602284
0.030319553 0.06812398 0.011325357 0.06702191 -0.011306891 -0.044812754 -0.029715147 0.061878853
0.069834456 -0.04452384 -0.017538793 -0.026326757 -0.036415894 0.03839125 0.031185042 -0.005076094
-0.14071004 0.014016764 -0.056082804 -0.12978783 -0.03922752 0.055421524 -0.06759401 -0.07036851
-0.13297197 0.03416923 -0.12930878 -0.052844524 -0.1767164 -0.07954745 -0.09880345 -0.05159989
0.15168336 0.0764951 -0.08655486 0.0067402786 0.029524846 -0.15779975 -0.14642347 0.019044682
-0.050067 -0.06158622 0.089796856 -0.007842175 -0.0029307026 -0.0009580818 0.07116217 -0.008068375
-0.053193286 0.033138014 0.026934002 0.0010650768 0.040524606 0.06471352 0.01211651 0.025100611
0.072158 0.056775093 -0.054278813 0.07609163 0.025756842 0.016303292 0.026365273 -0.045645226
0.045881364 0.049964257 0.007789683 -0.07548128 0.08196871 -0.027502198 0.008162761 0.06305729
0.06134138 -0.060695957 0.07686098 0.047434006 0.060887754 0.0239238 -0.06125403 -0.07692312
0.037559595 -0.044001438 -0.022920126 0.027869523 0.05888282 -0.043917667 0.02382333 0.016968219
0.054800313 -0.020953612 0.024480145 -0.038227703 0.08055488 0.028290477 -0.071321055 0.041151203
-0.031380266 0.042453893 0.010259416 -0.015065836 0.06474929 0.066516064 -0.03986641 0.033275165
0.03812863 -0.01304467 0.0043162555 0.02177918 -0.019510493 0.011757061 -0.0625269 0.008010723
-0.0082743615 0.04810192 0.013588602 -0.049568377 0.029163733 -0.049570415 0.057917625 0.014445156
0.014580071 0.026445603 -0.007314047 0.06390345 0.03868436 -0.03330175 -0.022016464 -0.038710292
0.061518997 0.046838164 -0.0024999008 0.024820328 -0.02100072 0.009605691 -0.039502483 0.021564148
0.015024148 0.03836997 -0.024858426 -0.019395031 8.212775e-05 -0.043088548 0.067284614 0.049675398
0.027902506 0.021355417 0.020160338 0.012530416 0.028424457 -0.017138883 -0.011965276 -0.020046514
-0.06725509 -0.050247252 -0.041500356 0.03233455 -0.016914919 0.06217475 0.042420328 0.005306676
-0.012980353 -0.042849787 0.012326211 -0.042840295 -0.045852214 0.000378713 0.03439103 0.04203993
00000000: 4ef6 7dbd b811 10bc 48a0 763d 404c 5c3c
00000010: ee7b c3bc e41b acbc e40e db3c aca5 793d
00000020: 02b3 933d 46a6 b93d 8e89 8d3d d387 26bd
00000030: 8caf 7a3d e4bb 88bd 69c9 4a3d 29f5 01bd
00000040: d0f9 843c 0bb3 3bbd 9cd0 993d 8686 8ebd
00000050: 72f2 38bd 3901 8e3d 37e6 3c3d 07d0 02bd
00000060: 443b 893d 2419 48bd 348c 47bd e8e1 7d3c
00000070: 00da 563d de7e d7bc e895 64bd 2eac 80bc
00000080: 740b 8b3d e04d 343c 6e32 803d 3d26 8abd
00000090: c544 4ebd 6b33 6cbd 10a8 973c 00ca 23bd
000000a0: defc 453d 70bb 213c 1669 ec3c 9903 8bbd
000000b0: 5e8a 71bd 105f e93c 2a9d 853d 5813 633c
000000c0: 401b d23c 8d64 bf3c 0a49 c73c e0d9 4c3c
000000d0: 7682 123d f797 953d 58e4 2f3d d941 28bd
000000e0: 0e59 65bd feec b9bc d01a 74bd c0b4 45bd
000000f0: 4a8f 92bc 640c 7d3d e0e5 333d c03a 28bb
00000100: 30c3 3d3d 5eed 823b c82d 06be 391d ed3d
00000110: f621 f5bc e079 23be 27f9 09bd f476 853d
00000120: 15d4 64bd 74cb c53d 7d42 d43d 13e4 a63d
00000130: ee9a d83d f7ae 6a3d 5577 ddbc 700e bdbd
00000140: ecfc 993c 6c24 02bd 863b bd3d 9972 51bd
00000150: 1eb2 de3d c6b2 17bd 1033 543d c2ce 963b
00000160: b660 f83c 9684 8b3d fd8d 393c c842 893d
00000170: 8a40 39bc 948d 37bd 2e6d f3bc ae74 7d3d
00000180: 5e05 8f3d a15e 36bd 84ad 8fbc 36ab d7bc
00000190: d528 15bd 2540 1d3d c677 ff3c 5d55 a6bb
000001a0: 4b16 10be 92a6 653c 15b7 65bd 1ae7 04be
000001b0: 09ad 20bd ae01 633d ba6e 8abd 5e1d 90bd
000001c0: ce29 08be 09f5 0b3d 8569 04be 8073 58bd
000001d0: 25f5 34be c6e9 a2bd 7759 cabd 685a 53bd
000001e0: e252 1b3e 77a9 9c3d ad43 b1bd 8edd dc3b
000001f0: 17de f13c 4296 21be 09f0 15be 9803 9c3c
00000200: 0e13 4dbd d541 7cbd 6ae7 b73d 777c 00bc
00000210: 0811 40bb c827 7bba 79bd 913d 3831 04bc
00000220: 34e1 59bd babb 073d b2a4 dc3c 0c9a 8b3a
00000230: 21fd 253d 8688 843d 5484 463c cc9f cd3c
00000240: 93c7 933d 008d 683d 7653 5ebd eed5 9b3d
00000250: 0300 d33c 7b8e 853c fcfb d73c 7df6 3abd
00000260: 19ee 3b3d 52a7 4c3d 9940 ff3b ee95 9abd
00000270: 36df a73d 4a4c e1bc 1abd 053c 2e24 813d
00000280: 1941 7b3d 539c 78bd 4a69 9d3d 294a 423d
00000290: 7065 793d d8fb c33c 81e5 7abd de89 9dbd
000002a0: 17d8 193d da3a 34bd fdc2 bbbc a04e e43c
000002b0: 1d2f 713d 03e3 33bd 2529 c33c ef00 8b3c
000002c0: 4b76 603d e9a6 abbc 968a c83c a794 1cbd
000002d0: f5f9 a43d 6ec1 e73c c610 92bd 2a8e 283d
000002e0: 9888 00bd 22e4 2d3d 1c17 283c b2d6 76bc
000002f0: 479b 843d 9339 883d f64a 23bd 8a4b 083d
00000300: c42c 1c3d 50b9 55bc 606f 8d3b 406a b23c
00000310: 78d4 9fbc b0a0 403c 1a0e 80bd 683f 033c
00000320: 3091 07bc 8506 453d baa2 5e3c 3608 4bbd
00000330: c8e8 ee3c 590a 4bbd 083b 6d3d 60ab 6c3c
00000340: 40e1 6e3c 73a4 d83c acaa efbb d0df 823d
00000350: 7e73 1e3d 6a67 08bd df5b b4bc af8e 1ebd
00000360: 58fb 7b3d 60d9 3f3d 60d5 23bb 0054 cb3c
00000370: b409 acbc 3061 1d3c 5bcd 21bd 4ca7 b03c
00000380: d827 763c d429 1d3d e6a3 cbbc 54e2 9ebc
00000390: 003c ac38 9e7d 30bd 84cc 893d 6e78 4b3d
000003a0: cc93 e43c 8ef1 ae3c 4b27 a53c 604c 4d3c
000003b0: 68da e83c d866 8cbc 010a 44bc 9638 a4bc
000003c0: 09bd 89bd 10d0 4dbd 47fc 29bd 3c71 043d
000003d0: 2891 8abc f3aa 7e3d f0c0 2d3d a0e3 ad3b
000003e0: 8cab 54bc 4283 2fbd e0f3 493c 4e79 2fbd
000003f0: 88cf 3bbd 008e c639 9cdd 0c3d 1032 2c3d

network_body.observation_encoder.processors.0.conv_layers.0.bias f4 [16]
0.026366346 0.048803702 0.07945123 0.067388214 0.03731013 0.06610737 0.033524737 -0.006223879
-0.013768308 -0.055207238 -0.0074965386 0.049049016 0.013343705 0.051980294 0.08557255 -0.014687213
00000000: 3cfe d73c 64e6 473d 54b7 a23d d502 8a3d
00000010: 82d2 183d 4d63 873d 3c51 093d aef1 cbbb
00000020: 7894 61bc fc20 62bd 86a5 f5bb 9fe7 483d
00000030: 8e9f 5a3c 4ae9 543d a940 af3d a3a2 70bc

network_body.observation_encoder.processors.0.conv_layers.2.weight f4 [32, 16, 4, 4]
0.043078396 -0.041802708 0.046539456 0.027992913 0.021759335 0.037596483 0.033424754 -0.0029758376
0.08461842 0.063165806 -0.018239379 0.05285318 0.08557978 0.056629565 -0.013535934 -0.015370815
0.035913255 -0.0076994677 0.04417682 -0.01769496 0.035111472 0.11086701 0.012507406 -0.03127754
0.023694359 -0.0053843665 -0.0124704465 0.026756193 0.04854884 -0.028862238 0.010703289 -0.01384086
0.025377432 0.044272088 -0.0049855006 -0.042843092 0.041165456 0.034982294 0.06370008 0.045532513
0.053505443 -0.045038957 -0.03393161 0.01919217 -0.031876855 0.011823977 0.042140413 0.054057058
0.04623643 0.061615665 0.022137199 0.03021678 -0.05833629 -0.025629476 -0.010665907 0.031932365
0.015370773 0.041928794 0.060576648 -0.033005487 0.04270701 0.044976447 0.0330708 0.029355535
-0.019664472 0.029319346 0.059984908 -0.009064116 -0.040171877 0.046837255 0.054978985 0.021111347
0.06859988 -0.03458801 -0.012307039 0.06282088 0.01347299 -0.037857354 -0.040919024 0.05415151
0.02229343 -0.008171994 0.037082158 0.013543609 0.045153234 0.07830713 -0.033672363 0.046301022
0.08047925 0.06088631 -0.0010648534 0.028568802 0.030748796 0.04526882 -0.034164216 -0.051678147
-0.020619879 0.014904396 0.0487647 -0.033437397 0.023492742 0.036519982 0.0054268967 0.05764173
-0.038974933 0.024416069 0.099659875 0.053590562 0.030507347 -0.06146598 -0.05286433 0.033288386
0.034325548 -0.035512276 0.017336337 -0.026936425 0.016441664 0.0486312 -0.05326709 0.013975515
-0.023386417 0.04835193 0.04185034 0.009071676 0.03951329 0.05835631 0.0015795804 -0.00926376
0.0010300709 0.033135466 0.001814084 -0.042904884 -0.022429748 0.07023504 0.0034675715 -0.014777766
-0.016015239 -0.026842602 -0.056513827 -0.0068349726 0.041731752 -0.043395597 -0.057315174 -0.053494304
0.0141817955 0.060559563 0.043974996 -0.003311651 0.03808589 0.04421776 0.06884187 -0.08680632
-0.025004076 0.008153726 -0.023425967 -0.0053747706 0.06296738 -0.023285834 -0.0489387 0.031399526
0.081516035 0.06523952 -0.01698779 0.030602675 0.011053774 -0.07535806 0.06309249 -0.010401944
-0.022052372 0.049532264 -0.08056878 0.045554977 -0.0024178955 -0.05938001 0.013211883 -0.007466
-0.04746038 0.038678106 0.027435001 -0.039441455 -0.018027078 -0.06622993 -0.10984081 0.076824866
-0.0031884955 -0.043525662 0.014838897 -0.014333518 0.020760793 -0.013009876 -0.05472477 -0.01683286
0.03085896 -0.011489794 -0.07529295 -0.056398276 7.134013e-05 0.04860774 0.014244245 0.0033786825
-0.013356531 0.07367121 -0.048859503 0.021387508 0.018748462 0.02110791 0.0051527293 -0.013613321
0.052192625 0.02008577 -0.052199982 -0.042302236 -0.02457906 0.019491017 0.051541228 -0.025794685
0.045843117 -0.077102385 -0.07774905 -0.019589195 -0.06916461 -0.04927258 -0.029387156 0.02716601
0.0076338495 -0.019539615 0.03646011 -0.054309074 -0.062172204 -0.018433133 -0.030016953 -0.005567642
-0.0447723 0.113060646 -0.044069 0.07415959 -0.012669301 0.057862952 0.012681446 -0.030800277
0.027361084 0.06351226 -0.04588596 0.047693495 0.057746623 0.03696299 0.000490078 0.008310167
0.047041308 -0.0520934 -0.008988144 0.077577196 -0.032827538 0.036546987 -0.044320032 0.06781431
00000000: f972 303d 5139 2bbd 28a0 3e3d 6551 e53c
00000010: a240 b23c c5fe 193d 65e8 083d 4506 43bb
00000020: 6c4c ad3d 135d 813d c06a 95bc 937c 583d
00000030: 7444 af3d 67f4 673d d2c5 5dbc dfd5 7bbc
00000040: c719 133d d14b fcbb c1f2 343d 05f5 90bc
00000050: 0cd1 0f3d 3e0e e33d ddeb 4c3c e11c 00bd
00000060: ac1a c23c 576f b0bb d850 4cbc ce2f db3c
00000070: 26db 463d 8070 ecbc d95c 2f3c c6c4 62bc
00000080: 55e4 cf3c a656 353d 695d a3bb 3d7c 2fbd
00000090: 1c9d 283d 9849 0f3d 3075 823d 4d80 3a3d
000000a0: 8628 5b3d c57a 38bd dffb 0abd e638 9d3c
000000b0: 4e91 02bd 5bb9 413c 6d9b 2c3d ef6a 5d3d
000000c0: 6962 3d3d b560 7c3d 1259 b53c 2e89 f73c
000000d0: 09f2 6ebd e8f4 d1bc 0ec0 2ebc 83cb 023d
000000e0: b2d5 7b3c 87bd 2b3d 381f 783d c330 07bd
000000f0: 8ced 2e3d 3939 383d 3f75 073d 057b f03c
00000100: 6317 a1bc 202f f03c bcb2 753d a881 14bc
00000110: 448b 24bd 6cd8 3f3d a531 613d b4f1 ac3c
00000120: 187e 8c3d 28ac 0dbd 77a3 49bc 3ca8 803d
00000130: d1bd 5c3c 5010 1bbd b59a 27bd f9cd 5d3d
00000140: b6a0 b63c d4e3 05bc 76e3 173d 03e6 5d3c
00000150: 99f2 383d 7d5f a03d 08ec 09bd 24a6 3d3d
00000160: 4ed2 a43d ec63 793d 8d92 8bba 1f09 ea3c
00000170: e6e4 fb3c cc6b 393d c7ef 0bbd 77ac 53bd
00000180: 05eb a8bc 9131 743c 7ebd 473d a7f5 08bd
00000190: da73 c03c fa95 153d 1cd4 b13b bc19 6c3d
000001a0: 2ea4 1fbd 3504 c83c 7a1a cc3d c781 5b3d
000001b0: 8bea f93c c0c3 7bbd 4588 58bd 6759 083d
000001c0: f298 0c3d 5275 11bd ef04 8e3c c7a9 dcbc
000001d0: abb0 863c 8231 473d 982e 5abd 8ff9 643c
000001e0: df94 bfbc ac0c 463d 436b 2b3d 5ea1 143c
000001f0: b0d8 213d 0707 6f3d ec09 cf3a 07c7 17bc
00000200: 7203 873a 0eb9 073d 8fc6 ed3a 08bd 2fbd
00000210: 97be b7bc 63d7 8f3d 3240 633b 711e 72bc
00000220: 6432 83bc 04e5 dbbc 0b7b 67bd e8f7 dfbb
00000230: eaee 2a3d 95bf 31bd 51c3 6abd d81c 5bbd
00000240: c35a 683c 4e0d 783d 201f 343d 4908 59bb
00000250: f3ff 1b3d af1d 353d f7fc 8c3d 83c7 b1bd
00000260: 59d5 ccbc 3597 053c d0e7 bfbc d81e b0bb
00000270: 0bf5 803d efc1 bebc f273 48bd ca9c 003d
00000280: e1f1 a63d 4c9c 853d fa29 8bbc 76b2 fa3c
00000290: e31a 353c 5455 9abd a336 813d ea6c 2abc
000002a0: 2da7 b4bc 58e2 4a3d 3f01 a5bd db97 3a3d
000002b0: 8e75 1ebb 7438 73bd a776 583c 59a5 f4bb
000002c0: d165 42bd ef6c 1e3d 5ebf e03c 5d8d 21bd
000002d0: 86ad 93bc 8fa3 87bd 38f4 e0bd 5b56 9d3d
000002e0: 14f6 50bb f747 32bd d81e 733c 22d7 6abc
000002f0: 8a12 aa3c 6027 55bc 1527 60bd 11e5 89bc
00000300: eecb fc3c b03f 3cbc 3133 9abd e101 67bd
00000310: 719c 9538 e918 473d b260 693c e36c 5d3b
00000320: 5ad5 5abc eee0 963d e720 48bd db34 af3c
00000330: 6096 993c 7fea ac3c 3ad8 a83b 680a 5fbc
00000340: efc7 553d ea8a a43c a6cf 55bd 1c45 2dbd
00000350: 065a c9bc a0ab 9f3c e51c 533d 604f d3bc
00000360: fec5 3b3d dbe7 9dbd e53a 9fbd 8579 a0bc
00000370: 2da6 8dbd 0bd2 49bd 55bd f0bc 418b de3c
00000380: 5f25 fa3b 8b11 a0bc 3257 153d 3173 5ebd
00000390: 48a8 7ebd 1501 97bc 1de6 f5bc c470 b6bb
000003a0: 2963 37bd 578c e73d b281 34bd fce0 973d
000003b0: e692 4fbc b401 6d3d d7c5 4f3c dd50 fcbc
000003c0: 5a24 e03c b712 823d ebf2 3bbd 415a 433d
000003d0: b987 6c3d 8166 173d 9478 003a 5e27 083c
000003e0: 63ae 403d e45f 55bd 0243 13bc cbe0 9e3d
000003f0: 2b76 06bd 4bb2 153d ec88 35bd 3be2 8a3d

network_body.observation_encoder.processors.0.conv_layers.2.bias f4 [32]
-0.03886565 -0.025307326 -0.053472288 0.039903257 0.024891797 -0.0039964486 0.019693827 0.044081125
-0.04809815 -0.041886963 -0.019072326 0.0494451 0.022384224 0.03520651 -0.02993227 0.022457609
0.05080979 -0.049768962 -0.007269888 0.06649478 0.055105682 0.06145191 -0.017820394 0.02091031
0.0138440505 -0.03191945 -0.03392492 -0.033275828 0.020683983 -0.031076262 -0.025494786 0.061296202
00000000: 9631 1fbd 4f51 cfbc c205 5bbd 9971 233d
00000010: e2e9 cb3c a4f4 82bb f354 a13c 698e 343d
00000020: 9102 45bd aa91 2bbd 913d 9cbc f286 4a3d
00000030: 1f5f b73c b434 103d 8534 f5bc 05f9 b73c
00000040: ed1d 503d 8ada 4bbd 3e38 eebb 6a2e 883d
00000050: 7fb6 613d ffb4 7b3d 13fc 91bc 194c ab3c
00000060: 28d2 623c f8bd 02bd dbf4 0abd 3c4c 08bd
00000070: 7571 a93c a593 febc 71da d0bc ba11 7b3d

network_body.observation_encoder.processors.0.dense.0.weight f4 [128, 32]
0.15724023 0.24745037 0.1396356 0.3498513 0.12462625 -0.0027275463 0.49102795 -0.41649476
-0.18152225 -0.037721418 -0.07118782 -0.38485312 0.15942764 0.04245451 -0.29276517 0.30505824
0.4740879 -0.2340137 0.2557139 -0.1543826 -0.11716428 -0.38296258 -0.28418872 0.08556556
-0.085143924 0.018304963 -0.11847259 -0.27173603 0.44302994 0.14671978 -0.021137219 -0.065608904
-0.39756638 0.3395937 0.177872 -0.031529367 -0.05871601 0.048381295 0.35394964 0.48105645
-0.05825392 -0.08962346 0.33630863 0.5255909 0.0063843965 -0.07169198 -0.054675017 -0.11122424
-0.013550935 0.15701832 0.21452585 0.3856573 0.038105734 0.5806781 -0.27914178 0.18966058
-0.1318708 0.012137765 0.17596616 0.14010839 -0.03088491 0.43608704 0.33463663 0.20107701
0.6219994 0.18616247 0.05249292 0.11679857 0.17774194 0.12560007 -0.3071725 0.66438043
-0.23508635 0.21275638 -0.66114634 -0.030877981 0.15246393 0.25989354 -0.6020248 0.3616373
0.12692535 -0.02971313 -0.11132964 0.25642005 0.14322849 0.017042888 0.0027911125 -0.17931622
0.16048025 -0.30004933 -0.12159047 0.33362916 -0.30168852 0.3480235 0.3168574 0.39757884
-0.004082806 0.37212887 -0.15410243 -0.57802635 0.3102166 0.43569922 0.36297178 0.24372171
-0.106951125 0.56476617 0.026281433 -0.3612589 0.30514038 0.077508815 -0.48085386 -0.035256118
0.19959967 -0.21866553 0.2341732 -0.530235 -0.15118916 0.28043965 -0.124295555 0.31367925
-0.21378046 -0.15657562 0.36468577 0.18416199 -0.3867912 -0.31920174 -0.077980004 -0.019138573
-0.11695457 0.15527917 -0.06490662 -0.10199249 -0.09535386 0.03165163 0.08529703 0.16356659
0.22209004 0.2666716 -0.14236893 0.5893199 0.2070158 0.05223428 0.061643146 0.40466255
-0.5686623 0.07102915 0.07764422 0.23769622 0.62615174 -0.07655501 0.045357972 0.16258575
-0.15492378 -0.09032084 -0.37514046 0.1622556 0.47962418 0.06447423 -0.0048149494 -0.24744736
-0.3920699 0.18517332 -0.33560377 0.044871036 0.27450147 -0.42286175 0.035214663 0.22315356
-0.17869402 0.22136852 0.69771177 0.24649407 0.013253319 0.1503935 -0.14749388 -0.07929591
0.5352202 -0.35658005 -0.0007900721 -0.07616312 0.23622596 -0.2745383 -0.48060524 -0.042671483
0.27281365 -0.014679327 0.5244637 0.22830506 -0.3213839 -0.11559324 -0.38144195 0.015501132
-0.4290964 -0.27268243 0.30180904 -0.1546656 0.31228927 0.24002364 -0.05693684 0.37078
-0.29944882 -0.033232316 -0.33790052 -0.10748343 -0.1533417 0.271896 -0.47348475 0.5624989
0.13768247 0.22370303 0.26698145 -0.87544835 0.23403871 0.1361484 0.01234157 -0.036995217
-0.5758742 -0.09360163 0.26178193 0.23678343 0.29435688 0.08137027 0.09289795 0.25913247
-0.40233132 -0.6776453 -0.37601143 0.17548269 -0.02327762 -0.15932065 0.0667408 -0.1228476
-0.46880454 -0.08810773 0.4456541 -0.11839026 -0.2592666 0.0250702 -0.06653977 -0.0707215
0.49241728 0.24283457 0.30142397 0.021185301 0.23490503 0.26562732 0.041222185 -0.18854627
0.1326933 0.06728397 0.42483634 -0.10205772 0.34412685 -0.04009143 0.041377578 0.24400865
00000000: 9503 213e a163 7d3e a2fc 0e3e b61f b33e
00000010: 0c3c ff3d a2c0 32bb 0468 fb3e cd3e d5be
00000020: f8e0 39be c681 1abd ebca 91bd 780b c5be
00000030: 0041 233e c8e4 2d3d 51e5 95be 9830 9c3e
00000040: a6bb f23e 4aa1 6fbe efec 823e 7916 1ebe
00000050: d3f3 efbd ac13 c4be 2f81 91be ff3c af3d
00000060: f05f aebd 4af4 953c c2a1 f2bd fc20 8bbe
00000070: d2d4 e23e b63d 163e f627 adbc f65d 86bd
00000080: d28d cbbe 3adf ad3e 1424 363e f024 01bd
00000090: 3380 70bd 772b 463d e338 b53e 084d f63e
000000a0: aa9b 6ebd 818c b7bd a530 ac3e 208d 063f
000000b0: 3334 d13b 3fd3 92bd e9f2 5fbd 89c9 e3bd
000000c0: be04 5ebc 69c9 203e aaac 5b3e e074 c53e
000000d0: c214 1c3d 52a7 143f aceb 8ebe 6236 423e
000000e0: 2409 07be 7add 463c 7930 343e 9378 0f3e
000000f0: 5a02 fdbc cd46 df3e 7e55 ab3e 22e7 4d3e
00000100: 5a3b 1f3f 60a1 3e3e d102 573d 1734 ef3d
00000110: fc01 363e 4e9d 003e b745 9dbe d614 2a3f
00000120: 7aba 70be cfdc 593e e340 29bf d2f3 fcbc
00000130: 811f 1c3e c410 853e 4c1e 1abf 8628 b93e
00000140: b8f8 013e f368 f3bc cb00 e4bd 7d49 833e
00000150: 7daa 123e 879d 8b3c 19eb 363b ac9e 37be
00000160: ef54 243e 11a0 99be 6d04 f9bd 71d1 aa3e
00000170: eb76 9abe 2330 b23e 223b a23e 748f cb3e
00000180: 0fc9 85bb ad87 be3e 07cd 1dbe 89f9 13bf
00000190: b6d4 9e3e f813 df3e 70d7 b93e 2f92 793e
000001a0: 3109 dbbd 8494 103f 294c d73c edf6 b8be
000001b0: 5c3b 9c3e f1bc 9e3d 7a32 f6be b868 10bd
000001c0: db63 4c3e dbe9 5fbe 19cb 6f3e 7bbd 07bf
000001d0: 55d1 1abe c995 8f3e ab8e febd 919a a03e
000001e0: 44e9 5abe 5c55 20be 18b8 ba3e f694 3c3e
000001f0: 7f09 c6be 696e a3be fbb3 9fbd 7fc8 9cbc
00000200: e185 efbd 8101 1f3e c3ed 84bd 70e1 d0bd
00000210: e248 c3bd 24a5 013d 36b0 ae3d 007e 273e
00000220: 926b 633e 2e89 883e 29c9 11be abdd 163f
00000230: f3fb 533e 9df3 553d 867d 7c3d ee2f cf3e
00000240: da93 11bf bb77 913d ef03 9f3d a366 733e
00000250: 7b4b 203f e0c8 9cbd 48c9 393d e17c 263e
00000260: 57a4 1ebe 22fa b8bd 6912 c0be 5526 263e
00000270: 4d91 f53e 110b 843d b9c6 9dbb d762 7dbe
00000280: 63bd c8be 139e 3d3e 42d4 abbe b1ca 373d
00000290: 758b 8c3e 5681 d8be 403d 103d 5e82 643e
000002a0: 91fb 36be 6eae 623e 3d9d 323f f168 7c3e
000002b0: 7324 593c c100 1a3e a308 17be e565 a2bd
000002c0: 3104 093f a991 b6be d71c 4fba 69fb 9bbd
000002d0: 38e5 713e 4990 8cbe e411 f6be 4bc8 2ebd
000002e0: 3bae 8b3e 8f81 70bc 4143 063f cdc8 693e
000002f0: 6e8c a4be 26bc ecbd 5c4c c3be 76f8 7d3c
00000300: 86b2 dbbe 089d 8bbe b786 9a3e a960 1ebe
00000310: 61e4 9f3e c2c8 753e 9b36 69bd e0d6 bd3e
00000320: 5b51 99be 9c1e 08bd 4c01 adbe 4620 dcbd
00000330: 9b05 1dbe f435 8b3e 986c f2be eeff 0f3f
00000340: a2fc 0c3e 6812 653e cbb1 883e 621d 60bf
00000350: d8a7 6f3e 7c6a 0b3e 4c34 4a3c 4c88 17bd
00000360: 7e6c 13bf 36b2 bfbd 4808 863e 5b77 723e
00000370: f2b5 963e 75a5 a63d 4841 be3d 03ad 843e
00000380: 5ffe cdbe 2a7a 2dbf 9284 c0be bcb1 333e
00000390: b5b0 bebc f424 23be 67af 883d 8697 fbbd
000003a0: 2607 f0be d371 b4bd c62c e43e 9876 f2bd
000003b0: 97be 84be 0560 cd3c 0146 88bd 6fd6 90bd
000003c0: 1e1e fc3e a0a9 783e 3e54 9a3e cc8c ad3c
000003d0: f28a 703e 4e00 883e 98d8 283d 4612 41be
000003e0: c1e0 073e 2ecc 893d 2684 d93e a303 d1bd
000003f0: 6531 b03e e936 24bd 897b 293d 67dd 793e

network_body.observation_encoder.processors.0.dense.0.bias f4 [128]
0.041049786 0.040251832 -0.008540791 0.027659733 0.01998064 -0.006007674 0.054428127 -0.0015447227
0.019441703 0.018516349 0.029162968 0.0073098214 0.025244402 0.008497819 0.010407399 -0.006434116
0.018051745 0.013569131 0.030907286 0.023744728 -0.0154724065 -0.00159693 0.043820366 -0.007389528
-0.018777492 0.026470983 0.026847016 0.019052716 0.039247315 0.012588056 0.018524727 0.008432141
0.030017292 0.030176159 -0.0023081752 -0.00022424033 0.03933108 0.026944071 0.004748677 0.06357342
0.047621123 0.022919375 -0.02938568 0.03538195 0.008528223 -0.007080586 0.014216398 -0.006132139
-0.010875336 0.0041313353 0.022801492 0.03352492 -0.008142007 0.0013409592 0.020241842 0.039929006
0.029255716 0.015755152 0.009516315 0.009209237 -0.0006094943 0.010870138 0.024260987 0.014448235
0.016740995 0.030675964 0.024390776 0.03890622 0.01649314 0.022161778 0.030732874 0.01701765
0.0015118954 0.01927177 -0.011483023 -0.019962532 -0.021432694 0.014190661 0.03356391 -0.0077487146
-0.0095543675 0.042753533 -0.028298333 0.041776944 0.04124176 -0.028935086 -0.013822798 0.022078253
-0.030725079 0.002447606 0.03720416 0.023012921 0.01061353 0.016665392 0.013930456 -0.017550552
-0.0042321095 -0.029537199 -0.022928875 0.026446255 0.008915186 0.008631981 -0.0014032142 0.011082361
0.0023046713 0.013090114 -0.01121763 0.006297704 0.020342827 0.011639716 -0.040349364 -0.012693477
-0.013414061 0.013179353 0.018436586 0.019767933 0.0053125992 -0.03673619 0.02446184 0.016910462
-0.0141402725 0.030490065 0.043212816 0.009219798 0.04381107 0.010053719 -0.015579014 0.005950877
00000000: d223 283d 1bdf 243d adee 0bbc aa96 e23c
00000010: 70ae a33c 06dc c4bb 07f0 5e3d 4b78 caba
00000020: 3544 9f3c 99af 973c 2de7 ee3c 3a87 ef3b
00000030: 59cd ce3c 703a 0b3c cc83 2a3c 47d5 d2bb
00000040: 41e1 933c 0f51 5e3c 4731 fd3c 4e84 c23c
00000050: fa7f 7dbc 1450 d1ba fc7c 333d db23 f2bb
00000060: 41d3 99bc add9 d83c 46ee db3c 7114 9c3c
00000070: cbc1 203d 223e 4e3c 2bc1 973c f626 0a3c
00000080: d3e6 f53c fe33 f73c c144 17bb 0e22 6bb9
00000090: a019 213d d0b9 dc3c ca9a 9b3b c832 823d
000000a0: 5e0e 433d 6ac1 bb3c 3dba f0bc aaec 103d
000000b0: f6b9 0b3c 4304 e8bb e5eb 683c 1cf0 c8bb
000000c0: 772e 32bc 2760 873b 32ca ba3c 6d51 093d
000000d0: 0d66 05bc 20c3 af3a 38d2 a53c 998c 233d
000000e0: afa9 ef3c f310 813c 51ea 1b3c 57e2 163c
000000f0: 78c6 1fba aa18 323c fabe c63c 4ab8 6c3c
00000100: 6924 893c 294c fb3c 2acf c73c 215c 1f3d
00000110: 9f1c 873c 9e8c b53c 82c3 fb3c 9968 8b3c
00000120: cb2a c63a d5df 9d3c 4a23 3cbc 7788 a3bc
00000130: 9e93 afbc f27f 683c 4f7a 093d eee8 fdbb
00000140: ec89 1cbc 541e 2f3d e8d1 e7bc 4d1e 2b3d
00000150: 1fed 283d 4609 edbc 0479 62bc 74dd b43c
00000160: 29b3 fbbc 0468 203b 6463 183d 9885 bc3c
00000170: 5fe4 2d3c dc85 883c 913c 643c 2dc6 8fbc
00000180: 82ad 8abb fff7 f1bc 56d5 bbbc d1a5 d83c
00000190: 0011 123c 276d 0d3c 0eec b7ba cb92 353c
000001a0: f809 173b eb77 563c 26ca 37bc f85c ce3b
000001b0: 00a6 a63c 82b4 3e3c 6045 25bd 4df8 4fbc
000001c0: a6c6 5bbc 37ee 573c 5308 973c 5cf0 a13c
000001d0: 5015 ae3b b078 16bd 3264 c83c cf87 8a3c
000001e0: 9aac 67bc 4dc6 f93c ecff 303d a30e 173c
000001f0: 3d73 333d 5bb8 243c 1f3f 7fbc 93ff c23b

network_body._body_endoder.seq_layers.0.weight f4 [128, 128]
-0.105620064 -0.033024713 -0.008381714 -0.15666056 -0.020520108 -0.10011431 -0.09831198 0.10986604
0.07143357 0.033882808 0.093122795 0.08379586 -0.044091176 -0.09598764 0.024985908 0.11003006
-0.04199735 0.1214771 0.21274503 0.1356144 -0.048196252 0.13109334 -0.086246535 -0.047397453
0.016992195 -0.027737573 -0.03129486 -0.17963178 -0.23624036 -0.0018092992 -0.07647307 0.009439436
-0.048947684 0.056731984 -0.023627808 -0.102024525 0.023440178 -0.09671716 -0.21922204 -0.15450566
-0.0066537797 0.07490151 -0.028610583 0.24962704 0.06501206 0.065637454 0.08834111 -0.017136399
-0.016597113 0.008660009 0.10778404 -0.037847247 -0.045927558 -0.067030504 0.0661043 0.02436991
0.122086994 -0.18647256 0.031993378 0.099587165 0.075365074 0.13970275 0.026010646 -0.057137214
-0.016067358 0.116981514 0.02534893 0.12360278 0.075242646 0.08988921 0.16930212 0.010678456
-0.047736615 -0.05391754 -0.17832375 -0.09530979 -0.07680466 -0.036770973 0.026988659 0.028679974
-0.02020383 0.055083346 0.08552801 0.037675887 0.06426471 -0.19078012 -0.14593278 0.19783987
0.018365124 -0.07659844 -0.004907654 -0.10798344 0.026329074 0.12686405 -0.09528982 0.11458338
0.07405929 0.12514794 0.13748316 0.031104045 -0.01846064 -0.079124555 0.055005554 -0.1209179
0.018585479 0.1858929 -0.13892578 -0.021122469 -0.05480561 0.1158904 -0.06778848 0.048775356
0.013263331 0.122050464 -0.01633766 -0.13603197 0.01613774 0.14382638 0.051824957 0.11655686
-0.119203895 -0.028753022 -0.01539667 0.14597267 -0.01278931 -0.106847756 -0.05429664 -0.018945694
0.095952705 0.06550622 0.034810096 0.1846051 -0.031531677 0.10224321 0.019961093 -0.049855504
0.07199256 -0.04795928 0.029023359 0.04698333 0.099818386 0.016634472 -0.0074933656 -0.012516077
0.056213133 0.003917222 -0.025725728 0.13646048 0.08861357 0.016840495 -0.08167353 0.04812961
-0.013959962 0.034395944 0.0775361 0.11839668 0.06935386 0.023601761 -0.15728194 0.022075556
0.19446747 0.14394046 0.0016290519 -0.04441403 0.24449733 0.15438236 0.116846494 0.0056886715
0.15066417 -0.25397006 0.07725044 -0.05778554 0.0032820285 -0.07197745 0.16167134 -0.06603847
0.053441484 0.10540143 0.04533893 0.11492829 0.012861989 -0.01941508 0.1366246 0.026382254
0.09580815 0.14138338 -0.004614934 0.109189495 -0.05396938 -0.16647106 0.06460299 -0.05092697
0.08062025 0.1746186 0.029873706 -0.18422118 0.10213732 -0.07814523 0.058075234 -0.053254914
0.11282281 -0.08461045 -0.07002151 -0.12588757 -0.10466187 0.015147145 -0.0934166 -0.07153452
0.1359314 -0.10776305 0.11047175 -0.0048623397 0.1934592 -0.13438451 -0.13598865 0.0406903
-0.11009785 -0.067112066 0.08565001 -0.0044084964 -0.019233802 0.044210978 0.016208598 0.1541448
0.07069857 -0.0325334 -0.034621384 -0.01789382 -0.07285434 0.06823344 0.07356435 -0.039886754
0.103891656 0.061800297 -0.13351072 -0.0799341 0.10515878 -0.0053017857 -0.05643127 0.12513855
-0.042798292 0.1389392 0.087845676 0.1779896 0.17523515 -0.13725638 0.24120243 -0.050615937
0.11027607 0.111213244 0.024464056 0.08572912 0.09366159 -0.05451742 0.071697764 -0.0059406403
00000000: 554f d8bd ec44 07bd 7553 09bc a06b 20be
00000010: c919 a8bc bb08 cdbd cb57 c9bd 7201 e13d
00000020: c34b 923d b3c8 0a3d 2ab7 be3d 2a9d ab3d
00000030: f398 34bd 2b95 c4bd 3faf cc3c 7157 e13d
00000040: 6a05 2cbd fcc8 f83d d5d9 593e 80de 0a3e
00000050: 6f69 45bd 553d 063e 06a2 b0bd d523 42bd
00000060: 3733 8b3c e839 e3bc 0a2f 00bd 65f1 37be
00000070: fee8 71be 0226 edba ea9d 9cbd dda7 1a3c
00000080: 5e7d 48bd cc5f 683d 1b8f c1bc 3cf2 d0bd
00000090: 9e05 c03c a513 c6bd be7b 60be bb36 1ebe
000000a0: f307 dabb f665 993d be60 eabc 3b9e 7f3e
000000b0: 0b25 853d ee6c 863d 2fec b43d a261 8cbc
000000c0: abf6 87bc b6e2 0d3c e1bd dc3d b705 1bbd
000000d0: 891e 3cbd 4a47 89bd b161 873d 68a3 c73c
000000e0: bf08 fa3d aaf2 3ebe 7d0b 033d 5bf4 cb3d
000000f0: 0159 9a3d 3d0e 0f3e 4714 d53c b608 6abd
00000100: b19f 83bc 0194 ef3d 8fa8 cf3c 7423 fd3d
00000110: d118 9a3d d617 b83d 895d 2d3e b1f4 2e3c
00000120: 7887 43bd a3d8 5cbd 809a 36be c731 c3bd
00000130: c34b 9dbd 299d 16bd 5217 dd3c 44f2 ea3c
00000140: 8182 a5bc 139f 613d 4f29 af3d 0852 1a3d
00000150: 379d 833d dd5b 43be 676f 15be 8996 4a3e
00000160: 7572 963c a5df 9cbd 63d0 a0bb 6c26 ddbd
00000170: 12b0 d73c a6e8 013e 4f27 c3bd b1aa ea3d
00000180: 66ac 973d c826 003e 63c8 0c3e e9cd fe3c
00000190: c53a 97bc 0e0c a2bd 814d 613d cea3 f7bd
000001a0: 9340 983c b55a 3e3e 8f42 0ebe 0709 adbc
000001b0: d97b 60bd f257 ed3d b0d4 8abd abc8 473d
000001c0: 714e 593c 98f5 f93d 8ed6 85bc f74b 0bbe
000001d0: 4b33 843c 3947 133e 6846 543d 5db5 ee3d
000001e0: 2c21 f4bd 758b ebbc 5142 7cbc dc79 153e
000001f0: 418a 51bc ffd2 dabd 2766 5ebd 0034 9bbc
00000200: da82 c43d 2028 863d 0895 0e3d 1f09 3d3e
00000210: 5c27 01bd e364 d13d 7285 a33c 4935 4cbd
00000220: d670 933d f370 44bd 65c2 ed3c 9871 403d
00000230: 956d cc3d 0445 883c e88a f5bb 3b10 4dbc
00000240: be3f 663d 0a5c 803b c3be d2bc 4cbc 0b3e
00000250: 087b b53d 14f5 893c 7444 a7bd 8e23 453d
00000260: 53b8 64bc c3e2 0c3d 3fcb 9e3d f579 f23d
00000270: 6609 8e3d 7b58 c13c 840e 21be ccd7 b43c
00000280: 7b22 473e 2165 133e e985 d53a 7ceb 35bd
00000290: 825d 7a3e 6916 1e3e 374d ef3d 0968 ba3b
000002a0: b547 1a3e 5d08 82be 7b35 9e3d 88b0 6cbd
000002b0: 4d17 573b ea68 93bd 2c8d 253e 2d3f 87bd
000002c0: 75e5 5a3d b4dc d73d 50b5 393d 865f eb3d
000002d0: 18bb 523c 600c 9fbc 52e7 0b3e 991f d83c
000002e0: 1037 c43d cec6 103e df38 97bb be9e df3d
000002f0: ff0e 5dbd 6477 2abe 934e 843d cc98 50bd
00000300: 3b1c a53d 38cf 323e b4b9 f43c 7aa4 3cbe
00000310: 5f2d d13d 9b0a a0bd 4ce0 6d3d d321 5abd
00000320: a50f e73d 3e48 adbd 7067 8fbd ace8 00be
00000330: f658 d6bd bb2b 783c 3451 bfbd b180 92bd
00000340: 9a31 0b3e e0b2 dcbd 033f e23d 4354 9fbb
00000350: 2b1a 463e 189c 09be 9c40 0bbe dfaa 263d
00000360: fb7a e1bd 0d72 89bd 4669 af3d 2675 90bb
00000370: 3590 9dbc 9216 353d e5c7 843c 22d8 1d3e
00000380: 69ca 903d be41 05bd 27cf 0dbd 0f96 92bc
00000390: a834 95bd f9bd 8b3d e8a8 963d 4b60 23bd
000003a0: 26c5 d43d 4f22 7d3d 09b7 08be 7db4 a3bd
000003b0: 7d5d d73d 9aba adbb 7a24 67bd 5224 003e
000003c0: 434d 2fbd 1446 0e3e 6fe8 b33d e842 363e
000003d0: d870 333e f08c 0cbe c5fd 763e a852 4fbd
000003e0: 6cd8 e13d c5c3 e33d d868 c83c c092 af3d
000003f0: a6d1 bf3d a84d 5fbd 47d6 923d b4a9 c2bb

network_body._body_endoder.seq_layers.0.bias f4 [128]
0.011283994 0.031879477 0.034454543 0.0198959 0.019149518 0.0134278 0.014549285 0.0076952404
0.032328222 0.014045497 0.012171369 0.0103885885 0.019816613 0.034210347 0.013738291 0.00472859
0.017907055 0.032598566 0.010672813 0.0100990515 0.018514857 0.02067852 0.012530518 0.025451466
0.008376823 0.020571489 0.011512976 0.018572275 0.014150036 0.017397197 0.0115554035 0.02228553
0.016396008 0.015583896 0.00921068 0.018970784 0.016499383 0.022064663 0.025779497 0.023018688
-0.00035769359 0.009274245 0.01912685 0.0023408895 0.006253305 0.008901645 0.014569873 0.011746055
0.009214237 0.023659864 0.010783614 0.056574818 0.018756645 0.017881326 0.03372425 0.0126569895
0.013029828 0.006817113 0.013126583 0.011914366 0.005319997 0.029132135 0.01616255 0.025289338
0.0153619 0.017780114 0.010865595 0.02075142 0.009847598 0.029666964 -0.0033418706 0.0028246362
0.013303151 -0.011600821 0.0054996135 0.03122468 -0.0017791928 0.008656422 0.016083838 0.012382521
-0.022403592 -0.0014756224 0.015593957 -0.014130068 0.029062014 0.022788072 0.015784742 0.022367097
0.021700673 0.01733556 0.0053286855 0.02869771 0.033648748 0.014241495 -0.033936944 0.009033643
0.0080807395 -0.007831687 0.031492792 0.009330204 0.023175351 0.028240858 0.019951334 0.01628792
0.03045727 0.009239213 0.021516664 0.026097933 0.007668836 0.0056119133 -0.017462905 0.019636545
-0.010200513 0.021375747 0.03477929 0.03321702 0.018501945 0.012603045 0.012394384 0.019542258
0.030311683 0.0062921294 0.03171554 0.02923777 0.013975826 0.019994626 -0.0013867187 0.015116238
00000000: 80e0 383c 0e94 023d 3520 0d3d bafc a23c
00000010: 73df 9c3c 4600 5c3c 2060 6e3c 5b28 fc3b
00000020: 996a 043d 161f 663c 6c6a 473c e634 2a3c
00000030: 7356 a23c 2620 0c3d 9216 613c 4af2 9a3b
00000040: d1b1 923c 1386 053d 06dd 2e3c 7e76 253c
00000050: 78ac 973c 0066 a93c cd4c 4d3c 987f d03c
00000060: f13e 093c 8a85 a83c eca0 3c3c e224 983c
00000070: 8dd5 673c 9184 8e3c e052 3d3c 2590 b63c
00000080: ec50 863c 9953 7f3c 64e8 163c 9e68 9b3c
00000090: b729 873c f4c0 b43c 862f d33c b091 bc3c
000000a0: d288 bbb9 01f3 173c e9af 9c3c 9c69 193b
000000b0: 86e8 cc3b 35d8 113c 7ab6 6e3c 8772 403c
000000c0: 50f7 163c 55d2 c13c c1ad 303c ffba 673d
000000d0: 89a7 993c dc7b 923c 7022 0a3d 435f 4f3c
000000e0: 0f7b 553c 1762 df3b e110 573c 7934 433c
000000f0: 5f53 ae3b 84a6 ee3c 5367 843c 962b cf3c
00000100: 7bb0 7b3c 9aa7 913c 9c05 323c e2fe a93c
00000110: d257 213c 2208 f33c 4903 5bbb 881d 393b
00000120: 76f5 593c 5f11 3ebc 1a36 b43b e6ca ff3c
00000130: ce33 e9ba aad3 0d3c 41c2 833c 0fe0 4a3c
00000140: bd87 b7bc ac69 c1ba cc7d 7f3c cd81 67bc
00000150: 7613 ee3c 0dae ba3c 014f 813c 343b b73c
00000160: 9cc5 b13c 4e03 8e3c 419c ae3b 7617 eb3c
00000170: 45d3 093d 2955 693c 7701 0bbd d801 143c
00000180: 1465 043c 7a50 00bc 96fe 003d b6dd 183c
00000190: 3cda bd3c 5f59 e73c fb70 a33c 3e6e 853c
000001a0: 8681 f93c 1160 173c b743 b03c 55cb d53c
000001b0: dc4a fb3b 24e4 b73b 5e0e 8fbc d2dc a03c
000001c0: 0d20 27bc 311c af3c bb74 0e3d 920e 083d
000001d0: 6491 973c 017d 4e3c d011 4b3c 1617 a03c
000001e0: 3550 f83c 352e ce3b 27e8 013d 0c84 ef3c
000001f0: ddfa 643c c5cb a33c 8fc2 b5ba 19aa 773c

network_body._body_endoder.seq_layers.2.weight f4 [128, 128]
-0.040261686 0.04260623 0.09463757 0.004719955 0.26553753 -0.01302287 0.06540442 0.041546643
-0.11401985 -0.027003877 0.017339624 0.08839818 0.054537755 0.17112122 0.13764843 0.042895682
0.020052578 0.12190852 -0.106229655 0.1833708 -0.083220154 -0.03949998 0.022915937 -0.021892238
-0.13084401 -0.013469835 0.05148398 -0.14759529 -0.02013628 -0.14893553 -0.11449547 -0.096558854
0.0622218 -0.086899325 -0.117946394 -0.07050243 0.08148043 0.17871393 0.01867625 0.14324577
0.02578078 -0.022990616 -0.069970116 0.093290366 0.09858564 -0.09434636 -0.028582506 -0.17672247
-0.156016 0.13365926 0.16883226 0.0779435 0.10218761 0.12950367 -0.067803316 0.009593594
-0.041471686 -0.2580201 0.043857537 0.015934369 0.062336475 0.031787418 0.03568491 -0.0104821585
-0.13742144 0.048984453 0.003344501 -0.076242715 0.045253564 0.02896902 -0.02546128 -0.035915975
-0.047283158 -0.076392524 -0.23670536 0.07956361 0.005670958 -0.1456424 0.010706575 0.09880476
-0.1923703 -0.0072322097 0.065147094 -0.046732634 0.00094801537 0.05997144 -0.15011911 0.050040934
0.08344314 -0.07832641 0.0857919 0.049601477 0.11614586 -0.030983929 -0.051920895 0.054407213
-0.022146735 0.035571713 -0.15202022 0.11092421 0.13620822 0.08592842 -0.091319785 0.01342387
0.027625892 0.022341335 -0.040724214 0.056831177 0.040712744 -0.002861761 0.016161771 0.009006637
0.04614818 -0.06228035 0.09012124 -0.145938 -0.09126119 -0.0730016 -0.0782103 -0.03253097
-0.0129401935 0.14120331 0.12554684 -0.07184715 -0.06693461 -0.09271698 -0.14294292 -0.019633655
0.018324858 0.07903343 0.12557268 -0.03141971 -0.14989065 -0.03199872 0.05410622 0.083389334
0.24530964 0.035649974 -0.092424415 -0.1577191 0.032608565 0.04322948 0.071696185 -0.03483973
0.11556473 -0.100517996 -0.15077206 0.047033302 -0.111781225 -0.069401585 0.18400042 0.008139149
-0.08470744 0.014728226 0.09476056 0.03454953 -0.0052437885 -0.03542524 -0.08985295 0.13796367
-0.15842126 0.09365012 0.007377699 -0.046026044 0.07894823 0.12548357 0.1536242 -0.19982302
-0.04616039 0.04453989 -0.20248204 0.1754133 0.05945826 -0.22739014 -0.005073721 -0.14905623
0.04889064 0.06969141 -0.020046795 -0.14801243 0.013497971 -0.15912196 0.08018851 0.23159711
0.062750965 0.047811374 0.1088412 0.11129276 -0.025625898 0.05252511 -0.09358165 -0.017183188
-0.06446764 0.025270622 0.12302419 -0.025464315 0.15528224 0.06449094 -0.16489232 0.061016746
-0.06727541 -0.0014202492 -0.049513124 0.067772314 -0.086042404 -0.039453197 -0.16967398 -0.04136081
-0.060024336 0.016673828 -0.09051233 -0.040360734 0.03827957 0.22686896 0.017587459 0.09029063
-0.03195033 -0.02665233 0.1028542 0.10258274 0.0109978765 -0.13432613 -0.17830732 0.07790978
0.08533302 -0.14061317 -0.020033818 -0.12827444 0.08461316 -0.101321496 -0.16673754 0.16088623
-0.11861196 -0.07789607 0.08160823 -0.04727237 0.08243361 -0.08496749 0.08127153 0.030065486
-0.007708648 -0.03676223 0.03467769 -0.044822738 0.039452713 0.28050804 -0.17145956 -0.02317225
-0.039580587 0.067513235 -0.0713453 -0.075072005 0.022417583 -0.09690405 0.20145267 -0.005304139
00000000: 70e9 24bd df83 2e3d 58d1 c13d daa9 9a3b
00000010: 89f4 873e e05d 55bc c1f2 853d d02c 2a3d
00000020: 3d83 e9bd 3c37 ddbc d40b 8e3c 1b0a b53d
00000030: fb62 5f3d 673a 2f3e b6f3 0c3e 62b3 2f3d
00000040: 4e45 a43c 2dab f93d ef8e d9bd 8ec5 3b3e
00000050: 546f aabd bbca 21bd 34ba bb3c 5a57 b3bc
00000060: f9fb 05be 95b0 5cbc dee0 523d 3823 17be
00000070: d7f4 a4bc 8e82 18be 9a7c eabd a6c0 c5bd
00000080: 49dc 7e3d 46f8 b1bd e18d f1bd 9463 90bd
00000090: 36df a63d c900 373e effe 983c 05af 123e
000000a0: 3732 d33c d156 bcbc 7e4c 8fbd 050f bf3d
000000b0: 45e7 c93d aa38 c1bd dc25 eabc bcf6 34be
000000c0: a9c2 1fbe f9dd 083e 5de2 2c3e d7a0 9f3d
000000d0: bd47 d13d 9c9c 043e 77dc 8abd 732e 1d3c
000000e0: 37de 29bd 361b 84be f6a3 333d cb88 823c
000000f0: 8854 7f3d 8633 023d 572a 123d 5cbd 2bbc
00000100: 35b8 0cbe eca3 483d 6a2f 5b3b 2425 9cbd
00000110: cd5b 393d 7050 ed3c 2d94 d0bc a11c 13bd
00000120: fcab 41bd af73 9cbd e462 72be 3ff2 a23d
00000130: 72d3 b93b 4823 15be a16a 2f3c 265a ca3d
00000140: b8fc 44be 2cfc ecbb d76b 853d b86a 3fbd
00000150: 3c84 783a 9da4 753d d3b8 19be b9f7 4c3d
00000160: 3de4 aa3d 9969 a0bd aab3 af3d eb2a 4b3d
00000170: e1dd ed3d 02d2 fdbc 01ab 54bd 19da 5e3d
00000180: 126d b5bc a5b3 113d 30ab 1bbe 3b2c e33d
00000190: 2b7a 0b3e 3dfb af3d de05 bbbd cbef 5b3c
000001a0: b24f e23c 2d05 b73c 6fce 26bd cfc7 683d
000001b0: 68c2 263d 628c 3bbb b165 843c 9390 133c
000001c0: e005 3d3d ae19 7fbd 7c91 b83d c570 15be
000001d0: 26e7 babd dd81 95bd b92c a0bd 323f 05bd
000001e0: 1b03 54bc 9a97 103e 5a8f 003e 9924 93bd
000001f0: 0315 89bd 66e2 bdbd a15f 12be c2d6 a0bc
00000200: 031e 963c 47dc a13d 2096 003e f4b1 00bd
00000210: ef7c 19be 1711 03bd 7c9e 5d3d 07c8 aa3d
00000220: 7332 7b3e b505 123d 0349 bdbd 1e81 21be
00000230: 8f90 053d 6511 313d 73d5 923d 1bb4 0ebd
00000240: 33ad ec3d 61dc cdbd fe63 1abe fea5 403d
00000250: 8eed e4bd 6b22 8ebd 9b6a 3c3e 115a 053c
00000260: 187b adbd a84e 713c d311 c23d cf83 0d3d
00000270: 16d4 abbb 0e1a 11bd d304 b8bd 5946 0d3e
00000280: 2f39 22be a2cb bf3d a0c0 f13b ce85 3cbd
00000290: 9caf a13d c47e 003e aa4f 1d3e 689e 4cbe
000002a0: ad12 3dbd 766f 363d 7457 4fbe 8b9f 333e
000002b0: 818a 733d f6d8 68be 7541 a6bb 32a2 18be
000002c0: 8d41 483d 5fba 8e3d 2d39 a4bc 9290 17be
000002d0: 9826 5d3c def0 22be e039 a43d cb27 6d3e
000002e0: 9483 803d dcd5 433d 23e8 de3d 75ed e33d
000002f0: 67ed d1bc 9224 573d bca7 bfbd c2c3 8cbc
00000300: 9c07 84bd 5604 cf3c 1bf4 fb3d 8a9a d0bc
00000310: 4f02 1f3e d313 843d 88d9 28be b2ec 793d
00000320: b1c7 89bd a827 baba 46ce 4abd 36cc 8a3d
00000330: 0037 b0bd ad99 21bd 04bf 2dbe f469 29bd
00000340: 14dc 75bd 8d97 883c 875e b9bd 4c51 25bd
00000350: 0acb 1c3d 5650 683e 9313 903c 4bea b83d
00000360: 59de 02bd fd55 dabc 39a5 d23d e616 d23d
00000370: 7030 343c ca8c 09be 3296 36be 2a8f 9f3d
00000380: 14c3 ae3d e6fc 0fbe f61d a4bc 605a 03be
00000390: aa49 ad3d a581 cfbd 3fbd 2abe 5cbf 243e
000003a0: d4ea f2bd fa87 9fbd 3722 a73d aca0 41bd
000003b0: f4d2 a83d 6f03 aebd b071 a63d e54b f63c
000003c0: d498 fcbb fe93 16bd 320a 0e3d 0c98 37bd
000003d0: 2b99 213d c09e 8f3e 1893 2fbe bbd3 bdbc
000003e0: 411f 22bd 6144 8a3d 7c1d 92bd 5abf 99bd
000003f0: 14a5 b73c a175 c6bd 9c49 4e3e 58ce adbb

network_body._body_endoder.seq_layers.2.bias f4 [128]
0.025023567 0.017594974 0.01760751 0.012720282 0.030824518 0.029996675 -0.007941409 0.0009894932
0.002709583 0.034067307 -0.009060224 0.009798466 -0.0040783905 0.028084021 0.010576121 -0.0030152155
-0.008734441 0.019587053 0.020250943 0.023893721 -0.0016397855 0.02684627 0.0065679075 0.009543697
0.0023461378 -0.00219939 -0.0049802894 0.02732929 0.018450264 0.013900057 0.024225052 0.013514821
0.006739106 0.01430331 0.02025044 0.014583873 -0.0018917369 0.019522715 0.009911832 0.031756002
-0.0057052122 -0.005173399 0.016867436 0.018999955 0.021113161 0.015329278 0.014269762 0.013068839
0.016589243 -0.009728964 0.03488747 0.023264578 -0.0044074 0.003613827 0.0029664538 -0.0015911633
-0.0069863517 -0.01162515 0.017412454 0.0068133953 0.015926577 0.013021241 0.010846635 0.014174865
0.015329334 -0.0020023729 0.02160254 0.0091876285 0.0036325904 0.008285935 0.029666722 0.01033636
-0.021288909 0.013480206 0.011298424 0.021907475 0.005665351 0.009758439 0.01590827 0.010079143
0.03942591 -0.00059799483 0.014743962 0.005613459 0.012717025 0.014346422 -0.0039574495 0.004894138
0.02773343 0.022444025 0.028832449 0.0011519984 0.016103515 -0.0138774365 0.006206977 0.007614798
-0.0055764727 0.012484313 0.021620173 0.021345831 0.042121094 0.034545973 0.015322879 0.023601476
0.020596692 0.013988009 0.0028245314 0.011007617 0.014948076 0.0026393624 0.02358704 0.014133565
0.018469825 0.013944751 0.009367174 0.023611138 0.02248091 -0.01142906 -0.010804241 0.036868192
0.015716271 0.005942306 0.016153738 0.031113885 0.012481257 0.0075086583 0.030628866 0.030105727
00000000: 39fe cc3c 5623 903c a03d 903c bb68 503c
00000010: b383 fc3c 96bb f53c af1c 02bc e2b1 813a
00000020: 4293 313b 298a 0b3d 5571 14bc bf89 203c
00000030: 05a4 85bb 7610 e63c 7747 2d3c ec9a 45bb
00000040: e71a 0fbc 0775 a03c 4ee5 a53c c4bc c33c
00000050: 12ee d6ba b5ec db3c 9a37 d73b 2b5d 1c3c
00000060: a9c1 193b a423 10bb b231 a3bb ade1 df3c
00000070: 0225 973c 11bd 633c 9e73 c63c 456d 5d3c
00000080: b8d3 dc3b 6e58 6a3c 40e4 a53c 32f1 6e3c
00000090: 28f4 f7ba 1aee 9f3c 3d65 223c 9512 023d
000000a0: caf2 babb 9e85 a9bb 942d 8a3c cba5 9b3c
000000b0: 82f5 ac3c a727 7b3c b8cb 693c af1e 563c
000000c0: 2ae6 873c 3c66 1fbc 2ae6 0e3d 5b95 be3c
000000d0: f36b 90bb f5d5 6c3b d668 423b 958e d0ba
000000e0: c4ed e4bb 6a77 3ebc 90a4 8e3c e742 df3b
000000f0: 7478 823c 0b57 553c 16b6 313c b13d 683c
00000100: e327 7b3c 3e3a 03bb cff7 b03c b587 163c
00000110: c110 6e3b bbc1 073c a007 f33c d659 293c
00000120: 1466 aebc 15dc 5c3c 061d 393c 4e77 b33c
00000130: 69a4 b93b dce1 1f3c 0f52 823c fd22 253c
00000140: 107d 213d c1c2 1cba a990 713c 1bf1 b73b
00000150: 125b 503c 410d 6b3c 7ead 81bb 015f a03b
00000160: 3831 e33c 88dc b73c 0732 ec3c a7fe 963a
00000170: 85eb 833c 305e 63bc e663 cb3b 8e85 f93b
00000180: d8ba b6bb 018b 4c3c ca1c b13c 74dd ae3c
00000190: 2b87 2c3d 1480 0d3d d00c 7b3c e257 c13c
000001a0: 65ba a83c f62d 653c c61b 393b 4b59 343c
000001b0: c6e8 743c 27f9 2c3b 9c39 c13c 7890 673c
000001c0: 084e 973c 8678 643c c678 193c 256c c13c
000001d0: e329 b83c f440 3bbc 4504 31bc 1a03 173d
000001e0: 69bf 803c adb7 c23b d854 843c 8ce2 fe3c
000001f0: 307e 4c3c 310b f63b 63e9 fa3c 49a0 f63c

action_model._discrete_distribution.branches.0.weight f4 [5, 128]
-0.06656631 -0.05099343 -0.046069574 -0.026829919 -0.026779503 -0.065494 -0.03284197 -0.028178575
-0.006100051 -0.0317445 -0.00020693938 -0.041002877 0.05637868 -0.05352915 0.042134203 0.018838115
0.025320793 -0.06928372 -0.07459175 -0.044236973 -0.028157236 -0.073125154 -0.029258313 -0.040367432
-0.009439326 0.07150106 -0.014757679 -0.0668944 -0.055503692 -0.052540347 -0.06649199 0.044670448
-0.024685787 -0.054832578 -0.020296913 0.038579915 -0.008999602 -0.034216985 -0.03270742 -0.070076816
-0.02735425 -0.0031003873 -0.058878403 -0.06562382 -0.014290695 -0.060546752 -0.043255135 -0.024615826
-0.013136051 -0.011859314 -0.043738123 -0.051748294 -0.00025364134 -0.037800726 -0.027538171 -0.023376346
-0.010215435 -0.030013526 -0.04102646 -0.03613169 -0.04992673 0.066764735 -0.00516135 0.049136154
0.008734698 0.020073455 -0.023652434 -0.053219866 -0.03219552 -0.014204146 -0.03683627 -0.029201264
0.0176364 -0.012924837 -0.047998905 -0.006623295 -0.03877141 0.07837066 0.036333155 0.008270768
-0.040216394 -0.03564255 -0.034120258 -0.03797923 -0.040840827 -0.054048516 0.01579231 -0.027202493
-0.025304351 -0.04622888 -0.01563263 -0.016350282 -0.046362672 0.00365802 -0.011621062 -0.043249846
-0.0007483052 -0.05732108 -0.07394721 0.00044748615 -0.040695302 -0.07586089 -0.018943721 -0.038712215
-0.0053220415 -0.036568124 -0.0075560324 -0.048953842 -0.04340527 0.014170184 -0.032876372 -0.07309643
-0.049116116 -0.029756844 -0.01014912 -0.06656151 -0.024136744 0.061107107 -0.02451883 -0.06415602
-0.0688156 -0.03336729 -0.012278764 -0.056655034 -0.038944017 -0.04095214 -0.054813575 -0.063610755
0.039388612 -0.011634817 0.023265602 -0.08807944 0.014770629 0.019878404 -0.04083787 -0.11591571
-0.0019957968 0.018548962 -0.09287075 0.028704388 -0.026880652 0.016058138 -0.035021234 -0.025940517
-0.10234753 0.029277353 0.016303431 0.0330833 0.0050061215 0.020744298 0.030639483 0.0018103936
0.031375505 -0.034832437 -0.018540245 -0.0007706429 0.045970127 -0.0034958336 -0.00257899 -0.060114652
0.028112525 -0.013095698 0.002250802 -0.023481356 -0.011746882 -0.18037696 0.032184232 0.023562673
0.02285684 -0.17217067 0.043658357 0.017026907 -0.11796381 0.006756008 -0.009501833 0.04343961
-0.001827126 -0.11079214 0.01495119 0.038870014 0.012844354 -0.09736624 0.019044576 0.01038208
-0.14362438 -0.009150448 -0.008306349 -0.0104370415 0.039755557 -0.018604698 0.019816678 -0.01814267
0.013446026 -0.07701104 -0.017717691 -0.023512218 -0.04145656 -0.010975009 0.0053060018 0.039229322
-0.07513526 0.018892733 -0.011084157 -0.04125922 -0.011768838 -0.036263224 0.029894656 0.010894157
0.017962243 0.037723113 0.0074626603 -0.033595916 0.040864695 0.004599794 -0.17855768 0.051950302
0.005629247 -0.013754752 0.050629947 -0.061676238 -0.011253596 -0.04059842 -0.16460589 0.025797877
-0.17326464 0.028512528 0.030804368 0.0036721497 0.010403694 0.02601704 0.011442721 0.0070379153
0.035766013 -0.04020127 -0.15609358 0.027593503 0.02941369 -0.0071689268 0.038354225 0.029975725
-0.003201651 0.036949277 -0.08935488 0.05240421 0.04316061 -0.034090485 0.0005259795 0.024341324
-0.00042247097 -0.008716955 0.023003465 -0.049855586 0.012142621 0.035889626 0.015132576 0.027217135
00000000: eb53 88bd 7dde 50bd 73b3 3cbd 6bca dbbc
00000010: b060 dbbc b821 86bd 4d85 06bd c1d6 e6bc
00000020: f0e2 c7bb 8506 02bd defd 58b9 a2f2 27bd
00000030: 55ed 663d 6241 5bbd ea94 2c3d 6452 9a3c
00000040: 8d6d cf3c 9fe4 8dbd 8fc3 98bd d431 35bd
00000050: 01aa e6bc a4c2 95bd 21af efbc 5258 25bd
00000060: 67a7 1abc 266f 923d 31ca 71bc eeff 88bd
00000070: d757 63bd 8c34 57bd f42c 88bd 5cf8 363d
00000080: d939 cabc 2098 60bd b645 a6bc f905 1e3d
00000090: 1173 13bc 1c27 0cbd 37f8 05bd 6f84 8fbd
000000a0: 0516 e0bc de2f 4bbb 7b2a 71bd c865 86bd
000000b0: 8523 6abc dfff 77bd 4c2c 31bd 21a7 c9bc
000000c0: 9738 57bc 914d 42bc bf26 33bd 05f6 53bd
000000d0: 2afb 84b9 efd4 1abd bb97 e1bc c07f bfbc
000000e0: a45e 27bc edde f5bc 5c0b 28bd d3fe 13bd
000000f0: f97f 4cbd f3bb 883d 8b20 a9bb fe42 493d
00000100: fb1b 0f3c 1671 a43c c0c2 c1bc 13fd 59bd
00000110: 73df 03bd 82b8 68bc a1e1 16bd 7d37 efbc
00000120: 367a 903c b2c2 53bc 809a 44bd 3a08 d9bb
00000130: c5ce 1ebd cc80 a03d 13d2 143d 1e82 073c
00000140: f2b9 24bd ecfd 11bd afc1 0bbd 1c90 1bbd
00000150: b648 27bd fa61 5dbd e05e 813c c3d7 debc
00000160: 124b cfbc 7e5a 3dbd 0010 80bc 07f1 85bc
00000170: c9e6 3dbd 64bb 6f3b 4466 3ebc c026 31bd
00000180: e929 44ba 82c9 6abd a371 97bd 939c ea39
00000190: 1eb0 26bd f45c 9bbd dd2f 9bbc b390 1ebd
000001a0: 8564 aebb 75c8 15bd 9898 f7bb d383 48bd
000001b0: b9c9 31bd 0f2a 683c 60a9 06bd 95b3 95bd
000001c0: fb2d 49bd a0c4 f3bc 7f48 26bc 6751 88bd
000001d0: 6cba c5bc 724b 7a3d b7db c8bc 3b64 83bd
000001e0: 31ef 8cbd 24ac 08bd de2c 49bc 1c0f 68bd
000001f0: c383 1fbd 6ebd 27bd 3384 60bd 5b46 82bd
00000200: f455 213d f69f 3ebc 8197 be3c fe62 b4bd
00000210: 8200 723c 09d8 a23c 9c45 27bd 3765 edbd
00000220: eacb 02bb fef3 973c 0533 bebd 7725 eb3c
00000230: d034 dcbc 5b8c 833c 6d72 0fbd 3581 d4bc
00000240: 959b d1bd 0fd7 ef3c c68e 853c 5b82 073d
00000250: 640a a43b f2ef a93c a7ff fa3c bb4a ed3a
00000260: 9a83 003d 75ac 0ebd b6e1 97bc f804 4aba
00000270: 2c4b 3c3d 5b1a 65bb 4604 29bb c83a 76bd
00000280: 3d4c e63c 578f 56bc 3182 133b f95b c0bc
00000290: ff75 40bc bdb4 38be 9dd3 033d 8206 c13c
000002a0: 453e bb3c 824d 30be 1bd3 323d 037c 8b3c
000002b0: 0397 f1bd 8161 dd3b 93ad 1bbc bced 313d
000002c0: 2d7c efba fde6 e2bd d6f5 743c 2a36 1f3d
000002d0: 2071 523c f467 c7bd 5f03 9c3c 9a19 2a3c
000002e0: 4512 13be c3eb 15bc 5a17 08bc 2000 2bbc
000002f0: b9d6 223d e168 98bc 9656 a23c f09f 94bc
00000300: b84c 5c3c f7b7 9dbd b124 91bc b29c c0bc
00000310: 5bce 29bd 86d0 33bc f8dd ad3b edae 203d
00000320: 84e0 99bd efc4 9a3c 539a 35bc 6eff 28bd
00000330: 16d2 40bc bf88 14bd a3e5 f43c 687d 323c
00000340: 8e25 933c 8d83 1a3d 5589 f43b df9b 09bd
00000350: bd61 273d deb9 963b d3d7 36be d7c9 543d
00000360: 8c75 b83b 9d5b 61bc 5961 4f3d 39a0 7cbd
00000370: 0161 38bc 874a 26bd 728e 28be 1256 d33c
00000380: 496c 31be 1b93 e93c 7159 fc3c 73a8 703b
00000390: 4174 2a3c b021 d53c 407a 3b3c 509e e63b
000003a0: 627f 123d 16aa 24bd ffd6 1fbe c50b e23c
000003b0: fbf4 f03c 51e9 eabb 5219 1d3d a78f f53c
000003c0: cad2 51bb 2058 173d b1ff b6bd cca5 563d
000003d0: 2ec9 303d 77a2 0bbd e3e1 093a 7567 c73c
000003e0: 187f ddb9 8fd1 0ebc c371 bc3c 5f35 4cbd
000003f0: d8f1 463c 0001 133d a0ee 773c 78f6 de3c

action_model._discrete_distribution.branches.0.bias f4 [5]
-0.049423378 0.014155279 0.013169456 -0.0013932755 -0.005906776
00000000: 2b70 4abd 8beb 673c b4c4 573c 919e b6ba
00000010: a18d c1bb
