results/JumpOver_v3/JumpOver/JumpOver-499979.onnx (onnx, 267763 bytes, 14 tensors)

network_body.observation_encoder.processors.0.conv_layers.0.weight f4 [16, 3, 8, 8]
000000 4e f6 7d bd b8 11 10 bc 48 a0 76 3d 40 4c 5c 3c
       -0.062002473 -0.008793287 0.06021145 0.013445914
000010 ee 7b c3 bc e4 1b ac bc e4 0e db 3c ac a5 79 3d
       -0.023862805 -0.021009393 0.026740499 0.060949013
000020 02 b3 93 3d ac 32 b7 3d 4c db 8c 3d d3 87 26 bd
       0.072118774 0.08945212 0.06877765 -0.040656876
000030 8c af 7a 3d df 08 85 bd 30 51 4d 3d 29 f5 01 bd
       0.06120257 -0.06495833 0.050126255 -0.031727944
000040 d0 f9 84 3c c4 0f 41 bd 0a 5d 97 3d 86 86 8e bd
       0.016232401 -0.047134176 0.07390793 -0.06959252
000050 72 f2 38 bd b0 26 92 3d 53 84 40 3d 07 d0 02 bd
       -0.04515309 0.07136285 0.047001194 -0.03193667
000060 44 3b 89 3d 24 19 48 bd 34 8c 47 bd e8 e1 7d 3c
       0.06700757 -0.0488521 -0.048717692 0.015495755
000070 00 da 56 3d de 7e d7 bc e8 95 64 bd 2e ac 80 bc
       0.052453995 -0.026305612 -0.055807024 -0.015707102
000080 74 0b 8b 3d e0 4d 34 3c 6e 32 80 3d 3d 26 8a bd
       0.06789294 0.011004895 0.06259619 -0.067455746
000090 c5 44 4e bd 6b 33 6c bd 10 a8 97 3c 00 ca 23 bd
       -0.050358552 -0.057666223 0.018512756 -0.039987564
0000a0 de fc 45 3d a2 dd 40 3c e9 ec fe 3c 99 03 8b bd
       0.048336856 0.011771591 0.031118827 -0.067877956
0000b0 5e 8a 71 bd 07 7b f5 3c d2 99 8c 3d 58 13 63 3c
       -0.058969848 0.02996589 0.068652764 0.013859592
0000c0 40 1b d2 3c ef 20 c9 3c 2e 7f d2 3c e0 d9 4c 3c
       0.02564776 0.024551837 0.02569541 0.012503117
0000d0 76 82 12 3d fb 33 96 3d 28 27 37 3d d9 41 28 bd
       0.03576895 0.07334133 0.044715077 -0.041078422
0000e0 0e 59 65 bd fe ec b9 bc d0 1a 74 bd c0 b4 45 bd
       -0.055993132 -0.022696014 -0.059595883 -0.04826808
0000f0 4a 8f 92 bc 64 0c 7d 3d e0 e5 33 3d c0 3a 28 bb
       -0.017890591 0.061779395 0.043920398 -0.0025669783
000100 de 28 63 3d ab c9 81 3c a6 b5 0e be eb db e3 3d
       0.055458896 0.015843233 -0.13936481 0.111259304
000110 ed 8e 9a bc e0 ee 31 be d2 2f 2e bd 3e 52 68 3d
       -0.01886698 -0.1737628 -0.042526074 0.056719057
000120 cc 9d 6d bd fb bc c3 3d 0d fe e1 3d 90 e5 98 3d
       -0.058011815 0.095575295 0.110347845 0.074656606
000130 40 78 e1 3d 12 82 96 3d 60 c6 d1 bc f0 69 da bd
       0.11009264 0.07349028 -0.025607288 -0.10664737
000140 21 e0 d2 3c eb 16 eb bc a2 eb da 3d fd b3 43 bd
       0.025741639 -0.028697452 0.10689475 -0.047779072
000150 3c 60 d8 3d e6 e2 84 bc 8a f2 80 3d 8d 19 10 3c
       0.1056523 -0.016221475 0.06296261 0.008795154
000160 0c 2c 30 3d e7 6d a1 3d 7d b0 c8 3c 4e b7 9a 3d
       0.043010756 0.0788229 0.024498219 0.07554494
000170 3c e0 97 bc 3c 90 16 bd 38 b9 91 bc e3 52 79 3d
       -0.01853954 -0.036758646 -0.017788514 0.060870063
000180 45 46 c3 3d 2a 59 29 bd 76 3b 57 bc a7 96 b2 bc
       0.09534887 -0.0413448 -0.013136735 -0.021800352
000190 5f cc 3a bd 14 44 62 3d d6 7c 7e 3d cb a8 8f 3b
       -0.04560506 0.055240706 0.06213077 0.0043841354
0001a0 0a 70 0f be 8f 93 42 3c 05 d4 56 bd 8d f2 ff bd
       -0.14007583 0.011876001 -0.05244829 -0.12497435
0001b0 e0 8a 30 bd 25 76 77 3d 8d 95 78 bd 07 3e 89 bd
       -0.04310119 0.060415406 -0.060689498 -0.06701284
0001c0 d6 ab 0d be 18 c3 17 3d 7e 8f f3 bd c4 8a 68 bd
       -0.13835081 0.03705129 -0.11892603 -0.056772962
0001d0 d9 48 38 be 7b cc a7 bd b9 bf b9 bd af c3 59 bd
       -0.17996539 -0.081932984 -0.09069771 -0.053165134
0001e0 be c1 18 3e 53 32 aa 3d 10 a3 a4 bd 0f c2 7b 3a
       0.14917657 0.0831038 -0.08038914 0.0009603807
0001f0 e5 3e 23 3d b3 d8 1a be 55 d2 16 be 3d 3b b2 3c
       0.039854903 -0.15121727 -0.14728673 0.021756763
000200 ce a6 3b bd b2 3e 76 bd f5 3a c5 3d e3 7f ac bb
       -0.045813374 -0.060118385 0.09630386 -0.0052642687
000210 a6 67 b2 39 70 ee 6a 3c fd ad ad 3d 67 9d 90 3b
       0.0003402803 0.0143390745 0.08480451 0.004413295
000220 b6 8c 51 bd c0 85 06 3d 58 7f d0 3c 9d a7 52 ba
       -0.051159583 0.032842398 0.025451347 -0.00080358406
000230 eb 9c 1e 3d 68 16 6f 3d 79 d2 24 3c 33 1a e9 3c
       0.038723867 0.058370978 0.010059946 0.028454876
000240 ff c5 95 3d b5 6d 6d 3d e6 fa 6a bd cd d7 91 3d
       0.073131554 0.057965953 -0.05736818 0.07121239
000250 26 c1 ce 3c 71 d7 03 3c 76 3c b2 3c 0a 12 45 bd
       0.025238585 0.008046971 0.021757346 -0.048112907
000260 7d 6c 42 3d 8a 33 4f 3d eb 1b 07 3c b0 05 9d bd
       0.047466744 0.05058626 0.008246402 -0.076671004
000270 47 e1 b7 3d 69 8b c0 bc da 7d 04 3c ea 74 8a 3d
       0.08978515 -0.023503976 0.008086646 0.06760581
000280 5b 48 7a 3d 67 20 6e bd d4 13 a3 3d b2 7f 3e 3d
       0.06110416 -0.05813637 0.07962766 0.0465085
000290 74 63 89 3d 15 d0 b2 3c 65 3d 97 bd a8 5e 9c bd
       0.06708422 0.021827737 -0.07384757 -0.07635242
0002a0 06 ca 21 3d fe ee 36 bd 2f 93 cf bc 9c 8b cc 3c
       0.039499305 -0.044661514 -0.025338737 0.024968915
0002b0 93 d1 73 3d cd 1c 2f bd 5d 8f a8 3c fa dd bb 3c
       0.059526037 -0.042752076 0.020576173 0.022932995
0002c0 82 ee 6b 3d 24 86 c2 bc 88 05 96 3c cb 75 23 bd
       0.057600506 -0.023745604 0.018313184 -0.039907258
0002d0 11 0d a5 3d 86 5d fd 3c 51 d8 9a bd 22 93 3b 3d
       0.08059133 0.030928385 -0.0756079 0.045794614
0002e0 4c dd fd bc f5 8d 1e 3d 19 a5 f5 3b 14 29 98 bc
       -0.030989312 0.0387096 0.007496488 -0.018574275
0002f0 e3 00 72 3d 07 4a 84 3d 2d 3d 20 bd 2d d2 0a 3d
       0.059082877 0.06459432 -0.03912084 0.033891845
000300 c4 2c 1c 3d 50 b9 55 bc 60 6f 8d 3b 40 6a b2 3c
       0.03812863 -0.01304467 0.0043162555 0.02177918
000310 78 d4 9f bc b0 a0 40 3c 1a 0e 80 bd 68 3f 03 3c
       -0.019510493 0.011757061 -0.0625269 0.008010723
000320 30 91 07 bc 94 0b 33 3d 75 cc ff 3b 36 08 4b bd
       -0.0082743615 0.043712214 0.0078063556 -0.049568377
000330 c8 e8 ee 3c e6 44 42 bd 53 8b 72 3d 60 ab 6c 3c
       0.029163733 -0.047428988 0.0592149 0.014445156
000340 40 e1 6e 3c 43 8d b7 3c ac 27 4d bc d0 df 82 3d
       0.014580071 0.022406226 -0.012521666 0.06390345
000350 7e 73 1e 3d 57 fd fd bc 15 12 a9 bc af 8e 1e bd
       0.03868436 -0.03100459 -0.020638505 -0.038710292
000360 58 fb 7b 3d 60 d9 3f 3d 60 d5 23 bb 00 54 cb 3c
       0.061518997 0.046838164 -0.0024999008 0.024820328
000370 b4 09 ac bc 30 61 1d 3c 5b cd 21 bd 4c a7 b0 3c
       -0.02100072 0.009605691 -0.039502483 0.021564148
000380 d8 27 76 3c d4 29 1d 3d e6 a3 cb bc 54 e2 9e bc
       0.015024148 0.03836997 -0.024858426 -0.019395031
000390 00 3c ac 38 9e 7d 30 bd 84 cc 89 3d 6e 78 4b 3d
       8.212775e-05 -0.043088548 0.067284614 0.049675398
0003a0 cc 93 e4 3c fc 18 c5 3c d5 c6 cc 3c 60 4c 4d 3c
       0.027902506 0.024059765 0.024997154 0.012530416
0003b0 68 da e8 3c e6 65 68 bc 9d 76 11 bc 96 38 a4 bc
       0.028424457 -0.014184451 -0.008878377 -0.020046514
0003c0 09 bd 89 bd 00 d0 44 bd 2b be 1b bd 3c 71 04 3d
       -0.06725509 -0.048049927 -0.038023155 0.03233455
0003d0 28 91 8a bc 1c 02 85 3d ed 5d 37 3d a0 e3 ad 3b
       -0.016914919 0.06494543 0.04476731 0.005306676
0003e0 8c ab 54 bc 42 83 2f bd e0 f3 49 3c 4e 79 2f bd
       -0.012980353 -0.042849787 0.012326211 -0.042840295
0003f0 88 cf 3b bd 00 8e c6 39 9c dd 0c 3d 10 32 2c 3d
       -0.045852214 0.000378713 0.03439103 0.04203993

network_body.observation_encoder.processors.0.conv_layers.0.bias f4 [16]
000000 0d 89 e4 3c b6 c4 55 3d e4 20 a1 3d 58 35 88 3d
       0.027897382 0.05218955 0.078676015 0.066507995
000010 7a f1 1b 3d d0 83 8a 3d 6a e2 fd 3c a6 76 d4 bb
       0.038072087 0.067634225 0.030991752 -0.0064838706
000020 d3 f5 63 bc c1 13 50 bd 9b 45 6d bb a9 79 3f 3d
       -0.0139135895 -0.05080009 -0.0036204818 0.046746884
000030 c8 9c 78 3c 46 ad 4a 3d 6f 05 ae 3d 1a 1c 68 bc
       0.015174098 0.049481653 0.0849713 -0.014166856

network_body.observation_encoder.processors.0.conv_layers.2.weight f4 [32, 16, 4, 4]
000000 56 74 44 3d 99 e3 35 bd d0 75 49 3d 4d 06 0a 3d
       0.04796251 -0.044406507 0.04918462 0.033697415
000010 ea 5b ff 3c 83 50 17 3d 43 84 e7 3c 5a d1 4e 3a
       0.031171758 0.036942016 0.02826131 0.0007889472
000020 b5 9a ca 3d df b3 88 3d a4 3e b5 bc 5c 62 77 3d
       0.09892789 0.06674933 -0.022124596 0.060396537
000030 81 e3 b9 3d 2e 32 60 3d 18 41 12 bc 25 a0 49 bc
       0.09076596 0.054735355 -0.008926652 -0.012306248
000040 5b e3 f5 3c 29 89 57 bc e4 0f 2d 3d e2 e5 8a bc
       0.030015638 -0.01315526 0.042251483 -0.01695532
000050 db 65 02 3d a1 c8 f4 3d ce 92 8e 3c 5e 80 d9 bc
       0.03183542 0.119523294 0.017403986 -0.026550468
000060 5d 07 bd 3c 29 fc eb bb 80 d0 67 bc c0 b0 db 3c
       0.0230748 -0.0072016907 -0.014148831 0.02681768
000070 78 21 41 3d c4 6b de bc 5f 23 eb 3a f6 a5 94 bc
       0.04715106 -0.027150996 0.0017939619 -0.018145543
000080 e2 ca 87 3c 86 2e 19 3d 6f 11 b2 bb 51 34 21 bd
       0.016576234 0.037397884 -0.005434207 -0.039356533
000090 c3 4e 37 3d f4 6a 3f 3d 16 ef 89 3d 9f 18 4f 3d
       0.044752847 0.046732858 0.06735055 0.05056059
0000a0 d3 6b 58 3d a2 cb 3c bd 72 cb 15 bd 4c 81 a6 3c
       0.052837204 -0.046092637 -0.036570974 0.020325325
0000b0 6f 70 01 bd 88 f1 34 3c fb 41 1f 3d bd 55 5c 3d
       -0.031601366 0.011043914 0.038881283 0.053792704
0000c0 8b 33 3e 3d e8 1c 87 3d 06 be f7 3c ff ab 16 3d
       0.046435874 0.0659731 0.030241977 0.036785122
0000d0 d9 10 84 bd 76 06 a1 bc 79 6e 44 bc 42 cc da 3c
       -0.06448526 -0.019656401 -0.011989229 0.026708726
0000e0 1c 1e 04 3c ad d8 4b 3d 44 6a 87 3d 99 89 07 bd
       0.008063819 0.049767185 0.066120654 -0.033090208
0000f0 0b 0a 1a 3d 37 dc 37 3d b2 62 02 3d 7d 66 10 3d
       0.037607234 0.044887748 0.031832404 0.03525399
000100 c4 48 5e bc 56 d5 04 3d 07 63 91 3d 3b be 91 bb
       -0.013567153 0.032430016 0.07098966 -0.004447726
000110 f4 fe 75 bd a4 12 8c 3d 0a 9e 57 3d 74 0d cb 3c
       -0.060057595 0.06839493 0.052640952 0.024786688
000120 50 6d a4 3d b1 d8 ba bc bf bf aa bc 43 b9 78 3d
       0.08028662 -0.022808405 -0.020843385 0.060723554
000130 8e 3f 83 3c 18 a3 1c bd 7b c9 3a bd 2c 6e 55 3d
       0.016021516 -0.038241476 -0.045602303 0.05210702
000140 9e 2c a2 3c 52 35 10 bc d2 b2 0a 3d 2f 71 56 3c
       0.019796666 -0.008801775 0.033861943 0.0130885085
000150 00 8e 37 3d 65 8f a2 3d b9 34 02 bd 84 1d 46 3d
       0.044813156 0.079375066 -0.03178856 0.048367992
000160 90 a6 b4 3d 4d 27 6b 3d 0a a2 1f 3c 40 ba 36 3d
       0.08820832 0.057410527 0.009743223 0.044611216
000170 fc a3 b4 3c bf a7 3f 3d 4e 4e 1d bd 20 be 30 bd
       0.02205085 0.046790835 -0.038404755 -0.043150067
000180 5c 9b c0 bc 76 32 8f 3c 2b 4a 5c 3d fc 57 df bc
       -0.023511581 0.017480116 0.05378167 -0.027263634
000190 c0 0f 0c 3d 6c 6d 15 3d 31 a1 80 3b e7 32 74 3d
       0.034194708 0.036481306 0.0039254655 0.059618857
0001a0 ac 81 54 bd 50 4e b4 3c ea df d0 3d c7 fb 7a 3d
       -0.051881477 0.022009999 0.10198958 0.06127527
0001b0 45 27 03 3d 92 c8 87 bd 71 6a 62 bd d3 ed 0c 3d
       0.032019872 -0.066300526 -0.05527729 0.034406494
0001c0 a0 ae 2b 3d 4f bc b3 bc 17 c8 c0 3c d3 1c 04 bd
       0.041914582 -0.021940378 0.02353291 -0.03225405
0001d0 a2 35 91 3c dc 38 23 3d ae 01 5d bd 90 cb 91 3c
       0.01772577 0.039849147 -0.05395668 0.017797261
0001e0 c9 e0 02 bd 3f 07 40 3d 02 61 50 3d bb 87 95 3c
       -0.031952653 0.04688191 0.050873764 0.018253198
0001f0 4b 95 0a 3d f1 7c 61 3d 0f be df 3b 52 fe 48 bc
       0.033833783 0.055050794 0.0068280767 -0.012267666
000200 d4 84 1f ba f2 62 f7 3c 18 a4 9b bc 83 2c 41 bd
       -0.00060851616 0.030198548 -0.018999144 -0.04716159
000210 fa 72 6a bc ae a6 cf 3d 2f bb b1 3b 15 27 c4 bc
       -0.014309639 0.101392135 0.0054239254 -0.023944417
000220 19 fa 75 bc 0e b2 28 bd c4 72 5a bd bd 66 4e 3a
       -0.015013241 -0.04118543 -0.053332105 0.00078735856
000230 8b 61 08 3d 73 05 31 bd 08 ad 82 bd c9 65 42 bd
       0.03329615 -0.043218087 -0.06380659 -0.04746035
000240 cf 61 3e 3c 14 3e 73 3d 62 ae 38 3d ad 3d 3f bc
       0.011619999 0.059385374 0.04508818 -0.0116724195
000250 27 3d 2e 3d 93 f2 71 3d 67 bf 9c 3d 8e 2f 91 bd
       0.04253879 0.059069227 0.076536946 -0.070891485
000260 80 c5 00 bd d6 fd c3 3b cf e4 cf bc aa dc 0d bc
       -0.03143835 0.0059811873 -0.02537766 -0.008658567
000270 5e 12 8a 3d 64 4f c5 bc 47 db 6d bd 5c 02 b5 3c
       0.067417845 -0.024085708 -0.058070447 0.022095852
000280 ca b7 9b 3d e4 0c 82 3d a7 b6 67 bc f2 35 10 3d
       0.07603414 0.06350115 -0.014142669 0.035207696
000290 40 6d b9 3c 4a 47 ae bd e8 bf 6b 3d fd 38 28 bc
       0.022635102 -0.08509691 0.057556063 -0.010267493
0002a0 c7 95 cc bc 1d ed 7a 3d 0a d8 af bd ee 38 30 3d
       -0.024973763 0.061261285 -0.08586128 0.043023042
0002b0 35 2a 47 bb d7 90 87 bd d4 c0 31 3c ad bc a8 3a
       -0.0030390148 -0.06619423 0.010849196 0.0012873613
0002c0 14 49 3a bd 60 1a 0b 3d a0 37 b8 3c 62 4f 09 bd
       -0.04547985 0.0339607 0.022487462 -0.03352297
0002d0 0c 10 de bc ab fc 92 bd 92 c7 f4 bd e1 e4 9d 3d
       -0.027107261 -0.07177099 -0.119521275 0.07709671
0002e0 98 03 af bb 78 e0 5e bd 83 74 fe 3b 3e 07 77 bc
       -0.0053410046 -0.05441329 0.007765354 -0.01507741
0002f0 6f 00 9d 3c 9f 87 56 bc 03 97 35 bd e3 af 19 bc
       0.019165246 -0.013093858 -0.04433347 -0.009380314
000300 8a a0 05 3d 7e e0 f4 3a 1a 79 8c bd ab ee 79 bd
       0.032623805 0.0018682627 -0.06859036 -0.061018627
000310 4b 91 42 b8 28 cf 49 3d ab 50 8a 3c 28 32 1e 3c
       -4.638852e-05 0.049269825 0.016884169 0.009655513
000320 59 7e f0 bb 34 87 97 3d c3 51 41 bd f1 61 da 3c
       -0.0073392806 0.07398835 -0.047197115 0.02665803
000330 a5 3d a4 3c da 7d 8a 3c f8 cc 38 3b 04 2b 87 bc
       0.020048926 0.016905714 0.0028198343 -0.016500004
000340 e0 9e 41 3d a9 ee b6 3c a7 65 42 bd b5 e8 0f bd
       0.047270656 0.022330599 -0.047460224 -0.035134036
000350 6e 14 01 bd 90 fd 16 3d 69 78 51 3d 06 31 ec bc
       -0.031513624 0.03686291 0.051140223 -0.02883197
000360 56 2d 4c 3d 59 a4 93 bd 57 31 a7 bd 58 f6 d7 bc
       0.049847923 -0.07209081 -0.08163708 -0.026362583
000370 c8 e1 9a bd 2a 49 39 bd ab 41 12 bd 0a 46 c7 3c
       -0.075625956 -0.04523579 -0.035707157 0.02432539
000380 34 19 1b 3c e3 63 d7 bc ee 94 11 3d 61 f3 51 bd
       0.009466458 -0.026292747 0.03554242 -0.051257495
000390 52 88 91 bd 46 a5 8d bc 5a 80 16 bd f0 fe 31 bb
       -0.07106079 -0.017290723 -0.0367435 -0.0027160011
0003a0 fd 4d 26 bd 5b ee e7 3d 8d ab 3c bd 7f 8d 92 3d
       -0.04060172 0.113247596 -0.04606204 0.071558945
0003b0 fb 5c 7c bc 62 30 6f 3d 97 a2 80 3c d0 c0 f9 bc
       -0.015403028 0.05839575 0.015702529 -0.030487448
0003c0 a1 02 f7 3c 65 f3 90 3d 74 f5 3b bd c8 8c 52 3d
       0.03015262 0.07077674 -0.04588838 0.05140379
0003d0 26 08 7c 3d 12 e0 0f 3d 25 8e 1d 3c a9 3a 34 3c
       0.06153121 0.0351258 0.009616409 0.011000314
0003e0 6b 72 6a 3d 3e d6 5e bd f9 a8 58 bc 7b 9a 9e 3d
       0.057238024 -0.054403536 -0.01322388 0.077443086
0003f0 76 12 00 bd 9d c6 03 3d 87 10 4d bd e3 f7 8f 3d
       -0.031267606 0.032171834 -0.05006459 0.070297025

network_body.observation_encoder.processors.0.conv_layers.2.bias f4 [32]
000000 85 da 1d bd de 48 c4 bc ef 5b 4c bd bd f2 17 3d
       -0.038538475 -0.023960527 -0.049892362 0.037096728
000010 67 3c cc 3c f5 85 ce ba d9 88 b0 3c 42 91 2a 3d
       0.024931146 -0.0015756475 0.021549629 0.041642435
000020 28 d9 4b bd 3a 5b 1e bd 58 11 94 bc dc f5 47 3d
       -0.049767643 -0.03866122 -0.018074676 0.048818454
000030 78 55 c3 3c ea d4 15 3d 36 71 fa bc c8 d5 c2 3c
       0.023844466 0.036580004 -0.030571561 0.02378358
000040 6d bf 4e 3d 63 48 50 bd c2 bc 22 bb d9 8d 87 3d
       0.050475527 -0.050850283 -0.0024831747 0.06618852
000050 af 08 5c 3d 51 a7 7d 3d 75 10 87 bc 05 e9 d7 3c
       0.05371922 0.061927143 -0.01648734 0.02635623
000060 08 db 54 3c fe 47 06 bd 1b 3b 00 bd a6 1a 0d bd
       0.012991674 -0.0327835 -0.031306367 -0.034449242
000070 3f b0 bb 3c 4e 1e fb bc e4 28 d6 bc f6 be 82 3d
       0.02291119 -0.030654099 -0.026142545 0.06384079

network_body.observation_encoder.processors.0.dense.0.weight f4 [128, 32]
000000 66 c5 26 3e 99 7d 83 3e d6 b2 16 3e d0 c4 b2 3e
       0.16286239 0.2568176 0.14716658 0.3491578
000010 a2 37 ff 3d c0 3d fe 3a 07 c9 fc 3e b5 da d3 be
       0.12461783 0.0019397065 0.49372122 -0.41377798
000020 e9 7b 35 be 08 1c fb bc f3 fa 8a bd c2 15 c4 be
       -0.17723049 -0.030653015 -0.06786146 -0.3829785
000030 bc 70 2a 3e 82 29 38 3d df 53 95 be b7 69 9e 3e
       0.16644567 0.04496146 -0.2916555 0.3094003
000040 a7 fc f3 3e c4 8b 72 be bb e2 84 3e 73 91 29 be
       0.47653696 -0.23686129 0.25954232 -0.1655939
000050 d5 d7 ed bd c0 a6 c3 be 3a ea 91 be fd 5b b5 3d
       -0.11613432 -0.38213158 -0.28499013 0.08855436
000060 d1 7b aa bd 32 bf 9e 3c 18 43 d0 bd 41 60 92 be
       -0.08324397 0.019378278 -0.10169047 -0.2858906
000070 36 22 e5 3e c8 2b 1b 3e 24 dd 98 bc 14 b0 70 bd
       0.44752663 0.1515342 -0.018660136 -0.05876167
000080 4a 07 ce be 79 04 b6 3e cd 6c 5a 3e 7c ec bb bc
       -0.40239936 0.35550287 0.21330567 -0.022939913
000090 30 96 7c bd 78 4f 50 3d f4 3f b6 3e 82 40 f8 3e
       -0.061666667 0.050857037 0.35595667 0.48486716
0000a0 55 22 88 bd 2d a0 af bd f2 cc ab 3e 95 e7 06 3f
       -0.06647173 -0.08575473 0.33554798 0.52697116
0000b0 5a b3 25 3c 91 bc 7f bd d1 73 88 bd 41 04 ed bd
       0.0101135615 -0.06243569 -0.06662715 -0.11573077
0000c0 01 ad 5f bc c0 66 1d 3e 32 78 65 3e 09 c5 c0 3e
       -0.013652087 0.15371227 0.22409132 0.37650326
0000d0 5a ea 1e 3d cd b8 13 3f b1 85 94 be 32 fb 56 3e
       0.038797714 0.5770386 -0.29008248 0.20994261
0000e0 62 96 03 be de 8c cb 3c e7 d4 46 3e 97 68 15 3e
       -0.12850335 0.024847444 0.19417153 0.14590679
0000f0 ee 7b ea bc eb a4 e0 3e c8 0b ad 3e 01 f4 57 3e
       -0.028623547 0.43875822 0.3379805 0.21089174
000100 7c e4 1f 3f ae d0 4a 3e ac 44 b3 3d 65 87 0b 3e
       0.62458014 0.19806167 0.087533325 0.13625868
000110 72 4f 2e 3e d5 e0 04 3e 90 a0 9b be 4c 74 29 3f
       0.17022493 0.12976392 -0.30395937 0.6619308
000120 7c 12 70 be 35 3f 64 3e 86 f3 28 bf 49 a0 e0 bc
       -0.23444551 0.22289737 -0.6599659 -0.02742018
000130 21 af 23 3e 64 47 8a 3e c5 93 1c bf 85 d6 b5 3e
       0.15984775 0.27007592 -0.6116298 0.35515228
000140 46 66 01 3e e1 75 05 bd 78 d4 d1 bd 91 20 82 3e
       0.1263667 -0.03258312 -0.10245603 0.2541547
000150 6e 62 13 3e 0f 95 6f 3c 1c ff ab bb b7 ff 1b be
       0.14393017 0.014622941 -0.0052489173 -0.15234266
000160 2a c5 28 3e da d7 8f be bc 03 d3 bd 20 bb aa 3e
       0.16481462 -0.2809437 -0.10303447 0.3334589
000170 9d 28 97 be bb bd b7 3e 59 26 a3 3e c7 7e cb 3e
       -0.29523173 0.3588694 0.31865194 0.3974516
000180 e2 d7 e5 ba cb 2d c2 3e c6 94 16 be 6e 5b 10 bf
       -0.0017535652 0.37925562 -0.1470519 -0.5638951
000190 c3 ac 9e 3e 84 31 e1 3e 30 57 bc 3e cd 7d 7c 3e
       0.30991182 0.4398309 0.3678527 0.24657364
0001a0 a4 02 dd bd 61 85 12 3f 6f 12 08 3d ed 0a b9 be
       -0.10791519 0.5723477 0.033220705 -0.36141148
0001b0 52 83 9e 3e 58 14 b6 3d d6 eb f7 be eb a1 17 bd
       0.30959564 0.08890599 -0.48422116 -0.03701965
0001c0 8c d7 4d 3e ee 9c 68 be 0e 03 7c 3e d4 24 0b bf
       0.20101756 -0.22716114 0.2461054 -0.5435307
0001d0 d4 fd 17 be dc a8 8e 3e cd 17 01 be b5 d7 a1 3e
       -0.14842921 0.27863204 -0.12606736 0.31609884
0001e0 00 66 59 be a9 f6 14 be 1a 7c c8 3e a8 0b 30 3e
       -0.21230316 -0.14547218 0.39157182 0.17191947
0001f0 6a e6 c4 be ab 15 a2 be a1 fa a5 bd 26 82 eb bb
       -0.38457042 -0.31657156 -0.08104444 -0.0071871458
000200 7e 04 de bd 85 59 27 3e 49 89 7b bd 4b 76 dd bd
       -0.108407006 0.16342743 -0.061410222 -0.10813578
000210 59 44 c0 bd 4f b1 1a 3d 07 09 b9 3d 00 52 29 3e
       -0.09388036 0.03776675 0.09034925 0.16535187
000220 9c ba 68 3e da b6 8d 3e bf 8f 0d be 75 2d 18 3f
       0.22727436 0.27678567 -0.13824366 0.5944436
000230 6c 04 5e 3e 07 50 2d 3d c5 e1 85 3d fa ae d0 3e
       0.21681374 0.04231265 0.06537203 0.40758497
000240 ec 08 11 bf 15 96 99 3d b5 a2 a2 3d 80 8d 70 3e
       -0.5665424 0.07499329 0.0794119 0.23491478
000250 48 f0 1f 3f a4 bc 9a bd 27 30 5d 3d 66 35 2a 3e
       0.62476015 -0.075555116 0.054001 0.16621932
000260 73 c9 18 be 4b 9c ba bd c1 a7 c8 be 53 5d 1f 3e
       -0.14920597 -0.09111842 -0.39190486 0.15562944
000270 cb 43 fa 3e 3d 68 99 3d bc 94 60 39 a3 f5 7d be
       0.48879847 0.07490585 0.00021417713 -0.24800734
000280 32 c3 cc be 8f bd 36 3e 2e f3 aa be 3b ec 73 3d
       -0.39992672 0.17845748 -0.33388656 0.05955146
000290 c0 02 89 3e ac d1 da be fb a1 00 3d 5f 41 5e 3e
       0.2675991 -0.42738092 0.031404477 0.21704625
0002a0 f7 09 34 be 1a 5a 5e 3e ba 5a 31 3f 19 73 78 3e
       -0.17581926 0.21714059 0.6927906 0.24262656
0002b0 78 7a 18 3c 23 5a 1b 3e 56 32 1e be 37 cd ae bd
       0.009306543 0.15171103 -0.15448889 -0.085352354
0002c0 ae 69 07 3f 65 5d b8 be dd ab 0f bb 19 8b a3 bd
       0.5289563 -0.36008754 -0.0021922507 -0.07985515
0002d0 51 5b 6f 3e 57 e3 8e be 4d c7 fd be aa f7 44 bd
       0.23374678 -0.27907822 -0.49566117 -0.048087753
0002e0 b3 fc 88 3e be 20 80 bc 41 c8 08 3f ca a4 66 3e
       0.26755294 -0.015640613 0.53430563 0.225238
0002f0 22 3d a7 be 40 5c f7 bd 4c ec c4 be 0a 93 62 3c
       -0.32663828 -0.12078142 -0.3846153 0.013829002
000300 1a a8 dc be 78 a1 89 be 74 7a a3 3e 57 6e 1b be
       -0.43097 -0.26881003 0.31929362 -0.1517881
000310 9a 07 a2 3e 92 b7 77 3e ca 2f 64 bd 13 84 bd 3e
       0.31646425 0.2419112 -0.055709638 0.37014827
000320 33 ea 97 be 5a 7d ee bc 53 0a ac be c6 7d dc bd
       -0.29670867 -0.029112507 -0.33601627 -0.10766177
000330 0d 0b 1b be 9c 8a 89 3e 9b 3a f5 be f9 21 11 3f
       -0.15140934 0.26863563 -0.47896275 0.56692463
000340 89 fc 10 3e 3a 6b 5b 3e 00 ef 8b 3e 56 d6 63 bf
       0.14158835 0.21427622 0.2733078 -0.88998926
000350 25 c0 74 3e e6 68 0a 3e cc ca d4 3b 54 2d 19 bd
       0.23901422 0.13516578 0.006493902 -0.037396744
000360 2b d0 13 bf 65 87 b9 bd 90 da 8b 3e 6b 9e 66 3e
       -0.57739514 -0.090590276 0.27315187 0.22521369
000370 d9 3a 96 3e e2 f3 a5 3d 91 5b bd 3d c2 82 87 3e
       0.29341772 0.081031576 0.092459805 0.26466948
000380 aa 45 ce be 3f 88 31 bf cb 01 c9 be 60 ea 3e 3e
       -0.40287524 -0.6934852 -0.3925918 0.18644094
000390 83 94 b2 bc 53 0a 24 be ee 4c 89 3d eb 11 f9 bd
       -0.021799332 -0.16019563 0.06704126 -0.12161621
0003a0 d3 75 ea be 53 80 bf bd 01 2b e5 3e 72 89 ed bd
       -0.45793018 -0.09350648 0.44759372 -0.11598481
0003b0 c6 ae 84 be 48 f9 31 3d df 47 80 bd 0e ef 8c bd
       -0.25914592 0.043450624 -0.06263708 -0.068815336
0003c0 d7 d2 fb 3e cf ca 7b 3e 14 ea 9a 3e c7 0a 00 3d
       0.49184296 0.24589084 0.30256712 0.031260278
0003d0 34 5a 72 3e 9f d1 89 3e 8b d7 29 3d 03 11 55 be
       0.23667222 0.2691774 0.041465323 -0.2080727
0003e0 da 04 09 3e cf 26 6c 3d b6 6a d6 3e 57 8c c8 bd
       0.13380757 0.0576542 0.4187829 -0.09792393
0003f0 9b d2 ae 3e 8c 92 32 bd 69 cd 31 3d 88 e5 73 3e
       0.34145054 -0.04359679 0.043408785 0.23818028

network_body.observation_encoder.processors.0.dense.0.bias f4 [128]
000000 7b 2d 39 3d 0f c5 25 3d 00 90 00 bc a5 6c 06 3d
       0.04520939 0.040471133 -0.007846832 0.032818455
000010 cd 36 c9 3c 81 06 46 bc 41 cb 70 3d 66 06 bb ba
       0.024562264 -0.012086512 0.058787588 -0.0014268875
000020 17 39 88 3c 69 d8 7f 3c be fe 08 3d 2b aa 51 3c
       0.016628785 0.015615561 0.033446066 0.012796919
000030 39 89 bb 3c 28 77 2e 3c c3 39 3f 3c 7a cf 0d bc
       0.022892581 0.010648526 0.011671486 -0.008655423
000040 64 53 4e 3c d8 17 80 3c ba 3e d2 3c 31 51 d9 3c
       0.012593124 0.01563637 0.025664676 0.026527973
000050 1c 0e 14 bc 53 a3 a4 3b 00 a3 3a 3d aa 96 85 3b
       -0.009036567 0.0050243526 0.045565605 0.0040767984
000060 53 11 af bc 6f c4 f7 3c 37 ce d8 3c a8 3b b9 3c
       -0.021370566 0.030245034 0.026465518 0.022611454
000070 37 bb 69 3d 9c 48 75 3b 7c cd b5 3c 94 1f 79 bb
       0.057063308 0.0037427312 0.02219271 -0.0038013207
000080 9b 9c 16 3d 8d 53 eb 3c 97 09 b3 bb e9 0f 87 3b
       0.036770444 0.028726364 -0.0054637897 0.0041217697
000090 1b 13 2b 3d 59 74 0b 3d 04 82 3a 3c 30 a1 83 3d
       0.041766267 0.034046505 0.011383537 0.064272285
0000a0 20 cc 40 3d 3e 42 98 3c d8 6e fc bc a1 96 1a 3d
       0.04706967 0.018586274 -0.030814573 0.037741307
0000b0 3f af 2b 3c d2 b2 0f bb 5e e6 1e 3c 2b 2c 85 3c
       0.010478794 -0.0021926654 0.0096984785 0.016256412
0000c0 99 56 17 bc a9 f2 9d b8 06 01 cb 3c b8 94 f8 3c
       -0.009236955 -7.531542e-05 0.024780761 0.030344352
0000d0 e0 fd 64 bc 3b c2 2d 3c c6 1d cf 3c 23 25 0b 3d
       -0.013976544 0.01060539 0.025282752 0.033970963
0000e0 96 22 f2 3c 8d 90 66 3c e9 35 8b 3c 2c 35 06 3c
       0.029557507 0.0140725495 0.01699348 0.008191388
0000f0 77 68 81 3c 3d a4 69 3c ce d5 f2 3c 62 84 a0 3c
       0.015796883 0.014260349 0.029642966 0.019594375
000100 53 ff 9f 3c 33 e4 0c 3d 96 ab d5 3c 0c 42 30 3d
       0.019530928 0.034397315 0.026082795 0.043031737
000110 30 57 8f 3c 2e 19 dd 3c 10 13 f6 3c 4d 94 9e 3c
       0.017497629 0.026989546 0.030038387 0.019357825
000120 c2 a2 5c 3b 6f 36 ce 3c ad a9 68 bc ef bd d1 bc
       0.0033666347 0.02517244 -0.01420061 -0.025603263
000130 a1 ae 5e bc d7 a0 4d 3c 7b 92 32 3d 87 41 24 3c
       -0.013591439 0.012550554 0.043596726 0.010025389
000140 5f a9 64 bc 3a 3e 59 3d 3e d1 b9 bc 42 d9 2a 3d
       -0.013956397 0.05303786 -0.022682782 0.0417111
000150 89 4d 5a 3d cb 6c 05 3c e3 82 ae 3c cb 3d d3 3c
       0.0532966 0.008143614 0.021302646 0.025786301
000160 e7 52 26 bd a2 9e 35 bb f8 8b 23 3d 72 08 1a 3d
       -0.040606406 -0.002771296 0.039928406 0.03760571
000170 e1 85 2a 3c 72 e1 7d 3c 11 55 8d 3c 0e 84 9e bc
       0.010407896 0.015495645 0.017252477 -0.019350078
000180 90 8e 3d bb 80 f7 1f bd 85 c7 e7 bc b7 af e4 3c
       -0.0028924085 -0.039054394 -0.02829338 0.027915819
000190 b2 52 9a 3c 73 44 3d 3c 4b ea 23 bb 2a 89 26 3c
       0.01883826 0.011551964 -0.0025011476 0.010164538
0001a0 04 c9 cf 3b 37 fa 7b 3c 69 b9 6a bc 53 59 46 b9
       0.0063411016 0.01537948 -0.014326432 -0.00018916027
0001b0 14 81 01 3d 21 b5 77 3c 5e 9d 58 bd 68 6c 84 bc
       0.03161724 0.015118868 -0.052884452 -0.016164973
0001c0 a1 e7 52 bc d5 ad 24 3c ca 54 8a 3c 66 2d ee 3c
       -0.012872607 0.01005121 0.016886134 0.029074382
0001d0 ec 8a 38 3c 23 3b 1e bd 40 27 e4 3c 20 86 af 3c
       0.01126359 -0.038630616 0.027850747 0.02142626
0001e0 9e 46 8f bc db 6b f8 3c 06 f7 1f 3d db 4f 74 3c
       -0.017489728 0.030324867 0.03905394 0.014911617
0001f0 89 96 02 3d 3d 1e fe 3b 17 94 92 bc 76 2f 05 3c
       0.031881843 0.0077550695 -0.01789288 0.008128991

network_body._body_endoder.seq_layers.0.weight f4 [128, 128]
000000 4e 64 dc bd a2 8f 11 bd 0c 6c 1a bc 54 8a 26 be
       -0.10761319 -0.03553737 -0.009425174 -0.16263705
000010 8d 78 b6 bc d0 07 e5 bd 24 56 d0 bd 70 47 d4 3d
       -0.02227428 -0.11183131 -0.1017268 0.10365188
000020 c2 eb 8d 3d 6f 3b 20 3d 57 c8 b1 3d 50 df a1 3d
       0.06929733 0.03911918 0.0868079 0.079039216
000030 88 a0 32 bd d3 77 cd bd 70 d8 99 3c 0e 5c e3 3d
       -0.043610126 -0.1003262 0.018779963 0.111015424
000040 5d cc 3a bd e3 db ef 3d 82 80 56 3e 34 f0 fb 3d
       -0.045605052 0.11711862 0.2094746 0.123016745
000050 3e 75 47 bd 9e 1c f1 3d 87 f0 c5 bd 40 f0 72 bd
       -0.048695795 0.117730364 -0.096650176 -0.05931115
000060 56 e8 9b 3c 72 e4 f4 bc d2 77 19 bd d2 f1 3f be
       0.019031685 -0.029894087 -0.037467785 -0.18744591
000070 87 c8 75 be 4f 30 3e bb cb 98 9e bd 58 c7 fc 3b
       -0.24002276 -0.0029020493 -0.07743987 0.0077141933
000080 91 94 55 bd c1 ad 57 3d d9 7a ba bc fa f9 cb bd
       -0.052143637 0.05265594 -0.022763656 -0.099597886
000090 2f 5a b3 3c c0 8d cc bd fd 29 65 be d3 7f 21 be
       0.021893589 -0.09987974 -0.22379299 -0.15771417
0000a0 98 3a 33 bc d5 2c a1 3d 01 85 d0 bc 84 59 6c 3e
       -0.010939263 0.07869879 -0.025454046 0.23081023
0000b0 9e a6 83 3d f0 86 79 3d ce a9 ac 3d 5b e7 d4 bc
       0.06428264 0.060919702 0.08430825 -0.025989225
0000c0 32 c8 11 bc 28 9b d0 3b b8 be dd 3d f5 97 44 bd
       -0.008897828 0.0063661523 0.10827392 -0.04799648
0000d0 b6 29 23 bd 5d 1a 80 bd d0 c1 7f 3d 1e 03 ca 3c
       -0.0398347 -0.062550284 0.062440693 0.02465969
0000e0 bb ad f3 3d 5d c6 41 be 91 00 e7 3c b3 27 c7 3d
       0.11898371 -0.18923326 0.028198512 0.09724369
0000f0 77 16 a5 3d 72 3f 0c 3e d7 41 ba 3c e0 cb 74 bd
       0.080609255 0.13696077 0.022736473 -0.059764743
000100 83 ef 6e bc f0 04 ec 3d 49 3f a9 3c 06 e7 e3 3d
       -0.014583471 0.11524379 0.02066006 0.111280486
000110 c4 09 97 3d e0 48 b2 3d 50 ba 2f 3e 6e e4 f1 3b
       0.073749095 0.08705306 0.17160916 0.0073819673
000120 df 23 49 bd bc 30 6a bd 5e af 32 be 23 be b9 bd
       -0.049106475 -0.057175383 -0.1744971 -0.09069469
000130 f5 13 9a bd f9 08 27 bd 94 d5 d1 3c 88 78 01 3d
       -0.07523338 -0.04078004 0.025614537 0.03160909
000140 9e fb 9d bc 7d 51 45 3d b6 7f b5 3d ca 0c 17 3d
       -0.01928502 0.048173416 0.088622496 0.03687743
000150 0e 48 74 3d f6 ff 5b be 1a e0 0c be 48 0b 44 3e
       0.05963903 -0.2148436 -0.13757363 0.19144928
000160 ac 31 a4 3c 55 fd ac bd a6 20 0a bc 41 6d 07 be
       0.020043217 -0.08446757 -0.008430636 -0.13225271
000170 ac 41 b4 3c cd e6 00 3e 4b 39 c0 bd 25 24 f4 3d
       0.022003971 0.12588044 -0.09385928 0.119209565
000180 5c f7 94 3d dc 2c fc 3d 99 2c 0f 3e da b6 d9 3c
       0.072737426 0.12313244 0.13981856 0.026576448
000190 35 e5 87 bc 23 46 a0 bd 7f 6e 54 3d 9b cd 06 be
       -0.016588787 -0.078258775 0.05186319 -0.1316437
0001a0 71 08 8b 3c cb 62 3c 3e b7 4b 0d be b7 9c d6 bc
       0.016971799 0.18397062 -0.13798414 -0.026197774
0001b0 82 23 86 bd e7 8b eb 3d 36 ce 86 bd 94 1f 1c 3d
       -0.06549741 0.11501294 -0.065823 0.038116053
0001c0 31 66 6e 3c 63 75 f3 3d 3c ca 49 bc fa cc fc bd
       0.0145507315 0.11887624 -0.012316283 -0.12343784
0001d0 9c 29 8e 3c 4a 8a 15 3e 70 32 4c 3d 02 72 c5 3d
       0.017353825 0.14603534 0.04985279 0.09640886
0001e0 e6 41 f0 bd 3c f1 f0 bc 44 26 95 bc 92 b0 13 3e
       -0.11731319 -0.029411905 -0.018206723 0.14422825
0001f0 4b 05 6f bc e4 e7 e4 bd 5f 85 52 bd 67 33 d7 bc
       -0.014588664 -0.11177042 -0.051396724 -0.026269628
000200 fa 2c ac 3d 73 20 6c 3d 36 c0 04 3d f6 6a 35 3e
       0.08407016 0.057648133 0.03240987 0.17716584
000210 1f 0f 22 bd 0f 36 ca 3d 89 1c c9 3c a2 96 4f bd
       -0.0395652 0.09873592 0.02454974 -0.050680764
000220 80 f3 82 3d 65 a9 38 bd 5e ec 71 3c f5 03 06 3d
       0.063941 -0.045083422 0.014765827 0.032718617
000230 31 5d c5 3d a6 d8 1b 3c 48 f8 28 bc 52 2e 0e bc
       0.096369155 0.009512102 -0.010313101 -0.008678036
000240 5a b8 6a 3d d4 0b 68 3b 9b 1b 6c bd 9f 23 dd 3d
       0.057304718 0.003540744 -0.057643514 0.1079781
000250 75 ee aa 3d 6c e5 10 3c 49 26 e5 bd 81 1d 01 3d
       0.08346263 0.008843761 -0.11188943 0.031522278
000260 44 e7 b9 bb 99 51 d8 3c 88 7e 4e 3d 46 4e f6 3d
       -0.005673321 0.026406096 0.05041364 0.12026648
000270 37 fd 6f 3d ff 47 af 3c f7 52 2a be 12 d3 8d 3c
       0.058591094 0.021396635 -0.16633211 0.01731256
000280 b5 a7 44 3e bf 53 10 3e 73 7e 0e 3c f5 5c 18 bd
       0.192046 0.14094447 0.00869714 -0.037198026
000290 88 b3 79 3e 15 ed 23 3e 06 20 dd 3d 47 b2 53 3c
       0.24384892 0.16008408 0.107971236 0.012920923
0002a0 b8 39 1a 3e 3d 1a 84 be 89 1e a5 3d ac dc 44 bd
       0.1506108 -0.25801268 0.08062465 -0.04806201
0002b0 fd 37 a7 bb aa 21 94 bd f6 90 26 3e e6 37 66 bd
       -0.00510311 -0.072329834 0.16266236 -0.056205653
0002c0 f0 46 79 3d 3e 47 d2 3d 5a 10 23 3c 9e 7b ed 3d
       0.060858667 0.102674946 0.009952629 0.11595844
0002d0 cd eb ff 3c 83 57 46 bc a9 65 04 3e d5 50 b2 3c
       0.031240368 -0.012105825 0.12929405 0.02176706
0002e0 1b a5 b9 3d f9 76 08 3e 2e b3 61 bc 5a fe ce 3d
       0.090646945 0.13326634 -0.01377563 0.101071075
0002f0 d9 02 b3 bd 00 ac 3d be 83 4f 48 3d 3b 9b 4b bd
       -0.087407775 -0.18522644 0.048903953 -0.049708586
000300 dd 96 be 3d 17 fe 36 3e 06 72 b4 3c b6 bf 51 be
       0.09306119 0.17870365 0.022027027 -0.20483288
000310 f3 60 b9 3d 2d 46 b2 bd 92 ad 6c 3d 4a d5 7a bd
       0.09051695 -0.08704791 0.057782717 -0.061238565
000320 9d be cd 3d 69 b4 be bd 4b de 7d bd 22 10 f6 bd
       0.10046122 -0.09311754 -0.061979573 -0.12014796
000330 d2 69 bf bd 1c 4d 4b 3b d5 83 b9 bd d3 a0 92 bd
       -0.093463555 0.0031021303 -0.09058348 -0.07159581
000340 39 08 07 3e 65 29 0a be cd f1 e8 3d 53 7b a2 bb
       0.1318673 -0.13492353 0.11374245 -0.004958549
000350 f8 bf 46 3e f7 d1 18 be c8 f1 19 be 65 05 ff 3c
       0.19409168 -0.14923845 -0.15033638 0.031130502
000360 36 12 d7 bd 4a 77 80 bd 5c d8 9d 3d 09 c5 9d bc
       -0.1050152 -0.062727526 0.07707283 -0.019258993
000370 19 be cb bc 6f 7c 00 3d 90 72 a1 3c 08 fb 28 3e
       -0.024870919 0.03136867 0.019707948 0.16502011
000380 a4 82 8c 3d fe 91 04 bd 0d 9b db bc 79 91 ce bc
       0.06860855 -0.03236579 -0.026807332 -0.025215851
000390 fc 24 89 bd c3 ec 77 3d 72 75 9f 3d 2a 0b 14 bd
       -0.06696507 0.060528528 0.07786073 -0.03614346
0003a0 c9 a5 cc 3d 0b ef 4b 3d 39 e4 00 be 14 c5 9b bd
       0.099925585 0.049788516 -0.1258706 -0.07605949
0003b0 4c ae fa 3d a6 88 93 bc 33 16 48 bd df 3b 08 3e
       0.12240276 -0.018009495 -0.048849296 0.13304089
0003c0 a0 dc 64 bd 5c cb 10 3e 2a 76 92 3d 4b 51 68 3e
       -0.055874467 0.14140075 0.07151444 0.22687261
0003d0 27 43 31 3e a5 90 03 be 0f 9a 71 3e 6a d8 83 bd
       0.17310773 -0.12848146 0.23593925 -0.06437762
0003e0 3d de f4 3d bf 4c d5 3d 6f 26 86 3c 39 fe b0 3d
       0.11956451 0.10415029 0.016375748 0.08642239
0003f0 21 36 af 3d 0d 07 70 bd 9c f3 a3 3d b7 47 2d bb
       0.08555246 -0.058600474 0.08005449 -0.002644045

network_body._body_endoder.seq_layers.0.bias f4 [128]
000000 f3 ed 00 3c 64 85 c9 3c 98 63 36 3d c4 64 a7 3c
       0.0078692315 0.024599738 0.044528574 0.020433791
000010 40 af 66 3c b2 ff 79 3c e2 53 0b 3c 45 a8 3a 3c
       0.014079869 0.015258716 0.008503886 0.011392658
000020 64 03 fc 3c 89 26 f3 3b 59 76 25 3c 26 ec 2a 3c
       0.030763336 0.0074203652 0.010099017 0.010432279
000030 18 82 7a 3c ec 05 08 3d fd 74 0a 3c c8 51 11 3c
       0.015289806 0.033208773 0.008450744 0.008869596
000040 81 10 80 3c 78 20 bb 3c e2 d0 7a 3c ac 25 93 3b
       0.01563287 0.02284263 0.015308591 0.004490575
000050 fb a6 b7 3c ab bd ae 3c 74 b3 66 3c 12 a1 db 3c
       0.02241849 0.021330675 0.014080871 0.026810203
000060 5c 11 ab bb f8 95 af 3c e3 75 16 3c e2 22 95 3c
       -0.0052205753 0.021433815 0.00918338 0.01820511
000070 75 5b 81 3c 58 75 7a 3c 52 4a 71 3c f7 95 d3 3c
       0.01579068 0.015286766 0.014727192 0.025828345
000080 5b 38 b2 3c c8 db 6c 3c 48 64 46 3c 60 98 b2 3c
       0.021755388 0.014456697 0.01210887 0.021801174
000090 e6 d6 ac 3c bb 62 d2 3c 37 81 bc 3c cf 87 c7 3c
       0.021098565 0.025681844 0.023010833 0.02435675
0000a0 dd 90 99 ba 25 3c 02 3c 52 61 9d 3c dd 89 5c b9
       -0.0011716146 0.00794891 0.019211445 -0.00021032193
0000b0 da 4c 0d 3c 78 f7 65 3c b1 84 f9 3b 2f a6 f0 3c
       0.00862428 0.014036052 0.007614695 0.029376118
0000c0 e8 5c f9 3b 21 4b bb 3c 37 e3 5a 3c e1 d7 8e 3d
       0.0076099522 0.022862973 0.013359836 0.069747694
0000d0 fe aa 91 3c eb e0 95 3c 11 16 17 3d 4d 4d a1 3c
       0.01778173 0.018295726 0.03688628 0.01969018
0000e0 fe a0 ce 3c 8a 8b 36 3c 92 b8 55 3c 07 06 7f 3c
       0.025223251 0.011141667 0.013044493 0.015565402
0000f0 9a 6d 0e 3c 30 29 1a 3d 15 61 d3 3c f2 cb f2 3c
       0.008693123 0.037636936 0.025803128 0.029638264
000100 15 ec b9 3c 28 26 6a 3c 4c 44 30 3c 65 f6 ab 3c
       0.02269558 0.014291324 0.010758471 0.020991514
000110 00 45 7a 3c 56 92 cc 3c cb 24 cf 3b 4b dd 15 3b
       0.01527524 0.024972122 0.0063215247 0.0022867497
000120 98 ef 95 3c 2b 3c 5a bc 43 e7 78 3c d2 d2 fc 3c
       0.018302724 -0.013320009 0.015191856 0.030862246
000130 fe ef 22 bc bf e6 7d 3c 4a 4f cf 3c 82 e4 79 3c
       -0.009944914 0.015496909 0.025306363 0.015252234
000140 3b a5 99 bc c4 86 f0 3a 51 75 66 3c 6f 5a c8 bc
       -0.018755546 0.001835071 0.014066056 -0.024457185
000150 d3 bb 00 3d 94 19 e0 3c 36 16 ce 3c 3f 93 da 3c
       0.031429123 0.027355947 0.025157075 0.02668154
000160 c2 11 f8 3c f8 85 86 3c 40 f4 9c bb b2 4c ce 3c
       0.030281905 0.016421303 -0.004789859 0.025183056
000170 94 b9 ff 3c 85 8a 02 3c d6 78 eb bc cd 28 ac 3c
       0.03121642 0.007967596 -0.028744143 0.02101555
000180 02 3e 67 3c b3 8e e1 bb bb d4 26 3d 8f b1 45 3c
       0.014113905 -0.006883466 0.04073022 0.012066259
000190 f4 e6 a1 3c 3c 5b f9 3c b6 a1 c3 3c 3a ea 3e 3b
       0.019763447 0.030439012 0.02388082 0.002913131
0001a0 66 24 f8 3c 9e 02 75 3c b3 e0 c2 3c ee ad f2 3c
       0.030290794 0.014954237 0.023788786 0.029623952
0001b0 a0 1e 9d 3a 84 c0 ef 3b d1 31 a3 bc 67 6e 9a 3c
       0.0011987276 0.007316651 -0.019921215 0.018851472
0001c0 85 0a bb ba 5e 37 a4 3c 84 3a 14 3d 5a 46 1f 3d
       -0.0014270103 0.020045932 0.036188617 0.03888545
0001d0 cc 51 9b 3c c2 c3 95 3c ce 16 96 3c e6 c4 dc 3c
       0.018959902 0.018281821 0.018321421 0.026949357
0001e0 41 55 03 3d e0 9f 4a 3c 7c f4 53 3d d0 c3 be 3c
       0.032063726 0.012367219 0.05174683 0.02328673
0001f0 57 12 7e 3c 55 98 81 3c f7 15 23 bb 9d 09 80 3c
       0.015507302 0.015819708 -0.0024884918 0.015629584

network_body._body_endoder.seq_layers.2.weight f4 [128, 128]
000000 31 3a e6 bc 67 bd 35 3d 75 2f c1 3d 2c 80 d4 3b
       -0.02810392 0.04437008 0.0943288 0.006485006
000010 b8 5b 89 3e 6b 23 47 bc fa 5d 9b 3d 25 a1 1c 3d
       0.26827788 -0.01215444 0.07586284 0.038239617
000020 62 b1 e4 bd 27 34 92 bc 53 3b b9 3c 44 0c b1 3d
       -0.111666456 -0.017847134 0.022611296 0.086449176
000030 65 e6 82 3d ce 97 35 3e 3e f6 10 3e 7e ab 56 3d
       0.063916005 0.1773369 0.14156434 0.05240964
000040 05 99 c6 3c 92 ac 06 3e 2e 0d e2 bd f9 8b 42 3e
       0.024242887 0.13151768 -0.1103767 0.18998708
000050 24 35 9a bd 71 47 37 bd 41 cb b5 3c c9 91 cd bc
       -0.07529667 -0.044745866 0.022191646 -0.02509393
000060 8c 97 08 be 06 75 5c bc d5 20 72 3d e8 02 14 be
       -0.1333906 -0.013455635 0.059113342 -0.14454234
000070 c2 9f 8e bc 1a c7 26 be d8 bd f6 bd 3d 7a cb bd
       -0.017410163 -0.16286889 -0.120479286 -0.099354245
000080 31 9c 8c 3d 7a 38 c3 bd 80 15 eb bd 07 ef 93 bd
       0.06865729 -0.095322564 -0.1147871 -0.07223325
000090 97 ef ad 3d 36 38 3b 3e af 79 7c 3c a2 d6 11 3e
       0.08492964 0.18283162 0.015409871 0.14242032
0000a0 e5 ce e7 3c 2e 76 e9 bc 74 a4 92 bd 4c e5 bd 3d
       0.028296897 -0.028498735 -0.07160273 0.092722505
0000b0 b8 58 cd 3d d7 2f c0 bd 1f 15 ec bc 56 76 46 be
       0.100266874 -0.09384125 -0.028818665 -0.19381079
0000c0 a6 36 22 be 04 dd 10 3e 78 e2 2b 3e 72 d0 3b 3d
       -0.15841159 0.14146811 0.1678561 0.045853086
0000d0 fa 33 e2 3d 32 24 0c 3e 68 0e 9b bd de 5a a5 3b
       0.1104507 0.13685682 -0.07571107 0.0050462326
0000e0 c0 82 3b bd 75 10 84 be ea 2c 2a 3d 10 60 0c 3c
       -0.04577899 -0.25793806 0.04154674 0.008567825
0000f0 0e 41 8c 3d d4 5f f7 3c f2 20 01 3d 3c b5 e9 bb
       0.06848346 0.030197062 0.03152556 -0.0071322005
000100 da bb 04 be 25 7a 2b 3d a5 67 ac bb 0b 22 9a bd
       -0.12962285 0.041864533 -0.005261379 -0.075260244
000110 bc 40 2f 3d 5b 83 0f 3d e6 2a d9 bc 74 01 27 bd
       0.042786345 0.03503738 -0.026509713 -0.04077287
000120 82 f2 1c bd 8f 0e a8 bd b7 2c 82 be 24 d5 a0 3d
       -0.03831721 -0.08205902 -0.2542474 0.07853153
000130 bf 14 82 3b 93 ff 1f be 20 ba 8c 3c 33 d9 c2 3d
       0.0039697583 -0.15624838 0.017178595 0.09514084
000140 09 40 47 be 14 36 67 bc 99 31 9c 3d 79 b9 4b bd
       -0.19458021 -0.014112014 0.076266475 -0.049737427
000150 2a 05 13 3b d1 b3 85 3d 21 ef 27 be 90 50 6c 3d
       0.0022433498 0.06528438 -0.16399814 0.057694018
000160 d7 90 7a 3d 66 f3 95 bd 3e 13 b0 3d 5d e5 56 3d
       0.061173286 -0.07321815 0.0859742 0.05246483
000170 9a 9b f5 3d 13 d6 e5 bc ea 63 64 bd aa cc 19 3d
       0.11992569 -0.02805618 -0.055759348 0.0375487
000180 49 9b b1 bc 98 70 b0 3c 8c 4b 20 be 4e b2 e3 3d
       -0.021680491 0.021538064 -0.15653819 0.11117993
000190 85 29 0e 3e b5 cb b3 3d 61 3b c2 bd e0 af 8d 3c
       0.13883026 0.087790884 -0.09483982 0.017295778
0001a0 10 cb 04 3d 79 03 19 3c 89 4f 46 bd 4f 6b 5f 3d
       0.032420218 0.009339207 -0.048415694 0.054545697
0001b0 76 a6 28 3d b5 19 7e 3a 6f 1c 8e 3c 4f f1 af 3c
       0.041174375 0.00096931617 0.017347543 0.02147737
0001c0 dc 19 29 3d 98 83 8f bd 7d 35 c6 3d e4 41 14 be
       0.041284427 -0.070075214 0.09678171 -0.1447826
0001d0 4b 4f af bd 94 6b 90 bd 64 e8 a2 bd c1 50 cd bc
       -0.08560046 -0.07051769 -0.07954481 -0.02506292
0001e0 79 3c 81 bc 1b ff 0a 3e 05 9e 00 3e 93 1e 8e bd
       -0.015775906 0.13573878 0.1256028 -0.06939425
0001f0 42 ee 98 bd b8 9d d4 bd 94 1e 16 be 16 2b a2 bc
       -0.07467319 -0.10381645 -0.14660102 -0.019795936
000200 1f ef bd 3c 28 0c 9f 3d 4a 68 00 3e 4c dd f2 bc
       0.02318531 0.077659905 0.12539783 -0.029646538
000210 e5 25 1b be 07 5f 18 bd a8 7b 4f 3d e5 1a ad 3d
       -0.15151174 -0.0372 0.050655037 0.08452395
000220 5a a6 75 3e d8 9b 0b 3d 48 6d c3 bd 0c ab 23 be
       0.2398924 0.03408417 -0.09542328 -0.15983218
000230 2d 34 e4 3c d9 2f 3c 3d 4a 2d 90 3d 94 dd eb bc
       0.02785691 0.04594407 0.07039888 -0.02879218
000240 49 8a ec 3d 3a 03 cf bd e5 d0 1c be bb e0 44 3d
       0.11549813 -0.10108037 -0.15314062 0.048065882
000250 44 94 d4 bd ff e3 6e bd a6 c6 3e 3e 1d b4 be 3b
       -0.10379842 -0.058322903 0.18630466 0.005819811
000260 03 a0 b2 bd 17 b4 4a 3c ad c8 c6 3d 57 62 06 3d
       -0.08721926 0.012372038 0.097062446 0.032808628
000270 54 1d e9 bb f6 77 c0 bc ec 04 c2 bd c2 3d 09 3e
       -0.007114092 -0.023494702 -0.09473595 0.13402465
000280 ce 48 26 be a4 47 cc 3d 16 c4 b8 3a 6b 7b 51 bd
       -0.1623871 0.09974602 0.0014096524 -0.05114309
000290 58 f6 b2 3d b1 2d f7 3d ba 8e 23 3e 96 31 4f be
       0.087383926 0.12069262 0.15972415 -0.2023376
0002a0 f5 1d 4b bd b4 8d 3b 3d 30 6a 51 be 76 e5 2e 3e
       -0.049589116 0.045789436 -0.20450664 0.1707972
0002b0 d6 29 68 3d 3d 59 6b be 85 61 c2 bb f9 f9 ff bd
       0.056680523 -0.2298326 -0.0059320354 -0.124988504
0002c0 51 74 3f 3d 68 9c 8a 3d 19 74 a8 bc 46 32 19 be
       0.046741787 0.067681134 -0.020563172 -0.14960584
0002d0 79 4e 14 3c 87 62 1e be 36 26 9d 3d e9 d0 6f 3e
       0.009051912 -0.15467273 0.07673304 0.23419537
0002e0 43 d2 89 3d 35 90 71 3d 78 85 d3 3d 1d c8 ef 3d
       0.06729557 0.058975417 0.103281915 0.117080905
0002f0 e1 56 aa bc 19 e1 85 3d 91 93 c1 bd ba 16 44 bc
       -0.02079338 0.065370746 -0.09451974 -0.011968309
000300 7a 06 78 bd 38 93 cf 3c ea 4b 00 3e 05 0c eb bc
       -0.06055305 0.025338754 0.12528959 -0.028692255
000310 7f 6e 1a 3e 9c 1f 83 3d 65 a6 22 be 2e 32 8d 3d
       0.15081213 0.064025134 -0.15883787 0.06894337
000320 1e ed 6a bd 6b de 20 bb f4 3d 29 bd 56 fd 8a 3d
       -0.05735504 -0.0024546634 -0.04131885 0.06786601
000330 98 53 ae bd 32 64 18 bd 80 22 2c be 98 ec 38 bd
       -0.08512038 -0.03720493 -0.16810036 -0.04514751
000340 9d bf 7a bd 79 67 91 3c cd 33 bb bd 56 f2 29 bd
       -0.061217893 0.017749535 -0.091407396 -0.041490875
000350 44 e3 14 3d 5b 9f 68 3e 24 c4 e5 3c 88 0e c4 3d
       0.03634955 0.2271704 0.028047629 0.09573084
000360 90 b8 31 bd 9d 5a 04 bd fb d4 d7 3d 5c a4 d4 3d
       -0.043388903 -0.032312978 0.1053867 0.103829116
000370 e7 69 31 3c 58 e2 0b be c1 7d 37 be ab 00 95 3d
       0.010828472 -0.13660562 -0.17919065 0.07275518
000380 8c 0d b9 3d a0 20 08 be 40 39 8c bc d2 b6 07 be
       0.09035787 -0.13293695 -0.017117143 -0.13253334
000390 36 8f b2 3d dd 30 d3 bd c3 9f 2e be 0a 32 27 3e
       0.087187216 -0.10312054 -0.17053132 0.16327682
0003a0 bc b7 f0 bd 2c 8e 9e bd 4f 7e a5 3d ef ad 4a bd
       -0.117537946 -0.07741961 0.08080732 -0.049482282
0003b0 61 3e 9f 3d 91 84 a2 bd 49 c9 a1 3d d5 7a f4 3c
       0.0777557 -0.07935441 0.0789972 0.029843727
0003c0 93 36 91 bb c0 0e 28 bd 07 9b 27 3d e8 4b 27 bd
       -0.0044315546 -0.04102969 0.04091933 -0.040843874
0003d0 2a 2e 21 3d fd 43 90 3e db c4 30 be 8d 9d 9b bc
       0.039350666 0.2817687 -0.17262594 -0.018996025
0003e0 aa 0b 08 bd d1 75 8c 3d 00 ea 79 bd 7d 94 96 bd
       -0.03321425 0.06858409 -0.061014175 -0.07352541
0003f0 c7 85 9c 3c ec b9 d4 bd 36 7b 57 3e a7 3e cd 3b
       0.019106759 -0.10387024 0.21043095 0.0062635723

network_body._body_endoder.seq_layers.2.bias f4 [128]
000000 74 ec e3 3c 26 50 a1 3c 99 09 8c 3c 78 d9 a3 3c
       0.02782271 0.019691538 0.01709442 0.020001158
000010 fe d7 fe 3c ef d8 0d 3d 6b db e2 bb 71 38 07 3a
       0.031108852 0.034630712 -0.0069231293 0.0005158252
000020 4a 50 08 3b f5 02 bc 3c 5f bb ea ba 33 1e 8a 3c
       0.002079981 0.022950629 -0.0017908624 0.016860103
000030 7b 5d 42 3b d5 3c ed 3c 13 6e 97 3c 5a a9 bf ba
       0.002965777 0.028959671 0.018485105 -0.0014622614
000040 f5 fb 1f bc c6 e1 91 3c 13 06 b9 3c f4 28 c6 3c
       -0.009764661 0.017807852 0.022585904 0.02418945
000050 bf 64 5f bb c9 29 c1 3c 7a 02 fb 3b d0 26 d6 3a
       -0.003408715 0.023579495 0.0076602073 0.0016338471
000060 32 43 b8 3b e1 c8 b0 bb 7b 94 00 bc 46 1a a5 3c
       0.0056232447 -0.0053950404 -0.0078479005 0.02015413
000070 e3 ab 89 3c 4b 21 24 3c 15 19 b3 3c d0 27 99 3c
       0.016805595 0.010017703 0.021862546 0.018695742
000080 01 f8 e5 3a b3 eb 97 3c 26 8a c6 3c 1d 65 da 3c
       0.0017545224 0.018545007 0.024235796 0.026659543
000090 67 73 2f 3b 0f 9f 73 3c de 98 7f 3c e7 ed ed 3c
       0.0026771666 0.0148694655 0.015600411 0.029044105
0000a0 81 e3 f1 bb 06 b1 67 bb 2c 9d a5 3c 8f 26 bc 3c
       -0.007381857 -0.0035353317 0.020216547 0.022967605
0000b0 88 6c 52 3c ac cb 7d 3c 11 06 8e 3c 83 0d 36 3c
       0.012843259 0.015490454 0.017336877 0.01111162
0000c0 d6 b3 c3 3c 7d 74 8e bb c5 bc 29 3d 77 d0 af 3c
       0.023889463 -0.0043473826 0.04143979 0.021461708
0000d0 6e a8 3c bc 45 6e 08 3c f3 e8 9d 39 ca 6e 73 bb
       -0.011514766 0.008327072 0.00030118934 -0.0037144893
0000e0 ae 2c 31 3b fb 92 11 bc 26 12 80 3c 38 76 3a 3c
       0.0027034688 -0.0088851405 0.015633654 0.011380725
0000f0 85 77 81 3c 5c b8 a3 3c b1 af 7e 3c cd 4f c7 3c
       0.015804062 0.01998537 0.015544818 0.024330044
000100 da 55 c4 3b 4a 63 60 3b f1 34 a8 3c 63 35 46 3c
       0.0059916796 0.0034238868 0.020533057 0.012097689
000110 b4 cc 4b ba 1e ce a4 3b f4 2d f0 3c 08 22 7b 3c
       -0.00077743386 0.005029454 0.029318787 0.015327938
000120 ca 2c cc bc 45 7d 46 3c 43 18 0f 3c c4 92 c3 3c
       -0.0249237 0.0121148275 0.008733812 0.023873694
000130 0c a9 ee 3b f5 d8 4c 3c 78 45 17 3d d4 a3 0d 3c
       0.0072833356 0.012502898 0.036931485 0.008645017
000140 e9 46 4c 3d 0a e7 09 bb 3a 2a 79 3c 0f fa c1 3b
       0.049872313 -0.002104225 0.0152078215 0.005919702
000150 cf 82 80 3c 9d 5a 96 3c 34 2e 66 3a 42 01 4b 3b
       0.015687374 0.018353755 0.00087806885 0.0030976092
000160 8b d1 cb 3c a7 2b 95 3c 55 42 d2 3c 4a 4f 4d bb
       0.024880191 0.018209292 0.025666395 -0.0031327778
000170 09 00 77 3c 30 2e 0c bc 3e bc d3 3a c0 a5 bd 3b
       0.015075692 -0.008555934 0.0016154123 0.005787581
000180 01 96 27 bc 29 43 ab 3c 72 ca 8d 3c 38 87 a0 3c
       -0.010228635 0.020906048 0.017308448 0.019595727
000190 fd 8a 17 3d 1e d5 15 3d 14 83 72 3c 3e 7f 8a 3c
       0.036997784 0.036580198 0.014801759 0.016906377
0001a0 ab d2 a9 3c 70 4e b1 3c 81 df 2f 3c 35 08 ff 3b
       0.020730337 0.021643847 0.01073444 0.007782961
0001b0 4b 02 66 3c 4a 49 3e 3c be 16 c6 3c fd 62 79 3c
       0.014038633 0.011614153 0.024180766 0.015221355
0001c0 3c 9a ad 3c 70 0f 75 3c 66 a1 3a 3c 2e d1 9f 3c
       0.021191709 0.014957294 0.011391019 0.019508924
0001d0 17 bb a0 3c dc 39 78 bb f4 53 3f bc 1f ce 1e 3d
       0.019620461 -0.0037876284 -0.011677731 0.03877079
0001e0 7d 10 1b 3c 85 0d 65 3b 6e 36 8d 3c f7 1f f5 3c
       0.00946438 0.0034950685 0.017237868 0.029922469
0001f0 b2 e7 29 3c c9 4d 1e 3c 05 73 e6 3c 25 f0 9f 3c
       0.010370182 0.0096621 0.028131017 0.01952369
