Assets/[MAIN]TestML/JumpOverTurnBase/Models/GroupJumper_Skill1_v5.onnx (onnx, 627479 bytes, 15 tensors)

discrete_act_size_vector f4 [1, 2]
0	0x40a00000	5.0
1	0x40400000	3.0

network_body.observation_encoder.processors.0.conv_layers.0.weight f4 [16, 5, 8, 8]
0	0x3dd75ff9	0.10516352
1	0x3d7f2ebd	0.062300432
2	0xbcee1141	-0.029060962
3	0x3ddb334e	0.10703145
4	0xbe0a6b1f	-0.13517426
5	0xbdaaff95	-0.0834953
6	0x3dbb6dd7	0.0915181
7	0x3d958c4e	0.073021516
8	0x3d285c7d	0.04110383
9	0xbddc70a9	-0.10763676
10	0xbdfb82b6	-0.122807905
11	0xbce4e464	-0.027940936
12	0xbba35ae9	-0.0049852026
13	0xbdde06b1	-0.1084112
14	0xbe423d15	-0.18968613
15	0xbdf1a4ef	-0.11799037
16	0xbe4da7da	-0.20083562
17	0x3e7865fc	0.24257654
18	0x3e13c307	0.14429866
19	0xbe3ad9d3	-0.18247156
20	0x3c2f1954	0.010687191
21	0x3d3a47a3	0.045478474
22	0x3ea73990	0.32661104
23	0x3e993f43	0.29931077
24	0xbc578ee0	-0.013156623
25	0x3e038a75	0.12845786
26	0xbdaf940f	-0.08573162
27	0xbb2b14ad	-0.0026104853
28	0x3e5d30f4	0.21600705
29	0x3e165718	0.14681661
30	0xbdd7c04e	-0.10534726
31	0xbd7df530	-0.062001407
32	0xbe3a6138	-0.18201149
33	0x3d9e459a	0.07728119
34	0x3de67e03	0.112545036
35	0x3dbc6c6e	0.09200369
36	0xbda7bed9	-0.08190698
37	0xbc8a97ef	-0.01691815
38	0x3dc23fba	0.09484811
39	0xbe5e7a5c	-0.21726364
40	0x3e27d0bc	0.1638822
41	0x3e28297d	0.16422077
42	0x3d8e255b	0.06940719
43	0x3e293adb	0.16526358
44	0xbe08add5	-0.13347562
45	0xbd0bf05b	-0.034164768
46	0x3d45eda2	0.048322327
47	0x3e1a0be0	0.15043592
48	0xbe086b95	-0.1332229
49	0x3c4788cf	0.012178614
50	0x3df5f0c6	0.120088145
51	0x3e2dd55d	0.16975923
52	0x3d9bd6b3	0.0760931
53	0xbdff5f61	-0.12469364
54	0x3e36abe7	0.17839013
55	0x3d8f4f2b	0.06997522
56	0xbd18fd52	-0.03735096
57	0x3db31c58	0.087456405
58	0xbd2a71c0	-0.041612387
59	0x3e7c77fc	0.24655145
60	0xbd662292	-0.056185313
61	0x3e87a592	0.26493508
62	0x3e81740e	0.25283855
63	0xbc55d833	-0.013052034
64	0xbe0b16a4	-0.13582855
65	0x3cb28be0	0.021795213
66	0xbda4e9c0	-0.08052397
67	0x3df4f87a	0.11961456
68	0xbc9672e3	-0.01836533
69	0xbca5681e	-0.020191249
70	0xbdeca8b2	-0.115556136
71	0x3e4187fa	0.18899527
72	0xbda5de49	-0.08099038
73	0xbdaab2eb	-0.08334907
74	0x3ea49eb8	0.32152343
75	0xbd0167a8	-0.031592995
76	0x3e8d5f77	0.27611896
77	0x3e07a739	0.13247384
78	0xbe16ab58	-0.147138
79	0xbe0f97cd	-0.14022751
80	0x3e463b1a	0.19358483
81	0xbdce2128	-0.10064918
82	0xbc92a1af	-0.017899362
83	0xbe60c292	-0.21949223
84	0xbe191529	-0.14949478
85	0xbe2337a6	-0.15939197
86	0x3c21ba42	0.0098710675
87	0xbda6c43f	-0.081429
88	0x3e55c6c3	0.20876603
89	0x3df2ebec	0.11861405
90	0x3e9082ec	0.28224885
91	0xbe07d305	-0.13264091
92	0xbc56fc81	-0.013121725
93	0x3e0ea6ee	0.13930866
94	0x3dfe8f4e	0.12429677
95	0xbdce3ee7	-0.100705914
96	0x3d116285	0.035494346
97	0x3db71987	0.08940416
98	0xbd8be04c	-0.068298906
99	0xbd9dbf77	-0.07702535
100	0x3e970b2c	0.2950071
101	0x3e383906	0.17990503
102	0x3e29a9bf	0.16568659
103	0xbcdf70eb	-0.027275523
104	0xbe3444a5	-0.17604311
105	0x3e61425d	0.21997972
106	0x3cea9d4d	0.02863946
107	0x3e32fff9	0.17480458
108	0xbbc8a76b	-0.0061234734
109	0xbc57ffa3	-0.013183507
110	0xbe1235dd	-0.1427836
111	0x3e7fc1f8	0.24976337
112	0x3e720494	0.23634559
113	0x3da5a7e2	0.08088662
114	0x3e48872f	0.19582818
115	0xbe51e395	-0.20496972
116	0xbcc56542	-0.024096135
117	0x3c4d895b	0.012544955
118	0x3e4cb049	0.19989122
119	0xbe2632e2	-0.16230348
120	0xbd792925	-0.060830254
121	0x3d76dca4	0.060269013
122	0x3d9322d3	0.071843766
123	0xbdb79c93	-0.08965411
124	0xbdf59d45	-0.119928874
125	0xbe576cdb	-0.21037619
126	0xbe083d6b	-0.13304679
127	0xbd0cab01	-0.03434277
128	0x3e0cccc3	0.13749985
129	0xbebb3e19	-0.36570814
130	0x3d99af84	0.0750418
131	0xbe17ebff	-0.14836119
132	0xbdb1a11c	-0.08673307
133	0xbe06b53e	-0.13155076
134	0xbe1800d4	-0.14844066
135	0x3ebd1742	0.36931807
136	0xbe90758a	-0.28214675
137	0x3d8fce6f	0.07021796
138	0x3e11a6f0	0.14223838
139	0x3d95b59e	0.07310031
140	0xbdde8a6c	-0.108662456
141	0x3e44085c	0.19143814
142	0x3e468758	0.19387567
143	0x3e1af176	0.15131173
144	0x3d6eda13	0.05831344
145	0x3bc2322e	0.005926392
146	0xbdd0e438	-0.10199779
147	0x3da339c5	0.07970003
148	0x3dce163b	0.10062834
149	0x3d8210c5	0.06350855
150	0x3e275849	0.16342272
151	0xbd11d6ce	-0.035605244
152	0x3ce0b219	0.027428674
153	0xbe081a54	-0.13291293
154	0x3f046d1c	0.5172899
155	0x3dc15f51	0.09442008
156	0xbe11a7b1	-0.14224125
157	0x3ec2f4e5	0.38077465
158	0xbaf672b1	-0.0018802491
159	0xbdbfdacc	-0.09367904
160	0x3e9eb5c7	0.3099806
161	0xbcd431ce	-0.025902655
162	0x3e4b76e3	0.1986957
163	0x3ec1883f	0.3779926
164	0xbda34117	-0.07971399
165	0xbe79cbdf	-0.24394177
166	0xbc1f542d	-0.009724659
167	0xbc6c98e2	-0.014440747
168	0x3d7d07a6	0.061774872
169	0xbe270406	-0.16310129
170	0x3e671c7f	0.22569464
171	0xbe234369	-0.15943684
172	0xbdcb4b19	-0.09926433
173	0xbdf0993d	-0.11747978
174	0x3da55798	0.08073348
175	0xbe676780	-0.22598076
176	0xbe5899b5	-0.21152385
177	0x3d8945fa	0.067028
178	0xbe30c0fe	-0.1726112
179	0xbe3660f4	-0.17810422
180	0xbe5882b1	-0.21143605
181	0x3cca913d	0.024727458
182	0x3e8a006c	0.26953447
183	0x3e2dc6b7	0.16970335
184	0x3d88111a	0.06643887
185	0x3e03455d	0.12819429
186	0xbd8e49d1	-0.06947673
187	0x3d8a5cc9	0.067559786
188	0x3d8b19cd	0.067920305
189	0x3e4ce1d9	0.20008029
190	0x3d1856f9	0.03719232
191	0x3d9adfb9	0.07562203
192	0x3da1e667	0.07905274
193	0xbdb01849	-0.08598382
194	0x3d0f4a79	0.034983132
195	0x3e506e28	0.20354521
196	0x3cbe11ed	0.023201907
197	0xbd4e049c	-0.050297365
198	0x3d229b87	0.039699104
199	0x3d09a34a	0.03360299
200	0xbe368f48	-0.17828095
201	0x3da6350c	0.08115587
202	0x3cbdc25d	0.023163969
203	0xbe1efa1e	-0.155251
204	0x3e02b7fb	0.12765495
205	0x3d6f029d	0.0583521
206	0x3c5d7858	0.013517462
207	0xbde7cd33	-0.113184355
208	0x3de7f107	0.11325269
209	0x3da2e623	0.07954051
210	0xbd77c978	-0.06049487
211	0xbdb683f4	-0.08911887
212	0x3d4bc67a	0.04974983
213	0x3c603e3a	0.013686711
214	0x3e4b1856	0.19833502
215	0x3e62916e	0.2212579
216	0xbd0a6c50	-0.0337947
217	0x3e3177c3	0.17330842
218	0x3dc33591	0.09531701
219	0xbe96e217	-0.29469368
220	0x3dc284c0	0.09497976
221	0xbd537932	-0.051629253
222	0xbdd6b57b	-0.104838334
223	0x3e2e3640	0.17012882
224	0x3e5e0ae4	0.21683842
225	0x3dc70cc4	0.09719232
226	0xbe254747	-0.16140471
227	0x3e3b6ce8	0.18303263
228	0x3deda0b2	0.11602916
229	0x3d993703	0.07481196
230	0x3d26a685	0.04068615
231	0xbe075584	-0.13216215
232	0xbd97c8b6	-0.074113294
233	0xbdfc44c9	-0.12317807
234	0x3e2168dd	0.15762658
235	0x3e10b2b9	0.14130677
236	0xbc413883	-0.011793259
237	0xbdefd924	-0.11711338
238	0x3d521464	0.051288977
239	0x3df2258c	0.11823568
240	0x3d7df0c1	0.06199718
241	0xbd784dc2	-0.06062103
242	0x3e3dd83f	0.18539523
243	0xbdcf46ff	-0.10120963
244	0x3de3e00f	0.1112672
245	0x3bf3a0e2	0.00743495
246	0xbcc0a4fe	-0.023516174
247	0x3e480968	0.19534838
248	0x3db59555	0.088663734
249	0x3e83b167	0.25721285
250	0xbc71e666	-0.014764404
251	0x3e01ab4d	0.12663002
252	0x3e37ccb8	0.17949188
253	0xbd9094bf	-0.07059621
254	0xbd93f8c3	-0.07225182
255	0x3d890910	0.06691182

network_body.observation_encoder.processors.0.conv_layers.0.bias f4 [16]
0	0xbe263454	-0.16230899
1	0xbdbcd84c	-0.09220943
2	0xbdd02596	-0.10163419
3	0xbd7e89aa	-0.062143005
4	0xbcceb056	-0.025230568
5	0xbcb4c1b8	-0.022065029
6	0xbdfec7b1	-0.12440432
7	0xbd50b01d	-0.050949205
8	0xbdbbd9cc	-0.09172401
9	0xbdd29e1d	-0.10284064
10	0xbd903e48	-0.07043129
11	0xbd8bcf72	-0.068266764
12	0xbd6f1778	-0.05837199
13	0xbd47ac7b	-0.048748475
14	0xbdfb5bba	-0.12273355
15	0xbde379a2	-0.11107184

network_body.observation_encoder.processors.0.conv_layers.2.weight f4 [32, 16, 4, 4]
0	0x3d80fabe	0.06297825
1	0x3e00fc30	0.12596202
2	0x3e2c30c2	0.16815475
3	0x3c4170cc	0.011806678
4	0xbdd031ef	-0.10165774
5	0x3df3c687	0.119031005
6	0x3ce2c82f	0.027683346
7	0x3e09c560	0.13454199
8	0xbd1ac812	-0.03778846
9	0xbdd3bcc0	-0.103387356
10	0x3db2e8e9	0.0873583
11	0x3deca7a1	0.1155541
12	0xbad477f4	-0.0016210065
13	0x3d543700	0.051810265
14	0xbc4a6c13	-0.012354868
15	0xbd942262	-0.072331205
16	0x3dd8c170	0.1058377
17	0xbd522f53	-0.051314663
18	0x3dda9363	0.10672643
19	0xbbfa0e30	-0.007631086
20	0xbde0d40a	-0.10977943
21	0x3e2b2c8e	0.16716215
22	0xbe4584b7	-0.19288908
23	0x3dc48edf	0.09597563
24	0xbca96514	-0.02067808
25	0xbbaa9768	-0.0052060373
26	0x3da5d297	0.080968075
27	0x3cb94180	0.02261424
28	0xbd971dc7	-0.073787265
29	0xbd02d96a	-0.031945623
30	0xbdc7174f	-0.09721243
31	0x3ca97f10	0.020690471
32	0xbe184f8d	-0.14874096
33	0xbea02376	-0.31277055
34	0xbe025003	-0.12725835
35	0xbda4761a	-0.080303386
36	0xbd06d903	-0.032921802
37	0xbe6e8deb	-0.23296325
38	0xbdd26f0b	-0.10275086
39	0x3da1dc5b	0.079033576
40	0x3ce1af4e	0.027549412
41	0x3e08e029	0.1336676
42	0x3e139f3f	0.14416216
43	0xbbe66c6a	-0.007031967
44	0x3df0b9a4	0.11754158
45	0xbd8cee5d	-0.06881402
46	0xbd561a2b	-0.05227105
47	0x3d32767e	0.043570034
48	0x3d816fdf	0.06320166
49	0x3e2e1d00	0.1700325
50	0x3da9e0e8	0.082948506
51	0xbe0e8212	-0.13916805
52	0x3d178f9c	0.03700219
53	0xbd45fbd7	-0.048335876
54	0xbde2e1cb	-0.11078223
55	0x3ce65d3b	0.028120628
56	0x3d647cba	0.05578301
57	0xbb97b67a	-0.004629907
58	0xbda4a38a	-0.08039005
59	0x3c04f317	0.008114598
60	0xbcb89eeb	-0.022536715
61	0x3d65491f	0.055977937
62	0xbd76b765	-0.060233492
63	0xbc828bf6	-0.01593588
64	0xbca1a8aa	-0.019733746
65	0xbe1df67e	-0.1542606
66	0xbc4e749c	-0.012601044
67	0x3d912022	0.07086207
68	0xbe30da4d	-0.17270775
69	0x3db263af	0.087104194
70	0x3da63d6e	0.081171855
71	0xbdcd5e46	-0.10027747
72	0x3e3003ab	0.17188899
73	0xbdff9ed5	-0.12481467
74	0x3de54dc9	0.11196477
75	0x3e23ce4a	0.15996662
76	0x3d7dca33	0.06196041
77	0x3d3e6894	0.046486452
78	0x3d1eff9b	0.038817983
79	0xbd3bd4ec	-0.045857355
80	0xbd213da8	-0.03936544
81	0x3d1a3292	0.037645884
82	0xbd05812b	-0.032593887
83	0x3cbc51d9	0.022988247
84	0x3c7cd075	0.015430559
85	0xbbdff9ec	-0.006835213
86	0xbe274113	-0.16333418
87	0x3c08ef1d	0.00835779
88	0x3d4d75a3	0.050161015
89	0xbe7d6dee	-0.24748966
90	0x3d24bdd2	0.04022009
91	0x3dc9bb25	0.09850148
92	0x3d773988	0.0603576
93	0x3e1425f1	0.14467598
94	0x3c3e8fdc	0.011630978
95	0x3e0b1403	0.13581853
96	0xbcaa74de	-0.02080768
97	0x3e6d7326	0.23188457
98	0x3e234fff	0.15948485
99	0xbda7e1b4	-0.08197346
100	0x3de62847	0.11238151
101	0x3da7e875	0.081986345
102	0x3d925734	0.07145539
103	0x3d5c5f65	0.053801913
104	0x3e03bdf1	0.12865426
105	0xbcb30377	-0.021852238
106	0x3e450397	0.1923965
107	0x3e30f30a	0.17280212
108	0x3e16425a	0.14673749
109	0x3ae4c84c	0.0017454713
110	0xbd0238de	-0.031792514
111	0x3dcbb1e5	0.0994604
112	0xbcd421f6	-0.0258951
113	0xbe22c756	-0.15896353
114	0x3e381392	0.17976215
115	0x3e16ac91	0.14714266
116	0xbd69f604	-0.057119384
117	0x3de2eb2d	0.110800125
118	0x3ddebc8e	0.10875808
119	0x3d794baa	0.060863174
120	0x3d862e03	0.06551745
121	0xbe34493b	-0.1760606
122	0x3d8078fd	0.06273077
123	0x3dc05ae6	0.093923375
124	0x3cb0c44e	0.02157798
125	0x3d8cbe60	0.06872249
126	0x3df21f11	0.11822332
127	0x3dabf27b	0.08395859
128	0x3e583d85	0.21117218
129	0x3e3ee4d2	0.18641976
130	0x3d23b3bb	0.039966326
131	0x3d6d4b73	0.057933282
132	0xbb48f98c	-0.003066632
133	0xbe1fbb69	-0.15598835
134	0x3d05422b	0.032533806
135	0x3c28ab83	0.010294798
136	0x3dbbff68	0.09179574
137	0x3e0a0436	0.13478169
138	0x3e1e6a14	0.15470153
139	0x3dbd905e	0.092560515
140	0x3bbb5518	0.005716931
141	0x3dc2795b	0.09495803
142	0x3d984287	0.07434564
143	0x3e5e5b79	0.21714582
144	0x3d9d0b0e	0.07668124
145	0xbd9ac1b1	-0.07556475
146	0xbd27acde	-0.040936343
147	0x3dcf405f	0.101197
148	0x3e3cdba4	0.18443161
149	0xbce54923	-0.027988976
150	0xbcd9e821	-0.026599946
151	0x3dac1064	0.08401564
152	0x3de793aa	0.113074616
153	0xbe238cb0	-0.15971637
154	0xbdb0ba10	-0.086292386
155	0xbddc6c56	-0.10762851
156	0x3d9c7ee0	0.07641387
157	0x3e783063	0.24237208
158	0x3e1230d1	0.14276434
159	0x3d804660	0.06263423
160	0x3d252cbe	0.040325873
161	0x3d6732ee	0.056445055
162	0xbc8a8fdc	-0.0169143
163	0x3d3dc013	0.046325754
164	0x3cdbc05f	0.026825128
165	0x3da557eb	0.0807341
166	0x3ddcd7e5	0.10783366
167	0x3d1a895e	0.03772866
168	0xbdcfd6bd	-0.1014838
169	0xbe16f669	-0.14742436
170	0xbe907ca2	-0.28220087
171	0x3d817aad	0.06322227
172	0xbd2aee3e	-0.04173111
173	0x3e0e8f29	0.13921799
174	0x3d4be58d	0.049779464
175	0x3db5173c	0.08842322
176	0xbc79b584	-0.015241031
177	0x3cd9dedf	0.026595531
178	0xbde3e28b	-0.11127194
179	0x3d2693ab	0.04066817
180	0xbd19b1b3	-0.037522983
181	0x3e4fa619	0.20278205
182	0xbd5e624b	-0.05429296
183	0x3e261616	0.16219363
184	0xbd85a6ba	-0.06525941
185	0xbe6a2b83	-0.22868161
186	0x3e16788c	0.14694422
187	0x3daecf90	0.08535683
188	0x3cc95b5b	0.024579694
189	0x3db33e3b	0.08752104
190	0xbd606408	-0.054782897
191	0xbd5a3192	-0.05326993
192	0x3cf395b7	0.029734476
193	0x3cd72aeb	0.026265582
194	0x3c963e51	0.018340262
195	0x3e3ef72b	0.18648975
196	0x3dca9de6	0.09893398
197	0x3da840ee	0.08215509
198	0x3df80628	0.12110549
199	0x3dbf794b	0.09349307
200	0x3cc00c85	0.02344347
201	0x3e001b03	0.12510304
202	0xbc97282b	-0.01845177
203	0x3d62e00b	0.055389445
204	0x3e810832	0.25201565
205	0x3eddbe39	0.4330919
206	0x3e355589	0.1770841
207	0xbc3fa1a3	-0.011696252
208	0x3e1f6241	0.15564825
209	0xbe0f170e	-0.13973638
210	0x3df299bf	0.11845731
211	0x3e369eab	0.17833965
212	0x3e322e41	0.17400457
213	0xbe3f74d2	-0.18696907
214	0xbc4ec4fd	-0.012620208
215	0x3e7c9d97	0.24669491
216	0x3e2591f0	0.16168952
217	0x3dab9438	0.0837788
218	0x3d30ed5a	0.043195106
219	0x3ddef46b	0.10886463
220	0x3e0261d9	0.12732638
221	0x3dee5284	0.11636832
222	0x3deed58a	0.11661823
223	0x3e82efb8	0.25573516
224	0xbd99dcac	-0.07512793
225	0x3d39c612	0.04535491
226	0x3d88f38c	0.06687078
227	0xbda1b9c7	-0.07896762
228	0x3d5630a7	0.052292492
229	0xbc9c69c6	-0.019093405
230	0xbc5964d4	-0.013268668
231	0xbd1cd21e	-0.03828632
232	0xbe412b93	-0.18864278
233	0x3d4fbc85	0.050716896
234	0xbd6088c4	-0.05481793
235	0x3c3ad5fe	0.011403559
236	0x3c45d650	0.012075022
237	0xbcc53fb8	-0.024078235
238	0x3db3e4d1	0.08783878
239	0xbaa0ec87	-0.0012277522
240	0x3d5a79ef	0.05333894
241	0x3ea6708a	0.32507735
242	0x3dd473cd	0.1037365
243	0x3c954522	0.018221442
244	0x3d852411	0.0650102
245	0xbd632b7f	-0.055461403
246	0x3d088f12	0.033339567
247	0x3dbf9bcc	0.09355888
248	0x3d545019	0.0518342
249	0x3d22c65b	0.039739948
250	0xbe296b9d	-0.16544957
251	0x3df03805	0.11729435
252	0x3df30c68	0.11867601
253	0x3e720a43	0.23636727
254	0x3e2fb545	0.17158993
255	0xbd95111e	-0.072786555

network_body.observation_encoder.processors.0.conv_layers.2.bias f4 [32]
0	0xbddc15d2	-0.107463494
1	0xbd6d9815	-0.058006365
2	0x3ca222bf	0.019791959
3	0x3b930a1c	0.004487289
4	0x3ce1209e	0.027481373
5	0xbc81e58f	-0.015856532
6	0x3d97e3ca	0.07416494
7	0xbd30fee4	-0.043211833
8	0xbd05f451	-0.0327037
9	0xbbb332e0	-0.0054687113
10	0x3d47c328	0.0487701
11	0xbdcc91c3	-0.09988739
12	0xbc642f9a	-0.013927365
13	0xbdc8f703	-0.09812739
14	0xbd55fe81	-0.052244667
15	0xbd0cb40b	-0.03435139
16	0xbd1ca48d	-0.038242865
17	0xbc98b9db	-0.01864331
18	0xbd00ad03	-0.031414997
19	0xbccea928	-0.025227144
20	0x3ca278be	0.019832965
21	0x3bef6860	0.0073061436
22	0x3c2483d2	0.010041194
23	0xbc6a8e15	-0.014316102
24	0xbc0075fe	-0.0078406315
25	0xbd656e69	-0.0560135
26	0xbdcb47fe	-0.09925841
27	0x3c0054bd	0.007832703
28	0xbda0c100	-0.07849312
29	0xbd4b2f8a	-0.049605884
30	0xbdf2ef76	-0.1186208
31	0xbda4d1c9	-0.08047826

network_body.observation_encoder.processors.0.dense.0.weight f4 [256, 32]
0	0x3e828d70	0.25498533
1	0x3d824fc1	0.06362868
2	0xbe7fe101	-0.24988176
3	0xbcd85e1c	-0.026412062
4	0xbd215bb5	-0.0393941
5	0x3e721064	0.23639065
6	0x3e2a0684	0.16604048
7	0xbec1dd2e	-0.3786406
8	0x3ecd0c88	0.40048623
9	0x3f0c0d6a	0.5470797
10	0xbe32c420	-0.17457628
11	0x3e02247b	0.12709229
12	0xbe6098bd	-0.21933265
13	0x3e0b3080	0.1359272
14	0x3dd4aa88	0.10384089
15	0x3ea48f1f	0.32140443
16	0xbbe79635	-0.0070674666
17	0xbe33bef7	-0.17553316
18	0x3e058c3a	0.13041773
19	0xbecf7b68	-0.4052384
20	0x3db4c5ef	0.08826815
21	0xbde5ef7d	-0.112273194
22	0x3e74346b	0.23848121
23	0xbdaf29db	-0.08552905
24	0xbf263b24	-0.6493399
25	0xbe253584	-0.16133696
26	0x3d483329	0.048876915
27	0xbf27ffc7	-0.6562466
28	0xbd50b628	-0.050954968
29	0x3e3f2f9f	0.1867051
30	0x3c995778	0.018718466
31	0xbd36de75	-0.044645745
32	0x3da0b6f9	0.07847399
33	0xbe1d0796	-0.15334925
34	0xbe8dda58	-0.27705646
35	0xbe2f66d0	-0.17129064
36	0x3e0c2e2e	0.13689491
37	0xbe5a4cc3	-0.21318345
38	0xbd0446dd	-0.032294143
39	0x3e7d03e1	0.24708511
40	0x3daa2675	0.08308116
41	0xbe8cbd82	-0.27488333
42	0x3e58728a	0.21137443
43	0xbdd0da6c	-0.10197911
44	0xbe4152bc	-0.18879217
45	0xbf4732cf	-0.778119
46	0xbe878450	-0.26468134
47	0xbf1e4f4c	-0.6183975
48	0xbe5c0c59	-0.21489085
49	0xbdb921e9	-0.09039671
50	0xbd341167	-0.04396191
51	0xbe3adeef	-0.18249105
52	0x3d48a586	0.04898598
53	0xbb298fe3	-0.0025873117
54	0x3b76d089	0.0037660918
55	0x3e2e5241	0.17023565
56	0xbe75430d	-0.23951359
57	0xbe30d869	-0.17270054
58	0xbd4c6292	-0.04989869
59	0xbe1aa78b	-0.15102975
60	0x3e8cc391	0.27492955
61	0xbd5de1b3	-0.05417032
62	0xbea9f396	-0.33193654
63	0xbe95ae88	-0.2923472
64	0xbe4cf911	-0.20016886
65	0x3eb56c8d	0.3543438
66	0xbdc93135	-0.098238386
67	0xbdcfc20f	-0.101444356
68	0xba978749	-0.0011560704
69	0xbe0d5b8a	-0.1380445
70	0x3e5caf02	0.21551135
71	0xbe96ddc0	-0.29466057
72	0xbef7a537	-0.48368236
73	0x3e1d47df	0.15359448
74	0x3d6ca3cb	0.057773393
75	0xbe8c0601	-0.2734833
76	0xbdcd53b9	-0.100257345
77	0xbec7f603	-0.3905488
78	0xbf0d1412	-0.5510875
79	0x3dfa7e66	0.1223114
80	0x3de23c82	0.11046697
81	0x3e2f3887	0.17111407
82	0x3d445df8	0.047941178
83	0xbf57a06d	-0.84229165
84	0xbdaa329a	-0.08310433
85	0xbdea421b	-0.1143839
86	0x3bfb0811	0.0076608737
87	0xb96575b2	-0.00021882987
88	0x3f43152d	0.76204187
89	0x3eab883c	0.33502376
90	0x3eb58b6f	0.35457942
91	0xbec5addc	-0.38609207
92	0xbe41f17f	-0.1893978
93	0x3ed98abf	0.42488667
94	0x3da68b5f	0.08132052
95	0x3e793f4b	0.2434055
96	0xbe7eb88d	-0.24875088
97	0xbc955e31	-0.01823339
98	0xbdfaa4b2	-0.122384444
99	0x3ec1dac6	0.37862223
100	0x3db08456	0.08618991
101	0x3ec43778	0.3832357
102	0xbebf31a6	-0.37342566
103	0x3e48e3ad	0.19618101
104	0x3d894677	0.06702893
105	0xbdd5f049	-0.104462214
106	0xbe762c02	-0.24040225
107	0x3e9332bd	0.28749648
108	0xbe8108db	-0.2520207
109	0x3e2cfed7	0.16894089
110	0xbeb2b524	-0.34903824
111	0x3f1f9d98	0.62349844
112	0xbeac6faf	-0.33678958
113	0xbe567f95	-0.20947106
114	0x3dc250a1	0.09488035
115	0xbe012e51	-0.12615325
116	0x3d3d824d	0.046266843
117	0xbe0ca827	-0.1373602
118	0xbb681d2a	-0.0035417774
119	0xbe5748a3	-0.21023802
120	0xbea77262	-0.32704455
121	0xbeeb4637	-0.45952007
122	0xbe9e5c98	-0.30930018
123	0x3ed378d2	0.41303116
124	0xbec6400b	-0.38720736
125	0x3dc1f438	0.09470409
126	0xbe3a68b0	-0.18203998
127	0xbdf95eb2	-0.12176265
128	0xbc10b5c2	-0.008832397
129	0x3ec74386	0.38918704
130	0xbe6fcb06	-0.23417291
131	0x3dcba4b9	0.09943528
132	0x3d45df15	0.04830845
133	0xbe85be33	-0.26121673
134	0xbc97cf4e	-0.018531468
135	0xbe74ae6e	-0.23894665
136	0x3d47c08b	0.048767608
137	0x3d1889d3	0.037240814
138	0xbe2961ff	-0.16541289
139	0xbe035687	-0.12825976
140	0xbe32e335	-0.17469485
141	0xbe2d3bc5	-0.16917332
142	0x3e4a43db	0.19752447
143	0xbe893449	-0.26797703
144	0xbef05d57	-0.46946213
145	0xbeaa1169	-0.33216408
146	0x3e852a61	0.26008895
147	0xbdc632c7	-0.09677654
148	0x3e81ceed	0.25353184
149	0x3e483b7c	0.19553941
150	0xbe24874e	-0.1606724
151	0xbee887fa	-0.45416242
152	0xbddda929	-0.1082328
153	0xbe8fc5a4	-0.28080475
154	0x3ea425b8	0.32060027
155	0x3c78f37b	0.015194769
156	0x3e568029	0.20947327
157	0xbe9c63bd	-0.30544844
158	0x3cb3c7e3	0.0219459
159	0xbea1cdc2	-0.31602293
160	0x3e5c9591	0.2154143
161	0x3e927b1d	0.28609553
162	0xbccae217	-0.024766011
163	0x3eb9a40d	0.36257973
164	0xbd978e9d	-0.07400248
165	0x3ce7f828	0.028316572
166	0xbea73af0	-0.32662153
167	0x3d999315	0.07498757
168	0x3e2ec8bc	0.17068762
169	0xbdfe9ca9	-0.12432224
170	0x3e036be7	0.1283413
171	0xbe9dbdff	-0.30809018
172	0x3e324cc0	0.1741209
173	0xbe9ab872	-0.30218846
174	0x3ef99b40	0.4875126
175	0xbe80d3a6	-0.25161475
176	0xbe81db98	-0.2536285
177	0xbeb710f0	-0.3575511
178	0xbe428d56	-0.18999228
179	0x3e9de142	0.3083592
180	0x3c04814d	0.008087468
181	0xbd8a980d	-0.06767283
182	0xbe36f0e5	-0.17865331
183	0xbdab4e9a	-0.083646014
184	0xbe5d693c	-0.21622175
185	0x3da8490e	0.08217059
186	0xbe12f063	-0.14349513
187	0x3e8e7fe9	0.27831963
188	0x3c5dadb3	0.013530183
189	0x3e243393	0.16035299
190	0xbe3471fb	-0.17621605
191	0xbe10e07a	-0.14148131
192	0xbdd3f9ad	-0.10350356
193	0xbe967b40	-0.29390907
194	0xbe787a61	-0.24265434
195	0x3dd81a8e	0.1055194
196	0xbded0b2e	-0.11574398
197	0xbe8eb394	-0.27871382
198	0xbd800285	-0.062504806
199	0xbe8654c8	-0.26236558
200	0xbf0355b9	-0.5130268
201	0xbe9b1d98	-0.30296016
202	0xbd525428	-0.05134979
203	0x3dba6abf	0.091023915
204	0xbe6c0439	-0.23048486
205	0xbe619e56	-0.22033057
206	0xbb3274fa	-0.0027230368
207	0x3f0bb9d2	0.54580414
208	0xbcdbbd29	-0.026823597
209	0xbd34f5d7	-0.044179764
210	0xbdbe7ae9	-0.09300787
211	0x3e28d24d	0.16486473
212	0x3e47121b	0.194405
213	0x3e2290ed	0.15875597
214	0xbd5a4ef4	-0.05329795
215	0x3e42f76f	0.19039701
216	0x3e15d864	0.14633328
217	0x3e5a6dab	0.21330898
218	0x3ebcf36d	0.3690447
219	0xbdf80837	-0.12110942
220	0x3d9921b3	0.07477131
221	0xbc1fb4cb	-0.009747694
222	0x3e38a3d0	0.1803124
223	0xbe461808	-0.19345105
224	0x3e0e0091	0.13867404
225	0x3e3ce6af	0.18447374
226	0xbede3f68	-0.4340775
227	0x3e442838	0.19155967
228	0xbe8605f7	-0.26176426
229	0x3e201c45	0.15635784
230	0xbe4f3331	-0.20234372
231	0x3e73a8f0	0.23794913
232	0xbe1afde9	-0.15135922
233	0x3c85fa5a	0.016354728
234	0x3d168113	0.03674419
235	0xbe13e0f4	-0.14441282
236	0xbe2c45fc	-0.16823572
237	0xbdd5512b	-0.10415872
238	0xbe9a1ad7	-0.30098602
239	0x3dc167c2	0.09443618
240	0x3e5a1eba	0.21300784
241	0xbf83843c	-1.027473
242	0xbea7f0c5	-0.3280088
243	0xbedc217a	-0.4299429
244	0xbe85a71b	-0.26104054
245	0x3e11454c	0.14186591
246	0x3eef6bc6	0.46761912
247	0xbdec8302	-0.11548425
248	0x3e1e0901	0.15433122
249	0xbe24bf8a	-0.16088691
250	0x3ee3f699	0.44524077
251	0x3e690622	0.22756246
252	0x3c54fd6c	0.012999874
253	0x3ddc83a2	0.107672945
254	0x3f00b1c8	0.5027127
255	0xbdb94e23	-0.090481065

network_body.observation_encoder.processors.0.dense.0.bias f4 [256]
0	0xbca51064	-0.020149417
1	0x3c69df55	0.014274438
2	0xbda1acd2	-0.07894291
3	0x3c1a572a	0.009420196
4	0xbd839428	-0.06424743
5	0x3d23c818	0.039985746
6	0xbcb6d178	-0.02231668
7	0xbd829d57	-0.063776664
8	0x3d9b81fa	0.075931504
9	0x39308a71	0.00016836241
10	0x3cb7dff5	0.022445658
11	0xbdc8b67c	-0.09800431
12	0xbe32fbdc	-0.17478889
13	0x3dbf5b8c	0.09343633
14	0x3d051497	0.03249034
15	0x3c024a32	0.00795226
16	0x3d27fd76	0.041013204
17	0x3a6432e3	0.00087050925
18	0xbd2da6c7	-0.04239538
19	0x3beb9ed2	0.0071905637
20	0xbd760d68	-0.06007138
21	0xbd825127	-0.06363135
22	0xbdaaf8f0	-0.08348262
23	0xbd1e200e	-0.03860479
24	0xbd1e5b7b	-0.03866146
25	0xbe337b18	-0.17527425
26	0xbe2b8056	-0.16748175
27	0x391f754a	0.00015207115
28	0x3bf34c7c	0.007424889
29	0xbd3c3e17	-0.04595765
30	0x3df01cce	0.11724244
31	0xbce93b50	-0.028470665
32	0xbdd49092	-0.10379137
33	0xbdbafd7b	-0.09130379
34	0x3d90a88f	0.070634
35	0xbdd5c7d5	-0.104385056
36	0xbd7078d5	-0.058708984
37	0xbde8d0aa	-0.113679245
38	0xbca7a35a	-0.020463634
39	0xbcb7e5fd	-0.022448534
40	0xbdf56d8e	-0.119837865
41	0xbd451c9e	-0.048122995
42	0xbd8672c5	-0.06564859
43	0xbdca2aa4	-0.09871414
44	0xbdbe1e21	-0.092830904
45	0xbd74c5b7	-0.059758868
46	0xbd61cb2a	-0.055125393
47	0xbd7af330	-0.061267078
48	0xbdb185f6	-0.08668129
49	0xbca86582	-0.020556215
50	0xbd83571c	-0.06413099
51	0xbda34d80	-0.07973766
52	0xbe08851d	-0.13332029
53	0x3c8aea83	0.016957527
54	0xbcfc8b0b	-0.03082802
55	0xbd417a4a	-0.047235765
56	0xbb824efc	-0.003976701
57	0xbddfbba9	-0.10924465
58	0xbd9b0328	-0.075689614
59	0xbbd63947	-0.0065375897
60	0xbdae9234	-0.0852398
61	0xbe25ca8f	-0.16190551
62	0xbcb5d485	-0.022196064
63	0x3c6c8c02	0.014437677
64	0x3c5d8fd9	0.0135230655
65	0x3d1f0b49	0.03882912
66	0xbc8ec6a5	-0.017428705
67	0xbe052416	-0.13002047
68	0x3dab7226	0.083713815
69	0xbcba9b4f	-0.022779135
70	0xbdbaabb2	-0.091147795
71	0xbdf7ef0b	-0.12106141
72	0xbda7feb1	-0.082028754
73	0x3c034e6b	0.008014302
74	0xbc2027c5	-0.009775107
75	0xbcfc4be6	-0.03079791
76	0x3cd4310a	0.02590229
77	0xbd12078c	-0.03565173
78	0xbca17e3d	-0.019713515
79	0xbd6afcbe	-0.05736994
80	0xb7a2ce46	-1.9407958e-05
81	0xbcaf2106	-0.021378051
82	0xbde582dd	-0.11206601
83	0xbdcfb8fb	-0.10142704
84	0xbdba18d2	-0.09086765
85	0x3c5367fd	0.012903211
86	0xbc94e234	-0.018174268
87	0xbe198c6b	-0.14994971
88	0xbc5f1d8c	-0.013617884
89	0xbdd650f6	-0.10464661
90	0xbd1dea47	-0.038553502
91	0xbe12c620	-0.14333391
92	0xbd66548f	-0.056232985
93	0xbd390053	-0.045166325
94	0xbc2b4bdb	-0.010455097
95	0xbd2aacdb	-0.041668754
96	0xbddb8e2f	-0.10720479
97	0xbdbb9489	-0.0915919
98	0x3a418742	0.00073825207
99	0xbda82667	-0.0821045
100	0xbe454d86	-0.19267854
101	0x3d2484b0	0.040165603
102	0xbe0d07b1	-0.13772465
103	0xbd9f8162	-0.0778835
104	0xbaafdaf7	-0.0013416697
105	0xbd31a8eb	-0.043373983
106	0xbe22b7e5	-0.15890463
107	0x3d3cf12a	0.04612843
108	0x3bbbbc3b	0.005729226
109	0xbc93a69d	-0.018023783
110	0xbe4648b1	-0.19363667
111	0xbdb5649d	-0.08857081
112	0xbde0f5dc	-0.10984394
113	0xbdd6d5a9	-0.10489971
114	0xbe45fa74	-0.19333822
115	0xbdaba3b5	-0.08380834
116	0xbd89bd39	-0.067255445
117	0xbc2fc360	-0.010727733
118	0xbca5232e	-0.020158377
119	0xbcca6e11	-0.024710687
120	0xbd0eefeb	-0.034896772
121	0x3d8db581	0.06919385
122	0xbdd7d8dd	-0.1053941
123	0xbdc3c0f7	-0.095582895
124	0xbe156052	-0.14587525
125	0x3d1a5d08	0.037686378
126	0x3d8fb2dd	0.07016537
127	0xbdba088b	-0.09083661
128	0xbd445c20	-0.04793942
129	0xbd94e10f	-0.07269489
130	0x3d195048	0.037430078
131	0xbdb2795f	-0.08714556
132	0xbe162c15	-0.14665253
133	0xbe048381	-0.1294079
134	0xbdb9e010	-0.0907594
135	0x3b0f91ed	0.0021907047
136	0xbb948b6f	-0.0045332233
137	0x3dc5d260	0.096592665
138	0xbc8482e4	-0.016175695
139	0xbca00097	-0.019531531
140	0xbdbee865	-0.093216695
141	0xbe145f03	-0.14489369
142	0xbdcbcdb7	-0.09951346
143	0xbd61253a	-0.054967143
144	0xbdad5383	-0.08463194
145	0xbe129f79	-0.14318646
146	0xbdd2991c	-0.102831095
147	0xbda4eb31	-0.08052672
148	0x3cfeec44	0.03111852
149	0xbe5a6c7a	-0.21330443
150	0xbd20655a	-0.039159156
151	0x3bda1e82	0.006656469
152	0x37ee9c80	2.8444687e-05
153	0xbdaed098	-0.0853588
154	0xbda49dfe	-0.08037947
155	0x3ccf71c7	0.025322808
156	0x3d15ff8e	0.03662067
157	0xbdad5033	-0.084625624
158	0xbc8df18b	-0.01732709
159	0xbe312611	-0.17299677
160	0xbd7268dc	-0.059182033
161	0x3d39769b	0.045279127
162	0xbe4b39aa	-0.19846216
163	0xbe19564c	-0.14974326
164	0xbd697052	-0.056991883
165	0xbdaf5780	-0.08561611
166	0xbe163097	-0.14666973
167	0xbd3241a3	-0.043519627
168	0xbd3d0829	-0.04615036
169	0xbdc8b948	-0.098009646
170	0xbdae390b	-0.08506974
171	0x3da1034b	0.07861956
172	0xbdb5de15	-0.088802494
173	0x3d44aff1	0.048019353
174	0xbd81a23f	-0.06329774
175	0xbe0e9465	-0.13923796
176	0xbd8c8ff9	-0.06863398
177	0xbe196f47	-0.14983855
178	0xbe385077	-0.17999445
179	0xbe2d3521	-0.16914798
180	0xbe2e9a03	-0.17050938
181	0xbcf38b5a	-0.029729534
182	0x3c6911c7	0.01422543
183	0xbcbe554c	-0.023234032
184	0x3c037a5d	0.008024779
185	0xbde57027	-0.11203032
186	0xbcb17740	-0.021663308
187	0xbd1b7c9e	-0.03796064
188	0xbdc1b0e8	-0.0945757
189	0xbe1c0bb6	-0.15238842
190	0xbe039ca3	-0.12852721
191	0xbdb343c1	-0.087531574
192	0xbd4aeaab	-0.049540203
193	0xbc2a9a17	-0.010412714
194	0xbdad7f49	-0.08471543
195	0xbd956a2a	-0.0729564
196	0xbd2e93a2	-0.042621262
197	0x3bbead39	0.0058189896
198	0xbbeeef09	-0.007291679
199	0xbe122090	-0.14270234
200	0xbe2b945e	-0.16755816
201	0xbe16269d	-0.14663167
202	0x3c9577e9	0.018245654
203	0xbd86d367	-0.065832905
204	0xbda2605d	-0.07928536
205	0xbe175b2f	-0.14780878
206	0x3c12e8bc	0.008966621
207	0xbd8768f0	-0.06611812
208	0xbd69c0b2	-0.057068534
209	0xbe1ef4d9	-0.1552309
210	0xbcca2bb4	-0.024679042
211	0xbd26b1eb	-0.04069702
212	0xbd081e26	-0.033231877
213	0xbe56f68c	-0.20992488
214	0xbd079568	-0.03310147
215	0xbcad39dc	-0.021145754
216	0xbd83076e	-0.063979015
217	0xbd44c3c9	-0.048038278
218	0xba0149d3	-0.000493196
219	0xbdd1f7c4	-0.10252336
220	0xbe1df97e	-0.15427205
221	0xbc4e1c2b	-0.012579958
222	0xbe111b36	-0.14170536
223	0xbd21cb50	-0.039500535
224	0x3c7ca1b3	0.0154194115
225	0xbd4548ee	-0.048165254
226	0x3c8b22da	0.016984392
227	0xbd2ea275	-0.0426354
228	0xbc9dff0a	-0.019286651
229	0xbd394e93	-0.04524095
230	0xba894614	-0.0010473155
231	0xbd77ac63	-0.060467135
232	0xbca92374	-0.020646788
233	0xbda46247	-0.080265574
234	0xbbba3e22	-0.0056836763
235	0xbe14ecbe	-0.14543435
236	0xbdce056d	-0.10059629
237	0xbcd202f0	-0.025636166
238	0xbdd8cbad	-0.10585723
239	0xbdce268b	-0.10065945
240	0x3da01d6b	0.07818111
241	0xbde7b448	-0.11313683
242	0xbbcbcdc4	-0.0062195975
243	0xbcfe804d	-0.031067038
244	0xbe1445e3	-0.14479785
245	0xbd8a3f41	-0.06750346
246	0xbddfbaa4	-0.10924271
247	0xbe4d2908	-0.20035183
248	0xbe010328	-0.1259886
249	0xbd34cc62	-0.044140227
250	0xbd30adc7	-0.043134477
251	0x3c627f7e	0.013824342
252	0x3bb165e7	0.005413759
253	0xbd52c30b	-0.05145554
254	0x3b53bfff	0.0032310484
255	0x3d237555	0.03990682

network_body._body_endoder.seq_layers.0.weight f4 [256, 256]
0	0xbd135739	-0.035971854
1	0x3e43c503	0.19118123
2	0xbd4050cf	-0.046952065
3	0xbde73ab0	-0.112904906
4	0xbc8a9990	-0.016918927
5	0x3d0b978e	0.03408008
6	0xbc721c0c	-0.014777195
7	0x3d9b249d	0.07575343
8	0x3de18dac	0.1101335
9	0x3da12f2f	0.07870328
10	0x3d9e1917	0.07719629
11	0xbcf5b166	-0.029991817
12	0x3ca58d88	0.020209089
13	0x3eabc9b5	0.33552328
14	0xbe60cd6b	-0.2195336
15	0x3d5b1176	0.05348345
16	0x3e5985b8	0.21242416
17	0xbd2b84d0	-0.041874707
18	0x3dbe8bb6	0.093039915
19	0x3e27ec74	0.16398793
20	0x3c7e320e	0.015514864
21	0xbd9e8196	-0.0773956
22	0x3c9109b3	0.01770482
23	0x3e2d6c08	0.16935742
24	0x3d87cc19	0.066307254
25	0x3c610974	0.013735164
26	0xbb96cfcb	-0.0046024076
27	0xbc3f1156	-0.011661848
28	0x3e4a0503	0.19728474
29	0x3dfd7ff9	0.123779245
30	0xbe4557a8	-0.1927172
31	0xbe020ef3	-0.12701015
32	0x3e64a552	0.2232869
33	0x3d01bf2a	0.03167645
34	0x3e8d7109	0.276253
35	0xbd99af14	-0.075040966
36	0xbe6428eb	-0.22281234
37	0x3d1abf3d	0.037780035
38	0x3cacb213	0.021081006
39	0xbb73eef4	-0.0037221285
40	0xbd608444	-0.05481364
41	0xbd85021c	-0.06494543
42	0xbdf04a20	-0.11732888
43	0xbbddb390	-0.0067657903
44	0xbdc956b1	-0.09830988
45	0xbd62fd29	-0.055417214
46	0xbd890c0f	-0.06691753
47	0x3d94fcbc	0.07274768
48	0x3d0f0ab3	0.034922313
49	0x3d0432f2	0.032275148
50	0xbd3e2538	-0.046422213
51	0xbca59db5	-0.020216802
52	0xbd642f94	-0.055709437
53	0xbe0ecd39	-0.13945474
54	0x3d21a7c2	0.039466627
55	0x3e1b2e05	0.15154274
56	0x3d4362e1	0.04770172
57	0xbdfa169c	-0.12211344
58	0x3cc38a19	0.023869561
59	0xbd2aefaf	-0.041732486
60	0xbe3af1f7	-0.18256365
61	0xbdb512a0	-0.08841443
62	0x3d2f3b5e	0.042781226
63	0xbdc58b9c	-0.09645769
64	0x3df358f7	0.11882203
65	0x3c9b2c64	0.018942066
66	0xbe40b1b2	-0.18817785
67	0xbd9e292b	-0.07722696
68	0xbe34124c	-0.17585105
69	0x3d35f3d3	0.044421982
70	0x3d94c55b	0.07264205
71	0x3da0ee0a	0.07857902
72	0xbe3390b0	-0.17535663
73	0xbe05bd6e	-0.13060543
74	0x3d28e661	0.04123533
75	0x3d7bde8a	0.061491527
76	0x3e750fbe	0.23931786
77	0x3d90dc05	0.070732154
78	0x3d92f71f	0.07176041
79	0x3d7a1d7b	0.06106327
80	0x3d9ce9bd	0.076617695
81	0x3d87acf7	0.06624787
82	0xbd2d402e	-0.042297535
83	0xbb955b19	-0.004557979
84	0xbe610ec7	-0.21978293
85	0xbe090999	-0.13382567
86	0x3e609c44	0.2193461
87	0x3d13783e	0.036003344
88	0x3e65a0d5	0.22424634
89	0xbd11dbdf	-0.035610076
90	0x3c5dfc57	0.013548932
91	0xbe0138f6	-0.12619385
92	0x3ceb9120	0.028755724
93	0x3d0f4520	0.034978032
94	0x3d0069c3	0.031350862
95	0xbca65841	-0.020305755
96	0xbd29951a	-0.04140196
97	0x3df58242	0.11987735
98	0x3e552c43	0.20817666
99	0xbd9a02f9	-0.07520098
100	0x3e4775fb	0.194786
101	0x3e605680	0.21907997
102	0xbc046d7d	-0.008082745
103	0xbe019e55	-0.12658055
104	0x3bc92a89	0.006139104
105	0xbd5c42a4	-0.05377449
106	0xbd2d425d	-0.042299617
107	0xbd01f787	-0.0317302
108	0x3c1bdbf8	0.009512894
109	0xbc62c926	-0.013841903
110	0xbd199a5e	-0.03750073
111	0x3def9317	0.11697977
112	0xbd40e966	-0.047097586
113	0x3d44bfba	0.048034407
114	0x3d884c76	0.06655209
115	0xbdc4d9aa	-0.096118286
116	0xbd551bb0	-0.052028358
117	0x3e0046b2	0.12526968
118	0x3e3af84e	0.18258783
119	0x3db5e77f	0.08882045
120	0xbdc15f54	-0.094420105
121	0x3e50e4de	0.20399806
122	0xbdc65f0a	-0.09686096
123	0xbd02aefa	-0.031905152
124	0xbdb2e96f	-0.0873593
125	0xbcb78335	-0.022401432
126	0x3e7ce337	0.2469605
127	0x3e4d86c6	0.20070943
128	0x3dc1f63c	0.094707936
129	0x3da7b0a1	0.08187986
130	0xbdccf069	-0.10006792
131	0x3d4b039c	0.04956399
132	0x3d452a05	0.048135776
133	0x3dcdfb7b	0.10057732
134	0x3e24ba41	0.16086675
135	0x3d1b43c1	0.037906412
136	0xbd53d8d4	-0.051720455
137	0x3e854044	0.26025593
138	0x3cabc139	0.02096616
139	0xbbd73476	-0.006567533
140	0xbd9abee0	-0.07555938
141	0xbe245d55	-0.16051228
142	0x3dced5ba	0.10099359
143	0x3e4fd40f	0.20295738
144	0x3ce90532	0.02844486
145	0xbdb3ebe1	-0.08785225
146	0xbcedb757	-0.029018087
147	0x3ddee34d	0.10883198
148	0x3d966959	0.07344312
149	0x3e001914	0.12509567
150	0x3dd256ce	0.10270463
151	0x3df5e761	0.12007023
152	0x3ea2f2e8	0.31825948
153	0x3dd1d2ec	0.10245308
154	0xbdf22932	-0.11824264
155	0xbd923cfe	-0.071405396
156	0x3e0a46b7	0.13503538
157	0xbe19a7dd	-0.15005441
158	0xbd268bb3	-0.04066057
159	0x3ddda813	0.10823073
160	0xbdf137d5	-0.11778227
161	0xbc5e09f9	-0.013552182
162	0xbc748172	-0.01492344
163	0x3e13594f	0.14389537
164	0xbd294d0f	-0.041333254
165	0xbdd59cd3	-0.104303025
166	0x3db435b9	0.08799309
167	0x3db9ed8e	0.09078513
168	0x3dde2419	0.10846729
169	0x3e460533	0.19337921
170	0xbd44dd9f	-0.048062917
171	0x3e185127	0.14874707
172	0xbdaf0ddd	-0.08547566
173	0xbe0da647	-0.13832961
174	0xbd99ee38	-0.0751614
175	0x3c75dc9a	0.015006209
176	0xbe084d30	-0.13310695
177	0xbe97aa6d	-0.29622212
178	0x3c139fad	0.009010238
179	0x3d8a41b5	0.06750814
180	0x3d06a2a8	0.032869965
181	0x3db2f529	0.08738167
182	0xbce07ad7	-0.027402325
183	0xbd20ae85	-0.039228935
184	0xbd3bbadf	-0.04583251
185	0x3d0cc238	0.03436491
186	0xbdbef052	-0.09323181
187	0x3e46abb6	0.1940144
188	0xbe178d74	-0.14800054
189	0xbd8fe5b3	-0.070262335
190	0x3da3511b	0.07974454
191	0xbd50b1c7	-0.05095079
192	0xbdf01cc8	-0.117242396
193	0xbd808b97	-0.06276625
194	0xbd323e77	-0.043516602
195	0x3e2a9fe8	0.16662562
196	0xbe3eb3b4	-0.18623239
197	0x3d4d9d1e	0.050198667
198	0xbc9de2db	-0.019273212
199	0xbe8f4145	-0.27979484
200	0xbb9e65ae	-0.0048338985
201	0x3c0a6d83	0.008448961
202	0xbdd96c07	-0.10616308
203	0xbdac157e	-0.08402537
204	0xbe115015	-0.14190705
205	0xbde822e0	-0.11334777
206	0x3e228966	0.15872726
207	0xbd40dccf	-0.04708558
208	0xbcb69f39	-0.02229272
209	0xbd9804a9	-0.07422764
210	0xbd79fc34	-0.061031535
211	0x3db45b6c	0.088065
212	0xbddfd2a8	-0.10928851
213	0xbdce3073	-0.10067835
214	0x3e1a0e3a	0.1504449
215	0xbe4f05a4	-0.20216995
216	0xbb2645dc	-0.002537123
217	0xbe17cb6e	-0.14823696
218	0x3c8bb712	0.017055068
219	0x3dd4ba04	0.10387042
220	0x3cbbdfe7	0.022933913
221	0xbd8f6c10	-0.07003033
222	0xbcd6b9c7	-0.026211632
223	0x3d297297	0.041369047
224	0xbd7a77a6	-0.061149262
225	0x3e708c60	0.23491049
226	0xbdbf92d6	-0.093541786
227	0xbe000315	-0.12501176
228	0x3c9ed7dc	0.01939004
229	0xbca698bc	-0.020336501
230	0x3c4fc1cb	0.012680481
231	0xbb69e709	-0.0035690686
232	0x3d993409	0.07480628
233	0x3dbaeb31	0.091268905
234	0xbd550e7b	-0.052015763
235	0xbda00bbc	-0.07814738
236	0xbe2f133d	-0.17097183
237	0xbd83072a	-0.06397851
238	0xbe615999	-0.22006835
239	0x3df456d5	0.119306244
240	0x3dbba3b8	0.09162086
241	0xbd60e0ff	-0.054902073
242	0x3e4f8f81	0.20269586
243	0xbe064d98	-0.13115537
244	0xbd55338e	-0.05205112
245	0xbd8e01e8	-0.06933957
246	0x3d2847a2	0.04108394
247	0x3e4a1def	0.19737981
248	0x3da0578c	0.07829198
249	0xbdf8fbe5	-0.1215742
250	0x3e5877f8	0.21139514
251	0xbdce96dc	-0.10087368
252	0x3db27d7a	0.08715339
253	0x3b7673f2	0.003760573
254	0x3dff6328	0.124700844
255	0x3d9f1df9	0.07769389

network_body._body_endoder.seq_layers.0.bias f4 [256]
0	0xbb382cae	-0.0028102803
1	0x3c3df3de	0.011593787
2	0xbd0348dd	-0.03205191
3	0xbca69259	-0.020333456
4	0x3c54190e	0.012945427
5	0x3cd16eed	0.025565589
6	0x3b5d40f8	0.0033760648
7	0x3b18d5b5	0.0023320739
8	0x3c19e028	0.009391822
9	0x3bd0db9d	0.006373836
10	0x3c88a3e2	0.016679708
11	0x3c4ce7f6	0.012506476
12	0xbc8c5506	-0.017130386
13	0xbc9ca2fb	-0.019120684
14	0x3cc22cd7	0.023703022
15	0x3c04c317	0.008103154
16	0x3ccb42a6	0.024812054
17	0xbcc27388	-0.02373673
18	0xb98c5b0e	-0.00026770722
19	0x3ce8b6bc	0.028407447
20	0xbc46f299	-0.012142801
21	0xbbe9ab2c	-0.007131001
22	0x3c2200f6	0.009887924
23	0xbcbde65c	-0.023181133
24	0x39f008e6	0.00045782997
25	0xbabba270	-0.0014315378
26	0xbc280f69	-0.01025758
27	0x3b6cf436	0.0036156303
28	0x3bfa0c6d	0.007630876
29	0xbc4fad2f	-0.0126755675
30	0x3bd78402	0.006577016
31	0x3c3de3bb	0.01158994
32	0x3cfd6876	0.0309336
33	0xbc13a8da	-0.009012425
34	0xbd08fff6	-0.03344723
35	0x3cab7390	0.020929128
36	0x3b873c0f	0.0041270326
37	0xbccbe58f	-0.024889736
38	0x3bfc71d6	0.007704
39	0xbbfdb45c	-0.007742448
40	0xbd23f438	-0.040027827
41	0x3cf47fd1	0.029846104
42	0x3b3fbcfc	0.002925693
43	0xbc894557	-0.016756697
44	0xbc6060a3	-0.013694915
45	0x3cfe5ab2	0.031049106
46	0x3c549575	0.012975086
47	0x3c8b7bf5	0.01702688
48	0x3cc492c6	0.023995768
49	0x3c87dd35	0.016584972
50	0x3d35ffd0	0.044433415
51	0x3c9c9ac1	0.019116761
52	0x3bb41fd8	0.00549696
53	0xba31b0da	-0.0006778367
54	0xbc8cd366	-0.017190646
55	0xbb9e2157	-0.0048257518
56	0xbc509edb	-0.012733187
57	0x3c043553	0.008069354
58	0x3c50e725	0.012750422
59	0x3c8db220	0.01729685
60	0x3c40d93b	0.011770542
61	0xbd134d9d	-0.03596269
62	0x3cf7c448	0.030244961
63	0xbb1c8295	-0.0023881544
64	0xbb43376e	-0.0029787677
65	0xbb0fa463	-0.002191805
66	0x3c83c6cf	0.01608601
67	0x3b190013	0.0023345992
68	0x3ba37f8e	0.004989571
69	0x3a80db89	0.0009831052
70	0xbc131664	-0.008977506
71	0x3c8dca4e	0.01730838
72	0xbc60fe81	-0.013732553
73	0x3a64b29c	0.00087241246
74	0x3c0d0f6b	0.008609633
75	0x3cf21981	0.029553177
76	0xbc3caf3c	-0.0115163885
77	0x3c867a7e	0.01641583
78	0xbbfda254	-0.0077402983
79	0x3c6d225a	0.014473522
80	0x3ccf57f3	0.025310492
81	0x3c31a651	0.010842876
82	0xbc12802e	-0.008941693
83	0xba76dce5	-0.0009417071
84	0x3ce00aae	0.027348842
85	0x3d10f689	0.035391364
86	0x3ca7dd41	0.020491244
87	0x3a97de06	0.0011586554
88	0xbd337c1f	-0.043819543
89	0x3d4bc727	0.049750473
90	0x3cfcc746	0.03085674
91	0x3d030441	0.03198648
92	0xbbb59681	-0.005541623
93	0x3c52ce50	0.012866572
94	0x3c9668d8	0.01836054
95	0xb9efbed2	-0.00045727805
96	0xbb04db16	-0.0020272187
97	0x3c5e72d6	0.013577184
98	0xbb52638a	-0.0032102787
99	0xbca1213d	-0.01966917
100	0x3cf04186	0.029328119
101	0xbc42ebd2	-0.011897044
102	0x3c0dcf52	0.008655386
103	0x3c0df0c3	0.008663359
104	0xbc1082a5	-0.008820211
105	0x3c263034	0.010143328
106	0x3c00410a	0.0078280065
107	0x3d0850e2	0.03328026
108	0x3c7d75fa	0.015470022
109	0xbb198ed4	-0.002343108
110	0xbc98e0d8	-0.018661901
111	0xbb23ef05	-0.0025014293
112	0x3c11e3ab	0.008904378
113	0x3c1da163	0.009620997
114	0x3ca4c036	0.020111185
115	0xbca9d476	-0.020731192
116	0x3b0fc508	0.0021937508
117	0x3cab0e9c	0.02088099
118	0x3cb21186	0.021736871
119	0x3caefe9d	0.021361643
120	0x3bd73a60	0.006568238
121	0x3c17a5d1	0.009255842
122	0xbb0c18c8	-0.0021377075
123	0x3c96caad	0.01840719
124	0xbc381ec6	-0.011237806
125	0xbcc5bbf3	-0.024137473
126	0x3d837897	0.06419485
127	0xbcc40357	-0.023927374
128	0x3bac1625	0.0052516633
129	0xbaf15b1a	-0.0018413991
130	0xbbe07c10	-0.006850727
131	0xbb086dcf	-0.0020817404
132	0xbc51475b	-0.01277336
133	0x3b84605e	0.004039808
134	0xbb025f41	-0.0019893202
135	0xbb124fcf	-0.0022325402
136	0xbb5848f7	-0.0033002475
137	0xbc381b45	-0.01123697
138	0xbc7eddd8	-0.015555821
139	0xbc2e1ca8	-0.010626949
140	0xbb09ba54	-0.0021015601
141	0xbc89ef3d	-0.01683771
142	0xbb456c40	-0.0030124336
143	0x3c257393	0.010098356
144	0xbc521116	-0.012821456
145	0x3ac94f4d	0.0015358716
146	0xba163e94	-0.0005731371
147	0xbbf3c857	-0.007439654
148	0x3cfeaac2	0.031087283
149	0xbc32b853	-0.010908204
150	0x3c6b3e8b	0.014358173
151	0xbb885763	-0.004160808
152	0xbc386cea	-0.011256436
153	0x3cc2b729	0.023768978
154	0x3bb6da0b	0.005580192
155	0xbc6cc492	-0.014451163
156	0x3c18b95f	0.00932154
157	0x3bd12964	0.006383108
158	0xbcce7e12	-0.0252066
159	0x3a18b0a8	0.00058246637
160	0x3b92a897	0.004475664
161	0x3be26ad3	0.006909707
162	0x3d10a0e0	0.035309672
163	0x3ae8c832	0.0017759858
164	0x3c8fbb17	0.017545266
165	0xbc8e13fe	-0.017343517
166	0x3cab46b2	0.020907734
167	0xbc8879f8	-0.016659722
168	0x3cb89f79	0.02253698
169	0xbc649cfb	-0.013953443
170	0xbcb91902	-0.022594932
171	0x3bfc6d9d	0.0077034966
172	0x3c6b2da0	0.01435414
173	0x3c508c5a	0.012728775
174	0x3abe4c0c	0.0014518513
175	0x3cb713ff	0.022348402
176	0xb90b87f5	-0.00013306721
177	0xbcc4ee1a	-0.024039317
178	0xbb1514c3	-0.002274797
179	0xbc44eeb2	-0.0120198
180	0x3cde121c	0.027108245
181	0x3b20f44f	0.0024559682
182	0x3c6d26ff	0.014474629
183	0x3ce10be6	0.027471494
184	0xbbb67ef3	-0.0055693327
185	0x3bf50694	0.007477591
186	0xbbc547a1	-0.0060205017
187	0x3bd41e32	0.006473326
188	0x3c892763	0.016742414
189	0x3d1fe006	0.039032005
190	0x3cb4b91a	0.02206092
191	0xbc8cd5d5	-0.017191807
192	0x3c021775	0.007940163
193	0xbc95c46e	-0.018282142
194	0x3d2b8bb7	0.04188129
195	0x3b2b4806	0.0026135459
196	0x3b265d29	0.0025385118
197	0xbcd26552	-0.025683079
198	0x3c1a11fe	0.009403704
199	0x3ad6b805	0.0016381746
200	0x3cd943c9	0.02652158
201	0x3cec6ae2	0.02885956
202	0x3c8dea7c	0.017323725
203	0x3c866596	0.016405862
204	0x3c07d5f4	0.0082907565
205	0xbc357b2b	-0.011076729
206	0xbcae9e95	-0.021315852
207	0x38cad0b6	9.670986e-05
208	0xbc8b64d5	-0.017015854
209	0xbbbba9a8	-0.0057270117
210	0x3c730ede	0.014835088
211	0xba6a694c	-0.0008942082
212	0x3c3e8a72	0.011629688
213	0x3bf1979d	0.00737281
214	0xbc461a05	-0.0120911645
215	0xbcdd3f5f	-0.027007757
216	0xbbdc04f5	-0.006714458
217	0x3ce4344f	0.027856974
218	0xbbdb5ce5	-0.0066944235
219	0xbcb3115a	-0.02185886
220	0x3ba34165	0.004982161
221	0xbb9427a3	-0.0045213266
222	0x3ca5ef56	0.020255726
223	0x3c288248	0.010284968
224	0x3c54d068	0.012989141
225	0xbc274c58	-0.010211073
226	0xbcaf251b	-0.021379998
227	0x3d15290a	0.03641609
228	0xbbc45ad4	-0.005992273
229	0xbc152934	-0.009104062
230	0x3c352dcd	0.011058283
231	0xbca6f388	-0.020379797
232	0xbb0aeace	-0.0021197083
233	0x3c2d84cd	0.010590744
234	0x3be240e1	0.006904707
235	0x3c9e9708	0.019359127
236	0x3bc2356f	0.00592678
237	0x3caa0dd4	0.020758547
238	0xbc1bc308	-0.009506948
239	0x3c547043	0.012966218
240	0xbbc3d9dc	-0.0059768986
241	0xbb83ac93	-0.004018375
242	0x3ca98396	0.020692628
243	0xbc5062d3	-0.012718874
244	0xbcdadb4b	-0.026715895
245	0x3ad17fa4	0.0015983474
246	0xbc6c393a	-0.014417941
247	0x3c59a071	0.013282881
248	0xbb5dcd52	-0.0033844304
249	0x3cf0c073	0.029388642
250	0xba6bd1e3	-0.0008995814
251	0x3c59e06b	0.013298134
252	0xbc171748	-0.009221859
253	0x3c2d0773	0.010560858
254	0xbbe99866	-0.007128763
255	0x3c13a282	0.009010913

network_body._body_endoder.seq_layers.2.weight f4 [256, 256]
0	0x3c32ef66	0.010921335
1	0x3d819857	0.06327885
2	0x3da60ce1	0.08107925
3	0xbdb2e868	-0.08735734
4	0x3d078d59	0.033093784
5	0x3cc1fbae	0.02367958
6	0x3cf5792f	0.029965011
7	0xbe4c9104	-0.19977194
8	0xbd201c28	-0.039089352
9	0xbd2afe71	-0.04174656
10	0xbe2901dd	-0.16504617
11	0x3c8a71b2	0.016899917
12	0xbd68036b	-0.056643885
13	0xbde2ba95	-0.11070744
14	0x3d25e928	0.04050556
15	0x3d191b6e	0.037379675
16	0xbdd30d99	-0.10305328
17	0x3b2c407d	0.0026283555
18	0x3de1a755	0.11018244
19	0x3de165d5	0.11005751
20	0x3de44125	0.11145238
21	0xbcb7d6cc	-0.02244129
22	0x3d72f018	0.059311002
23	0x3c31bab7	0.010847739
24	0x3c5fe7f2	0.01366614
25	0x3d8842db	0.06653377
26	0x3e053d8a	0.13011757
27	0x3d8432c8	0.06454998
28	0xbc9c1369	-0.019052224
29	0xbd3e59ac	-0.046472237
30	0x3bd6d0f1	0.0065556695
31	0xbce07997	-0.027401729
32	0xbd1e79aa	-0.038690247
33	0x3ddb98c0	0.10722494
34	0x3c945341	0.018106105
35	0x3d6c6934	0.057717517
36	0xbd8f215a	-0.06988783
37	0x3d94ec61	0.07271648
38	0xbdd9117e	-0.105990395
39	0xbd45128b	-0.048113387
40	0xbe126a3c	-0.14298338
41	0x3db491cc	0.08816871
42	0x3d3a899b	0.045541387
43	0xbdf75416	-0.12076585
44	0x3c3372b2	0.010952638
45	0x3c034a8c	0.008013379
46	0xbdc0a1a9	-0.09405834
47	0x3d127293	0.035753798
48	0xbde69b06	-0.11260037
49	0xbd58b4d1	-0.052906815
50	0x3dfea6f9	0.12434191
51	0xbd9bc822	-0.07606532
52	0x3decbab3	0.115590475
53	0x3d270852	0.04077942
54	0xbd431c09	-0.04763416
55	0x3db68c50	0.08913481
56	0xbd9f9a57	-0.0779311
57	0xbc82b54d	-0.015955592
58	0xbce324f5	-0.027727583
59	0xbd517bc9	-0.05114344
60	0xbcd708dc	-0.026249342
61	0xbda544c8	-0.080697596
62	0x3dfe89bf	0.12428617
63	0xbaa12409	-0.0012294065
64	0x3d98869a	0.07447548
65	0x3cf1eb6a	0.0295312
66	0x3dae39b5	0.085071005
67	0xbe129085	-0.14312942
68	0x3e154412	0.14576748
69	0xbda0e764	-0.07856634
70	0x3da7f594	0.08201137
71	0x3d576a22	0.05259145
72	0x3afb2635	0.0019161167
73	0xbd8bcba7	-0.06825953
74	0xbc87d302	-0.016580109
75	0x3d973605	0.0738335
76	0x3d1f047c	0.038822636
77	0xbdfa4064	-0.12219313
78	0x3dbea697	0.09309118
79	0x3d46e279	0.048555825
80	0x3df45616	0.11930482
81	0xbda8be31	-0.08239401
82	0xbc809c5f	-0.015699564
83	0xbd8f1711	-0.069868214
84	0x3dc4e817	0.0961458
85	0x3c675901	0.014120341
86	0xbbd32085	-0.0064430856
87	0xbccf4ea6	-0.025306057
88	0xbcc25b40	-0.023725152
89	0x3d2a8ea9	0.041639958
90	0xbc9cee2c	-0.019156538
91	0x3c7dc8ce	0.01548977
92	0xbe0d24d6	-0.13783583
93	0xbcd08199	-0.025452422
94	0xbd00539d	-0.03132974
95	0xbdffd8cf	-0.12492525
96	0x3ca21548	0.019785538
97	0x3b58b845	0.0033068818
98	0x3d01c81a	0.031684972
99	0xbcfaf45f	-0.030634103
100	0x3d33f63e	0.043936007
101	0xbd0e0cc4	-0.034680143
102	0x3cf5f740	0.030025125
103	0x3cfb15f7	0.030650122
104	0x3b4a6f64	0.0030889148
105	0x3e05ae5c	0.13054794
106	0x3d475b4c	0.04867105
107	0x3d6ef871	0.0583424
108	0x3d84459b	0.06458589
109	0x3e027c54	0.1274274
110	0x3d39cf5b	0.045363765
111	0x3e3897c2	0.18026641
112	0xbba15cce	-0.0049243933
113	0xbd6ac0e6	-0.05731287
114	0x3d34ae0a	0.04411129
115	0x3cf6fe87	0.030150665
116	0xbcc09cf3	-0.02351234
117	0xbc9a67fd	-0.018848414
118	0x3d0bbb27	0.03411403
119	0xbc0faa50	-0.008768633
120	0x3df84297	0.12122076
121	0x3d69b469	0.05705682
122	0x3df0d169	0.11758692
123	0xbd2e0b2d	-0.042491127
124	0x3b97d9d4	0.0046341214
125	0xbdade5ae	-0.084910735
126	0x3e248dc4	0.16069704
127	0x3db49f8f	0.08819496
128	0xbde03ac9	-0.109487124
129	0xbd4ccad5	-0.049998123
130	0xbceec889	-0.029148357
131	0xbda71886	-0.08158974
132	0xbdb34701	-0.08753777
133	0x3ac00e2e	0.0014652663
134	0xbe251d98	-0.1612457
135	0xbcf6da85	-0.030133495
136	0x3c0b8cef	0.008517488
137	0x3cbb46f2	0.022860978
138	0x3c7fc932	0.015611934
139	0xbd6c7a4d	-0.057733823
140	0xbd8d1cf9	-0.06890292
141	0x3ca2892e	0.019840803
142	0x3d21e5d8	0.039525837
143	0xbd1a9c37	-0.037746634
144	0xbd504b22	-0.050852902
145	0x3e40df47	0.18835174
146	0x3d187cc0	0.037228346
147	0x3d91ccb5	0.07119123
148	0xbbe66a71	-0.007031732
149	0xbd4d499d	-0.05011903
150	0x3cebd0ba	0.028786052
151	0x3cdce437	0.02696429
152	0xbcf57192	-0.029961381
153	0x3d4dec0d	0.050273944
154	0x3dea8f4e	0.114531144
155	0xbd595893	-0.053062987
156	0x3d623f45	0.05523612
157	0xbc7e397c	-0.015516635
158	0xbc716494	-0.014733452
159	0xbd5a75fc	-0.053335175
160	0xbe20d518	-0.15706289
161	0xbc21e65c	-0.009881582
162	0x3ca9b0fb	0.020714274
163	0xbddd10c6	-0.10794215
164	0xbe052cfe	-0.13005444
165	0xbd2ec787	-0.042670753
166	0xbe0e29e5	-0.13883169
167	0x3da3cada	0.07997675
168	0x3ba64ffb	0.0050754524
169	0x3db7aaac	0.089681
170	0xbca05e14	-0.01957611
171	0xbde6c5f5	-0.11268226
172	0xbd3bcb36	-0.045848094
173	0xbdeb21bf	-0.11481046
174	0xbdbe8bc7	-0.09304004
175	0x3d0d4006	0.034484886
176	0x3d3c4b18	0.045970052
177	0x3c8c339d	0.017114455
178	0xbc1e4b9c	-0.009661581
179	0xbe23afcd	-0.15985031
180	0x3dd97c11	0.10619367
181	0xbe0a798a	-0.13522926
182	0xbdb4124d	-0.08792553
183	0x3dcd0f88	0.10012728
184	0xbd49aca4	-0.04923691
185	0xbda2de45	-0.07952551
186	0x3c9d9ebc	0.01924073
187	0xbd9a99ea	-0.07548888
188	0x3c1c437f	0.009537577
189	0xbe26444c	-0.1623699
190	0xbd35e0ee	-0.044403963
191	0x3a5fe49b	0.000854084
192	0x3d0e3d32	0.03472633
193	0xbc035ee0	-0.008018225
194	0xbdc7f834	-0.09764138
195	0x3d3b4d97	0.045728292
196	0x3cf45eff	0.029830454
197	0x3d4daa42	0.0502112
198	0xbe440425	-0.19142206
199	0x3d8b02a1	0.06787611
200	0x3bdc482d	0.006722471
201	0xbc4347be	-0.01191896
202	0xbda0a2f1	-0.078435786
203	0xbddc3467	-0.107521825
204	0xbc80fcf9	-0.015745627
205	0x3cdd7851	0.02703491
206	0x3ca8d0e0	0.020607412
207	0xbdd909d8	-0.10597581
208	0xbd73e4ae	-0.059544258
209	0xbdec38f9	-0.11534304
210	0xbd40231e	-0.04690849
211	0x3dcf9fde	0.10137914
212	0xbdab7e2f	-0.08373677
213	0xbc0be17f	-0.008537649
214	0xbdf61595	-0.12015835
215	0xbe2c345f	-0.16816853
216	0x3dbd3cf5	0.09240142
217	0xbbd3d84e	-0.0064649945
218	0x3d9c04c6	0.07618098
219	0x3da65a74	0.08122721
220	0x3e1409a2	0.144568
221	0xbd386c4f	-0.045025166
222	0x3d73ec40	0.059551477
223	0xbd14ed3a	-0.03635905
224	0xbd13daad	-0.036097217
225	0x3d99653d	0.07490013
226	0x3d50474d	0.050849248
227	0xbe58c6ad	-0.21169539
228	0x3d5f8dc0	0.054578543
229	0xbcb7a246	-0.022416245
230	0xbd0e4b46	-0.034739755
231	0x3bc3579a	0.0059613707
232	0x3dcba651	0.09943832
233	0x3d9d3a04	0.07677081
234	0xbc69364b	-0.014234136
235	0xbc0a74b3	-0.008450675
236	0xbd88f34c	-0.0668703
237	0x3ce587bb	0.028018823
238	0x3bb42aba	0.0054982575
239	0x3b155ff7	0.0022792795
240	0xbd5bed45	-0.053693075
241	0xbe0654bd	-0.13118263
242	0x3d379fd3	0.044830155
243	0x3baac61a	0.005211604
244	0xbdc50af8	-0.09621233
245	0xbdbee3d4	-0.093207985
246	0xbc03dc57	-0.008048139
247	0xbe0aaf23	-0.13543372
248	0xbc40e840	-0.011774123
249	0x3d84c593	0.06482997
250	0xbcac8032	-0.021057222
251	0x3d11cf4e	0.03559809
252	0xbdfaa491	-0.1223842
253	0x3ddb7a1d	0.10716651
254	0x3819ed62	3.6699123e-05
255	0xbcce0a0c	-0.025151275
