results/GroupJumper_Skill2_v4/GroupJumper/GroupJumper-499950.onnx (onnx, 565720 bytes, 11 tensors)

discrete_act_size_vector f4 [1, 2]
5.0 3.0
00000000: 0000 a040 0000 4040

network_body._body_endoder.seq_layers.0.weight f4 [256, 25]
0.19982138 -0.08176474 0.41214758 -0.2767934 -0.13350825 -0.027619878 0.08312272 0.16241395
0.06454768 0.29512787 -0.039953608 -0.1430047 -0.16499552 -0.26354727 0.049923223 -0.2340321
-0.44054064 -0.10150879 0.041586876 0.24773696 0.06503226 0.18514837 -0.12175067 0.0073499824
0.34399498 0.07020319 0.26513824 0.10273091 0.111643925 0.27960324 0.020510415 0.06254145
0.1262333 -0.12537165 -0.1328906 -0.16027528 0.10352302 -0.07415103 0.2622073 0.19274797
-0.1452625 -0.16926736 -0.4023777 0.09968457 -0.1557761 -0.029509328 0.09019635 0.07541919
0.27372426 0.576323 -0.24531266 -0.042541295 -0.15197109 -0.09261336 -0.10084942 0.06884428
-0.12868989 0.009628347 -0.19616571 0.023581311 0.40395758 -0.62353075 0.204289 0.0668492
0.19702125 -0.32775295 -0.03142258 -0.032471273 -0.2590843 -0.29677552 -0.18123028 0.15143953
-0.36224034 -0.052687276 0.22761539 0.052008305 -0.18012017 0.09944154 -0.021854883 -0.44369048
0.02106118 -0.16363561 0.03220616 0.08315389 -0.13928033 -0.021237468 0.19005696 -0.2611334
0.08426322 0.10427828 0.04289643 0.11055572 -0.09207185 0.010013802 0.27808586 -0.036037628
-0.28747952 -0.1720337 -0.2643797 0.3244097 -0.17936075 -0.12265918 0.3020523 -0.018750397
0.20596524 -0.26213676 -0.20661752 -0.03212141 -0.18146197 0.08150647 -0.115171134 0.10305215
0.2007997 0.30981946 0.15651469 0.0896647 0.05211701 -0.2596144 -0.10489797 -0.35584208
0.28359818 -0.034805235 -0.0134194065 -0.30403745 -0.29138568 0.013530274 0.25462577 -0.06081579
-0.29318103 0.109227195 -0.07422423 0.08813778 -0.20551804 0.26984987 0.15626955 -0.28095025
-0.37789518 -0.22097468 0.20624892 0.072731435 -0.05700356 0.06573057 0.16510595 -0.25538713
-0.16206208 0.11582443 0.07777731 0.07760635 0.18647394 -0.05746511 -0.005135259 -0.15344651
-0.17513292 0.031775948 -0.30643472 -0.04208165 0.19522631 -0.15397425 0.26307967 0.05670769
-0.041873954 0.21302731 0.013923024 -0.030822525 0.14306986 -0.16269855 -0.12684473 0.13894145
-0.3616713 -0.20360929 0.032659743 0.03467729 -0.08963404 0.224924 -0.07101612 -0.026416143
0.03840124 0.1244693 -0.14282326 0.061802626 -0.106251605 0.22051996 0.028155157 -0.009567543
0.4567826 -0.30704176 0.06888413 -0.08728304 0.2534203 0.5016091 -0.0460976 -0.14266728
0.18600206 0.04833459 0.14041598 -0.086024955 -0.0012725946 0.014834841 -0.15140305 0.310078
-0.048511058 -0.053148996 -0.10988235 -0.35634705 -0.053545337 -0.017209915 0.045118086 0.032802902
0.15143572 0.11861376 0.008620112 0.030929802 -0.5230277 0.2533981 0.018651849 -0.15019159
0.11149667 -0.20703523 0.050275613 0.27024892 0.12094754 -0.012930156 0.1461296 0.17913029
0.5976678 -0.13235876 0.13441895 0.15344362 0.32640097 -0.2683876 0.16372757 0.18859608
-0.107428245 0.13946931 -0.180152 0.016545834 -0.03337782 -0.17103136 -0.14418131 -0.11241656
0.025475219 -0.17861235 -0.15125027 0.017361097 0.3730849 -0.05039352 0.08224096 -0.18454872
-0.036643464 -0.07778993 0.1394656 -0.4220065 0.103030466 -0.027912552 -0.1988959 0.10625883
00000000: fa9d 4c3e 4674 a7bd 0205 d33e ddb7 8dbe
00000010: 63b6 08be 1543 e2bc 3f3c aa3d d84f 263e
00000020: 9331 843d 001b 973e 65a6 23bd d36f 12be
00000030: 96f4 28be abef 86be 4b7c 4c3d 1ca6 6fbe
00000040: 8b8e e1be d7e3 cfbd 0057 2a3d c2ae 7d3e
00000050: a22f 853d 8997 3d3e 6a58 f9bd 1fd8 f03b
00000060: 1c20 b03e b1c6 8f3d 33c0 873e 9564 d23d
00000070: 92a5 e43d 2828 8f3e 7505 a83c bb15 803d
00000080: 4d43 013e 6d61 00be 7914 08be 341f 24be
00000090: e103 d43d 7fdc 97bd 0940 863e b95f 453e
000000a0: b1bf 14be 6c54 2dbe 7304 cebe 6d27 cc3d
000000b0: c583 1fbe 8cbd f1bc ddb8 b83d 6075 9a3d
000000c0: 9625 8c3e e789 133f 3e33 7bbe c83f 2ebd
000000d0: 4f9e 1bbe 13ac bdbd 248a cebd 3bfe 8c3d
000000e0: 48c7 03be 37c0 1d3c aadf 48be 982d c13c
000000f0: 87d3 ce3e b69f 1fbf 2331 513e 3ce8 883d
00000100: f0bf 493e 3ccf a7be f7b4 00bd 9900 05bd
00000110: b3a6 84be f6f2 97be 6e94 39be f712 1b3e
00000120: 9177 b9be 9dce 57bd 0214 693e a906 553d
00000130: 6c71 38be 02a8 cb3d 0309 b3bc 662b e3be
00000140: 7f88 ac3c 1890 27be 9bea 033d 964c aa3d
00000150: 819f 0ebe 33fa adbc 4b9e 423e 47b3 85be
00000160: 3292 ac3d da8f d53d 2bb4 2f3d 0a6b e23d
00000170: 2b90 bcbd ee10 243c 4561 8e3e 319c 13bd
00000180: 8430 93be 9a29 30be c75c 87be 0719 a63e
00000190: 58aa 37be bc34 fbbd 99a6 9a3e 6f9a 99bc
000001a0: 8de8 523e ca36 86be 8b93 53be bd91 03bd
000001b0: 2bd1 39be ddec a63d d8de ebbd 010d d33d
000001c0: 709e 4d3e a8a0 9e3e 6345 203e 20a2 b73d
000001d0: a578 553d 2eec 84be bfd4 d6bd ef30 b6be
000001e0: c833 913e ef8f 0ebd 12dd 5bbc ccaa 9bbe
000001f0: 8130 95be 15ae 5d3c 4f5e 823e fa19 79bd
00000200: d31b 96be 82b2 df3d e002 98bd 9581 b43d
00000210: 5273 52be c329 8a3e 2005 203e b6d8 8fbe
00000220: 7a7b c1be 3047 62be eb32 533e 38f4 943d
00000230: 917c 69bd c09d 863d 8911 293e 1ac2 82be
00000240: 9af3 25be 5c35 ed3d b649 9f3d 14f0 9e3d
00000250: 06f3 3e3e 8960 6bbd ad45 a8bb 1521 1dbe
00000260: 0b56 33be 7f27 023d 03e5 9cbe cf5d 2cbd
00000270: 68e9 473e 6dab 1dbe 61b2 863e 5346 683d
00000280: 0684 2bbd d523 5a3e 651d 643c 857f fcbc
00000290: e880 123e 739a 26be 96e3 01be ab46 0e3e
000002a0: fb2c b9be f47e 50be 39c6 053d c609 0e3d
000002b0: 0d92 b7bd 7a52 663e e670 91bd ab66 d8bc
000002c0: 9e4a 1d3d c3e9 fe3d 4340 12be c024 7d3d
000002d0: 719a d9bd fccf 613e a5a5 e63c 2fc1 1cbc
000002e0: 69df e93e 9434 9dbe 1f13 8d3d 73c1 b2bd
000002f0: 4ec0 813e 7469 003f d6d0 3cbd 5f17 12be
00000300: 5377 3e3e 7efa 453d 35c9 0f3e da2d b0bd
00000310: 30cd a6ba d50d 733c 6709 1bbe 8bc2 9e3e
00000320: 88b3 46bd c3b2 59bd ff09 e1bd 1f73 b6be
00000330: 5b52 5bbd cffb 8cbc becd 383d 565c 063d
00000340: f711 1b3e c5eb f23d 5f3b 0d3c 7f60 fd3c
00000350: 25e5 05bf 65bd 813e c3cb 983c d3cb 19be
00000360: 5e58 e43d 0b01 54be cded 4d3d 115e 8a3e
00000370: 58b3 f73d 01d9 53bc ffa2 153e ee6d 373e
00000380: c200 193f 0e89 07be 1fa5 093e 5320 1d3e
00000390: 071e a73e 196a 89be 33a8 273e 551f 413e
000003a0: 5703 dcbd 0bd1 0e3e c479 38be 218b 873c
000003b0: 2eb7 08bd d822 2fbe 44a4 13be a73a e6bd
000003c0: 68b1 d03c 28e6 36be 5ae1 1abe dc38 8e3c
000003d0: fc04 bf3e 7069 4ebd f36d a83d 57fa 3cbe
000003e0: 7517 16bd 5450 9fbd 12d0 0e3e 3c11 d8be
000003f0: a301 d33d dda8 e4bc 5eab 4bbe 3b9e d93d

network_body._body_endoder.seq_layers.0.bias f4 [256]
-0.0068113906 0.065951526 -0.010628022 0.0031121203 -0.019479102 0.05056459 0.0939712 0.07285547
-0.036568902 0.022959918 0.0028946488 -0.020984655 -0.052970055 0.0031460244 -0.036398888 0.057025723
-0.030389933 0.03537597 -0.052139528 0.09695869 -0.002300431 -0.032927018 -0.006077373 0.07342962
0.0075886035 -0.07499872 -0.06867358 -0.01369326 -0.074458346 -0.004732298 -0.024749313 0.016676702
0.041397285 -0.017566968 0.037390817 -0.0016931562 0.05960567 -0.016550807 0.021467423 -0.052787222
0.044407822 -0.010107971 0.020061078 -0.057417087 -0.04764833 0.06532128 0.03767629 -0.045968093
-0.064365566 -0.029616795 -0.08751788 -0.064396255 0.028426357 -0.03335581 -0.076762564 -0.06758908
0.03924957 -0.048428815 -0.05073714 0.0043575615 -0.13368663 -0.008935432 -0.07032972 -0.049874663
0.04388597 0.11022331 0.07020922 -0.004898088 -0.027340168 -0.045795266 0.04416374 -0.008170615
-0.13849285 0.056594007 0.039524827 0.05155479 -0.0464489 0.007804965 0.10643577 0.05550907
0.015083078 0.09882153 -0.018212367 0.14921339 -0.09108875 -0.0030247474 -0.015152145 -0.09177894
-0.02688522 -0.050820537 -0.04267912 -0.032350488 -0.022025658 -0.0155064985 0.04753131 -0.02523405
-0.08463494 0.08131636 0.062938444 0.07437944 -0.0037884898 -0.040585455 -0.067016535 0.039990664
0.034735136 -0.032862335 0.1016033 0.13481744 -0.05088968 0.115082674 0.04051222 -0.006532073
0.07576424 0.033934068 -0.09713878 0.06845275 -0.03391821 -0.05195655 0.025290357 -0.08685293
-0.033228196 0.009500851 -0.07614475 -0.08518918 0.033155717 -0.13839006 -0.07019042 0.06908279
-0.032243196 0.02041978 -0.07800527 0.051578723 0.032294497 0.057741664 0.108701944 -0.034620848
0.0014455286 0.13814548 -0.07687132 0.010758041 -0.13105671 -0.042835068 0.020999309 -0.015936904
-0.062767126 0.014906867 -0.03733061 0.009690405 0.04661573 0.05895305 0.033485122 0.06486309
-0.0016152419 0.025319695 -0.005235975 -0.042944103 0.051961873 -0.10381576 -0.089068465 -0.09009549
-0.010899882 0.010099155 0.015799168 0.09745227 -0.013526468 0.11666119 -0.004877245 0.0031823015
-0.12922162 -0.001850776 -0.035464823 -0.06831247 -0.0864913 -0.017562171 -0.068430655 -0.06264828
-0.0043508816 0.080178775 0.09702767 -0.042029347 -0.0537932 -0.019641368 -0.13798474 -0.0041097514
-0.077022865 0.07839849 -0.056756902 0.058340833 -0.035246313 -0.04375474 -0.05627565 -0.050663225
-0.1800418 -0.067586236 -0.13552575 0.07561687 -0.020597901 -0.036490016 0.016936813 0.043879405
-0.118238956 -0.088577606 -0.026598534 0.0046744673 0.0070907297 -0.000790854 0.04522988 0.02795198
0.12531932 0.08566476 0.01374023 0.012780991 -0.08588415 -0.019426838 0.001964707 -0.024647553
0.05636991 -0.06560435 0.019778984 -0.12857261 0.052600775 -0.07570907 0.053095218 0.0021417877
-0.034907047 0.02849055 0.03621923 0.005413599 0.020218767 -0.033372354 0.024460942 0.010089167
0.0959671 0.046732645 0.064484164 -0.10667596 -0.0006682462 0.11427677 0.022384852 -0.12654005
0.08487785 0.020820746 0.13851628 -0.08696543 -0.03300848 0.04137243 -0.0668388 0.04160911
0.13500667 0.11557937 0.080199 -0.023615288 -0.009217191 -0.09044086 -0.012675596 0.008894027
00000000: 1632 dfbb 9811 873d 2821 2ebc b7f4 4b3b
00000010: a392 9fbc d11c 4f3d f973 c03d 4035 953d
00000020: 46c9 15bd 7016 bc3c 26b4 3d3b 03e8 abbc
00000030: 21f7 58bd 882d 4e3b 0017 15bd ce93 693d
00000040: 4ff4 f8bc 65e6 103d 4290 55bd 4792 c63d
00000050: d4c2 16bb 7bde 06bd b324 c7bb 4562 963d
00000060: d2a9 f83b ee98 99bd bca4 8cbd b259 60bc
00000070: 9e7d 98bd 6511 9bbb 12bf cabc 949d 883c
00000080: 3390 293d 9ae8 8fbc 1d27 193d e5ec ddba
00000090: 1325 743d 8f95 87bc 73dc af3c 6a37 58bd
000000a0: fae4 353d e79b 25bc 2157 a43c 2e2e 6bbd
000000b0: e52a 43bd 2ac7 853d 7452 1a3d 0a49 3cbd
000000c0: 18d2 83bd ec9e f2bc 933c b3bd 2fe2 83bd
000000d0: 64de e83c 1aa0 08bd b135 9dbd 256c 8abd
000000e0: 28c4 203d 4b5d 46bd bfd1 4fbd e0c9 8e3b
000000f0: 26e5 08be eb65 12bc 0709 90bd 6049 4cbd
00000100: c6c1 333d c2bc e13d dac9 8f3d 2480 a0bb
00000110: 7df8 dfbc d193 3bbd 0ae5 343d 0bde 05bc
00000120: 12d1 0dbe 1ecf 673d c9e4 213d 1e2b 533d
00000130: 3441 3ebd cbc0 ff3b fffa d93d 7b5d 633d
00000140: 041f 773c f162 ca3d 1a32 95bc 65cb 183e
00000150: bd8c babd d73a 46bb b440 78bc 99f6 bbbd
00000160: 653e dcbc 3229 50bd 4dd0 2ebd f281 04bd
00000170: 276f b4bc f80e 7ebc 31b0 423d a3b7 cebc
00000180: 1555 adbd 3189 a63d dfe5 803d 3f54 983d
00000190: 5048 78bb ef3c 26bd f73f 89bd 40cd 233d
000001a0: 6e46 0e3d a89a 06bd 6415 d03d 950d 0a3e
000001b0: b271 50bd 77b0 eb3d 24f0 253d 000b d6bb
000001c0: 482a 9b3d 73fe 0a3d b2f0 c6bd f530 8c3d
000001d0: d2ed 0abd 64d0 54bd b92d cf3c f3df b1bd
000001e0: 4a1a 08bd 75a9 1b3c c7f1 9bbd aa77 aebd
000001f0: 4ace 073d 20b6 0dbe ffbf 8fbd 477b 8d3d
00000200: 7111 04bd 6247 a73c 3ac1 9fbd 3644 533d
00000210: 3c47 043d 8682 6c3d 209f de3d 97ce 0dbd
00000220: e477 bd3a 0276 0d3e b66e 9dbd 7f42 303c
00000230: bb33 06be d373 2fbd be06 ac3c 1c8e 82bc
00000240: 0d8c 80bd ef3b 743c fbe7 18bd 81c4 1e3c
00000250: 23f0 3e3d c178 713d b227 093d f1d6 843d
00000260: 86b6 d3ba 406b cf3c 8b92 abbb 28e6 2fbd
00000270: f9d5 543d 5b9d d4bd 8769 b6bd fc83 b8bd
00000280: 6b95 32bc ed76 253c 426d 813c 0e95 c73d
00000290: 1e9e 5dbc 10ec ee3d 4cd1 9fbb 298e 503b
000002a0: ac52 04be bd95 f2ba 9043 11bd 69e7 8bbd
000002b0: 5a22 b1bd 8bde 8fbc 5f25 8cbd be4d 80bd
000002c0: d791 8ebb c534 a43d 71b6 c63d f726 2cbd
000002d0: 4256 5cbd efe6 a0bc df4b 0dbe 18ab 86bb
000002e0: 2abe 9dbd 638f a03d ed79 68bd ccf6 6e3d
000002f0: 705e 10bd 2c38 33bd 4c81 66bd 3e84 4fbd
00000300: e15c 38be a76a 8abd 43c7 0abe 04dd 9a3d
00000310: eebc a8bc 8e76 15bd 12bf 8a3c e4ba 333d
00000320: 4427 f2bd 2d68 b5bd 2be5 d9bc 462c 993b
00000330: 5a59 e83b 5051 4fba f742 393d 8dfb e43c
00000340: b553 003e 0171 af3d b41e 613c 5d67 513c
00000350: 07e4 afbd 0825 9fbc 50c2 003b aae9 c9bc
00000360: 22e4 663d 935b 86bd 8907 a23c 8aa8 03be
00000370: e973 573d 5b0d 9bbd 5f7a 593d 3c5d 0c3b
00000380: b1fa 0ebd 0465 e93c 9e5a 143d 8f64 b13b
00000390: d4a1 a53c 73b1 08bd 5062 c83c 094d 253c
000003a0: 668a c43d bb6a 3f3d 4610 843d ed78 dabd
000003b0: 3e2d 2fba f009 ea3d 7060 b73c b793 01be
000003c0: 70d4 ad3d 4590 aa3c 36d7 0d3e ee1a b2bd
000003d0: e633 07bd 2376 293d c8e2 88bd 506e 2a3d
000003e0: 303f 0a3e e0b4 ec3d 603f a43d d974 c1bc
000003f0: b303 17bc 0f39 b9bd 4ead 4fbc 41b8 113c

network_body._body_endoder.seq_layers.2.weight f4 [256, 256]
0.04534631 -0.06249905 0.058104176 -0.23604678 -0.07153374 0.1540301 -0.010874255 -0.020501126
0.02105756 0.17325573 -0.050361134 -0.026691517 0.066013806 0.09146626 0.24606493 0.016152076
0.2006477 0.16191117 0.17431974 -0.09647669 0.13359687 -0.013538692 0.11481228 0.11339311
0.045444734 -0.027406614 0.023326045 -0.056114078 -0.058580626 0.08442153 0.20366003 0.016015036
0.15301104 -0.10700442 -0.13386612 -0.1714925 -0.06116912 -0.13049814 0.080571644 -0.03228921
0.23140259 -0.012820387 0.02190989 0.073664546 0.01523474 -0.1766839 0.16102757 -0.06174126
0.035707377 0.03591735 0.116107054 -0.054438386 0.028056763 -0.032638185 0.11957359 0.041238323
-0.035959963 -0.13943833 -0.036075786 -0.107792966 -0.120248936 0.0002463678 -0.07274726 -0.074436195
0.022384213 -0.042722728 -0.07598546 0.09234315 0.2652618 -0.09474873 -0.03457256 -0.10284393
-0.09411932 0.03625953 -0.0016710531 -0.25061864 -0.07245157 0.08122673 0.01728099 0.09568338
0.03905193 -0.049069136 0.19867691 -0.007179648 -0.1562097 0.21869305 -0.27673003 0.07515565
-0.0952748 0.023955477 -0.012774327 0.05754078 -0.14336483 0.16090873 0.15482828 -0.040881284
0.17352587 -0.020431856 -0.20316647 -0.17531832 -0.09954887 -0.03156712 -0.023806233 -0.02588668
0.09343464 0.23615639 0.19262142 -0.1290379 0.07483649 0.045424994 0.2599608 0.19469562
0.07417634 -0.053247638 -0.104366906 -0.042218305 0.003934663 0.057434633 0.013924631 0.024205238
-0.005930981 0.22525479 -0.115508184 0.03896833 -0.14143327 -0.03890788 -0.03824379 -0.1610098
-0.02779471 0.039579343 0.04983245 -0.20885475 0.028429648 -0.04519236 -0.1788921 0.13869633
0.0693902 0.01209217 0.10380017 0.08508848 0.0008197046 -0.0038928497 -0.1575707 -0.07381203
-0.060246706 0.0673106 0.05398454 -0.086428784 -0.13150924 -0.07611612 0.0822212 -0.006089049
0.088197164 0.09249515 0.14120327 0.19195797 0.07140145 0.022840308 -0.029171906 -0.013731756
0.13882457 -0.06789838 0.12062027 0.19262256 0.027161052 0.11554554 0.13964313 0.13868572
-0.040265374 0.084710024 0.013812005 -0.13083091 0.18115169 -0.025368826 0.1188253 0.052435543
0.06851888 -0.14628719 0.052630298 -0.15779765 0.013121576 0.1238779 0.03190826 -0.055411085
0.17926359 0.058433633 -0.0520179 0.026096694 -0.096599415 0.1306379 -0.24483748 0.035346963
0.006761247 -0.14960667 0.13577431 0.002691045 -0.0050759115 -0.13713975 0.15935293 0.066579215
-0.2461084 0.102423556 0.16068996 0.14678752 -0.24482118 0.12036686 0.02224357 -0.005882065
0.007179549 0.0996822 -0.07041129 0.11271368 0.15997833 0.023330446 0.05644857 0.04499276
0.16612849 0.06363748 -0.005940187 -0.17949997 0.117737964 0.024803065 -0.043197796 -0.11472007
0.07079289 -0.118729904 -0.0074954773 0.013337228 0.12814543 0.005745866 0.061241228 -0.028827136
0.05579028 0.03503782 -0.015049908 -0.04401308 -0.09779913 0.09349905 -0.16566701 -0.19434527
0.0976851 0.106030844 -0.12232234 -0.09571126 0.058442228 0.01270227 0.050294373 0.09404036
0.18734914 -0.022653379 0.067346 0.054466415 0.010332411 -0.18210323 -0.043521598 0.05863787
00000000: 0dbd 393d 01ff 7fbd a5fe 6d3d 3fb6 71be
00000010: 4880 92bd 11ba 1d3e ee29 32bc faf1 a7bc
00000020: e780 ac3c f369 313e 7a47 4ebd 2ba8 dabc
00000030: 3f32 873d aa52 bb3d 72f8 7b3e 5c51 843c
00000040: 9776 4d3e 0bcc 253e e080 323e 9295 c5bd
00000050: 9ecd 083e 64d1 5dbc b322 eb3d a63a e83d
00000060: 4224 3a3d d683 e0bc 4316 bf3c e0d7 65bd
00000070: 3df2 6fbd 32e5 ac3d 418c 503e f731 833c
00000080: edae 1c3e 2225 dbbd 3314 09be bb9b 2fbe
00000090: 798c 7abd 4ea1 05be bf02 a53d b141 04bd
000000a0: cdf4 6c3e 9a0c 52bc 5f7c b33c 70dd 963d
000000b0: 229b 793c a0ec 34be 69e4 243e 67e4 7cbd
000000c0: e641 123d 121e 133d 89c9 ed3d c9fa 5ebd
000000d0: 4cd7 e53c 9eaf 05bd 00e3 f43d 84e9 283d
000000e0: c14a 13bd ecc8 0ebe 34c4 13bd 8fc2 dcbd
000000f0: 1345 f6bd ed2a 8139 84fc 94bd 0172 98bd
00000100: 195f b73c 07fe 2ebd 449e 9bbd 681e bd3d
00000110: 65d0 873e 9f0b c2bd f59b 0dbd d79f d2bd
00000120: a1c1 c0bd df84 143d 3d07 dbba 1651 80be
00000130: 7d61 94bd 335a a63d dd90 8d3c a6f5 c33d
00000140: ebf4 1f3d b8fc 48bd f671 4b3e 4143 ebbb
00000150: 70f5 1fbe 12f1 5f3e 8faf 8dbe 35eb 993d
00000160: 6f1f c3bd 473e c43c 694b 51bc e2af 6b3d
00000170: 3bce 12be 42c5 243e 4e8b 1e3e 2273 27bd
00000180: c4b0 313e b560 a7bc df0a 50be a586 33be
00000190: 47e0 cbbd 864c 01bd 4a05 c3bc 4e10 d4bc
000001a0: a95a bf3d fbd2 713e 8d3e 453e 8322 04be
000001b0: e043 993d 8f0f 3a3d 9519 853e 4a5e 473e
000001c0: c4e9 973d 321a 5abd 51be d5bd 1aed 2cbd
000001d0: 58ee 803b 9440 6b3d 2324 643c 104a c63c
000001e0: ad58 c2bb 31a9 663e 8e8f ecbd 419d 1f3d
000001f0: e2d3 10be df5d 1fbd 85a5 1cbd c1df 24be
00000200: bbb1 e3bc f31d 223d 1c1d 4c3d 05de 55be
00000210: 4be5 e83c a01b 39bd 7e2f 37be 6906 0e3e
00000220: 731c 8e3d 3d1e 463c 2f95 d43d de42 ae3d
00000230: 72e1 563a 2e1f 7fbb 375a 21be c32a 97bd
00000240: 40c5 76bd 24da 893d e51e 5d3d 9301 b1bd
00000250: 5caa 06be c5e2 9bbd 9763 a83d a586 c7bb
00000260: b7a0 b43d 196e bd3d 9797 103e a190 443e
00000270: ec3a 923d 991b bb3c ecf9 eebc 29fb 60bc
00000280: 0728 0e3e 4e0e 8bbd c307 f73d d93e 453e
00000290: db80 de3c 24a3 ec3d 9cfe 0e3e a103 0e3e
000002a0: 4eed 24bd 737c ad3d bf4b 623c 8af8 05be
000002b0: d47f 393e 49d2 cfbc ae5a f33d a7c6 563d
000002c0: a053 8c3d 4fcc 15be de92 573d b595 21be
000002d0: e1fb 563c b2b3 fd3d 3cb2 023d bcf6 62bd
000002e0: e090 373e 1b58 6f3d b910 55bd bcc8 d53c
000002f0: ead5 c5bd f1c5 053e adb6 7abe fac7 103d
00000300: 738d dd3b 7e32 19be 6c08 0b3e 3e5c 303b
00000310: d553 a6bb 5d6e 0cbe 6a2d 233e af5a 883d
00000320: d703 7cbe 71c3 d13d e98b 243e 784f 163e
00000330: 67b2 7abe e682 f63d 2638 b63c 56be c0bb
00000340: 6c42 eb3b 2e26 cc3d cb33 90bd 6ed6 e63d
00000350: 5cd1 233e 7e1f bf3c 9e36 673d 544a 383d
00000360: 961d 2a3e 5e54 823d e6a5 c2bb d7ce 37be
00000370: 9a20 f13d cc2f cb3c 2cf0 30bd 5bf2 eabd
00000380: ddfb 903d aa28 f3bd 9f9c f5bb 6484 5a3c
00000390: 8e38 033e d147 bc3b 15d8 7a3d e326 ecbc
000003a0: 5984 643d d183 0f3d e493 76bc 0f47 34bd
000003b0: e94a c8bd 6e7c bf3d 9da4 29be 7202 47be
000003c0: 200f c83d b326 d93d 2384 fabd 4404 c4bd
000003d0: 1e61 6f3d 2f1d 503c 7901 4e3d 3b98 c03d
000003e0: 74d8 3f3e 9493 b9bc b3ec 893d 2d18 5f3d
000003f0: 4649 293c 4579 3abe b443 32bd 432e 703d

network_body._body_endoder.seq_layers.2.bias f4 [256]
-0.020881383 -0.06594039 -0.060720485 -0.03971674 -0.15611109 -0.019607663 -0.016313864 0.018153597
-0.060627244 0.016165048 -0.12862255 0.026792252 0.0006256187 -0.07435839 -0.08384021 -0.049179018
-0.012775969 -0.04278604 -0.005342878 -0.06890959 -0.045912243 0.0026662687 -0.09041516 -0.030049387
0.036880422 0.012914461 -0.04855994 0.046047628 -0.04342351 -0.012440801 0.0040142043 0.01291979
-0.052419536 0.02102615 -0.04424103 -0.0014946883 -0.042756915 -0.14313635 0.031297196 -0.002055052
-0.0039083986 -0.08015034 -0.07988869 -0.015552027 -0.002054439 -2.0572754e-05 -0.08766055 0.039280564
-0.013898681 -0.07119647 -0.045391846 0.048844118 -0.0102104815 -0.015526674 -0.054972142 -0.04491453
-0.02689702 0.00065120566 -0.121503785 -0.05004963 -0.09888963 0.032539345 0.013344397 -0.01946252
-0.050625917 -0.06454119 -0.046245538 -0.027384555 -0.019348077 0.075516984 -0.06570172 -0.07062796
0.016299674 -0.04109502 -0.049751714 -0.04971827 -0.024779087 -0.041307393 -0.046997443 0.041350987
0.013807004 -0.044791184 -0.06334308 -0.010731325 -0.14029948 0.006659802 -0.018366078 -0.07860854
-0.012848166 -0.04914091 -0.01066436 -0.09912286 0.009995014 -0.032867283 -0.09261891 0.031923164
0.030770456 -0.07477275 -0.02332238 -0.0864388 -0.09407228 -0.030757034 -0.022573572 -0.055146907
-0.031672727 -0.046238765 -0.038265523 -0.08353163 0.030672994 -0.08772771 -0.036523934 -0.06709218
-0.0046062013 -0.036236014 -0.06776881 -0.0037742702 -0.043468088 -0.020181369 -0.008615279 -0.04623632
0.009258665 0.034638528 0.01718106 -0.04403052 -0.12442518 -0.05714304 -0.02491137 -0.0004224862
-0.027035728 -0.041663606 -0.031180032 -0.04940776 -0.00051281316 -0.04240036 0.011849049 0.083609916
0.04089862 -0.032034844 -0.03559874 -0.044996843 -0.02419252 0.014314909 -0.005419217 0.011181287
0.008697335 -0.006222407 0.0061554904 8.581302e-05 -0.044782355 -0.0638304 -0.044568434 -0.101303026
0.004254182 -0.018596146 0.04745184 -0.021536825 -0.09624078 -0.053026713 -0.1102089 0.019878091
-0.01578608 -0.026386688 -0.082234845 -0.06402507 -0.0079553425 -0.031240407 -0.053617712 -0.005393669
-0.03519508 -0.03034057 -0.037716683 -0.05279618 0.056992956 -0.026484983 0.00079764257 -0.03990129
0.02084385 -0.006330753 -0.066249944 -0.11599475 0.03080735 0.037619445 -0.059081778 0.021031575
-0.038977537 -0.09794209 -0.01635574 -0.07472773 -0.05318362 -0.10760965 -0.014715089 0.0068645156
0.07021932 -0.069698885 0.018003559 -0.09859718 -0.104893714 0.04577777 -0.0076472233 -0.050204154
-0.01365895 -0.05013726 -0.034899045 -0.059817415 -0.023629112 -0.0030004554 0.013764723 -0.10114567
0.059161596 -0.07136833 -0.05019687 -0.009359129 -0.10801231 -0.0711352 -0.07860085 -0.06723116
0.016281927 0.01541014 -0.049248725 0.006487848 -0.07180871 -0.04901046 -0.10255077 -0.032105476
-0.052004218 -0.014082495 -0.07133509 0.022542678 -0.04451869 -0.009108863 -0.0342986 -0.04224821
-0.040730845 0.028197393 -0.08796947 -0.03907797 -0.011878433 -0.0005044561 -0.06824499 0.013480411
0.008277175 -0.05155358 0.044516243 -0.07819417 -0.004124286 -0.025763521 0.0053648823 0.047388963
-0.019185998 -0.018562319 -0.0855102 -0.08427946 -0.036840204 -0.09638429 -0.12384619 0.049222957
00000000: 6f0f abbc c10b 87bd 0bb6 78bd 05ae 22bd
00000010: 96db 1fbe 40a0 a0bc a7a4 85bc dab6 943c
00000020: 4654 78bd 906c 843c a1b5 03be 6d7b db3c
00000030: 8f00 243a 3649 98bd 6bb4 abbd f06f 49bd
00000040: 4c52 51bc 6a40 2fbd 4f13 afbb 7920 8dbd
00000050: 7a0e 3cbd 91bc 2e3b 952b b9bd 222a f6bc
00000060: ed0f 173d 2d97 533c cae6 46bd 709c 3c3d
00000070: dadc 31bd 80d4 4bbc 9689 833b 87ad 533c
00000080: deb5 56bd 083f ac3c 1536 35bd 6be9 c3ba
00000090: e021 2fbd 5692 12be 7d31 003d 0dae 06bb
000000a0: 0612 80bb dd25 a4bd ae9c a3bd eecd 7ebc
000000b0: c4a3 06bb a793 acb7 6087 b3bd a8e4 203d
000000c0: 4bb7 63bc 74cf 91bd cdec 39bd c510 483d
000000d0: dd49 27bc 9763 7ebc 782a 61bd 4cf8 37bd
000000e0: 2457 dcbc acb5 2a3a fad6 f8bd d700 4dbd
000000f0: a586 cabd fa47 053d 75a2 5a3c dd6f 9fbc
00000100: 1f5d 4fbd 2c2e 84bd f66b 3dbd 9355 e0bc
00000110: dc7f 9ebc a6a8 9a3d a08e 86bd 64a5 90bd
00000120: e586 853c 4053 28bd 74c8 4bbd 62a5 4bbd
00000130: 83fd cabc f131 29bd 6480 40bd a75f 293d
00000140: c636 623c f676 37bd 04ba 81bd 70d2 2fbc
00000150: abaa 0fbe 783a da3b 7574 96bc 84fd a0bd
00000160: 1d81 52bc fb47 49bd 91b9 2ebc ed00 cbbd
00000170: 21c2 233c d89f 06bd fcae bdbd ddc1 023d
00000180: 5312 fc3c 7522 99bd 930e bfbc d306 b1bd
00000190: f8a8 c0bd 2df6 fbbc 36ec b8bc b9e1 61bd
000001a0: 43bb 01bd dc64 3dbd 4fbc 1cbd a212 abbd
000001b0: ee45 fb3c 96aa b3bd 1f9a 15bd a067 89bd
000001c0: 9eef 96bb 376c 14bd 60ca 8abd bf59 77bb
000001d0: 980b 32bd 6653 a5bc 1927 0dbc 4c62 3dbd
000001e0: a8b1 173c 21e1 0d3d 4bbf 8c3c 5959 34bd
000001f0: a1d2 febd d20e 6abd ee12 ccbc 2381 ddb9
00000200: 087a ddbc 75a7 2abd 446d ffbc cb5f 4abd
00000210: 4f6e 06ba 00ac 2dbd 8322 423c ad3b ab3d
00000220: 5085 273d f836 03bd fccf 11bd 9c4e 38bd
00000230: 642f c6bc 1589 6a3c b093 b1bb b731 373c
00000240: 447f 0e3c 55e5 cbbb ffb3 c93b 84f6 b338
00000250: b46d 37bd 83b9 82bd 648d 36bd f677 cfbd
00000260: aa66 8b3b f256 98bc dc5c 423d ff6d b0bc
00000270: e319 c5bd 8a32 59bd 34b5 e1bd 61d7 a23c
00000280: cf51 81bc e528 d8bc be6a a8bd 931f 83bd
00000290: 2057 02bc e2eb ffbc 3f9e 5bbd 60bd b0bb
000002a0: b728 10bd c98c f8bc cf7c 1abd cf40 58bd
000002b0: 7271 693d 09f7 d8bc e318 513a 896f 23bd
000002c0: b9c0 aa3c 3572 cfbb 0dae 87bd a88e edbd
000002d0: b25f fc3c d916 1a3d bcff 71bd 694a ac3c
000002e0: e9a6 1fbd dd95 c8bd 79fc 85bc da0a 99bd
000002f0: 11d7 59bd 7362 dcbd 8f17 71bc bbef e03b
00000300: 26cf 8f3d 4abe 8ebd 337c 933c 51ed c9bd
00000310: 84d2 d6bd 7981 3b3d 8f95 fabb dfa2 4dbd
00000320: cac9 5fbc ba5c 4dbd 4df2 0ebd 1b03 75bd
00000330: d791 c1bc 4aa3 44bb 6f85 613c 7625 cfbd
00000340: 6e53 723d 8f29 92bd 3c9b 4dbd 0857 19bc
00000350: 8f35 ddbd 55af 91bd 7cf9 a0bd 7eb0 89bd
00000360: ad61 853c d07a 7c3c 08b9 49bd 0398 d43b
00000370: 7210 93bd 31bf 48bd 2306 d2bd 0881 03bd
00000380: 6002 55bd 44ba 66bc 2218 92bd 6cab b83c
00000390: 3b59 36bd 573d 15bc b07c 0cbd 760c 2dbd
000003a0: 63d5 26bd 38fe e63c 5629 b4bd 3910 20bd
000003b0: c29d 42bc 7a3d 04ba 08c4 8bbd f1dc 5c3c
000003c0: fd9c 073c d929 53bd aa56 363d 4424 a0bd
000003d0: 0525 87bb 050e d3bc e5cb af3b ee1a 423d
000003e0: f42b 9dbc 0110 98bc f91f afbd b69a acbd
000003f0: c1e5 16bd 2065 c5bd 12a3 fdbd 039e 493d

network_body._body_endoder.seq_layers.4.weight f4 [256, 256]
-0.038667984 0.078568526 0.17616935 -0.0152131645 0.17599879 -0.13760978 -0.03294095 -0.07219426
-0.07322228 -0.045440987 0.07059037 -0.053518157 0.027725346 0.022236254 0.07572451 -0.087013945
-0.08052937 -0.05275427 0.0097333 -0.015269665 -0.040403035 -0.07629456 0.021982413 -0.13665247
0.035751432 0.08912504 -0.12920383 0.008503767 -0.0077998666 -0.0137624405 0.08895087 -0.028005812
0.062745035 -0.09439822 0.12228079 -0.09148013 0.10782995 -0.0058734296 -0.11918951 -0.028958084
0.1230063 0.018311208 0.11360557 -0.053071667 0.0156192435 0.03659998 0.025456209 -0.036921136
-0.12450373 0.011056582 -0.11335602 -0.053664777 0.05381435 -0.024077786 -0.11694648 0.032509014
-0.09658879 -0.035822637 0.03569522 -0.07256798 0.062274296 -0.014454528 -0.08816708 0.05842246
-0.11688467 -0.074205704 -0.039592467 -0.10640129 0.0068035135 -0.14547476 -0.06800813 -0.024860732
0.025501445 0.09306704 -0.028930852 0.043502986 -0.039849393 0.08391105 -0.0886056 0.0034518768
0.004369403 0.011091036 0.045755215 0.023704207 0.11791409 -0.06580864 -0.102650516 0.10825233
0.054895394 0.0072501632 0.05788263 0.035474915 -0.050679803 0.11780694 0.025593761 -0.03706039
-0.09119354 -0.05531798 -0.0167445 -0.030512547 0.041475113 0.109860346 0.025295844 0.013298428
0.17194039 0.050734445 0.01818478 0.030840352 0.06585818 0.08435816 0.032680064 -0.01085163
-0.059418038 0.02333654 0.08197541 -0.025220271 -0.016092872 0.017623408 0.053857744 0.051597193
0.016793085 -0.005787967 -0.03316264 0.08761602 0.101110406 0.031589087 0.0535685 0.08856595
0.040767454 0.19879518 0.10941349 0.19472644 -0.14081712 -0.072653696 -0.116091244 0.16630219
-0.13515164 -0.06488696 0.036297448 0.009188786 0.056548413 -0.068004094 -0.0063041863 -0.035073534
0.045853972 -0.0969753 0.06073806 -0.06976154 0.026679248 0.01971216 0.049056515 -0.027817283
0.07744968 0.023518676 0.004108805 0.065881096 0.014357775 -0.15211093 -0.057082657 0.0410054
-0.022095285 -0.11161641 0.1671229 -0.07636092 0.0750763 0.012617094 -0.011178604 -0.15981276
0.06736627 -0.0413677 0.06962592 0.031080842 0.039782595 0.020753961 -0.035771076 -0.06494461
-0.09713618 0.047869574 0.057189338 -0.012173678 0.019307643 -0.028098812 0.1288053 -0.07542121
-0.09226822 0.010499784 -0.04943324 0.09155845 0.02387616 -0.019218171 0.13615733 0.11663423
-0.13422325 0.0030052399 0.041915745 0.13403782 0.035663277 -0.07973348 -0.014522539 -0.018769989
0.060277257 0.2152326 0.06824387 0.0154376635 -0.048569348 -0.025465358 0.03860016 0.03833975
0.046632443 -0.028084505 -0.037752118 0.045475896 0.038006224 0.08718349 0.025395738 0.049055163
0.034031082 -0.043199796 -0.002967997 0.010404276 0.06493544 -0.05083732 0.09582479 -0.100249514
-0.20767632 -0.07828487 -0.044978358 -0.0011613143 0.14467436 0.013989474 0.15371959 0.060129724
0.10455976 -0.0043288087 0.1370013 0.05075811 0.010816062 -0.055603057 -0.07327536 -0.02943512
-0.050508846 0.028230458 -0.012586623 0.03416419 0.011552922 0.24475609 -0.017060395 -0.10096362
0.003257897 0.00298934 0.0321288 0.11838839 0.04016626 0.042539656 0.073951386 -0.11937247
00000000: 5262 1ebd 89e8 a03d bd65 343e a340 79bc
00000010: 0739 343e 94e9 0cbe 17ed 06bd 96da 93bd
00000020: 90f5 95bd 5420 3abd af91 903d db35 5bbd
00000030: 4420 e33c ce28 b63c 7415 9b3d 5e34 b2bd
00000040: 95ec a4bd dd14 58bd 6b78 1f3c 9e2d 7abc
00000050: a77d 25bd 5340 9cbd 7614 b43c a0ee 0bbe
00000060: 1870 123d 3087 b63d 024e 04be 6253 0b3c
00000070: 0696 ffbb dc7b 61bc e02b b63d 726c e5bc
00000080: 7880 803d db53 c1bd 5a6e fa3d ef59 bbbd
00000090: f3d5 dc3d e675 c0bb a119 f4bd 8139 edbc
000000a0: baea fb3d 6301 963c 09aa e83d ad61 59bd
000000b0: dbe7 7f3c dce9 153d 8a89 d03c 9e3a 17bd
000000c0: d0fb febd ab26 353c 3327 e8bd 99cf 5bbd
000000d0: 706c 5c3d c73e c5bc a381 efbd 2c28 053d
000000e0: 58d0 c5bd c2ba 12bd 2735 123d 859e 94bd
000000f0: 5513 7f3d afd2 6cbc f190 b4bd 644c 6f3d
00000100: 3b61 efbd 29f9 97bd b62b 22bd ebe8 d9bd
00000110: 02f0 de3b 56f7 14be d947 8bbd bca8 cbbc
00000120: 68e8 d03c ef99 be3d 6500 edbc 3030 323d
00000130: 1e39 23bd 8ed9 ab3d da76 b5bd e238 623b
00000140: 352d 8f3b 2db7 353c d269 3b3d 532f c23c
00000150: f17c f13d aec6 86bd 6f3a d2bd 66b3 dd3d
00000160: fed9 603d c792 ed3b 5616 6d3d 254e 113d
00000170: a095 4fbd c444 f13d 02aa d13c a3cc 17bd
00000180: aec3 babd 1b95 62bd c32b 89bc 73f5 f9bc
00000190: cfe1 293d 76fe e03d 3b39 cf3c a6e1 593c
000001a0: 2411 303e ecce 4f3d 3ff8 943c e8a4 fc3c
000001b0: a7e0 863d f9c3 ac3d 88db 053d 09cb 31bc
000001c0: 5460 73bd 462c bf3c b9e2 a73d be9a cebc
000001d0: 33d5 83bc f75e 903c f099 5c3d 9457 533d
000001e0: a791 893c fca8 bdbb 8cd5 07bd 0770 b33d
000001f0: f912 cf3d 8f63 013d a56a 5b3d 1162 b53d
00000200: c6fb 263d f790 4b3e 2e14 e03d 5e66 473e
00000210: 5d32 10be 76cb 94bd 3fc1 edbd 1f4b 2a3e
00000220: 3165 0abe 74e3 84bd a2ac 143d 908c 163c
00000230: 4f9f 673d bb45 8bbd 5993 cebb 44a9 0fbd
00000240: 60d1 3b3d fc9a c6bd 79c8 783d 23df 8ebd
00000250: 708e da3c 657b a13c 7cef 483d 12e1 e3bc
00000260: f09d 9e3d 3daa c03c 28a3 863b abec 863d
00000270: e03c 6b3c f8c2 1bbe 81cf 69bd 47f5 273d
00000280: 2c01 b5bc 2597 e4bd 4422 2b3e 1d63 9cbd
00000290: 9ac1 993d eeb7 4e3c 7726 37bc f5a5 23be
000002a0: 54f7 893d 2d71 29bd 0998 8e3d 409d fe3c
000002b0: 13f3 223d 3604 aa3c b184 12bd ae01 85bd
000002c0: 55ef c6bd e312 443d 5e3f 6a3d 1b74 47bc
000002d0: 102b 9e3c 7b2f e6bc 89e5 033e 6f76 9abd
000002e0: 1ff7 bcbd 4907 2c3c 827a 4abd ff82 bb3d
000002f0: f097 c33c 6d6f 9dbc d46c 0b3e eddd ee3d
00000300: d271 09be 8ff3 443b d8af 2b3d 3641 093e
00000310: a813 123d 4f4b a3bd f2ef 6dbc 85c3 99bc
00000320: 49e5 763d ef65 5c3e 71c3 8b3d 41ee 7c3c
00000330: a7f0 46bd ba9c d0bc 341b 1e3d 240a 1d3d
00000340: a901 3f3d 7a11 e6bc f7a1 1abd ef44 3a3d
00000350: 6aac 1b3d 428d b23d b90a d03c 11ee 483d
00000360: 2d64 0b3d 45f2 30bd ba82 42bb b276 2a3c
00000370: dffc 843d cb3a 50bd ca3f c43d 9e4f cdbd
00000380: 1aa9 54be d153 a0bd 3a3b 38bd 3e37 98ba
00000390: 8425 143e 1b34 653c ab68 1d3e 964a 763d
000003a0: 6d23 d63d aed8 8dbb 124a 0c3e bce7 4f3d
000003b0: da35 313c 08c0 63bd 6411 96bd ec21 f1bc
000003c0: 5de2 4ebd 9043 e73c 2038 4ebc c0ef 0b3d
000003d0: 7848 3d3c 57a1 7a3e 3ec2 8bbc 04c6 cebd
000003e0: 7182 553b cee8 433b 7d99 033d 9d75 f23d
000003f0: 6085 243d 103e 2e3d d373 973d 8e79 f4bd

network_body._body_endoder.seq_layers.4.bias f4 [256]
-0.10642567 -0.065897994 -0.07120327 -0.07055158 -0.14948846 -0.14272913 -0.0718377 -0.031038342
-0.055614177 -0.1439683 -0.17416896 -0.019345272 -0.16111812 -0.10583094 -0.07012532 -0.1189856
0.07249267 0.021122852 -0.12881164 -0.11128962 -0.1622284 -0.07251622 -0.23187366 -0.09834449
-0.14444607 -0.11606036 -0.0132452585 -0.12894844 -0.02550993 0.04712797 -0.062309906 -0.055900108
-0.105675936 -0.19861662 -0.12450115 -0.07201855 -0.15749857 -0.017862929 -0.15101251 -0.06902186
-0.13371348 -0.06741789 -0.061673556 -0.032157257 0.0025392678 -0.083714865 -0.11157707 -0.18234335
-0.043065984 0.0056659156 -0.11775442 -0.13511056 -0.09160788 -0.043166015 -0.026902532 -0.066986285
-0.13013536 -0.10596653 -0.11442352 -0.075535506 -0.14574751 -0.115447044 -0.088978186 -0.123480745
-0.12456842 -0.12100437 -0.021897972 -0.15295815 -0.058405314 -0.10275937 -0.16752739 -0.104632474
-0.034290474 -0.04980674 -0.107999645 -0.09446982 -0.063018784 -0.099318705 -0.061968602 -0.1554805
-0.107041955 -0.062383775 -0.089452215 -0.13200319 -0.08186427 -0.17524265 -0.18616602 -0.009559811
-0.08448561 -0.09554878 -0.10126096 -0.1178752 -0.115959086 -0.11086946 -0.07681394 -0.014068019
-0.04343199 -0.04537588 -0.027796019 -0.14086518 -0.0526717 -0.03805447 -0.024997754 -0.13862109
-0.112989016 -0.16401486 -0.24318929 -0.08507654 -0.1953663 -0.13411163 -0.020804022 -0.11218087
-0.008307755 -0.006767425 -0.12256032 -0.059848625 -0.050834324 -0.08028136 -0.20132993 -0.043110307
-0.0017587135 -0.10308325 -0.077416435 -0.13340583 0.047837563 -0.067933574 -0.10448595 -0.09007877
-0.10730398 -0.10452183 -0.06205969 -0.08624956 -0.112680666 -0.10018824 -0.11626949 -0.094419114
-0.11255944 -0.15483415 -0.077452086 -0.10646762 -0.04411453 -0.14010309 -0.14674422 -0.11886944
-0.14453307 -0.12542167 -0.20093293 -0.09402381 -0.018986527 -0.0847681 -0.020291485 -0.1749369
-0.010456115 -0.16591963 -0.07218606 -0.044723727 -0.027656838 -0.20005721 -0.10926924 -0.07504225
0.0053888066 0.019272905 -0.09894726 -0.13697155 0.010389137 -0.1700405 -0.11277941 -0.057044305
-0.19808666 -0.16413403 0.01016198 -0.09882531 -0.09844219 -0.1090745 -0.08215296 -0.07477897
0.0104227625 -0.09649845 -0.083180524 -0.12283128 -0.06538959 -0.10128454 -0.0014602096 -0.02635911
-0.06743831 -0.03136636 -0.034515996 -0.10283027 -0.1092516 -0.04582601 -0.0712499 -0.12246483
-0.10226616 -0.12475143 -0.056713056 -0.110717356 -0.057742085 -0.032406066 -0.08578489 -0.07906348
-0.21214949 -0.09511258 -0.055459954 -0.09227638 -0.06913744 -0.11030332 -0.083793454 -0.07218046
-0.0810896 -0.13719586 -0.12066777 -0.15032928 -0.1312018 -0.037428115 -0.08987896 -0.07641771
-0.1170801 -0.06637921 -0.11925565 -0.07396525 -0.10418328 -0.12304166 -0.07499542 -0.058781028
-0.13906142 -0.1399832 -0.09475946 -0.1629321 -0.14402962 -0.12980984 -0.08814521 -0.10234815
-0.07992074 -0.010977193 -0.19591987 -0.11500263 -0.109523684 -0.117944546 -0.17281294 -0.12942077
-0.05294047 -0.13043824 -0.17768231 -0.11743365 -0.18549266 -0.078260906 -0.13015516 -0.09081385
-0.12017902 -0.18126716 -0.078325294 -0.07260938 -0.094008505 -0.09673166 -0.07366897 -0.10861744
00000000: b4f5 d9bd 87f5 86bd 05d3 91bd 597d 90bd
00000010: 8113 19be 9627 12be a51f 93bd 1f44 febc
00000020: b1cb 63bd 6d6c 13be 5959 32be fa79 9ebc
00000030: 26fc 24be e4bd d8bd dd9d 8fbd b9ae f3bd
00000040: 0977 943d d509 ad3c 33e7 03be d0eb e3bd
00000050: 341f 26be 6283 94bd 4a70 6dbe d668 c9bd
00000060: ace9 13be 0eb1 edbd a402 59bc 0f0b 04be
00000070: 33fa d0bc 4209 413d ac38 7fbd 83f7 64bd
00000080: a06c d8bd 2862 4bbe 75fa febd 767e 93bd
00000090: 4e47 21be 4755 92bc 06a3 1abe 555b 8dbd
000000a0: 30ec 08be 6412 8abd 699d 7cbd 54b7 03bd
000000b0: d869 263b b372 abbd 8582 e4bd 37b8 3abe
000000c0: f565 30bd 25a9 b93b 3b29 f1bd 6c5a 0abe
000000d0: ea9c bbbd d9ce 30bd b362 dcbc 1b30 89bd
000000e0: 3442 05be fb04 d9bd e156 eabd 5cb2 9abd
000000f0: d63e 15be 806f ecbd 323a b6bd 79e3 fcbd
00000100: ba1d ffbd 24d1 f7bd 6063 b3bc 10a1 1cbe
00000110: 693a 6fbd 8173 d2bd 4d8c 2bbe 8d49 d6bd
00000120: 2b74 0cbd 2702 4cbd eb2e ddbd 6579 c1bd
00000130: fe0f 81bd 9b67 cbbd cad2 7dbd 4836 1fbe
00000140: d038 dbbd 2186 7fbd b932 b7bd d82b 07be
00000150: 74a8 a7bd cf72 33be 4ea2 3ebe c1a0 1cbc
00000160: cb06 adbd 14af c3bd e861 cfbd 8e68 f1bd
00000170: f57b edbd 870f e3bd a150 9dbd 8c7d 66bc
00000180: bee5 31bd 0fdc 39bd 7ab4 e3bc f63e 10be
00000190: 48be 57bd 01df 1bbd 17c8 ccbc b0f2 0dbe
000001a0: c966 e7bd 83f3 27be 9d06 79be 9c3c aebd
000001b0: 1a0e 48be 8f54 09be 326d aabc 15bf e5bd
000001c0: 401d 08bc 47c1 ddbb e800 fbbd d523 75bd
000001d0: a737 50bd 8e6a a4bd 6f29 4ebe 6f94 30bd
000001e0: a284 e6ba 501d d3bd 828c 9ebd 8a9b 08be
000001f0: 52f1 433d c220 8bbd bbfc d5bd 387b b8bd
00000200: 30c2 dbbd 8b0f d6bd 4d32 7ebd 9ca3 b0bd
00000210: 1fc5 e6bd 7e2f cdbd b31e eebd cf5e c1bd
00000220: 9085 e6bd d88c 1ebe 339f 9ebd b20b dabd
00000230: 70b1 34bd 2f77 0fbe 1e44 16be d271 f3bd
00000240: 7a00 14be 8a6e 00be 5dc1 4dbe 8e8f c0bd
00000250: a289 9bbc e69a adbd 543a a6bc a922 33be
00000260: 2050 2bbc d6e6 29be 49d6 93bd 3a30 37bd
00000270: 9890 e2bc ccdb 4cbe 8dc8 dfbd c0af 99bd
00000280: 9694 b03b 36e2 9d3c dca4 cabd 4542 0cbe
00000290: 3337 2a3c 191f 2ebe e4f8 e6bd 4aa7 69bd
000002a0: 3bd7 4abe c012 28be 6f7e 263c ed64 cabd
000002b0: 0f9c c9bd 7462 dfbd d03f a8bd b725 99bd
000002c0: 3cc4 2a3c fba0 c5bd 8d5a aabd f78e fbbd
000002d0: faea 85bd 456e cfbd 8164 bfba 0fef d7bc
000002e0: 191d 8abd 037a 00bd a560 0dbd ad98 d2bd
000002f0: 4ebf dfbd 0eb4 3bbd 78eb 91bd d7ce fabd
00000300: ec70 d1bd ad7d ffbd f34b 68bd c8bf e2bd
00000310: f782 6cbd 39bc 04bd fdaf afbd 09ec a1bd
00000320: b73d 59be 62ca c2bd fa29 63bd 66fb bcbd
00000330: ee97 8dbd b5e6 e1bd e79b abbd 59d3 93bd
00000340: 4e12 a6bd 127d 0cbe aa20 f7bd ebef 19be
00000350: c459 06be 394e 19bd 7612 b8bd e380 9cbd
00000360: b1c7 efbd d3f1 87bd 4e3c f4bd 187b 97bd
00000370: 0b5e d5bd 44fd fbbd 3397 99bd 60c4 70bd
00000380: 1e66 0ebe c257 0fbe 3f11 c2bd acd7 26be
00000390: 807c 13be dfec 04be 7a85 b4bd e89b d1bd
000003a0: 7cad a3bd afd9 33bc 389f 48be 8086 ebbd
000003b0: f44d e0bd e98c f1bd e0f5 30be e186 04be
000003c0: 1bd8 58bd 9a91 05be 5af2 35be 0e81 f0bd
000003d0: caf1 3dbe 4147 a0bd 6547 05be 9dfc b9bd
000003e0: 6b20 f6bd 199e 39be 0369 a0bd 3ab4 94bd
000003f0: 8887 c0bd 401b c6bd c2df 96bd d272 debd

action_model._discrete_distribution.branches.0.weight f4 [5, 256]
0.01727961 -0.009458178 0.03829826 -0.027769793 0.021810578 -0.01884602 0.028707316 0.0037512719
-0.004127714 0.020760892 0.04837305 0.01144632 -0.05038641 0.006137287 -0.043742433 0.08289535
0.056754503 -0.04540546 -0.023924384 0.035535626 0.034288805 -0.059486967 0.021874687 0.0060967356
-0.017281212 -0.06942548 -0.029451184 -0.02897033 -0.022383941 0.062872626 -0.11672399 -0.046952963
-0.011941015 0.1273972 0.06630694 -0.019890146 -0.013331284 -0.011983067 0.03396525 0.07622253
-0.0058676545 0.011643067 -0.004530786 0.029242989 0.021718133 0.028155662 -0.010189723 0.09449412
0.048491277 0.002689578 -0.036597542 -0.048574015 -0.05086175 -0.01812259 -0.047089778 0.037868332
0.0011741401 -0.028010488 0.031460926 -0.055692468 0.004182046 0.007640102 -0.00028148625 -0.0071649333
-0.025370808 0.014346563 -0.056087002 0.046634257 -0.030633215 -0.007296418 0.011105439 -0.012058034
0.025743404 -0.036583487 -0.047180783 0.0050575887 -0.0008565503 0.0009744587 -0.009704668 0.0027510235
-0.066269256 0.0257435 -0.022909636 -0.023506451 -0.036513545 0.02867307 -0.016901752 -0.0063721915
0.04961658 -0.027654886 -0.0025692915 0.03258192 -0.0004994448 0.029121956 -0.036452316 -0.018429194
-0.049674217 -0.010664804 0.006687544 0.008396411 -0.048830535 0.0007530719 -0.06819221 -0.0037541331
0.043903694 0.046821058 0.023359496 0.01890117 0.0582432 -0.026636899 -0.015280511 -0.024655588
0.0012093605 0.0088488925 -0.052274086 0.023325514 -0.015034195 -0.03627147 0.022584796 -0.0075782384
-0.010530836 -0.028946182 -0.077162184 -0.07781056 0.03141552 -0.060392987 0.052318282 0.0409519
0.065040156 0.044651207 -0.010054214 0.02938923 -0.09924561 -0.040592417 -0.038714077 -0.03946661
0.05155385 0.0024655366 -0.014232108 -0.043403167 -0.013420728 0.032852728 0.0026054468 0.019126227
0.016384926 -0.032666847 0.060092453 -0.01859467 0.022739444 -0.011526083 -0.011196605 -0.026932321
-0.0638616 0.089197025 0.018454328 -0.0036592241 0.052819405 0.06408597 -0.0015238228 0.054954175
-0.0100684315 -0.006561826 0.0053546047 0.09442469 0.016263891 -0.013267669 0.017127238 0.01570681
0.07402182 0.0355278 -0.004035683 -0.016187254 -0.014915847 -0.009151407 -0.039334483 -0.010641065
-0.024313219 -0.011042099 -0.0076870117 -0.028077953 -0.037344545 -0.060186263 -0.036960404 -0.025445463
-0.049287517 0.031282607 0.04678869 0.032706108 -0.069273464 0.02687594 -0.030995093 -0.054456692
-0.033977672 -0.062230285 -0.061488193 -0.0033523617 -0.015587475 -0.011193381 -0.047148596 -0.0007579617
0.027796129 0.00409783 -0.009892243 -0.020586088 0.05070587 0.035366677 -0.02920423 0.006219558
-0.06443079 -0.027172871 0.009938975 0.015202072 -0.023019606 -0.040650014 0.039100196 0.016099097
0.019773083 -0.01916553 0.06829167 0.035028923 -0.044570804 0.02644066 0.04333084 -0.19114509
0.010550195 0.080825865 0.05116102 0.1084116 0.069665104 -0.008074761 -0.025646297 0.005367297
-0.03460001 -0.024245007 0.020981448 -0.025677932 -0.0037378017 -0.05111098 0.055934634 0.055192806
-0.026739638 -0.027399441 0.0018078253 -0.044194363 -0.04130714 -0.034894027 -0.038304243 -0.0024307289
0.08249599 0.043162774 -0.02780163 -0.009265119 -0.047782592 0.07744113 -0.063491255 -0.0615003
00000000: f88d 8d3c 79f6 1abc a3de 1c3d 7a7d e3bc
00000010: 19ac b23c f862 9abc 9b2b eb3c e6d7 753b
00000020: c641 87bb bf12 aa3c d222 463d 5989 3b3c
00000030: fb61 4ebd 4b1b c93b 442b 33bd 0ac5 a93d
00000040: 6977 683d 13fb 39bd 12fd c3bc ce8d 113d
00000050: 6b72 0c3d 9ba8 73bd 8b32 b33c 20c7 c73b
00000060: 5491 8dbc f22e 8ebd 9c43 f1bc 2f53 edbc
00000070: 875e b7bc 5dc3 803d fd0c efbd c051 40bd
00000080: 3fa4 43bc 6974 023e efcb 873d a9f0 a2bc
00000090: 756b 5abc a054 44bc 251f 0b3d 8f1a 9c3d
000000a0: 7445 c0bb 90c2 3e3c fd76 94bb fe8e ef3c
000000b0: 3aea b13c b4a6 e63c ccf2 26bc 2286 c13d
000000c0: ca9e 463d a243 303b 4ee7 15bd 8cf5 46bd
000000d0: 6954 50bd d375 94bc 36e1 40bd d31b 1b3d
000000e0: 9be5 993a 4076 e5bc 2cdd 003d c91d 64bd
000000f0: 8b09 893b d259 fa3b 7294 93b9 d1c7 eabb
00000100: 71d6 cfbc d90d 6b3c 7cbb 65bd 9003 3f3d
00000110: 82f2 fabc ca16 efbb 96f3 353c 0f8f 45bc
00000120: d5e3 d23c 91d8 15bd a340 41bd 21ba a53b
00000130: 1e8a 60ba d172 7f3a 5400 1fbc 844a 343b
00000140: 2db8 87bd 08e4 d23c fdac bbbc 9a90 c0bc
00000150: 3a8f 15bd c9e3 ea3c 8b75 8abc d1cd d0bb
00000160: c13a 4b3d 808c e2bc 8f61 28bb 9f74 053d
00000170: 2ced 02ba 2b91 ee3c 064f 15bd d2f8 96bc
00000180: 3177 4bbd 6ebb 2ebc 2f23 db3b 1a91 093c
00000190: 8702 48bd cd69 453a 5ba8 8bbd e707 76bb
000001a0: 5cd4 333d 70c7 3f3d 6a5c bf3c a0d6 9a3c
000001b0: 6c90 6e3d a035 dabc 1c5b 7abc 84fa c9bc
000001c0: 6883 9e3a f2fa 103c 5a1d 56bd 2615 bf3c
000001d0: fc51 76bc 6591 14bd c003 b93c df52 f8bb
000001e0: 8789 2cbc 8b20 edbc 3507 9ebd 255b 9fbd
000001f0: 8fad 003d a35e 77bd b24b 563d 2ebd 273d
00000200: c633 853d 2fe4 363d 6eba 24bc afc1 f03c
00000210: 4841 cbbd 3c44 26bd a792 1ebd bda7 21bd
00000220: 212a 533d d794 213b ca2d 69bc 85c7 31bd
00000230: 9de2 5bbc 9590 063d 25c0 2a3b 9bae 9c3c
00000240: ae39 863c accd 05bd 8123 763d d953 98bc
00000250: 1248 ba3c e5d7 3cbc f771 37bc 2ca1 dcbc
00000260: dfc9 82bd eeac b63d 882d 973c 98cf 6fbb
00000270: 2959 583d 813f 833d 02bb c7ba a117 613d
00000280: 10f6 24bc 9604 d7bb ae75 af3b bb61 c13d
00000290: da3b 853c a360 59bc 6c4e 8c3c 91ab 803c
000002a0: c198 973d 9985 113d c33d 84bb 229b 84bc
000002b0: 9961 74bc c8ef 15bc 321d 21bd dd57 2ebc
000002c0: 842c c7bc ece9 34bc 54e3 fbbb bc03 e6bc
000002d0: 98f6 18bd df85 76bd cb63 17bd 0173 d0bc
000002e0: b5e1 49bd 3122 003d 7fa5 3f3d d7f6 053d
000002f0: 3fdf 8dbd ee2a dc3c 6ce9 fdbc fb0d 5fbd
00000300: 2c2c 0bbd 2fe5 7ebd 0bdb 7bbd 4cb3 5bbb
00000310: 9c62 7fbc 7164 37bc e31e 41bd f3b1 46ba
00000320: b5b4 e33c 1747 863b 1313 22bc 28a4 a8bc
00000330: f5b0 4f3d a6dc 103d b63d efbc 6fcd cb3b
00000340: 4af4 83bd a499 debc 15d7 223c 1d12 793c
00000350: 9d93 bcbc a180 26bd 8727 203d 41e2 833c
00000360: 29fb a13c 0801 9dbc 81dc 8b3d 7d7a 0f3d
00000370: e08f 36bd 159a d83c ae7b 313d 8abb 43be
00000380: bada 2c3c 0888 a53d 388e 513d e706 de3d
00000390: 94ac 8e3d 014c 04bc 2f18 d2bc 27e0 af3b
000003a0: bdb8 0dbd 779d c6bc 49e1 ab3c 875a d2bc
000003b0: e8f5 74bb bf59 51bd b71b 653d da11 623d
000003c0: 160d dbbc cb74 e0bc 8df4 ec3a 2605 35bd
000003d0: ad31 29bd 0aed 0ebd e9e4 1cbd dd4c 1fbb
000003e0: a8f3 a83d 73cb 303d 3ec0 e3bc bacc 17bc
000003f0: aeb7 43bd 7599 9e3d b407 82bd bde7 7bbd

action_model._discrete_distribution.branches.0.bias f4 [5]
-0.10086262 0.073202014 0.0678481 -0.06877352 -0.07216741
00000000: 1091 cebd f0ea 953d f2f3 8a3d 22d9 8cbd
00000010: 82cc 93bd
