results/GroupJumper_Skill2_v4/GroupJumper/GroupJumper-1499950.onnx (onnx, 565720 bytes, 11 tensors)

discrete_act_size_vector f4 [1, 2]
00000000: 0000 a040 0000 4040
5.0 3.0

network_body._body_endoder.seq_layers.0.weight f4 [256, 25]
00000000: b51a e13d 3ea3 5cbd 0205 d33e ddb7 8dbe
00000010: 0944 97be 66fc d5bb 4934 d83d d84f 263e
00000020: 9331 843d 317a cc3e 331b 54bd 76a2 6dbd
00000030: 96f4 28be abef 86be 94ed 1d3e e321 9ebe
00000040: ecca e0be d7e3 cfbd 0057 2a3d 1188 a73e
00000050: 176d 20bc e61f 3f3e 6a58 f9bd 1fd8 f03b
00000060: d7d0 d83e 2a57 c8bb b1d3 7d3e 9564 d23d
00000070: 92a5 e43d 2bc6 2e3e 8bc2 443c 9b75 063c
00000080: 4d43 013e 6d61 00be 00f1 c3be 888e 03be
00000090: 094b a63d 7fdc 97bd 0940 863e ae31 bb3e
000000a0: 6716 33be cd93 e3bd 7304 cebe 6d27 cc3d
000000b0: 2eb6 80bd ed38 72bd e1e6 173e 6075 9a3d
000000c0: 9625 8c3e c854 2b3f 907f bebe 0b90 5f3d
000000d0: 4f9e 1bbe 13ac bdbd 4da0 aabe 6686 2f3d
000000e0: 3d41 65be 37c0 1d3c aadf 48be 9c51 d23d
000000f0: 7b66 bc3e ffb0 7bbf 2331 513e 3ce8 883d
00000100: b894 043e cd71 d0be 4d2a 223d 9900 05bd
00000110: b3a6 84be 9adb e1be ab6c 85be d4ca 633e
00000120: 9177 b9be 9dce 57bd 6383 aa3d 49cd 3b3c
00000130: 0517 29be 02a8 cb3d 0309 b3bc c9ad 22bf
00000140: c094 113d 0c74 35be 9bea 033d 964c aa3d
00000150: c638 87be 860f 33bd dde2 b23d 47b3 85be
00000160: 3292 ac3d 7b37 4d3e 6031 093d 40a7 a63d
00000170: 2b90 bcbd ee10 243c 905e fe3e b120 3abd
00000180: e921 a2be 9a29 30be c75c 87be a10a 0b3f
00000190: 7959 3bbe 068d babd 99a6 9a3e 6f9a 99bc
000001a0: a134 933e 9550 67be 2dc1 91be bd91 03bd
000001b0: 2bd1 39be 4d6b 673e 93a7 14be c12c b13d
000001c0: 709e 4d3e a8a0 9e3e d47e 923e 3265 a63d
000001d0: be11 503e 2eec 84be bfd4 d6bd f6a3 19bf
000001e0: 9ce3 8c3e 301e ee3d 12dd 5bbc ccaa 9bbe
000001f0: 6e23 09bf 77fc fa3b 2cdd 0b3e fa19 79bd
00000200: d31b 96be 57f9 943d 108d 85bc dbcc f73b
00000210: 5273 52be c329 8a3e f2b2 8c3e afd0 b2be
00000220: 9965 77be 3047 62be eb32 533e 3815 883e
00000230: 0a1e 8abd 572b 2a3d 8911 293e 1ac2 82be
00000240: c0b3 52be 00d6 d73d cf83 5b3d 14f0 9e3d
00000250: 06f3 3e3e cf32 cfbd 2dcf a8bd ceb4 24be
00000260: 0b56 33be 7f27 023d 739b b9be 4d3a cbbc
00000270: e8ee 3e3e 6dab 1dbe 61b2 863e 8fca 913d
00000280: 754b a63c d6f3 373e 651d 643c 857f fcbc
00000290: dc57 9b3e 48f8 5cbe 597d 40bd ab46 0e3e
000002a0: fb2c b9be dc72 90be e368 a7bc ea8d ea3d
000002b0: 0d92 b7bd 7a52 663e d41f 19be 0dab b2bd
000002c0: 53f0 edbb c3e9 fe3d 4340 12be 8559 b3bd
000002d0: 90e3 b3bd 4f60 4d3e a5a5 e63c 2fc1 1cbc
000002e0: 5906 083f 049d a9be 593e 883d 73c1 b2bd
000002f0: 4ec0 813e f2a9 533f 81f4 b9bd 8470 8dbd
00000300: 5377 3e3e 7efa 453d a54d 633e 4edd 05be
00000310: 9023 943d d50d 733c 6709 1bbe 6a85 c83e
00000320: 76b7 a9bd 50ea 03be ff09 e1bd 1f73 b6be
00000330: 4050 8bbe 51c0 c93b d9ec 823d 565c 063d
00000340: f711 1b3e 5039 263e 6c69 7a3c a51b e63c
00000350: 25e5 05bf 65bd 813e f64f 393d 30b5 46be
00000360: ddf7 883c 0b01 54be cded 4d3d 4205 fd3e
00000370: 3ce1 9d3d db95 dcbd ffa2 153e ee6d 373e
00000380: 0653 523f e5bd 07be 7bbc 2a3c 5320 1d3e
00000390: 071e a73e e19c d5be e107 303e ec88 313e
000003a0: 5703 dcbd 0bd1 0e3e 6712 48be b6cc 7a3c
000003b0: 83de b63c d822 2fbe 44a4 13be ae3a 55be
000003c0: 02b6 f63c 637c 37be 5ae1 1abe dc38 8e3c
000003d0: 33bc 103f 7767 3bbd 2440 a73d 57fa 3cbe
000003e0: 7517 16bd 517a ea3d b9d9 c03d 7d76 8ebe
000003f0: a301 d33d dda8 e4bc abff b9be b620 0a3e
0.10991422 -0.053866617 0.41214758 -0.2767934 -0.29544094 -0.0065303324 0.105568476 0.16241395
0.06454768 0.39936975 -0.05178375 -0.058016263 -0.16499552 -0.26354727 0.1542266 -0.3088523
-0.43904817 -0.10150879 0.041586876 0.32720998 -0.009791634 0.18664512 -0.12175067 0.0073499824
0.42346832 -0.0061139064 0.24787785 0.10273091 0.111643925 0.17067783 0.012009273 0.00820675
0.1262333 -0.12537165 -0.38269806 -0.1284734 0.081197806 -0.07415103 0.2622073 0.3656134
-0.17489015 -0.11112175 -0.4023777 0.09968457 -0.06284748 -0.05913632 0.14834167 0.07541919
0.27372426 0.6692624 -0.37206697 0.05458073 -0.15197109 -0.09261336 -0.33325425 0.04285278
-0.22388168 0.009628347 -0.19616571 0.10269472 0.36796936 -0.9831695 0.204289 0.0668492
0.12947357 -0.40711823 0.039591122 -0.032471273 -0.2590843 -0.44112855 -0.2605947 0.22245342
-0.36224034 -0.052687276 0.08325841 0.011462518 -0.16512688 0.09944154 -0.021854883 -0.63546425
0.03554225 -0.1772005 0.03220616 0.08315389 -0.26410502 -0.043715976 0.08734677 -0.2611334
0.08426322 0.20040695 0.033494353 0.08137369 -0.09207185 0.010013802 0.4968152 -0.045441333
-0.31666496 -0.1720337 -0.2643797 0.54313093 -0.1829585 -0.09108929 0.3020523 -0.018750397
0.2875109 -0.22589333 -0.28467694 -0.03212141 -0.18146197 0.22599526 -0.1451705 0.08651114
0.2007997 0.30981946 0.28612387 0.0812477 0.20319268 -0.2596144 -0.10489797 -0.6001581
0.27517402 0.116268516 -0.0134194065 -0.30403745 -0.53569686 0.0076594907 0.13658589 -0.06081579
-0.29318103 0.0727412 -0.016302615 0.0075622625 -0.20551804 0.26984987 0.27480274 -0.34924838
-0.2415985 -0.22097468 0.20624892 0.2657869 -0.06744011 0.04154524 0.16510595 -0.25538713
-0.20576382 0.10538864 0.0535925 0.07760635 0.18647394 -0.10117113 -0.08242641 -0.16084597
-0.17513292 0.031775948 -0.3625141 -0.024808073 0.18645823 -0.15397425 0.26307967 0.07118713
0.020299653 0.1796411 0.013923024 -0.030822525 0.3034047 -0.21579087 -0.04699454 0.13894145
-0.3616713 -0.2821263 -0.020435756 0.11452849 -0.08963404 0.224924 -0.14953548 -0.087240316
-0.007261315 0.1244693 -0.14282326 -0.08757309 -0.087836385 0.2005627 0.028155157 -0.009567543
0.53134686 -0.33127606 0.06652517 -0.08728304 0.2534203 0.8268119 -0.090798385 -0.06906226
0.18600206 0.04833459 0.22197588 -0.13072702 0.072333455 0.014834841 -0.15140305 0.39164287
-0.082869455 -0.12882352 -0.10988235 -0.35634705 -0.27209663 0.006156959 0.06392831 0.032802902
0.15143572 0.162328 0.015283924 0.028089354 -0.5230277 0.2533981 0.045242272 -0.19405055
0.016719753 -0.20703523 0.050275613 0.49418074 0.07708976 -0.1077077 0.1461296 0.17913029
0.82157934 -0.13256033 0.010420914 0.15344362 0.32640097 -0.41721252 0.17190506 0.17337388
-0.107428245 0.13946931 -0.1953827 0.015307596 0.022322899 -0.17103136 -0.14418131 -0.20823166
0.030116085 -0.17918544 -0.15125027 0.017361097 0.5653717 -0.04575297 0.08166531 -0.18454872
-0.036643464 0.11449111 0.09416527 -0.27824774 0.103030466 -0.027912552 -0.36327872 0.1348904

network_body._body_endoder.seq_layers.0.bias f4 [256]
00000000: 675c eebb 0913 743d 933e 9fbd 684b 923c
00000010: 4649 02bd 8bbd 203d 9674 953d 73bb 643d
00000020: 037d 0cbd aff2 123d 8345 603c 7eab 17bd
00000030: c3bd 91bd 5d1a 2e3c 45cc 65bd 29ed 3c3d
00000040: f9c5 8bbd 67e7 163d b422 8dbd 60df 013e
00000050: 70e1 e3bb 1843 51bd 99ae 96bc 4875 8f3d
00000060: a670 203d 426f cebd 721a 95bd fdc0 7dbc
00000070: f0cf 6dbd 1fd0 ccbc bd9f 25bd d715 8d3c
00000080: 941b cd3c eb0f 41bd 1adf 913b 0356 183c
00000090: e311 9a3d a1e9 babc 8c5c ccba 170b afbd
000000a0: bb06 60bb 4b77 83bd bfd1 5c3d e755 76bd
000000b0: b7a4 66bd aaaf 7c3d 0f78 fa3c 9a3b bdbd
000000c0: d071 1ebd d4fc 21bd df34 c1bd e813 91bd
000000d0: 14eb 663d 0c94 a3bc 344a 84bd 3261 6dbd
000000e0: c5ef c63c 470b 92bd 3199 15bd 0320 e03c
000000f0: 2d8e 22be af86 d33b d1fd e1bd e9a2 96bd
00000100: a2c4 6b3d fc20 ec3d 6a22 1a3d e877 2fbd
00000110: d722 9cbd 5c33 95bd 33e4 bd3c 8580 cfbc
00000120: db93 05be d78f a33d e5ea 4f3b 15ad 803d
00000130: 9f0b 0ebd e578 a33c 3e95 a73d 5ea3 743d
00000140: d8a3 923c a512 f63d c4fd c5bc e594 3f3e
00000150: 8893 11be 24bf 88bd 18d3 133d 9d6e 8ebd
00000160: 67cc 99bd b90e 81bd c760 4cbd a7a0 5abd
00000170: 618b 57bd 46c1 2abd 6d36 483c eed0 14bd
00000180: a61b b7bd 80e9 b73d 5f35 553d 7df9 2f3d
00000190: d039 c73c cdd6 8bbd b456 a6bd 20f6 183d
000001a0: 5109 a23c 317c 19bd ac17 013e a460 e83d
000001b0: 0050 85bd 4936 ee3d 2e39 8d3c 1bc3 a3bc
000001c0: f5e3 963d 8ca3 2f3d ccc7 00be 08e7 a23d
000001d0: 4a65 9fbd 1a4e 8dbd d48e 413d 98b5 0fbe
000001e0: 7530 11bc 743a 7a3c 7390 41bd a93a d1bd
000001f0: 19db 2f3c 5ec0 32be 8760 a8bd 8e38 a33d
00000200: 3b33 03bd c54e f43c a15c bbbd a65b 973d
00000210: c937 ab3c 5eb9 613d 5942 d43d 0254 ffbc
00000220: 764c 2f3c a810 0d3e 94f1 ccbd 2b2b b13c
00000230: f33e 18be ccb2 883a 3ea7 1b3d b28a 12bd
00000240: 879a 46bd 7f63 883c ad78 2fbd cee3 113c
00000250: d422 dd3c 4994 c43d 90b0 173d 59fd 873d
00000260: c619 2ebb 9b0f 133c b007 6f3c 90f3 ccbd
00000270: 162b 293d aa5a 10be cf84 ccbd fa78 ccbd
00000280: 4540 03bd 350f 513c 5cc6 fa3b eb9f c33d
00000290: 19ea 653a f8f7 123e dd16 20bd 630c 1f3c
000002a0: 4c6a c7bd fbd0 11bd 677d 05bd 697c 5cbd
000002b0: fb78 8dbd fd84 96bc 3d2a dabd c61d cdbd
000002c0: f4fa 39ba 0ddb 493d 484e e03d 9221 e5bb
000002d0: 6591 20bd b48f debc 1ef5 12be 5176 d2bc
000002e0: 93d7 b9bd 7e5b cb3d 2e98 6bbd 50a9 b33d
000002f0: b5aa 3ebc f186 8bbd 9f96 b1bd 7344 88bb
00000300: 66cc 44be 5424 3cbd 2014 19be a464 5c3d
00000310: a0e2 90bd 6dca 1ebd 46e4 5d3d 84e2 263d
00000320: efcc d4bd 83bc cfbd 594a e2bc 7502 9eba
00000330: b321 0a3d 141b 9cbd 228f a23d 6be8 b83d
00000340: a923 1a3e e238 983d 501b bbbc 1e43 2eba
00000350: b665 ebbd da12 0339 6613 82bd 5707 a8bb
00000360: 4f03 1d3d 6192 a1bd 3374 293c 4520 21be
00000370: 60a9 d03c e05e 9abd bba0 7f3d edca 63bb
00000380: c23f 33bd 678e b5bb 98c3 e83c 5d63 b8bc
00000390: 49bb 883c 2cad 1ebd 8e35 713d b293 0d3d
000003a0: 82d7 9b3d 0be3 993c 9ac2 8f3d 29ae e6bd
000003b0: a9eb f03c 3e38 e53d 780b c93c 83dd 0dbe
000003c0: 6141 e33d b720 763c d1c8 0c3e b96a 04be
000003d0: a3a1 14bd 44b9 c13c 0e2e 67bd b4d0 813a
000003e0: 41bf 193e 0f16 e03d 8193 823d 5931 a7bc
000003f0: dc7b 70bc a2f7 54bd 223b c5bc befb 3a3c
-0.007274199 0.059588466 -0.07775607 0.017858222 -0.03180816 0.039243262 0.07297628 0.055842828
-0.034298908 0.035875972 0.013688448 -0.037028782 -0.07116272 0.010626403 -0.05610301 0.04612461
-0.0682487 0.036841776 -0.06891385 0.12682867 -0.0069543645 -0.051089376 -0.018393802 0.070047915
0.03916993 -0.100798145 -0.07280435 -0.0154879065 -0.058059633 -0.025001584 -0.04043554 0.017222328
0.025037564 -0.04713432 0.0044516446 0.009297851 0.07522943 -0.022816481 -0.0015591546 -0.08547037
-0.00341837 -0.06419238 0.053910967 -0.060140517 -0.056309428 0.061690964 0.030574827 -0.09239884
-0.03868276 -0.039547756 -0.094339125 -0.07083875 0.05637653 -0.019968055 -0.064594656 -0.05795402
0.024284253 -0.07131057 -0.036523048 0.027359014 -0.15874548 0.0064552645 -0.1103474 -0.073552914
0.05756057 0.11529729 0.037630476 -0.04283896 -0.07623833 -0.07285187 0.023180103 -0.025329838
-0.13044684 0.0798642 0.0031725701 0.06283013 -0.03467905 0.019955108 0.081827626 0.05972611
0.017900392 0.12015275 -0.024168856 0.18709143 -0.14216435 -0.06677082 0.036089987 -0.069546916
-0.0750969 -0.06301636 -0.04989698 -0.053375866 -0.052623156 -0.041688226 0.012220007 -0.036332063
-0.089408204 0.089800835 0.05205285 0.04296254 0.02431956 -0.068280794 -0.08122006 0.037344098
0.019779833 -0.037471954 0.12606686 0.11346558 -0.065093994 0.11631448 0.01723918 -0.019990494
0.07367698 0.04288058 -0.12576216 0.07954222 -0.07782991 -0.06899662 0.047255352 -0.14034116
-0.008861651 0.015272725 -0.047256898 -0.10216267 0.010733389 -0.17456195 -0.08221536 0.07969771
-0.03203128 0.029822716 -0.09148527 0.073905274 0.020900624 0.05510842 0.10364217 -0.031167988
0.010699382 0.13775885 -0.10007015 0.02162703 -0.14867763 0.0010429262 0.03800129 -0.0357768
-0.048487213 0.016649006 -0.042839695 0.0089044105 0.026994146 0.09598596 0.037033617 0.06640119
-0.0026565655 0.008975889 0.014589235 -0.10007393 0.041300856 -0.14097086 -0.09986269 -0.09984012
-0.032043714 0.012759973 0.007653041 0.09551986 0.000877054 0.14352405 -0.039084304 0.009707543
-0.097370714 -0.03559969 -0.032590296 -0.053829584 -0.06907841 -0.01837396 -0.106525876 -0.100154445
-0.0007094585 0.04928117 0.10952431 -0.0069925273 -0.03920116 -0.027168132 -0.14351317 -0.025691183
-0.09074321 0.0992956 -0.057518177 0.08772528 -0.011637379 -0.068128474 -0.08671307 -0.0041585504
-0.19218597 -0.045933083 -0.14949083 0.053806916 -0.07074475 -0.038767267 0.054172777 0.040743366
-0.103906505 -0.10143378 -0.027623342 -0.0012055176 0.033723544 -0.07622352 0.07937457 0.09028705
0.15052666 0.074327245 -0.022840172 -0.00066475745 -0.11494009 0.00012500156 -0.06351356 -0.005127828
0.038333233 -0.07889248 0.010342645 -0.15734966 0.02547139 -0.07537627 0.062409144 -0.0034758404
-0.043761976 -0.0055406573 0.028413579 -0.022508318 0.016690867 -0.03873937 0.058888964 0.03456468
0.07609464 0.01878502 0.07019539 -0.11263687 0.029409247 0.11192368 0.024541602 -0.13854031
0.110964544 0.015022448 0.1374848 -0.12931336 -0.03628696 0.023647912 -0.056440406 0.0009904117
0.15014364 0.10941707 0.063757904 -0.020409273 -0.014677968 -0.051993974 -0.024076048 0.011412559

network_body._body_endoder.seq_layers.2.weight f4 [256, 256]
00000000: a007 d9bd 4cd3 5cbd c1e2 b23d 33f3 d6bd
00000010: e278 4c3e 293a 503c 97e6 ddbd c0db 66be
00000020: b584 d3bd d4b7 dd3d bc02 eebb 96b1 0f3d
00000030: e703 553e 5359 b63d 97f5 5b3e 90d7 963d
00000040: 4309 7b3d 1429 863e 75c1 ea3d fd9e 38be
00000050: 732e 0a3e e5a8 68bd 9ebc f33d e947 f83c
00000060: 0c96 063d 0f41 d0bd 6284 053e adb3 033e
00000070: 5504 603d e286 413e cfa9 ad3e 7b55 d23d
00000080: 0d39 a73b e174 a83d 0d9e a5bd d2aa 08be
00000090: 83ea 30be 30e0 3dbe 3397 fd3c bb48 ac3d
000000a0: 424d 673e b72c de3c 373b 62bd 9f6d 953e
000000b0: 6d3c 1f3e 7c2d 2cbe 8ea2 833d 83af e8bc
000000c0: e6e4 0e3e f613 09bd c5d8 563d 22ee 5fbe
000000d0: aaf9 923d 35f8 f63d e84d 693e 3f6e b7bc
000000e0: 6d16 973d ad06 5abe 452f f4bd d6af e4bd
000000f0: 656a 1f3d 22f6 143e 6b02 d93d 092c 08be
00000100: 624a 35be d174 f13a d8ba 4dbd 14cf b7bc
00000110: d022 9b3e 365b 2bbe 2156 393b 68c5 a3bd
00000120: ab33 5fbe 3d7e 323d c14b 75bc 24c8 86be
00000130: 80bb 4ebc f1d0 e93d a7fb 58bd a54b f3bc
00000140: 6dd8 f93c 06cd a03d 411a 883d 46dc 20bd
00000150: f7bb a3bd b716 7b3e 2906 95be a349 a2bd
00000160: 9713 b5bd c3b8 e43c b7a1 41be 596c 35bd
00000170: cd06 37bd 2f8d a0bc 0691 7e3e 08cc bbbd
00000180: 5cf7 263e 6adf c43d 12d1 02be 4937 b4bd
00000190: 30a0 58be d5f7 e7bd 1489 0cbe efb2 0fbe
000001a0: 832f 6a3d 538e 523e 55d2 293e db98 49bd
000001b0: 585e 00be 7ce7 1f3e c986 5c3e 7705 833e
000001c0: 38b3 b83d 95ee 16bc f206 ccba 0f97 d2bd
000001d0: eb87 af3d 210a 633e 7cd3 7c3d a2c8 afbd
000001e0: 4e80 253e 3375 6d3e f372 f937 0488 b3bd
000001f0: a450 cbbc 8853 21bd adc7 8abd feee 4ebe
00000200: 1a75 09be a8d3 e63d 0f6a ba3d 0723 60be
00000210: 15df fcbd ec96 20be 337e 50be 60c3 483e
00000220: bb99 273e bcd3 133e 374f 633e f255 ad3d
00000230: 8238 8d3d 7b07 6d3d c49d 14be e934 85bd
00000240: a39f 3f3d d8c8 94bd f436 bb3d 61c5 e3bd
00000250: 4f3f 9dbd 1d27 2b3c 63ea 0a3e 519b 883d
00000260: 746e 203e 3a4f 203e ffbc 183e aca5 3a3e
00000270: 1600 803e 8d9f 36bc bf46 8dbb f178 cc3d
00000280: 3bd5 853d f19b 783c fbdb 1e3e 859f 303e
00000290: dca8 eb3d 3dce 423e 9592 2c3d f797 a53e
000002a0: e1f2 553d be43 6b3d 60ca 1dbe 80a5 8fbe
000002b0: a2a0 7d3e 08e8 82bd 921f f23c b0f6 bf3d
000002c0: c39c 223d 204b 70bd 61ef 733d 4bcc 22be
000002d0: 8205 c7bd 9ae4 253e 6bfd 56bd b75e bd3d
000002e0: c560 753e cb0b db3d b7d9 6b3d 99a7 5abd
000002f0: 4a29 29bd 13b9 263e eee7 55bd 372f 993d
00000300: 6e14 44be bf93 8bbe b059 7a3e aab8 51bc
00000310: c212 e3bc 58df 8bbe 753a 233e 9231 093e
00000320: 8510 babe 9680 103e 18de 0b3e 2480 863e
00000330: 760f 50be d122 f93d 2843 373e 4d30 15bd
00000340: 76ed 0fbd 398b 32bc e258 a8bd 19f4 003e
00000350: 66a9 a13e 61e4 703d f50c 0fbb eac7 803e
00000360: 301c 6f3d 075a b43d 086d 38be e755 23be
00000370: 704d 9a3d c0dc fe3c 76f3 94bd 7b70 1fbc
00000380: 441e 903e 4ae7 8dbd dc44 563d 2c41 ebbc
00000390: e528 233e 1350 213c a62b f83d 8ac6 10be
000003a0: ea42 13bd 6bf1 f63d 5163 7abe b464 9cbc
000003b0: af56 34bc d495 1cbd c934 6fbe 6cc6 2cbe
000003c0: f39e 263e 2e42 463e 4c21 12be 3b9e a23d
000003d0: 6882 e5bd b15a 923d b273 8abd 3148 103e
000003e0: 4b17 e53d ea80 8abc 549a edbc 47ea ac3d
000003f0: 4c9e 3e3e 7d6f b5bd bba7 1abe eed2 053d
-0.105971575 -0.053912446 0.08734656 -0.10495605 0.19967988 0.012709179 -0.10834997 -0.22544765
-0.10328046 0.10826078 -0.0072635096 0.03508147 0.2080227 0.08903756 0.21480404 0.07365334
0.06128813 0.26203215 0.1146268 -0.18029399 0.13494281 -0.056801695 0.1190121 0.030307727
0.03285794 -0.10168659 0.13038781 0.1286151 0.05469163 0.1889911 0.33918616 0.1027021
0.0051032365 0.08225418 -0.080867864 -0.13346413 -0.17276959 -0.18542552 0.030955886 0.0841231
0.22588065 0.027120931 -0.055232253 0.29185197 0.15550394 -0.16814226 0.06427489 -0.028404003
0.13954505 -0.0334663 0.05245282 -0.21868184 0.07176526 0.120590605 0.22783625 -0.022391437
0.07377324 -0.21291609 -0.119230784 -0.111663505 0.038919825 0.14547017 0.10596164 -0.13298048
-0.17704156 0.0018421655 -0.050227016 -0.02243761 0.30299997 -0.16734013 0.0028280097 -0.07996637
-0.21797054 0.04357742 -0.014971674 -0.2632457 -0.012617946 0.114168055 -0.05297437 -0.029699156
0.030498708 0.07851605 0.066456325 -0.03927257 -0.07994836 0.24520384 -0.29106262 -0.07924201
-0.08841627 0.027920133 -0.18909346 -0.04429278 -0.04468422 -0.019598572 0.2486001 -0.09169775
0.16305298 0.09612925 -0.12775066 -0.08799607 -0.21154857 -0.11326567 -0.13724166 -0.14033101
0.057174217 0.20562105 0.16584142 -0.04921804 -0.1253599 0.15615648 0.21535791 0.25590107
0.09018558 -0.009212156 -0.0015566035 -0.102827184 0.08570846 0.22171833 0.061725125 -0.085831895
0.16162226 0.23189239 2.973664e-05 -0.08766177 -0.024818726 -0.039386302 -0.067763664 -0.20208356
-0.13423577 0.11270839 0.0910226 -0.21888362 -0.12347237 -0.15682572 -0.20360641 0.1960578
0.16367237 0.14436239 0.22198187 0.084636584 0.06895544 0.057868462 -0.14513308 -0.065042324
0.0467831 -0.072648704 0.09141341 -0.111216314 -0.07678091 0.010446337 0.13565974 0.06670249
0.15667135 0.15655223 0.14915846 0.18227261 0.25000066 -0.011146438 -0.004311412 0.09984005
0.06534811 0.015173898 0.15513603 0.17248352 0.11506817 0.19023986 0.04213198 0.32342502
0.05223358 0.05743765 -0.15409231 -0.28055954 0.24768308 -0.06391913 0.02955607 0.09373224
0.03970028 -0.058665395 0.05955446 -0.15898244 -0.097178474 0.16200486 -0.052487772 0.09246581
0.23962696 0.10695609 0.057580676 -0.05338249 -0.041299142 0.16281538 -0.05222314 0.07479709
-0.19148418 -0.2726116 0.24448276 -0.012800375 -0.027718905 -0.27318835 0.15940268 0.13397816
-0.36340728 0.14111552 0.13658941 0.2626964 -0.20318398 0.12164844 0.17896712 -0.036423016
-0.03513857 -0.010897451 -0.08220078 0.12593116 0.31574553 0.05881155 -0.0021827791 0.25152522
0.05837649 0.08806234 -0.18010342 -0.15950738 0.07534301 0.031111121 -0.07272999 -0.009731407
0.2814809 -0.069288805 0.052311763 -0.0287176 0.15933569 0.009845751 0.121177 -0.14138237
-0.035952486 0.120577656 -0.24451949 -0.019090988 -0.011006995 -0.038228825 -0.2335998 -0.16872567
0.16271572 0.19361183 -0.14270514 0.07940336 -0.11206514 0.07146204 -0.067603484 0.14090039
0.111860834 -0.016907174 -0.029004253 0.08443122 0.18615073 -0.08859155 -0.15103047 0.03267186

network_body._body_endoder.seq_layers.2.bias f4 [256]
00000000: b911 2fbd c89a f7bd 00ed b9bd d0d0 c0be
00000010: 6415 f0be 66ec 0dbe 30b1 293b 0ec4 933d
00000020: 3341 8fbd 6856 3a3d 8853 c0be 5629 a83c
00000030: 92e3 953d 5f3a 26be 8ce4 38be a3d9 ebbd
00000040: 4c5c 513c d9b9 aabd bb43 853c c2e8 09be
00000050: 25ce 50be fd0f b5bd 2ba6 9cbe 58ca 8cbd
00000060: 2b2f bb3d 180e f43c 9d05 bebd 31bf 9f3d
00000070: 27a6 a3bd 81f1 f6bc 11f9 82bc 81f1 c83c
00000080: 34be 35be a84e 663c 7015 84bc 97cf f93c
00000090: 2b9d d5bd c27b 98be dd08 f13d 5b75 0c3e
000000a0: 541b 80bd 882b 91be 5a6a 3abe d074 61bc
000000b0: ec69 efbd adbf 10bd d518 4fbe 4b68 213e
000000c0: 2148 12bc d5aa 88be 7809 adbe d47c 253e
000000d0: 1baf c4bd 2014 94bd 933b 37bd 186e febd
000000e0: 21ec 41bd 87e7 983c 270d 57be 7bf0 e9bd
000000f0: 1ebf c5be f6ab 383d 9891 523e 0bd7 66bd
00000100: a475 26be e9fc 23be 1371 26bd 286d 8ebd
00000110: 80dc ddbd d6be a23e 1237 91bc 218d 18be
00000120: ddd1 53bc 131c 11be 075b 0abe 63ff 37be
00000130: 2f55 15bd e6be 4ebe 2a22 fabd 1c83 9b3d
00000140: 57d2 823d 2df3 62be ec16 fdbd e1b7 0cbd
00000150: f902 d7be e354 78bc 57ff 14bd 0563 c2be
00000160: 08ca 86bd b17f 51be 39a9 dbbd eb15 8fbe
00000170: 93da a8bd c372 09bc dce2 a5be 9a53 45bd
00000180: f9a2 15bc 0a33 9bbc 8ecd c2bd 464b afbe
00000190: 9ec0 01be d71f 31bd bf0d 74be 913e dabd
000001a0: 45da 97bd 9fc7 1abe b89c 8abd e767 09be
000001b0: 1039 293e 70ae 92be 4bd2 e9bd 64f1 a9bd
000001c0: 5a11 2bbd 7701 08be 3763 89be 9982 e73d
000001d0: e1bc 9d3c da2a f1bc 53cf 2ebd 98aa 55be
000001e0: 5c19 e5ba 28dc 153e 57eb fd3d f278 23bd
000001f0: 0cd6 aebe de54 10be c94b fcbd 11fe 86bd
00000200: 974d 68bd 4a7c 00be 3805 ad3d 5b0e eabd
00000210: df5b 17bc 6c4f b7bd e2de 893d 51b2 923e
00000220: a144 ae3d 8bb5 6abd 0a66 8ebc 2e08 61be
00000230: 3f7a 173d 4957 833d c354 123d 1a83 01bd
00000240: 15a0 923d e064 853a ad8d 5d3c 6a34 ae3d
00000250: 6407 3bbd c961 c8bd 753c 9cbd 8c70 d3be
00000260: 3847 2d3d aaa6 efbc 5ee0 193e 931e f6bd
00000270: aaf6 32be 64f2 d2bd 623d bbbd 1a3f 2d3e
00000280: 09d6 8dbc c966 2fbd 2cfd 8cbe de83 47be
00000290: 9256 0fbe 485f 07be 7811 e1bd bf3f e43c
000002a0: bf60 98bd 5af2 353d a930 0dbe 0657 65bd
000002b0: 916c 733e ea1f 03be 1e07 953d 464d a3bd
000002c0: a424 dc3d 70b5 f23c 6333 febd 4d41 86be
000002d0: 8e09 df3d b63a 783e f996 c0bd b22a 1e3d
000002e0: 2bcb 8dbd 5616 a4be d530 bdbd 97ce 4fbe
000002f0: d42b 25be f860 c7be 8b76 29bd 5deb cabb
00000300: 635b 333e dcf4 9dbd acde fa3d 7469 cbbe
00000310: 384d a4bd 4290 bf3d 3b9c 2bbc c3ab e6bd
00000320: 838f 9abc fdf4 3dbe 17c4 38be e270 18be
00000330: b736 c43b 4d58 59bd 7451 983d 5b63 2fbe
00000340: a09e d03d e782 6bbe d935 a8bd 2c4c 033d
00000350: 9dd7 a1be 5dae 4cbe 9d2c 4cbe 37b5 a53b
00000360: 4b2a a6bc 5c7c 93bb fb63 cfbd c9a5 adbc
00000370: 4781 4bbe 74fa 54be b3bf 63be ec9d d3bd
00000380: 0212 cfbd d849 e2bd cedf 19be 0a02 033e
00000390: 847b 8fbe b6c4 1ebe 420e adbd 53e8 9abc
000003a0: de8e 02be 722a 843d b9c8 8dbe 2498 9bbd
000003b0: b61f 67bd fed9 083c f286 7fbd 2c31 86bb
000003c0: b519 913d f0e0 77bd c7d3 3e3d 7f22 10bb
000003d0: 6c1a ab3b 64e2 08be 51c7 9eba c908 e53d
000003e0: 554a c4bd 5938 46be 570e 5cbe fa49 cbbe
000003f0: ab18 95be fcc5 5cbe d417 4dbe a46d 483e
-0.04274151 -0.12090069 -0.09078407 -0.3765931 -0.4689132 -0.1385971 0.0025892965 0.07215129
-0.06994858 0.04549256 -0.3756373 0.020527523 0.07318796 -0.16233204 -0.18055934 -0.1151612
0.012778353 -0.08336229 0.016267648 -0.13467696 -0.20391138 -0.0884094 -0.30595526 -0.068745315
0.09139856 0.029791877 -0.092784144 0.07800139 -0.079906754 -0.030144455 -0.015987905 0.02452922
-0.17748338 0.014056839 -0.016123503 0.030494494 -0.10430368 -0.2978192 0.11769269 0.13716643
-0.062552124 -0.28353524 -0.18204632 -0.01376076 -0.11690125 -0.035339046 -0.20224316 0.15762441
-0.00892833 -0.26692834 -0.33796287 0.161609 -0.09603711 -0.07230401 -0.04473455 -0.124233425
-0.04734433 0.018665088 -0.21001111 -0.11422821 -0.38622373 0.04508587 0.20563352 -0.056357425
-0.16255814 -0.16014446 -0.04063518 -0.06954414 -0.10833073 0.3178622 -0.017726455 -0.14897586
-0.012928453 -0.14170866 -0.13511287 -0.17968516 -0.03645819 -0.2019001 -0.122135475 0.075933665
0.063877754 -0.22163077 -0.123578876 -0.034355048 -0.41994455 -0.015156957 -0.036376324 -0.3796617
-0.06581503 -0.20458867 -0.10725636 -0.2794641 -0.08244815 -0.008389178 -0.32399642 -0.04817543
-0.009133094 -0.018945236 -0.09511863 -0.34237117 -0.12671134 -0.043243255 -0.23833369 -0.10656465
-0.074146785 -0.15115212 -0.06768173 -0.13418542 0.16525674 -0.2864871 -0.11417063 -0.08297995
-0.041764595 -0.13281809 -0.26833507 0.113042064 0.019255104 -0.029439379 -0.04267819 -0.20865858
-0.0017478871 0.14634764 0.12398403 -0.039910264 -0.3414768 -0.14094874 -0.12319142 -0.06591428
-0.05671462 -0.12547413 0.08448261 -0.11428519 -0.009238212 -0.089506954 0.06731965 0.2865167
0.08509184 -0.05730204 -0.01738264 -0.21975777 0.036981817 0.06413133 0.035725366 -0.03161917
0.071594395 0.0010177158 0.013522548 0.08506091 -0.045661345 -0.09784276 -0.07628719 -0.41296804
0.042304248 -0.029254276 0.15026996 -0.1201755 -0.17476907 -0.103001386 -0.09142567 0.16918603
-0.017313974 -0.042822633 -0.27536905 -0.19483897 -0.13997868 -0.1321994 -0.1098966 0.027862428
-0.07440328 0.044420578 -0.13788094 -0.055991195 0.23771884 -0.12805143 0.07276748 -0.07973723
0.10749176 0.029627532 -0.12412145 -0.26221696 0.10890494 0.24241146 -0.09403796 0.038614936
-0.06923517 -0.3204829 -0.092378296 -0.20293652 -0.1613 -0.3894117 -0.041372817 -0.0061926083
0.1751533 -0.07712719 0.122495025 -0.39728892 -0.08022541 0.09353687 -0.01047426 -0.1126323
-0.01886726 -0.18550487 -0.18043552 -0.14886811 0.005987968 -0.053062726 0.07437411 -0.17127745
0.10186505 -0.22999154 -0.082133956 0.032055065 -0.31609812 -0.1998839 -0.19938894 0.005057003
-0.020283839 -0.004500909 -0.10126492 -0.021197217 -0.19873534 -0.20798665 -0.22241096 -0.103328556
-0.101108566 -0.11049241 -0.15026781 0.12793747 -0.28023922 -0.15504727 -0.08449985 -0.018909609
-0.12749812 0.06453408 -0.27692202 -0.07597378 -0.056426726 0.008352755 -0.062384553 -0.004095217
0.07084981 -0.06051725 0.046588685 -0.0021993218 0.0052216556 -0.13367611 -0.0012113844 0.11183316
-0.0958449 -0.19357432 -0.21489845 -0.39704877 -0.29120383 -0.215599 -0.20028621 0.19573075

network_body._body_endoder.seq_layers.4.weight f4 [256, 256]
00000000: 41ff aabd df2a 813e 660e e23d 716d c23d
00000010: 3396 8b3e d0f8 58bd 52e5 a83d 308f 48be
00000020: c68b dcbc c239 d4bc f2fc 343e 5bac 7bbd
00000030: adf6 2dbe ca68 a03c 18d0 353e ae0a b63c
00000040: d25a 60bd 1a63 8ebc b05a 04be 05f9 563e
00000050: 640f dbbd cf9d 29be 7a50 573e e73a 0abe
00000060: 68a1 a5be bbd0 ed3c dfa3 1cbe e934 74be
00000070: 373e aabd 1cce 373d 7e6a 8f3e 75fc a03d
00000080: a381 0a3e 5afe 52be a1ac fb3c 9328 46be
00000090: a32d ecbd b691 153e 6682 e2bd 30e8 67be
000000a0: facd c03c 0bf2 853d d1b9 ec3d f1ce 0a3d
000000b0: cb2c b0ba dd5c eebd 165d 84bc b705 a5be
000000c0: cb69 dcbd 91b9 8b3d 4ddd 253c 1060 15bd
000000d0: df0f f03d 4858 ab3d 7da2 90be 3be9 f0bc
000000e0: 94aa 46be f244 15be ab2f 513e 25c5 04be
000000f0: 80bc 2e3e 820d adbb 341d 85bd fdd6 4b3e
00000100: f7df 8e3d 5960 633d 8242 72be 7ec8 62be
00000110: ca9f b73d 6446 f1be 96cc 3ebe 171d bfbd
00000120: 9ce8 313d 5ebe 693e e4e6 7e3d 023f cc3d
00000130: 628a 85bd 0e92 513e c945 083e 04e2 9f3c
00000140: f6e0 83bd ebc5 703d cc06 313d 1fa8 343d
00000150: 3ac6 813e 2b20 1dbd 4d50 53be e91f a43e
00000160: 1a30 3d3d 1d89 063e ae97 b43e b12c 443e
00000170: 5302 a23c d8dc 51bd 81a2 a43d 9509 dbbc
00000180: cf21 b33d bdae dcbc fe42 483e ec6a cb3d
00000190: f1be 903e 86fd 0a3e 3fee cf3d 64ff e1bc
000001a0: e9d6 6e3e fcd2 cb3a 03c4 dcbd 099a 2cbe
000001b0: 6ba8 6abe 81c7 5a3e 8548 0b3d 90b0 07be
000001c0: 533c 903d a444 e03c db52 213e 276d ad3b
000001d0: 0095 30be 50e5 72bd dfb8 a1bd fd03 593d
000001e0: f9b7 3fbd 67e4 61be 861d 77be 8ad6 a63d
000001f0: 5147 7b3e af5e 29be 94d7 733e a911 7a3d
00000200: 0bf8 8ebd 8cf4 563d 61c2 0cbe a698 2c39
00000210: bc87 3abd ac14 bebd 3a7c 04be 68b6 8abd
00000220: fabf 7fbe 2c0e ffbd a959 333e af79 0e3d
00000230: a1ff 66be cb35 46be 7e2c 40bd d0f8 0c3d
00000240: c8e8 173e e414 a5bd 8a21 15bc c626 e3bd
00000250: 9ba2 893e 21f1 a13c b5af f8bc 41bd af3d
00000260: 35da 64bd fce1 a43c f3aa b1be 9cea bd3d
00000270: 6b2a 5a3e 3e26 b23a 7b6d 193e 81a3 f0bd
00000280: 0a42 f2bd 5f07 18be b49d 6c3e 9609 03be
00000290: 8116 d73d 36b1 61bd 06a2 8dbd 2493 4dbe
000002a0: 5ae0 693c 5e21 72be 9703 1d3e 2c56 a2bd
000002b0: b495 3cbe a731 203e 6018 70be ed81 083b
000002c0: 08fa 31bd 1b5e 1c3e 8ad4 0fbe deed fc3d
000002d0: 5a91 be3d df8b 46be 9bca bd3d 96ba 83be
000002e0: 1a7b 52be 041f 113d 3fd3 a43c 0366 513e
000002f0: 157b 3b3c 8a1a 053e 7ed8 1a3e d837 623e
00000300: fac2 8abe 87f4 9abd ec0c 0bbd 81ff 603e
00000310: e7bb 4a3e 1bce 173c 0905 13bd 9277 06bb
00000320: 1f93 3d3e d23b 433e 95da 473e 1775 4f3d
00000330: 9f08 49be b986 9bbd 60e3 d1bd 425c 32bd
00000340: 5257 27be c679 693c 8982 adbb 99d5 b3bc
00000350: fa5c 3a3e 4f76 5f3e 3c38 ca3d 3484 d2bd
00000360: 6a89 04be be3d 88bc e659 9d3d bedf 9ebd
00000370: 99cd 873e 9508 dfbc bfa0 a03e f041 91bd
00000380: 6aff 85be 980a aabd a450 83be 50a1 17be
00000390: 7a1b 233e dc9e ca3d 5d37 183e 621a 2bbe
000003a0: bf7d 803d 2be1 393e 5675 303e ce6c c33d
000003b0: e83b bd3c cee7 37be dd4f 3fbe c7a6 f2bb
000003c0: 647b 4dbe 337d 0ebd 8fa0 3ebe e2e5 83bc
000003d0: 6b07 75bd 1d9f 793e ea0e 84bd 240e aabd
000003e0: 8900 023e e742 833d 11ae 183e 7297 ae3e
000003f0: 1636 b83d 3ee6 d03d e479 bf3d 45e7 1ebe
-0.08349467 0.2522802 0.110379025 0.094935305 0.2726303 -0.05297166 0.082468644 -0.19585872
-0.026922118 -0.025906447 0.17674616 -0.061443668 -0.1698863 0.019581217 0.17755163 0.02222189
-0.054774113 -0.01738124 -0.1292522 0.20993431 -0.10696295 -0.16564105 0.21026793 -0.13499032
-0.32349706 0.029030195 -0.15296887 -0.23848309 -0.08312648 0.044874296 0.28010935 0.07860652
0.13526015 -0.2060484 0.030721964 -0.19351415 -0.11532142 0.14606366 -0.11060028 -0.22647166
0.023535717 0.06540307 0.11558879 0.03388876 -0.0013441084 -0.11638806 -0.016157668 -0.32230923
-0.10762366 0.06822503 0.010123563 -0.036468565 0.11721777 0.08366448 -0.2824897 -0.029408088
-0.19401008 -0.14577082 0.2042834 -0.1296583 0.17064095 -0.0052811513 -0.06499711 0.1990623
0.06976312 0.055511806 -0.23658183 -0.22146794 0.08966024 -0.47124016 -0.18632731 -0.0933172
0.043434724 0.22826526 0.062231913 0.09972955 -0.06520535 0.20465872 0.13307871 0.019516952
-0.06439392 0.0587825 0.043219373 0.044105645 0.25346547 -0.038360756 -0.20636101 0.32055596
0.04618845 0.13138242 0.35271972 0.19157673 0.019776499 -0.051236004 0.08038808 -0.026737968
0.08746683 -0.02693879 0.19556805 0.09932503 0.28270677 0.13573274 0.10152864 -0.0275876
0.23324169 0.0015550549 -0.10779574 -0.16855635 -0.22915809 0.21365167 0.034004707 -0.13250947
0.07042756 0.02737648 0.15754263 0.005292553 -0.17244339 -0.05930072 -0.078965895 0.05298232
-0.04680631 -0.22059785 -0.24132356 0.08146389 0.24538924 -0.16540025 0.23812705 0.061052
-0.06980904 0.05247931 -0.13746025 0.00016460064 -0.045539603 -0.092812866 -0.12938014 -0.067730725
-0.24975577 -0.12453875 0.17514671 0.034784015 -0.22558452 -0.19356458 -0.04691743 0.034416974
0.14834893 -0.08060625 -0.009102235 -0.1109138 0.2688187 0.0197683 -0.030357221 0.08581019
-0.05587216 0.020127289 -0.34700736 0.09273264 0.21305244 0.0013591719 0.1498317 -0.11749936
-0.11829002 -0.14846562 0.23107034 -0.12796625 0.10502339 -0.055100642 -0.06915669 -0.20075661
0.014274681 -0.23645541 0.153334 -0.07926592 -0.18416482 0.15643941 -0.23446798 0.0020829395
-0.04345134 0.15270273 -0.14045921 0.12350057 0.09305067 -0.19389294 0.092671596 -0.2572829
-0.20554772 0.03542997 0.020120261 0.2044907 0.011442919 0.12998405 0.15121648 0.22091615
-0.2710188 -0.07566171 -0.03394787 0.21972467 0.19798242 0.009265448 -0.035893474 -0.0020518047
0.18513153 0.19065788 0.19516976 0.050648775 -0.19632195 -0.07594056 -0.102484465 -0.043545015
-0.16341904 0.014250224 -0.005295102 -0.021952437 0.1819953 0.21822475 0.09874007 -0.10279122
-0.12943044 -0.016631003 0.076831624 -0.07757519 0.26524046 -0.027225772 0.3137264 -0.07092655
-0.26171428 -0.08302802 -0.2564746 -0.1480763 0.1592845 0.09893581 0.1486487 -0.16709283
0.06273984 0.18152301 0.1723226 0.09542237 0.023099855 -0.1795952 -0.18682809 -0.0074051353
-0.20066601 -0.034787368 -0.18615936 -0.016100828 -0.059821527 0.24377103 -0.06448157 -0.08303478
0.12695517 0.06409245 0.14910151 0.3409992 0.08994691 0.10200165 0.09349421 -0.1551791

network_body._body_endoder.seq_layers.4.bias f4 [256]
00000000: 473a 6cbe 8816 1fbe b6e9 febd 6ec7 3cbe
00000010: 936d 8abe 7b2c 62be 31cd 6dbe 3283 2fbe
00000020: f9fc 78be 9fe8 cfbe 4716 58be 67a4 c9bd
00000030: 323c cdbe 139d 4fbe 36b1 86be 47c9 8ebe
00000040: 2e96 c0bd ada0 c7bd 3017 72be 19f9 63be
00000050: 8190 33be 8779 24be 41a6 dbbe 7668 7ebe
00000060: 8eb5 87be e466 4dbe eda8 91be 0487 46be
00000070: 1211 90be 7c7b 02be 6971 babd 55b8 17be
00000080: 9f87 babe 9526 a7be 2e07 8abe d1e6 4fbe
00000090: 54fc d8be 2409 97bd 1400 7fbe 202b 99bd
000000a0: 0a8b 44be 76a9 79be 7409 64be 2b59 02be
000000b0: b5d3 b8bd 4e01 c7be 6f24 31be 1656 edbe
000000c0: 359c f4bd b4f4 2dbe e6ee 78be ffa3 b6be
000000d0: ee86 79be fbd0 ebbc dbcc 04be 84ac 54be
000000e0: 03cd d7be 1d3a 13be cff4 44be 19b0 c8be
000000f0: f6c1 00be 3b4a 46be 601f 5dbe 9f44 63be
00000100: 90af 88be 0e9c 1abe 529e 8fbe 5bd8 06be
00000110: 97f7 75be fb12 6abe 0c2b 30be 6933 d5bd
00000120: 9ee2 26be c8c7 39be fb3c 71be 59d3 86be
00000130: 58d2 55be b2e2 70be 3017 b3bd e525 4ebe
00000140: 5c77 45be f309 d5bd 3b4c 39be 8482 7dbe
00000150: 43c5 adbe 4736 98be 9473 a6be 6775 b0bd
00000160: d7da 20be 5b2b 94be 85d4 6ebd 98ee c8be
00000170: dc29 38be efee 86bd 7571 bebe 25b8 19be
00000180: 34a8 acbd 0ec5 82be b932 ad3d 7df4 a0be
00000190: 9f28 0bbe e88f 2dbe cf86 13bd db3a 7fbe
000001a0: 0c70 5abe 3f53 14be 66be d4be 5998 ccbe
000001b0: f226 33be 93a1 74be e0cc 73bd 1e46 8cbe
000001c0: 9cd1 d0bc 28bd 26be 814c 9ebe 34b7 7bbe
000001d0: 898f 04be 08fd 2fbe 6e86 c2be eafc 29be
000001e0: 4188 c2bd 04ff ecbe 160a 8bbe a8a4 81be
000001f0: 0258 eabd 1cf9 21be 4b0f 60be 84b1 60be
00000200: 8d16 89be 52a2 b6be 3fa6 d7be 5fa8 47be
00000210: 3cfc e0bd d264 6fbe 60fc 80be 2b41 9fbe
00000220: 2a27 84be adc2 7bbe d417 75be 2dc6 57be
00000230: 29bf 3abe d105 73be e3d8 a4be fab2 b7be
00000240: 3647 28be e4c7 94be c7ad b1be 226f 78be
00000250: b512 e4bc 8fb9 5ebe 7259 c43b e7e1 edbe
00000260: 909e ddbd ddf5 9ebe 0523 85bd 7a33 41be
00000270: 073a 0bbe 7942 9fbe 2f84 b3be d6bc 48be
00000280: 85a7 babe 2e55 83bb 3e89 16be 8e77 95be
00000290: 1f4a 0d3e fdc6 67be 8ab5 e9be 09d5 9fbe
000002a0: 2f1b d1be 5b62 42be 7876 f7b9 ea44 b3be
000002b0: 76b8 83be e3aa 88be e59e 90be 23a6 7ebe
000002c0: 1e08 6fbe 9530 a2be 0315 4fbe 765d acbe
000002d0: 1e3f e3bd 568b 85be 784a 203a 2769 08be
000002e0: 7a81 81be c9b0 ebbd d1f9 14bd 7b8f fcbe
000002f0: 4230 74be 3a67 13be 0fa2 54be b1cc 7ebe
00000300: 26e2 7abe 5b79 95be 60fa ebbd 6272 a2be
00000310: cf8d 3fbe a05f 80bd bc9c 43be a970 26be
00000320: e496 a9be fde6 83be c182 02be 3e82 a5be
00000330: 3302 8cbe 1ade 0ebe 6b10 13be 8baa b9be
00000340: 6655 84be c4a0 5fbe 0e1c debe 8e22 8bbe
00000350: 4435 d4be e01f 11be 7159 9dbe d073 51be
00000360: 58b4 4bbe 7fa5 d2bd d14f a9be 691b 59be
00000370: 095b d0bd 6623 babe 1cda cdbe e64a 70be
00000380: e564 7abe 7b3d 55be 934c 4ebe aeb1 9cbe
00000390: a08e 7dbe 1482 c2be 70a6 a4be 2f8d eabe
000003a0: fb71 1ebe c7b9 c5bd ca5d 6abe bf3b 8ebe
000003b0: 31fb 1abe 40ae 95be e6cc 64be 9c53 30be
000003c0: d8b4 ebbd c97e 9cbe 9f8f 94be ef1f 5cbe
000003d0: da9b 3fbe 1e26 b9bd 5e0e bcbe 0379 44be
000003e0: 46f8 1ebe 38ca a5be f44e bfbe db81 37be
000003f0: a0f1 78be b01f 2fbe 3a88 54be 0bc9 c4be
-0.23069106 -0.15535939 -0.124469206 -0.18435451 -0.27036723 -0.2208728 -0.23222806 -0.17139891
-0.24315251 -0.40607163 -0.21102248 -0.098458104 -0.40084988 -0.20274763 -0.26307076 -0.27887937
-0.094036445 -0.09747443 -0.23641658 -0.22262992 -0.17535593 -0.16061984 -0.4290028 -0.24844536
-0.26505703 -0.20058781 -0.28449193 -0.19387442 -0.28138024 -0.12742418 -0.091036625 -0.14816411
-0.36431596 -0.32646623 -0.26958603 -0.20302893 -0.4238001 -0.0737479 -0.24902374 -0.074789286
-0.19193664 -0.2438105 -0.22269231 -0.12729327 -0.09024755 -0.38868183 -0.17299055 -0.4635474
-0.119438566 -0.16987878 -0.24309883 -0.35671994 -0.24367878 -0.028786173 -0.12968771 -0.20768934
-0.421486 -0.14377637 -0.19234012 -0.39196852 -0.1257399 -0.19364254 -0.21594 -0.22194146
-0.26696444 -0.15098593 -0.28050476 -0.1316847 -0.2402023 -0.22858803 -0.17203921 -0.10410196
-0.16297385 -0.18142617 -0.23558418 -0.2633312 -0.20881021 -0.23523977 -0.08744657 -0.20131643
-0.19283813 -0.10402288 -0.18095486 -0.24756819 -0.3393956 -0.2972891 -0.32510054 -0.08616143
-0.15708481 -0.28939328 -0.058308143 -0.39244533 -0.17984718 -0.06588542 -0.37195936 -0.15011652
-0.0843052 -0.25540966 0.0845694 -0.3143653 -0.13589714 -0.16949427 -0.036017235 -0.24924795
-0.21331805 -0.14484881 -0.41551512 -0.39959982 -0.17495325 -0.2388976 -0.059521556 -0.27397245
-0.025490575 -0.16283095 -0.30917743 -0.24581605 -0.1294538 -0.17186368 -0.37993187 -0.16600385
-0.094986446 -0.4628831 -0.27156132 -0.25320935 -0.114425674 -0.15817684 -0.21880834 -0.21942717
-0.26775017 -0.35670716 -0.42119023 -0.19497822 -0.1098561 -0.23378304 -0.25192547 -0.31104407
-0.2581113 -0.24585982 -0.23934871 -0.21071692 -0.18236984 -0.23732688 -0.3219672 -0.35878736
-0.16433415 -0.29058754 -0.34702894 -0.24261144 -0.027840951 -0.21750472 0.005992108 -0.46461412
-0.10821259 -0.31046954 -0.0650082 -0.18867293 -0.13596354 -0.31105402 -0.35061786 -0.19603285
-0.36455932 -0.004007957 -0.14700791 -0.29192775 0.13797806 -0.22634502 -0.45646316 -0.3121722
-0.40841052 -0.18982832 -0.00047199777 -0.35013515 -0.2572667 -0.26692876 -0.28246227 -0.24868064
-0.2334294 -0.3167769 -0.20222859 -0.33665055 -0.11096023 -0.26082867 0.00061146123 -0.13321362
-0.25294095 -0.115083285 -0.036371056 -0.49328217 -0.23846534 -0.14394847 -0.20764945 -0.24882771
-0.24500331 -0.2919415 -0.115223646 -0.31727892 -0.1870644 -0.06268239 -0.19102758 -0.16253914
-0.33122933 -0.25762168 -0.12745191 -0.3232593 -0.27345428 -0.13951913 -0.14361732 -0.36262926
-0.25846404 -0.21838671 -0.4338078 -0.271748 -0.41446888 -0.14172316 -0.307323 -0.20454335
-0.19893014 -0.10285472 -0.33068708 -0.21201862 -0.101736136 -0.36355132 -0.40205467 -0.23466071
-0.2445255 -0.20824234 -0.20146398 -0.3060431 -0.24761438 -0.37989867 -0.32158232 -0.4581084
-0.15473168 -0.09654575 -0.2288734 -0.27779958 -0.15134884 -0.29234505 -0.22343788 -0.17219394
-0.115091026 -0.3056548 -0.29015824 -0.21496557 -0.18711796 -0.090404734 -0.3672971 -0.19186787
-0.15524396 -0.32380843 -0.37364924 -0.1792063 -0.24310923 -0.17101932 -0.20755091 -0.38434634

action_model._discrete_distribution.branches.0.weight f4 [5, 256]
00000000: f0c6 073e 342a bcba f6a6 643d c148 e1bd
00000010: 7582 403d bbfc c63d 260b 23bc cf7e 1f3e
00000020: f808 a43d 39b1 8a3c 19fa 013e df1c 363d
00000030: 1ad6 46bd 1290 20be 8464 afbc 20c0 f53d
00000040: 2d8c fa3c 6409 04be 854f 10bd ab24 31bd
00000050: a05c ad3c c68f d0bd b20c 593e bf44 91bd
00000060: 930d 9e3c 226f 6e3b 4369 003e b9a3 63bd
00000070: 38af fb3c 9d01 a43d 867f bbbb a674 ae3d
00000080: 7f3b f23d 2082 d33c ebcd 0f3d dee3 44bc
00000090: 094f 82bb 4d6d 163d 9731 543e 1498 9f3d
000000a0: 4892 64bd 3e33 fd3c 1571 8f3c 50c1 143d
000000b0: 8a4a 3a3b 44b6 7b3d 965e 7b3d 7ae4 303d
000000c0: 936b 903c 6559 ea3c f3ee a5bd e52b bbbc
000000d0: f0e0 6bbd 8316 a53d 51de 0c3e 44d8 c8bd
000000e0: c2b5 a33b 6988 34bc 84a3 2bbd 6a6e eabd
000000f0: 3e76 0a3d 2a63 143d c619 0f3e aeb9 323c
00000100: 2518 2cbc b42f 23be 6117 3dbd e9e6 9fbd
00000110: 4eaa 513c 9dee 693d c0ed 893d 58b2 75bd
00000120: 4f63 c03d ddba 483d 1db6 bebd 99d4 053d
00000130: d7d8 aa3d ebf4 92bd 5f5e 123e 0f64 82bd
00000140: 48d4 18be 5b24 383d dca2 923d 75be 8d3d
00000150: 820c 063d 7cac 213e e070 70bd 7bac aa3c
00000160: 821f d4bd 497a 5fbc 4611 b2bd 1d91 a8bd
00000170: 4611 91ba 059a 88bd edae b2bd 16ef 363b
00000180: a07f 613d 0dd0 d33b 72c4 77bb 65eb 403c
00000190: 87a4 6ebb 7bf7 003c 0037 92bd f139 893d
000001a0: 44f3 483c ef58 203d 14c6 b43d 4d48 123c
000001b0: 03a5 1e3d 006d f83d 9d92 98bb 268c 0ebe
000001c0: 4aa9 af3b dfc4 b63d fead 09bd fddd bfbd
000001d0: 23cb b9bd 2bfe d63d ce68 3abb 40d3 6c3d
000001e0: 2af3 3b3d da51 813d e9df 0cbe 0a6d eebc
000001f0: aafe e13d d810 ba3d 975e 1cbc ec14 e8bd
00000200: 2e68 d83d 26a8 233e 1d3a 18bd 779a d5bd
00000210: 32d1 943d 6eab 4cbd 6157 29bd 1ee7 98bd
00000220: 424b 073d eadd 533e 4e16 c3bd 0e28 e43d
00000230: 1f86 e3bd 9d73 313d 33fd 93bd 0ee2 9a3c
00000240: 5781 143e 53ea b83c b226 073e dce1 97bd
00000250: 1508 db3d f722 1c3d 0d3a 37be 0e3c 8f3d
00000260: cb19 26bd f6a9 43bd 2675 a53d 28e5 5b3d
00000270: 3d69 5abc 6289 8d3d ba1b 8cbd 388f 13bd
00000280: b638 69bb 29b0 c9bd ff8e 51be eaa4 bf39
00000290: e654 a83b 23a9 eebd ed72 9c3d 4474 df3d
000002a0: 0c24 663e 6f0a 8e3d 162c 5fbd 21cd 28bc
000002b0: e3ae e6bc 832e 01be b993 5bbc 47bc a23c
000002c0: 1390 4a3d 2c86 19be 6148 9ebd 6b0d f9bc
000002d0: a0d9 ccbd 6814 65bd 20e3 03bd 9392 27bc
000002e0: 1f6c dfba 96af 02bd e105 5dbd 7bcb afbc
000002f0: 7071 2dbe 3fa0 2e3d 8687 22bd a60b 97bd
00000300: 0487 94bd 9743 11bd 2a4f 133d 8220 513d
00000310: be0f 10bd 353d b4bc ae63 6a3d b173 febc
00000320: 8ffb 66bd 0d67 df3c d76a 4c3d 1489 c23c
00000330: d421 bc3d 6536 133c ee7c 993d d811 a73d
00000340: 3475 863d 027f 30bd 006a 33bc df34 773c
00000350: c0b5 293e d9fc e43d 335b 153d 770a 2abe
00000360: 198c abbc 470f 2fbe abb8 5d3e 5c2f da3b
00000370: f8d6 b1bc 99c3 cdbd de21 563d f136 39be
00000380: bf7b 863d 5cae 113e 9b5c 323d de74 6f3e
00000390: 67bd 0d3d d63a 393e f5e1 6dbd 138a d6bc
000003a0: 5b4e 693d a689 aebd 639c 07be d9ba e5bd
000003b0: 7b80 20be 9749 fdbd e42d a7bd b3a5 5b3d
000003c0: 32fe debc 0f0c d6bd fb2f 213e 8c60 d3bd
000003d0: 201c 903d 98d3 873d 6f52 b9bc 045d 203e
000003e0: 3746 eebb 0ec6 5b3d 50ec 79bc 4e03 e63c
000003f0: e8ef 33bd 04fe 063d 3725 33be 153a 15bd
0.13259482 -0.0014355839 0.05582329 -0.11000205 0.046999414 0.09716173 -0.009951388 0.15575717
0.08009523 0.01693021 0.12693061 0.044461127 -0.048544027 -0.15679958 -0.021410234 0.119995356
0.03058442 -0.12894207 -0.035232086 -0.04324786 0.021162331 -0.101836726 0.21196249 -0.070931904
0.019293582 0.0036382158 0.12540154 -0.05557606 0.0307232 0.0800812 -0.005721989 0.08518343
0.11827754 0.025818884 0.035108488 -0.012017218 -0.003976707 0.03672533 0.20722042 0.077926785
-0.055803567 0.030908223 0.017509976 0.03631717 0.0028425776 0.06145312 0.0613695 0.043186642
0.01762942 0.02860708 -0.081022166 -0.022848079 -0.057587564 0.080609344 0.13756682 -0.098068744
0.0049960325 -0.011018851 -0.041903988 -0.11446841 0.03380417 0.036227383 0.13974676 0.010908527
-0.010503803 -0.15936166 -0.046164874 -0.078077145 0.012796951 0.057112325 0.067348 -0.059984535
0.093939416 0.04900633 -0.09312079 0.032673452 0.0834214 -0.07175621 0.14293812 -0.06366741
-0.14924729 0.044956546 0.07159969 0.069210924 0.032726772 0.15788454 -0.058701396 0.020834198
-0.10357572 -0.013639995 -0.08694701 -0.08230803 -0.001106777 -0.06670002 -0.08724771 0.0027913502
0.055053353 0.0064640106 -0.00378063 0.011774872 -0.0036413984 0.007871504 -0.07139397 0.067005046
0.01226503 0.039147314 0.08826843 0.008928371 0.038731586 0.12130165 -0.0046561495 -0.1392065
0.005360757 0.08924269 -0.033613198 -0.09368513 -0.090719484 0.104976974 -0.0028443816 0.05781865
0.045886196 0.0631444 -0.1375729 -0.029104728 0.110349014 0.09085244 -0.009544036 -0.113321155
0.10566746 0.15982112 -0.037164796 -0.104298525 0.07266463 -0.049968176 -0.041343097 -0.07465957
0.033030756 0.20690122 -0.09525739 0.11140452 -0.11109566 0.043323148 -0.07226028 0.01890662
0.14502464 0.022572672 0.13198355 -0.07416126 0.10694901 0.038119283 -0.17893238 0.069938764
-0.04055194 -0.04776951 0.08078985 0.053685337 -0.013330755 0.06910969 -0.06841226 -0.036025256
-0.003558678 -0.09848053 -0.20464705 0.0003655323 0.005137074 -0.11653354 0.07639108 0.10910848
0.22474688 0.06935584 -0.054485403 -0.010302813 -0.028159564 -0.12615399 -0.013401919 0.019865168
0.049453806 -0.14992589 -0.07728649 -0.030401906 -0.10002446 -0.055927664 -0.032199025 -0.010227817
-0.0017045772 -0.031905733 -0.053960685 -0.021459332 -0.16937804 0.04263329 -0.039680026 -0.07375269
-0.07252315 -0.03546485 0.03596417 0.051056392 -0.035171263 -0.022001842 0.05722397 -0.031061025
-0.05639225 0.027270818 0.049906578 0.023747005 0.0918614 0.008985137 0.074945316 0.081577
0.065653235 -0.043089874 -0.010950565 0.015088289 0.16573238 0.11181039 0.036463927 -0.16605555
-0.020940827 -0.17095672 0.21652476 0.0066584777 -0.02170895 -0.10047073 0.052278392 -0.18087365
0.065665714 0.14226669 0.043545347 0.23384425 0.034604456 0.1808885 -0.058076818 -0.026188886
0.05695949 -0.08522348 -0.1324325 -0.11217279 -0.15674011 -0.12367552 -0.0816305 0.05362482
-0.02722082 -0.10451519 0.1574096 -0.10321149 0.070366144 0.06632155 -0.022622315 0.15660483
-0.007271554 0.053655677 -0.015254095 0.028077748 -0.043929964 0.032957092 -0.17494665 -0.036432344

action_model._discrete_distribution.branches.0.bias f4 [5]
00000000: 6808 3cbe 1374 4d3e 388c c43d 8929 1fbe
00000010: 4d6a 06be
-0.18362582 0.2006381 0.09597057 -0.15543188 -0.13126488
