results/MultiJumper_v6/SingleJumper/SingleJumper-499936.onnx (onnx, 280053 bytes, 14 tensors)

network_body.observation_encoder.processors.0.conv_layers.0.weight f4 [16, 6, 8, 8]
0.04535662 -0.041107222 0.019570343 -0.013806574 0.024581635 -0.03644153 -0.09416789 0.013837455
-0.002918631 -0.063494414 -0.040596664 -0.036507193 -0.03507244 -0.07342082 -9.600974e-05 0.0177766
0.040444788 0.003090831 -0.07533741 0.06080142 -0.019534484 -0.029495554 -0.06971383 -0.013353764
0.035662603 0.0184119 0.022294374 0.04374633 -0.034284703 0.010589689 -0.06591845 0.070609614
0.06257827 -0.0040142867 -0.037284687 -0.027638212 0.025219396 0.032575697 0.0012277022 -0.009747569
-0.0006954098 0.06597134 0.06538939 -0.011043914 -0.02239049 0.029926127 -0.024114199 0.05010848
0.014649764 -0.031530827 0.03145886 0.0066123866 -0.009042611 0.035475023 -0.011235295 -0.007955852
0.021963056 0.034076814 0.013160732 -0.020462906 -0.034359112 -0.038255595 -0.021044042 -0.06046646
0.06414871 -0.025425415 -0.0025908945 0.05585183 0.04766036 -0.005826402 -0.054496013 0.024347564
-0.08698147 -0.07251583 -0.07346916 -0.035494715 -0.0036257443 0.034994204 -0.046173014 0.06424908
-0.071167774 -0.0420305 -0.028501572 -0.00964899 0.013484094 -0.00033023374 -0.009856254 0.059812453
0.04745998 -0.012580799 -0.019430136 0.0010654577 -0.025461359 -0.0055241394 0.035727978 0.06705294
0.040884525 0.05289012 -0.021831669 0.02283705 0.07658898 5.7805613e-05 0.04300176 0.019812752
-0.011124379 -0.0021646542 -0.0754899 -0.0007588186 0.004508229 -0.06817047 -0.08159834 0.023209125
-0.0050403564 -0.038003545 -0.06554998 -0.061507773 0.0060094767 -0.031037344 -0.032656163 0.03563266
-0.033148907 -0.029375939 0.015010892 0.018119764 -0.029627914 0.024875347 0.02672969 0.0653788
0.0062487796 0.0136902835 -0.046670046 0.039796483 -7.033927e-06 0.041804083 0.064190514 0.039471544
-0.021844704 -0.018778257 0.021283152 0.0108139245 -0.040956505 -0.024985794 0.052777637 0.038093846
-0.041550163 -0.0009264288 0.028247327 -0.040112805 -0.013505663 0.00046763712 0.040614963 -0.033033103
-0.014820768 0.029018365 0.05381421 0.06311778 -0.009960633 0.011762373 0.055985652 0.048402507
-0.072668955 -0.0218728 -0.04661551 -0.02262493 0.014076653 0.029783834 -0.026181635 -0.017200613
-0.053197026 0.010715615 -0.03558651 -0.012838865 -0.03310744 -0.023181276 0.040791478 -0.0041633616
-0.019241624 -0.0421277 0.00921264 0.030312615 -0.054945488 0.029218603 0.004202585 -0.0074939453
-0.031790093 -0.023126094 -0.023043046 0.037652653 -0.019149348 0.008446067 -0.008944779 -0.03811244
0.092233844 0.06347979 0.061913654 0.02470514 0.055484504 0.035437226 -0.0044235415 0.018885104
0.025236288 0.0004079277 -0.07647778 0.07537054 0.0056201 -0.037011754 -0.073070474 0.01716673
-0.006293792 -0.071046226 -0.07902657 0.04135754 -0.0022879534 -0.0019391649 0.033657674 0.06432014
0.0675598 -0.006537905 0.08752215 0.049146026 0.052848462 0.028246626 0.08102729 0.11601444
0.027521288 0.036516774 0.04694167 0.015667241 0.08545223 0.0704529 0.056547433 0.117401615
-0.021323819 -0.01908659 -0.034755535 0.02278389 0.017543893 0.051040974 0.035980575 0.08605417
-0.020638356 -0.037243977 0.025800738 0.013510167 -0.015432745 0.03793685 -0.022884721 0.025486283
-0.011444871 0.044099353 -0.028815482 -0.004111846 0.000993607 0.0137161445 0.030686658 -0.044643242
00000000: ddc7 393d 0c60 28bd fc51 a03c f834 62bc
00000010: 6d5f c93c b743 15bd 18db c0bd 7eb6 623c
00000020: 8146 3fbb 5c09 82bd b048 26bd 9188 15bd
00000030: 1ea8 0fbd a85d 96bd d658 c9b8 3ba0 913c
00000040: 6fa9 253d 8a8f 4a3b 804a 9abd e90a 793d
00000050: c806 a0bc a9a0 f1bc 20c6 8ebd bfc9 5abc
00000060: f312 123d 8ed4 963c b1a2 b63c 5a2f 333d
00000070: 1e6e 0cbd 6080 2d3c 4100 87bd c69b 903d
00000080: 0929 803d 478a 83bb d4b7 18bd 8869 e2bc
00000090: e898 ce3c 186e 053d daea a03a 45b4 1fbc
000000a0: 294c 36ba fb1b 873d dfea 853d 88f1 34bc
000000b0: 436c b7bc a327 f53c 248b c5bc 8d3e 4d3d
000000c0: 9005 703c 7826 01bd 01db 003d b8ac d83b
000000d0: 7627 14bc 424e 113d 3e14 38bc 4359 02bc
000000e0: deeb b33c 2194 0b3d 1ca0 573c d3a1 a7bc
000000f0: 24bc 0cbd e6b1 1cbd 8e64 acbc aeab 77bd
00000100: 6660 833d f648 d0bc ffcb 29bb e3c4 643d
00000110: 8237 433d 67eb bebb 3637 5fbd 8b74 c73c
00000120: 5723 b2bd 2e83 94bd 0077 96bd e862 11bd
00000130: e59d 6dbb 1556 0f3d ea1f 3dbd 0695 833d
00000140: 69c0 91bd 2c28 2cbd 217c e9bc cc16 1ebc
00000150: 64ec 5c3c 3923 adb9 207c 21bc e7fd 743d
00000160: 6565 423d b21f 4ebc f32b 9fbc d4a6 8b3a
00000170: 5794 d0bc d703 b5bb 8057 123d 0d53 893d
00000180: 8876 273d 4fa3 583d 54d8 b2bc c414 bb3c
00000190: afda 9c3d 4e74 7238 9d22 303d 5a4e a23c
000001a0: 0743 36bc dfdc 0dbb 739a 9abd 74eb 46ba
000001b0: c4b9 933b f69c 8bbd 081d a7bd 1021 be3c
000001c0: 9329 a5bb 9ba9 1bbd 113f 86bd 93ef 7bbd
000001d0: 25eb c43b 0742 febc 78c2 05bd 8df3 113d
000001e0: 26c7 07bd cfa5 f0bc 3ff0 753c e66f 943c
000001f0: 3db6 f2bc 62c7 cb3c 39f8 da3c 52e5 853d
00000200: 90c2 cc3b 364d 603c 1729 3fbd a301 233d
00000210: f904 ecb6 c23a 2b3d 5176 833d eaac 213d
00000220: aaf3 b2bc dcd4 99bc 015a ae3c e32c 313c
00000230: 02c2 27bd 02af ccbc 5d2d 583d 4b08 1c3d
00000240: 8130 2abd 96db 72ba f066 e73c 534d 24bd
00000250: db46 5dbc 312d f539 e05b 263d b84d 07bd
00000260: ced2 72bc ecb7 ed3c 4a6c 5c3d e543 813d
00000270: ec31 23bc f8b6 403c 3651 653d b541 463d
00000280: 76d3 94bd 962e b3bc e8ef 3ebd eb57 b9bc
00000290: c3a1 663c 3afd f33c de7a d6bc 4de8 8cbc
000002a0: 20e5 59bd 8c90 2f3c 29c3 11bd 1a5a 52bc
000002b0: ab9b 07bd a9e6 bdbc f714 273d cf6c 88bb
000002c0: 9ca0 9dbc 188e 2cbd 9df0 163c 2952 f83c
000002d0: 850e 61bd da5b ef3c d7b5 893b c58f f5bb
000002e0: 5436 02bd ef72 bdbc c5c4 bcbc ab39 1a3d
000002f0: 18df 9cbc 5f61 0a3c 1f8d 12bc ca1b 1cbd
00000300: 19e5 bc3d b101 823d 2c99 7d3d 6f62 ca3c
00000310: b843 633d a026 113d 5bf3 90bb efb4 9a3c
00000320: 55bc ce3c 21df d539 62a0 9cbd df5b 9a3d
00000330: d128 b83b a399 17bd f9a5 95bd 3ea1 8c3c
00000340: 273c cebb af80 91bd afd8 a1bd 8666 293d
00000350: 7df1 15bb 942b feba a1dc 093d 47ba 833d
00000360: cb5c 8a3d ec3b d6bb d03e b33d 584d 493d
00000370: a177 583d 7865 e73c a3f1 a53d fb98 ed3d
00000380: 5374 e13c 9d92 153d e945 403d 9658 803c
00000390: 9401 af3d 9c49 903d 489e 673d 4270 f03d
000003a0: 4aaf aebc 7b5b 9cbc d25b 0ebd 48a5 ba3c
000003b0: 36b8 8f3c 5710 513d 5e60 133d 2b3d b03d
000003c0: c511 a9bc 248d 18bd 125c d33c bf59 5d3c
000003d0: a0d9 7cbc ac63 1b3d bd78 bbbc 9cc8 d03c
000003e0: 4583 3bbc 86a1 343d 720e ecbc aabc 86bb
000003f0: eb3b 823a aeb9 603c 9662 fb3c d5db 36bd

network_body.observation_encoder.processors.0.conv_layers.0.bias f4 [16]
0.0062718 0.0031203532 0.035828676 -0.026564403 0.023207648 0.05967428 -0.005654494 -0.00046259872
-0.0035082225 0.010831746 0.0101906685 -0.018713301 -0.0029657863 -0.013647798 0.028411573 0.038748372
00000000: ac83 cd3b d77e 4c3b 17c1 123d 979d d9bc
00000010: f71d be3c 056d 743d 5549 b9bb f388 f2b9
00000020: 35ea 65bb a377 313c c3f6 263c a34c 99bc
00000030: a35d 42bb 049b 5fbc 63bf e83c 9db6 1e3d

network_body.observation_encoder.processors.0.conv_layers.2.weight f4 [32, 16, 4, 4]
-0.0121372705 0.02269861 0.07588036 0.010139476 -0.046033423 0.036337458 0.04010227 0.057509962
-0.0049399002 0.02707368 0.044736892 0.052337173 -0.052466553 -0.023317436 -0.024716387 0.052509487
0.014144754 0.03699502 0.044871856 0.039417505 -0.03286724 0.03567537 0.03579454 -0.013949088
-0.055185284 -0.05017616 0.019969994 -0.027201597 -0.020833328 0.011017373 -0.0070031118 -0.030579738
0.016607352 0.058370683 0.01393756 0.061689757 -0.012049107 0.03673864 0.022726314 -0.038152527
-0.034186307 -0.012716446 0.039510254 -0.048518863 -0.02313671 -0.06376322 -0.054019134 0.048620433
0.0075796964 0.028331432 0.08102288 0.08820643 -0.014035719 0.009918484 -0.043146808 0.023849264
-0.0096275 0.010053805 0.00041631385 0.042002503 -0.03373093 -0.008418791 0.050106842 0.03208115
0.01775089 0.08940177 0.07899274 0.029149285 0.019410599 0.078790106 0.0067394115 -0.028765451
0.03657152 0.0032569913 0.04849328 -0.05158515 -0.007077743 0.0017747406 0.007198425 0.07311711
-0.036541797 -0.03839983 -0.029399838 0.042248685 0.0034729366 0.0253793 0.063809596 0.026033431
-0.07245713 0.049843535 0.107886896 -0.018899009 0.041978005 -0.03204226 -0.04115966 -0.05380585
-0.02429623 0.14219636 0.018731853 0.121700756 0.076448984 0.015330261 -0.066617236 -0.061017223
-0.0030008815 0.009058604 -0.015383492 0.04686503 0.002309339 -0.0608049 0.017238848 0.02802211
0.0044942885 0.030532546 -0.007122435 0.031878654 0.098010674 -0.037877176 -0.10543328 -0.05340688
-0.097505555 -0.003170954 0.009518639 0.086423084 0.03388304 0.013465945 -0.012776895 -0.010388141
0.11031234 0.006245559 0.051491294 0.070129134 0.032148093 0.00692204 0.008261157 0.061718762
-0.051272914 0.012916416 -0.022510491 -0.014013365 -0.06102795 -0.023160035 -0.015390582 0.06451525
0.10254565 0.08744691 0.12569915 0.0037407554 -0.012174424 0.030886201 -0.0070662266 -0.08499888
-0.07616509 -0.0112089645 -0.037603874 -0.018672688 -0.014754398 0.033790406 -0.020955 0.05424468
0.011150046 0.11103513 0.0933578 -0.0028488426 0.040654633 -0.0016820317 -0.015266681 0.020072034
0.04215295 -0.0016920917 0.037648756 -0.013935909 -0.026991893 -0.0038412767 -0.007211552 -0.038730256
-0.010128411 0.031278845 0.07686923 0.046790574 -0.05469694 -0.01114669 0.065360434 -0.04934737
-0.030633532 0.017684435 0.003576906 0.042669047 -0.03856654 -0.036028944 0.0129596405 -0.0139183365
-0.033147994 0.12148358 0.004336264 0.07688171 0.053042483 0.025676878 0.07091131 0.05050454
0.021100111 -0.009788705 -0.0050074835 -0.027382167 -0.09159417 -0.06486992 0.013569133 -0.076036535
0.05148876 0.10495725 0.10138204 0.02502191 0.08210086 0.07988417 -0.007674435 -0.023803463
-0.0472709 -0.0012333824 0.07489177 0.014964436 -0.043362956 -0.06995717 0.0065336353 0.0044661397
-0.012160415 0.006294855 0.03146073 0.04085141 0.00038137753 0.060391046 -0.009754395 -0.017551873
0.01621494 0.05815237 0.04065235 -0.03157823 -0.029874798 -0.045092463 0.0158518 0.0037740248
0.10249496 0.106754184 0.08296879 0.004955547 0.010041232 0.05399221 0.031342916 0.06313928
0.01777426 0.0032024817 -0.044130553 0.020153759 -0.01352429 0.017244125 -0.062093258 0.007407538
00000000: 67db 46bc 6ff2 b93c 2a67 9b3d 0b20 263c
00000010: 8b8d 3cbd 96d6 143d 4742 243d 918f 6b3d
00000020: e3de a1bb 9fc9 dd3c 083e 373d 815f 563d
00000030: 2be7 56bd 3504 bfbc 057a cabc 3014 573d
00000040: 66bf 673c 1788 173d 8dcb 373d 4074 213d
00000050: cd9f 06bd 5620 123d 4c9d 123d b78a 64bc
00000060: f709 62bd 8485 4dbd 1d98 a33c e2d5 debc
00000070: a8aa aabc 3682 343c 5c7a e5bb 5c82 fabc
00000080: 240c 883c 1916 6f3d 5d5a 643c 66ae 7c3d
00000090: 9e69 45bc 427b 163d 892c ba3c d345 1cbd
000000a0: f106 0cbd a458 50bc 81d5 213d b7bb 46bd
000000b0: 3389 bdbc 4b96 82bd 2b43 5dbd 3826 473d
000000c0: 1a5f f83b 5217 e83c 53ef a53d 93a5 b43d
000000d0: 13f6 65bc 2381 223c b5ba 30bd 885f c33c
000000e0: a9bc 1dbc b7b8 243c b344 da39 d10a 2c3d
000000f0: 7229 0abd f8ee 09bc d53c 4d3d 8667 033d
00000100: 516a 913c 4618 b73d f2c6 a13d 7bca ee3c
00000110: fa02 9f3c b55c a13d 48d6 dc3b 86a5 ebbc
00000120: 05cc 153d 3f73 553b e4a0 463d f34a 53bd
00000130: 69ec e7bb 6a9e e83a c4e0 eb3b 6cbe 953d
00000140: daac 15bd 2449 1dbd eed7 f0bc f50c 2d3d
00000150: 359a 633b 40e8 cf3c 9bae 823d 1044 d53c
00000160: 6764 94bd bc28 4c3d cef3 dc3d 18d2 9abc
00000170: 21f1 2b3d bf3e 03bd 0897 28bd 8663 5cbd
00000180: e308 c7bc ec9b 113e 8b73 993c 3f3e f93d
00000190: 4991 9c3d c62b 7b3c 9e6e 88bd 32ed 79bd
000001a0: 70aa 44bb 8a6a 143c 0b0b 7cbc 8cf5 3f3d
000001b0: 4758 173b 8f0e 79bd 7c38 8d3c a08e e53c
000001c0: d344 933b 641f fa3c 5163 e9bb 3193 023d
000001d0: d2b9 c83d 1925 1bbd 67ed d7bd 2cc1 5abd
000001e0: feb0 c7bd c8cf 4fbb 11f4 1b3c 96fe b03d
000001f0: f1c8 0a3d 44a0 5c3c 2f56 51bc 0533 2abc
00000200: 70eb e13d 8ca7 cc3b 89e8 523d dd9f 8f3d
00000210: b8ad 033d 48d2 e23b ce59 073c d0cc 7c3d
00000220: 8c03 52bd 609f 533c ec67 b8bc 5098 65bc
00000230: 72f8 79bd 1dba bdbc c828 7cbc 9220 843d
00000240: 7403 d23d 5e17 b33d 47b7 003e 7627 753b
00000250: 3c77 47bc 0f05 fd3c ce8b e7bb e513 aebd
00000260: 71fc 9bbd cea5 37bc 8506 1abd 77f7 98bc
00000270: 6ebc 71bc cf67 0a3d d2a9 abbc ab2f 5e3d
00000280: afae 363c 6366 e33d 6032 bf3d a6b3 3abb
00000290: 7985 263d 9e77 dcba 1a21 7abc 1b6e a43c
000002a0: 92a8 2c3d 2dc9 ddba 9535 1a3d 7053 64bc
000002b0: 1a1e ddbc eebd 7bbb e24e ecbb 9ea3 1ebd
000002c0: a3f1 25bc 3f1e 003d 9d6d 9d3d 79a7 3f3d
000002d0: e609 60bd 9ba0 36bc b1db 853d 7820 4abd
000002e0: 2cf3 fabc f3de 903c 866a 6a3b bdc5 2e3d
000002f0: f3f7 1dbd 1693 13bd ac54 543c bc09 64bc
00000300: 31c6 07bd 62cc f83d 3817 8e3b 2874 9d3d
00000310: 1343 593d 5158 d23c f339 913d d9dd 4e3d
00000320: 24da ac3c ce60 20bc d115 a4bb 9150 e0bc
00000330: b995 bbbd 85da 84bd 1251 5e3c 0bb9 9bbd
00000340: e1e5 523d d4f3 d63d 63a1 cf3d c0fa cc3c
00000350: 7f24 a83d 509a a33d d479 fbbb 7bff c2bc
00000360: 229f 41bd 72a9 a1ba db60 993d 652d 753c
00000370: 5b9d 31bd b445 8fbd 1b18 d63b b258 923b
00000380: 7a3c 47bc 1245 ce3b f7dc 003d cf53 273d
00000390: a0f3 c739 9a5c 773d e6d0 1fbc f2c8 8fbc
000003a0: 32d5 843c 2e31 6e3d 1483 263d 2d58 01bd
000003b0: febb f4bc e0b2 38bd a2db 813c a155 773b
000003c0: e1e8 d13d f0a1 da3d 8aeb a93d 2462 a23b
000003d0: fb83 243c f026 5d3d 6e61 003d 2b4f 813d
000003e0: 539b 913c bae0 513b 3dc2 34bd 7f19 a53c
000003f0: fc94 5dbc 8d43 8d3c 8055 7ebd efba f23b

network_body.observation_encoder.processors.0.conv_layers.2.bias f4 [32]
0.028716065 0.016950352 0.00012585742 -0.03113195 -0.008696269 0.026201587 0.046312757 -0.0142341005
0.004177605 -0.064128384 0.051343992 -0.0002851569 -0.024079895 0.013370687 -0.0062805964 0.07160242
0.065238826 -0.0051821135 -0.004452682 -0.036761608 0.019496443 -0.053640194 -0.054357983 0.07293971
0.014534027 0.08454047 0.06114236 -0.009785509 0.055314913 -0.020209393 -0.034255825 0.07109433
00000000: f43d eb3c 77db 8a3c 98f8 0339 6e08 ffbc
00000010: cc7a 0ebc b6a4 d63c 72b2 3d3d 2536 69bc
00000020: 4ae4 883b be55 83bd 144e 523d 1c81 95b9
00000030: 3343 c5bc ba10 5b3c 76cd cdbb 4aa4 923d
00000040: ef9b 853d b8ce a9bb cee7 91bb 5793 16bd
00000050: 01b7 9f3c d2b5 5bbd 7aa6 5ebd 6a61 953d
00000060: 2120 6e3c 8e23 ad3d 6970 7a3d 6653 20bc
00000070: e491 623d 2b8e a5bc d64f 0cbd e799 913d

network_body.observation_encoder.processors.0.dense.0.weight f4 [128, 32]
-0.2372112 -0.104502216 -0.10664473 -0.1809749 -0.20372131 0.022205519 0.32322514 0.092606984
0.44716823 0.4299936 -0.0867764 0.27218488 -0.14970845 0.0592605 -0.280945 0.11391797
-0.58344525 0.3369624 -0.5313068 -0.10991532 -0.23026 0.15985347 -0.037895653 0.188253
0.14619012 0.061550517 -0.084920585 0.24806136 0.17209195 -0.5157984 -0.13573486 0.061083574
0.009220873 0.2373148 -0.2990748 -0.1711669 -0.099782646 0.09332745 0.3137245 -0.06682391
-0.1921194 0.25561938 0.33303416 -0.046889067 -0.24184841 0.09986552 -0.31071043 -0.19533202
-0.12602875 0.020140653 0.64012176 -0.14904848 0.01457435 -0.28909823 0.03764509 0.3236759
0.1270915 -0.029651407 0.27002856 -0.5481533 -0.00047108746 -0.083626874 0.140644 0.08549045
-0.12568085 -0.06294357 0.19577569 -0.3491794 -0.022819834 0.01670963 0.017404057 -0.27482772
0.046175446 0.19896716 0.060597874 0.29529256 -0.27207333 0.38607568 0.3797858 0.41624382
-0.23722607 -0.20879924 0.09048597 -0.39675787 0.10417051 -0.18159685 -0.098929405 0.11904427
-0.51492316 -0.10480282 -0.036345456 0.1969634 -0.167785 0.12177541 0.40386882 -0.48872602
-0.16832447 0.059274424 0.26640067 -0.19626004 0.24693653 0.3214532 0.118571796 -0.4311483
-0.25220853 -0.024764985 -0.1108958 0.052191913 -0.06626961 0.012672372 -0.36359152 0.11412448
-0.71236825 0.02532591 0.32937568 -0.1545433 0.07578467 -0.3999283 0.57607985 0.09703372
0.2789878 0.03772179 -0.0058569005 -0.3808264 0.030037567 0.1694668 0.14689957 -0.21740134
0.2982959 0.08059115 -0.07157097 -0.26457417 0.0653673 -0.18135616 0.14437583 0.2738212
-0.3935599 0.45770293 0.10409055 -0.31501105 0.32908088 -0.2637374 -0.08410554 0.39992905
0.056645274 -0.27417156 0.21697463 -0.07893195 -0.21473467 0.2043931 -0.4344914 -0.17245393
-0.18514475 0.12922972 0.30112013 0.10090589 0.08539103 -0.018215341 -0.14857061 -0.0963587
0.009141877 -0.024488864 0.21069184 0.3378943 -0.18173452 -0.1400377 0.078999676 -0.15741594
-0.13205868 -0.111561365 -0.031742234 0.23011835 0.03374417 0.1817963 0.046509773 -0.2977171
0.38566375 -0.25190967 0.14261642 -0.31929448 0.1928085 -0.14905599 -0.29467696 -0.13398795
0.033561245 0.0038035277 -0.00061206316 0.24415559 0.1761494 0.24362405 -0.176127 0.10898933
0.20292968 0.29693663 0.011869153 -0.1716839 0.0020886885 -0.02431082 -0.15248914 -0.19365259
-0.21925429 -0.6261946 -0.100274816 -0.20041847 -0.3949204 -0.09773379 -0.117775954 -0.16356003
-0.066866055 -0.07507487 0.13578905 -0.3921714 -0.22213215 0.0016445015 -0.17211527 0.25938165
0.23577239 -0.21221605 -0.05566391 -0.15174465 0.16989955 -0.20373438 0.2974414 0.11804186
0.80303895 0.3982141 0.06348472 0.118927665 0.47732168 -0.18747532 -0.15047206 -0.12738012
-0.39383453 0.17427781 0.38940248 0.17942327 0.13165544 -0.2136166 -0.3833033 -0.22513418
-0.22759177 0.19522572 -0.04622943 0.27853766 0.013294367 -0.05539126 0.05857301 0.046442248
-0.090544604 -0.5006552 0.124017075 0.3178242 -0.30837107 -0.41526198 0.049142614 -0.5371835
00000000: 7ee7 72be 4205 d6bd 8d68 dabd 7c51 39be
00000010: 529c 50be 59e8 b53c c47d a53e bba8 bd3d
00000020: 3cf3 e43e 1f28 dc3e d3b7 b1bd d15b 8b3e
00000030: 2c4d 19be 23bb 723d 06d8 8fbe d34d e93d
00000040: ab5c 15bf 5686 ac3e b903 08bf 491b e1bd
00000050: 47c9 6bbe a1b0 233e 7938 1bbd 65c5 403e
00000060: ddb2 153e 651c 7c3d d8ea adbd cc03 7e3e
00000070: df38 303e 5d0b 04bf 14fe 0abe c532 7a3d
00000080: 2513 173c a702 733e 5520 99be 6046 2fbe
00000090: d85a ccbd 7622 bf3d 7fa0 a03e f9da 88bd
000000a0: f3ba 44be 8be0 823e 7483 aa3e c00e 40bd
000000b0: 1ca7 77be 4b86 cc3d 7015 9fbe 1e05 48be
000000c0: ae0d 01be 03fe a43c 05df 233f 2aa0 18be
000000d0: 41c9 6e3c af04 94be bd31 1a3d d9b8 a53e
000000e0: 4624 023e 82e7 f2bc 2f41 8a3e c653 0cbf
000000f0: 4afc f6b9 9144 abbd fb04 103e 9e15 af3d
00000100: 7bb2 00be 8fe8 80bd 6c79 483e a4c7 b2be
00000110: a9f0 babc a2e2 883c f492 8e3c 38b6 8cbe
00000120: 7722 3d3d 0cbe 4b3e 7a35 783d 9630 973e
00000130: 324d 8bbe b6ab c53e 4973 c23e e91d d53e
00000140: 64eb 72be 78cf 55be b550 b93d d923 cbbe
00000150: 5957 d53d 86f4 39be 809b cabd 7bcd f33d
00000160: 01d2 03bf dca2 d6bd f9de 14bd c6b0 493e
00000170: d5cf 2bbe 6365 f93d e5c7 ce3e 4c3a fabe
00000180: 405d 2cbe bdc9 723d ab65 883e 64f8 48be
00000190: eedc 7c3e 8495 a43e c5d5 f23d 78bf dcbe
000001a0: 7a21 81be f0df cabc 561d e3bd 30c7 553d
000001b0: 5cb8 87bd c89f 4f3c ab28 babe 18ba e93d
000001c0: c45d 36bf 4878 cf3c eea3 a83e 9940 1ebe
000001d0: fe34 9b3d 67c3 ccbe f879 133f 9db9 c63d
000001e0: 7dd7 8e3e 2a82 1a3d 3eeb bfbb aefb c2be
000001f0: 5811 f63c b488 2d3e d76c 163e 759e 5ebe
00000200: 3dba 983e f90c a53d cd93 92bd 4476 87be
00000210: 4adf 853d 6eb5 39be 42d7 133e 4b32 8c3e
00000220: af80 c9be 0a58 ea3e 6d2d d53d 2149 a1be
00000230: 4a7d a83e 9708 87be 863f acbd 80c3 cc3e
00000240: e004 683d 3760 8cbe 992e 5e3e 13a7 a1bd
00000250: 68e3 5bbe 6d4c 513e a875 debe c397 30be
00000260: 9696 3dbe cc54 043e 6b2c 9a3e bfa7 ce3d
00000270: 7ee1 ae3d 5738 95bc e522 18be b657 c5bd
00000280: d0c7 153c df9c c8bc 9abf 573e 7b00 ad3e
00000290: 9d18 3abe 0b66 0fbe 95ca a13d a531 21be
000002a0: 643a 07be 497a e4bd 2504 02bd 25a4 6b3e
000002b0: 5437 0a3d cf28 3a3e 0881 3e3d 606e 98be
000002c0: b875 c53e 4efa 80be 0a0a 123e 917a a3be
000002d0: 976f 453e 22a2 18be e6df 96be 2334 09be
000002e0: 8477 093d 9b44 793b dd72 20ba ec03 7a3e
000002f0: 8260 343e 9578 793e a35a 34be cc35 df3d
00000300: cccc 4f3e 1408 983e d676 423c e7cd 2fbe
00000310: 61e2 083b 7c27 c7bc 1d26 1cbe dd4c 46be
00000320: 3284 60be 4a4e 20bf e25c cdbd 803a 4dbe
00000330: 0233 cabe a728 c8bd 8534 f1bd 487c 27be
00000340: 12f1 88bd dac0 99bd 490c 0b3e b1ca c8be
00000350: 9c76 63be 508c d73a fc3e 30be accd 843e
00000360: 516e 713e 2a4f 59be d7ff 63bd f362 1bbe
00000370: 26fa 2d3e bf9f 50be 3d4a 983e eebf f13d
00000380: f693 4d3f b8e2 cb3e 4704 823d 5990 f33d
00000390: 8263 f43e 88f9 3fbe 5915 1abe ef6f 02be
000003a0: aea4 c9be e275 323e c35f c73e bcba 373e
000003b0: afd0 063e 4fbe 5abe 5540 c4be 9389 66be
000003c0: d10d 69be 40e9 473e 125b 3dbd 7d9c 8e3e
000003d0: 9ed0 593c f2e1 62bd 41ea 6f3d 3a3a 3e3d
000003e0: 736f b9bd f02a 00bf aafc fd3d dbb9 a23e
000003f0: d0e2 9dbe 389d d4be c449 493d dc84 09bf

network_body.observation_encoder.processors.0.dense.0.bias f4 [128]
0.037184745 0.08203212 0.023580752 -0.009133534 0.010969899 0.041759774 -0.016876565 0.0037029765
-0.03557219 0.023613712 -0.024194336 0.012267195 -0.014062525 0.01749891 0.011333048 0.060164765
0.029248472 0.0043624467 0.0132728135 -0.0075906604 0.04314216 -0.014678816 0.023432186 -0.011053666
0.005803574 0.010961012 0.017752837 0.031517122 0.010002555 -0.0009521346 0.019503415 0.003626637
-0.014978229 -0.003817414 0.017296568 0.045970503 -0.0010163297 0.004900288 0.029478522 0.0018009688
0.026527872 -0.0074057267 0.00340929 0.013608332 0.0041968026 0.023459641 0.010788979 0.021564085
-0.012389704 -0.0022595443 -0.011958148 0.008987999 -0.003659182 0.008211914 0.033088543 0.0049419543
-0.003517551 0.0042201467 0.015453282 0.00291772 -0.01842764 -0.0022351393 0.026280856 0.01983389
0.036121596 0.0040893573 0.0046588453 -0.00326594 -0.0011630984 -0.018594306 -0.01653412 0.032242965
-0.0062790983 0.020666808 0.012654276 -0.02450589 0.0018167084 -0.005270453 0.029420821 0.0106968945
0.03101864 -0.0065656067 0.0057628574 -0.0037387703 0.00030826207 0.020662196 0.0050318097 0.018276814
0.010241451 -0.015955105 0.036114383 -0.004459404 0.010323136 -0.00046207386 0.042797167 0.0047559976
-0.009156567 0.022557793 -0.006870447 0.004792445 0.0059094387 0.005045307 0.00863852 0.029548317
0.009194177 0.0022672005 0.020013498 0.030744214 0.011917733 0.0029431435 0.006751717 0.022481132
0.0013634781 0.0066905543 -0.0047752317 0.007498311 -0.015137412 0.004619694 0.0005686487 0.014238428
0.03396201 0.021992782 0.00530141 -0.01870902 0.027309157 0.002826579 -0.002767974 0.008999391
00000000: 084f 183d 7500 a83d 6c2c c13c d1a4 15bc
00000010: 17bb 333c 4c0c 2b3d b940 8abc a3ad 723b
00000020: 25b4 11bd 8b71 c13c 3333 c6bc 58fc 483c
00000030: 8166 66bc e059 8f3c 40ae 393c 546f 763d
00000040: 7e9a ef3c dbf2 8e3b 3776 593c 13bb f8bb
00000050: d5b5 303d 6b7f 70bc dbf4 bf3c 6f1a 35bc
00000060: e82b be3b d195 333c 666e 913c 1918 013d
00000070: c2e1 233c ac98 79ba a0c5 9f3c dfac 6d3b
00000080: 3f67 75bc 942d 7abb 88b1 8d3c 914b 3c3d
00000090: 5e36 85ba 9892 a03b f17c f13c 7c0e ec3a
000000a0: fb50 d93c bdab f2bb 656e 5f3b 7bf5 5e3c
000000b0: 5585 893b 6f2e c03c 42c4 303c 2aa7 b03c
000000c0: 2ffe 4abc dd14 14bb 1cec 43bc 6642 133c
000000d0: e3ce 6fbb 448b 063c da87 073d 1ef0 a13b
000000e0: b786 66bb 2849 8a3b c32f 7d3c 3837 3f3b
000000f0: 90f5 96bc 6a7b 12bb f34a d73c af7a a23c
00000100: 3df4 133d 0400 863b 3aa9 983b 6109 56bb
00000110: 1b73 98ba 1653 98bc 9072 87bc 3311 043d
00000120: e5c0 cdbb 704d a93c e153 4f3c 94c0 c8bc
00000130: 9e1e ee3a c4b3 acbb ef03 f13c 0742 2f3c
00000140: ce1a fe3c 4d24 d7bb 5ad6 bc3b 2806 75bb
00000150: 3c9e a139 c443 a93c e1e1 a43b 42b9 953c
00000160: c2cb 273c 48b4 82bc adec 133d 3120 92bb
00000170: 5f22 293c 8142 f2b9 154c 2f3d 33d8 9b3b
00000180: 6d05 16bc 1fcb b83c 7d21 e1bb f109 9d3b
00000190: f7a3 c13b 1a53 a53b 9488 0d3c 500f f23c
000001a0: 2ca3 163c 5095 143b 59f3 a33c 4adb fb3c
000001b0: 9842 433c c1e1 403b 823d dd3b 5a2a b83c
000001c0: bcb6 b23a 703c db3b 8c79 9cbb 64b4 f53b
000001d0: e802 78bc cd60 973b 5e11 153a 4c48 693c
000001e0: c01b 0b3d 352a b43c 73b7 ad3b a943 99bc
000001f0: 74b7 df3c 203e 393b e666 35bb 2f72 133c

network_body._body_endoder.seq_layers.0.weight f4 [128, 128]
-0.02603562 0.042721074 -0.07644855 -0.06255867 -0.0056496537 0.08847119 -0.12910491 -0.015751714
0.013344693 0.019869981 0.09684631 0.06034687 -0.081182376 -0.06323382 0.048260164 0.168393
-0.14584719 0.009358076 0.12540224 -0.099145815 -0.22300646 -0.046547513 -0.06575157 -0.064293675
-0.028003551 -0.07025649 -0.0009288338 0.019783208 0.112122916 0.06286982 -0.022784088 -0.024195755
-0.1021188 0.091240376 0.025824955 0.07712737 -0.18025872 -0.11728094 0.047858417 0.08276109
-0.02052303 -0.14656582 0.0478406 -0.13838933 0.09312723 0.13385636 -0.031346016 0.002754096
-0.052545648 -0.04415951 -0.06975607 -0.060224216 -0.08342622 0.037470665 -0.11537132 0.12298374
0.06576962 0.12644526 -0.009927573 0.08802248 0.10330879 0.01001633 0.067574866 -0.020414092
0.021511078 0.004887443 -0.06033673 0.11428057 -0.15656202 -0.07374512 -0.027423756 -0.14240305
-0.009609785 0.06864429 -0.089329965 -0.095002204 0.02981661 -0.1531463 0.1422951 0.02945836
0.036105994 -0.010336812 0.026960276 -0.0659697 0.08570889 0.0019091243 -0.0056769247 0.024924332
0.0012551509 0.028278442 0.08345461 -0.009478405 0.0031726258 -0.060779613 -0.16409983 0.08163211
0.051232256 0.024641586 -0.049095236 0.091210335 0.022463154 -0.1038259 0.09132451 -0.03691064
-0.11787794 0.062312152 -0.001847365 0.1389028 0.063052624 0.1625407 0.065135226 0.029464649
-0.012183152 0.06593987 0.044929676 -0.0843163 -0.08198115 3.364342e-05 -0.11340356 0.039125852
-0.101067886 -0.08365308 0.07807346 -0.029914211 0.07213689 0.05560587 0.22165434 -0.084471814
-0.087991506 0.061313458 0.08403779 -0.067284934 0.01261885 0.09625754 0.13450953 0.033715084
0.10630881 -0.051987696 -0.057274293 -0.15897176 -0.10591567 -0.037803374 -0.022722755 -0.14405516
0.16899432 0.11013975 0.056949075 -0.038767148 0.11612659 -0.04082059 0.08586954 -0.03229358
0.0012361627 0.01605306 -0.009473591 0.032672927 -0.021533575 0.16896112 0.08974032 0.11900166
-0.050029986 0.032244194 -0.18664731 -0.13125329 -0.028327247 -0.077576965 -0.048565786 0.2735174
-0.03504794 0.09855609 -0.05075562 -0.018263398 0.021038854 0.0055612787 -0.14937082 0.021614408
-0.013792256 -0.16237536 0.019065924 0.21709783 -0.004484532 -0.007815613 0.07901859 0.048320092
0.077496834 0.2580903 -0.05478147 0.026349634 0.037830412 0.08252828 -0.23972113 -0.021164618
0.0006069804 0.08160898 0.08095953 0.11874908 -0.04905974 -0.113909066 -0.0068288106 -0.13475478
0.09585294 -0.05047595 -0.018642502 -0.055038866 -0.030673072 0.01514079 -0.034294803 0.0017437836
-0.004649162 0.07074769 -0.07727017 0.02159002 0.14463188 -0.12511304 0.077123284 0.0006616417
0.019901037 -0.062205646 0.123650536 0.10389589 -0.01224127 -0.15349448 -0.0307554 -0.024210697
-0.19680107 -0.055945985 -0.08620638 -0.039220482 -0.05044793 -0.054303773 0.13370968 -0.038220838
-0.025517788 0.02267969 0.12679796 -0.03468161 0.04237769 0.04741828 -0.026837045 -0.09418002
-0.006660924 0.09506832 0.0017739979 -0.12743305 0.025393108 -0.093133874 0.0016142762 0.066945106
-0.016673468 0.006409039 0.10734215 0.041313387 -0.07363033 -0.031185614 0.18692651 -0.023926048
00000000: a748 d5bc 4bfc 2e3d 0f91 9cbd c31e 80bd
00000010: bb20 b9bb 6230 b53d 1434 04be bd09 81bc
00000020: b3a3 5a3c 5fc6 a23c 5c57 c63d 482e 773d
00000030: f242 a6bd bc80 81bd 73ac 453d 376f 2c3e
00000040: f758 15be 9e52 193c 7269 003e f60c cbbd
00000050: ce5b 64be 9ba8 3ebd c2a8 86bd 67ac 83bd
00000060: b467 e5bc a2e2 8fbd fb7c 73ba 6510 a23c
00000070: b3a0 e53d e4c1 803d b2a5 babc 2d36 c6bc
00000080: a923 d1bd 3cdc ba3d db8e d33c f4f4 9d3d
00000090: be95 38be fd30 f0bd 3007 443d a57e a93d
000000a0: ea1f a8bc 5a15 16be 81f4 433d efb5 0dbe
000000b0: 7db9 be3d a411 093e ae64 00bd 107e 343b
000000c0: 1b3a 57bd 9ae0 34bd 45dc 8ebd abad 76bd
000000d0: 5edb aabd d77a 193d cc47 ecbd e6de fb3d
000000e0: 39b2 863d de7a 013e 42a7 22bc 2145 b43d
000000f0: 8f93 d33d 881b 243c b164 8a3d 743b a7bc
00000100: 0038 b03c d826 a03b a623 77bd ee0b ea3d
00000110: cb51 20be ae07 97bd c9a7 e0bc 1bd2 11be
00000120: 5c72 1dbc 6195 8c3d a1f2 b6bd 8490 c2bd
00000130: f741 f43c 62d2 1cbe cfb5 113e a952 f13c
00000140: e1e3 133d bb5b 29bc ccdb dc3c 1f1b 87bd
00000150: 2488 af3d 953b fa3a 7f05 babb 1d2e cc3c
00000160: e083 a43a 31a8 e73c 40ea aa3d 504b 1bbc
00000170: d4eb 4f3b 0bf4 78bd c909 28be bc2e a73d
00000180: ead8 513d 27dd c93c 1618 49bd 7ccc ba3d
00000190: a604 b83c aca2 d4bd 5808 bb3d 9c2f 17bd
000001a0: fd69 f1bd 073b 7f3d 4923 f2ba 893c 0e3e
000001b0: bc21 813d 1271 263e 9e65 853d d95f f13c
000001c0: d89b 47bc 7c0b 873d 2e08 383d 06ae acbd
000001d0: bce5 a7bd 591c 0d38 2040 e8bd 6e42 203d
000001e0: aefc cebd 4e52 abbd fae4 9f3d a60e f5bc
000001f0: 81bc 933d fbc2 633d 5bf9 623e 8fff acbd
00000200: e434 b4bd d223 7b3d 011c ac3d afcc 89bd
00000210: 4bbf 4e3c ac22 c53d debc 093e d418 0a3d
00000220: 6fb8 d93d 0df1 54bd 7398 6abd 7ec9 22be
00000230: 51ea d8bd b6d7 1abd 1225 babc 3283 13be
00000240: d90c 2d3e f390 e13d 6f43 693d 4dca 1ebd
00000250: c7d3 ed3d 7e33 27bd 5fdc af3d 4646 04bd
00000260: bd06 a23a b581 833c 1f37 1bbc 0cd4 053d
00000270: 2e67 b0bc 2504 2d3e c6c9 b73d 24b7 f33d
00000280: 3eec 4cbd 7d12 043d 7920 3fbe 4367 06be
00000290: 8b0e e8bc ace0 9ebd ebec 46bd 790a 8c3e
000002a0: 6e8e 0fbd c6d7 c93d 20e5 4fbd 1f9d 95bc
000002b0: ad59 ac3c 633b b63b aaf4 18be b310 b13c
000002c0: eaf8 61bc ba45 26be 2430 9c3c e54e 5e3e
000002d0: fbf2 92bb 0f0d 00bc 80d4 a13d 4aeb 453d
000002e0: a9b6 9e3d 6924 843e 8962 60bd 30db d73c
000002f0: 10f4 1a3d 9604 a93d 7579 75be 6c61 adbc
00000300: c41d 1f3a 9c22 a73d 1cce a53d b832 f33d
00000310: def2 48bd 2849 e9bd 37c4 dfbb 28fd 09be
00000320: 8c4e c43d dfbf 4ebd 29b8 98bc 6f70 61bd
00000330: 1846 fbbc 1311 783c b578 0cbd ab8f e43a
00000340: ff57 98bb 2ae4 903d d33f 9ebd 8edd b03c
00000350: 611a 143e a21d 00be d0f2 9d3d 0672 2d3a
00000360: 8007 a33c 59cb 7ebd 7e3c fd3d 5ec7 d43d
00000370: 9c8f 48bc a82d 1dbe c0f2 fbbc 8355 c6bc
00000380: 3886 49be 9e27 65bd f88c b0bd a8a5 20bd
00000390: 7da2 4ebd a26d 5ebd 31eb 083e 748d 1cbd
000003a0: ae0a d1bc c2ca b93c 53d7 013e 4e0e 0ebd
000003b0: 3b94 2d3d ac39 423d 5dd9 dbbc 74e1 c0bd
000003c0: e143 dabb 2eb3 c23d 7e85 e83a cf7d 02be
000003d0: 3505 d03c f9bc bebd 1f96 d33a 841a 893d
000003e0: cc96 88bc ea02 d23b 33d6 db3d 3a38 293d
000003f0: 80cb 96bd f978 ffbc aa69 3f3e 8f00 c4bc

network_body._body_endoder.seq_layers.0.bias f4 [128]
0.0067046764 0.0033932917 0.0032140443 0.013400884 0.001116779 -0.001022918 0.007875181 0.0015184255
0.0062524984 0.009229553 0.0032578663 0.035064552 0.0036394515 0.025595536 0.033813633 0.008119282
0.002441068 -0.012363936 0.0032195721 0.0020952541 0.007893936 -0.012294288 -0.016253598 -0.006140053
0.0020735853 0.006812619 0.031542793 0.0028236706 -0.015462979 0.012306353 -0.013387777 0.031543076
0.016087495 0.027134744 0.005653285 -0.0072888904 -0.004665438 -0.018075395 0.025395125 0.018186776
-0.008725914 0.0016465996 0.005045611 0.031637445 0.0009671252 -0.0023760863 0.012988307 -0.003478228
-0.008566336 -0.0029595082 -0.010885738 0.0057823043 0.012981774 0.023195602 0.012411485 0.02008628
0.036853395 0.0035550098 0.005581001 0.015916118 -0.0026327379 -0.004742623 0.023784045 0.026365485
-0.00445119 0.012352563 -0.0053490098 -0.0007794118 0.00038505354 -0.00059199025 -0.010496185 0.0044644675
-0.0058751814 0.018351343 -0.019140754 0.0023406253 -0.008876228 0.048349947 -0.0030625 -0.005833747
0.04690553 0.007009999 -0.0028526033 -0.002812554 0.002209058 0.02556837 0.024253244 0.0055508763
0.01935197 0.008080964 -0.010705191 -0.016046382 -0.011151687 0.021876281 0.0064427666 -0.0066759246
0.011027601 0.03205724 0.0029668796 0.010883977 -0.0025274893 -0.007946096 0.0030909553 0.009661981
-0.009749513 0.004220103 -0.008802628 -0.009164672 0.012731143 0.007273178 0.022788618 0.03939115
0.01490533 0.025121162 0.0045319027 0.03224926 0.028979132 -0.0018644767 -0.0026257064 0.03814142
0.00013574336 0.027500588 0.0059643397 -0.0017977776 0.038218617 0.00026843074 0.002047502 -0.0037340927
00000000: e7b2 db3b fd61 5e3b b7a2 523b 628f 5b3c
00000010: e360 923a 6f13 86ba e706 013c e805 c73a
00000020: c2e1 cc3b 8d37 173c ed81 553b d99f 0f3d
00000030: dd83 6e3b bbad d13c 2a80 0a3d bd06 053c
00000040: 53fa 1f3b 1b92 4abc 75ff 523b 8850 093b
00000050: 9155 013c fb6d 49bc 4426 85bc 7f32 c9bb
00000060: fde4 073b 643c df3b 0433 013d 550d 393b
00000070: 6f58 7dbc 96a0 493c 6858 5bbc 5033 013d
00000080: ecc9 833c af49 de3c 313f b93b a5d7 eebb
00000090: 88e0 98bb da12 94bc 7009 d03c 6ffc 943c
000000a0: 23f7 0ebc b7d2 d73a a755 a53b 4496 013d
000000b0: ac86 7d3a 1db8 1bbb e8cc 543c fcf2 63bb
000000c0: d159 0cbc 4ff4 41bb 185a 32bc 7c79 bd3b
000000d0: 82b1 543c b404 be3c 8b59 4b3c fb8b a43c
000000e0: 96f3 163d 2bfb 683b d4e0 b63b 8562 823c
000000f0: 038a 2cbb 0168 9bbb c2d6 c23c 6efc d73c
00000100: 4adb 91bb 6862 4a3c bf46 afbb 7151 4cba
00000110: 03e1 c939 cb2f 1bba 31f8 2bbc ab4a 923b
00000120: 9884 c0bb 8e55 963c 12cd 9cbc 2d65 193b
00000130: 996d 11bc 980a 463d 39b4 48bb 0429 bfbb
00000140: 0320 403d 22b4 e53b bef2 3abb d352 38bb
00000150: d8c5 103b c274 d13c bdae c63c 20e4 b53b
00000160: 0688 9e3c 0566 043c d364 2fbc b473 83bc
00000170: 91b5 36bc e335 b33c d81d d33b b7c1 dabb
00000180: 1cad 343c 744e 033d fb6f 423b b552 323c
00000190: 3ca4 25bb 5830 02bc a091 4a3b 494d 1e3c
000001a0: 6cbc 1fbc ca48 8a3b e638 10bc 6c27 16bc
000001b0: 4996 503c d753 ee3b 32af ba3c 9d58 213d
000001c0: 7c35 743c e5ca cd3c 5b80 943b cd17 043d
000001d0: a565 ed3c 7561 f4ba 0b14 2cbb 2d3a 1c3d
000001e0: 5556 0e39 ea48 e13c 8270 c33b 68a3 ebba
000001f0: 208b 1c3d 2abc 8c39 622f 063b aeb7 74bb

network_body._body_endoder.seq_layers.2.weight f4 [128, 128]
0.1521529 0.1336623 -0.08349271 -0.06217256 -0.08066106 0.0100077605 0.19889283 -0.044608302
-0.00022821373 -0.0032856185 0.082830936 -0.18267453 0.05346461 0.10214996 0.114320196 0.042159893
-0.014759626 0.022562599 0.19672248 0.16880007 -0.098690584 0.05121023 0.11712832 0.124133766
-0.082863666 -0.045305185 0.035424225 -0.12125048 0.116281904 0.00949291 -0.13652433 0.18678893
0.063890256 0.034314595 0.0038696148 -0.0720381 -0.08621793 0.07344328 -0.06575686 0.011235472
0.12307097 -0.16480015 -0.054472882 -0.13543315 0.048993267 0.024600966 -0.06960034 0.073055856
-0.06725664 -0.03209314 -0.043289453 0.019687917 -0.14300781 0.0052121724 -0.04024828 -0.13001435
0.035753496 0.07155849 0.043406717 -0.03467792 0.11141985 0.05364542 -0.001234576 -0.028169205
-0.008869899 0.042950135 -0.114831924 0.005142743 0.025287414 0.13923849 -0.084713005 0.19058557
0.07630592 -0.037059184 -0.0053613153 0.1661098 0.01299326 0.10117281 -0.18798716 0.073903136
0.019138914 -0.07841756 -0.03364306 0.02885395 -0.091313444 -0.14214404 -0.15514867 -0.0781768
0.20843941 0.082592405 0.020259647 -0.07658373 -0.10869396 0.12492492 0.04062072 0.06908574
0.123036556 0.016424395 0.14597546 0.0096953465 0.02268362 0.14145215 -0.015325868 0.05965642
-0.08348722 0.03846136 -0.087854035 0.031042496 0.01820934 0.09257672 -0.20342183 0.03718095
0.057238895 -0.022223774 -0.061462503 0.08290662 -0.002620513 -0.018392708 0.0728272 -0.02226482
0.015441701 -0.16025521 0.081302054 -0.054057397 0.007121236 0.13415773 0.08659679 -0.025991173
0.24214315 -0.037318643 0.05261692 0.053078018 -0.0443689 0.045900427 -0.10603159 -0.025679655
-0.13301401 0.033820227 0.045084246 0.12173901 0.0017241582 0.19008048 -0.04170231 0.015070637
-0.1516586 0.11657899 0.11352061 -0.0012826507 0.06063254 0.05607128 0.031066285 0.023454558
0.10871541 -0.055001996 -0.08490582 0.05680063 -0.05878919 0.026872909 -0.017556762 -0.045064446
-0.15151915 -0.14801471 -0.0382386 -0.044015843 -0.011357224 0.008107623 0.052428402 0.021513203
-0.0066586747 0.016549239 -0.1137629 0.019322965 0.06208498 -0.0055966214 0.09202749 -0.0233917
0.018858038 -0.040293995 -0.06626213 0.0051543918 0.15350215 0.06398087 0.12916914 0.115237154
0.029574756 0.06339385 -0.08809141 0.05182286 -0.03966756 -0.09953445 -0.06702511 0.035341494
-0.029420935 -0.035469484 0.03061145 0.0041524977 0.2437237 -0.04425811 -0.087528184 0.07559908
0.07124815 -0.07919126 0.049881503 -0.019927666 -0.04160831 -0.01656006 0.1274115 -0.103825055
-0.04683922 0.13147812 0.030450948 0.045954842 0.17853071 -0.011952099 0.21060564 0.022127677
-0.04592062 0.1899883 -0.067126 0.14445467 -0.030525036 -0.04873283 0.032683276 -0.039632194
-0.1751695 0.010920731 -0.0685362 0.10994054 -0.0064711287 0.009252763 0.04503844 0.09726575
0.08601146 0.049381167 -0.11763447 0.04267145 -0.0064502354 0.0033908943 0.14678432 0.030237269
-0.0748739 -0.087829284 0.03701444 0.09532882 0.12244012 -0.0027237001 0.25724098 0.0002230836
-0.08989568 0.07045888 -0.073551245 0.015439738 -0.11193219 0.0017053395 -0.046929486 0.11689306
00000000: f8cd 1b3e c5de 083e 3afe aabd a7a8 7ebd
00000010: a031 a5bd 97f7 233c 90aa 4b3e 32b7 36bd
00000020: a84c 6fb9 8853 57bb 44a3 a93d 080f 3bbe
00000030: b5fd 5a3d 0034 d13d b520 ea3d daaf 2c3d
00000040: 5cd2 71bc 33d5 b83c 9e71 493e edd9 2c3e
00000050: 4a1e cabd d1c1 513d f9e0 ef3d d839 fe3d
00000060: 6db4 a9bd ee91 39bd fe18 113d 2c52 f8bd
00000070: 3525 ee3d 2688 1b3c 09cd 0bbe 9945 3f3e
00000080: e5d8 823d 768d 0c3d 5d99 7d3b b688 93bd
00000090: 0793 b0bd 6e69 963d 88ab 86bd fc14 383c
000000a0: a20c fc3d 5fc1 28be f51e 5fbd fdae 0abe
000000b0: 2aad 483d f787 c93c a08a 8ebd 4f9e 953d
000000c0: d9bd 89bd 1974 03bd 4850 31bd 8e48 a13c
000000d0: a470 12be dfca aa3b 61db 24bd 7b22 05be
000000e0: 4272 123d 428d 923d 3ecb 313d 6f0a 0ebd
000000f0: 1730 e43d 4dbb 5b3d 7fd1 a1ba 1bc3 e6bc
00000100: 0e53 11bc 7bec 2f3d 002d ebbd 7484 a83b
00000110: 8d27 cf3c 8994 0e3e 037e adbd dd28 433e
00000120: 4746 9c3d 5fcb 17bd f9ad afbb b018 2a3e
00000130: afe1 543c b133 cf3d b57f 40be 875a 973d
00000140: 36c9 9c3c 6399 a0bd 4ecd 09bd 1e5f ec3c
00000150: 8b02 bbbd 358e 11be 4bdf 1ebe 281b a0bd
00000160: 2471 553e 3526 a93d 8ff7 a53c eed7 9cbd
00000170: f09a debd a3d8 ff3d e961 263d d37c 8d3d
00000180: 97fa fb3d 748c 863c 977a 153e 3bd9 1e3c
00000190: 00d3 b93c d5d8 103e 5919 7bbc 4a5a 743d
000001a0: 59fb aabd a989 1d3d d1ec b3bd d54c fe3c
000001b0: c12b 953c dd98 bd3d d04d 50be 0d4b 183d
000001c0: 5573 6a3d a20e b6bc 1bc0 7bbd f2ca a93d
000001d0: eabc 2bbb 4eac 96bc 6d26 953d b664 b6bc
000001e0: 30ff 7c3c f119 24be b181 a63d 4a6b 5dbd
000001f0: 4259 e93b a560 093e a859 b13d 71eb d4bc
00000200: 60f4 773e 6fdb 18bd d784 573d 5668 593d
00000210: 2abc 35bd 1602 3c3d 1727 d9bd 245e d2bc
00000220: d334 08be 1487 0a3d 42aa 383d 4d52 f93d
00000230: 26fd e13a 75a4 423e 0bd0 2abd d5ea 763c
00000240: 644c 1bbe f7c0 ee3d 7e7d e83d 9e1e a8ba
00000250: d459 783d 00ab 653d b97e fe3c c623 c03c
00000260: 2fa6 de3d c649 61bd 1ae3 adbd c7a7 683d
00000270: efcc 70bd 9324 dc3c 33d3 8fbc 7f95 38bd
00000280: d627 1bbe 2b91 17be 14a0 1cbd f549 34bd
00000290: a613 3abc d6d5 043c 2abf 563d 753c b03c
000002a0: 0331 dabb 4592 873c 86fc e8bd 324b 9e3c
000002b0: d24c 7e3d dd63 b7bb e978 bc3d f39f bfbc
000002c0: 2c7c 9a3c 510b 25bd 71b4 87bd 2ce6 a83b
000002d0: ab2f 1d3e 6708 833d ea44 043e 7501 ec3d
000002e0: c246 f23c a3d4 813d 4569 b4bd 3544 543d
000002f0: 747a 22bd b8d8 cbbd 7644 89bd 3ec2 103d
00000300: 2c04 f1bc 7348 11bd ddc4 fa3c ad11 883b
00000310: b592 793e fe47 35bd fa41 b3bd b1d3 9a3d
00000320: 8dea 913d 072f a2bd 8c50 4c3d 583f a3bc
00000330: 7a6d 2abd f7a8 87bc 2978 023e 3ba2 d4bd
00000340: 7bda 3fbd 33a2 063e 4474 f93c 253b 3c3d
00000350: c1d0 363e bdd2 43bc 01a9 573e 1a45 b53c
00000360: 4317 3cbd 4b8c 423e 5b79 89bd edeb 133e
00000370: a40f fabc 139c 47bd e6de 053d 5e55 22bd
00000380: a25f 33be deec 323c b55c 8cbd 8128 e13d
00000390: c30b d4bb e798 173c 3a7a 383d 4433 c73d
000003a0: c726 b03d e843 4a3d 57ea f0bd 42c8 2e3d
000003b0: 7f5c d3bb c439 5e3b a14e 163e 26b4 f73c
000003c0: 7d57 99bd d7df b3bd 749c 173d c23b c33d
000003d0: e3c1 fa3d 1b80 32bb 17b5 833e 8ceb 6939
000003e0: 3a1b b8bd bf4c 903d 09a2 96bd f4f6 7c3c
000003f0: b43c e5bd b385 df3a 2239 40bd a165 ef3d

network_body._body_endoder.seq_layers.2.bias f4 [128]
-0.018965315 0.0063033816 0.026215844 -0.0055074324 0.010617564 0.024386303 0.006792722 -0.019668343
0.009256404 0.012222366 -0.003445358 0.016847014 0.00640993 0.039115347 0.055698514 0.0021954332
-0.0064067645 -0.0008092799 0.01212772 0.0044548013 0.022867147 -0.010437782 0.066781394 -0.006082573
0.014588828 0.0030297006 -0.013203259 -0.00089506997 -0.018562123 0.017447306 0.011630428 0.033382073
0.01367444 -0.022563497 -0.016031872 0.0455488 0.010024405 -0.019874368 0.008350201 0.013565965
-0.0008386649 -0.0013517393 0.03295112 -0.033528037 0.0072966395 0.025249096 0.0290803 -0.006492898
0.021090535 0.017446607 0.014682095 -0.008601024 0.03345612 0.017396742 0.014537024 -0.017508686
-0.0154601075 -0.014179263 5.4854623e-05 -0.008678908 0.004038079 0.01675896 -0.014105755 0.00087287574
0.008116659 -0.008311896 0.036120944 0.028771693 -0.0016195606 0.0070358394 -0.0034981829 -0.009881857
0.018805401 -0.03259436 0.056819618 0.021253042 0.005376265 0.0039990726 -0.0075485418 0.013469008
-0.019708904 0.02254025 -0.012203281 0.020286499 -0.006317685 -0.0035642048 0.0035379934 0.019727444
0.008804657 -0.005481475 -0.021464689 -0.020012526 0.002515772 0.050655853 -0.006962419 0.03160406
0.00036349898 0.063386306 -0.004584423 -0.01022623 0.006772702 -0.006228653 0.023432087 0.005455317
-0.004442026 0.0035253821 0.028195543 -0.015606951 0.0016609612 0.0038054339 -0.0014699043 0.00868685
0.0010262503 -0.0015150415 0.02262602 0.0028877382 0.03368612 0.041825045 0.04279118 0.047440402
0.04176624 0.024875436 0.018348375 -0.00029169963 0.023879664 -0.019821445 -0.005516036 0.02791965
00000000: 265d 9bbc 998c ce3b 9cc2 d63c b177 b4bb
00000010: 4bf5 2d3c c9c5 c73c 7b95 de3b 811f a1bc
00000020: 2ca8 173c 5240 483c 84cb 61bb c002 8a3c
00000030: 640a d23b 6a37 203d 2024 643d 42e1 0f3b
00000040: d6ef d1bb db25 54ba 58b3 463c 95f9 913b
00000050: e253 bb3c 3b03 2bbc afc4 883d 5250 c7bb
00000060: fb05 6f3c f18d 463b 7b52 58bc 21a3 6aba
00000070: 980f 98bc a7ed 8e3c 8d8d 3e3c a4bb 083d
00000080: c20a 603c 15d7 b8bc 4655 83bc 6191 3a3d
00000090: 673d 243c 92cf a2bc 48cf 083c c843 5e3c
000000a0: d9d9 5bba d82c b1ba c1f7 063d b254 09bd
000000b0: a618 ef3b 31d7 ce3c cf39 ee3c 60c2 d4bb
000000c0: 0fc6 ac3c 30ec 8e3c 2b8d 703c 4feb 0cbc
000000d0: 4909 093d 9d83 8e3c b32c 6e3c 606e 8fbc
000000e0: 644c 7dbc 2450 68bc b413 6638 fb31 0ebc
000000f0: dd51 843b 164a 893c d31b 67bc b3d1 643a
00000100: bcfb 043c 9e2e 08bc 8ef3 133d 9db2 eb3c
00000110: 7047 d4ba e68c e63b c541 65bb 83e7 21bc
00000120: c90d 9a3c aa81 05bd b0bb 683d dc1a ae3c
00000130: 612b b03b a70a 833b c259 f7bb 1dad 5c3c
00000140: 9174 a1bc 55a6 b83c 45f0 47bc df2f a63c
00000150: 9504 cfbb 6f95 69bb aedd 673b 739b a13c
00000160: 6841 103c f29d b3bb b7d6 afbc 4ff1 a3bc
00000170: a6df 243b 837c 4f3d 0125 e4bb 4273 013d
00000180: 0294 be39 aed0 813d ed38 96bb eb8b 27bc
00000190: 8bed dd3b ba19 ccbb a6f4 bf3c 84c2 b23b
000001a0: 6a8e 91bb 190a 673b 57fa e63c 4cb4 7fbc
000001b0: 9cb4 d93a 9664 793b cea9 c0ba 4a53 0e3c
000001c0: 3f83 863a 5b94 c6ba 345a b93c 3540 3d3b
000001d0: 75fa 093d bd50 2b3d ce45 2f3d de50 423d
000001e0: 1413 2b3d 92c7 cb3c 554f 963c 43ef 98b9
000001f0: 499f c33c 9560 a2bc ddbf b4bb c0b7 e43c

network_body._body_endoder.seq_layers.4.weight f4 [128, 128]
-0.069852136 0.13132565 0.06962869 0.027583411 0.003264637 0.10105802 0.14129078 -0.09511603
0.08517895 -0.123715535 0.04605727 0.10628839 0.10600506 -0.15691198 0.012955228 -0.14617737
-0.13793992 -0.06471875 0.017730832 -0.1463442 -0.08601563 -0.115277976 0.17103277 -0.09829436
-0.13004415 0.05993436 -0.1824322 0.07640667 -0.08899895 -0.10329847 0.06529926 0.03369978
-0.055425555 -0.082912266 -0.030142222 0.014314642 -0.2052051 -0.12673272 0.090079755 0.13459013
0.05395462 -0.00962252 -0.046324678 0.05982619 0.04740698 -0.1316908 -0.04404676 -0.012184214
-0.056383535 -0.060481276 -0.04375586 -0.07990428 -0.07447414 -0.0271273 0.15402691 0.048175823
0.13615279 -0.09306292 -0.12629862 -0.07212954 -0.06022929 0.009383461 -0.04920407 -0.012868818
-0.06765175 -0.029144628 -0.0044617825 0.18415195 0.016361823 0.06241543 0.030777752 -0.17749394
-0.01219883 0.04635066 0.055960897 -0.056008924 -0.05947558 -0.067283526 0.07968082 0.12758178
-0.07841724 -0.010107869 -0.12341493 -0.047321916 -0.015601496 -0.11576653 -0.026863046 -0.1156461
0.016052432 -0.05712388 -0.032295443 -0.06016617 0.110917956 -0.075162075 -0.09983753 0.018092653
-0.0042385636 0.036189906 -0.11251373 -0.04026288 0.17036124 0.03105459 -0.081283435 -0.07386679
0.16768634 0.0855882 -0.0074701225 -0.016596833 0.11259877 -0.033323154 0.0207824 0.1697616
0.04235532 -0.22420743 -0.09243852 -0.075313084 0.15152371 0.14295658 0.008026898 -0.022966722
-0.15283151 -0.07962417 0.020787923 0.16140147 0.02868205 0.16708565 -0.016991168 -0.13611773
0.030126907 -0.22188249 -0.022820057 -0.015149434 -0.04382292 -0.07568792 0.11114628 -0.009056212
-0.029726453 0.08163607 0.097726636 0.03261938 -0.09812698 -0.021867726 0.09627954 0.27285054
0.01255749 -0.047905497 -0.007477848 -0.17345145 0.021019064 0.082208656 0.03086437 0.11263011
0.065739155 0.15118806 -0.1486675 -0.1335799 0.10635237 0.018725462 0.011004996 -0.0010317856
-0.05506106 -0.09340921 -0.0053472547 0.001847318 -0.058956333 0.029356524 -0.119247034 0.04390862
-0.039355554 0.07890543 0.17884246 -0.094507165 0.038811915 0.13424385 -0.061953973 -0.05404671
-0.04198272 0.05225047 -0.07262325 0.031458683 -0.20065111 0.045998033 -0.038759567 -0.024291484
-0.078088865 0.0911587 0.06903698 -0.01851664 0.06202395 -0.014128107 -0.049040053 -0.2061198
0.10022275 -0.0058164448 -0.061795596 0.07674557 -0.013913453 -0.070522055 0.06841646 0.066099815
0.011573106 0.08638612 -0.04629764 -0.013531886 0.11953626 0.048504006 -0.040887844 -0.113507405
-0.14874339 -0.04792576 -0.010987209 -0.027956452 -0.097683184 0.10162889 0.07616615 -0.00063022
-0.09432428 0.14045914 0.036686428 -0.17558795 0.038885385 0.011775743 -0.13129583 0.08660685
0.038490895 -0.18581308 -0.031145113 -0.11987586 -0.1610958 0.022611178 0.0054117637 -0.08022518
0.064817436 -0.10603321 0.027958412 -0.097159736 -0.13962866 -0.14642611 0.0071386686 0.06867987
-0.12018457 0.024797315 0.12581323 -0.050828263 -0.091498144 0.06687858 -0.19237973 -0.089680746
-0.005427495 -0.019732723 -0.020944526 -0.007516588 0.08518426 -0.20848997 -0.014999541 -0.030022029
00000000: a30e 8fbd 3b7a 063e 7d99 8e3d 9bf6 e13c
00000010: 85f3 553b 82f7 ce3d 88ae 103e 31cc c2bd
00000020: 4d72 ae3d 925e fdbd 8ca6 3c3d baad d93d
00000030: 2e19 d93d 89ad 20be 2a42 543c 85af 15be
00000040: 1f40 0dbe 448b 84bd 4040 913c 41db 15be
00000050: f628 b0bd dc16 ecbd 3723 2f3e 8e4e c9bd
00000060: 4b2a 05be bb7d 753d 82cf 3abe 1a7b 9c3d
00000070: 1545 b6bd 268e d3bd 9ebb 853d c808 0a3d
00000080: e805 63bd e8cd a9bd d2ec f6bc f687 6a3c
00000090: 4921 52be 39c6 01be bc7b b83d ffd1 093e
000000a0: 85ff 5c3d c6a7 1dbc f2be 3dbd 4f0c 753d
000000b0: d22d 423d f4d9 06be 606a 34bd 4ca0 47bc
000000c0: 6cf2 66bd 37bb 77bd 5839 33bd dba4 a3bd
000000d0: e685 98bd 123a debc 3bb9 1d3e 0354 453d
000000e0: a36b 0b3e c697 bebd 6d54 01be a7b8 93bd
000000f0: fdb2 76bd 17bd 193c 358a 49bd bcd7 52bc
00000100: 008d 8abd b7c0 eebc 2534 92bb 5492 3c3e
00000110: 3b09 863c 52a7 7f3d a021 fc3c f9c0 35be
00000120: 9add 47bc 31da 3d3d 4137 653d 9d69 65bd
00000130: aa9c 73bd f2cb 89bd b32f a33d cca4 023e
00000140: 3899 a0bd 7a9b 25bc f8c0 fcbd a0d4 41bd
00000150: 6b9d 7fbc 0117 edbd e40f dcbc ddd7 ecbd
00000160: 6480 833c bbfa 69bd 3a48 04bd cd70 76bd
00000170: f428 e33d 93ee 99bd 9e77 ccbd 0b37 943c
00000180: a6e3 8abb de3b 143d 996d e6bd b1ea 24bd
00000190: 2d73 2e3e 3266 fe3c ee77 a6bd 7947 97bd
000001a0: f8b5 2b3e de48 af3d eec7 f4bb 15f6 87bc
000001b0: 2f9a e63d dc7d 08bd da3f aa3c fcd5 2d3e
000001c0: c67c 2d3d a296 65be 6850 bdbd bf3d 9abd
000001d0: 0829 1b3e 3663 123e 4083 033c b524 bcbc
000001e0: dd7f 1cbe ff11 a3bd 6f4b aa3c 6d46 253e
000001f0: 9ef6 ea3c 8018 2b3e 1031 8bbc 7262 0bbe
00000200: b4cc f63c 2a35 63be 21f1 babc 5535 78bc
00000210: aa7f 33bd 4502 9bbd a9a0 e33d 8260 14bc
00000220: e484 f3bc d030 a73d e724 c83d e69b 053d
00000230: ccf6 c8bd f223 b3bc 352e c53d 11b3 8b3e
00000240: eebd 4d3c 8e38 44bd bc08 f5bb 429d 31be
00000250: 2c30 ac3c 035d a83d 46d7 fc3c 9daa e63d
00000260: 40a2 863d 0bd1 1a3e 4b3c 18be 2bc9 08be
00000270: 45cf d93d 2466 993c 4c4e 343c fb3c 87ba
00000280: b587 61bd 544d bfbd 0638 afbb b521 f23a
00000290: 327c 71bd 187d f03c ca37 f4bd 86d9 333d
000002a0: 4a33 21bd 2c99 a13d 7a22 373e f98c c1bd
000002b0: 3ef9 1e3d 3877 093e 73c3 7dbd 1560 5dbd
000002c0: 13f6 2bbd 9704 563d 80bb 94bd d2da 003d
000002d0: 7c77 4dbe 6f68 3c3d 5ac2 1ebd effe c6bc
000002e0: 0eed 9fbd 6ab1 ba3d 4363 8d3d 35b0 97bc
000002f0: d30c 7e3d 9379 67bc 39de 48bd 1211 53be
00000300: 9641 cd3d e097 bebb 611d 7dbd c82c 9d3d
00000310: 40f5 63bc de6d 90bd ee1d 8c3d 575f 873d
00000320: 209d 3d3c 35eb b03d 98a2 3dbd d8b4 5dbc
00000330: 6dcf f43d 23ac 463d 037a 27bd 9276 e8bd
00000340: 3050 18be cd4d 44bd b203 34bc ee04 e5bc
00000350: 1f0e c8bd cf22 d03d 00fd 9b3d 5935 25ba
00000360: 172d c1bd 85d4 0f3e 8244 163d 54cd 33be
00000370: 4846 1f3d 0cef 403c 6a72 06be ef5e b13d
00000380: a1a8 1d3d c945 3ebe 0924 ffbc 7a81 f5bd
00000390: 4cf6 24be 143b b93c 2a55 b13b 194d a4bd
000003a0: 01bf 843d f127 d9bd 0a09 e53c affb c6bd
000003b0: d1fa 0ebe baf0 15be 7eeb e93b 08a8 8c3d
000003c0: 5423 f6bd bd23 cb3c 2fd5 003e 4c31 50bd
000003d0: 6163 bbbd a3f7 883d 31ff 44be 8aaa b7bd
000003e0: 21d9 b1bb 85a6 a1bc db93 abbc b64d f6bb
000003f0: 1675 ae3d 657e 55be a3c0 75bc c2f0 f5bc
