results/MultiJumper_v7/SingleJumper/SingleJumper-500238.onnx (onnx, 280053 bytes, 14 tensors)

network_body.observation_encoder.processors.0.conv_layers.0.weight f4 [16, 6, 8, 8]
000000 44 3e 13 3d b7 d2 f3 3b 79 9b af bc 55 c4 6d bc
       0.035948053 0.0074408907 -0.02143644 -0.014512141
000010 69 75 45 3d 53 f7 07 bd 86 2f 5b bc 46 88 b6 3b
       0.048207674 -0.03319485 -0.01337803 0.0055704443
000020 ab 29 d4 bb 30 c4 54 3d 08 88 57 bc 8e 65 27 3c
       -0.006474694 0.05194491 -0.013154991 0.010217084
000030 38 db 65 bc 65 39 02 3d 2a 3d a5 b9 c5 de 59 3c
       -0.014029317 0.031793017 -0.00031516823 0.013297741
000040 48 fe 2b bd 6a 42 84 3c 89 16 18 3d d9 22 07 bc
       -0.04199055 0.01614495 0.037130866 -0.008248054
000050 0d 96 38 bc 26 18 5f 3d 73 4c bf 3d 46 0f 47 bc
       -0.011266244 0.05446639 0.093407534 -0.012149638
000060 f3 4c 15 3d 03 c8 27 3d c3 bf 14 3d af b7 e8 bc
       0.036450338 0.04096223 0.03631569 -0.0284079
000070 c2 c8 c4 3c a4 0d 67 3d 4f df 87 3b b6 b2 79 bd
       0.02402151 0.056409493 0.0041464935 -0.060961448
000080 b7 92 40 bc ee 2f 28 3c bd d5 ba 3c 91 ee cc 3c
       -0.01175373 0.010265334 0.022806996 0.025016101
000090 9b e9 41 3b 39 1a 91 bb 31 7a ba bb 4a 94 33 bd
       0.0029588703 -0.004428175 -0.005690836 -0.04384259
0000a0 64 ee c9 bc 72 fb 80 bd ec a9 21 3c db 6f 20 bd
       -0.024649806 -0.062979594 0.009867173 -0.039169174
0000b0 26 3a 23 3d a2 fe 0f bd ae 02 5b 3d 09 12 43 3d
       0.039850377 -0.035154946 0.053469352 0.04762462
0000c0 a2 c6 9e bc 89 43 a6 3c f2 a3 94 bd d5 00 50 3c
       -0.019381825 0.020295875 -0.072578326 0.012695511
0000d0 31 d3 8f bb 6d db e8 3c 68 d0 8d 3d d3 40 65 3d
       -0.0043891896 0.028424943 0.06924516 0.055970024
0000e0 21 2d 1c bd ec ca 46 bd c0 89 b8 bc 68 ad d1 bc
       -0.038128976 -0.048533365 -0.022526622 -0.025595382
0000f0 61 61 8a 3c 36 9f ce 3b 99 46 c2 bc 13 da 04 3d
       0.016892137 0.0063056005 -0.023715304 0.032434534
000100 af a8 2a 3d 3f d4 0e 3d d7 cc b2 3c 18 6c 8f 3c
       0.041664775 0.034870382 0.02182619 0.017507598
000110 cf 26 12 3a 32 41 7e 3d 35 a3 70 3d 38 b6 41 bc
       0.0005575241 0.062073894 0.058749396 -0.0118232295
000120 1f ec 24 3d be 9c 46 3d ab bf 4e 3d 25 43 11 bd
       0.040264245 0.048489325 0.050475758 -0.035464425
000130 ae 52 cf 3c bd 80 31 3d 15 4f 1d 3c 00 00 9c 3c
       0.02530798 0.043335665 0.009601374 0.019042969
000140 17 11 4d 3d 36 6a a0 bc 58 71 a3 3c d5 26 5f 3c
       0.050065126 -0.019581895 0.019951507 0.013620098
000150 4e 25 8a bc 66 a9 fc bc d8 5b 77 bc ab c2 49 3d
       -0.016863491 -0.030842494 -0.015097581 0.049257915
000160 21 ef 2a bd 57 04 a1 bc 75 49 26 3b ce 0f ae bc
       -0.041731957 -0.01965539 0.0025373374 -0.02124777
000170 3f e9 35 3c 65 81 11 3d af 5b 4d bc ed d0 03 3d
       0.0111029735 0.03552379 -0.012534066 0.03218167
000180 b7 3b 39 bd 42 ee a5 bb 1d 96 21 3d 0a fe 51 3d
       -0.045222964 -0.005063803 0.0394498 0.05126766
000190 5c 1f 10 bc 60 b6 1c 3d 4c 40 f9 bc a1 e6 13 3d
       -0.008796539 0.038259864 -0.030426167 0.036108617
0001a0 21 a5 a8 3d 18 6b 1c bc b5 75 ea 3b d7 fe f6 bc
       0.08234621 -0.0095470175 0.007155145 -0.030150814
0001b0 80 2c a4 bc 7b fa d5 3c 5a 0c 22 bc 62 77 8d bc
       -0.02004075 0.026120415 -0.00989064 -0.01726884
0001c0 a2 32 a9 3d 44 1e ef 3c dc 63 44 bd e9 da 1c 3c
       0.082616106 0.029189236 -0.047946796 0.009573677
0001d0 0e b9 aa 3c f1 ff 8b 3d ac de bc 3c d2 dc bd 3c
       0.020840194 0.06835926 0.023055397 0.023176584
0001e0 01 a3 d5 3c 4e 0f 00 3d da 07 bb 3c 9b 81 63 bd
       0.026078703 0.031264596 0.022830892 -0.055543523
0001f0 3e 71 cd bc 81 4c 30 3d 99 61 8a 3d cc b0 1e 3c
       -0.025078412 0.04304171 0.067568965 0.009685706
000200 7d 79 80 bc 93 fd 1f 3d 6d 6b 23 3d 52 c1 7f bb
       -0.01568293 0.039060187 0.03989737 -0.003902514
000210 3b 87 5b 3d 45 4a 1b bc 99 7a 1c 3d ce f4 7d 3d
       0.053595763 -0.009478156 0.038202856 0.062001042
000220 de ef 09 bd 9b bb df bc 5e 60 12 3d 45 a5 80 3d
       -0.03367602 -0.027311137 0.035736434 0.06281523
000230 bc 31 57 3d 85 a1 ea ba fb 5f 59 3d cb ba 90 3d
       0.052537665 -0.001790092 0.05307005 0.07066878
000240 ac 36 01 3d 0c 8a 89 3a fe e3 3b 3d a4 43 84 3d
       0.03154628 0.0010493412 0.045871727 0.06458214
000250 2d 98 70 bc e6 6e 74 3d 8b c5 67 3c 04 45 2d 3d
       -0.014684719 0.059676073 0.014146219 0.042302147
000260 5e 08 58 3c b2 53 5e 3c bd 1c df 3b be 33 2c bc
       0.013185589 0.013569759 0.006808846 -0.010510383
000270 36 84 99 3d 5f 6a fa bc e9 0f 3a 3d ef 34 34 3d
       0.0749592 -0.0305683 0.04542533 0.043995794
000280 3d ca a1 3a 9c a1 97 bc df 9c 5d 3d f7 8d 11 3c
       0.0012343597 -0.018509679 0.054104682 0.008883945
000290 af 0c 95 3d 5b 34 73 3d 24 93 f7 bc 0c 88 97 3d
       0.0727781 0.059376102 -0.03022153 0.07398996
0002a0 75 0f e3 bc ea 22 60 bc 42 9d a2 3c 8c 23 86 3d
       -0.027717331 -0.013680199 0.019850377 0.06549749
0002b0 13 26 62 3d 4d 8a e6 3c 61 31 5d 3c 09 9a ae bc
       0.05521209 0.028142119 0.013500542 -0.021313684
0002c0 eb 8c 39 bc 86 54 41 bc 72 2b f4 3c 34 fe 99 3d
       -0.011325101 -0.011799937 0.029805873 0.075191885
0002d0 1f 5d c2 3c a3 2b 5c 3d 9e 29 ef bb 53 61 54 3b
       0.023726044 0.053752553 -0.0072986623 0.0032406643
0002e0 7a f4 d5 ba 11 28 1e 3d 49 78 38 bc a3 28 d8 3a
       -0.001632347 0.03861243 -0.011259147 0.0016491603
0002f0 e9 3d 8e 3c c1 48 9b 3c 40 9b 8f 3c 0b 88 05 bd
       0.017363505 0.01895559 0.017530084 -0.032600444
000300 08 44 a4 3d 74 b6 6c 3d 9f 03 0d bd 6c 71 79 bc
       0.080207884 0.05779119 -0.03442728 -0.015224796
000310 50 59 d7 bc ac 5e 81 3c aa c0 8c 3d be de df bc
       -0.026287705 0.015792213 0.06872685 -0.027327891
000320 6f 58 5a 3d 97 07 8b bc 9d 97 cd bb 0c 9d 1b 3d
       0.053306993 -0.016971393 -0.006274177 0.03799157
000330 a5 db d8 bc 17 3c 68 3d 1c 89 9c bb 19 eb 0c bd
       -0.026471922 0.05669793 -0.004777087 -0.034403894
000340 eb 3d 59 bc c3 3b 44 3d b8 a1 35 3c 71 1c 89 bc
       -0.013259391 0.047908556 0.01108592 -0.016737195
000350 c1 d8 2a bd ba 0a 1d 3d 46 e8 a7 3d 05 8e b6 bb
       -0.04171062 0.038340308 0.081985995 -0.0055711293
000360 e9 f0 e7 3b 5b 8f 00 3d af ae d6 bc 74 4c 17 3d
       0.0070782793 0.031386714 -0.026206343 0.036938146
000370 b0 e2 f5 bb d7 e4 5c 3c 56 f1 99 3d 7a 31 20 3d
       -0.00750383 0.013482294 0.07516734 0.039109685
000380 14 26 4f 3d 85 a7 4a 3c 3c b8 97 bb cb cf 94 bc
       0.050573424 0.012369041 -0.0046301167 -0.01816549
000390 43 6d b2 3d 50 76 2d bc 96 8b 30 3d ea 46 1c bc
       0.08712246 -0.01058729 0.04310187 -0.009538392
0003a0 57 79 05 3d db 0b 45 bd 3b dd 61 bd 17 47 7d 3d
       0.03258642 -0.04810701 -0.055142622 0.061835375
0003b0 66 6a b3 bc ea 84 88 3d 2d ec 2f bd cc 24 31 3d
       -0.02190132 0.06665976 -0.042949844 0.043247983
0003c0 6b 07 00 bd af 51 1f 3d 78 00 c7 bc 7a c9 08 bd
       -0.031257074 0.03889626 -0.024292216 -0.033395268
0003d0 22 38 02 3d c9 ea 8a 3d 85 19 74 bc 34 c1 56 3d
       0.031791814 0.06783063 -0.014898662 0.052430347
0003e0 72 87 c6 3c 68 a8 6e 3b 50 5b 85 3c 00 0c 22 3d
       0.024234507 0.0036416296 0.016278893 0.039562225
0003f0 11 cf c8 3c 2b 3b ea 3c e5 ac 91 3d 06 c9 1c bb
       0.0245128 0.028592667 0.07113055 -0.002392353

network_body.observation_encoder.processors.0.conv_layers.0.bias f4 [16]
000000 c5 49 e9 37 10 a5 e7 bc 20 3b 97 39 5a a5 10 bd
       2.7810116e-05 -0.02827695 0.00028845016 -0.03531394
000010 75 ed 35 3d 19 63 25 3d 53 ad 14 3c e0 24 f4 3c
       0.04441591 0.04037771 0.009074527 0.02980274
000020 b3 75 85 bc e4 68 0a bd bc 7d 2c 3d aa c3 8b bc
       -0.016291475 -0.033791438 0.042112097 -0.017061073
000030 86 e2 fa 39 24 20 51 3c 09 9a 0d 3d 84 cc e4 3c
       0.0004785249 0.012764011 0.034570727 0.027929552

network_body.observation_encoder.processors.0.conv_layers.2.weight f4 [32, 16, 4, 4]
000000 89 7e c6 3c c2 82 23 bc 16 62 12 bd ae 28 2a bd
       0.024230259 -0.009979906 -0.035738073 -0.0415427
000010 fc 5f 91 3d bf b3 2d bd 93 d6 3c 3d d3 68 a4 bd
       0.07098386 -0.042407747 0.04610307 -0.08027806
000020 2b 36 b4 3d be bf 18 bd 66 e3 1e bd f2 77 90 bc
       0.08799394 -0.037292235 -0.038791083 -0.01763532
000030 02 45 b9 3c 1d e5 10 3d 6c e6 49 bd 0c 6b 99 bb
       0.022615913 0.03537475 -0.049292013 -0.0046819504
000040 63 52 35 3d ac b3 a2 3d 06 c2 b1 3c 5b fd dd 3b
       0.044268023 0.07944426 0.021698963 0.006774587
000050 a6 c6 08 3d bd 49 01 bd 2b c1 26 bd 60 d8 68 bd
       0.03339257 -0.031564463 -0.040711563 -0.056846976
000060 2b 38 af bb c8 b4 92 3d 3e 49 ab 3b d4 31 34 bd
       -0.005347272 0.071633875 0.005227237 -0.043992832
000070 f9 19 0a 3c 11 3d 24 3c 9e 28 16 3d f8 9f 3e bd
       0.008429044 0.010024325 0.03665983 -0.046539277
000080 d3 53 d2 bc 64 4f c0 bc a3 e7 3a bd e3 ae 46 3d
       -0.025674736 -0.023475356 -0.045631062 0.04850663
000090 b6 eb 6e bc 8c 13 29 bd 9a 8f 41 bc c0 4a 44 bb
       -0.014582565 -0.041278407 -0.011814022 -0.002995178
0000a0 fd 8f ce 3c 8e 0e 27 bd 89 4e 3f 3d a3 0e 88 bd
       0.025215143 -0.040785365 0.046705756 -0.06643417
0000b0 13 32 56 3d 77 c7 d9 bc 71 f6 e4 3c e7 90 c9 bc
       0.05229385 -0.02658437 0.027949544 -0.024605228
0000c0 9f 19 89 3d fd fb 70 bd af 2e 4b bd 5a 65 10 bd
       0.0669434 -0.058834065 -0.049605068 -0.035252906
0000d0 e5 7d 78 3d ad e6 9f bc ba 64 56 3c 31 72 3c bd
       0.060666937 -0.019519174 0.0130855385 -0.04600734
0000e0 b7 89 aa 3d fd fb f0 bc 57 e3 69 bb ac ac 71 3c
       0.08327048 -0.029417032 -0.0035688484 0.014750641
0000f0 02 3b 62 bb a3 27 09 3d ba 0e 35 bd bd c6 3b bd
       -0.0034520035 0.033485066 -0.044203497 -0.04584383
000100 4a 9c af 3d 3d 23 a4 3c 1d 15 35 3d 3f 9c 10 bd
       0.08574732 0.020036334 0.04420959 -0.035305258
000110 63 ab 4b 3d f7 28 a6 3d 6e 94 6b bd 66 6e 0b 3d
       0.049723994 0.08113282 -0.0575146 0.03404083
000120 f4 d7 c2 3c a7 a8 27 3d 00 54 70 bc 54 6c 03 bd
       0.023784615 0.040932324 -0.014668465 -0.03208573
000130 3a 91 00 3d 0e 11 f1 bc ad dc cd bc 61 3f 2f 3d
       0.0313885 -0.029427078 -0.02512964 0.042785052
000140 1f ab 95 3d fd d8 22 3d e3 62 43 3c 95 0e 86 bd
       0.073080294 0.039757717 0.011925432 -0.0654575
000150 85 0b 69 3c 31 ff f1 3b f1 9c 90 3d 6f 5e 53 3c
       0.014223938 0.0073851575 0.07061184 0.012900933
000160 1b e9 0a 3d ad 9e 82 bc 1b 31 0f 3d 2a ba 9f bc
       0.033913713 -0.015944803 0.03495894 -0.01949795
000170 3c b2 ac bc 18 e4 3a bd 2a 1d 81 3d c2 0b 11 3d
       -0.021081083 -0.045627683 0.06304391 0.035411604
000180 f9 30 7c 3d cb ef 1e 3d 56 eb 9e 3d 00 c7 74 3d
       0.06157014 0.038802903 0.077597305 0.059760094
000190 70 80 e2 3b b6 c8 4f 3d 6c a0 8a 3d e5 cb 9f bb
       0.0069122836 0.050728522 0.06768879 -0.004876601
0001a0 b1 8c 53 39 06 2e 17 3d c4 35 f6 3c 0f ec b5 3b
       0.0002017494 0.036909126 0.030054934 0.005551822
0001b0 b4 a4 54 3d 4a a3 0e 3c ea 95 53 bd b4 f5 0e 3d
       0.051914886 0.008705923 -0.05165664 0.03490229
0001c0 2e c2 bc 3b 83 69 d7 3b 72 3a f0 bb 06 10 85 bc
       0.0057604527 0.0065738573 -0.007331186 -0.016242992
0001d0 d4 71 7b 3c dd 72 47 3d 6c 81 55 bc c7 3e fd bc
       0.015346963 0.048693527 -0.013031345 -0.030913724
0001e0 79 44 02 bd 14 75 01 bd 8b 80 9b bd 7b db b6 bc
       -0.031803582 -0.031605795 -0.07592877 -0.022321453
0001f0 01 99 9b ba d3 23 fe bc b0 7a 8f bd 28 f2 85 bd
       -0.001187116 -0.031022942 -0.07005823 -0.06540328
000200 6d e1 19 bc 26 3e 90 3c 24 0f 67 bb d1 21 12 bd
       -0.009392125 0.01760776 -0.0035256827 -0.03567678
000210 4c 08 fe bb 6a 44 83 3d ce a7 11 bd 4b 26 53 3d
       -0.007752454 0.06409533 -0.03556042 0.05155019
000220 ff 59 4a bd 9a 59 6a 3d bc 70 0a bd 9d 90 46 bd
       -0.049402233 0.057214357 -0.033798918 -0.048477758
000230 37 53 32 bd b4 a6 07 bd 59 ea 03 3d 75 4b 1c 3c
       -0.04353639 -0.033117965 0.032205913 0.009539475
000240 99 7d be bc 44 79 34 3d 88 5d 14 bc 9a 8b 17 bd
       -0.023253249 0.04406096 -0.009055503 -0.03699837
000250 fc 69 77 bc d4 9b a4 3d d8 35 07 3d 63 67 1e bd
       -0.015100952 0.08037534 0.033010334 -0.038672816
000260 d0 4b f2 bb 73 ef 8d 3d 83 17 4b 3c 0b 46 1e bc
       -0.0073942915 0.06930437 0.012395742 -0.009660254
000270 24 0a 4a 3a 39 57 15 bd 11 7b b2 bc 58 82 73 bd
       0.00077071995 -0.036460135 -0.021787198 -0.059450477
000280 df 17 fd bb b5 b4 3f bc a0 81 43 3d 58 01 fc 3b
       -0.007723793 -0.011700799 0.047731042 0.00769059
000290 05 27 13 3d 5e 0f c8 3b 30 3a 2c bd 78 d3 bb 3c
       0.035925884 0.0061053475 -0.04204768 0.022927985
0002a0 25 89 f2 bc 12 58 8c 3c b8 24 73 3d 46 39 20 3c
       -0.029606411 0.017131839 0.05936119 0.00977928
0002b0 0e 4b 27 bd 8d 9b 2d bd cf 21 d3 3c ce ad 46 bc
       -0.040843062 -0.042384673 0.025772957 -0.012126399
0002c0 c2 0c 93 3d 00 b9 18 bd 02 5e 13 3d bd c9 f9 3c
       0.07180168 -0.037285805 0.035978325 0.030491704
0002d0 67 29 b5 3d c3 b0 a6 bc f0 9d 91 bc 04 90 75 bd
       0.088457875 -0.020347958 -0.017775506 -0.059951797
0002e0 b4 84 54 3d 9d 15 0b bd 22 13 5b 3b f0 f4 67 bc
       0.051884368 -0.03395616 0.0033428152 -0.014157519
0002f0 6f f1 4d bc 9a 57 f4 3c b0 a3 60 3d 67 63 37 3c
       -0.012569769 0.029826928 0.054843605 0.011193133
000300 26 69 21 3d 43 66 f5 3c b2 dd 9e 3c 6f 44 73 bd
       0.039406918 0.029955989 0.019392822 -0.059391435
000310 ad cc be 3c 31 34 57 3c 34 1f 32 bd 6b 60 a7 bc
       0.023290956 0.013135002 -0.04348679 -0.020431718
000320 45 8c 79 3d d8 da 4c 3c 3a 90 3f bd f4 5f a3 bc
       0.060924787 0.012503348 -0.046768405 -0.019943215
000330 6c 67 a3 bc 28 d0 0d bd 31 32 0c 3d 36 22 19 bd
       -0.019946776 -0.03462234 0.034227554 -0.03738614
000340 4b f8 76 3c df 38 8a 3d 80 7a 54 3d cd 01 96 3c
       0.015073846 0.067491286 0.051874638 0.018311406
000350 47 f6 2a 3d 56 69 6a 3d 8d 97 84 3b ed 09 fa bb
       0.041738775 0.057229362 0.0040463866 -0.007630578
000360 10 58 8f 3d f7 6c 1a 3d 4b 96 07 bd c6 20 0e bd
       0.069992185 0.037701573 -0.033102315 -0.034699224
000370 35 c2 c2 3d b1 5c 0a bc 9d 88 8a 3b 39 bd e6 bc
       0.09509698 -0.008444951 0.0042277114 -0.0281664
000380 3d b9 a7 3d ab d1 49 3d 26 1e df 3c 9e 1a 94 3c
       0.08189628 0.04927222 0.027236056 0.018079098
000390 8a 7f 96 3b d1 dc 31 3d 84 df 83 3d 71 4f 0c bd
       0.0045928406 0.043423478 0.064391166 -0.03425545
0003a0 cf 85 a9 3c 2b a2 3f bc b6 d3 96 3b c3 4f fd 3c
       0.020693688 -0.011696379 0.0046028746 0.030921822
0003b0 a9 97 63 3c ab c0 33 3c b8 1c 57 bd 24 ba 49 3d
       0.013891139 0.010971229 -0.052517623 0.049249783
0003c0 50 92 2d 3d 5a 22 b5 3d 34 31 89 3d d2 83 ea 3c
       0.042375863 0.08844443 0.06698838 0.02862731
0003d0 7c a5 4f 3d b3 4e 2e 3b b5 b5 bf 3c 30 b1 4c 3d
       0.050694928 0.0026597201 0.023402074 0.049973667
0003e0 be be 0e 3c a6 d9 a8 3c fb f9 fc 3c 49 55 be bc
       0.008712469 0.020611595 0.030880919 -0.023234027
0003f0 8c f4 f9 bc 46 62 82 3d 64 e3 32 bd 9b f2 3c 3d
       -0.030512117 0.063664004 -0.043673888 0.046129804

network_body.observation_encoder.processors.0.conv_layers.2.bias f4 [32]
000000 6d 31 1a 3c 26 dd a4 3c b3 ec 80 bd 18 31 f3 bc
       0.009411198 0.020124983 -0.06295147 -0.029686496
000010 37 f4 58 bd 9b e7 63 3d 90 63 65 3d e6 8f df 3a
       -0.052967276 0.055640798 0.056003153 0.0017056435
000020 e3 7a 50 3d 08 2b d1 3c 89 53 44 3c c7 b4 64 3c
       0.050898444 0.025533214 0.011982807 0.013959116
000030 e5 ef 1e bd b7 60 21 bd fc 0c ad 3c ed b4 14 bd
       -0.038803 -0.039398875 0.021124355 -0.036305357
000040 4a f3 39 3d bb 57 12 bd 73 d7 a5 bb b8 dc 1d 3d
       0.045398034 -0.035728198 -0.005061084 0.038540572
000050 ee 24 50 3b 34 7b da bc de aa 5a 3d fc 68 82 bc
       0.0031760293 -0.026670076 0.053385608 -0.015919201
000060 bb 86 74 bc a1 29 e5 3c 6d e2 08 bc b7 84 61 3d
       -0.0149247 0.027973952 -0.008354765 0.055058207
000070 07 f7 9b 3c aa 1c 0a bd a6 f9 fe bc f8 16 d1 bc
       0.01903869 -0.033718742 -0.031124901 -0.025523648

network_body.observation_encoder.processors.0.dense.0.weight f4 [128, 32]
000000 de 3b 13 3c c0 60 f9 3d 5c 05 17 be b4 17 3c bd
       0.008986441 0.12176657 -0.14748138 -0.045921043
000010 6e 16 ac 3e a2 c5 be 3e f6 00 ea 3d 2c 22 f1 bd
       0.33610862 0.37260157 0.114259645 -0.11774096
000020 f1 fc 2b 3e b6 d1 f1 bc 57 a0 9c be aa b1 3e be
       0.16795708 -0.029518943 -0.3059108 -0.18622461
000030 83 51 3f 3e c2 db dc be 17 e5 94 be 98 ea 2d 3d
       0.18683438 -0.43136412 -0.29081032 0.042460054
000040 5b e9 e9 bc 0e 0e da bd 93 9d 0e bf 48 f9 b6 3e
       -0.028553655 -0.10647212 -0.5570919 0.35737062
000050 8c 48 0c be 0a 41 a2 3e db d3 87 3d 1e 74 81 bd
       -0.1369955 0.31690246 0.06632205 -0.06320976
000060 c4 6c a1 3e c6 10 3b 3e af 06 b3 be c6 c2 1a 3f
       0.31528294 0.18268117 -0.34966037 0.6045345
000070 b0 2e 8d 3e 86 ca 0f 3d 50 89 8d be 7c dc 9c bd
       0.27574682 0.03510525 -0.27643824 -0.076592416
000080 57 c8 a8 3d 2d aa f1 3d 22 86 07 be 74 27 87 3e
       0.08241337 0.118000366 -0.13234761 0.26397288
000090 78 1d ba 3e bd e2 dc be 39 f1 4c 3e 9c 1f c9 3d
       0.36350608 -0.43141738 0.20013894 0.09820482
0000a0 94 31 40 bf 8b 45 99 3e a1 a4 21 be 64 a2 18 bc
       -0.7507565 0.2993587 -0.15785457 -0.009316061
0000b0 62 ef 06 3e 25 a7 a4 3e 50 6a 15 3e bf 3a 17 be
       0.13177255 0.3215877 0.14591336 -0.14768504
0000c0 03 35 4b 3e 91 b8 d5 be 62 93 59 bd af 85 34 bc
       0.19844441 -0.41742375 -0.05311907 -0.011018201
0000d0 81 e2 20 3f bd 2a 85 be e4 da 83 bd 73 4c e0 3d
       0.6284562 -0.2600917 -0.064382344 0.109520815
0000e0 07 c4 d8 3d f3 0b 5e be 02 0b 0f 3f 7e 54 b7 3e
       0.10584264 -0.21684246 0.5587617 0.3580665
0000f0 b9 48 af be e4 30 c9 3e bb e6 f9 bd 9d d3 1c bf
       -0.3423517 0.39295113 -0.122022115 -0.61260396
000100 05 f0 8d 3e b0 57 2d be 46 25 21 be c0 0d d8 bd
       0.27722183 -0.16927981 -0.15736875 -0.105494976
000110 c2 0e 46 3e 58 ef 99 be be 48 35 be 20 1f ee 3e
       0.19341567 -0.30065417 -0.1770353 0.46508121
000120 e5 ea d1 be 92 f2 e3 3c 7b 4b 0d 3e 10 62 04 be
       -0.40999523 0.027825627 0.13798325 -0.12928033
000130 7b 4b 6d 3e 23 58 93 bd 07 4c 87 be a0 2a 1b 3e
       0.23173325 -0.07194545 -0.26425192 0.15152979
000140 bf 78 17 bd 19 31 f5 bd 11 88 98 be a2 b4 8c bd
       -0.036980387 -0.11972255 -0.2979131 -0.068703905
000150 a1 62 07 be 2c 06 08 bf 4e db e4 3d 43 64 1d be
       -0.13221218 -0.5313442 0.111746415 -0.15370278
000160 d5 ef 31 be c2 e6 06 3f 0a ff 39 be 84 e5 01 bf
       -0.17376645 0.5269586 -0.18163696 -0.5074084
000170 30 47 3f bd 40 9c 1e 3e 5b 66 90 be 6e c0 92 be
       -0.04669875 0.15489292 -0.2820309 -0.28662437
000180 f5 96 66 be 36 2e cb be 92 e8 32 be 0e f9 3a 3e
       -0.22518523 -0.39683694 -0.17471531 0.1825907
000190 ba 3a d3 3d be a0 63 be 9a 73 5f 3e 90 f6 87 3e
       0.103139356 -0.22229287 0.21821442 0.265553
0001a0 d3 99 8d be 71 27 ca 3d 42 5e 1a 3e 92 01 f6 3b
       -0.2765642 0.09870804 0.15075019 0.0075075114
0001b0 fb ec 4f 3e 04 bc 94 be c4 5f b2 3d 29 9f 9d 3d
       0.20305245 -0.29049695 0.08709672 0.07696373
0001c0 af 83 26 3e 2d 4d 0f 3f 3f f4 7f be ff 61 18 3f
       0.16261171 0.55977136 -0.24995516 0.5952453
0001d0 62 f0 8a ba 02 54 dc bd fe 97 fe 3d aa 23 58 3e
       -0.0010600204 -0.10758211 0.12431334 0.21107355
0001e0 3d 22 bb 3d 62 30 31 3f eb 7a 57 bb 2f 15 56 3e
       0.0913739 0.6921445 -0.0032879661 0.20906518
0001f0 67 d1 0b be 31 c0 64 3e a0 01 97 3e c1 80 74 be
       -0.136541 0.2233894 0.29493427 -0.2387724
000200 ea 2c 05 3d 6c bd 89 bd 75 a8 8b 3d 03 70 61 3e
       0.032513537 -0.067255825 0.0681924 0.22015385
000210 79 25 01 be 43 6c 23 be 20 3e 2c be 05 bb 17 3e
       -0.12611951 -0.15959267 -0.16820574 0.14817436
000220 8f 4d 3e 3e ef e5 62 3e 7c e1 a4 bd d6 38 d4 3d
       0.18584274 0.22158025 -0.0805082 0.10362403
000230 d5 59 7c bd 3d be 53 3e 86 b1 15 3e 29 c9 ee bc
       -0.061609108 0.20678039 0.14618501 -0.029148655
000240 bc 93 91 3e 16 48 4c 3e 10 a7 8e be 79 65 b9 3d
       0.28433025 0.19949374 -0.27861834 0.090525575
000250 45 62 a8 bc 1c 0e 5e 3e bc db 87 3e 2a a4 ef 3d
       -0.020554671 0.2168507 0.26534832 0.11701234
000260 7a ce 48 bf 41 83 96 be c9 73 90 3e ff 06 c1 be
       -0.7844006 -0.29397014 0.28213337 -0.3770065
000270 e1 09 a5 3c d1 6e 3e be 93 4a 8f 3e 82 ac 7c bc
       0.020146312 -0.1859696 0.27986583 -0.015421988
000280 35 f9 cb be 2b a7 22 3e 16 ee b8 3c 8f 24 90 3e
       -0.39838567 0.15884082 0.022574466 0.28152892
000290 3e df bd 3d d5 7b a5 be a9 83 3b be 72 c5 83 3e
       0.09271096 -0.3232104 -0.18311943 0.25736576
0002a0 13 90 c2 3d 62 ba 98 be 5c 4f 17 3e 82 d4 8e 3d
       0.09500136 -0.298297 0.14776367 0.069741264
0002b0 ca 41 da 3c 97 53 15 be b9 f9 9a 3c 9d db fc 3e
       0.026642699 -0.14582668 0.018917905 0.49386302
0002c0 e5 72 0a bf a0 1e cf 3d ab b5 3b be 76 3f 09 3e
       -0.54081565 0.10113263 -0.1833102 0.13403115
0002d0 df a2 8b be 29 f1 87 be 7e f6 27 3e 97 6f 5b be
       -0.27272698 -0.26551178 0.16402623 -0.21429287
0002e0 7b 82 8c be cc 07 39 bd a7 92 b1 bd ca cc 9d be
       -0.274433 -0.04517345 -0.0867055 -0.30820304
0002f0 cc aa da bc ed db d0 bd 03 4c 2f 3e cf 6f a2 bd
       -0.02669277 -0.101981975 0.1711884 -0.07931482
000300 32 cd 38 be 7c 75 32 3e 44 03 cf 3c 39 64 31 bd
       -0.18047026 0.17427629 0.025270112 -0.04330847
000310 2f 51 b7 bd 83 8e be be ae 7d 71 bd 69 d8 b3 bd
       -0.089510314 -0.37218103 -0.058957748 -0.08781511
000320 ad 91 8a 3e 33 ce cc bd 69 9d 33 bb 86 68 ab 3e
       0.27064267 -0.10000267 -0.0027407056 0.33478183
000330 90 6f 59 3e f9 a4 2c 3e f5 1c 09 bf d6 3d 98 3e
       0.21233964 0.16859807 -0.5355981 0.29734677
000340 bc 0e 35 3e ee 03 52 3e 8a f5 30 bc fb 44 97 3e
       0.17681402 0.20509312 -0.010800729 0.29544815
000350 c3 c7 51 3e 95 c8 5e 3e af 38 97 3e 2f e3 a3 be
       0.2048636 0.21756203 0.29535434 -0.32009265
000360 a8 92 52 3b 26 2e 85 3c b0 a7 89 be 97 33 ac 3d
       0.003213087 0.016257357 -0.26885748 0.084082775
000370 4f 21 e2 3d 23 62 e1 3d 7d 37 96 bd 47 e4 0b be
       0.11041509 0.11005046 -0.07334802 -0.136613
000380 2d ce 50 3e 44 4d a5 be a7 68 04 be 3f 0c b0 3d
       0.2039115 -0.32285511 -0.12930547 0.08596086
000390 cb 51 09 3e 19 93 c0 be 64 19 2e be 64 89 67 3e
       0.13410108 -0.37612227 -0.17001873 0.22611004
0003a0 99 bd af be 8f e1 98 be 91 83 54 3e da 5e 57 be
       -0.3432434 -0.29859588 0.20753314 -0.21032277
0003b0 c2 26 b5 bd 2f 3c 27 bd cf f4 d2 3e f7 f2 83 be
       -0.08845283 -0.04082888 0.412024 -0.25771305
0003c0 dd 5e 62 be 5e f7 13 be 85 1d 65 be 12 bd c5 be
       -0.221065 -0.14449832 -0.22374542 -0.38620812
0003d0 c7 19 05 3b e1 81 43 be cf 13 ff 3e 77 39 96 3d
       0.0020309554 -0.19092514 0.498198 0.07335179
0003e0 3a 01 59 be f4 77 bb be 61 ea b4 bd 99 69 bf bd
       -0.21191874 -0.36614954 -0.08833767 -0.09346313
0003f0 9f f5 99 bd 95 d3 86 3e 01 b1 91 3d 3c 1d 38 be
       -0.07517552 0.263333 0.07113839 -0.17979902

network_body.observation_encoder.processors.0.dense.0.bias f4 [128]
000000 0b cc da 3b 79 a6 48 3c 12 57 c8 3b d7 3c 0f bc
       0.006677156 0.012246721 0.006113895 -0.008742533
000010 66 f8 fe 3c ed 70 22 bc 34 0f b1 3b 25 79 84 bc
       0.031124305 -0.009914619 0.0054034237 -0.016171047
000020 5c 7d 80 b9 97 3d b5 3c de fd bb 3b b3 47 e7 3b
       -0.00024507463 0.022124095 0.0057370504 0.0070581078
000030 17 bc b4 bc 57 22 35 bb 5d 42 11 3c c9 4a 22 3c
       -0.022062344 -0.0027638876 0.00886592 0.0099055255
000040 98 c3 5e bb f6 f4 62 bb e6 06 2f 3c 5c 73 1d 3c
       -0.0033991095 -0.0034630871 0.010682797 0.009610023
000050 7f b5 58 3c 01 16 92 3b e5 49 e2 3b a3 8b 1d 3a
       0.013226866 0.0044581895 0.0069057816 0.0006009882
000060 75 34 ee 3c 0d 2d c3 3c ab 34 e7 3a 02 2c 14 ba
       0.029077748 0.023825193 0.0017639598 -0.00056523096
000070 4c 43 1c bc b2 10 3e 3c a5 7d ea bb 9b f0 13 3c
       -0.009537529 0.01160066 -0.0071560913 0.009029533
000080 69 f3 f7 3b c9 f1 1a 3c d0 f1 19 3c 60 e1 2b bb
       0.0075668585 0.00945706 0.0093960315 -0.0026226863
000090 85 46 c4 3c b6 d8 43 ba 01 f1 30 bc eb 6d 36 3c
       0.023959408 -0.0007470952 -0.010799647 0.011134605
0000a0 40 91 28 3a be be b7 3b 57 54 0a 3d da 90 d7 ba
       0.00064303353 0.005607455 0.03377184 -0.0016446367
0000b0 b8 e2 17 3a 2d 9e cd 3b 6c 4a 0f 3c 6b 3c e8 3c
       0.00057939766 0.0062749595 0.008745771 0.028349122
0000c0 e2 0d 32 3c d8 82 7e bc c3 c3 33 3c 89 8a 98 bb
       0.010867568 -0.015534125 0.010971966 -0.0046551866
0000d0 9e f5 1a 3c f7 4d 2f 3b e0 06 f9 3b c8 6e 01 3d
       0.009457974 0.0026749352 0.0075996965 0.03159979
0000e0 d5 0a 52 ba 0f 30 56 ba 84 00 1d 3c 92 19 81 3c
       -0.00080124784 -0.00081706134 0.0095826425 0.015759263
0000f0 10 64 c1 3b cc 25 18 3c 73 39 2f ba cd 26 5c bb
       0.005901821 0.009286355 -0.0006684281 -0.0033592463
000100 87 2b 13 bb 25 d6 6b bc 5d 70 12 3d 46 16 5e 3c
       -0.0022456364 -0.014394318 0.03575169 0.013555115
000110 10 b2 91 3c 65 69 08 3c 5f aa a6 3b 04 22 28 bb
       0.017785102 0.008325909 0.005086228 -0.002565504
000120 b1 93 65 3c b2 ba 81 3c c1 59 c2 3a 46 e7 dc 3a
       0.014012263 0.015836094 0.0014827774 0.0016853593
000130 d9 4e bc bb 93 b5 35 3d 4d 92 d9 b8 aa f5 e6 3b
       -0.005746704 0.044362616 -0.00010374617 0.0070483284
000140 dd 8c f8 3c 39 ed 16 3b e7 0d 01 bc dd 78 89 3b
       0.030340606 0.002302958 -0.00787685 0.004195316
000150 c6 bd dc 3c fe cb af 3b 87 a1 c2 3b bf d2 4c 3b
       0.02694596 0.005364894 0.0059396657 0.0031253544
000160 3a e1 ba 3b ed 7e 60 3c 2c 0b c0 ba c5 3f db 3b
       0.0057031186 0.013702136 -0.0014651767 0.0066909515
000170 0b 99 45 bb 88 7b 21 3c ec ae ce bb 8f 5f 02 3c
       -0.0030151035 0.009856112 -0.0063074734 0.007957353
000180 10 26 01 ba aa 36 07 3c 8d 25 1d bc 68 e6 c1 3a
       -0.0004926631 0.008252779 -0.009591472 0.0014793398
000190 ac 3e 87 3c c2 b8 83 3c 1d 0a e3 3b 98 9c 9d 3b
       0.016509376 0.01607931 0.006928696 0.004809927
0001a0 c6 a3 87 3c 4e 10 b9 bb f5 54 00 3c d3 73 41 3c
       0.016557585 -0.0056476956 0.007832755 0.0118074
0001b0 dd 70 60 ba 8a f6 9e bc 9c 4a 55 3a 95 c5 11 3c
       -0.000856174 -0.019404668 0.0008136423 0.008897205
0001c0 fb 18 09 bc 26 a9 ce 3c 27 46 48 3c a7 16 4b 3c
       -0.008367772 0.02522714 0.012223757 0.012395537
0001d0 a1 14 ea 3b 5e 44 20 3c 70 31 3b 3b d0 99 80 3c
       0.0071435724 0.009781925 0.0028563403 0.015698344
0001e0 1d c7 11 bb cc e3 b0 3c 2f 67 2b 3c 7f 59 24 3c
       -0.0022243925 0.021592997 0.010461613 0.010031103
0001f0 2d 30 14 b9 a7 8e 01 3d 93 06 22 3c 18 f0 d1 3c
       -0.00014132327 0.031630185 0.009889263 0.025627181

network_body._body_endoder.seq_layers.0.weight f4 [128, 128]
000000 2a 69 fe 3d a1 68 18 be 99 36 b0 bc 80 a3 23 3e
       0.12422402 -0.14883663 -0.02151041 0.15980339
000010 05 df 8e bd 32 a3 ca 3d 50 d4 00 bc 54 46 a1 3d
       -0.06976131 0.09894408 -0.007863119 0.07874742
000020 cc 62 b2 3d 60 33 94 bd fa 23 c9 bc 38 2b 65 3d
       0.0871025 -0.072363615 -0.024553288 0.05594942
000030 8e 17 9e 3d 9b 0b b4 3d 56 e8 05 be fe 54 3d 3d
       0.077193365 0.08791276 -0.1307691 0.046223633
000040 5c 81 e0 3b a5 a2 80 3d 0b 79 bc bc 7b 71 d5 3d
       0.0068513583 0.06281022 -0.023006937 0.10422035
000050 d7 da b2 3d d4 3e 0d bc 2f af 66 3d 98 d8 9f bd
       0.08733147 -0.008620936 0.05631941 -0.07804984
000060 36 f4 83 bc a1 4f 1f 3d 18 5d 39 3c e0 0a 12 3c
       -0.01610766 0.0388943 0.011313699 0.008913726
000070 04 78 01 3c 09 da 22 bd 2d 90 c6 bd b5 bf 9c 3c
       0.007902149 -0.039758716 -0.09695468 0.019134382
000080 99 e2 3e bd b5 53 90 bd 49 bf 22 be 17 08 01 be
       -0.04660282 -0.07047216 -0.15893282 -0.12600742
000090 e9 b5 e1 bc e7 26 32 3c d5 10 9f bc c0 31 29 3d
       -0.027552562 0.010873533 -0.019417206 0.04130721
0000a0 12 5b 34 3d 23 55 08 3e df b9 58 3d b5 d6 21 3c
       0.044032164 0.13313727 0.052911635 0.00987785
0000b0 46 eb 19 bd d7 fa 16 bd dd 6b 2d 3d 6c db d5 3c
       -0.03757789 -0.036860313 0.042339195 0.026105605
0000c0 61 d7 ee bd 59 25 a8 bd c9 c9 24 3c 31 92 26 3e
       -0.11662174 -0.082102485 0.010057875 0.16266705
0000d0 5e 1a c6 bd a8 65 52 bd 6d d6 a3 bd 6c 34 59 be
       -0.09672998 -0.05136648 -0.07999883 -0.21211404
0000e0 c9 fa b1 bd 8d 3e 36 be 7d 89 96 bd e2 cd 1b be
       -0.086904116 -0.17797299 -0.073504426 -0.15215257
0000f0 8c 89 70 bd e6 7b 48 bc bc 01 41 bd 7e 3b 80 3c
       -0.058724925 -0.012236571 -0.047120795 0.015653368
000100 f3 53 28 bc 34 7c 3e 3d 98 34 a5 bc 7f f7 51 bc
       -0.010273921 0.046505168 -0.02016668 -0.012815355
000110 e9 f3 9f 3d b2 e3 8c 3d 5f 69 09 3e f2 ea 18 3e
       0.07810194 0.06879367 0.13419102 0.14933375
000120 12 f4 4d 3d 04 22 2f 3d 6b cf 2b be d8 a5 9c 3d
       0.05028159 0.04275705 -0.16778342 0.0764882
000130 8a 38 a1 bd a3 74 4e 3d 80 fe a7 bc df 7c d6 bd
       -0.07872112 0.050404202 -0.020507097 -0.10473036
000140 ba ff 8f 3d 90 8d 6c bd 5f 4c c8 3d d0 5a dc bb
       0.07031198 -0.057752192 0.09780192 -0.006724693
000150 1e 05 91 3c 0c ff 39 bd e5 36 eb bd 2a 5b e4 bd
       0.017702635 -0.045409247 -0.1148508 -0.11150201
000160 5b ef 16 bc 33 44 f1 bd 8b d0 50 3d 52 66 99 3d
       -0.00921234 -0.11780586 0.050980132 0.07490219
000170 83 c0 2d 3d a2 db 04 bd a5 d1 cf 3d 4e b3 66 bd
       0.04241992 -0.03243602 0.101474084 -0.056323342
000180 d2 7b 35 3d f3 4f 86 3e ec f7 ae bd b4 c2 af 3d
       0.044307537 0.2623287 -0.08543381 0.085820585
000190 e5 4c ce 3d 32 4b 03 3d e7 35 db 3d 50 46 47 bd
       0.1007326 0.032054134 0.107036404 -0.04865104
0001a0 b9 0e 1a be 60 f4 14 3e 4e 44 86 bd 92 9e 99 3d
       -0.15044679 0.14546347 -0.06555997 0.07500948
0001b0 7d 58 74 3d 71 3a dd 3d f0 06 47 3e 79 6f 80 bc
       0.0596547 0.108021624 0.1943624 -0.015678154
0001c0 79 08 04 be f2 ca 80 bd 63 be 14 be d6 ba 1a 3d
       -0.12893857 -0.06288709 -0.14525752 0.037775837
0001d0 93 47 eb 3d ea be 23 3e 7c a7 1c 3e 02 e4 f2 3c
       0.11488261 0.15990797 0.15298265 0.029649738
0001e0 83 60 b5 bd 0b a9 00 be a0 51 9a 3d b9 50 c5 3c
       -0.08856299 -0.12564485 0.075351 0.024086343
0001f0 57 10 c2 bc 64 1d 33 3d ee 49 e2 bd 9d 61 02 bd
       -0.023689432 0.0437292 -0.11049257 -0.031831373
000200 e4 fa 4b 3d 29 9a f3 bc 20 3a 65 bd 4d c7 6b 3d
       0.049799815 -0.029736595 -0.055963635 0.057563115
000210 17 84 b8 bd a9 60 91 3c 77 fc d3 3d 2c 46 82 3a
       -0.09009569 0.017746286 0.10350888 0.0009939126
000220 36 52 b0 bd b1 97 5e bc 9c e5 24 3d 71 4e 49 3c
       -0.086094305 -0.013585971 0.040258035 0.012286768
000230 03 81 9f bd 1d 1f 07 bd 49 64 9c bd 04 dd b0 3d
       -0.07788279 -0.032988656 -0.076363154 0.086359054
000240 1f c6 9f 3c 41 a7 e3 bd ca fd ba bd 61 fd 09 be
       0.019503651 -0.111158855 -0.09130438 -0.13475563
000250 26 e2 bb 3c 03 46 18 3e ab f2 0b 3d 76 7d aa 3d
       0.022934984 0.14870457 0.034166973 0.08324711
000260 22 7d cb 3d 51 ed aa ba a8 35 18 be fc 7f 41 3d
       0.099359766 -0.0013040697 -0.14864218 0.047241196
000270 ef ec dd 3b cd 57 f5 bd cb ab 1c 3e 73 97 02 be
       0.0067726295 -0.11979637 0.15299909 -0.12753086
000280 ab ff a5 3d 5a 07 cf bc 80 94 6f 3d 43 99 9e bd
       0.081054054 -0.02527206 0.05849123 -0.07744076
000290 85 52 21 bc e5 61 ea bd 24 1e 60 3a 46 2b aa 3d
       -0.009846334 -0.11444453 0.0008549413 0.08309035
0002a0 c7 f2 15 be ac 0c 7b 3d 2f 01 67 3e 09 a0 86 bc
       -0.14643393 0.06129138 0.22559045 -0.016433733
0002b0 d6 05 ba bc 6a 75 15 bd 41 2c 19 3e f1 46 c6 bc
       -0.02270786 -0.036488928 0.14958288 -0.02420375
0002c0 61 79 be 3d 1c cb 17 3d 47 a7 6a bd 64 27 cf 3d
       0.09300495 0.037058935 -0.057288434 0.10114935
0002d0 a4 c9 16 3e 95 ad 56 bc 43 0b ce bd 3b b8 3f bd
       0.14725357 -0.013102909 -0.10060742 -0.046806555
0002e0 f4 26 24 3b 6e 5e cd 3d 56 53 3d 3d 2d b9 56 be
       0.0025047632 0.10027777 0.046222053 -0.20969076
0002f0 c6 3f 8d 3c 3b f1 28 3d 7d 27 0a 3e a5 8a 5c 3d
       0.017242324 0.04124568 0.13491626 0.05384316
000300 f7 5d 02 be 63 d1 44 3e f4 b9 21 be 23 78 fd 3c
       -0.12731157 0.192205 -0.15793592 0.030941075
000310 f2 b2 f6 3d dc cd 20 3e 3e d7 38 3d 61 2e 48 be
       0.1204585 0.15703529 0.045127146 -0.19548942
000320 a3 dc d7 bc a3 df de 3d 60 b2 27 bd a1 4b 93 bd
       -0.026350325 0.10882499 -0.040941596 -0.071921594
000330 f9 d0 0c be c3 ce f5 bd 98 ab a7 3d 7d b2 62 bd
       -0.13751592 -0.12002327 0.08187026 -0.055346
000340 06 cc 4c be 49 cc 3b 3e 0b 7d 95 3d ba 85 94 3b
       -0.19999704 0.18339647 0.07299241 0.004532543
000350 b3 bb 56 3d 16 ce 58 bc 35 10 95 3c 09 51 ab bd
       0.052425098 -0.0132327285 0.018196205 -0.083650656
000360 4f b7 09 3e cf 8f 86 3b 97 e2 2f 3e c3 38 6d bb
       0.13448833 0.004106499 0.17176281 -0.0036197163
000370 d4 54 c7 bc bd 6f 57 bb 9e 49 5a bd 64 c3 bb 3d
       -0.024332441 -0.0032872998 -0.053292863 0.09168127
000380 33 73 dd bc b6 7c 4b bd 6a 46 0c be 31 56 1e 3d
       -0.02703247 -0.04967948 -0.13698736 0.038656417
000390 66 d5 91 3d 87 2d 5b 3d 8e 75 a8 3d 04 55 f6 3c
       0.07120781 0.053510215 0.08225547 0.030069835
0003a0 27 88 99 bd 11 0d 49 bc c8 e7 31 3d 50 78 98 bd
       -0.07496672 -0.012271182 0.043433934 -0.07444823
0003b0 b6 f8 88 3d 8a f3 1d bc d8 41 a6 3d 49 3d 15 be
       0.06688063 -0.009640584 0.081180274 -0.1457416
0003c0 da 4e 86 bd f0 26 00 3d c2 24 fd bd 29 dd b9 bd
       -0.065580085 0.031287134 -0.123605266 -0.09075386
0003d0 eb 4a b7 3d 1a bc 44 3d c1 c7 73 bd 05 d9 42 bd
       0.08949836 0.04803095 -0.059516672 -0.047570247
0003e0 6d 63 1c 3d a0 46 a9 3d f9 25 13 be 5d f5 06 bd
       0.038180757 0.08265424 -0.14369954 -0.03294884
0003f0 e3 df 63 bd 00 f2 21 3e 57 75 1f 3d 0e 8c 92 bd
       -0.055633437 0.15814972 0.038930263 -0.071556196

network_body._body_endoder.seq_layers.0.bias f4 [128]
000000 f8 00 86 bc c0 11 89 3a 4e 6f 99 bb cd 63 cd 3b
       -0.016357884 0.001045756 -0.004682458 0.0062680007
000010 98 35 f0 3b 40 a4 f7 3b d1 b6 83 ba 71 74 ce 3a
       0.0073306076 0.007557422 -0.001004899 0.0015751255
000020 90 41 e4 3b 5d 31 93 3b 18 81 81 3c f6 26 82 bb
       0.0069658235 0.0044919685 0.015808627 -0.0039719297
000030 84 cf 08 bb da 0e 60 3c 24 2d 06 bc 51 7f d7 3b
       -0.0020875642 0.013675416 -0.008189473 0.0065764566
000040 28 a8 23 3c 4d fd 9e 3c 42 74 6b 3c e1 5a 0f bc
       0.009988822 0.019407893 0.01437098 -0.008749695
000050 f5 39 63 3b 54 7c 58 bc 7d f4 2b bc 3e 8f bc bb
       0.0034671996 -0.013213236 -0.010495302 -0.0057543805
000060 c5 00 69 bc 87 0e 2e bc 1c e7 4e bb 9d 54 3c 3c
       -0.014221375 -0.010623581 -0.0031570857 0.011494783
000070 95 da 04 3c 52 4b 21 3c 10 85 56 3c 53 72 87 3c
       0.008108755 0.009844618 0.013093248 0.016534006
000080 f1 00 b2 3b f8 c8 22 3c 9c a9 34 3b 95 77 1f 3c
       0.005432241 0.00993561 0.0027566915 0.0097331
000090 8e 81 38 3a 00 4f 45 3c cc 95 9a 3b 8c bd 39 3c
       0.0007038348 0.012042761 0.004717564 0.011336695
0000a0 dd ee 89 bb a0 cf a3 3c 84 39 c2 3b 8a ea c8 3b
       -0.004209383 0.019996464 0.0059272666 0.006131475
0000b0 a2 86 b8 bb ed e2 72 bb 2b f8 3f bc bd f9 19 bb
       -0.005631284 -0.0037061528 -0.011716883 -0.0023494803
0000c0 d3 3b 25 3c b9 18 4e 3a 53 5a 7f 3c 60 80 10 bc
       0.010085064 0.00078619603 0.0155855 -0.0088196695
0000d0 ef d9 ea 3b fc d8 59 ba 4e 08 5e 3c 43 f6 ad 3b
       0.007167093 -0.0008310226 0.013551785 0.0053088977
0000e0 51 d9 59 b9 3e 0e e2 ba 64 da c3 bb 01 13 4d 3a
       -0.0002077569 -0.0017246676 -0.005976962 0.0007822961
0000f0 27 b2 52 bc 33 cc ab bb 92 da 6d bc 33 9c 6d 3b
       -0.012859858 -0.0052428483 -0.014517443 0.0036256432
000100 78 06 7d bb 9b fd 67 bc 92 09 0f 3c 6a 81 17 3c
       -0.0038608592 -0.014159585 0.008730309 0.009247163
000110 15 fe 5d bc c0 b0 91 bc 2a 57 7a bc 7c 61 35 3c
       -0.013549347 -0.017784476 -0.015279571 0.011070605
000120 0e a7 12 bc 98 af 02 bc 9f 42 16 3c f4 eb 09 bb
       -0.008950962 -0.007976435 0.009171157 -0.002104518
000130 ac ce c7 3b 57 4c 18 3c d9 97 7b 3c f3 40 b4 ba
       0.0060976353 0.009295545 0.0153560275 -0.0013752267
000140 20 0c 80 ba 88 20 13 3c ea 71 89 3c a7 fb 6d 3c
       -0.0009769239 0.008979924 0.016777951 0.014525331
000150 0a 05 56 3c f4 73 61 bb 69 01 8a 3b 59 1d 4d bb
       0.013062725 -0.003440139 0.004211594 -0.003129801
000160 04 b4 4e 3c 21 d9 c0 bb f9 ca 5a 3c 90 78 44 bc
       0.012616161 -0.005885259 0.0133540565 -0.011991635
000170 d7 73 6f bc c3 93 03 3b 00 d0 fb b9 27 04 ad 3a
       -0.014615021 0.0020077087 -0.00048029423 0.001320009
000180 a6 59 9c 3c 4c 5e d7 3b 1e 05 de bb da ca 86 3a
       0.019085716 0.0065725204 -0.0067755124 0.0010283843
000190 38 0e 27 3c c2 7d da bb 23 d7 8c 3c 2e ca ef 3a
       0.010196261 -0.0066678235 0.017192429 0.0018294507
0001a0 18 92 de 3b e7 ab be 3b 1d df c8 39 ad 28 1b 3c
       0.006792318 0.005818832 0.00038313205 0.009470147
0001b0 86 e4 06 3c b1 dc 8a 3b 33 ff 65 b9 41 a4 56 3a
       0.008233195 0.0042377342 -0.00021934211 0.0008187928
0001c0 c8 5b 59 bc 12 c6 4f bc e3 6b 45 3c f9 98 c6 3b
       -0.013266511 -0.012681501 0.012049648 0.006060716
0001d0 9b 56 9c 39 87 17 e2 3b c2 84 83 3c 2d 8d 64 3b
       0.00029819165 0.0068997773 0.016054515 0.0034874186
0001e0 60 41 f1 bb ea 83 3b 3c b1 e3 ba 3c a3 dc 0e bc
       -0.0073625296 0.011445025 0.02281365 -0.008719596
0001f0 1d eb 54 3c 7b 0c bb 3c b6 5a a5 3b cd 01 e7 3b
       0.0129955085 0.0228331 0.005046214 0.007049775

network_body._body_endoder.seq_layers.2.weight f4 [128, 128]
000000 25 b6 80 bd 15 e4 30 3e e5 4a 5c 3e f7 e5 28 3d
       -0.06284741 0.17274506 0.21512945 0.041234937
000010 e3 a7 16 3d d5 2a 01 3e 26 02 c6 bd 46 18 02 3d
       0.036781203 0.12613995 -0.096683785 0.03176143
000020 2b 03 4d 3b b1 fa b3 bd 17 7f c5 3d 59 01 ba bd
       0.0031282406 -0.0878805 0.09643381 -0.09082288
000030 5b 7c 06 3d f9 14 a2 3c c2 fd 77 3d 2d 2a e0 3d
       0.03283344 0.019785391 0.060544737 0.109455444
000040 8a 69 6a bc 7a 6e 95 b9 d9 e4 b6 bd b1 ec bd bd
       -0.014307389 -0.00028501806 -0.08930368 -0.09273661
000050 59 f3 85 3d 93 9d 89 bc ad 80 bc 3c bc 2f d8 3b
       0.065405555 -0.01679877 0.023010576 0.0065974873
000060 ec 11 c0 bd 5e d9 7c bc ce 27 86 3c 10 b0 28 3d
       -0.09378418 -0.015432684 0.016376402 0.04118353
000070 21 90 0e bb e2 b3 36 bd a5 44 ab 3d cd e5 b7 3d
       -0.0021753388 -0.044605143 0.08362702 0.08979378
000080 c4 ae 87 bd 3f 89 60 3c 7b 36 dc bd b9 1f 01 3d
       -0.06625131 0.013704597 -0.10752579 0.031524394
000090 7e a9 33 be 99 b3 e6 3d 5c 0f ef bd e4 34 8c bc
       -0.17545125 0.11264724 -0.116728514 -0.017115064
0000a0 75 63 c9 bd b6 cb 61 3b ae 08 5e bd c2 17 4e bd
       -0.09833423 0.0034453697 -0.054207496 -0.050315626
0000b0 ad f2 fd 3d 22 2d df bc 81 ce ab 3d 26 c2 97 3c
       0.12399802 -0.0272432 0.08388997 0.018525194
0000c0 0b 4c 36 bd 63 9a ca 3d 05 f7 86 3c da de 38 3e
       -0.044506114 0.09892728 0.01647521 0.18053761
0000d0 a7 21 51 bd 45 f5 f6 3c d5 b7 c0 3c af c6 3c 3e
       -0.051057484 0.03014625 0.023525158 0.18435167
0000e0 72 43 04 bd 96 a6 ff 3c a3 17 82 bd db e4 5a 3d
       -0.032290883 0.031207364 -0.063521646 0.05344091
0000f0 5c 56 84 bd f9 c9 84 bd ff a4 55 bc 58 d4 61 3d
       -0.06461784 -0.06483836 -0.013039826 0.055134147
000100 a4 7b 92 3d 96 09 f8 bd 71 9e 48 b9 67 59 b0 3c
       0.07152489 -0.12111203 -0.0001913251 0.021527005
000110 4c 43 ef bd 8a 0a c0 3d e3 a0 8d 3c 0a f5 3a 3e
       -0.11682758 0.0937701 0.01728863 0.18257537
000120 8e 0a 9c 3d da 9e cb 3d e7 f2 f5 3d 3d a3 14 3e
       0.07619201 0.09942408 0.120092206 0.14515395
000130 5f df 07 3d 70 9c 9a 3d c8 23 13 be 70 b5 49 bd
       0.033172008 0.07549369 -0.14369118 -0.049245298
000140 74 c6 33 3e 56 a4 1f 3d ae b0 91 3d 37 51 14 3e
       0.17556173 0.038975082 0.07113777 0.14484106
000150 e9 57 8d bd fa b2 ba 3c 0c 6c 4c 3d 16 b4 17 be
       -0.06901533 0.02279042 0.04990773 -0.14814791
000160 0e d5 b2 3c 4d b1 25 3e 39 56 30 bd 55 7d 64 be
       0.021830108 0.16180916 -0.04305098 -0.22313435
000170 d1 5b 8d bd 46 26 36 3d 9c 0b 89 3e be ed f7 bc
       -0.06902278 0.044470094 0.2676667 -0.030264731
000180 bd 87 33 bc 6a 86 df bc 4c b8 e0 3d 70 26 b7 3c
       -0.0109576555 -0.027285773 0.10972652 0.022357196
000190 04 65 a0 3d c4 01 ad 3d 2e d3 0b be 02 c6 0e be
       0.07831767 0.084476024 -0.13654777 -0.13942721
0001a0 28 94 13 3e e0 f3 08 bd ea 3f 38 bb c8 82 0f be
       0.14411986 -0.033435702 -0.0028114268 -0.14014733
0001b0 8c 0d c4 3d 94 eb dc bd c1 3f d2 bd 66 50 59 bd
       0.09572896 -0.107871205 -0.10266066 -0.05305519
0001c0 e5 0d 71 3e 88 df a8 bd 39 82 08 be 06 70 79 3e
       0.23540457 -0.0824576 -0.13330926 0.2435914
0001d0 30 d2 40 3d 64 40 25 be 94 e8 39 3e 50 a4 17 be
       0.04707545 -0.16137844 0.18155128 -0.14808774
0001e0 9b e7 5a bb 45 49 d5 bd 1d b9 ff 3b b5 31 16 3e
       -0.0033402208 -0.10414366 0.0078040496 0.14667399
0001f0 b7 5f 6c bd 81 47 5f 3d 86 df bd bb 88 5c 8d bc
       -0.05770847 0.05451155 -0.0057944683 -0.017256036
000200 d6 11 f4 3d 95 6d 58 bd fa 4e 9b bd e4 ff 9b 3d
       0.119174644 -0.05283888 -0.07583423 0.07617167
000210 cc 87 f6 3c 14 82 1f bd 82 e1 83 3b d3 9b 97 3d
       0.03009405 -0.03894241 0.0040246854 0.07402768
000220 88 3c e8 bc 17 3e 14 3d 17 14 d2 3d 6d a8 d3 bc
       -0.028349176 0.036192026 0.10257738 -0.025837148
000230 0d b7 32 3e c4 91 c6 3d 63 59 5d 3d 20 88 cb bb
       0.17452641 0.09695771 0.054040324 -0.0062112957
000240 b8 b7 10 3e 7c 78 f8 3d ba 72 12 3e e5 8d 08 3b
       0.14132583 0.121323556 0.14301577 0.002083653
000250 ee da e6 bc 34 6f e3 3c a1 d4 ad 3c d2 c3 0b be
       -0.028180566 0.027762987 0.021219553 -0.13648918
000260 62 3a e0 3b 3d f9 a2 3d f2 99 74 3d 8d cc 67 bd
       0.0068428973 0.07957695 0.059717126 -0.05659156
000270 6f 2a 1f bd 24 eb b0 bd 95 b6 a9 3d 13 b3 71 bd
       -0.038858827 -0.086385995 0.08286778 -0.05900867
000280 d4 1e 50 3d d5 96 24 3e 19 e4 51 3d 3d fd 81 bd
       0.05081065 0.16073163 0.05124292 -0.063471295
000290 38 b0 e0 3d 62 78 f4 3d ae a6 88 bc 21 81 9f 3d
       0.10971111 0.11937024 -0.016681042 0.07788301
0002a0 e1 01 17 3b c5 ea f9 bd 8f 3b 0d bd c5 d1 de bd
       0.0023041891 -0.12202982 -0.034480628 -0.10879854
0002b0 b8 3f 2b bb bb cc 0e ba 48 33 69 bd 71 18 62 bc
       -0.0026130509 -0.00054473773 -0.05693367 -0.013799773
0002c0 13 a7 16 3e bc e3 6e bd c4 5f e2 3d 7f e5 3f be
       0.14712171 -0.058322653 0.11053422 -0.1873989
0002d0 93 08 0b bd 02 fe b6 3d 88 a7 08 3e 98 76 09 3e
       -0.033943724 0.08935167 0.13345158 0.13424146
0002e0 a0 1f a2 3c df 22 e8 3c 01 66 52 be 66 a8 08 bd
       0.01979047 0.02833694 -0.20546724 -0.033363722
0002f0 ec 83 9e bd 58 c4 1f bd c2 5d 7f 3d 8d 01 ad 3d
       -0.07740006 -0.039005607 0.062345274 0.084475614
000300 a5 f3 c3 3d bb 8e eb bd aa eb 42 be 78 48 55 3d
       0.09567956 -0.11501833 -0.19035211 0.052071065
000310 9c aa 87 bc a0 6e b5 3d 56 7c 0e 3d 04 cc d6 3d
       -0.016560845 0.08858991 0.034786545 0.10488132
000320 dc 91 a6 bd 64 73 be bd 06 56 3f bd e9 29 db bd
       -0.08133289 -0.09299353 -0.046712898 -0.10701353
000330 c5 54 84 bb 0d a4 1b 3e 41 85 97 3d 67 a0 41 be
       -0.0040384256 0.15199299 0.07398463 -0.18908845
000340 0f 6f 62 bd 71 25 c5 bd 3e c1 12 3d da a4 fe 3b
       -0.055281695 -0.09626282 0.03582882 0.0077711167
000350 27 b5 f0 3c e3 51 17 3d db 3c 28 be 02 0b 1d be
       0.029383255 0.036943328 -0.16429465 -0.1533623
000360 7a 06 d2 bd 95 bb 53 bd 92 25 36 3e 7e 98 65 3c
       -0.102551416 -0.051692564 0.1778777 0.014013408
000370 6d 02 3d 3a 76 9c f7 bd af 3c 7b be d7 56 a7 bd
       0.00072101393 -0.120903894 -0.24534868 -0.0817086
000380 33 e9 d9 3d 5d 5e f1 3b 4c 72 12 be ba 48 2f bd
       0.10640182 0.0073659853 -0.14301413 -0.042793967
000390 67 f5 ce 3d af 11 c4 3d 17 8a 22 bc 5f 16 ff 3c
       0.101054005 0.095736854 -0.0099206185 0.031138597
0003a0 6f 74 02 bd 6c af d8 3d 37 47 a6 bd 7f cd c9 3c
       -0.03184932 0.10580334 -0.08119052 0.024634121
0003b0 ab a8 6c bd 50 fd 63 3d 88 02 5c bd 81 5b 96 3d
       -0.05777804 0.0556615 -0.05371335 0.07341672
0003c0 7e fc 38 be 78 ce 04 3e fd 7c e9 3c e6 13 70 bd
       -0.18065068 0.12969387 0.028501982 -0.058612727
0003d0 3b 51 55 3e 67 81 a1 bd 42 2e 32 3d 36 6a bb 3b
       0.20831768 -0.0788601 0.043501146 0.0057194484
0003e0 ef 57 c4 ba 7b d3 20 3d ae 3a a9 3d 67 5b 96 3c
       -0.001497982 0.039264183 0.082631454 0.01835413
0003f0 66 02 24 3e b6 d0 8c bd bc f3 44 3e 5d 7e 1b 3e
       0.1601654 -0.06875746 0.19233602 0.15184923

network_body._body_endoder.seq_layers.2.bias f4 [128]
000000 d3 7a 5b bb c1 d3 80 3c cb d4 25 3c a2 a6 f3 3b
       -0.0033489957 0.015725972 0.010121535 0.0074356357
000010 f9 27 5a ba 7f 51 48 3c 90 8e a9 bb a0 8f 17 3c
       -0.00083219964 0.012226461 -0.0051744655 0.009250551
000020 59 25 12 3a 5d 91 2f 3c 04 73 ea 3a 0a 69 c5 ba
       0.0005575023 0.01071581 0.001788706 -0.0015061211
000030 9d 0e 2e 3c 57 35 7b bc c4 56 64 3a b6 84 d5 bb
       0.010623601 -0.015332541 0.0008710439 -0.0065160645
000040 60 a6 02 bb 1e 97 a2 3b 2b 36 a0 3c fe d1 fd b9
       -0.0019935593 0.004961862 0.01955708 -0.00048412377
000050 49 5a a8 bb ef 95 51 bb 5e 4d ee ba ef 23 4d ba
       -0.005137716 -0.0031980237 -0.0018181016 -0.0007825484
000060 6c f2 9d 3b 2d 81 dc bb 2c 27 ac bc f3 6e 05 bb
       0.0048201587 -0.006729266 -0.021014772 -0.002036032
000070 ca 7d 16 ba 64 ed 94 3c c9 d7 24 3c bd d0 5b bc
       -0.000574079 0.018179603 0.010061213 -0.013416466
000080 4b 46 1c bc 83 ab ad 3c 51 04 23 bb 30 04 05 bb
       -0.0095382435 0.021199947 -0.00248744 -0.0020296685
000090 67 7d 08 bc 3a ef 54 3c 95 f6 a0 bc d9 4c 1d 3c
       -0.0083306795 0.012996489 -0.01964883 0.009600841
0000a0 6e 2b 59 3c 7d 19 39 bb 87 75 22 bc 37 62 7b 3c
       0.013254983 -0.0028243952 -0.009915716 0.01534324
0000b0 a5 9a d6 bb c3 53 df 3c 5e 28 09 3a 70 c4 24 3c
       -0.006549197 0.02726162 0.00052321504 0.0100566
0000c0 ae 72 f3 bb c3 5e 7d bc 6e fd 8c ba 33 3e f1 ba
       -0.0074294424 -0.0154644875 -0.001075668 -0.0018405378
0000d0 7d 7c 97 bc 75 de b4 3c 13 95 d4 bb 97 b8 cd 3b
       -0.018491978 0.022078732 -0.0064874976 0.0062781083
0000e0 41 7e 1d 3c 61 a9 f8 bb 30 b3 36 3c 77 3c 42 bc
       0.009612621 -0.007588551 0.01115112 -0.011855236
0000f0 4b 36 fa bb 9b e1 d3 3b a3 8d 36 bc a8 4f ff bb
       -0.0076358668 0.0064661033 -0.011142167 -0.007791478
000100 5e f2 b0 3b 27 34 cc 3a 43 e5 30 bb 85 2b 28 3c
       0.005399986 0.0015579507 -0.002699212 0.010264282
000110 7b 8b b0 b9 89 40 25 bb 00 64 b2 3c 10 17 1c 3c
       -0.00033673257 -0.0025215468 0.0217762 0.009526983
000120 1f 4c 89 bb ba 88 0b ba 0d b2 38 bc 72 7e 75 3c
       -0.0041899825 -0.0005322803 -0.011272919 0.01498376
000130 aa 4d ce 3a 05 66 bd 3b ac 3f 61 3c d3 00 9b b9
       0.0015739698 0.005779984 0.013748091 -0.00029564518
000140 9d b5 20 bc e6 2d f4 bb db 4a 6f 3b 47 6e b8 3b
       -0.009808925 -0.0074517606 0.0036513123 0.0056283805
000150 be 5a e4 3b 86 16 76 3c 9e cf 7b bb be 9c 72 bc
       0.006968825 0.015020018 -0.003842331 -0.014807878
000160 7d 2d ed 3b d8 93 8d 3c ea a6 ca 3b 02 4f 40 3c
       0.0072380886 0.017282411 0.0061844485 0.011737587
000170 9f ef 65 3c 68 ee 96 3c bb e3 93 3b 5c c2 d6 bb
       0.014034181 0.018424228 0.0045132316 -0.006553931
000180 12 c8 8c bb 61 06 93 3c 8b 20 76 3c 20 40 23 3c
       -0.004296311 0.017947378 0.015022407 0.009964019
000190 0a db 8f 3a bc 81 12 3c 05 6c 2e bc fa bb 06 3b
       0.0010975313 0.008942064 -0.010645871 0.002055882
0001a0 28 ba 1c bc b5 01 36 bc 23 21 8c 3c 39 0f 6f 3c
       -0.0095658675 -0.011108805 0.017105645 0.014591032
0001b0 9b d2 f6 ba 02 96 05 bb ba f6 99 39 8d 8e c3 3b
       -0.0018831076 -0.00203836 0.0002936626 0.005967921
0001c0 43 be 93 3c 47 e6 60 bc 0e 2e f8 bb d1 92 47 bc
       0.01803506 -0.013726777 -0.0075738495 -0.012181
0001d0 fc a9 b5 3c 55 2b b2 3c 20 10 57 3c ef 35 6f bc
       0.022175781 0.021749178 0.013126403 -0.014600261
0001e0 6f f2 8d bc 8b 6d 8e bb 12 71 76 bc bb b9 cb 3b
       -0.017327515 -0.0043465546 -0.0150416065 0.006217209
0001f0 c3 0f e3 3b 78 1f 45 bc 65 d6 bd ba 1b 2c 46 3c
       0.006929369 -0.0120314285 -0.001448345 0.0120954765
