results/AttackerDefender_Skill1_v1/Defender/Defender-1499980.onnx (onnx, 891078 bytes, 17 tensors)

discrete_act_size_vector f4 [1, 2]
5.0 3.0
00000000: 0000 a040 0000 4040

network_body.observation_encoder.processors.0.conv_layers.0.weight f4 [16, 5, 8, 8]
0.0075831134 -0.035388857 -0.00910603 -0.024774764 0.038362965 -0.0894429 -0.035963755 0.01962117
-0.057760876 -0.0034275206 0.07930039 -0.0067301327 0.07282827 -0.023581235 0.06249352 0.04676352
-0.044627815 0.038728714 0.101979196 -0.032368004 0.08000777 0.03879924 0.008829027 0.05366002
0.1077722 0.08764012 0.08723155 0.10699451 0.09991325 0.009383489 -0.0401678 0.0018144111
0.0239886 0.0025178832 0.00468707 -0.0059793624 0.04826454 -0.057362247 0.10015047 0.08019772
-0.007925997 0.020813553 0.008474102 -0.03622455 0.015464008 -0.015921522 -0.08430138 0.014796289
0.119730785 -0.013004709 0.02620558 -0.028874326 -0.069131404 0.043574076 0.052837104 0.019251103
0.012083645 0.02114091 -0.043444842 -0.027628781 -0.031246128 0.0068785143 0.066904806 -0.040690366
-0.019721702 -0.028637972 -0.026322894 -0.07231863 -0.0337828 -0.005561915 0.008734279 -0.0765375
0.108469985 0.047931008 -0.007809621 0.059655834 0.03062403 0.007576704 0.04919169 0.003053176
0.017676836 -0.029514913 0.052145354 0.04325406 0.097315095 -0.009886626 -0.049872182 -0.0866221
0.060425244 0.04284986 0.0031133762 -0.06459247 -0.0030350802 0.09643517 -0.0012067069 0.05165454
0.07656589 0.0783617 -0.015865862 0.057063144 -0.04052026 0.01691925 -0.055715162 0.08517798
-0.06836806 0.023090484 -0.073567696 -0.042190827 0.011920515 -0.023452505 -0.11470116 -0.0556701
0.078024246 0.08329687 0.061718736 0.0033626729 -0.11712943 -0.031255707 0.051120225 -0.069699176
-0.06842318 0.06765344 -0.035976984 0.101568274 0.019992571 -0.061179128 0.07825325 -0.0051265857
-0.04740879 0.0003753485 0.039682526 0.031118225 0.052263238 0.010131975 -0.017305277 -0.023397002
0.12833105 0.0006090668 -0.0164407 -0.01505955 0.0019343306 -0.0151013555 -0.026030581 0.1140051
0.062332198 0.016229743 -0.013341078 0.046817187 0.11170764 0.052493654 0.007390493 -0.04005256
0.03334381 -0.024958264 -0.03589925 -0.06648062 -0.02581461 -0.03915662 0.031290144 0.021793675
0.19038263 0.078463964 -0.05162637 0.052239273 -0.03639891 -0.045180492 0.07016492 0.15386806
-0.04146876 -0.025593491 -0.004317765 0.036670156 -0.057340197 0.025242586 -0.03800621 -0.09731504
0.1849457 -0.08638118 0.03724276 -0.056850664 0.0010426666 0.023550315 -0.039737944 0.025650518
0.0053349338 -0.080325685 0.07679845 0.021312939 -0.023717323 -0.023545701 -0.036766104 -0.012197487
0.038261585 -0.021498922 -0.054843336 -0.02162588 0.05354745 -0.033572197 -0.019730631 -0.004055798
-0.02712991 0.024017878 0.045521803 -0.02474028 -0.050142862 0.012744509 -0.042860214 0.017912507
-0.046038542 -0.03207817 -0.036688298 -0.04930653 -0.008227669 0.0024824967 -0.03345324 0.036097758
-0.03372708 0.010970339 0.034896836 -0.0021127835 -0.031397738 0.020134658 0.045216657 0.012373775
0.004214093 -0.042622328 -0.047012433 -0.021573488 0.0347704 -0.03798291 -0.049513727 0.028276138
-0.038577233 0.0084502995 -0.029921874 -0.008105539 0.017257363 0.018052809 0.043761097 0.026983567
0.016083471 -0.067049555 0.006970905 0.044399455 0.027009092 -0.0064459466 0.01772327 -0.05458858
-0.04214745 0.015929267 -0.045329113 0.0066431314 -0.0083016455 0.029349461 -0.055337686 0.033472568
00000000: c47b f83b e8f3 10bd 7531 15bc 72f4 cabc
00000010: 7c22 1d3d d72d b7bd bb4e 13bd 93bc a03c
00000020: ab96 6cbd 41a0 60bb 3e68 a23d 7288 dcbb
00000030: fd26 953d 6f2d c1bc 35f9 7f3d 1b8b 3f3d
00000040: a8cb 36bd 00a2 1e3d 78da d03d 5094 04bd
00000050: 1ddb a33d f4eb 1e3d a0a7 103c 9cca 5b3d
00000060: acb7 dc3d aa7c b33d 74a6 b23d f01f db3d
00000070: 519f cc3d 35bd 193c fe86 24bd 89d1 ed3a
00000080: be83 c43c 1203 253b fe95 993b 87ee c3bb
00000090: 0ab1 453d adf4 6abd b11b cd3d b43e a43d
000000a0: 0adc 01bc 2f81 aa3c f6d6 0a3c 3260 14bd
000000b0: c05c 7d3c da6d 82bc 34a6 acbd 226c 723c
000000c0: 6a35 f53d b411 55bc 16ad d63c da89 ecbc
000000d0: c494 8dbd bb7a 323d b86b 583d 7db4 9d3c
000000e0: 7bfa 453c b42f ad3c 38f3 31bd c155 e2bc
000000f0: e1f7 ffbc 2965 e13b 6305 893d f1aa 26bd
00000100: 688f a1bc 2e9a eabc 1ca3 d7bc ca1b 94bd
00000110: d55f 0abd ba40 b6bb 391a 0f3c b1bf 9cbd
00000120: 8325 de3d 4e53 443d d9e7 ffbb ad59 743d
00000130: 3fdf fa3c 0046 f83b 3a7d 493d cb17 483b
00000140: 03cf 903c 42c9 f1bc 5e96 553d 2b2b 313d
00000150: 234d c73d 84fb 21bc c646 4cbd ed66 b1bd
00000160: 7680 773d 5683 2f3d c909 4c3b 0f49 84bd
00000170: 32e8 46bb cd7f c53d 5d2a 9eba b693 533d
00000180: 94ce 9c3d 197c a03d 20f9 81bc 0bbb 693d
00000190: 92f8 25bd 3d9a 8a3c 9535 64bd cb71 ae3d
000001a0: 8e04 8cbd 4128 bd3c a9aa 96bd 4ad0 2cbd
000001b0: 444e 433c 781f c0bc 71e8 eabd 5506 64bd
000001c0: 2dcb 9f3d 8d97 aa3d c9cc 7c3d 4a60 5c3b
000001d0: 8ee1 efbd fc05 00bd 7163 513d 71be 8ebd
000001e0: 7421 8cbd e38d 8a3d 9a5c 13bd 0703 d03d
000001f0: 76c7 a33c f796 7abd 3d43 a03d ebfc a7bb
00000200: b82f 42bd 6cca c439 258a 223d a6eb fe3c
00000210: fa11 563d 9500 263c ccc3 8dbc 12ab bfbc
00000220: 3769 033e c8a9 1f3a a6ae 86bc 55bc 76bc
00000230: 5d89 fd3a ad6b 77bc 163e d5bc 827b e93d
00000240: 0c50 7f3d 3df4 843c 8994 5abc 61c3 3f3d
00000250: fac6 e43d 9603 573d f32b f23b 270e 24bd
00000260: 8593 083d 4675 ccbc 180b 13bd fe26 88bd
00000270: 2979 d3bc b162 20bd 182a 003d a688 b23c
00000280: aaf3 423e b7b1 a03d 2c76 53bd d9f8 553d
00000290: 0617 15bd 2e0f 39bd a0b2 8f3d 978f 1d3e
000002a0: 26db 29bd 71a9 d1bc 0a7c 8dbb 7233 163d
000002b0: 8edd 6abd 8ac9 ce3c 66ac 1bbd 1c4d c7bd
000002c0: 6862 3d3e 9ee8 b0bd dd8b 183d 3edc 68bd
000002d0: 16aa 883a 97ec c03c 41c4 22bd 0921 d23c
000002e0: abd0 ae3b cb81 a4bd 8148 9d3d 7998 ae3c
000002f0: d54a c2bc eae2 c0bc 0e98 16bd f8d7 47bc
00000300: 2eb8 1c3d 821e b0bc 68a3 60bd c228 b1bc
00000310: 9254 5b3d 0083 09bd 22a2 a1bc 80e6 84bb
00000320: 8c3f debc 24c1 c43c 1275 3a3d 21ac cabc
00000330: 9a62 4dbd 58ce 503c 318e 2fbd 40bd 923c
00000340: e992 3cbd 6664 03bd 7846 16bd a5f5 49bd
00000350: 58cd 06bc 62b1 223b 4406 09bd 3edb 133d
00000360: 6825 0abd f0bc 333c fcef 0e3d a076 0abb
00000370: ea9a 00bd 70f1 a43c 1a35 393d 60bb 4a3c
00000380: 6016 8a3b c094 2ebd 1c90 40bd e2ba b0bc
00000390: 686b 0e3d f893 1bbd e8ce 4abd 5ca3 e73c
000003a0: 2903 1ebd 2073 0a3c b81e f5bc 18cd 04bc
000003b0: 505f 8d3c 7ce3 933c d63e 333d a40c dd3c
000003c0: 7cc1 833c 4751 89bd 306c e43b 34dc 353d
000003d0: 2c42 dd3c 8538 d3bb 6430 913c 4698 5fbd
000003e0: cea2 2cbd 187e 823c 05ab 39bd a0ae d93b
000003f0: a003 08bc 486e f03c c5a9 62bd 881a 093d

network_body.observation_encoder.processors.0.conv_layers.0.bias f4 [16]
0.00726333 -0.018830968 0.0019967651 -0.022552524 0.043520417 -0.005287794 -0.008891463 0.024323588
-0.0015233463 0.022371938 -0.021522664 0.041464105 0.02850199 -0.049447153 -0.010801093 -0.04149009
00000000: 3a01 ee3b 6743 9abc 29dc 023b 12c0 b8bc
00000010: 7742 323d 3b45 adbb 80ad 11bc 4342 c73c
00000020: 05ab c7ba 5b45 b73c 4c50 b0bc 44d6 293d
00000030: 017d e93c 1989 4abd 11f7 30bc 83f1 29bd

network_body.observation_encoder.processors.0.conv_layers.2.weight f4 [32, 16, 4, 4]
-0.0006311184 -0.06271186 0.059569873 -0.0049270075 0.01760815 0.007935085 -0.055069935 -0.036627226
-0.061813913 -0.051125407 0.021401377 -0.03678217 0.01991773 -0.00020857583 0.038070235 -0.03347972
-0.051921558 -0.010804432 0.04942599 -0.044255786 0.03415759 -0.01896706 -0.066613644 0.061526008
-0.04810058 0.031938225 -0.08750227 0.07896574 -0.009180205 -0.047123928 -0.05687174 0.032983284
0.024268646 -0.006366353 -0.033779748 -0.10498673 -0.04664598 -0.08458419 -0.017932067 -0.0036781786
0.01698603 -0.034127217 0.049013123 -0.07515019 0.07614829 0.041593324 0.033799615 -0.020354945
-0.0075892047 0.019706246 0.07788511 0.020185973 -0.07942068 0.01060002 0.012191404 0.035173327
0.033049952 -0.026481116 -0.024741929 0.01956419 0.06671285 0.0036540048 0.010156788 -0.042925403
-0.07803773 -0.007794219 -0.026238522 -0.04697412 -0.056700107 0.05389982 0.02099804 -0.041420422
-0.01913799 -0.041992985 -0.08615337 -0.016839156 0.04928918 -0.027649352 -0.01742535 0.090747006
0.004209356 -0.015671114 0.031135065 -0.021765688 -0.025859024 0.0123538 -0.02312871 0.038606077
-0.0050766696 -0.04966566 -0.070860386 0.022250473 0.055857703 -0.058832657 -0.023418095 0.07361823
-0.00035314608 0.010329431 0.035266425 -0.02268323 -0.045447912 0.004619296 0.04271196 -0.070432685
-0.017681194 -0.024907617 -0.04585713 0.0061576287 0.0257858 -0.08571183 -0.03391249 -0.028926427
-0.0057507525 0.009156801 -0.037883047 0.027420137 0.04368893 -0.0142476605 -0.07628917 0.023264034
-0.0124698635 -0.009069986 -0.080086336 0.046174277 -0.025429228 0.022384776 -0.05975617 -0.04652676
-0.05324374 0.046469152 0.0009398551 0.02689594 -0.044379417 -0.05955555 -0.037839115 0.041234903
-0.028547604 -0.04549938 -0.054771133 0.031255525 0.04487631 0.05180162 0.020652084 -0.024181543
-0.04482716 -0.03673972 -0.0071304506 0.0017596175 0.019824183 -0.015392168 -0.0032343727 0.01995292
-0.04831028 -0.041644502 -0.013481245 -0.055220835 -0.053929564 -0.05752652 0.019068776 -0.07509649
0.013270818 -0.027908323 0.041348223 0.034970954 0.06756906 -0.05049043 0.023247298 0.051143315
0.015668962 0.049916588 0.006226211 0.060212724 0.059197545 -0.029723054 0.065644436 0.0009452536
-0.0465713 0.01451753 0.035444535 -0.060414575 -0.06882047 0.03820078 -0.042407356 0.04911612
-0.047247637 -0.0044912314 0.048070025 -0.050007485 -0.059500895 0.06174279 0.046451237 0.028656088
0.0039578173 0.0455418 0.016156822 0.059472267 -0.054683354 -0.013035866 -0.01846806 0.049828902
-0.034124043 0.030987227 -0.03905934 -0.01577656 0.02888103 -0.04571378 0.004094039 0.059667565
-0.0574658 0.040049203 -0.004137961 0.057733547 0.045853652 -0.053740226 -0.09465201 -0.018443292
-0.043599762 0.0053801546 -0.054507826 0.026927868 0.07025848 0.031885177 0.04344008 0.0097857
-0.06671048 -0.013587474 -0.00477608 -0.03947943 0.0056424914 0.01800887 0.005835007 -0.01734716
0.047747947 0.033395 0.038147945 0.008131997 -0.06702137 0.022974707 -0.01854179 0.039363552
-0.038472086 0.038117588 0.026753023 -0.04441061 -0.10321744 -0.046357498 0.04126446 0.031902555
-0.08893769 0.02274255 -0.02812843 0.02125003 -0.0051808115 -0.046237376 0.04530358 -0.019374656
00000000: a471 25ba 136f 80bd 8aff 733d bc72 a1bb
00000010: f83e 903c 2902 023c 0391 61bd 6e06 16bd
00000020: 9630 7dbd e068 51bd f151 af3c e7a8 16bd
00000030: 822a a33c 26b5 5ab9 89ef 1b3d 0822 09bd
00000040: b3ab 54bd 1305 31bc e872 4a3d 8e45 35bd
00000050: d4e8 0b3d cf60 9bbc bc6c 88bd b202 7c3d
00000060: 1d05 45bd a8d1 023d 6434 b3bd cab8 a13d
00000070: 9268 16bc 0505 41bd 57f2 68bd 7b19 073d
00000080: 0acf c63c d79c d0bb a25c 0abd 4803 d7bd
00000090: db0f 3fbd 7a3a adbd 45e6 92bc 990d 71bb
000000a0: 4926 8b3c fbc8 0bbd fcc1 483d 58e8 99bd
000000b0: a2f3 9b3d c35d 2a3d 7771 0a3d 6abf a6bc
000000c0: ddae f8bb fe6e a13c 3b82 9f3d 0e5d a53c
000000d0: 4fa7 a2bd b5ab 2d3c 74be 473c e811 103d
000000e0: 635f 073d edee d8bc 96af cabc 1545 a03c
000000f0: bfa0 883d 0778 6f3b a868 263c 8cd2 2fbd
00000100: 3fd2 9fbd a666 ffbb 2bf2 d6bc ef67 40bd
00000110: 5f3e 68bd 0fc6 5c3d 1504 ac3c 76a8 29bd
00000120: 46c7 9cbc d600 2cbd 2e71 b0bd 45f2 89bc
00000130: 74e3 493d e580 e2bc 9cbf 8ebc 91d9 b93d
00000140: a3ee 893b b560 80bc f70e ff3c f54d b2bc
00000150: 4ed6 d3bc 9867 4a3c 6c78 bdbc 6821 1e3d
00000160: 315a a6bb 386e 4bbd 401f 91bd a046 b63c
00000170: 0ccb 643d 83fa 70bd 4ed7 bfbc 28c5 963d
00000180: 7726 b9b9 c63c 293c 8773 103d 2ed2 b9bc
00000190: 9727 3abd 775d 973b bcf2 2e3d 033f 90bd
000001a0: 27d8 90bc 0f0b ccbc b0d4 3bbd efc5 c93b
000001b0: be3c d33c af89 afbd d3e7 0abd 1df7 ecbc
000001c0: cf70 bcbb 6806 163c 412b 1bbd 32a0 e03c
000001d0: 2af3 323d 056f 69bc 7f3d 9cbd 3794 be3c
000001e0: 664e 4cbc 479a 14bc 4e04 a4bd 3d21 3d3d
000001f0: f550 d0bc 4760 b73c e3c2 74bd d892 3ebd
00000200: 1c16 5abd 7056 3e3d 9c60 763a e054 dc3c
00000210: 31c7 35bd 85f0 73bd 30fd 1abd eee5 283d
00000220: aadc e9bc 8f5d 3abd b257 60bd cb05 003d
00000230: 39d0 373d ef2d 543d 8f2e a93c 5f18 c6bc
00000240: af9c 37bd 637c 16bd 8ea6 e9bb f7a2 e63a
00000250: 5366 a23c 6f2f 7cbc c5f7 53bb 4e74 a33c
00000260: 00e1 45bd 6d93 2abd 71e0 5cbc 3e2f 62bd
00000270: 3fe5 5cbd eea0 6bbd 1f36 9c3c 30cc 99bd
00000280: d86d 593c ff9f e4bc c15c 293d b43d 0f3d
00000290: a661 8a3d 0ecf 4ebd 1e71 be3c a77b 513d
000002a0: 325c 803c 5675 4c3d 3e05 cc3b 9ea1 763d
000002b0: 2079 723d c37d f3bc 9770 863d e5ca 773a
000002c0: 8cc1 3ebd efda 6d3c 4a2e 113d 4675 77bd
000002d0: bff1 8cbd 6c78 1c3d 56b3 2dbd fc2d 493d
000002e0: bd86 41bd 2e2b 93bb 13e5 443d a6d4 4cbd
000002f0: 36b7 73bd 02e6 7c3d a743 3e3d 2cc0 ea3c
00000300: 94b0 813b 0a8a 3a3d 505b 843c 3199 733d
00000310: a7fb 5fbd 6394 55bc 544a 97bc 6419 4c3d
00000320: a7c5 0bbd edd8 fd3c b0fc 1fbd d83d 81bc
00000330: e997 ec3c 5f3e 3bbd 4a27 863b fa65 743d
00000340: 4261 6bbd a20a 243d bc97 87bb 037a 6c3d
00000350: 0ad1 3b3d b61e 5cbd ead8 c1bd 6316 97bc
00000360: aa95 32bd 024c b03b 9943 5fbd d597 dc3c
00000370: aee3 8f3d 089a 023d 3aee 313d 3354 203c
00000380: 819f 88bd ff9d 5ebc aa80 9cbb 2fb5 21bd
00000390: a6e4 b83b 5687 933c 9633 bf3b a21b 8ebc
000003a0: 5a93 433d 32c9 083d 0541 1c3d 113c 053c
000003b0: 8042 89bd 7435 bc3c f4e4 97bc ad3b 213d
000003c0: e894 1dbd 3021 1c3d 2829 db3c e6e7 35bd
000003d0: aa63 d3bd 5ce1 3dbd ec04 293d 41ac 023d
000003e0: f724 b6bd 964e ba3c 986d e6bc 8b14 ae3c
000003f0: ccc3 a9bb 6763 3dbd 3f90 393d 99b7 9ebc

network_body.observation_encoder.processors.0.conv_layers.2.bias f4 [32]
-0.03087776 -0.0030004608 -0.049758706 -0.015970837 0.01734372 -0.055995133 0.04440242 0.018399661
-0.028867345 0.0066513564 0.012051759 0.011037748 -0.020932935 -0.031088877 0.02396318 -0.06563575
0.059892226 -0.027776012 0.0037203648 -0.026460655 -0.021331813 0.01323435 0.041951276 -0.021870306
-0.029434387 0.022299156 0.052966073 -0.065743245 0.011846542 -0.0667324 0.016163101 0.013129534
00000000: 5bf3 fcbc 61a3 44bb c9cf 4bbd 46d5 82bc
00000010: 6b14 8e3c 275b 65bd 50df 353d e3ba 963c
00000020: 367b ecbc 9ff3 d93b be74 453c acd7 343c
00000030: 8c7b abbc 1aae febc 6e4e c43c 096c 86bd
00000040: 8d51 753d 858a e3bc 5dd1 733b 04c4 d8bc
00000050: 0ec0 aebc e3d4 583c 1ad5 2b3d 5b29 b3bc
00000060: 6220 f1bc b8ac b63c f4f2 583d 65a4 86bd
00000070: 0018 423c ffaa 88bd 7b68 843c 421d 573c

network_body.observation_encoder.processors.0.dense.0.weight f4 [256, 32]
0.0993036 -0.4857718 0.3882201 0.073733754 -0.098290674 -0.47381052 -0.4644902 -0.10817197
0.7002854 -0.04634487 -0.4899177 0.08382033 -0.24553908 0.044940338 0.2080534 -0.021295566
-0.28824905 -0.2919529 0.09495619 0.11147313 0.17686135 0.13059203 -0.4540755 -0.1478211
-0.023757316 -0.011478158 -0.07014404 -0.30940235 0.09327151 0.0333435 0.27479854 -0.8088729
0.23243198 0.056829873 -0.2880048 0.23041505 0.0030561509 -0.3020474 0.05448692 -0.08918484
-0.008294471 0.075490594 -0.22900072 0.11657901 -0.16412121 0.013864217 0.5759836 0.00037743308
-0.17329706 -0.035353355 0.4218198 0.31783867 -0.20795321 0.37358993 -0.15967093 -0.25671738
-0.08269888 -0.16304618 -0.12814298 -0.22760929 0.15998167 0.24226664 -0.21489841 0.18399075
0.042697333 -0.7045343 0.1932081 -0.28013948 0.39780426 -0.099846 0.3409549 -0.1679455
-0.56874883 -0.3149385 0.10120573 -0.265324 0.029564379 -0.12837212 0.42108068 0.10895719
-0.23474959 0.060066003 0.20448977 0.2500886 -0.42279935 0.17410722 -0.15884447 -0.03600558
0.30861303 -0.28018975 -0.23024566 -0.13923176 -0.17533049 -0.18508244 0.29721135 -0.8006193
0.14231087 -0.11651926 0.15622579 -0.018304078 -0.026320659 -0.15372893 0.09258658 -0.11392351
-0.066495895 -0.17298721 -0.32365075 -0.0675465 -0.27647412 0.28982428 0.15484564 0.07503336
-0.1316323 0.03720216 0.09977157 0.36230764 -0.22290863 0.33706447 0.029716676 -0.016236791
0.044960577 0.24635771 -0.33632317 0.20146127 -0.36260346 -0.30888855 -0.47335294 0.06482461
-0.1791824 -0.104151 -0.5970748 -0.07222665 -0.28934503 0.15592086 -0.08017701 -0.016875364
0.17822917 0.26134568 0.12290914 -0.11602401 -0.4164785 0.21643569 -0.13881934 -0.3613662
0.097319074 0.13489087 0.32950792 0.24788332 -0.2282699 -0.3835123 -0.23116665 -0.21175008
-0.26394856 -0.18760261 0.19399875 0.29251292 -0.06338352 0.053863842 0.02382817 0.32111496
-0.029014332 0.20323221 0.39784688 -0.35266852 0.34852692 -0.07371269 -0.18262704 -0.022046467
0.07806541 -0.23524837 0.026442703 0.13396804 0.119851865 -0.07442445 0.056986477 -0.26234218
0.20624578 0.16479306 0.23696017 0.09281595 -0.06070755 0.15482092 0.5039717 0.28090224
-0.20952392 0.062495176 0.016837062 -0.39433837 -0.14113303 0.12507063 0.35219088 0.2439284
-0.16121724 -0.009262073 -0.12585883 -0.16535556 -0.36971647 0.103731394 0.08533169 -0.12514623
0.3201222 -0.10458891 0.15335572 -0.1880627 -0.019181773 -0.11030695 -0.18398695 -0.07258731
-0.32340276 -0.021217026 0.18475571 -0.09362091 -0.07893037 0.23546179 0.30246264 -0.073636085
0.07461554 -0.070842884 0.26577547 0.13789652 -0.20286562 -0.17594466 0.63807034 -0.032064144
0.59158796 0.05736801 -0.33639595 -0.45784944 0.22912994 -0.07728581 -0.054376733 -0.12371479
0.14903086 0.1913286 0.21345583 -0.0016232344 0.32049248 0.24949741 0.41240674 -0.018688573
0.1413614 -0.100397445 -0.0068107625 -0.006374481 -0.41962823 -0.0036144042 0.29904887 -0.29586425
0.14848049 -0.0894046 0.070864715 -0.15494502 -0.13874452 -0.16032928 0.16753289 0.11420188
00000000: b05f cb3d 15b7 f8be c9c4 c63e b901 973d
00000010: 9f4c c9bd 4b97 f2be a9d1 edbe 4489 ddbd
00000020: e745 333f 1ed4 3dbd 7ed6 fabe fea9 ab3d
00000030: 996e 7bbe 5c13 383d f30b 553e 0a74 aebc
00000040: 6195 93be da7a 95be 6478 c23d 064c e43d
00000050: 241b 353e ebb9 053e 957c e8be 6a5e 17be
00000060: b49e c2bc e20e 3cbc aea7 8fbd fc69 9ebe
00000070: 2205 bf3d 3293 083d 65b2 8c3e 4b12 4fbf
00000080: a602 6e3e 71c6 683d 5d75 93be ecf1 6b3e
00000090: b449 483b f5a5 9abe ad2d 5f3d 8ba6 b6bd
000000a0: 88e5 07bc d09a 9a3d 2a7f 6abe fac0 ee3d
000000b0: 640f 28be be26 633c a973 133f 36e2 c539
000000c0: c974 31be aece 10bd c4f8 d73e c0bb a23e
000000d0: b0f1 54be 2e47 bf3e c780 23be 7670 83be
000000e0: 085e a9bd 94f5 26be ea37 03be 6912 69be
000000f0: 3cd2 233e bf14 783e 540e 5cbe 1268 3c3e
00000100: 66e3 2e3d 5c5c 34bf 58d8 453e 716e 8fbe
00000110: 00ad cb3e 0f7c ccbd a491 ae3e e8f9 2bbe
00000120: 8699 11bf 9e3f a1be f344 cf3d 8cd8 87be
00000130: ff30 f23c fb73 03be e397 d73e f224 df3d
00000140: 3262 70be c507 763d c465 513e 9d0b 803e
00000150: 2879 d8be 2a49 323e 20a8 22be 967a 13bd
00000160: 8702 9e3e 0875 8fbe 85c5 6bbe c592 0ebe
00000170: d689 33be 4086 3dbe 162c 983e 63f5 4cbf
00000180: f1b9 113e a6a1 eebd a7f9 1f3e 6ff2 95bc
00000190: 6c9e d7bc 1e6b 1dbe 089e bd3d bb50 e9bd
000001a0: 002f 88bd 8f23 31be 8db5 a5be d255 8abd
000001b0: 048e 8dbe d963 943e db8f 1e3e 17ab 993d
000001c0: 9eca 06be 4b61 183d 0955 cc3d 6380 b93e
000001d0: 2942 64be b793 ac3e 6370 f33c 0503 85bc
000001e0: 9528 383d 3245 7c3e 8d32 acbe dd4b 4e3e
000001f0: 29a7 b9be a426 9ebe 515b f2be c4c2 843d
00000200: 977b 37be 1f4d d5bd e5d9 18bf 91eb 93bd
00000210: 0825 94be b8a9 1f3e d833 a4bd 343e 8abc
00000220: b581 363e 1acf 853e cab7 fb3d ff9d edbd
00000230: ac3c d5be 51a1 5d3e a826 0ebe fe04 b9be
00000240: 394f c73d d520 0a3e 43b5 a83e 20d5 7d3e
00000250: 96bf 69be b95b c4be f3b6 6cbe 03d5 58be
00000260: 4424 87be e61a 40be 9ca7 463e 41c4 953e
00000270: 38cf 81bd 55a0 5c3d 4b33 c33c 2e69 a43e
00000280: 77af edbc 1b1c 503e 96b2 cb3e f890 b4be
00000290: 1f72 b23e aef6 96bd 9502 3bbe cb9a b4bc
000002a0: c2e0 9f3d f3e4 70be 5e9e d83c eb2e 093e
000002b0: e574 f53d d96b 98bd a76a 693d b751 86be
000002c0: 1832 533e 83bf 283e b0a5 723e 4a16 be3d
000002d0: 7ba8 78bd 6089 1e3e 4a04 013f 6bd2 8f3e
000002e0: 708d 56be f1fa 7f3d e1ed 893c b8e6 c9be
000002f0: 2d85 10be 8412 003e 5d52 b43e 5ec8 793e
00000300: 2216 25be f3bf 17bc 23e1 00be f852 29be
00000310: 7a4b bdbe 2071 d43d 62c2 ae3d 5526 00be
00000320: 0fe7 a33e b632 d6bd 4809 1d3e 8293 40be
00000330: 1823 9dbc 9ce8 e1bd 1367 3cbe a8a8 94bd
00000340: 0c95 a5be 54cf adbc 9a30 3d3e 52bc bfbd
00000350: 3fa6 a1bd e51c 713e 62dc 9a3e 84ce 96bd
00000360: 08d0 983d 1316 91bd b913 883e bf34 0d3e
00000370: 01bc 4fbe d62a 34be 9458 233f b155 03bd
00000380: 4f72 173f b8fa 6a3d 173c acbe 3e6b eabe
00000390: 0aa1 6a3e 0648 9ebd 23ba 5ebd 2e5e fdbd
000003a0: 8c9b 183e a5eb 433e 2a94 5a3e b5c2 d4ba
000003b0: 9717 a43e 407c 7f3e fa26 d33e c718 99bc
000003c0: 0bc1 103e 2d9d cdbd d12c dfbb 06e1 d0bb
000003d0: 83d9 d6be a4df 6cbb ef1c 993e 857b 97be
000003e0: 450b 183e c219 b7bd 8521 913d e8a9 1ebe
000003f0: 0b13 0ebe 5c2d 24be be8d 2b3e ade2 e93d

network_body.observation_encoder.processors.0.dense.0.bias f4 [256]
0.013171541 0.0007167174 0.0013314224 0.015754882 -0.027670389 0.0136719085 0.04474748 -0.02123776
-0.016552085 0.016869072 -0.004726855 -0.010177583 -0.005930646 0.011289588 0.002967167 -0.0075609908
0.009355689 -0.008128848 0.018645821 -0.028538626 -0.009360083 0.027775647 0.0034327172 0.011603854
0.01565342 0.00800889 0.0034048888 0.012034378 0.004863611 -0.0070997863 0.012317032 0.032079756
0.02074898 0.005272885 0.0552352 0.0075575965 0.034327876 0.0026317886 -0.030934468 0.009475776
-0.010919723 -0.019279093 -0.004588585 0.008800588 -0.001122206 0.01019337 -0.009335068 0.014619826
0.012685471 0.002869128 0.04471959 0.01704113 -0.022127934 0.023771726 -0.009989526 0.01398867
0.009083835 -0.0028936341 0.042122975 0.010379133 0.0042259684 -0.025854327 0.0059369993 0.004208186
0.0068287337 -0.017475631 -0.0040765083 -0.009413288 0.020083884 -0.0014900003 0.017567907 0.010227111
0.014006667 0.018943183 -0.003963163 -0.016066903 -0.0020022993 -0.0057485504 0.019038465 -0.0029563648
0.04881012 0.0048111524 -0.0008044515 -0.039729834 0.0023922585 0.004973606 -0.0218738 -0.00826777
-0.019188771 -0.008492403 0.035267238 0.025704391 -0.008233081 0.023835236 0.022689005 0.00943917
0.0042166766 -0.004990809 0.019617504 0.002637254 0.006938397 0.0057449285 0.037134897 0.007429592
0.004919506 0.01146888 -0.0046862634 -0.016917229 0.0029740024 0.019405112 0.0020909188 -0.022082632
-0.015790662 0.007141679 0.032362398 0.007357222 0.006780776 0.0038079843 -0.0074444464 -0.011371746
0.034350567 0.0066141197 0.011356489 0.0054060123 0.03538578 -0.018971808 -0.014195002 0.031546656
-0.012113514 -0.005941669 0.011670394 0.019665217 -0.0020970094 0.008941172 -0.0059848833 0.0030607844
0.003893322 0.009704185 -0.0156079 0.0018739577 -0.013975432 -0.006453764 0.010492147 -0.013484952
-0.0009591874 0.0052244966 -0.0014130567 -0.002521629 0.03211427 0.031681743 0.00020335426 0.048896775
0.04375265 0.0073918514 0.017775431 0.019560857 0.021406926 0.022045933 -0.009593614 0.026073813
-0.0010268781 0.009421445 0.031397656 0.005524055 -0.0026017155 0.0005155006 -0.0010086444 0.0078258235
0.004947072 -0.007621224 0.024705594 -0.03737348 0.0020367005 -0.0015846472 -0.01004286 -0.0010859377
0.042306323 -0.00815253 0.00874627 0.017224237 0.017777493 -0.012802709 0.024586657 -0.021419257
0.004986087 0.03486784 0.024047602 0.009124382 0.0049744514 0.042807948 -0.010715103 0.00236539
-0.001298573 0.051250488 0.009944556 -0.007663866 -0.019119645 -0.0080852285 -0.006266822 0.036250997
0.014069564 -0.005915561 0.0025852718 0.02811894 0.0327581 0.006017384 0.01463471 -0.009393113
0.014742179 0.018755052 0.022163698 0.024974616 -0.012589105 0.0060642012 0.036467526 0.025782065
0.00059424835 -0.0040551117 0.0075264396 0.00772588 0.012960193 0.050782617 0.003450965 0.017616007
0.0035018097 0.0032391793 -0.015458061 0.009667837 -0.00033696843 0.020600589 -0.019972606 1.9586703e-05
0.016126273 0.031999055 0.016917482 0.0049459413 0.0013555636 0.0028775574 0.017142182 0.029769938
0.02871756 -0.01252572 0.0078724725 0.024042329 -0.003961202 -0.0027111762 0.023842474 -0.0002472386
-0.0005764329 -0.00929421 0.006165789 0.0014602112 -0.0045845313 0.015333545 0.017599156 -0.010924876
00000000: 72cd 573c 17e2 3b3a 1f83 ae3a 6210 813c
00000010: 03ad e2bc 2400 603c 2249 373d d0fa adbc
00000020: 3d98 87bc 0231 8a3c bce3 9abb e1bf 26bc
00000030: dd55 c2bb f7f7 383c cd74 423b 30c2 f7bb
00000040: 9b48 193c dc2e 05bc 1fbf 983c d6c9 e9bc
00000050: 095b 19bc c189 e33c 70f7 603b 171e 3e3c
00000060: 9a3b 803c b837 033c 8e24 5f3b d72b 453c
00000070: ed5e 9f3b 53a5 e8bb 60cd 493c 1066 033d
00000080: c4f9 a93c 2ac8 ac3b 4e3e 623d b7a5 f73b
00000090: 639b 0c3d 167a 2c3b 486a fdbc 4940 1b3c
000000a0: a3e8 32bc 30ef 9dbc d75b 96bb 5730 103c
000000b0: fc16 93ba 1802 273c 1df2 18bc ff87 6f3c
000000c0: b9d6 4f3c fb07 3c3b e42b 373d d799 8b3c
000000d0: a445 b5bc ecbc c23c 1cab 23bc bc30 653c
000000e0: 5ed4 143c 20a3 3dbb 2489 2c3d 3d0d 2a3c
000000f0: fe79 8a3b 74cc d3bc 298b c23b d3e4 893b
00000100: 92c3 df3b 0e29 8fbc 3b94 85bb 313a 1abc
00000110: f586 a43c 1d4c c3ba 92ea 8f3c 9d8f 273c
00000120: 387c 653c bc2e 9b3c 6cdd 81bb bd9e 83bc
00000130: 0239 03bb 565e bcbb 8ef6 9b3c 92bf 41bb
00000140: 1fed 473d dfa6 9d3b d4e1 52ba c0bb 22bd
00000150: 70c7 1c3b a2f9 a23b af30 b3bc 8a75 07bc
00000160: c531 9dbc b823 0bbc 6174 103d 0492 d23c
00000170: 0be4 06bc 1d42 c33c 4bde b93c c0a6 1a3c
00000180: 0c2c 8a3b f189 a3bb e3b4 a03c c8d5 2c3b
00000190: 7e5b e33b f43f bc3b c31a 183d ef73 f33b
000001a0: cf33 a13b f8e7 3b3c 3a8f 99bb 0096 8abc
000001b0: 7be7 423b 78f7 9e3c cc07 093b a3e6 b4bc
000001c0: 6b5b 81bc bf04 ea3b 6f8e 043d da14 f13b
000001d0: 4631 de3b 608f 793b 8bf0 f3bb 8f50 3abc
000001e0: 2eb3 0c3d 42bb d83b 9110 3a3c eb24 b13b
000001f0: aef0 103d c46a 9bbc 2792 68bc 1137 013d
00000200: c377 46bc 55b2 c2bb 2e35 3f3c f318 a13c
00000210: fb6d 09bb fe7d 123c d71c c4bb 7197 483b
00000220: 1b27 7f3b 4dfe 1e3c 47b8 7fbc 969f f53a
00000230: 36f9 64bc 197a d3bb 41e7 2b3c fdef 5cbc
00000240: fa71 7bba 4132 ab3b 5136 b9ba ea41 25bb
00000250: 418a 033d b7c4 013d 7e3b 5539 fc47 483d
00000260: fb35 333d 5837 f23b c89d 913c 173e a03c
00000270: 945d af3c ac99 b43c 892e 1dbc c098 d53c
00000280: 5098 86ba 685c 1a3c d49a 003d 2203 b53b
00000290: 8b81 2abb a922 073a 7d34 84ba e237 003c
000002a0: 0c1b a23b 76bb f9bb 6363 ca3c ef14 19bd
000002b0: 2a7a 053b f0b3 cfba cf8a 24bc 0656 8eba
000002c0: 6549 2d3d 3092 05bc 844c 0f3c d819 8d3c
000002d0: 1ba2 913c 74c2 51bc f569 c93c 7077 afbc
000002e0: 5462 a33b 95d1 0e3d 7aff c43c 6f7e 153c
000002f0: b900 a33b 6357 2f3d 668e 2fbc a904 1b3b
00000300: e134 aaba 08ec 513d 7eee 223c 2b21 fbbb
00000310: cda0 9cbc e877 04bc ea59 cdbb ed7b 143d
00000320: 0784 663c 53d7 c1bb aa6d 293b b159 e63c
00000330: 5c2d 063d 7a2d c53b 6cc6 6f3c 92e5 19bc
00000340: 2e89 713c 32a4 993c a590 b53c 9197 cc3c
00000350: 8942 4ebc 35b6 c63b f95e 153d e934 d33c
00000360: 55c7 1b3a bee0 84bb 5aa0 f63b 6129 fd3b
00000370: fd56 543c 6f01 503d 9629 623b 724f 903c
00000380: 9e7e 653b 6948 543b cf43 7dbc d965 1e3c
00000390: 23ab b0b9 91c2 a83c 979d a3bc 204e a437
000003a0: 3f1b 843c 7111 033d 8896 8a3c 9011 a23b
000003b0: 2bad b13a 6795 3c3b c36d 8c3c 16e0 f33c
000003c0: 1741 eb3c ad38 4dbc 8bfb 003c 6bf4 c43c
000003d0: f9cc 81bb fdad 31bb 4b51 c33c ce9f 81b9
000003e0: c21b 17ba be46 18bc 630a ca3b 8f64 bf3a
000003f0: d639 96bb 8d39 7b3c 1b2c 903c 40fe 32bc

network_body._body_endoder.seq_layers.0.weight f4 [256, 256]
0.063339956 0.037512146 -0.024712266 0.07338805 -0.035842475 -0.0038212547 0.006015374 0.097694
0.0072668497 -0.0030657747 0.09269525 -0.0045801993 0.05355167 0.023744596 0.0099764615 0.06888592
0.01853089 -0.048292145 0.029393904 -0.028533539 0.023866782 -0.06061156 -0.10807065 0.06362424
-0.049479567 -0.054359302 0.0050015496 -0.03403336 0.010941298 -0.049797557 -0.07264753 0.029849734
-0.08965993 0.02047587 0.035513014 0.07842285 -0.041638248 -0.0026632925 -0.084381275 -0.026828678
-0.04548157 0.015464353 -0.027587716 -0.038550436 -0.0018107471 -0.1780919 0.057993837 0.04266494
-0.028366122 -0.052075338 0.00091514195 -0.049213283 0.08669403 0.065444954 -0.052074637 -0.07388628
-0.09479542 -0.0436951 0.013817038 -0.09454112 0.056940246 -0.07526995 -0.095140934 0.034149613
0.02870145 -0.08012724 -0.058840644 -0.017966827 0.084975414 -0.0037481133 -0.12443585 0.018427959
0.016687987 -0.06410298 0.071802475 0.07887831 -0.10943998 -0.034284137 -0.008220252 0.010004865
0.13046043 0.043145213 -0.05224239 0.009895245 -0.0040845852 -0.050977822 -0.013765755 0.04618061
-0.0128854 -0.045565207 0.16756837 -0.109903656 0.071138 0.0713494 0.089482546 -0.0028903047
-0.01623836 0.028967302 -0.096831664 -0.036910523 -0.05378043 -0.06955851 -0.0816308 0.1054058
0.10685014 -0.052069515 -0.09190937 -0.013519239 -0.04209703 -0.012197404 0.05161425 -0.0435017
-0.030175405 0.056142867 0.15090859 0.03331083 0.060682338 -0.014355638 -0.051555183 -0.040438853
-0.12320845 -0.005814752 0.064856336 0.05966937 0.040044107 0.00027132168 -0.031088667 -0.1357531
-0.031960778 -0.16371804 -0.041299853 -0.0562679 -0.04822476 -0.00088254013 -0.055451628 -0.050899196
-0.032166395 -0.014313152 -0.024595683 -0.028936453 -0.1033159 0.05416773 -0.04717966 0.04753023
-0.079200216 0.07107695 0.025344284 0.047376093 0.031588335 0.19484639 -0.05447126 0.03531428
0.10786719 -0.0041193576 0.0063236305 0.0052379933 0.007400876 0.16084328 0.12578191 0.10256216
-0.037899338 -0.07545216 0.09905183 -0.00784711 -0.05129838 -0.03943027 0.045553375 0.055258095
-0.13270135 -0.12902 0.034995575 0.04612941 0.005371613 -0.010231531 0.05925602 -0.10436442
0.084934376 -0.075539045 0.054537877 0.105238356 -0.030974807 -0.073157854 -0.006357938 -0.05107155
-0.033832833 0.09712984 0.05078522 0.0027748782 0.06899214 -0.0007761283 -0.06057358 0.059165586
-0.050239958 0.11674388 -0.03411344 0.03980454 -0.02125207 -0.02982115 -0.08803531 0.016267467
0.16752777 0.08736195 -0.0096359635 -0.06001469 -0.08942336 -0.030058958 0.0075692143 -0.0047759577
-0.059250582 0.044500828 0.1564258 0.004182874 -0.06902858 -0.10759498 -0.020373952 0.052817017
0.047182422 -0.05343285 -0.04660175 -0.026879545 -0.05555333 0.026052179 0.048308555 -0.06860224
-0.01045731 0.017425606 -0.0053567262 -0.0045091053 -0.00048039958 -0.018307924 0.071122795 -0.04054072
-0.031901002 -0.035632417 -0.058086928 0.08953349 -0.040851977 -0.0060817255 -0.054226246 0.029765084
0.033970144 -0.0027697638 -0.069323026 -0.09640216 0.023310108 0.04553986 0.080935545 -0.17437148
0.014573636 0.07501172 0.024783276 -0.14546096 0.031133763 0.035423014 -0.0043010456 0.07898595
00000000: 61b8 813d 56a6 193d 6171 cabc 794c 963d
00000010: 8fcf 12bd 046e 7abb 9d1c c53b cb13 c83d
00000020: c11e ee3b 2aeb 48bb 02d7 bd3d 7f15 96bb
00000030: ff58 5b3d 0784 c23c 5074 233c 1014 8d3d
00000040: 18ce 973c fccd 45bd 7ccb f03c 2bbf e9bc
00000050: 4584 c33c d443 78bd 2554 ddbd 6d4d 823d
00000060: 16ab 4abd dca7 5ebd 0ae4 a33b 9166 0bbd
00000070: 2143 333c 86f8 4bbd 3ac8 94bd 6e87 f43c
00000080: a09f b7bd 03bd a73c 1876 113d 299c a03d
00000090: de8c 2abd a28a 2ebb 17d0 acbd d1c7 dbbc
000000a0: e24a 3abd 335e 7d3c a2ff e1bc 10e7 1dbd
000000b0: 9756 edba b95d 36be f28a 6d3d 6fc1 2e3d
000000c0: 1260 e8bc f34c 55bd 23e6 6f3a de93 49bd
000000d0: a48c b13d 0108 863d 374c 55bd b151 97bd
000000e0: 1a24 c2bd a2f9 32bd dc60 623c c69e c1bd
000000f0: 2d3a 693d 2227 9abd 40d9 c2bd 77e0 0b3d
00000100: 4e1f eb3c c019 a4bd e302 71bd 2b2f 93bc
00000110: 9707 ae3d e8a2 75bb 39d8 febd 3bf6 963c
00000120: 3fb5 883c 6c48 83bd 2d0d 933d f48a a13d
00000130: 1122 e0bd 866d 0cbd 3cae 06bc 72eb 233c
00000140: 6b97 053e 09b9 303d 1efc 55bd aa1f 223c
00000150: fcd7 85bb 1fce 50bd c389 61bc e127 3d3d
00000160: 491d 53bc 95a2 3abd 0b97 2b3e 2b15 e1bd
00000170: cdb0 913d a21f 923d a042 b73d 446b 3dbb
00000180: 4f06 85bc d64c ed3c ae4f c6bd 7d2f 17bd
00000190: de48 5cbd b174 8ebd 0d2e a7bd ffde d73d
000001a0: 3fd4 da3d d846 55bd fb3a bcbd cc7f 5dbc
000001b0: ef6d 2cbd 9fd7 47bc 7769 533d d72e 32bd
000001c0: 6932 f7bc 10f6 653d c887 1a3e f070 083d
000001d0: 0b8e 783d e933 6bbc 872b 53bd 36a3 25bd
000001e0: b654 fcbd ad89 bebb 66d3 843d df67 743d
000001f0: 4a05 243d 2e40 8e39 a9ad febc dc02 0bbe
00000200: 4ee9 02bd b4a5 27be 092a 29bd 2b79 66bd
00000210: 5387 45bd 445a 67ba 3f21 63bd ad7b 50bd
00000220: e9c0 03bd b681 6abc e37c c9bc 240c edbc
00000230: 4997 d3bd fbde 5d3d 763f 41bd 0faf 423d
00000240: b933 a2bd cb90 913d d19e cf3c 6f0d 423d
00000250: c562 013d d085 473e 421d 5fbd b5a5 103d
00000260: 79e9 dc3d adfb 86bb 7536 cf3b 79a3 ab3b
00000270: 0c83 f23b 1ab4 243e f9cc 003e 1c0c d23d
00000280: 563c 1bbd a986 9abd b0db ca3d 2a91 00bc
00000290: 401e 52bd a381 21bd 2d96 3a3d 5056 623d
000002a0: dde2 07be d21d 04be 8557 0f3d 31f2 3c3d
000002b0: 5b04 b03b 27a2 27bc 71b6 723d 03bd d5bd
000002c0: 13f2 ad3d 37b4 9abd 1c63 5f3d 3587 d73d
000002d0: e1be fdbc c9d3 95bd 4056 d0bb 6730 51bd
000002e0: 4c94 0abd 02ec c63d 2a04 503d bbda 353b
000002f0: c04b 8d3d 1775 4bba 011c 78bd 9d57 723d
00000300: 6ac8 4dbd 6a17 ef3d 89ba 0bbd 160a 233d
00000310: d218 aebc 7c4b f4bc db4b b4bd 5a43 853c
00000320: 668c 2b3e d2ea b23d 29e0 1dbc f7d1 75bd
00000330: 9823 b7bd 343e f6bc 2c07 f83b a37f 9cbb
00000340: bdb0 72bd 8046 363d 162e 203e 7e10 893b
00000350: db5e 8dbd c25a dcbd 46e7 a6bc a856 583d
00000360: 5b42 413d 67dc 5abd 7ae1 3ebd 7e32 dcbc
00000370: e38b 63bd 616b d53c 31df 453d 557f 8cbd
00000380: 2355 2bbc 25c0 8e3c 7a87 afbb 1ec1 93bb
00000390: 24de fbb9 80fa 95bc d4a8 913d 070e 26bd
000003a0: a0aa 02bd 4cf3 11bd 8fec 6dbd 565d b73d
000003b0: 6754 27bd 3649 c7bb 571c 5ebd e8d5 f33c
000003c0: 4724 0b3d ed84 35bb 3bf9 8dbd 7f6e c5bd
000003d0: d7f4 be3c 0188 3a3d 89c1 a53d 708e 32be
000003e0: 43c6 6e3c bf9f 993d 4c06 cb3c b8f3 14be
000003f0: 3c0c ff3c b917 113d c9ef 8cbb 63c3 a13d

network_body._body_endoder.seq_layers.0.bias f4 [256]
-0.003234345 0.0019266785 -0.004873921 0.022092238 -0.0022915534 -0.011098587 -0.00067376555 0.0011453292
-0.010613391 -0.00053652143 -0.001033656 0.022250095 -0.0017780432 0.0052091274 0.0106102815 -0.020900672
0.024880473 -0.0010958521 0.00069434504 -0.010947031 -0.0022783745 0.0009868795 0.029939631 0.005336322
-0.011587934 0.0035584434 -0.005016353 0.017114636 0.0052547357 -0.006505404 1.3867386e-05 0.026384512
0.028615052 0.018068854 0.01711561 0.008666779 0.011463311 0.005344915 -0.017668173 -0.004208549
-0.0017064546 0.015908282 0.01718287 0.00922119 -0.009055326 -0.0065819547 -0.013690907 0.014005206
0.0011638147 -0.0035670132 -0.017399037 -0.0012622769 0.005906299 0.010159052 -0.0012672459 -0.017415585
0.0061356653 0.00012985806 0.013791555 0.012704372 -0.0033514265 -0.0012667025 0.012265718 -0.01791657
0.024189916 -0.0026897397 -0.001812072 0.0404515 0.0014390453 -0.0032289627 0.0029175049 -0.033861954
-0.007554769 0.0058133095 -0.009328114 0.031997498 -0.004120712 -0.023486817 -0.00018556122 -0.005287257
0.006570817 -0.012022509 0.01609484 -0.0123013025 0.016577221 -0.0074748774 0.002909722 -0.0136098
-0.003413512 -0.0022127843 0.007460799 0.015454104 0.0022604356 0.005457694 0.016844325 0.007922675
-0.0037462302 0.009650647 0.016480621 -0.007102996 0.01303 0.024358492 0.009653116 -0.006815494
-0.006021146 0.013907644 0.0024997783 0.008467185 0.0018427912 0.0032074838 -0.010133725 0.004546184
0.025848033 -0.004479369 -0.0027211618 0.007437778 -0.007825187 0.010791154 0.017135413 -0.0009245045
0.0001959874 0.0005570539 -0.021551186 -0.014293992 -0.00059958815 0.003110346 -0.00020120027 -0.0053071864
-0.0053390386 0.014737076 -0.0030806668 -0.011677699 0.018190226 -0.01034645 0.027191615 0.009874147
-0.0024450975 0.0028620348 -0.0065023685 0.013175813 -0.032970548 -0.0006304872 -0.0008815994 -0.0010178683
-0.016344553 -0.0096410755 -0.008574512 0.008405755 0.013084658 -0.005159937 0.017840846 0.0051240893
0.018016666 -0.021253211 -0.0022522723 -0.010178446 -0.00040085142 -0.0023014536 -0.0039489325 -0.0031567584
-0.0027627149 -0.0014416559 0.009744008 -0.0035522087 0.0025146182 -0.0070863552 0.0038293947 0.0032684845
-0.008373449 0.023883978 -0.010298378 0.0017685901 0.00021843973 -0.012732769 -0.009049291 -0.0001731001
2.4883437e-05 0.0022352224 0.031455718 0.017558713 -0.008709013 0.010227943 -0.00729493 -0.009102044
-0.010048991 0.0006121356 0.0017193614 0.007956424 -0.016273048 0.023033926 -0.0041242237 -0.008225792
-0.008585082 -0.013456467 -0.016227948 0.0061843353 0.004468293 -0.0030485273 0.0024997287 -0.0049798326
0.026867265 0.013246316 0.0032759765 0.001555854 -0.0029664699 0.0065849605 -0.0072062057 -0.0022469054
0.0045823543 0.008172939 -0.00056199863 -0.010877557 -0.0042431783 -0.0015079317 0.016503554 0.0031574578
0.0025066177 -0.0033334587 0.009839788 0.033610452 -0.007476494 -0.01187623 0.004652934 0.02677757
0.0044242186 0.0070189517 0.013520083 -0.01579264 0.016845934 -0.0068578366 -0.027577888 -0.004039095
-0.0044233026 -0.010667296 -0.0058737574 -0.0047819065 0.0069475523 -0.0077119814 0.0012098217 -0.0025765216
-0.005772753 0.010570529 0.021172402 0.0043916474 -0.0009872755 -0.00400013 -0.012341824 0.010469233
-0.008725732 -0.0060270615 -0.006314845 -0.013698896 -0.017463326 0.011908607 0.01029082 -0.009621466
00000000: 4ef7 53bb 9a88 fc3a 6ab5 9fbb c8fa b43c
00000010: e32d 16bb d9d6 35bc a49f 30ba df1e 963a
00000020: cae3 2dbc 58a5 0cba bd7b 87ba d545 b63c
00000030: 3b0d e9ba 54b1 aa3b bfd6 2d3c e337 abbc
00000040: 22d2 cb3c b2a2 8fba b504 363a 2d5b 33bc
00000050: c850 15bb 2e5a 813a f543 f53c 50dc ae3b
00000060: 51db 3dbc c634 693b 3860 a4bb fe33 8c3c
00000070: eb2f ac3b 492b d5bb f8a7 6837 5524 d83c
00000080: 1d6a ea3c 2205 943c 0936 8c3c 1bff 0d3c
00000090: 9cd0 3b3c 6624 af3b d8bc 90bc dee7 89bb
000000a0: 1dab dfba 1652 823c 17c3 8c3c 7914 173c
000000b0: ca5c 14bc 70ad d7bb d34f 60bc 1776 653c
000000c0: 248b 983a 8dc4 69bb 6d88 8ebc fc72 a5ba
000000d0: a189 c13b 2772 263c b719 a6ba 21ab 8ebc
000000e0: b10d c93b 822a 0839 f9f5 613c 0026 503c
000000f0: 9ba3 5bbb 7c07 a6ba 26f6 483c c5c5 92bc
00000100: ee29 c63c 5846 30bb 0c83 edba 79b0 253d
00000110: 599e bc3a 019d 53bb 9c33 3f3b d5b2 0abd
00000120: ff8d f7bb 937d be3b f2d4 18bc cf0f 033d
00000130: 0a07 87bb 6d67 c0bc 3693 42b9 ba40 adbb
00000140: 0250 d73b 0ffa 44bc 53d9 833c 678b 49bc
00000150: f4cc 873c d1ef f4bb 09b1 3e3b a3fb 5ebc
00000160: 3ab5 5fbb 5c04 11bb b879 f43b 3633 7d3c
00000170: d123 143b 75d6 b23b 1cfd 893c 1cce 013c
00000180: 5083 75bb bf1d 1e3c 5e02 873c 40c0 e8bb
00000190: c87b 553c 768b c73c 1a28 1e3c 8254 dfbb
000001a0: 094d c5bb e3dc 633c 52d3 233b f3b9 0a3c
000001b0: d089 f13a a634 523b ec07 26bc 28f8 943b
000001c0: 41bf d33c acc7 92bb 8555 32bb 9bb8 f33b
000001d0: 3735 00bc 61cd 303c 915f 8c3c 725a 72ba
000001e0: f881 4d39 4107 123a 1d8c b0bc 5931 6abc
000001f0: ae2d 1dba f2d6 4b3b 49f9 52b9 e8e7 adbb
00000200: 1af3 aebb c773 713c 03e5 49bb d253 3fbc
00000210: ab03 953c 2884 29bc f3c0 de3c 2dc7 213c
00000220: ee3d 20bb fa90 3b3b d211 d5bb 5ddf 573c
00000230: 200c 07bd 4847 25ba 221b 67ba fe69 85ba
00000240: 03e5 85bc 9af5 1dbc 1c7c 0cbc 4bb8 093c
00000250: 0961 563c b014 a9bb f726 923c fae7 a73b
00000260: b097 933c 371b aebc dc9a 13bb 7fc3 26bc
00000270: 5e29 d2b9 fcd3 16bb 0c66 81bb 9ee1 4ebb
00000280: aa0e 35bb f2f5 bcba 55a5 1f3c 2ccc 68bb
00000290: 4bcc 243b a834 e8bb 95f6 7a3b 1234 563b
000002a0: ca30 09bc 55a8 c33c 87ba 28bc 09d0 e73a
000002b0: f80c 6539 1b9d 50bc 7a43 14bc 3482 35b9
000002c0: c6bc d037 cf7c 123b b6d7 003d 4ad7 8f3c
000002d0: 40b0 0ebc 1a93 273c 4f0a efbb bd20 15bc
000002e0: 86a4 24bc ba77 203a 325c e13a a95b 023c
000002f0: 0e4f 85bc a5b1 bc3c 7f24 87bb 79c5 06bc
00000300: 72a8 0cbc 8378 5cbc 79f0 84bc f7a5 ca3b
00000310: c26a 923b cdc9 47bb 7dd2 233b dd2d a3bb
00000320: bd18 dc3c 1407 593c c4b1 563b cced cb3a
00000330: 1b69 42bb a7c6 d73b 0922 ecbb d140 13bb
00000340: 9327 963b cae7 053c 1753 13ba c837 32bc
00000350: 5c0a 8bbb cba5 c5ba 7632 873c 5aed 4e3b
00000360: 1146 243b 2876 5abb 1037 213c 1dab 093d
00000370: 61fd f4bb 8594 42bc a477 983b a25c db3c
00000380: 09f9 903b 3cff e53b 5783 5d3c 915f 81bc
00000390: 7c00 8a3c b4b7 e0bb 06eb e1bc 625a 84bb
000003a0: 5af1 90bb e2c5 2ebc a678 c0bb 8ab1 9cbb
000003b0: 4ba8 e33b cab4 fcbb e192 9e3a dcda 28bb
000003c0: 5d29 bdbb 0330 2d3c bf71 ad3c cfe7 8f3b
000003d0: 7867 81ba 8613 83bb 5d35 4abc 2587 2b3c
000003e0: 5ff6 0ebc a87e c5bb c2ec cebb 5671 60bc
000003f0: 400f 8fbc 511c 433c d49a 283c 5aa3 1dbc

network_body._body_endoder.seq_layers.2.weight f4 [256, 256]
-0.011543161 0.05388411 0.030422801 0.14445105 -0.06502116 -0.0052880254 -0.0076873945 -0.11897032
-0.049062114 -0.004416146 0.07490049 0.15242173 -0.05257617 0.007055627 0.045671944 -0.053175222
0.09479889 -0.028852617 -0.02823603 -0.039853785 -0.080883436 -0.07355678 0.014635022 -0.03223309
-0.08092053 0.023286728 -0.06267994 -0.053212326 0.06438742 0.03763551 0.020358136 0.08988028
0.05719052 0.117405824 -0.0028235076 0.10877925 0.03341176 -0.017253432 -0.039597627 -0.008068294
0.06865048 0.022957869 0.030539671 -0.0026274873 -0.00065654545 0.01354885 -0.0514643 0.028105628
0.03139543 0.03006936 -0.037790064 0.050713044 0.020810768 -0.011263039 -0.056513984 -0.06461453
-0.1143492 0.029604875 0.11706267 -0.04822102 -0.0016772966 -0.025070982 0.015243544 0.041818723
0.10330781 0.02922517 -0.06288691 0.07476458 -0.03387246 -0.045492403 0.075328715 -0.016453946
-0.019095937 0.024640504 -0.10716269 -0.021429071 -0.11443082 -0.007023357 0.06842259 0.018566804
-0.007761039 0.052720416 0.076950416 -0.07040872 0.11174689 -0.08640082 -0.008564698 0.045536075
0.09218934 -0.08489727 -0.037503455 -0.061114315 0.06594796 0.043201968 0.0015042425 0.0665644
-0.07848726 -0.05715718 0.02095337 0.00164314 -0.032323375 0.035445977 0.09120374 -0.0756827
-0.10981564 0.054462355 -0.02870337 0.021729087 -0.0041318573 0.003965337 -0.10491763 -0.11150691
0.034144994 -0.044532068 0.036757406 0.002876751 -0.056343816 -0.015708484 0.040510625 -0.052638903
0.0038683226 -0.08821033 0.07953093 -0.06870232 0.16155367 -0.005549335 0.049643703 -0.039603822
0.04345237 0.022913583 0.045703407 0.095969826 0.028544348 -0.079450674 -0.015253026 0.08342655
0.1110048 -0.085186265 -0.0486589 -0.008530658 -0.06802285 -0.10673555 0.05534665 0.033238348
-0.038577676 -0.034421135 -0.027470991 -0.00010399142 -0.06838653 -0.020048141 0.08313476 0.06707195
0.012160293 0.067592315 0.080336265 -0.06483937 -0.044500325 0.018531289 -0.0855309 -0.0042000697
0.066667914 -0.16311017 0.019000351 0.076498866 0.025288336 -0.042572677 -0.018194895 -0.04111137
0.008102166 0.032062188 0.06789171 0.024606215 0.042743742 0.021210184 -0.16748634 0.035321746
-0.0456785 0.06181257 0.123744786 0.12558836 -0.018330973 0.03803046 -0.048446782 -0.031868365
-0.06814355 -0.056891214 0.078776605 -0.09384785 -0.03393144 0.049990576 -0.10366934 -0.090270706
-0.042886727 0.052039575 -0.013554097 0.010146975 0.016788451 -0.06428355 0.018872907 -0.12388386
0.0028005524 -0.0422391 0.008704344 -0.02872294 0.014899244 0.015616196 -0.079948306 0.07122238
0.0022429079 -0.06214593 -0.0468596 -0.16673058 0.049009893 -0.0059458753 0.034560245 -0.005167401
0.08116414 -0.0030246517 0.033300117 0.04512783 -0.06386345 -0.09292618 0.07305245 -0.115483135
0.08894849 0.03291324 0.00907481 -0.01900536 0.06191011 -0.019976445 -0.06605212 0.005825678
0.24708849 0.114034206 -0.0836448 0.12956132 -0.049518038 0.07703299 0.037334345 0.04272814
-0.07522793 -0.07826903 -0.027667448 -0.07648139 -0.045046434 -0.028540503 0.010306811 -0.026686015
-0.012701543 -0.1580722 0.037814554 -0.026430579 -0.012056292 0.119977295 0.08970048 -0.022695368
00000000: 871f 3dbc 96b5 5c3d 3d39 f93c faea 133e
00000010: d029 85bd 2c47 adbb 8ae6 fbbb b6a6 f3bd
00000020: 5bf5 48bd 51b5 90bb 6e65 993d 7114 1c3e
00000030: 1c5a 57bd e432 e73b 8112 3b3d 43ce 59bd
00000040: ec25 c23d 535c ecbc 3f4f e7bc b93d 23bd
00000050: 37a6 a5bd f0a4 96bd bbc7 6f3c d806 04bd
00000060: aab9 a5bd cfc3 be3c 575e 80bd 2bf5 59bd
00000070: 8ddd 833d b127 1a3d 1bc6 a63c 2713 b83d
00000080: 9b40 6a3d 7772 f03d 990a 39bb a8c7 de3d
00000090: c5da 083d 1257 8dbc 1f31 22bd e130 04bc
000000a0: 9f98 8c3d 2412 bc3c 552e fa3c ec31 2cbb
000000b0: 051c 2cba fffb 5d3c 3bcc 52bd c63d e63c
000000c0: 7f98 003d 0554 f63c c1c9 1abd 7bb8 4f3d
000000d0: 587b aa3c 9c88 38bc 357b 67bd 9f54 84bd
000000e0: ea2f eabd ec85 f23c 8ebe ef3d 6783 45bd
000000f0: bcd8 dbba a961 cdbc 0fc0 793c 1c4a 2b3d
00000100: 0c93 d33d a069 ef3c daca 80bd 2c1e 993d
00000110: d9bd 0abd 3e56 3abd f145 9a3d 6dca 86bc
00000120: 156f 9cbc e2da c93c 1d78 dbbd 058c afbc
00000130: b55a eabd 3024 e6bb 2521 8c3d 6919 983c
00000140: 5050 febb 5df1 573d 2e98 9d3d 7232 90bd
00000150: 8edb e43d eaf2 b0bd f252 0cbc 0984 3a3d
00000160: c4cd bc3d 9fde adbd 399d 19bd 0153 7abd
00000170: b90f 873d 8cf4 303d 012a c53a eb52 883d
00000180: eebd a0bd a61d 6abd 67a6 ab3c a15e d73a
00000190: 8465 04bd cd2f 113d 07c9 ba3d 88ff 9abd
000001a0: 06e7 e0bd eb13 5f3d 5423 ebbc 3301 b23c
000001b0: 8864 87bb a8ef 813b 0edf d6bd bc5d e4bd
000001c0: 9fdb 0b3d 4267 36bd ef8e 163d df87 3c3b
000001d0: c6c8 66bd 14af 80bc 78ee 253d e49b 57bd
000001e0: af83 7d3b 9ea7 b4bd 1de1 a23d cdb3 8cbd
000001f0: 536e 253e 32d7 b5bb 3257 4b3d 9e37 22bd
00000200: 1dfb 313d 44b5 bb3c 7f33 3b3d d48b c43d
00000210: d6d5 e93c 09b7 a2bd d4e7 79bc 8adb aa3d
00000220: 7c56 e33d 2376 aebd 8e4e 47bd 2cc4 0bbc
00000230: 904f 8bbd 2b98 dabd 2bb3 623d ef24 083d
00000240: a003 1ebd 2dfd 0cbd d80a e1bc f815 dab8
00000250: 3d0e 8cbd 003c a4bc 8f42 aa3d 055d 893d
00000260: f73b 473c d76d 8a3d 5787 a43d 81ca 84bd
00000270: f945 36bd eece 973c d32a afbd bda0 89bb
00000280: 3089 883d 5a06 27be a0a6 9b3c 70ab 9c3d
00000290: 7c29 cf3c b060 2ebd 760d 95bc 6564 28bd
000002a0: f2be 043c a453 033d cf0a 8b3d f992 c93c
000002b0: 1014 2f3d fbc0 ad3c 8a81 2bbe 89ad 103d
000002c0: 6119 3bbd 2d2f 7d3d e86d fd3d 3c9a 003e
000002d0: d62a 96bc d4c5 1b3d 2270 46bd 6788 02bd
000002e0: d88e 8bbd c306 69bd a155 a13d 4d33 c0bd
000002f0: b2fb 0abd ebc2 4c3d 9750 d4bd d9df b8bd
00000300: fea9 2fbd 7327 553d 0112 5ebc 7f3f 263c
00000310: ef87 893c 18a7 83bd 5b9b 9a3c d2b6 fdbd
00000320: 7989 373b e802 2dbd aa9c 0e3c 5f4c ebbc
00000330: f51b 743c 13db 7f3c f0bb a3bd 0add 913d
00000340: c0fd 123b bb8c 7ebd daef 3fbd 6cbb 2abe
00000350: 99be 483d 9ed5 c2bb 0b8f 0d3d 4d53 a9bb
00000360: 6239 a63d 3c39 46bb b465 083d f6d7 383d
00000370: d7ca 82bd 1550 bebd 869c 953d 6c82 ecbd
00000380: a02a b63d 09d0 063d 83ae 143c 21b1 9bbc
00000390: 7595 7d3d a4a5 a3bc 5546 87bd 54e5 be3b
000003a0: c404 7d3e c48a e93d f74d abbd b9ab 043e
000003b0: 6dd3 4abd 79c3 9d3d e6eb 183d b403 2f3d
000003c0: 1a11 9abd 834b a0bd d8a6 e2bc 46a2 9cbd
000003d0: 9c82 38bd c6cd e9bc e6dd 283c a19c dabc
000003e0: 221a 50bc aedd 21be 6fe3 1a3d f184 d8bc
000003f0: c187 45bc a8b6 f53d e3b4 b73d a3eb b9bc
