results/AttackerDefender_Skill1_v1/Defender/Defender-2499983.onnx (onnx, 891078 bytes, 17 tensors)

discrete_act_size_vector f4 [1, 2]
5.0 3.0
00000000: 0000 a040 0000 4040

network_body.observation_encoder.processors.0.conv_layers.0.weight f4 [16, 5, 8, 8]
0.024938704 -0.02971881 0.03831256 -0.0176278 0.0248942 -0.044942748 0.017435841 0.0051042386
-0.059933275 0.00095182523 0.06322309 -0.0120315505 0.054365814 0.006504402 0.11559598 0.09195977
-0.044672843 0.03563887 0.09940342 -0.020471146 0.097267285 0.0021210297 -0.013748374 0.0588833
0.0898703 0.090848684 0.120703675 0.11334393 0.11638703 -0.054306515 0.005903868 0.0332761
0.036894932 0.012456404 0.0023755168 -0.0086896345 0.10383165 -0.08032905 0.08050528 0.08820493
-0.00093552755 0.041718613 0.006657821 -0.042862065 -0.028225943 -0.02518507 -0.09607745 0.030667597
0.14826076 -0.012134449 0.034314502 -0.056723762 -0.084764466 0.029397028 0.094679974 0.051709726
0.004656771 0.018301856 -0.010059912 -0.028640576 -0.048367895 -0.0030407747 -0.02916986 -0.078574374
0.021318298 -0.026402852 -0.027941925 -0.06647747 -0.008959469 0.041916154 0.0652369 -0.07061379
0.11356047 0.06398684 0.0005616868 0.04267344 0.017952058 0.05925241 0.081552885 0.024416303
0.0061112377 -0.037919562 0.022882672 -0.0006575559 0.09394413 -0.033573363 0.0011830416 -0.06701207
0.085432306 0.033145227 0.03175379 -0.07112237 0.013139875 0.075456075 -0.01202081 0.03546288
0.078365706 0.08819013 -0.015296814 0.0145082455 -0.051259078 0.02336007 -0.075152695 0.09145652
-0.066062406 0.020106478 -0.084542364 -0.021271883 -0.009436227 -0.049015053 -0.09996086 -0.043858625
0.10377594 0.063408315 0.110333264 -0.021149797 -0.1228589 -0.053356316 0.06659013 -0.02295712
-0.05920867 0.044565406 0.00094049325 0.101308525 0.01490429 -0.062064722 2.9604542e-05 0.036935177
-0.031481188 -0.0030951595 0.01867579 0.028050546 0.07630065 0.062846094 0.0028195025 -0.05361356
0.11589077 3.5911493e-05 -0.026017308 -0.011897684 -0.0050548813 -0.022915078 0.015762832 0.107135
0.06759797 0.017369954 -0.042548984 0.008141161 0.10615134 0.1125936 -0.004653118 -0.052918717
0.025888424 -0.010743205 -0.05347197 -0.07047216 -0.026762197 -0.08664474 0.025388356 0.026322152
0.17126125 0.10288078 -0.04449059 0.07234975 -0.05259115 -0.034255125 0.032096416 0.1728528
-0.019275228 -0.055667177 0.005486269 0.009191202 -0.091585495 0.024507511 -0.03634614 -0.065186605
0.16520172 -0.10238722 0.04292465 -0.054896373 -0.010777046 0.07154484 -0.034045912 0.059215035
-0.0042487835 -0.08608097 0.12899202 0.010100138 0.0027519176 -0.08029078 -0.04348851 -0.052959416
0.038261585 -0.021498922 -0.054843336 -0.02162588 0.05354745 -0.033572197 -0.019730631 -0.004055798
-0.02712991 0.024017878 0.045521803 -0.02474028 -0.050142862 0.012744509 -0.042860214 0.017912507
-0.046038542 -0.03489015 -0.036688298 -0.04930653 -0.008227669 0.007548958 -0.03345324 0.036097758
-0.03372708 0.010970339 0.034896836 -0.0021127835 -0.031397738 0.020134658 0.045216657 0.012373775
0.004214093 -0.042622328 -0.047012433 -0.021573488 0.0347704 -0.03798291 -0.049513727 0.028276138
-0.038577233 0.0084502995 -0.029921874 -0.008105539 0.017257363 0.018052809 0.043761097 0.026983567
0.016083471 -0.001664135 0.006970905 0.044399455 0.027009092 -0.005641911 0.01772327 -0.05458858
-0.04214745 0.015929267 -0.045329113 0.0066431314 -0.0083016455 0.029349461 -0.055337686 0.033472568
00000000: 414c cc3c dd74 f3bc a2ed 1c3d 2d68 90bc
00000010: ecee cb3c e315 38bd 9cd5 8e3c 7541 a73b
00000020: 987c 75bd e983 793a 1b7b 813d fb1f 45bc
00000030: b0ae 5e3d e122 d53b 96bd ec3d 6755 bc3d
00000040: dffa 36bd 10fa 113d 0594 cb3d 1bb3 a7bc
00000050: 1234 c73d f900 0b3b dc40 61bc 9d2f 713d
00000060: eb0d b83d e00e ba3d 7d33 f73d dd20 e83d
00000070: 535c ee3d 8270 5ebd 3c75 c13b 854c 083d
00000080: 241f 173d f215 4c3c 8fae 1b3b f85e 0ebc
00000090: b0a5 d43d 8f83 a4bd f4df a43d c9a4 b43d
000000a0: 313e 75ba 23e1 2a3d da29 da3b 2290 2fbd
000000b0: 183a e7bc eb50 cebc 41c4 c4bd 9d3a fb3c
000000c0: abd1 173e 91cf 46bc 5d8d 0c3d 2d57 68bd
000000d0: fe98 adbd 09d2 f03c 93e7 c13d 94cd 533d
000000e0: d497 983b c6ed 953c 54d2 24bc a49f eabc
000000f0: 6a1d 46bd bc47 47bb a1f5 eebc 9aeb a0bd
00000100: b6a3 ae3c cb4a d8bc 77e6 e4bc 5725 88bd
00000110: bdca 12bc 46b0 2b3d ec9a 853d f69d 90bd
00000120: 6492 e83d 880b 833d 2a3e 133a 58ca 2e3d
00000130: 3210 933c a8b2 723d 3305 a73d b304 c83c
00000140: c740 c83b 8b51 1bbd 7174 bb3c d45f 2cba
00000150: c865 c03d 3984 09bd 4a10 9b3a a03d 89bd
00000160: 22f7 ae3d 4ac3 073d 4310 023d 9ba8 91bd
00000170: a148 573c b788 9a3d eef2 44bc 8641 113d
00000180: 337e a03d 079d b43d 7d9f 7abc feb3 6d3c
00000190: 0af5 51bd 9e5d bf3c a8e9 99bd 8e4d bb3d
000001a0: ba4b 87bd 57b6 a43c 8c24 adbd 5f42 aebc
000001b0: 689a 1abc 02c4 48bd 48b8 ccbd 1aa5 33bd
000001c0: 7b88 d43d 38dc 813d 68f6 e13d 5742 adbc
000001d0: 729d fbbd 278c 5abd 6860 883d 9210 bcbc
000001e0: ca84 72bd 378a 363d 6f8b 763a d87a cf3d
000001f0: 2031 743c 9437 7ebd 4557 f837 5749 173d
00000200: 6bf2 00bd 29d8 4abb f8fd 983c 42ca e53c
00000210: 8443 9c3d 74b5 803d 67c7 383b e499 5bbd
00000220: 2458 ed3d ac9f 1638 4022 d5bc 81ee 42bc
00000230: 6ba3 a5bb 67b8 bbbc 0e21 813c 9869 db3d
00000240: ce70 8a3d 6f4b 8e3c d847 2ebd 8162 053c
00000250: e065 d93d 7997 e63d 2f79 98bb 4cc1 58bd
00000260: f613 d43c 4504 30bc 6d05 5bbd b553 90bd
00000270: 653c dbbc cc72 b1bd 3efb cf3c 8ea1 d73c
00000280: 1c5f 2f3e 29b3 d23d c43b 36bd 1b2c 943d
00000290: d169 57bd 1a4f 0cbd 8877 033d 5300 313e
000002a0: 15e7 9dbc 4403 64bd 29c6 b33b b296 163c
000002b0: 2d91 bbbd fac3 c83c b1df 14bd 8e80 85bd
000002c0: a42a 293e 64b0 d1bd c2d1 2f3d 05db 60bd
000002d0: 3592 30bc 1a86 923d ba73 0bbd 778b 723d
000002e0: 6139 8bbb 384b b0bd 7c16 043e 0d7b 253c
000002f0: 8459 343b 7e6f a4bd 0221 32bd f9eb 58bd
00000300: 2eb8 1c3d 821e b0bc 68a3 60bd c228 b1bc
00000310: 9254 5b3d 0083 09bd 22a2 a1bc 80e6 84bb
00000320: 8c3f debc 24c1 c43c 1275 3a3d 21ac cabc
00000330: 9a62 4dbd 58ce 503c 318e 2fbd 40bd 923c
00000340: e992 3cbd f9e8 0ebd 7846 16bd a5f5 49bd
00000350: 58cd 06bc 405d f73b 4406 09bd 3edb 133d
00000360: 6825 0abd f0bc 333c fcef 0e3d a076 0abb
00000370: ea9a 00bd 70f1 a43c 1a35 393d 60bb 4a3c
00000380: 6016 8a3b c094 2ebd 1c90 40bd e2ba b0bc
00000390: 686b 0e3d f893 1bbd e8ce 4abd 5ca3 e73c
000003a0: 2903 1ebd 2073 0a3c b81e f5bc 18cd 04bc
000003b0: 505f 8d3c 7ce3 933c d63e 333d a40c dd3c
000003c0: 7cc1 833c 1b1f daba 306c e43b 34dc 353d
000003d0: 2c42 dd3c c8df b8bb 6430 913c 4698 5fbd
000003e0: cea2 2cbd 187e 823c 05ab 39bd a0ae d93b
000003f0: a003 08bc 486e f03c c5a9 62bd 881a 093d

network_body.observation_encoder.processors.0.conv_layers.0.bias f4 [16]
-0.0022214784 -0.023212312 -0.0015479 -0.040673833 0.034956146 -0.011217429 -0.0068495683 0.014117
-0.003929725 0.01209919 -0.019540388 0.03967067 0.020634135 -0.052464884 0.0011338566 -0.04484162
00000000: 3996 11bb bf27 bebc e8e2 caba 9b99 26bd
00000010: 2d2e 0f3d 4fc9 37bc 5872 e0bb fd4a 673c
00000020: ecc4 80bb ae3b 463c 2a13 a0bc b67d 223d
00000030: eb08 a93c 6be5 56bd ea9d 943a d9ab 37bd

network_body.observation_encoder.processors.0.conv_layers.2.weight f4 [32, 16, 4, 4]
0.015815508 -0.04628404 0.059046082 0.011287296 -0.0035190315 0.00442213 -0.09075029 -0.017317021
-0.065755464 -0.0587867 0.04348357 -0.07861386 0.0032455998 0.0053926925 0.029792244 -0.025031475
-0.04063495 -0.04578271 0.037041616 -0.03609538 0.043600354 -0.076743096 -0.063593246 0.064681895
-0.051799547 0.014444564 -0.09126277 0.07684397 0.009635206 -0.044127136 -0.050759643 0.012073006
0.05399374 0.010524501 -0.0947116 -0.041789483 -0.069179 -0.13944763 -0.0546928 0.03356372
0.04202764 -0.012245915 0.07865183 -0.055806868 0.07643838 0.06838185 0.011823209 -0.027613057
0.0064507592 0.002662136 0.06630778 0.026225308 -0.07998802 0.005632085 0.017931221 0.05253326
0.030821605 -0.0035742577 0.033351287 0.081292436 0.074524246 -0.009818294 0.007632133 -0.037278354
-0.054696143 -0.038310833 -0.011141725 -0.005233956 -0.038950752 0.03984802 0.036373455 -0.037064824
-0.012404766 -0.047179785 -0.10651752 -0.01295134 0.061628498 -0.040044133 -0.010843877 0.11178666
0.023969388 -0.013751692 0.030378219 0.016078385 -0.014759168 -0.012130957 -0.033566523 0.03274447
-0.010909758 -0.073951975 -0.0677175 0.008677875 0.07432178 -0.068445966 -0.019937748 0.05460296
0.017214473 0.033665273 0.034540247 -0.008906946 -0.066977076 0.040707383 0.0319365 -0.042126592
-0.0157978 -0.03268687 -0.052376725 0.0072149923 0.020136349 -0.07093355 -0.046510387 -0.02429345
0.013616573 0.015513371 -0.062350575 0.061302107 0.06453256 -0.0125833955 -0.103120245 0.02961145
0.0049629575 -0.02292449 -0.106440894 0.054651532 -0.0074959546 0.03659796 -0.06390198 -0.059918083
-0.028650703 0.057689287 0.0035881088 0.01879624 -0.023749044 -0.07284778 -0.027845979 0.08772546
0.0012096292 -0.05327108 -0.04918199 0.045051165 0.057405032 0.046542328 0.029065238 -0.014080794
-0.042759955 -0.03991021 0.017064882 0.02834102 0.014169171 -0.01832151 0.028688967 0.021096537
-0.047738858 -0.036572617 -0.026598223 -0.027561156 -0.061888248 -0.044158492 -0.0009385028 -0.08397861
0.021468079 -0.013181178 0.055575352 0.04381203 0.045589738 -0.06696919 0.07166032 0.09441804
0.014644996 0.063852206 -0.01816079 0.08320251 0.06050233 -0.02578585 0.084194764 0.003814759
-0.027092727 0.008767812 0.0048258416 -0.036827616 -0.04954078 0.041661285 -0.018554954 0.07472485
-0.030065855 -0.027621882 0.035824906 -0.030496314 -0.05097852 0.08512202 0.072503 0.048838817
0.03436884 0.053044654 0.016363224 0.049873278 -0.038755007 0.03641413 -0.018599972 -0.013792888
-0.018516451 -0.025905902 0.022248855 0.0010238203 0.02426662 -0.06226969 0.038670752 0.0048300344
-0.052460536 0.022521311 0.0032415027 0.055876438 0.04750834 -0.05724793 -0.14971358 -0.019535668
-0.04476334 0.00032395456 -0.06815461 0.028030192 0.058437124 0.022281451 0.028831068 0.007446749
-0.04679003 -0.07226304 0.02469295 -0.029223546 0.012926097 -0.00207642 -0.023601804 0.047048
0.046706542 0.06986254 0.04211117 0.0353166 -0.04116355 0.022284247 -0.02352138 0.051891286
-0.021332633 0.022121584 0.035107564 -0.035761837 -0.09146288 -0.057974048 0.03606375 0.0788536
-0.098148406 0.07482994 0.04400416 0.027687192 -0.015854698 -0.036296844 0.054156743 -0.018324118
00000000: 868f 813c 5594 3dbd 4eda 713d 5aee 383c
00000010: 8d9f 66bb 84e7 903b 4adb b9bd 6ddc 8dbc
00000020: cdaa 86bd 53ca 70bd d41b 323d 4e00 a1bd
00000030: 21b4 543b 2fb5 b03b dd0e f43c cf0e cdbc
00000040: d570 26bd a786 3bbd f3b8 173d c0d8 13bd
00000050: 4996 323d 7c2b 9dbd 2d3d 82bd f177 843d
00000060: c32b 54bd e4a8 6c3c fae7 babd 5f60 9d3d
00000070: fcdc 1d3c a8be 34bd 58e9 4fbd dbcd 453c
00000080: 8a28 5d3d f56e 2c3c 28f8 c1bd 732b 2bbd
00000090: b8ad 8dbd 5ccb 0ebe 8f05 60bd 1c7a 093d
000000a0: 2d25 2c3d 17a3 48bc 3614 a13d be95 64bd
000000b0: ba8b 9c3d c90b 8c3d 22b6 413c c734 e2bc
000000c0: e460 d33b 3b77 2e3b 60cc 873d 75d6 d63c
000000d0: c2d0 a3bd 5a8d b83b 7fe4 923c 1e2d 573d
000000e0: 977d fc3c 183e 6abb 5c9b 083d a67c a63d
000000f0: 2ba0 983d e9dc 20bc f916 fa3b 30b1 18bd
00000100: 1009 60bd d2eb 1cbd c88b 36bc 9b81 abbb
00000110: d38a 1fbd ad37 233d 55fc 143d 49d1 17bd
00000120: 5c3d 4bbc 973f 41bd dc25 dabd db31 54bc
00000130: 2a6e 7c3d 5105 24bd 84aa 31bc 68f0 e43d
00000140: 735b c43c c74e 61bc bedb f83c d1b6 833c
00000150: 70d0 71bc ecc0 46bc 0d7d 09bd 111f 063d
00000160: d7be 32bc 2274 97bd 79af 8abd a52d 0e3c
00000170: 0436 983d 662d 8cbd 7d54 a3bc 5aa7 5f3d
00000180: 5e05 8d3c 99e4 093d 137a 0d3d 70ee 11bc
00000190: 472b 89bd c9bc 263d d9cf 023d ef8c 2cbd
000001a0: 636a 81bc abe2 05bd fa88 56bd be6b ec3b
000001b0: fcf4 a43c 9c45 91bd ad81 3ebd 0f03 c7bc
000001c0: 0c18 5f3c cb2b 7e3c 5163 7fbd eb17 7b3d
000001d0: a629 843d 962a 4ebc b530 d3bd b693 f23c
000001e0: 4ea0 a23b 24cc bbbc affd d9bd 49da 5f3d
000001f0: a0a0 f5bb bee7 153d 0bdf 82bd aa6c 75bd
00000200: e1b4 eabc 9a4b 6c3d 7a26 6b3b 93fa 993c
00000210: 5b8d c2bc 3831 95bd 401d e4bc 68a9 b33d
00000220: 6c8c 9e3a c732 5abd 0e73 49bd 9287 383d
00000230: 8a21 6b3d 2ba3 3e3d 391a ee3c 21b3 66bc
00000240: 1025 2fbd e378 23bd a7cb 8b3c 6d2b e83c
00000250: d025 683c fe16 96bc 2005 eb3c a5d2 ac3c
00000260: d289 43bd 2bcd 15bd 84e4 d9bc efc7 e1bc
00000270: 887e 7dbd 89df 34bd db05 76ba fafc abbd
00000280: d3dd af3c def5 57bc fba2 633d 3e74 333d
00000290: 4ebc 3a3d 2527 89bd a5c2 923d 3f5e c13d
000002a0: 91f1 6f3c f2c4 823d f0c5 94bc 1466 aa3d
000002b0: 4bd1 773d d93c d3bc 4e6e ac3d 0901 7a3b
000002c0: 91f1 ddbc dea6 0f3c 1822 9e3b 8ed8 16bd
000002d0: 46eb 4abd 06a5 2a3d 8f00 98bc 5809 993d
000002e0: ab4c f6bc 4947 e2bc 23bd 123d 68d3 f9bc
000002f0: dace 50bd 7454 ae3d 747c 943d 360b 483d
00000300: 57c6 0c3d 5a45 593d 2b0c 863c ec47 4c3d
00000310: 92bd 1ebd fc26 153d f85e 98bc 91fb 61bc
00000320: d0af 97bc 9d38 d4bc 3b43 b63c b531 863a
00000330: caca c63c 810e 7fbd 3965 1e3d 4445 9e3b
00000340: dce0 56bd 9d7e b83c 646f 543b b1de 643d
00000350: 1b98 423d ce7c 6abd 844e 19be 4409 a0bc
00000360: c459 37bd 72d8 a939 a594 8bbd 939f e53c
00000370: c45b 6f3d 9787 b63c 222f ec3c dc03 f43b
00000380: e7a6 3fbd a5fe 93bd df48 ca3c 3866 efbc
00000390: fbc7 533c 8c14 08bb 9258 c1bc 67b5 403d
000003a0: 5c4f 3f3d 1714 8f3d c37c 2c3d 24a8 103d
000003b0: 1c9b 28bd 748d b63c e9af c0bc f58b 543d
000003c0: c6c1 aebc 5338 b53c f3cc 0f3d 017b 12bd
000003d0: e450 bbbd 3276 6dbd 95b7 133d ff7d a13d
000003e0: 0802 c9bd 7140 993d b53d 343d 40d0 e23c
000003f0: b6e1 81bc 00ac 14bd 76d3 5d3d 761c 96bc

network_body.observation_encoder.processors.0.conv_layers.2.bias f4 [32]
-0.017515693 -0.0017981728 -0.04471931 -0.016019618 0.012756525 -0.05567621 0.04404907 0.014036444
-0.0271126 0.0039817453 0.011987419 0.004555647 -0.015772477 -0.033603076 0.025277277 -0.0778477
0.05364435 -0.026651004 -0.005450322 -0.019745488 -0.015965631 0.00829822 0.057499472 -0.024156198
-0.0166586 -0.009858805 0.04518407 -0.06397986 0.0009523479 -0.06842751 0.0059144725 0.011055626
00000000: 127d 8fbc abb0 ebba 982b 37bd 933b 83bc
00000010: be00 513c bd0c 64bd cc6c 343d 1df9 653c
00000020: 3e1b debc 4d79 823b e166 443c 8947 953b
00000030: 4835 81bc 61a3 09bd 4b12 cf3c 9d6e 9fbd
00000040: 2eba 5b3d 3553 dabc 9d98 b2bb 4ac1 a1bc
00000050: 5bca 82bc 42f5 073c 9184 6b3d 38e3 c5bc
00000060: 9e77 88bc d386 21bc ee12 393d df07 83bd
00000070: fca6 793a b923 8cbd 31ce c13b a822 353c

network_body.observation_encoder.processors.0.dense.0.weight f4 [256, 32]
0.075792454 -0.4758219 0.36143598 0.075532965 -0.11534819 -0.46752268 -0.4609774 -0.12335168
0.68089664 -0.040693767 -0.47674865 0.06219795 -0.24792983 0.05569889 0.20988165 -0.017311918
-0.28958294 -0.29826888 0.095267095 0.122913785 0.1826371 0.11629143 -0.47534823 -0.14977342
-0.0111824265 -0.003921304 -0.07586234 -0.3249336 0.07380685 0.039866995 0.2782685 -0.81896657
0.2575708 0.058014624 -0.2596284 0.22825511 0.026128307 -0.3091684 0.062094867 -0.08244946
-0.01588022 0.07275956 -0.23289225 0.1333997 -0.1633879 0.025301492 0.57767445 -0.0037702564
-0.16072254 -0.036345143 0.4180884 0.31877005 -0.22506626 0.39183056 -0.130207 -0.25098938
-0.13858026 -0.17757216 -0.08871243 -0.22247198 0.17405877 0.23732865 -0.22554147 0.19219053
-0.11842923 -0.73071206 0.20796788 -0.30681664 0.40410772 -0.1456695 0.37636676 -0.10255941
-0.57638055 -0.33890837 0.16167678 -0.27783346 0.06020048 -0.17689294 0.43742496 0.06254595
-0.16470097 0.10528484 0.15769677 0.2508207 -0.4188565 0.20732108 -0.18380363 -0.008771837
0.23504728 -0.33407593 -0.23254317 -0.1782646 -0.14831762 -0.21450089 0.25573105 -0.7975018
0.124713756 -0.10675127 0.14915457 -0.017807161 -0.050863132 -0.14769161 0.07673754 -0.11749505
-0.077934615 -0.1686362 -0.3014374 -0.08575789 -0.30219263 0.27966687 0.1548303 0.09137747
-0.14063841 0.021803701 0.102569506 0.32137194 -0.22370254 0.33308637 -0.011716148 -0.025106456
0.047643386 0.26069933 -0.32989675 0.2187748 -0.3792723 -0.3039455 -0.46885005 0.049422782
-0.15657358 -0.104694106 -0.60049456 -0.07187634 -0.28147894 0.15729351 -0.07744609 -0.018873215
0.1757219 0.26040477 0.117363416 -0.11721596 -0.4132067 0.21942218 -0.1387637 -0.3583691
0.107309364 0.13216823 0.3318941 0.26103202 -0.22793813 -0.38002738 -0.22171228 -0.20565021
-0.25778776 -0.18422556 0.19828767 0.2923613 -0.065933175 0.05480127 0.023867873 0.3194512
0.018055694 0.22102024 0.3916544 -0.34186196 0.35726807 -0.06314551 -0.18741241 -0.028814564
0.07919694 -0.2217684 0.0049014864 0.14581224 0.1032807 -0.056182943 0.052175283 -0.25051606
0.20042711 0.14994022 0.25389153 0.11438886 -0.060441524 0.1537758 0.52389795 0.2796875
-0.20471424 0.07405736 0.035268404 -0.3953743 -0.13817836 0.12823068 0.3524555 0.24750826
-0.20079952 0.045989376 -0.10810749 -0.21339805 -0.38431254 0.10188098 0.09440832 -0.12582219
0.3119681 -0.0973283 0.16322123 -0.21129426 -0.034767088 -0.10683437 -0.14363486 -0.067838594
-0.34878194 -0.019844797 0.17342697 -0.07963189 -0.11891451 0.23614888 0.26474446 -0.08589747
0.03233594 -0.0747107 0.24633944 0.16160828 -0.20191431 -0.17017603 0.64016557 -0.06233196
0.66647524 0.028119698 -0.3690898 -0.46610904 0.25601408 -0.062946364 -0.060627747 -0.13752033
0.13917394 0.2052666 0.19271974 0.029612076 0.30728364 0.2576093 0.406435 0.007237965
0.14890876 -0.14110838 0.009094243 0.015970891 -0.377702 -0.0007263605 0.30450162 -0.28933308
0.15301223 -0.07118346 0.116448015 -0.15862943 -0.13728493 -0.14528778 0.16617228 0.115241945
00000000: 1339 9b3d ee9e f3be 230e b93e 07b1 9a3d
00000010: ac3b ecbd 225f efbe 3b05 ecbe ce9f fcbd
00000020: 3e4f 2e3f 82ae 26bd 6618 f4be 47c3 7e3d
00000030: 51e1 7dbe 8524 643d 37eb 563e b9d1 8dbc
00000040: 3744 94be b3b6 98be 651b c33d 39ba fb3d
00000050: 3805 3b3e 342a ee3d d860 f3be 345e 19be
00000060: 7f36 37bc 487e 80bb b75d 9bbd b25d a6be
00000070: 0c28 973d 934b 233d 3579 8e3e cba7 51bf
00000080: 52e0 833e bea0 6d3d 03ee 84be b5bb 693e
00000090: 080b d63c 524b 9ebe 3057 7e3d 43db a8bd
000000a0: 3c17 82bc f702 953d 4e7b 6ebe ee99 083e
000000b0: 284f 27be 1345 cf3c 79e2 133f 6816 77bb
000000c0: 7394 24be a5de 14bd af0f d63e d435 a33e
000000d0: c577 66be 049e c83e fc54 05be ae81 80be
000000e0: fce7 0dbe 7ad5 35be ddae b5bd b2cf 63be
000000f0: 763c 323e 4806 733e 58f4 66be 98cd 443e
00000100: 068b f2bd f20f 3bbf 88f5 543e 1217 9dbe
00000110: 35e7 ce3e 632a 15be 25b3 c03e ab0a d2bd
00000120: ad8d 13bf 6685 adbe 998e 253e 3040 8ebe
00000130: c794 763d 6c23 35be 2af6 df3e 1718 803d
00000140: 5fa7 28be 949f d73d 437b 213e 926b 803e
00000150: 5c74 d6be fa4b 543e 0537 3cbe c0b7 0fbc
00000160: 3cb0 703e 000c abbe cc1f 6ebe ff8a 36be
00000170: 93e0 17be 1fa6 5bbe 2eef 823e 1429 4cbf
00000180: ed69 ff3d 69a0 dabd fabb 183e 53e0 91bc
00000190: dc55 50bd 783c 17be 9228 9d3d 3fa1 f0bd
000001a0: 2f9c 9fbd f8ae 2cbe 0156 9abe d5a1 afbd
000001b0: feb8 9abe 7f30 8f3e d68b 1e3e 1c24 bb3d
000001c0: 8403 10be ad9d b23c f60f d23d dd8a a43e
000001d0: 4712 65be 4c8a aa3e 16f5 3fbc 0eac cdbc
000001e0: b625 433d 627a 853e 3ae8 a8be 8006 603e
000001f0: fb2f c2be bf9e 9bbe 1d0d f0be 8b6f 4a3d
00000200: d354 20be dd69 d6bd 03ba 19bf e733 93bd
00000210: 021e 90be 8d11 213e 0e9c 9ebd 009c 9abc
00000220: 71f0 333e c653 853e 3b5c f03d ec0e f0bd
00000230: d48f d3be 35b0 603e 1218 0ebe 287c b7be
00000240: 03c5 db3d 1c57 073e 06ee a93e fda5 853e
00000250: 9d68 69be f392 c2be 8b08 63be f895 52be
00000260: c2fc 83be a0a5 3cbe ec0b 4b3e 61b0 953e
00000270: f907 87bd 4c77 603d 8f86 c33c 1c8f a33e
00000280: 89e9 933c 2153 623e ed86 c83e 8808 afbe
00000290: d7eb b63e 6f52 81bd 0ae9 3fbe 850c ecbc
000002a0: 0132 a23d 4117 63be a69c a03b ce4f 153e
000002b0: d584 d33d 1620 66bd c0b5 553d a443 80be
000002c0: c43c 4d3e ee89 193e 12fe 813e b544 ea3d
000002d0: 8891 77bd 6777 1d3e 2d1e 063f 3333 8f3e
000002e0: 9ca0 51be 63ab 973d 9a75 103d 806e cabe
000002f0: a17e 0dbe e74e 033e 0c75 b43e ce72 7d3e
00000300: 649e 4dbe 5b5f 3c3d 7667 ddbd 0585 5abe
00000310: 9dc4 c4be faa6 d03d 2659 c13d 88d7 00be
00000320: 48ba 9f3e 0f54 c7bd 7723 273e 865d 58be
00000330: ef67 0ebd facb dabd 0415 13be f6ee 8abd
00000340: 8c93 b2be 8e91 a2bc d796 313e 0b16 a3bd
00000350: 7389 f3bd 03d1 713e 968c 873e 03eb afbd
00000360: b172 043d ec01 99bd 6840 7c3e a47c 253e
00000370: a0c2 4ebe a042 2ebe e4e1 233f cc4f 7fbd
00000380: 1f9e 2a3f 485b e63c 57f9 bcbe d8a5 eebe
00000390: 4714 833e 06ea 80bd cd54 78bd 21d2 0cbe
000003a0: 9d83 0e3e 6831 523e 5358 453e 0695 f23c
000003b0: 4854 9d3e 5ee5 833e 4018 d03e 732c ed3b
000003c0: 8a7b 183e b77e 10be 0500 153c 63d5 823c
000003d0: 2862 c1be 3a69 3eba a3e7 9b3e 7723 94be
000003e0: 3daf 1c3e a2c8 91bd 4c7c ee3d c16f 22be
000003f0: 6c94 0cbe 52c6 14be 1129 2a3e f803 ec3d

network_body.observation_encoder.processors.0.dense.0.bias f4 [256]
0.004294919 0.008517518 0.044736553 0.006105689 -0.029901376 0.006086261 0.038579732 -0.034180515
-0.020146357 0.021968056 -0.028687881 -0.0139325075 -0.00804334 0.008562728 -0.013395782 -0.0055244146
0.012273934 -0.0126128495 0.021630643 -0.07025559 -0.006549617 0.03550823 -0.002979466 0.019349612
0.015013566 -0.0012584958 -0.004045903 0.018791292 0.017675664 0.020448875 0.021673333 0.03823855
0.034049116 -0.0067938645 0.06645351 0.03980593 0.032026917 0.018575784 -0.04460212 0.019744694
-0.015278726 -0.021032942 -0.020859046 0.035560206 0.005896491 0.010437822 0.0016341414 0.022977857
0.0038268606 -0.009162062 0.06101992 -0.0035334278 0.0001086884 0.028875798 -0.008009354 0.010476587
0.013560059 -0.009025619 0.03994287 0.011906664 -0.019923847 -0.041153993 -0.003492012 0.015544519
-0.0047567943 -0.03562826 0.01560193 0.013128196 0.0222441 0.013927848 0.012162943 0.015782675
0.009888465 0.019777995 0.0073504774 -0.019480752 -0.0039879596 0.007007997 0.016824313 -0.01738574
0.05370393 0.00047663925 -0.0067660604 -0.045056716 0.0024360842 -0.0057739276 -0.033370387 -0.013595129
-0.01554376 -0.008061898 0.054772094 0.017058551 0.0044285916 0.021439906 0.045561835 0.018439064
0.0020646763 0.01508556 0.019680591 -0.0006190778 0.008032201 -0.008341514 0.0386135 -0.006585877
-0.006205977 0.0050046933 -0.013456915 -0.002079267 0.0050298707 0.024880657 0.003002274 -0.031614076
-0.01248805 0.011658171 0.029873451 0.014924041 0.024067622 0.008493991 -0.0037785973 -0.013906649
0.036045164 -0.00090503437 -0.014003284 0.0049124486 0.055685125 -0.033309534 -0.034291916 0.05039422
-0.024396399 -0.01923304 0.007276551 0.010941136 -0.0065301517 0.0002930327 -0.015052131 0.0034308292
0.0039978614 0.0070510395 -0.008028921 -0.01331545 -0.003394453 -0.015559879 0.015321027 -0.0033815242
-0.011332558 -0.0015680252 -0.008401514 -0.022951592 0.04000828 0.037142202 -0.0070129447 0.056007836
0.04350103 0.018218808 0.017398397 -0.0128604155 0.011202617 -0.0155646745 0.0037912668 0.034022387
-0.016064921 0.010530137 0.031479467 0.007035875 0.005376443 -0.024861926 -0.016289135 0.025563387
-0.013076516 -0.018827502 0.019799687 -0.018002916 -0.030944422 -0.0018172053 -0.01821069 -0.012544558
0.040165197 -0.009914827 0.0040446306 0.014017136 0.0110446485 -0.024062773 0.032188244 -0.028589075
0.011361649 0.02833621 0.01800998 0.01403354 0.029070761 0.06793812 -0.015653668 -0.011840269
0.063596405 0.046297107 0.009055618 -0.01166415 -0.014510798 0.013202997 -0.019629236 0.048933454
0.0124509325 0.010185982 0.00236861 0.039250433 0.041830786 -0.0015389585 0.0138485 -0.012892396
0.013335079 0.017347943 0.02975044 0.03486 -0.020021914 0.0048346673 0.038893595 0.01841319
-0.010183812 0.039454777 0.003167514 0.008762514 0.021981653 0.0537942 0.0016089011 0.026589215
0.024346523 -0.015469104 -0.017879078 0.0045066234 -0.0102970805 0.03159014 -0.018064104 -0.0073768906
0.024962792 0.052100234 0.010034135 0.005554105 -0.01318422 -0.0013500231 0.01898183 0.019146655
0.030340977 0.009555026 0.019810598 0.028250298 0.019027598 0.007735219 0.024094665 -0.0037459799
-0.0047345697 -0.012934861 0.019581208 -0.012918118 0.018082077 0.0082261115 0.028556718 -0.0056259064
00000000: 64bc 8c3b 0f8d 0b3c ad3d 373d 3b12 c83b
00000010: bbf3 f4bc 426f c73b c805 1e3d de00 0cbd
00000020: f909 a5bc 5af6 b33c d902 ebbc 2c45 64bc
00000030: 37c8 03bc af4a 0c3c fb79 5bbc 2606 b5bb
00000040: 9c18 493c 20a6 4ebc bf32 b13c 2ae2 8fbd
00000050: 2b9e d6bb 1471 113d 2543 43bb 1483 9e3c
00000060: 76fb 753c 1df4 a4ba 7f93 84bb 32f0 993c
00000070: 8ecc 903c 6684 a73c 468c b13c 07a0 1c3d
00000080: 1677 0b3d 119f debb c718 883d 8b0b 233d
00000090: a82e 033d 3e2c 983c b6b0 36bd a0bf a13c
000000a0: 9f53 7abc 474d acbc 97e0 aabc 94a7 113d
000000b0: 5a37 c13b 6603 2b3c b030 d63a 0f3c bc3c
000000c0: 11cc 7a3b 791c 16bc 06f0 793d 1591 67bb
000000d0: a4ef e338 f08c ec3c aa39 03bc fea5 2b3c
000000e0: 022b 5e3c 31e0 13bc 239b 233d 2b14 433c
000000f0: 5637 a3bc 1791 28bd 3dda 64bb 70ae 7e3c
00000100: e2de 9bbb f0ee 11bd 3d9f 7f3c a517 573c
00000110: 4239 b63c a131 643c 1547 473c ab4a 813c
00000120: 3a03 223c 7605 a23c 46dc f03b 1996 9fbc
00000130: 6ead 82bb 57a3 e53b 24d3 893c 8a6c 8ebc
00000140: a7f8 5b3d 70e5 f939 d4b5 ddbb 648d 38bd
00000150: b6a6 1f3b 3733 bdbb 63af 08bd 1bbe 5ebc
00000160: 41ab 7ebc 0d16 04bc b458 603d 60be 8b3c
00000170: b81d 913b bea2 af3c 0c9f 3a3d 850d 973c
00000180: 854f 073b 6d29 773c 3139 a13c 9c49 22ba
00000190: 7e99 033c d8aa 08bc 3029 1e3d 57ce d7bb
000001a0: 825b cbbb 69fe a33b 647a 5cbc 5044 08bb
000001b0: 9dd1 a43b 85d2 cb3c cdc1 443b c37d 01bd
000001c0: ae9a 4cbc ea01 3f3c 2bb9 f43c f783 743c
000001d0: 7629 c53c 612a 0b3c 58a2 77bb b7d8 63bc
000001e0: 18a4 133d d43f 6dba 086e 65bc 9bf8 a03b
000001f0: 1616 643d 946f 08bd ae75 0cbd 2b6a 4e3d
00000200: f5da c7bc 9c8e 9dbc 2270 ee3b 7342 333c
00000210: e2fa d5bb 2fa2 9939 379d 76bc c3d7 603b
00000220: 7e00 833b 680c e73b bc8b 03bc 0c29 5abc
00000230: 7975 5ebb ddee 7ebc 0b05 7b3c 909c 5dbb
00000240: 31ac 39bc 3286 cdba 81a6 09bc fa04 bcbc
00000250: b9df 233d 6c22 183d d8cc e5bb 7968 653d
00000260: 232e 323d 9c3f 953c 1587 8e3c 7eb4 52bc
00000270: 2e8b 373c fa02 7fbc e776 783b 0f5b 0b3d
00000280: 959a 83bc 9986 2c3c 9df0 003d 338d e63b
00000290: df2c b03b 3dab cbbc cb70 85bc 4f6a d13c
000002a0: e23e 56bc 223c 9abc f432 a23c da7a 93bc
000002b0: 287f fdbc 4b2f eeba 962e 95bc b187 4dbc
000002c0: 4384 243d cc71 22bc d288 843b 21a8 653c
000002d0: 9df4 343c 4b1f c5bc d2d7 033d a333 eabc
000002e0: 3626 3a3c 5721 e83c aa89 933c efec 653c
000002f0: ce25 ee3c 2423 8b3d 1f3c 80bc b0fd 41bc
00000300: d53e 823d 09a2 3d3d 045e 143c fe1a 3fbc
00000310: b3be 6dbc 6251 583c 7ecd a0bc 726e 483d
00000320: fffe 4b3c 1be3 263c ae3a 1b3b 10c5 203d
00000330: c256 2b3d e1b6 c9ba d2e4 623c a13a 53bc
00000340: 607b 5a3c 461d 8e3c 32b7 f33c 5cc9 0e3d
00000350: ff04 a4bc 216c 9e3b e44e 1f3d 42d7 963c
00000360: 01da 26bc 559b 213d 1196 4f3b a690 0f3c
00000370: de12 b43c 4f57 5c3d c3e1 d23a a0d1 d93c
00000380: 5c72 c73c 2072 7dbc 2577 92bc 4cac 933b
00000390: 16b5 28bc aa64 013d 2cfb 93bc d8b9 f1bb
000003a0: c57e cc3c 0e67 553d 3666 243c 36ff b53b
000003b0: a002 58bc 42f3 b0ba c87f 9b3c 72d9 9c3c
000003c0: a48d f83c af8c 1c3c d649 a23c 2b6d e73c
000003d0: c4df 9b3c b877 fd3b 2d62 c53c 1d7f 75bb
000003e0: 7324 9bbb bdec 53bc c568 a03c 84a6 53bc
000003f0: dd20 943c d0c6 063c c7ef e93c 8659 b8bb

network_body._body_endoder.seq_layers.0.weight f4 [256, 256]
0.04758024 0.008698784 0.02394778 0.060144402 -0.03690946 -0.0045352075 0.0064746803 0.07221709
-0.0034817653 0.0141007425 0.0881906 -0.022726601 0.048888374 0.029469721 -0.005533663 0.066558346
0.03065571 -0.05090026 0.038819965 -0.051279634 0.021723833 -0.060247455 -0.11536323 0.06228304
-0.04694812 -0.052970305 0.005873721 -0.04420943 0.0077453395 -0.05277842 -0.08816517 0.04192772
-0.07448117 0.027479682 0.030381754 0.043069143 -0.05286837 -0.004440115 -0.08898313 -0.006738205
-0.0631692 0.0015600892 -0.035351418 -0.050231412 -0.0033450876 -0.18307048 0.06804707 0.04225389
-0.06459004 -0.05883131 -0.0018893082 -0.062622964 0.07287138 0.07760389 -0.05974132 -0.07006296
-0.09240018 -0.049266543 0.020913558 -0.10585818 0.07356791 -0.07334774 -0.11740855 0.050155286
0.024384854 -0.06420084 -0.03677476 -0.039740954 0.08955433 -0.017594246 -0.14229594 0.01056312
0.020687893 -0.062238865 0.084304474 0.04472105 -0.10073901 -0.029482735 -0.0074099004 0.021144375
0.14097205 0.035985872 -0.055563632 0.022481592 -0.011273604 -0.052415073 -0.019683246 0.048739903
-0.031113852 -0.05338555 0.18685792 -0.116642945 0.043009404 0.06616183 0.09284772 -0.0067955516
-0.03522852 -0.020381171 -0.12681265 -0.07426545 -0.04386707 -0.0662112 -0.0844823 0.09686996
0.09402324 -0.04751613 -0.091563016 -0.054220118 -0.06989801 -0.020227646 0.077497855 -0.0629486
-0.026108792 0.062406037 0.16103046 0.0580166 0.06764351 -0.040056787 -0.07621252 -0.04819532
-0.142329 0.005855352 0.08064718 0.043370772 0.054878652 -7.977086e-05 -0.032760847 -0.18197678
-0.035299 -0.1660731 -0.05324876 -0.046128917 -0.049515598 -0.008417757 -0.058299147 -0.0636078
-0.05513213 -0.014223948 -0.037387535 -0.041675724 -0.13130772 0.05059841 -0.052781414 0.06331875
-0.07767598 0.080179974 0.02366485 0.032967456 0.020347346 0.19820704 -0.051578894 0.0010906219
0.105590016 -0.016371518 0.023070209 -0.0122752115 0.0020281645 0.15330559 0.10804237 0.095074974
-0.03555645 -0.0731754 0.10955837 -0.016929358 -0.058253627 -0.04005411 0.035706725 0.0069395374
-0.12658371 -0.14536731 0.04124837 0.045844465 -2.2840337e-05 -0.01265496 0.068231 -0.0963115
0.08412628 -0.058290664 0.051494643 0.1118797 -0.030485664 -0.08653762 -0.0057805986 -0.066892244
-0.039114468 0.108706534 0.04550174 0.016260307 0.083564885 0.020103918 -0.05327707 0.052242845
-0.09684518 0.109687455 -0.0267375 0.04333159 -0.0706749 0.013444604 -0.080028415 0.028505929
0.16062717 0.046864886 -0.0068978667 -0.058310993 -0.07571782 -0.042024724 -0.016308459 -0.017665513
-0.03876948 0.035939883 0.17565568 -0.004009453 -0.060621187 -0.11762252 -0.06932867 0.05720476
0.061587673 -0.0025811528 -0.03856698 -0.035764337 -0.058272947 0.04267823 0.047779076 -0.06297393
0.03111855 0.0075307335 -0.0022076294 -0.027251333 -0.022700986 -0.028421614 0.05725568 -0.048805777
-0.050548393 -0.026496686 -0.05192442 0.08928796 -0.03974079 -0.0046608867 -0.05889312 -0.0035940413
0.021149717 0.032968927 -0.068253525 -0.09144277 -0.009571751 0.058488663 0.08199759 -0.17778021
0.010521587 0.07992873 0.01864338 -0.13963068 0.046620615 0.0398563 -0.0028575545 0.09736252
00000000: 7fe3 423d 5885 0e3c 222e c43c fa59 763d
00000010: 602e 17bd 149c 94bb 8e29 d43b 8ee6 933d
00000020: 542e 64bb cd06 673c 469d b43d 232d babc
00000030: 2d3f 483d 7c6a f13c bb53 b5bb be4f 883d
00000040: af21 fb3c cb7c 50bd af01 1f3d 980a 52bd
00000050: 2ef6 b13c 09c6 76bd 8f43 ecbd 801c 7f3d
00000060: ac4c 40bd 64f7 58bd 5878 c03b f314 35bd
00000070: 9ecc fd3b 2f2e 58bd f18f b4bd 67bc 2b3d
00000080: 9589 98bd 121d e13c 28e3 f83c 4569 303d
00000090: 818c 58bd 627e 91bb ca3c b6bd 29cc dcbb
000000a0: db5e 81bd e87b cc3a a6cc 10bd 74bf 4dbd
000000b0: 4239 5bbb d476 3bbe 435c 8b3d 6a12 2d3d
000000c0: c847 84bd 1af9 70bd aaa2 f7ba 7840 80bd
000000d0: 973d 953d caee 9e3d 50b3 74bd 2b7d 8fbd
000000e0: 4e3c bdbd b7cb 49bd e952 ab3c 2ccc d8bd
000000f0: c6aa 963d 5737 96bd e573 f0bd a16f 4d3d
00000100: bfc2 c73c bb7b 83bd 21a1 16bd 69c7 22bd
00000110: 4368 b73d cf21 90bc 07b6 11be f010 2d3c
00000120: a879 a93c 2eee 7ebd d3a7 ac3d 6b2d 373d
00000130: 4150 cebd c785 f1bc c0ce f2bb f836 ad3c
00000140: fa5a 103e ec65 133d b196 63bd 512b b83c
00000150: ecb4 38bc 30b1 56bd c23e a1bc 7ea3 473d
00000160: 7ae2 febc ceaa 5abd af57 3f3e 7fe2 eebd
00000170: a12a 303d db7f 873d f226 be3d 38ad debb
00000180: c84b 10bd 6af6 a6bc 2ddb 01be 7c18 98bd
00000190: f5ad 33bd bd99 87bd 0e05 adbd c263 c63d
000001a0: 428f c03d 46a0 42bd 6485 bbbd ea15 5ebd
000001b0: b026 8fbd 73b4 a5bc 32b7 9e3d 32eb 80bd
000001c0: 1be2 d5bc 799d 7f3d 2be5 243e d0a2 6d3d
000001d0: ae88 8a3d 9612 24bd 4f15 9cbd 7568 45bd
000001e0: b2be 11be 41de bf3b 592a a53d 8da5 313d
000001f0: 70c8 603d a84a a7b8 3d30 06bd 1f58 3abe
00000200: af95 10bd 110f 2abe 5f1b 5abd adf1 3cbd
00000210: ded0 4abd a2ea 09bc 16cb 6ebd ce44 82bd
00000220: 3ad2 61bd 900b 69bc ac23 19bd 2ab4 2abd
00000230: 8875 06be 4740 4f3d 5331 58bd 43ad 813d
00000240: 9614 9fbd 6635 a43d cadc c13c e208 073d
00000250: 7aaf a63c c9f6 4a3e 6444 53bd 33f3 8e3a
00000260: 943f d83d 901d 86bc bcfd bc3c f81d 49bc
00000270: f4ea 043b 24fc 1c3e 5145 dd3d abb6 c23d
00000280: a4a3 11bd fcdc 95bd 2460 e03d 70af 8abc
00000290: 5b9b 6ebd c70f 24bd 3741 123d 0f65 e33b
000002a0: 299f 01be 2bdb 14be 0df4 283d 68c7 3b3d
000002b0: 4099 bfb7 c056 4fbc b2bc 8b3d f73e c5bd
000002c0: 664a ac3d 31c2 6ebd 0cec 523d 2f21 e53d
000002d0: 12bd f9bc a33a b1bd 2d6b bdbb cdfe 88bd
000002e0: 7e36 20bd 88a1 de3d 0860 3a3d 5634 853c
000002f0: 1124 ab3d f9b0 a43c 0f39 5abd 98fc 553d
00000300: c456 c6bd d1a3 e03d 9a08 dbbc 777c 313d
00000310: 01be 90bd c246 5c3c f0e5 a3bd 4485 e93c
00000320: 737b 243e 65f5 3f3d 8007 e2bb 82d7 6ebd
00000330: f211 9bbd 1e22 2cbd 5199 85bc 44b7 90bc
00000340: bfcc 1ebd b335 133d 15df 333e bb61 83bb
00000350: ec4d 78bd 13e4 f0bd 31fc 8dbd 8a4f 6a3d
00000360: 5b43 7c3d 8f28 29bb 69f8 1dbd a07d 12bd
00000370: 9daf 6ebd 5ecf 2e3d feb3 433d 7af8 80bd
00000380: 54ec fe3c 5fc4 f63b e0ad 10bb 303e dfbc
00000390: 6bf7 b9bc 72d4 e8bc ef84 6a3d 91e8 47bd
000003a0: d50b 4fbd 940f d9bc b3ae 54bd 9bdc b63d
000003b0: 3dc7 22bd 5aba 98bb ea39 71bd 028a 6bbb
000003c0: 2c42 ad3c 6d0a 073d 81c8 8bbd 5946 bbbd
000003d0: d5d2 1cbc cf91 6f3d 5aee a73d 040c 36be
000003e0: bc62 2c3c adb1 a33d 00ba 983c 58fb 0ebe
000003f0: 42f5 3e3d 5c40 233d cf45 3bbb 0066 c73d

network_body._body_endoder.seq_layers.0.bias f4 [256]
0.0044158213 0.004791442 -0.0031950811 0.019963864 -0.0025966757 0.0011392792 0.005032964 -0.0004277221
-0.0073372317 -0.005280934 -0.0031585535 0.018748384 -0.0071098227 -0.0004436601 0.004983171 -0.010387791
0.020193186 -0.0070126904 0.004042813 0.004319007 -0.0045907833 -0.002236976 0.027942317 0.0011285304
-0.008030331 0.008331349 0.0052166847 0.016314544 0.010501157 0.0024224662 0.0064323144 0.020231247
0.02482999 0.013589404 0.013040378 0.0014966246 0.007964341 0.0027050949 -0.0033557464 0.0031064807
0.005482022 0.011044935 0.020036366 0.012220152 0.004632837 -0.0073155635 -0.005384111 0.008200392
0.0033720185 -0.002239623 -0.011761776 0.0074816733 0.00904896 0.0076787914 -0.0054516355 -0.015083786
0.0052009807 -0.00648409 0.010234732 0.014808661 0.00569755 -0.001931126 0.015259114 -0.011749006
0.02261021 -0.003297187 0.0063290014 0.037176643 -0.0070946794 0.005127932 0.005691782 -0.030426538
-0.0018734379 0.0014409942 -0.0006579699 0.028377514 0.00020377632 -0.014993445 0.00511939 -0.0107846465
0.008144465 -0.010395688 0.015027282 0.0003670551 0.011998354 -0.0032157728 -0.0037072196 -0.010186635
-0.0121549675 -0.0013608135 0.01165501 0.009063746 -0.0011596201 0.012943569 0.015873523 0.010708604
0.0037533655 0.004267694 0.017319387 -0.006895611 0.006959174 0.023879975 0.0141015835 0.005280543
0.0039853468 0.011481275 0.009982385 0.0058866716 0.0102238385 0.009321859 -0.0053797266 0.0005924328
0.021333393 0.0044309315 -0.0027709326 -0.00029864733 -0.008543359 0.013690838 0.010171025 -0.007911768
-0.0023745275 0.009703598 -0.015122216 -0.00951658 0.006487585 -0.0031257062 0.014347557 0.0027489383
-0.004295899 0.007399851 -0.00468272 -0.01217599 0.01774226 -0.008509374 0.023124767 0.005813522
0.007341073 0.007543021 -0.001712813 0.008303052 -0.02696617 0.0127894245 0.018797489 0.0143415695
-0.010580323 -0.008002698 -0.014104531 0.013740425 0.008798752 0.0025572719 0.014078224 0.005094033
0.018575665 -0.008803383 -0.0019288346 0.0026745654 -0.002056718 -0.005129425 -0.006677857 0.0017817222
0.00022794411 0.0029111071 0.008829874 0.003309239 0.0062464033 -0.01345702 0.0071070045 -0.00053117814
0.0025578246 0.020878596 -0.0003723909 0.0067435782 0.0016239894 -0.005263219 -0.006606231 0.009004546
0.00805257 0.0043773605 0.026418626 0.017709086 0.0027817157 0.017373618 -0.0015872228 0.0010527474
-0.012955354 -0.006669216 0.009657473 0.0033717535 -0.0009188252 0.02022038 0.009642028 0.004808112
-0.0023111335 -0.0025965814 -0.0039414233 0.00871891 0.0015131615 -0.005539468 0.0072134775 0.00092607865
0.025636379 0.008241406 0.0014989998 0.008250528 -0.004830731 0.0105375955 -0.0016341987 0.008253065
0.0065384014 0.004295954 0.015133002 0.005320444 -0.0006688129 -0.0041296124 0.012921527 -0.0010628485
0.005007079 -0.009838747 0.0060429648 0.033854835 0.0013550352 0.0008430033 0.0014690057 0.023173165
0.005517655 0.0045771664 0.013456148 -0.012250023 0.016285982 0.0075172945 -0.019362517 -0.0041450243
0.0021871445 -0.0083792545 0.004575122 -0.004300777 0.00981491 -0.01487596 -0.0052377223 0.00065071805
-0.0014492498 0.011649191 0.0195277 -0.0060810433 0.0045680655 -0.0056669093 0.00011103114 0.010416518
-0.010036629 0.0020636038 -0.008778189 -0.0018560454 -0.001607553 0.012610343 0.011563239 0.00025842202
00000000: 98b2 903b 8701 9d3b 9164 51bb 428b a33c
00000010: fd2c 2abb de53 953a 90eb a43b e33f e0b9
00000020: 296d f0bb af0b adbb bcff 4ebb 3696 993c
00000030: 84f9 e8bb 0d9b e8b9 de49 a33b 8e31 2abc
00000040: 2e6c a53c b6ca e5bb 9379 843b 7586 8d3b
00000050: 486e 96bb 3b9a 12bb 49e7 e43c 32eb 933a
00000060: a691 03bc 3680 083c b9f0 aa3b 14a6 853c
00000070: 0b0d 2c3c 3dc2 1e3b 2ac6 d23b 00bc a53c
00000080: 4368 cb3c 17a6 5e3c 4fa7 553c 632a c43a
00000090: de7c 023c f647 313b 15ec 5bbb 1996 4b3b
000000a0: 89a2 b33b d1f5 343c 4e23 a43c 0837 483c
000000b0: 0ecf 973b 65b7 efbb 326d b0bb f05a 063c
000000c0: 15fd 5c3b a4c6 12bb 77b4 40bc d328 f53b
000000d0: 1742 143c 5f9e fb3b a2a3 b2bb fc21 77bc
000000e0: fd6c aa3b 7d78 d4bb 94af 273c 07a0 723c
000000f0: 83b2 ba3b d61d fdba 5d01 7a3c e77e 40bc
00000100: 0c39 b93c 9e15 58bb 8363 cf3b 8946 183d
00000110: 7c7a e8bb 3608 a83b 2182 ba3b 1341 f9bc
00000120: 258e f5ba bedf bc3a 9d7b 2cba f677 e83c
00000130: caac 5539 11a7 75bc 8ec0 a73b 16b2 30bc
00000140: 5d70 053c ad52 2abc fd34 763c 4d71 c039
00000150: bf94 443c b7bf 52bb d3f4 72bb d8e5 26bc
00000160: a125 47bc 535d b2ba a8f4 3e3c 1b80 143c
00000170: 65fe 97ba 4311 543c 3109 823c 2473 2f3c
00000180: 06fb 753b 03d8 8b3b 63e1 8d3c 94f4 e1bb
00000190: c809 e43b f09f c33c 540a 673c 6808 ad3b
000001a0: 8397 823b f51b 3c3c 288d 233c fbe4 c03b
000001b0: e381 273c b6ba 183c 6b48 b0bb 7e4d 1b3a
000001c0: 5ec3 ae3c 5931 913b 8998 35bb c493 9cb9
000001d0: 72f9 0bbc 894f 603c 5fa4 263c 5ca0 01bc
000001e0: f69d 1bbb d7fb 1e3c 2cc3 77bc 6eeb 1bbc
000001f0: cf95 d43b a6d8 4cbb 0412 6b3c 8827 343b
00000200: 9dc4 8cbb 737a f23b 8171 99bb ce7d 47bc
00000210: 3758 913c e76a 0bbc 2770 bd3c 5b7f be3b
00000220: 628d f03b 722b f73b 7880 e0ba 8609 083c
00000230: 28e8 dcbc bc8a 513c 31fd 993c e7f8 6a3c
00000240: 1759 2dbc c01d 03bc b116 67bc 851f 613c
00000250: a428 103c e797 273b 5aa8 663c d9eb a63b
00000260: fe2b 983c 113c 10bc f3d0 fcba c347 2f3b
00000270: 01ca 06bb bc14 a8bb edd1 dabb ad88 e93a
00000280: 4804 6f39 46c8 3e3b 2dab 103c d1df 583b
00000290: a1ae cc3b d57a 5cbc e0e1 e83b c33e 0bba
000002a0: 2da1 273b 9709 ab3c 763d c3b9 3cf9 dc3b
000002b0: 0bdc d43a 1577 acbb 1579 d8bb ce87 133c
000002c0: edee 033c f66f 8f3b e06b d83c a512 913c
000002d0: 724d 363b 1e53 8e3c 5c0a d0ba 57fc 893a
000002e0: b142 54bc 7089 dabb 613a 1e3c a3f8 5c3b
000002f0: 51dd 70ba 36a5 a53c 99f9 1d3c 5e8d 9d3b
00000300: 6376 17bb 682b 2abb 0e27 81bb c2d9 0e3c
00000310: 4655 c63a 6d84 b5bb 095f ec3b 16c4 723a
00000320: 6203 d23c f606 073c 167a c43a 392d 073c
00000330: 1c4b 9ebb e1a5 2c3c 9c32 d6ba dd37 073c
00000340: 1640 d63b 13c5 8c3b 69f0 773c 1e57 ae3b
00000350: 4653 2fba b351 87bb d0b4 533c 474f 8bba
00000360: 6c12 a43b b232 21bc 1004 c63b 5eab 0a3d
00000370: 709b b13a fefc 5c3a a78b c03a a6d5 bd3c
00000380: 72cd b43b 0efc 953b 2d77 5c3c 52b4 48bc
00000390: 2e6a 853c a353 f63b 249e 9ebc fcd2 87bb
000003a0: 3256 0f3b 2449 09bc e8ea 953b 88ed 8cbb
000003b0: b7ce 203c 4cba 73bc 33a1 abbb f394 2a3a
000003c0: c1f4 bdba 40dc 3e3c 8ef8 9f3c 7d43 c7bb
000003d0: b6af 953b 7bb1 b9bb 64d9 e838 0baa 2a3c
000003e0: ac70 24bc 873d 073b 65d2 0fbc 8d46 f3ba
000003f0: 87b4 d2ba 9d9b 4e3c bd73 3d3c d17c 8739

network_body._body_endoder.seq_layers.2.weight f4 [256, 256]
-0.01876225 0.054255687 0.026935097 0.15432456 -0.0626954 -0.012255393 -0.008199062 -0.11511652
-0.056968316 0.010460391 0.08099053 0.1592215 -0.04465976 0.027378608 0.054006997 -0.062031906
0.10850065 -0.029192766 -0.030030556 -0.047938664 -0.06895703 -0.06671233 0.018135456 -0.023239592
-0.090785004 0.022650497 -0.069627136 -0.04435695 0.060770147 0.024165321 0.016295318 0.101624645
0.069479525 0.13991582 0.009908779 0.11465234 0.04284808 -0.011660712 -0.052303754 -0.022206785
0.06439857 0.028964365 0.019984504 -0.006208083 -0.005720133 0.014048467 -0.06367157 0.037981518
0.029046346 0.027018752 -0.050401554 0.04182549 0.017330289 -0.0063291653 -0.054016396 -0.06681187
-0.10610193 0.039691564 0.13914597 -0.04498907 -0.00949825 -0.01911941 0.018285383 0.0333999
0.11182296 0.033561166 -0.085669525 0.0796326 -0.022949826 -0.0500683 0.07386363 -0.014621866
-0.02057299 0.029331824 -0.11211046 -0.021545995 -0.11798156 -0.013720724 0.06066368 0.023722978
-0.012152764 0.04649251 0.07525918 -0.07710991 0.11598775 -0.10390336 0.028646983 0.039154463
0.10309637 -0.08799624 -0.05026457 -0.057959948 0.076175965 0.029422453 0.0070053055 0.06549649
-0.090508275 -0.053939153 0.027880736 0.0021626288 -0.025916927 0.036585588 0.08637277 -0.08579724
-0.119034745 0.06275652 -0.036443938 0.022748701 -0.009236604 -0.0020414558 -0.104791954 -0.10411105
0.041588597 -0.048345685 0.034832228 0.016834656 -0.06859978 -0.017866585 0.047918182 -0.04877589
0.008822357 -0.105258755 0.06876958 -0.0697594 0.15374556 5.9501162e-05 0.033567663 -0.0497904
0.038908634 0.03065742 0.044336006 0.09525761 0.036071356 -0.08447039 -0.0072863763 0.0873239
0.10470388 -0.09180145 -0.056504305 0.0059130113 -0.07223375 -0.114028566 0.04933918 0.02448686
-0.046061236 -0.038878642 -0.019449405 -0.0067206547 -0.068452284 -0.022317024 0.09529374 0.06800688
0.015346493 0.059142753 0.08211909 -0.069063574 -0.04214032 0.018005887 -0.08571562 -0.009097641
0.057418447 -0.1619014 0.0045994194 0.06545184 0.021049783 -0.034234572 -0.019386033 -0.033161443
-0.009460283 0.041697867 0.056285076 0.0198599 0.019876167 0.013073257 -0.17780872 0.029704487
-0.05605737 0.06532755 0.13352549 0.12815554 -0.02109237 0.02364172 -0.0533155 -0.03936665
-0.061618693 -0.0443007 0.066279516 -0.08991336 -0.04159582 0.062104404 -0.11217373 -0.09807387
-0.05062733 0.041637104 -0.02577628 0.0054292404 0.020037979 -0.061261803 0.018559918 -0.13447544
0.010159477 -0.037225638 0.012887103 -0.03923635 0.018034037 0.011166497 -0.08635213 0.06195666
-0.005869431 -0.05669103 -0.06288258 -0.17940488 0.031258646 -0.0031334406 0.038135983 0.0042211916
0.08102934 -0.0020214068 0.03943516 0.047905605 -0.070761435 -0.1059209 0.07856162 -0.10402285
0.08941517 0.047107313 0.0117838 -0.036969796 0.06812348 -0.030962886 -0.07378919 0.010404975
0.24548377 0.10558301 -0.08763765 0.12974668 -0.051026084 0.08501662 0.042932935 0.035535235
-0.07528945 -0.079289064 -0.0226513 -0.080198556 -0.04885363 -0.024091747 -0.010364562 -0.025112862
-0.011363933 -0.16392714 0.039609876 -0.03857036 -0.032177936 0.12500088 0.08638791 -0.029379295
00000000: 4ab3 99bc 363b 5e3d fea6 dc3c 4207 1e3e
00000010: 7266 80bd d8ca 48bc 5c55 06bc 36c2 ebbd
00000020: 9c57 69bd 0f62 2b3c 5dde a53d f60a 233e
00000030: 27ed 36bd 1a49 e03c 7136 5d3d 2b15 7ebd
00000040: 9735 de3d ab25 efbc a402 f6bc 555b 44bd
00000050: 5839 8dbd 79a0 88bd cf90 943c f560 bebc
00000060: 7ded b9bd 898d b93c ac98 8ebd a2af 35bd
00000070: 1eea 783d 5af6 c53c c27d 853c 9520 d03d
00000080: 484b 8e3d 1846 0f3e 6e58 223c d9ce ea3d
00000090: 7881 2f3d 920c 3fbc 763c 56bd 01eb b5bc
000000a0: 66e3 833d ad46 ed3c 8bb6 a33c 2d6d cbbb
000000b0: f46f bbbb 8b2b 663c 3d66 82bd 8292 1b3d
000000c0: 9af2 ed3c 6e56 dd3c dc71 4ebd 3451 2b3d
000000d0: 40f8 8d3c e364 cfbb 4c40 5dbd a9d4 88bd
000000e0: f84b d9bd 9f93 223d 487c 0e3e 7646 38bd
000000f0: 8c9e 1bbc 4fa0 9cbc 3acb 953c 55ce 083d
00000100: 7003 e53d 6f77 093d 8173 afbd 6b16 a33d
00000110: 4601 bcbc 6b14 4dbd d145 973d 8d90 6fbc
00000120: b088 a8bc 4b49 f03c 2b9a e5bd 3a81 b0bc
00000130: 51a0 f1bd e3cc 60bc 7b7a 783d b156 c23c
00000140: 631c 47bc ee6e 3e3d 7c21 9a3d cdeb 9dbd
00000150: fc8a ed3d 49cb d4bd 14ad ea3c 6e60 203d
00000160: 3124 d33d 5f37 b4bd 39e2 4dbd 6967 6dbd
00000170: 2502 9c3d 5b07 f13c c38c e53b 0623 863d
00000180: 675c b9bd 4def 5cbd 2466 e43c e4ba 0d3b
00000190: bc4f d4bc c5da 153d 35e4 b03d 77b6 afbd
000001a0: 7dc8 f3bd 7e86 803d 3d46 15bd 7c5b ba3c
000001b0: 2055 17bc f2c9 05bb 2a9d d6bd 2d38 d5bd
000001c0: ce58 2a3d 2006 46bd 3dac 0e3d d5e8 893c
000001d0: 0b7e 8cbd f25c 92bc db45 443d 3ac9 47bd
000001e0: a68b 103c e791 d7bd 11d7 8c3d 04de 8ebd
000001f0: 7a6f 1d3e e390 7938 3f7e 093d 05f1 4bbd
00000200: a95e 1f3d 4525 fb3c ac99 353d 6c16 c33d
00000210: 8fbf 133d d0fe acbd 8ec2 eebb dfd6 b23d
00000220: fd6e d63d 6602 bcbd 0f71 67bd efc1 c13b
00000230: 4aef 93bd cf87 e9bd e117 4a3d ab98 c83c
00000240: b5aa 3cbd 363f 1fbd 5c54 9fbc f038 dcbb
00000250: b630 8cbd 31d2 b6bc 5d29 c33d 3147 8b3d
00000260: db6f 7b3c ac3f 723d 0e2e a83d 3471 8dbd
00000270: 549b 2cbd 1581 933c ac8b afbd 460e 15bc
00000280: 9b2f 6b3d 7bc9 25be bab6 963b 9d0b 863d
00000290: 9870 ac3c 8d39 0cbd 75cf 9ebc 4bd4 07bd
000002a0: 4eff 1abc 62cb 2a3d 2e8b 663d 3bb1 a23c
000002b0: 58d3 a23c 3731 563c 7d13 36be d356 f33c
000002c0: 6a9c 65bd 73ca 853d e8ba 083e 353b 033e
000002d0: e8c9 acbc 48ac c13c 5b61 5abd ed3e 21bd
000002e0: e263 7cbd a774 35bd 8ebd 873d 7f24 b8bd
000002f0: 6160 2abd 3061 7e3d 57bb e5bd f4da c8bd
00000300: 9a5e 4fbd ab8b 2a3d c728 d3bc c5e7 b13b
00000310: b026 a43c a8ed 7abd f80a 983c eeb3 09be
00000320: ef73 263c e979 18bd 6d24 533c 4cb6 20bd
00000330: 1ebc 933c aff3 363c 63d9 b0bd 44c6 7d3d
00000340: 5b54 c0bb da34 68bd 95c8 80bd eab5 37be
00000350: 1109 003d 695a 4dbb 7a34 1c3d ec51 8a3b
00000360: b6f2 a53d 9479 04bb c386 213d ab38 443d
00000370: 5feb 90bd 0fed d8bd eae4 a03d ef09 d5bd
00000380: 4d1f b73d 99f3 403d d710 413c a46d 17bd
00000390: 5384 8b3d e1a5 fdbc c91e 97bd a179 2a3c
000003a0: 1960 7b3e e83b d83d 5e7b b3bd 50dc 043e
000003b0: ba00 51bd 321d ae3d 72da 2f3d 658d 113d
000003c0: 5b31 9abd 4e62 a2bd 388f b9bc 243f a4bd
000003d0: be1a 48bd 0e5c c5bc 20d0 29bc 7db9 cdbc
000003e0: ca2f 3abc 84dc 27be f73d 223d f4fb 1dbd
000003f0: 03cd 03bd 3b00 003e 25ec b03d d9ac f0bc
