results/GroupJumper_v2/GroupJumper/GroupJumper-500046.onnx (onnx, 627270 bytes, 12 tensors)

network_body.observation_encoder.processors.0.conv_layers.0.weight f4 [16, 6, 8, 8]
0.04231255 0.048016008 -0.0064946134 0.026716676 0.028972039 -0.032206662 -0.019035714 -0.008161215
0.07228614 -0.0064569456 0.07083031 0.047686957 -0.058594882 -0.05462649 -0.020624336 -0.066436686
0.020917166 0.02905923 0.022443255 -0.013529438 0.040628538 0.017152954 0.0031436207 -0.017707448
0.009878396 0.01764952 0.012080598 -0.051713772 -0.008150773 0.024711404 -0.031328477 0.073679425
0.060301702 0.048382882 -0.02957804 -0.022549745 -0.07829489 -0.03427749 0.04844472 0.032162726
-0.07367024 -0.024323571 -0.0625817 0.027220042 -0.036754932 0.031910878 -0.011937503 0.006623214
0.026098283 -0.06252732 -0.08221244 -0.06445313 -0.01618316 -0.035784032 0.027801212 0.037528228
0.0708839 -0.0009806287 -0.060595702 -0.047547527 -0.009810697 -0.04671584 0.029495861 -0.053093582
0.07447431 0.032908894 -0.0056174984 -0.05815772 -0.044014324 0.0064361943 -0.03247957 -0.06775402
0.010663123 -0.05568275 -0.092566654 -0.03495117 -0.021241624 -0.046779905 -0.023618681 0.022347284
0.016362498 0.019743852 -0.043755695 -0.07496092 -0.06777933 0.07191565 0.015962463 0.008209092
0.014948133 0.012822231 -0.04491889 -0.111688904 0.049806546 0.01495138 -0.0027719957 0.014128836
0.020524077 0.035004567 0.041754164 0.01998317 -0.012840655 0.0029828672 -0.06207268 -0.0118510015
0.037171703 0.02945321 0.00029061723 0.035349105 -0.051611904 -0.07188698 0.042847563 0.07322281
0.0053960346 0.059078064 -0.027033128 -0.022597028 0.0067503564 0.0019686138 0.07983896 0.059931744
0.05972911 0.09217172 0.0072435546 -0.03789836 -0.015122006 0.006736659 -0.02579725 -0.020811945
-2.1747386e-05 -0.07994143 0.043416638 0.014848643 -0.033436507 -0.04632766 0.049186487 -0.003709665
-0.044224698 -0.01786431 -0.01817159 0.033399943 0.025909202 -0.049522303 -0.036077883 0.07356419
-0.030416233 -0.0084652165 0.02980275 0.031178402 0.018549584 -0.05469969 -0.023187537 -0.005628947
0.016516495 -0.036384907 0.03069579 -0.028337372 -0.0597954 0.011014987 -0.047312878 0.0017695837
-0.032938775 -0.065187335 -0.0005908956 -0.023944879 -0.006153215 0.017439092 -0.017421538 0.062882915
0.002059253 -0.00959395 0.005985122 -0.009966191 -0.034121748 -0.000376484 -0.0204044 0.016521664
0.0088540595 -0.019914122 0.027815431 0.04466417 -0.008090603 -0.08473309 -0.03535323 -0.034964684
-0.021930885 -0.026090201 0.040800907 0.035688896 0.017589644 -0.026906978 0.041720595 0.05744267
0.07928387 0.038076025 0.034372833 0.014218662 0.054132994 -0.0015355721 0.034555867 0.06574802
0.056724463 -0.026583608 0.027497444 -0.014905171 -0.08518783 -0.048586108 0.008824354 0.124689326
0.07408751 -0.008382602 0.060094487 -0.014679587 -0.02315546 -0.06303569 -0.057263784 0.050966695
0.025339464 0.023043182 0.033699773 0.044236764 0.023309458 -0.02061694 -0.0012635181 -0.053444542
-0.06720683 0.0031828526 0.015982823 0.061981693 0.0851078 -0.04979954 -0.031659033 -0.03610573
-0.02024905 -0.0054077078 -0.021566985 -0.079468675 0.0078930585 0.047682762 -0.012216572 -0.10012848
0.008247422 -0.015314309 0.019863872 -0.026807688 -0.018427733 -0.018512577 0.022053683 -0.061445456
0.011776183 0.07075926 0.076256864 0.06674336 0.022938767 -0.01478663 0.06989028 0.04035967
00000000: ed4f 2d3d 6fac 443d c4d0 d4bb eedc da3c
00000010: c556 ed3c 22eb 03bd c9f0 9bbc 9eb6 05bc
00000020: c10a 943d c994 d3bb 7b0f 913d 6653 433d
00000030: 3001 70bd 07c0 5fbd 5ef4 a8bc f50f 88bd
00000040: 7a5a ab3c 9f0d ee3c ebda b73c 93aa 5dbc
00000050: 1c6a 263d 5a84 8c3c 3405 4e3b 360f 91bc
00000060: ffd8 213c ba95 903c b3ed 453c d2d1 53bd
00000070: d28a 05bc 926f ca3c 4a52 00bd 3de5 963d
00000080: ebfe 763d 212d 463d a54d f2bc 3eba b8bc
00000090: 1259 a0bd 8e66 0cbd f96d 463d 10bd 033d
000000a0: 6ce0 96bd 3a42 c7bc d62a 80bd 91fc de3c
000000b0: 578c 16bd fbb4 023d 8495 43bc 8c07 d93b
000000c0: 11cc d53c 530e 80bd ff5e a8bd 0100 84bd
000000d0: 8c92 84bc 4792 12bd 5ebf e33c 33b7 193d
000000e0: 942b 913d 7088 80ba 3333 78bd 32c1 42bd
000000f0: 0cbd 20bc 1c59 3fbd 4ea1 f13c a878 59bd
00000100: fd85 983d 7acb 063d fe12 b8bb ca36 6ebd
00000110: 5d48 34bd b6e6 d23b 4c09 05bd 9fc2 8abd
00000120: 61b4 2e3c 9813 64bd 9693 bdbd f528 0fbd
00000130: ea02 aebc 499c 3fbd f77b c1bc a711 b73c
00000140: a50a 863c dcbd a13c 2c39 33bd 1c85 99bd
00000150: e4cf 8abd 8348 933d b6c3 823c 6d7f 063c
00000160: 04e9 743c 5614 523c dffc 37bd 27bd e4bd
00000170: f301 4c3d a2f6 743c 5faa 35bb a27c 673c
00000180: 1c22 a83c f360 0f3d 6a06 2b3d bfb3 a33c
00000190: 9c61 52bc 357c 433b ec3f 7ebd b42a 42bc
000001a0: 5b41 183d dc47 f13c fc5d 9839 39ca 103d
000001b0: 0167 53bd 7b39 93bd ed80 2f3d d7f5 953d
000001c0: 38d1 b03b d7fb 713d 9474 ddbc 671d b9bc
000001d0: 1832 dd3b dc03 013b 9c82 a33d fd7a 753d
000001e0: 83a6 743d 87c4 bc3d 575b ed3b 503b 1bbd
000001f0: 4ac2 77bc 31bf dc3b c154 d3bc d07d aabc
00000200: 286e b6b7 55b8 a3bd a5d5 313d b947 733c
00000210: b8f4 08bd 13c2 3dbd c577 493d da1d 73bb
00000220: f524 35bd 2c58 92bc 96dc 94bc 61ce 083d
00000230: 893f d43c e6d7 4abd 67c6 13bd d2a8 963d
00000240: 772b f9bc b1b1 0abc e624 f43c d969 ff3c
00000250: 4cf5 973c c80c 60bd caf3 bdbc 0873 b8bb
00000260: 9a4d 873c 5708 15bd bd75 fb3c c723 e8bc
00000270: 05ec 74bd 3478 343c 26cb 41bd 60f1 e73a
00000280: cfea 06bd f080 85bd 55e6 1aba 0d28 c4bc
00000290: e9a0 c9bb 6ddc 8e3c 9db7 8ebc c2c8 803d
000002a0: 88f4 063b f12f 1dbc d81e c43b 3c49 23bc
000002b0: 3fc3 0bbd d462 c5b9 2127 a7bc 7158 873c
000002c0: 9e10 113c f122 a3bc 30dd e33c c7f1 363d
000002d0: 738e 04bc 8b88 adbd 8cce 10bd 2137 0fbd
000002e0: 66a8 b3bc 1ebb d5bc da1e 273d 852e 123d
000002f0: 2818 903c 066c dcbc 37e3 2a3d 0149 6b3d
00000300: 955f a23d 9bf5 1b3d 87ca 0c3d 64f5 683c
00000310: 8fba 5d3d 4045 c9ba 748a 0d3d e6a6 863d
00000320: e957 683d dec5 d9bc 5242 e13c d134 74bc
00000330: f576 aebd 3a02 47bd 0694 103c 1e5d ff3d
00000340: 31bb 973d 2e57 09bc a325 763d a782 70bc
00000350: 85b0 bdbc db18 81bd 6e8d 6abd 74c2 503d
00000360: b594 cf3c 0ec5 bc3c c608 0a3d 9c31 353d
00000370: 7af3 be3c dbe4 a8bc a29c a5ba aae8 5abd
00000380: bca3 89bd 6897 503b 69ee 823c 84e0 7d3d
00000390: 004d ae3d 9afa 4bbd e7ac 01bd 9ae3 13bd
000003a0: 56e1 a5bc 2433 b1bb 3fad b0bc 79c0 a2bd
000003b0: e351 013c 004f 433d 0428 48bc 2910 cdbd
000003c0: 3220 073c dee8 7abc 8fb9 a23c cc9b dbbc
000003d0: c2f5 96bc b0a7 97bc eda9 b43c 3bae 7bbd
000003e0: e4f0 403c 3bea 903d 8f2c 9c3d beb0 883d
000003f0: 15ea bb3c 9f43 72bc a322 8f3d 2e50 253d

network_body.observation_encoder.processors.0.conv_layers.0.bias f4 [16]
0.008574873 -0.020129927 0.010980115 -0.0008987468 -0.038998228 -0.06100554 -0.04798375 -0.020019224
-0.0026106944 0.002186831 -0.028350122 -0.00030293528 -0.032227516 0.027820908 0.026295679 -0.006941672
00000000: a07d 0c3c 84e7 a4bc f1e5 333c e099 6bba
00000010: 9bbc 1fbd f2e0 79bd 9c8a 44bd 5bff a3bc
00000020: 2f18 2bbb f050 0f3b 843e e8bc 49d3 9eb9
00000030: 0001 04bd ace8 e33c 096a d73c f776 e3bb

network_body.observation_encoder.processors.0.conv_layers.2.weight f4 [32, 16, 4, 4]
0.0056829816 0.0195185 0.059679028 0.0020640932 0.06219193 0.077256374 0.01719481 -0.053476643
0.012130602 0.022879006 0.056232892 -0.018757226 -0.016945058 -0.0073169763 0.015382623 0.028177943
-0.03204396 -0.04140072 0.01383086 -0.018928044 -0.034237362 0.023011753 -0.0037056801 -0.00016326821
0.05837424 0.039738677 0.06386925 -0.04534184 -0.017037766 0.036058474 -0.03131938 0.042815734
-0.05223354 -0.058318026 0.061493825 -0.00032541816 0.050706863 -0.05855232 -0.021308862 -0.012674065
-0.032554686 -0.03107016 -0.008949696 0.067322776 -0.04548601 -0.000113951995 0.08165826 -0.01619863
-0.01662074 -0.0045408127 0.012797623 -0.032354526 -0.035649396 -0.06843225 -0.0077389153 0.016925843
-0.0383272 -0.017820165 0.020378988 0.04247066 0.045556735 -0.0112529835 -0.037469678 -0.04780446
0.019326318 -0.035211828 -0.013565378 -0.067059405 -0.012776786 0.03696507 -0.056422837 -0.03713664
0.024398452 -0.062883615 0.0046604704 -0.0077724364 -0.04148097 -0.054619268 0.00030806326 -0.00042442486
0.00025432778 0.032366842 0.05186451 -0.046180733 -0.08868818 0.082991704 0.094712436 -0.014460965
0.049233146 -0.05587277 0.023069924 0.021780552 -0.06699599 0.08181091 -0.013676141 -0.0067303404
-0.024907291 -0.045119423 -0.075445145 0.04848433 -0.041805174 0.062367655 -0.010951988 -0.019357663
0.014035925 0.058387045 0.09667012 -0.050504874 0.061265912 -0.00047931424 0.02705861 0.054969914
-0.013395189 0.03477042 0.003572354 -0.051978614 -0.018557938 -0.01312413 0.04759845 0.011868804
-0.051240165 0.08921412 -0.035244796 0.018103797 -0.0067513315 -0.0030747168 0.00039962993 0.0032067874
-0.05251357 -0.057572722 -0.0031086076 -0.062146492 0.06232629 0.059321534 0.06404869 -0.033098508
0.01833162 0.085844845 0.031463776 0.05869141 0.012276841 -0.010542321 -0.028551217 0.04881447
-0.009511703 -0.038031373 -0.017608352 -0.0063521336 0.04399202 -0.016276795 -0.099284135 -0.043216642
0.037965205 0.048991848 0.025590636 0.025734283 -0.026428714 0.01517323 0.0076614614 0.0019433032
-0.0450726 -0.08423233 -0.029655566 0.02526021 0.046882592 -0.026603663 0.04406214 -0.05167227
-0.03376098 0.014750974 -0.040232636 0.052732766 -0.010998259 -0.0659025 0.018132864 0.016564934
-0.09192225 0.011742249 0.018504962 0.02870937 0.0035452691 0.041278597 -0.05745657 -0.008694169
-0.036291312 0.04969475 0.10075196 -0.04418037 -0.00055939605 -0.016641745 -0.037174273 -0.022619234
0.062950626 -0.013671981 -0.06425706 -0.03859488 -0.055207 0.054021493 -0.002209284 0.07474681
-0.008109712 0.024371918 -0.016246185 0.009042283 -0.0536108 -0.078386515 0.060131118 -0.036972407
0.023519946 0.015455383 0.060975447 0.032017317 0.06466731 0.039929915 -0.008595501 -0.02849808
-0.009613884 0.02424292 -0.028052649 -0.036374018 0.0014634711 0.036404442 0.057657596 0.06805631
0.03288068 -0.060605396 -0.04333288 -0.064031266 0.02473884 0.064682335 0.08024038 -0.006954043
-0.011075288 0.05788095 0.030233975 -0.01590006 0.05437396 0.040128075 -0.032804143 0.048112694
-0.018600872 0.028171785 0.03444663 -0.026131265 0.015940882 -0.0051689046 -0.03845108 0.009501983
-0.008941131 0.028023852 -0.07025083 0.05343386 0.061819863 0.025220849 -0.038208265 -0.013964542
00000000: 4e38 ba3b 43e5 9f3c ff71 743d bd45 073b
00000010: f7bc 7e3d 9738 9e3d 21dc 8c3c 530a 5bbd
00000020: 6fbf 463c c16c bb3c 7654 663d c1a8 99bc
00000030: 5dd0 8abc 3fc3 efbb 6607 7c3c 6ed5 e63c
00000040: 8740 03bd cd93 29bd d59a 623c fc0e 9bbc
00000050: 7a3c 0cbd 2583 bc3c ffda 72bb fa32 2bb9
00000060: d419 6f3d 06c5 223d e2cd 823d 5db8 39bd
00000070: c992 8bbc 0db2 133d c048 00bd 8d5f 2f3d
00000080: d6f2 55bd e2de 6ebd f3e0 7b3d e39c aab9
00000090: 00b2 4f3d 8fd4 6fbd ec8f aebc e2a6 4fbc
000000a0: 1058 05bd d986 febc bfa1 12bc 86e0 893d
000000b0: 8a4f 3abd 83f9 eeb8 723c a73d fdb2 84bc
000000c0: 3828 88bc 19cb 94bb 1fad 513c 2e86 04bd
000000d0: 1a05 12bd 3526 8cbd ba96 fdbb 11a8 8a3c
000000e0: fbfc 1cbd 98fb 91bc d6f1 a63c b7f5 2d3d
000000f0: b399 3a3d 6f5e 38bc ce79 19bd 9cce 43bd
00000100: 3a52 9e3c 473a 10bd 5241 5ebc 7156 89bd
00000110: ba55 51bc af68 173d a21b 67bd 971c 18bd
00000120: 43df c73c 20c9 80bd dcb6 983b ecaf febb
00000130: f3e7 29bd 74b8 5fbd 8d83 a139 5785 deb9
00000140: 4c57 8539 1893 043d e16f 543d 0228 3dbd
00000150: 26a2 b5bd 8ef7 a93d 98f8 c13d afed 6cbc
00000160: b2a8 493d d8da 64bd 23fd bc3c 216d b23c
00000170: 3235 89bd 7a8c a73d e511 60bc 308a dcbb
00000180: 600a ccbc 25cf 38bd fc82 9abd 8197 463d
00000190: e73b 2bbd 3a75 7f3d f86f 33bc f693 9ebc
000001a0: f0f6 653c 4127 6f3d fcfa c53d 33de 4ebd
000001b0: f7f1 7a3d 784c fbb9 05aa dd3c 2228 613d
000001c0: 7f77 5bbc 6e6b 0e3d 281e 6a3b 87e7 54bd
000001d0: d106 98bc 9706 57bc 98f6 423d 5f75 423c
000001e0: 35e1 51bd e4b5 b63d d95c 10bd 6a4e 943c
000001f0: 463a ddbb 3081 49bb 6c85 d139 f728 523b
00000200: 7818 57bd 60d1 6bbd c8b9 4bbb 528d 7ebd
00000210: da49 7f3d 23fb 723d f62b 833d 4d92 07bd
00000220: 322c 963c 6ccf af3d 29e0 003d 6766 703d
00000230: ce24 493c b3b9 2cbc 3ee4 e9bc aff1 473d
00000240: f9d6 1bbc c9c6 1bbd 643f 90bc 8f25 d0bb
00000250: fa30 343d ea56 85bc 7b55 cbbd ef03 31bd
00000260: 6781 1b3d adab 483d 74a3 d13c b4d0 d23c
00000270: 0881 d8bc 2499 783c ff0c fb3b 6fb6 fe3a
00000280: 0c9e 38bd 0082 acbd 3bf0 f2bc 80ee ce3c
00000290: f607 403d edef d9bc 817a 343d 4da6 53bd
000002a0: f448 0abd 12ae 713c faca 24bd 50fe 573d
000002b0: 0b32 34bc e4f7 86bd 5f8b 943c 2fb3 873c
000002c0: bc41 bcbd 9062 403c b897 973c ea2f eb3c
000002d0: bf57 683b bf13 293d 9557 6bbd fd71 0ebc
000002e0: 33a6 14bd b98c 4b3d 0b57 ce3d 7af6 34bd
000002f0: 6fa4 12ba 4554 88bc 0d44 18bd f94b b9bc
00000300: 42ec 803d 7200 60bc 3599 83bd aa15 1ebd
00000310: bc20 62bd a445 5d3d a3c9 10bb db14 993d
00000320: 99de 04bc 9ea7 c73c b816 85bc 1526 143c
00000330: 0097 5bbd 1c89 a0bd 0c4c 763d 6170 17bd
00000340: e7ac c03c 9338 7d3c 64c1 793d 9724 033d
00000350: 4b70 843d 8d8d 233d 25d4 0cbc ce74 e9bc
00000360: 8d83 1dbc 1799 c63c abce e5bc ecfc 14bd
00000370: f1d1 bf3a d31c 153d 5f2a 6c3d 1b61 8b3d
00000380: e4ad 063d 5d3d 78bd d17d 31bd d322 83bd
00000390: 1ca9 ca3c 2c78 843d 1155 a43d bede e3bb
000003a0: 2075 35bc 9314 6d3d 3ead f73c d840 82bc
000003b0: 3bb7 5e3d 565d 243d a35d 06bd d111 453d
000003c0: db60 98bc 84c8 e63c e917 0d3d 3c11 d6bc
000003d0: 7496 823c ea5f a9bb e17e 1dbd 35ae 1b3c
000003e0: d27d 12bc 4792 e53c abdf 8fbd 77dd 5a3d
000003f0: d336 7d3d f49b ce3c 4580 1cbd 89cb 64bc

network_body.observation_encoder.processors.0.conv_layers.2.bias f4 [32]
0.039580762 -0.0019653689 -0.034551673 0.015045515 -0.004632487 0.052189663 0.04886428 0.026590021
-0.03507451 0.013887248 0.025195856 0.030474242 0.033486467 -0.051622413 -0.025800586 -0.023304513
-0.002637057 0.0074966294 -0.02311612 0.05019785 -0.009727209 0.006346566 -0.013641793 0.050903324
-0.035748072 -0.02357191 0.015099549 -0.0013454938 0.03153773 -0.04173735 -0.016746288 -0.05603307
00000000: 701f 223d 6bcd 00bb 0e86 0dbd 7781 763c
00000010: 1ecc 97bb d4c4 553d e925 483d 51d3 d93c
00000020: 4aaa 0fbd 5787 633c 8a67 ce3c 1ea5 f93c
00000030: 1b29 093d 0672 53bd c05b d3bc 1be9 bebc
00000040: 7ad2 2cbb 49a6 f53b 045e bdbc 439c 4d3d
00000050: df5e 1fbc dbf6 cf3b d481 5fbc 0180 503d
00000060: 926c 12bd e119 c1bc 1964 773c 485b b0ba
00000070: b52d 013d c9f4 2abd 832f 89bc ef82 65bd

network_body.observation_encoder.processors.0.dense.0.weight f4 [256, 32]
-0.06392781 0.033752184 0.1434362 0.0040117577 0.14302927 -0.01137006 0.10020612 0.4648302
0.19990917 0.19375846 0.03732927 0.46366903 -0.21694304 0.12399805 0.37407824 0.37100935
-0.14789455 -0.32337856 -0.10709402 0.18295328 0.10593629 -0.1298134 -0.16711041 -0.21780643
-0.42707717 -0.040855274 0.6396895 -0.19008772 0.17582332 -0.5141623 -0.10696008 0.010630099
0.058735948 0.09657028 0.093738824 -0.5332142 -0.08709873 -0.21878408 -0.5011832 -0.110120475
-0.10389246 -0.06469783 0.018076243 -0.3568575 -0.0064124814 0.12515177 -0.13093463 -0.11722508
-0.41239557 -0.051939007 0.14056359 -0.0848884 -0.14284094 0.7068755 -0.2562944 -0.15343288
-0.15822016 -0.03627168 -0.29086345 -0.3350906 -0.23673484 -0.06479515 -0.47318757 0.073652536
0.2623112 -0.24173073 -0.24083896 0.106873475 -0.036597848 0.17027654 -0.20959081 0.009688403
-0.23941207 -0.3431045 -0.39395902 0.16017167 0.38753295 0.08833869 0.08985352 0.06292048
0.5060121 0.023661604 -0.11541979 -0.06436809 -0.11925497 0.12749721 0.11893533 -0.27618584
0.076552935 0.123690195 0.49262762 -0.34597668 -0.07917238 -0.22577569 0.41265365 0.09701756
-0.41178346 -0.30269617 -0.14984345 0.29874966 0.37575328 0.15953666 -0.18182476 -0.39450788
-0.57584864 -0.047242817 0.060327355 0.36492246 0.10768628 -0.12153415 -0.51554155 0.13288844
0.07310991 -0.06877873 -0.123520695 -0.21072069 0.17495432 -0.06486464 0.14385268 -0.0125958305
0.43491784 -0.04434059 -0.13881186 -0.18821312 0.22561285 0.31999877 0.009563427 0.03369536
0.022146348 -0.12208679 -0.31889868 0.056850083 0.024441568 0.18830256 -0.19882135 0.3453649
0.24078329 0.2948456 -0.30200213 -0.168001 0.06146837 -0.2813972 -0.22614063 0.18344875
-0.28096986 0.04069678 0.10376067 0.42427173 0.32087907 0.16273642 0.3260449 -0.45830736
-0.5489759 0.09876894 -0.19360042 0.15885186 0.24738374 0.30771637 -0.027366411 -0.06946358
0.1971259 0.17095387 0.19764993 0.09047706 -0.44358936 0.04090025 -0.63737583 -0.11071083
0.020027444 -0.06725932 -0.024308918 -0.14320977 0.21279739 -0.0505824 -0.46593657 -0.1447589
-0.017454222 0.19534446 0.26503456 0.35112497 0.43467584 0.119565 0.21494846 0.1460993
0.3729047 0.6147812 0.17279248 0.054172173 -0.02574346 0.07484482 0.35838312 -0.02714117
-0.12047024 -0.5895158 -0.08984141 0.045760326 -0.024734484 0.06966656 0.72458655 0.07586342
0.13509251 0.24809392 -0.21793102 -0.1918134 -0.088245146 0.37804052 -0.061726626 0.569016
-0.29162773 0.2656438 -0.05772439 -0.05316942 -0.08961681 -0.09601374 0.29773614 -0.0024522825
0.17383654 0.49314168 -0.14166819 0.22629052 -0.07993221 0.22115739 0.15822934 0.21017362
-0.05480288 -0.2772985 0.03067445 0.22029114 0.19118866 0.08898659 0.18423817 0.24234642
-0.10422151 -0.12647562 0.074201405 0.18835512 0.15330231 0.03148573 -0.23860557 0.06487317
-0.14438705 -0.10169959 -0.21989843 0.039724473 -0.3007855 -0.23191267 0.24333978 0.041697152
0.30933005 0.67701626 -0.44099346 0.048575114 0.13617152 -0.2580028 -0.3706784 -0.01579955
00000000: 95ec 82bd bb3f 0a3d f0e0 123e 1075 833b
00000010: 4476 123e 7d49 3abc de38 cd3d 39fe ed3e
00000020: fdb4 4c3e 9e68 463e 94e6 183d 0766 ed3e
00000030: 5126 5ebe b1f2 fd3d 2f87 bf3e f0f4 bd3e
00000040: ab71 17be e091 a5be 1c54 dbbd 1b58 3b3e
00000050: 20f5 d83d ceed 04be fe1e 2bbe a608 5fbe
00000060: dca9 dabe dc57 27bd b1c2 233f 5ba6 42be
00000070: 070b 343e 24a0 03bf e30d dbbd de29 2e3c
00000080: 1b95 703d a4c6 c53d 24fa bf3d ba80 08bf
00000090: d260 b2bd ef08 60be 8b4d 00bf d886 e1bd
000000a0: 92c5 d4bd 4c80 84bd a114 943c 07b6 b6be
000000b0: cb1f d2bb c927 003e ba13 06be b413 f0bd
000000c0: 8325 d3be ffbd 54bd e7ef 0f3e f8d9 adbd
000000d0: e544 12be cbf5 343f 0539 83be 821d 1dbe
000000e0: 7704 22be 9d91 14bd 0eec 94be ff90 abbe
000000f0: 9e6a 72be 52b3 84bd a445 f2be 24d7 963d
00000100: a74d 863e 4388 77be 7d9e 76be 7be0 da3d
00000110: a0e7 15bd f95c 2e3e f99e 56be 1cbc 1e3c
00000120: 7028 75be 65ab afbe ffb4 c9be 0b04 243e
00000130: b86a c63e eaea b43d 1f05 b83d 74dc 803d
00000140: 028a 013f fbd5 c13c 3661 ecbd 6bd3 83bd
00000150: f33b f4bd a18e 023e 5e94 f33d 3b68 8dbe
00000160: c9c7 9c3d 4951 fd3d b039 fc3e db23 b1be
00000170: 2125 a2bd be31 67be 5747 d33e 24b1 c63d
00000180: 48d5 d2be fefa 9abe 9070 19be b7f5 983e
00000190: bc62 c03e 945d 233e 4530 3abe f0fc c9be
000001a0: d16a 13bf af81 41bd d119 773d 1ed7 ba3e
000001b0: a08a dc3d e5e6 f8bd 88fa 03bf e813 083e
000001c0: a6ba 953d dddb 8cbd 6bf8 fcbd 2ac7 57be
000001d0: 3a27 333e c1d7 84bd 1e4e 133e be5e 4ebc
000001e0: 8dad de3e 7a9e 35bd b224 0ebe f1ba 40be
000001f0: 0e07 673e e1d6 a33e ecaf 1c3c 2504 0a3d
00000200: 426c b53c a408 fabd b046 a3be a2db 683d
00000210: af39 c83c 63d2 403e d397 4bbe abd3 b03e
00000220: e58f 763e 01f6 963e 06a0 9abe 7408 2cbe
00000230: 42c6 7b3d 4b13 90be 6991 67be fdd9 3b3e
00000240: 48db 8fbe abb1 263d 7980 d43d 253a d93e
00000250: 434a a43e 60a4 263e 5bef a63e 43a7 eabe
00000260: af89 0cbf 5f47 ca3d 303f 46be 10aa 223e
00000270: 2a52 7d3e 008d 9d3e 862f e0bc ec42 8ebd
00000280: 5fdb 493e 880e 2f3e be64 4a3e 094c b93d
00000290: 251e e3be 0587 273d 102b 23bf 5cbc e2bd
000002a0: 9810 a43c 41bf 89bd 7f23 c7bc 95a5 12be
000002b0: 8fe7 593e 7e2f 4fbd 3d8f eebe ad3b 14be
000002c0: 28fc 8ebc 6108 483e 9cb2 873e a7c6 b33e
000002d0: d58d de3e 7fde f43d 731b 5c3e 0e9b 153e
000002e0: 5ded be3e 4d62 1d3f 83f0 303e a4e3 5d3d
000002f0: f3e3 d2bc 3e48 993d fe7d b73e 2957 debc
00000300: 1ab9 f6bd 82ea 16bf c6fe b7bd 2e6f 3b3d
00000310: f99f cabc 57ad 8e3d 817e 393f 485e 9b3d
00000320: b155 0a3e 550c 7e3e 4f29 5fbe bb6a 44be
00000330: dfb9 b4bd 878e c13e 0fd5 7cbd 08ab 113f
00000340: 3b50 95be 7702 883e 6970 6cbd 2ec8 59bd
00000350: 0589 b7bd daa2 c4bd df70 983e 79b6 20bb
00000360: 3502 323e 117d fc3e 7711 11be b4b8 673e
00000370: 80b3 a3bd 1577 623e df06 223e c137 573e
00000380: fc78 60bd 12fa 8dbe fc48 fb3c 0094 613e
00000390: f6c6 433e 9a3e b63d eea8 3c3e a929 783e
000003a0: 1672 d5bd d382 01be e8f6 973d 2ae0 403e
000003b0: 48fb 1c3e 2ef7 003d 0555 74be 39dc 843d
000003c0: 33da 13be e047 d0bd 0e2d 61be 21b6 223d
000003d0: 8f00 9abe 847a 6dbe 102e 793e a2ca 2a3d
000003e0: 8260 9e3e f050 2d3f e5c9 e1be b3f6 463d
000003f0: 8c70 0b3e f118 84be 8fc9 bdbe 0f6e 81bc

network_body.observation_encoder.processors.0.dense.0.bias f4 [256]
-0.0056108185 -0.039450962 0.025085917 -0.02991771 0.018191414 0.007573274 0.0061767846 0.007617584
0.024371011 0.0043206383 0.0073683634 -0.017090295 0.002061348 -0.024908323 0.033138704 0.02200063
0.017451625 -0.0053601786 -0.0019535194 0.042425 0.027978629 -0.0010604064 0.013650245 -0.02108599
0.0010459264 -0.0059231585 -0.007268743 0.011056303 0.006119289 -0.004507747 0.016624674 0.0165887
0.013339628 0.03936046 0.0002065999 -0.030432545 0.0042401464 0.010746733 0.0294522 0.044802632
0.015075755 -0.004279557 0.011429996 0.049669262 0.038764738 0.011360429 0.0068079242 -0.0023257441
-0.005480472 0.0033516635 0.022578692 0.037783712 -0.0073263096 0.016837474 0.0019703573 0.0101966625
0.0005912564 0.021430662 -0.02503485 -0.020863645 0.018804729 0.050029993 -0.039887108 0.0024806813
0.02191375 -0.009191975 0.013663409 0.041213285 0.008503675 -0.0014415651 -0.0037379432 0.024121432
-0.009439892 0.010328492 0.02694956 -0.014574657 -3.4781697e-06 0.009954915 -0.012864154 0.019158265
-0.01586984 0.0008550953 0.025784485 0.015249106 0.027481036 -0.015699044 0.016619656 0.0037376618
-0.0019378054 0.028292332 0.002921208 0.018341186 0.046678882 0.018059513 0.009531156 0.03858246
0.021424726 0.033863347 0.020514823 -0.004408806 -0.031650838 0.008749065 0.004195458 0.03239637
0.041550606 0.014904432 -0.019834092 -0.024198592 -0.0017401583 0.02616712 -0.002861004 0.00728993
0.023464695 0.0012349742 -0.021020452 0.01853762 0.0155316945 -0.0027742232 0.015975313 -0.007276534
0.0073702373 0.0031898024 0.03980623 -0.005096708 -0.010236967 0.019398596 0.004261737 0.05291561
0.009691915 0.01818094 0.0043600197 0.006944377 0.01468222 0.018502401 0.0137879085 0.029360764
0.00925788 -0.0044453484 0.008149673 -0.022148142 0.018318292 -0.0030026396 -0.010874493 0.024573887
-0.014842466 -0.023463177 0.021110546 0.016901592 0.0055104084 0.0054659927 0.022269666 0.013224703
-0.0049241064 -0.057708666 -0.006337574 0.005201937 -0.010128097 0.032266267 -0.008794487 -0.0068915733
0.020456903 -0.0034927083 -0.010934225 0.037661914 0.014902586 0.0026694143 -0.016028969 0.021048544
-0.0060759545 0.02289561 -0.014647645 -0.0013353914 0.0017738419 0.025238836 -0.0014535191 -0.0052066743
0.013121134 0.016024712 0.025082735 -0.005184825 -0.023157414 0.0372181 0.026667519 0.021686917
0.029996358 0.0075740325 0.04846107 0.012782371 0.021010088 0.0022397237 -0.012762262 0.009249284
0.0010433426 -0.0044071563 -0.018863473 0.015329128 -0.0130331395 0.0030215639 0.03375995 0.018214274
0.008808022 0.005262527 0.03074367 0.030537866 0.018858612 0.07028734 -0.007211851 -0.017849352
-0.030424822 -0.015635082 0.056855213 0.027947377 0.00436486 -0.00834496 -0.0004702596 -0.016713005
0.019493345 -0.00018065529 0.010763094 0.012262291 0.069143265 0.013594439 0.022484705 -0.0024233204
0.05243827 -0.0027494316 -0.003743011 -0.0010976631 0.006905179 -0.00036949757 0.026628371 0.015204098
0.016079629 0.0059346044 -0.002893722 -0.014840811 0.0020730135 -0.012999014 0.032047488 0.010166767
-0.020397594 0.002179184 0.019152088 0.056315288 0.008094315 -0.0052342704 0.021068212 -0.01772943
0.011929927 0.020716023 0.00047744028 0.008040968 0.033863366 -0.019793285 0.009802633 0.011480341
00000000: f5da b7bb 5597 21bd fb80 cd3c fc15 f5bc
00000010: 2906 953c 3a29 f83b a066 ca3b ed9c f93b
00000020: b7a5 c73c 2494 8d3b 5072 f13b f200 8cbc
00000030: ae17 073b 8a0c ccbc 73bc 073d aa3a b43c
00000040: b6f6 8e3c 70a4 afbb 9e06 00bb d6c5 2d3d
00000050: 7033 e53c 56fd 8aba 47a5 5f3c 87bc acbc
00000060: 7717 893a 0e17 c2bb a32e eebb 7f25 353c
00000070: 5184 c83b b9b5 93bb 7830 883c 06e5 873c
00000080: 758e 5a3c 6f38 213d bda2 5839 ac4d f9bc
00000090: edf0 8a3b 1113 303c bd45 f13c f782 373d
000000a0: 4d00 773c 873b 8cbb e144 3b3c ff71 4b3d
000000b0: c6c7 1e3d 1821 3a3c 0215 df3b 836b 18bb
000000c0: 8895 b3bb 95a7 5b3b f3f6 b83c 18c3 1a3d
000000d0: 8a11 f0bb beee 893c 1c21 013b e70f 273c
000000e0: 8cfe 1a3a 5b8f af3c e315 cdbc 3cea aabc
000000f0: 600c 9a3c 40ec 4c3d aa60 23bd ed92 223b
00000100: 7784 b33c f099 16bc 7edc 5f3c 43cf 283d
00000110: 0053 0b3c e6f2 bcba 48f8 74bb 4f9a c53c
00000120: c7a9 1abc d638 293c 53c5 dc3c 8bca 6ebc
00000130: 806a 69b6 f119 233c 2cc4 52bc cbf1 9c3c
00000140: 7701 82bc 7928 603a fc39 d33c 63d7 793c
00000150: e91f e13c 489b 80bc f225 883c 8ff3 743b
00000160: f6fd fdba 52c5 e73c bd71 3f3b 4140 963c
00000170: 5b32 3f3d 8bf1 933c 9128 1c3c a408 1e3d
00000180: e882 af3c 4bb4 0a3d b40e a83c bf77 90bb
00000190: 4fa4 01bd 3d58 0f3c 0d7a 893b 0eb2 043d
000001a0: f830 2a3d b831 743c 1b7b a2bc 203c c6bc
000001b0: 0616 e4ba 6e5c d63c af7f 3bbb 5de0 ee3b
000001c0: 0839 c03c dcde a13a 1533 acbc 35dc 973c
000001d0: a678 7e3c becf 35bb a9de 823c fe6f eebb
000001e0: 0882 f13b 010c 513b dc0b 233d 4902 a7bb
000001f0: f4b8 27bc cee9 9e3c 0ba6 8b3b 0abe 583d
00000200: d6ca 1e3c 32f0 943c 7fde 8e3b a88d e33b
00000210: b28d 703c 5992 973c aee6 613c fc85 f03c
00000220: 5dae 173c 49aa 91bb 3586 053c 0570 b5bc
00000230: 3e10 963c efc7 44bb ee2a 32bc 2d4f c93c
00000240: d12d 73bc d935 c0bc 06f0 ac3c 3575 8a3c
00000250: a890 b43b 121c b33b e06e b63c 6dac 583c
00000260: 665a a1bb ec5f 6cbd 6dab cfbb 0375 aa3b
00000270: 51f0 25bc a229 043d c116 10bc b5d2 e1bb
00000280: 3c95 a73c ece5 64bb 7725 33bc 6143 1a3d
00000290: fa29 743c 57f1 2e3b 2f4f 83bc ff6d ac3c
000002a0: cd18 c7bb 938f bb3c adfc 6fbc 4d08 afba
000002b0: 4280 e83a adc1 ce3c 0284 beba c09c aabb
000002c0: 06fa 563c 4246 833c 4f7a cd3c 77e5 a9bb
000002d0: 9eb4 bdbc 0272 183d d775 da3c c3a8 b13c
000002e0: ecba f53c 972f f83b 1d7f 463d 266d 513c
000002f0: 591d ac3c 54c8 123b ce18 51bc 4f8a 173c
00000300: c5c0 883a e869 90bb 9287 9abc 0627 7b3c
00000310: f388 55bc 6e05 463b e047 0a3d 1a36 953c
00000320: 864f 103c 4771 ac3b 26da fb3c 8c2a fa3c
00000330: 607d 9a3c cff2 8f3d 6451 ecbb ce38 92bc
00000340: 7a3d f9bc 2515 80bc 03e1 683d e6f1 e43c
00000350: 1907 8f3b 4db9 08bc 2d8d f6b9 b6e9 88bc
00000360: 82b0 9f3c 496e 3db9 b057 303c c7e7 483c
00000370: fc9a 8d3d 36bb 5e3c d831 b83c 92d0 1ebb
00000380: 83c9 563d cf2f 34bb 4e4d 75bb 76df 8fba
00000390: d744 e23b 20b9 c1b9 be23 da3c 9c1a 793c
000003a0: 6db9 833c 1277 c23b 99a4 3dbb df26 73bc
000003b0: 65db 073b d1f9 54bc 3a44 033d 8392 263c
000003c0: db18 a7bc a4d0 0e3b d7e4 9c3c dcaa 663d
000003d0: 059e 043c 3e84 abbb 3e97 ac3c 4f3d 91bc
000003e0: be75 433c a6b4 a93c f350 fa39 44be 033c
000003f0: 50b4 0a3d 8725 a2bc 399b 203c 0a18 3c3c

network_body._body_endoder.seq_layers.0.weight f4 [256, 256]
-0.12747788 0.01212569 -0.014999723 -0.073692955 -0.020211816 0.02346067 -0.03336161 -0.077466555
-0.07005289 0.024766378 0.07124073 -0.07190359 0.092441574 -0.0361848 -0.0020712859 -0.10825344
-0.025421822 0.01913616 -0.13959858 0.07587392 0.07735334 0.01645957 0.08283985 -0.07876324
-0.021749534 -0.011704034 -0.09580145 0.03552717 0.14028451 0.036871873 0.050218776 0.0027049487
-0.072242975 0.02101301 -0.00879582 -0.0475106 -0.012610607 -0.0073040156 0.039524216 -0.0438955
0.051861566 -0.09512929 0.013298422 0.005670512 -0.1378269 -0.110044 -0.1483323 0.11660418
0.020607708 -0.036473837 -0.003534718 -0.011366334 -0.06530588 -0.05939766 -0.020825628 -0.19766465
-0.1046196 0.05233632 0.09014486 0.03873658 0.02004025 -0.032388367 -0.091568746 0.04539456
-0.06540882 -0.09899417 0.09046933 0.04481246 0.07766888 -0.027974991 0.12835725 -0.031110413
-0.025879141 0.12171494 0.11886463 -0.008222166 0.03129651 -0.016807433 -0.08708585 -0.0289312
-0.07169297 -0.18439992 0.047046095 -0.1322687 -0.1262759 0.06366378 0.09192244 0.113249175
-0.017461656 -0.049555223 0.019343067 -0.031442314 -0.02048819 -0.035601806 -0.025731638 -0.031622432
-0.03125985 0.0007879824 -0.025348423 -0.109302044 -0.0037814474 -0.02597395 0.16006021 -0.06547416
-0.07274809 -0.1303685 0.07702378 -0.0890794 -0.051156662 0.07031098 0.0065962696 -0.17553253
0.050850376 0.23820451 0.11949904 -0.01435436 0.005337635 0.11211502 -0.06546349 0.06797598
-0.048399918 0.041222252 -0.12911154 0.002282122 -0.1173663 -0.00687825 -0.028747786 0.06026767
-0.042060483 -0.11645669 -0.051406268 0.046264064 0.03942715 -0.021446329 -0.03308416 0.06293845
0.042982686 -0.052263368 -0.09544569 -0.07511345 -0.06396589 0.0247976 0.023084084 -0.023408245
-0.04292949 -0.03772131 -0.013556987 0.010591981 0.016926453 0.047108106 0.034236077 -0.08990944
0.0016535866 -0.093938686 0.03265558 -0.0004984306 -0.0513845 -0.013188938 -0.00590381 0.05031685
-0.056333933 -0.042543903 0.0044626873 0.13678837 0.08815147 -0.06276134 0.035055682 0.039680343
0.09182274 -0.12389619 0.061470885 -0.028781658 0.00866533 -0.057768185 0.04764671 -0.008034628
0.055545885 0.11742059 0.05990609 -0.012652017 0.014310154 -0.20412587 0.09212573 -0.118367724
-0.0022124005 -0.036280327 -0.18327832 -0.035914812 -0.02085805 -0.14392653 -0.015612565 -0.0062916963
0.11875756 0.088104814 -0.0017444222 0.08859899 0.028882427 0.08466364 0.09716098 0.018964374
-0.074456885 0.00078696205 -0.055429105 -0.02103354 0.046890516 0.04144307 0.040163253 -0.0034997596
-0.015416624 0.091241665 -0.08436652 0.109789625 -0.120148085 0.06926467 0.07104634 -0.0748768
0.023615792 0.04633198 -0.03073865 0.013145174 0.0017658971 0.026725069 -0.034544237 -0.077397324
-0.16289377 0.020736778 -0.06100328 0.009404706 0.050049987 -0.1399772 -0.14210624 -0.062420048
0.05049936 0.16532253 0.05703978 0.029583028 -0.0112645645 -0.085798174 0.04347648 -0.019635541
-0.11080107 0.026933683 0.042138673 0.001838478 -0.02358313 0.049890682 -0.092479676 -0.08024438
0.094251774 0.0174661 -0.05590198 -0.06397236 0.090323806 -0.1574659 -0.061724167 -0.023196071
00000000: 9089 02be d4aa 463c 66c1 75bc 55ec 96bd
00000010: 4093 a5bc 9730 c03c 2fa6 08bd c9a6 9ebd
00000020: e477 8fbd dce2 ca3c a9e6 913d 3042 93bd
00000030: 0252 bd3d 8336 14bd 69be 07bb fbb3 ddbd
00000040: 6d41 d0bc 70c3 9c3c eef2 0ebe c963 9b3d
00000050: 6e6b 9e3d 38d6 863c f0a7 a93d 9f4e a1bd
00000060: 142c b2bc 47c2 3fbc 8d33 c4bd f084 113d
00000070: bea6 0f3e f606 173d 34b2 4d3d 8245 313b
00000080: 20f4 93bd 7a23 ac3c 581c 10bc 7a9a 42bd
00000090: b89c 4ebc 8656 efbb 25e4 213d c5cb 33bd
000000a0: cb6c 543d 25d3 c2bd a0e1 593c b4cf b93b
000000b0: 7f22 0dbe c05e e1bd 6ce4 17be 2cce ee3d
000000c0: 7fd1 a83c 9765 15bd baa6 67bb dc39 3abc
000000d0: 17bf 85bd f64a 73bd 829a aabc 9a68 4abe
000000e0: cd42 d6bd 9c5e 563d de9d b83d 40aa 1e3d
000000f0: 732b a43c aaa9 04bd 6588 bbbd a5ef 393d
00000100: 0ff5 85bd 75bd cabd fc47 b93d 458d 373d
00000110: dd10 9f3d cf2b e5bc 1570 033e 44db febc
00000120: 7e00 d4bc af45 f93d 4d6f f33d 44b6 06bc
00000130: c530 003d beaf 89bc 115a b2bd 2001 edbc
00000140: c4d3 92bd 55d3 3cbe 68b3 403d 7271 07be
00000150: 784e 01be 2862 823d d541 bc3d 2fef e73d
00000160: bf0b 8fbc 6bfa 4abd 5a75 9e3c a8c9 00bd
00000170: d9d6 a7bc 33d3 11bd 28cb d2bc 8686 01bd
00000180: 540a 00bd 9b90 4e3a 7fa7 cfbc c0d9 dfbd
00000190: 29d2 77bb 52c7 d4bc d3e6 233e 5117 86bd
000001a0: f3fc 94bd 527f 05be a5be 9d3d 436f b6bd
000001b0: a689 51bd 34ff 8f3d 8525 d83b cdbe 33be
000001c0: 7c48 503d e2eb 733e eabb f43d 8d2e 6bbc
000001d0: 54e7 ae3b 8f9c e53d b911 86bd fe36 8b3d
000001e0: fe3e 46bd aad8 283d d135 04be a78f 153b
000001f0: be5d f0bd f162 e1bb 7a80 ebbc 3bdb 763d
00000200: 9d47 2cbd d880 eebd 618f 52bd 637f 3d3d
00000210: 5d7e 213d 36b0 afbc 4283 07bd e0e5 803d
00000220: 9d0e 303d 1d12 56bd 0879 c3bd 15d5 99bd
00000230: 8c00 83bd 5624 cb3c d51a bd3c a6c2 bfbc
00000240: d5d6 2fbd a981 1abd 201e 5ebc fd89 2d3c
00000250: 58a9 8a3c 6ef4 403d 213b 0c3d 7122 b8bd
00000260: 29bd d83a ed62 c0bd dcc1 053d 1da9 02ba
00000270: 8e78 52bd 6a16 58bc bf74 c1bb 0b19 4e3d
00000280: 69be 66bd 8442 2ebd bc3b 923b 4012 0c3e
00000290: c288 b43d 0489 80bd 8c96 0f3d db87 223d
000002a0: 900d bc3d 49bd fdbd e5c8 7b3d 83c7 ebbc
000002b0: 07f9 0d3c 559e 6cbd 3229 433d aca3 03bc
000002c0: 1584 633d 357a f03d 1760 753d 684a 4fbc
000002d0: 2375 6a3c 5f06 51be 6aac bc3d c76a f2bd
000002e0: ecfd 10bb ae9a 14bd 50ad 3bbe 691b 13bd
000002f0: 80de aabc 7a61 13be d8cb 7fbc 932a cebb
00000300: 2a37 f33d 4c70 b43d 19a5 e4ba 6373 b53d
00000310: d79a ec3c 2164 ad3d 56fc c63d 2d5b 9b3c
00000320: da7c 98bd 214c 4e3a a109 63bd 884e acbc
00000330: 4510 403d 35c0 293d 3982 243d 395c 65bb
00000340: 0296 7cbc e9dc ba3d 5bc8 acbd 62d9 e03d
00000350: 3310 f6bd a3da 8d3d be80 913d 0259 99bd
00000360: e875 c13c 9ac6 3d3d 9fcf fbbc db5e 573c
00000370: ad75 e73a 88ee da3c 427e 0dbd 7d82 9ebd
00000380: a0cd 26be 2de0 a93c 93de 79bd 3216 1a3c
00000390: 3701 4d3d 2f56 0fbe 4c84 11be 2aac 7fbd
000003a0: 6bd8 4e3d 4f4a 293e 8ba2 693d 1b58 f23c
000003b0: 028f 38bc f4b6 afbd 6514 323d b7da a0bc
000003c0: aceb e2bd 07a4 dc3c 9a99 2c3d 16f9 f03a
000003d0: 6931 c1bc 2c5a 4c3d fc65 bdbd 2a57 a4bd
000003e0: 1307 c13d 1115 8f3c 79f9 64bd f103 83bd
000003f0: b0fb b83d be3e 21be 7bd2 7cbd b005 bebc

network_body._body_endoder.seq_layers.0.bias f4 [256]
-0.008937798 0.007803582 -0.007120653 -0.0163765 -0.00029939492 0.014931142 -0.0027717284 0.008090414
0.010373166 -0.0024476214 -0.00034051886 0.014357784 0.014655433 0.0012334627 0.002400535 0.004842076
0.015545452 0.008881432 -0.030998554 0.011974473 0.014266519 0.006556744 0.008357918 0.007115298
-0.0018301834 -0.008342845 -0.0008661833 0.018638521 0.00021653052 0.007105209 0.0054668845 0.01507343
-0.0543236 -0.0064489553 -0.0041166805 0.0039383 0.0043173246 0.002909483 -0.0043609305 -0.0077462946
0.009056914 0.005482796 -0.002070247 0.01041733 0.004624602 -0.012621159 0.002450531 0.0083243195
0.008914489 0.0039714663 0.015931737 -0.011290696 -0.00093154697 0.0018467281 0.00230259 0.011175643
0.0034644657 -0.013744075 0.006766124 0.0048893145 0.009390645 0.00097447523 0.009114148 -9.853835e-05
-0.003006295 0.0042360285 0.01255493 0.0014107518 -0.0016094871 0.003216657 -0.0042959144 0.008003045
0.01150354 -0.0023505408 0.011676012 -0.005769925 0.0023453054 0.0128570255 0.009181566 0.009166404
0.0038865157 0.018826678 -0.0034908985 0.0019942957 0.020058539 0.009643127 0.0137370415 -0.003008415
0.015011443 0.007270828 0.009694612 -0.0021737064 0.009207805 0.0071164323 0.0059781214 -0.0011040441
0.013867544 0.011251953 0.0018733913 0.005175892 0.009250203 0.011878841 0.013493096 -0.0033385663
0.007901342 0.012161901 -0.015905611 0.0019696462 0.0072232457 0.009269349 0.004314782 -0.0143344905
-0.0013077531 0.004004124 0.020454615 0.015575605 -0.005100405 0.0041440944 0.007231571 0.0017377282
0.005715136 0.016909419 0.003705446 -0.014915158 0.018557942 -0.0041336385 0.009924138 -0.011195928
0.010395739 0.0051373625 0.0035756803 0.0062893988 0.002035405 0.012083036 0.006509163 -0.0053751078
0.00036775423 0.0024427655 0.0068701045 0.013012922 0.0062577236 -0.008579853 -1.0791067e-05 -0.00986146
0.010115153 0.02118816 -0.042762622 -0.01248412 0.0020419625 0.0111126155 0.029112527 0.0054360637
0.010152658 -0.0012757202 -0.0021684533 0.01350678 0.01094309 -0.010599375 0.006682276 0.01303643
0.005791207 -0.0034489632 -0.0028118833 0.009283948 0.005559323 -0.007302337 0.005311402 -0.011286829
0.01206664 -0.04224606 0.009400195 0.013797052 -0.011605625 0.012278614 0.005755456 0.0058714654
-0.0060904454 0.0130203245 -0.01918959 -0.011802769 0.015759619 0.011215877 0.014319936 0.014226748
-0.0027100896 0.0115149785 0.006593517 0.006941794 -0.0067208214 0.030653102 0.0079759685 0.0031178903
-0.0059040617 0.00042669268 0.009270477 -0.0057599465 0.009242986 0.009907959 0.00911215 0.0090542305
-0.003837621 0.0036600048 0.025145408 0.0021382123 0.0036210183 0.006164017 0.0009814362 0.0066369153
0.008944691 0.003954686 0.020010836 0.0052236794 -0.0071622296 0.0072170445 0.010137935 0.011392026
0.0037339728 0.010878306 0.0107618375 -0.0025860542 -0.0023569486 -0.0009945806 0.01506665 0.009276304
-0.009677996 0.007335976 -0.0022703342 -0.00044299563 0.012162802 0.005526038 0.0003169669 0.0120024355
0.0064117997 -0.007120793 0.0077974685 0.0052455156 0.00261401 0.004992858 0.007135686 0.00748749
0.0028000101 0.0026896007 0.0019663654 0.013925365 0.01320471 -0.009230728 0.015301466 0.020969668
-0.0036660607 -0.012197006 0.01557639 0.010754244 0.001511705 0.002466574 0.018882858 -0.003060537
00000000: d86f 12bc 31b5 ff3b 5e54 e9bb 0228 86bc
00000010: 1bf8 9cb9 c0a1 743c e3a5 35bb a88d 043c
00000020: 36f4 293c 4668 20bb ab87 b2b9 e93c 6b3c
00000030: 571d 703c 24ac a13a 4b52 1d3b 47aa 9e3b
00000040: 5ab2 7e3c 6d83 113c aef0 fdbc 9430 443c
00000050: 1ebe 693c f5d9 d63b a6ef 083c 7227 e93b
00000060: c4e2 efba 6eb0 08bc 9410 63ba d0af 983c
00000070: 780c 6339 d0d2 e83b 8d23 b33b 8cf6 763c
00000080: 6c82 5ebd c251 d3bb 38e5 86bb db0c 813b
00000090: 5878 8d3b 06ad 3e3b 23e6 8ebb a1d4 fdbb
000000a0: 7363 143c 07a9 b33b fbac 07bb 73ad 2a3c
000000b0: f989 973b fac8 4ebc 1799 203b ba62 083c
000000c0: 140e 123c 1323 823b 4683 823c 9dfc 38bc
000000d0: 0f33 74ba ea0d f23a 0de7 163b 0b1a 373c
000000e0: 170c 633b d42e 61bc 5db6 dd3b 8b36 a03b
000000f0: 38db 193c ed73 7f3a 8253 153c 60a6 ceb8
00000100: 4305 45bb 62ce 8a3b 31b3 4d3c fae8 b83a
00000110: 6df5 d2ba 8dce 523b bec4 8cbb 341f 033c
00000120: 5879 3c3c 880b 1abb be4c 3f3c a411 bdbb
00000130: b2b3 193b 46a6 523c 476e 163c af2e 163c
00000140: eab4 7e3b 683a 9a3c 8fc7 64bb bbb2 023b
00000150: ce51 a43c 35fe 1d3c 5411 613c d428 45bb
00000160: 8ef2 753c 2040 ee3b 26d6 1e3c be74 0ebb
00000170: 55dc 163c f630 e93b 1ee4 c33b 93b5 90ba
00000180: b234 633c 1d5a 383c 958c f53a 879a a93b
00000190: 2a8e 173c 789f 423c 2612 5d3c d9cb 5abb
000001a0: a174 013c b642 473c 7c4c 82bc 2e15 013b
000001b0: fab0 ec3b 78de 173c 0463 8d3b 36db 6abc
000001c0: ea68 abba 0735 833b 7090 a73c d330 7f3c
000001d0: 4c21 a7bb 2fcb 873b d0f6 ec3b 7cc4 e33a
000001e0: 0946 bb3b 9f85 8a3c 11d7 723b b55e 74bc
000001f0: d306 983c 7973 87bb da98 223c 206f 37bc
00000200: e452 2a3c 5257 a83b f655 6a3b 4d17 ce3b
00000210: 6e64 053b edf7 453c d14a d53b ac21 b0bb
00000220: 23cf c039 ce16 203b 9d1e e13b 2734 553c
00000230: 970d cd3b 8392 0cbc 480b 35b7 f691 21bc
00000240: 07ba 253c cb92 ad3c dc27 2fbd 328a 4cbc
00000250: 72d2 053b b011 363c 657d ee3c 0221 b23b
00000260: 5657 263c 1136 a7ba 9c1c 0ebb 8b4b 5d3c
00000270: a54a 333c 00a9 2dbc fef6 da3b c096 553c
00000280: 2ac4 bd3b 0008 62bb 9347 38bb b31b 183c
00000290: fb2a b63b 7148 efbb 450b ae3b 64ec 38bc
000002a0: 28b3 453c 340a 2dbd 4703 1a3c 080d 623c
000002b0: 8525 3ebc 3d2c 493c 4498 bc3b 6c65 c03b
000002c0: 5c92 c7bb 3353 553c 7d33 9dbc 6760 41bc
000002d0: 511a 813c ccc2 373c 2a9e 6a3c 4e17 693c
000002e0: c29b 31bb 52a9 3c3c 6e0e d83b fd77 e33b
000002f0: 563a dcbb 371c fb3c a3ad 023c 8555 4c3b
00000300: dc76 c1bb b9b5 df39 33e3 173c efbd bcbb
00000310: e56f 173c fe54 223c 214b 153c 3258 143c
00000320: 9980 7bbb b1dc 6f3b befd cd3c 4021 0c3b
00000330: 9b4e 6d3b 86fb c93b 89a3 803a 7b7a d93b
00000340: c18c 123c 5096 813b c4ed a33c 662b ab3b
00000350: 23b1 eabb f57c ec3b 9519 263c 9fa5 3a3c
00000360: abb5 743b ec3a 323c 6b52 303c ca7a 29bb
00000370: 0977 1abb 965c 82ba 1cda 763c a4fb 173c
00000380: 7590 1ebc a162 f03b e3c9 14bb de41 e8b9
00000390: 7d46 473c c413 b53b 942e a639 dda5 443c
000003a0: 131a d23b 8b55 e9bb e881 ff3b 93e2 ab3b
000003b0: cf4f 2b3b 219b a33b 79d2 e93b 9e59 f53b
000003c0: 6080 373b 0344 303b 23de 003b 3727 643c
000003d0: 9158 583c 7b3c 17bc 00b3 7a3c 95c8 ab3c
000003e0: 4b42 70bb f3d5 47bc 1d34 7f3c 9232 303c
000003f0: 6724 c63a 3fa6 213b 39b0 9a3c 4a93 48bb

network_body._body_endoder.seq_layers.2.weight f4 [256, 256]
-0.05194995 -0.035992306 -0.093511716 0.026459938 -0.04565992 0.07852802 -0.045243304 -0.10578952
0.024131969 -0.025768206 -0.024242057 0.005265089 0.0012385129 -0.06833111 -0.07125256 0.053779446
-0.007926461 0.06525868 -0.1045103 -0.0014778465 0.060786333 0.019379996 -0.0056783073 -0.008787199
0.020895958 0.005752655 -0.08321696 -0.001799589 0.056151867 0.025416838 0.07881572 0.017074624
0.18509999 -0.04913653 -0.013168166 -0.051067293 -0.044093844 -0.049094237 -0.030357385 -0.0075832834
0.012400778 0.011313074 -0.006436778 -0.05756426 0.0006709216 0.01211082 0.013247429 -0.09174576
-0.063840404 -0.07776204 -0.036893804 0.0070919646 -0.02267537 -0.0022909387 0.08955065 0.043617398
-0.0002102049 -0.00066130515 -0.07981184 0.095454834 0.1019309 0.041329496 -0.05182503 0.05757703
0.08845275 0.052353248 0.057814337 -0.035385493 0.00093770534 -0.09292367 0.10920195 0.027068017
-0.037974723 -0.11935113 0.16237281 -0.024973162 -0.1116343 0.0079545695 0.07367077 0.0021981571
-0.1050953 0.14833625 0.0030184481 -0.20660649 -0.03630809 -0.113196865 -0.048581652 -0.0203018
-0.10692739 -0.010468967 -0.012330454 -0.0110512655 0.003965405 -0.017993495 -0.021347841 -0.064167775
-0.029703889 0.081199475 -0.025565745 0.04125643 0.012749179 -0.024538863 0.036345534 -0.046003446
-0.121548265 -0.012479671 -0.11429167 0.028586155 0.014973019 0.120223865 -0.014662976 -0.055516213
0.05558659 -0.051090624 -0.06441493 -0.06286413 0.11683327 -0.045847137 -0.032559708 -0.03924685
0.049482647 0.07075834 -0.005279414 -0.063601285 -0.007885529 0.012151658 0.05138508 -0.03312935
-0.08765968 -0.04758548 -0.02446301 0.017607816 0.0017903732 -0.009926446 0.1057418 0.09948495
-0.016050681 0.045817368 0.012921224 0.08424083 0.003738008 -0.038859304 -0.024323331 -0.027008615
0.029861463 0.039999273 -0.06871862 -0.018875105 0.0389923 -0.07259394 -0.014809674 -0.029445834
0.012684465 0.0499719 -0.04826875 0.090180606 0.06371909 -0.019848173 -0.0329444 0.048817024
-0.0028439844 -0.012573072 -0.05130846 0.12047199 0.061195016 -0.029089985 0.15273276 0.06465128
0.0078552645 -0.12720598 -0.05265564 -0.038980465 -0.0035107683 -0.073644586 -0.0110418005 -0.16388682
-0.0071069067 -0.01719445 -0.08970511 -0.170144 -0.04683988 -0.08326975 -0.034557775 -0.00017630133
0.067891344 0.030524457 -0.026165653 0.07715637 -0.09951722 0.013289933 -0.03879566 0.057940226
0.049261842 -0.012096596 0.04329198 -0.06978794 -0.004789319 -0.011595637 -0.022702018 -0.03687339
-0.12623614 -0.14590645 -0.020465676 0.02177641 0.004633256 0.028673379 -0.113936804 -0.023475412
-0.09264032 -0.062304668 0.14626187 0.107338436 -0.0717923 -0.071468785 -0.016906668 -0.047344647
0.0770299 -0.11363829 0.09695557 -0.08903081 -0.056683846 -0.02289444 0.0002565386 -0.04408624
0.021226523 -0.077191226 -0.028800568 0.012470706 -0.10480645 0.085203715 0.005295457 -0.03141225
0.025772233 -0.0073090238 0.027781509 0.019618602 0.012710229 0.04957497 0.034782857 -0.065186396
0.036339905 -0.051352706 0.015825989 0.048592135 -0.030307448 -0.022207875 -0.11848544 -0.012164235
0.0008351681 0.05568993 -0.002516493 0.045585662 -0.021522403 -0.031245716 -0.09462212 -0.056733493
00000000: 79c9 54bd ab6c 13bd 1283 bfbd 83c2 d83c
00000010: e505 3bbd 4cd3 a03d 0b51 39bd 2da8 d8bd
00000020: 68b0 c53c d817 d3bc 4797 c6bc c586 ac3b
00000030: 9955 a23a 2ef1 8bbd ddec 91bd d647 5c3d
00000040: fddd 01bc 58a6 853d 7f09 d6bd 4db4 c1ba
00000050: 17fb 783d ccc2 9e3c 1811 babb 2ff8 0fbc
00000060: 002e ab3c c580 bc3b a76d aabd 30e0 ebba
00000070: 80ff 653d f936 d03c 236a a13d 15e0 8b3c
00000080: da8a 3d3e 6343 49bd 4bbf 57bc f02b 51bd
00000090: bf9b 34bd 0a17 49bd 0db0 f8bc 317d f8bb
000000a0: a22c 4b3c 795a 393c 9ceb d2bb 80c8 6bbd
000000b0: c9e0 2f3a 766c 463c bf0b 593c 33e5 bbbd
000000c0: c2be 82bd b441 9fbd f51d 17bd b663 e83b
000000d0: b3c1 b9bc 9323 16bb 5566 b73d 28a8 323d
000000e0: 736a 5cb9 705b 2dba 6474 a3bd d37d c33d
000000f0: 26c1 d03d 1e49 293d 7c46 54bd e4d5 6b3d
00000100: b726 b53d 5c70 563d bace 6c3d 61f0 10bd
00000110: 57d0 753a c44e bebd 46a5 df3d bfbd dd3c
00000120: 628b 1bbd 5e6e f4bd 0f45 263e 8494 ccbc
00000130: 86a0 e4bd e253 023c b3e0 963d f50e 103b
00000140: 343c d7bd 75e5 173e 28d1 453b a790 53be
00000150: cbb7 14bd c2d3 e7bd 8efd 46bd f64f a6bc
00000160: bffc dabd 0886 2bbc ac05 4abc 5e10 35bc
00000170: 3af0 813b 1867 93bc abe1 aebc 656a 83bd
00000180: 9255 f3bc e94b a63d 416f d1bc 81fc 283d
00000190: efe1 503c ba05 c9bc 0edf 143d 1c6e 3cbd
000001a0: 4cee f8bd 8977 4cbc c011 eabd 832d ea3c
000001b0: 6551 753c ee37 f63d fb3c 70bc f864 63bd
000001c0: c4ae 633d 6744 51bd faeb 83bd e9be 80bd
000001d0: 4846 ef3d 35ca 3bbd 545d 05bd 4ec1 20bd
000001e0: 51ae 4a3d c0e9 903d effe acbb 6441 82bd
000001f0: 4e32 01bc bf17 473c 2979 523d a4b2 07bd
00000200: eb86 b3bd fee8 42bd a666 c8bc 443e 903c
00000210: f5aa ea3a 88a2 22bc 288f d83d c4be cb3d
00000220: b87c 83bc feaa 3b3d 8bb3 533c 7586 ac3d
00000230: 5ef9 743b ef2a 1fbd b941 c7bc 2c41 ddbc
00000240: 07a0 f43c 47d6 233d 59bc 8cbd f79f 9abc
00000250: 64b6 1f3d 22ac 94bd 46a4 72bc 6438 f1bc
00000260: 81d2 4f3c 56af 4c3d 74b5 45bd 9cb0 b83d
00000270: 277f 823d a398 a2bc b5f0 06bd 5cf4 473d
00000280: 2462 3abb 49ff 4dbc d228 52bd 05ba f63d
00000290: a0a7 7a3d 1f4e eebc fa65 1c3e e467 843d
000002a0: 5eb3 003c 4942 02be 71ad 57bd fba9 1fbd
000002b0: eb14 66bb f9d2 96bd abe8 34bc f2d1 27be
000002c0: 0ee1 e8bb 60db 8cbc 50b7 b7bd 3b3a 2ebe
000002d0: 2ddb 3fbd 5589 aabd 748c 0dbd 87dd 38b9
000002e0: 9e0a 8b3d 6d0e fa3c 5a59 d6bc 2904 9e3d
000002f0: afcf cbbd 05be 593c 33e8 1ebd bb52 6d3d
00000300: c9c6 493d cd30 46bc ee52 313d fbec 8ebd
00000310: b8ef 9cbb a0fb 3dbc 95f9 b9bc 8d08 17bd
00000320: 0c44 01be 8068 15be a2a7 a7bc 7164 b23c
00000330: 91d2 973b 6fe4 ea3c b357 e9bd 824f c0bc
00000340: 35ba bdbd 2e33 7fbd acc5 153e 41d4 db3d
00000350: d707 93bd 3a5e 92bd da7f 8abc 76ec 41bd
00000360: dac1 9d3d 31bb e8bd a490 c63d c955 b6bd
00000370: 522d 68bd 1f8d bbbc 0780 8639 c693 34bd
00000380: 3fe3 ad3c 6f16 9ebd 2bef ebbc ef51 4c3c
00000390: c4a4 d6bd 497f ae3d 8385 ad3b 22aa 00bd
000003a0: 4a20 d33c 8980 efbb 0c96 e33c 31b7 a03c
000003b0: 903e 503c 200f 4b3d 7878 0e3d 7280 85bd
000003c0: 27d9 143d 3757 52bd 81a5 813c 8c08 473d
000003d0: 5347 f8bc 4aed b5bc 7fa8 f2bd 804c 47bc
000003e0: 2fef 5a3a 201b 643d bfeb 24bb 08b8 3a3d
000003f0: c04f b0bc 04f7 ffbc 3ec9 c1bd 6161 68bd
