results/MultiJumper_v3/SingleJumper/SingleJumper-2304.onnx (onnx, 213574 bytes, 12 tensors)

network_body.observation_encoder.processors.0.conv_layers.0.weight f4 [16, 6, 8, 8]
000000 36 22 df 3b 07 8e 0f 3e 57 7b 07 3d e1 09 f6 3c
       0.006809498 0.14019023 0.03307661 0.030034008
000010 b2 31 13 bc 75 02 b6 3c 9b 87 22 3c a5 39 26 bc
       -0.008984016 0.022217968 0.009920026 -0.010145579
000020 a4 b9 a3 3d 1a c4 6f 3d 9b 81 18 3d 7f ec b9 3d
       0.079943925 0.058536626 0.037232976 0.09078311
000030 49 57 b1 bc c4 bd f8 3c c2 ef af 3c 0c 72 2d bc
       -0.021648066 0.030363925 0.02147663 -0.010586273
000040 a2 f6 c3 3c a3 23 59 3d aa 66 01 bc f0 c0 85 3d
       0.023921315 0.0530125 -0.007898012 0.065309405
000050 14 df c9 3c 53 1c 5d bc 7d cb ae bb 52 3d b0 3d
       0.024642505 -0.013495523 -0.0053343163 0.08605446
000060 88 bd e1 3b 30 e8 de bc ca af 5b bc 59 9f b5 3a
       0.006889049 -0.027210325 -0.013408611 0.0013856693
000070 8a d7 4c 3c 37 01 32 3c 6d 28 cf 3d 56 eb 1b 3d
       0.01250256 0.010864547 0.101151325 0.03806623
000080 2c 9e f2 bc 99 c1 10 bd aa c0 30 3d a5 77 34 bd
       -0.029616438 -0.03534088 0.04315249 -0.044059414
000090 de 54 d9 3c 36 a2 37 ba 5a 69 4a bd 75 36 c0 3c
       0.026529726 -0.00070050673 -0.049416877 0.023463467
0000a0 1a c5 86 bb c6 4b 3a bd eb a9 ed 3c 5b 98 23 3d
       -0.004112852 -0.04548242 0.029011687 0.03994022
0000b0 6d f8 ef bd 45 d8 8a 3d 32 f2 7a 3d 67 93 59 3c
       -0.11717305 0.067795314 0.06126613 0.013279772
0000c0 df 9a 2e bd 89 63 64 3d 91 d8 45 3c e8 3f a6 3d
       -0.042628165 0.055758987 0.012075559 0.08117658
0000d0 98 cc ef 3c 0a aa a8 3d 70 9e 59 3d f1 19 2e 3d
       0.029272363 0.082355574 0.053129613 0.04250521
0000e0 a3 dd 19 bc c0 43 9a 3c 29 02 bb 3d c4 2f c9 3d
       -0.009391221 0.018831134 0.091312714 0.09823564
0000f0 d5 3a 04 bb e5 eb 00 3d 4a 9a c5 bc c0 79 a3 bb
       -0.0020176668 0.031474967 -0.024121422 -0.004988879
000100 69 9b 11 bd 78 13 03 bd 7c 50 ee 3c 93 41 6d bd
       -0.0355486 -0.03200099 0.029091112 -0.057923865
000110 11 8a a4 bc e1 3e 5a 3d 89 2d 03 3d 77 f6 07 bc
       -0.020085366 0.053282622 0.032025848 -0.008298508
000120 d6 69 a1 bd ef 56 7c bd 63 48 67 3d 44 33 3f 3d
       -0.07881515 -0.061606344 0.056465518 0.04667975
000130 13 a9 b2 3b 4c 67 67 3b 6e f1 fb 3c 35 ad a1 bc
       0.005452284 0.0035309372 0.030754771 -0.019735912
000140 04 cf 5f bd c1 f6 62 bd 58 21 72 bb cc 40 88 3d
       -0.054640785 -0.055411104 -0.0036946144 0.06652984
000150 5c 63 3c 3d 5a f9 6d 3d 75 dc 78 3c 8b 94 b4 b9
       0.045993194 0.05809913 0.01518928 -0.00034442949
000160 9a fb 72 bd 4d 07 52 3c 80 20 11 3d 2d 85 6d bd
       -0.059321977 0.012819123 0.035431385 -0.057988334
000170 ff 5f 5e 3d 6c fe d4 3c 68 89 5f 3d 99 2e 29 3d
       0.054290768 0.026000224 0.0545744 0.041304205
000180 98 af 4f 3d 8d d3 91 3d e7 34 bc 3d 65 f9 28 3d
       0.05070457 0.07120428 0.09189778 0.041253466
000190 ba 65 12 bd d6 34 01 bc e5 66 51 3d 18 de 85 bc
       -0.035741545 -0.007886132 0.05112352 -0.016341254
0001a0 f0 98 4e 3d d1 5d 4b 3d 8d d4 21 3d dd ef fd 3b
       0.05043882 0.049650017 0.039509345 0.007749541
0001b0 83 8e 5d bc b3 13 a5 3d bf 8f 6f bc d4 34 28 bc
       -0.013522747 0.08060398 -0.014621674 -0.010266501
0001c0 82 01 7d bb 7d c5 83 bc e1 a9 25 ba da 7d aa 3b
       -0.0038605635 -0.01608538 -0.00063195644 0.005202991
0001d0 fd fe 4a bd 7a e5 1f 3d c2 29 18 3b 6c 2a 06 3d
       -0.049559582 0.039037205 0.002321825 0.0327553
0001e0 d8 9f e7 bc eb 57 84 3c 3d da ef 3c 3d 85 24 3d
       -0.028274462 0.016155204 0.029278869 0.04016613
0001f0 c4 27 ea bd 67 9f aa ba 3a f9 dd 3b 79 4a 43 bc
       -0.11433366 -0.0013017476 0.006774095 -0.011919611
000200 45 75 87 bc c6 b9 c8 bc f7 11 02 bd 97 15 d4 bc
       -0.01653541 -0.024502646 -0.031755414 -0.025889201
000210 5c 72 08 bd ec 36 11 bc 38 83 3a bd 4a f5 23 3d
       -0.033312187 -0.008863192 -0.045535296 0.040028848
000220 f2 e6 2c bc 4b 53 c6 3c 24 0c 6b bd 8c 94 28 3b
       -0.0105531085 0.024209639 -0.057384625 0.0025723306
000230 78 68 21 bd 8d 85 51 bb ce c1 bc bc cf e2 3b bd
       -0.03940627 -0.0031970472 -0.023041632 -0.0458706
000240 b9 c1 c3 bb 5a 07 cf 3c 36 c4 38 3c a9 d5 2d bd
       -0.0059740213 0.02527206 0.011277249 -0.04244009
000250 5f 86 8a bd 23 7b b5 3c 7b 50 76 bd 43 f8 fb 3c
       -0.067639105 0.022153443 -0.060135346 0.030758029
000260 db 7e 3c 3d 3a 73 a1 3d 70 cf 2a 3d 96 60 0c 3c
       0.046019416 0.07883306 0.041701734 0.00856795
000270 e6 b7 d7 bc cc 16 66 bd c1 7f 1f bd ea dd cc 3c
       -0.026332807 -0.056174085 -0.038940195 0.02500816
000280 8a 40 9d bd 72 0b af bd 59 65 52 3c 37 44 07 3d
       -0.076783255 -0.08547105 0.012841546 0.03302404
000290 04 f7 f4 bc b1 7c 4f b9 a5 9e 1b 3d 62 70 fd 3c
       -0.029902942 -0.0001978751 0.037993092 0.030937377
0002a0 22 0a ca 3c 0b fb 4c bb 61 14 5a bd 73 b9 8e bc
       0.024663035 -0.0031277563 -0.05324209 -0.017422413
0002b0 40 7c 2e 3c 6f da cf 3a 9e 90 55 bd e6 e1 8c 3d
       0.010649741 0.0015857945 -0.05213987 0.06879024
0002c0 7e c5 1b bc cf 16 6f 3c 94 65 a0 bc 26 f7 06 3d
       -0.009507535 0.01459284 -0.019579686 0.032950543
0002d0 d2 9e 0e bc 8d 28 52 3d ae 0e 6e bc 65 5b 7d 3c
       -0.008704858 0.051308203 -0.014529867 0.015463685
0002e0 bc 5c 03 3d 1d 52 c2 bb 55 c8 2c bc 88 4f 8a 3c
       0.03207086 -0.005930199 -0.01054581 0.016883627
0002f0 5b af ea 3a a4 12 c9 3b be b8 e4 38 f1 60 26 bd
       0.0017905043 0.0061362553 0.00010906298 -0.040619794
000300 92 e6 73 bc 27 79 7c 3d 63 d9 cc 3b 83 c5 55 bc
       -0.014886515 0.061638977 0.0062515005 -0.013047579
000310 28 72 a5 bd 33 be d3 3d 53 17 99 bb 6e 85 97 bd
       -0.08078414 0.10339012 -0.00467197 -0.073984966
000320 e1 bd 88 bb 75 30 6f 3d e0 d5 9a 3d 01 92 e7 3d
       -0.004173026 0.05839582 0.07560325 0.11307145
000330 64 37 c4 3b 01 34 4e 3b a5 77 3f ba af 6c 2b 3d
       0.0059880484 0.0031464102 -0.00073039 0.041851696
000340 10 70 ac 3d 3a 00 a7 3c 12 d0 84 3c d2 d4 04 3d
       0.08419812 0.02038585 0.016212497 0.032429524
000350 31 70 16 3c 90 e7 00 3b d1 f7 ec 3b d9 70 99 3c
       0.009182022 0.0019669272 0.0072316905 0.018730568
000360 84 69 7b 3b c4 80 25 3d 32 a6 62 3d f1 4e 5d 3d
       0.0038362453 0.040406004 0.055334277 0.054030363
000370 8d af 23 bd 13 84 85 3d 45 4d f7 3d e7 82 c8 3d
       -0.03996234 0.06519332 0.12075285 0.09790593
000380 11 a8 b9 bd 59 6f a4 bc 81 0e 16 3b 6d a3 29 3d
       -0.09065259 -0.020072626 0.0022896829 0.04141562
000390 10 80 39 bd 47 24 53 3d 1b 15 87 3d 42 a2 d8 3d
       -0.045288146 0.05154827 0.065958224 0.10577823
0003a0 c9 3d 0d be a1 c7 0e bd 31 d1 04 bd c6 70 86 bb
       -0.137931 -0.03485835 -0.032426063 -0.004102799
0003b0 21 07 ac bd 68 9a 50 bd d7 b7 7d bc ba 33 cc 3b
       -0.08399797 -0.050928503 -0.015485725 0.006231752
0003c0 63 01 92 bd 52 05 ba 3c 1d 69 07 3c 3c c0 23 bd
       -0.07129171 0.022707615 0.008264807 -0.03997825
0003d0 6a 84 77 bd c2 d9 dc 3c ba b5 e1 3c a2 0a 95 3c
       -0.060429014 0.026959304 0.027552474 0.018193547
0003e0 47 0d 3b bd 2c 4d 5a 3c a4 dc 8e 3d ca 41 fb 3d
       -0.04566696 0.013324063 0.069756776 0.12268408
0003f0 3e 83 cf 3d 3f 65 4a 3d b5 7c a4 3d 61 18 e8 3d
       0.10132454 0.049412962 0.080315985 0.11332775

network_body.observation_encoder.processors.0.conv_layers.0.bias f4 [16]
000000 88 a6 0e bb 50 41 50 3d ed 52 87 3c 88 8c 6c 3d
       -0.002176674 0.050843537 0.016519034 0.05775121
000010 33 c3 3d bd c2 96 e4 3b 96 15 76 bb 98 35 8b 3c
       -0.046328735 0.0069759795 -0.0037549487 0.016993329
000020 2b 6b 2a bd 50 3b e5 3b ad 8f c9 3b b7 8e 03 bd
       -0.04160611 0.006995596 0.0061511607 -0.032118525
000030 45 f9 2b bb ea f0 dc 3c 89 46 40 3d cb e9 24 3d
       -0.0026241106 0.026970346 0.046942268 0.040262025

network_body.observation_encoder.processors.0.conv_layers.2.weight f4 [32, 16, 4, 4]
000000 92 6a d4 3d 47 2a db 3d c7 37 5e bc 8b f9 db bd
       0.10371889 0.10701423 -0.013563103 -0.10740956
000010 9e 87 eb 3d 48 2b bf bb d7 4e df 3c 17 a0 1a 3c
       0.11500476 -0.005834017 0.027259273 0.009437582
000020 00 47 0d 3d ca 96 ea 3c 5d b4 7e 3c d6 94 64 3d
       0.03449154 0.028636355 0.015545932 0.055806004
000030 ad 86 04 3e 65 9a 7c 3d ed fd 36 3d 13 90 07 bd
       0.12942 0.06167068 0.044675756 -0.033096384
000040 82 a4 00 3e e5 d7 d0 3d 48 9c 68 3c 51 a7 a8 3d
       0.12562755 0.101974286 0.014197417 0.08235038
000050 75 e8 b2 3d 84 9b 1b 3d fc 9c 07 3d 38 25 9d 3d
       0.08735744 0.037990108 0.033108696 0.076731145
000060 51 a1 3e 3e 36 c4 83 3d d7 22 a3 3c 82 b5 80 3d
       0.18616225 0.06433909 0.019914074 0.0628462
000070 9e 97 5e 3d 21 c6 15 3d 3c b6 69 3d 83 61 05 3d
       0.054343812 0.036565904 0.057058558 0.032563698
000080 1b f8 9e 3d ed c2 0d 3c d7 81 ed 3d 25 e3 78 3d
       0.07762166 0.008652431 0.115970306 0.060763497
000090 0b 1f 01 3e d8 18 e1 ba e3 fb bd bc 56 4c ca 3c
       0.12609498 -0.0017173542 -0.023191398 0.024694603
0000a0 0c cd 0a 3d 7e a1 94 3d f5 64 e4 bc 55 f0 ab 3d
       0.033886954 0.07257365 -0.027880171 0.08395449
0000b0 02 bc 29 39 71 e9 6c 3d c4 a0 a7 3d 45 fe 1f 3c
       0.00016187134 0.057839815 0.081849605 0.009765212
0000c0 13 eb c1 3d bf ba 29 bd 2e 06 76 3a 88 65 05 3d
       0.09468665 -0.04143786 0.0009385076 0.03256753
0000d0 e1 61 3d 3d 15 5d 8f bc ee ff 24 3c 3b 1b 8f 3d
       0.046235923 -0.01750044 0.010070784 0.06987616
0000e0 3b ca 8d 3d 45 c7 98 3d af 93 ec 3c c1 21 2a bb
       0.06923338 0.07459883 0.028879015 -0.002596006
0000f0 ad 93 68 3d bd 9a 1b bd 86 17 b6 3b ed 90 02 3d
       0.05678146 -0.037989367 0.0055570034 0.031876493
000100 02 fd 59 3d 58 3f 16 3d 0d 07 89 bd 9f 59 14 bc
       0.053219803 0.036681503 -0.06690798 -0.00905457
000110 8c 52 f3 3d b1 92 29 3d 75 3c 82 3d 53 75 98 3c
       0.11880979 0.04139966 0.063591875 0.018610632
000120 5c a8 b6 3d 34 92 38 3b 14 f5 d6 3c d3 b0 74 bb
       0.08918831 0.0028163316 0.02623991 -0.003733684
000130 c9 e8 b1 3d 37 56 7f 3d b1 46 4e bc 28 43 05 3c
       0.08686978 0.06233808 -0.012590096 0.008133687
000140 d3 b1 af 3c fb 6d f1 3d 88 01 8e 3d 2a 7f 75 bd
       0.021447098 0.11788555 0.06933886 -0.059935726
000150 a7 aa 4c 3b 5c e8 34 bd 9a 3c 90 3d 3d 19 88 3c
       0.0031229646 -0.044166908 0.07042809 0.016613597
000160 75 ee 38 3e 87 30 63 3c a3 57 cb 3c 47 90 91 3c
       0.18059714 0.01386655 0.024822062 0.017768992
000170 44 66 65 bd fe 0f b3 3b 65 c2 62 3d 47 9a a7 bc
       -0.05600573 0.005464553 0.05536117 -0.020459307
000180 70 52 c3 3d a2 04 ab ba 51 0e 16 3d e0 2c 44 bd
       0.09537208 -0.0013047645 0.036634747 -0.04789436
000190 ca 6b eb 3d 53 51 27 bd 42 65 7f bd 95 c4 03 3d
       0.114951685 -0.04084904 -0.062352426 0.032169897
0001a0 d9 7a bc 3d 26 d2 f6 bc 36 d7 91 3b c4 fe f4 ba
       0.09203119 -0.030129503 0.004450704 -0.0018691649
0001b0 62 33 5c 3d f4 03 48 3d 5c 17 5a 3c 3e c4 a1 3d
       0.05375994 0.048831895 0.013311233 0.07898758
0001c0 d3 7f 08 3e fe 14 43 3d 51 2e 85 3b 5c bd b1 3d
       0.13330011 0.04762744 0.0040643592 0.086786956
0001d0 32 46 35 3d 99 01 00 3d f5 96 c6 3b 8a b7 66 3d
       0.044256397 0.031251524 0.006060476 0.05632738
0001e0 88 10 28 3e 5b 81 bc 3d 4f 37 1a bd f6 fb f6 bd
       0.16412556 0.0920436 -0.037650403 -0.120597765
0001f0 03 c7 fc 3c fa d8 36 3c 8d 90 ab bc c3 5a 8c bc
       0.030856615 0.01116013 -0.02094295 -0.017133122
000200 89 3e 78 3d fb 0d 1b 3c 48 79 e4 3b 5d d5 9d bc
       0.060606513 0.009463782 0.0069724657 -0.019266779
000210 59 1b cc 3d 93 a2 ae 3d 23 d8 b0 bc 54 f7 b8 bc
       0.09966154 0.08527102 -0.021587437 -0.022578873
000220 a9 33 88 39 08 46 25 3d 85 90 52 3d d9 9a dd bb
       0.0002597843 0.04034999 0.051407356 -0.006762844
000230 b7 36 d4 3d c0 bc bd ba 75 9e d1 bc d2 92 aa bc
       0.103619985 -0.0014475808 -0.025588254 -0.020821963
000240 3f 58 49 3d 88 ba da bc b1 c9 27 bd 9f 6b 0b 3d
       0.049156424 -0.026700273 -0.040963832 0.034038182
000250 37 2a 20 3e d0 6c 4c bd 27 62 dd 3d 64 bf 9b bb
       0.15641104 -0.04990846 0.10809737 -0.00475304
000260 a6 da 37 3e e0 21 a5 3d 4f 65 f9 3d 3a 14 1a bc
       0.17954502 0.08063102 0.12177526 -0.009404236
000270 61 b5 10 3e 9a b4 c3 3d 7f 61 ad 3d 2f ab 1a 3d
       0.1413169 0.095559314 0.084658615 0.03776091
000280 2a da f2 3d e8 a4 ae 3c 63 2c 34 bd a1 a6 42 bc
       0.11858018 0.021318868 -0.043987643 -0.011880548
000290 9b a1 da 3c e8 ed 29 bd 7e 1b 75 bd e7 0f 31 3d
       0.026688388 -0.04148665 -0.05984067 0.043228056
0002a0 2f 97 a0 3d 0b f4 58 3d 4a 48 88 3b 6b d0 ff ba
       0.07841336 0.052967113 0.004159008 -0.001951707
0002b0 e5 69 00 3e eb a1 01 3d f6 4d 9f bd 78 13 4e bd
       0.12540396 0.031648558 -0.07778542 -0.050311536
0002c0 17 86 8b 3d eb c6 2a bc 31 9a e0 bc c8 fb 80 bd
       0.06812685 -0.010423402 -0.027417274 -0.062980235
0002d0 6d d6 bd 3d ec 8f c4 bd 33 32 1c bc 97 f5 45 3d
       0.09269414 -0.095977634 -0.009533453 0.048329916
0002e0 23 37 a6 3c 98 34 8d 3c 9c 09 92 bb 94 7e a3 3d
       0.020289963 0.017236993 -0.004456712 0.07983127
0002f0 f1 0d c9 3c 62 ec c5 3b d3 b8 18 bd 0b 2a 86 bd
       0.02454278 0.006040142 -0.037285637 -0.06550988
000300 69 42 f6 3d 8c 75 14 3d 79 69 9c bb f5 d5 c1 bc
       0.120243855 0.036244914 -0.0047733155 -0.023661593
000310 fd 7d 27 3e ed 9f b5 3d d6 0a 8b 3b 52 6c 01 bc
       0.16356654 0.08868394 0.004243235 -0.007899361
000320 4c 2d e0 3d 6e 2f 81 bc 20 36 95 bd 63 fe 52 bd
       0.1094614 -0.015769687 -0.07285714 -0.051512133
000330 fd e1 51 3b 6b 81 12 3d 86 a8 99 3c 9f 78 2e 3c
       0.0032025569 0.035767954 0.018757116 0.0106488755
000340 aa 75 d0 3d 26 26 c3 bc 5e 5d 0f 3b 59 a5 a6 bc
       0.10178693 -0.023821902 0.002187572 -0.020342516
000350 d4 a4 a1 3d 47 93 04 3c 9f 9b 06 bd 24 8a 82 bd
       0.078927666 0.008091754 -0.032863256 -0.063740045
000360 55 97 df 3d f8 12 98 3d c1 db 0c 3c a7 87 40 bd
       0.10917536 0.07425493 0.008597315 -0.04700437
000370 82 2b 92 3d 08 05 38 3d 5a b9 71 3d da d0 e8 bc
       0.07137205 0.044926673 0.059014656 -0.0284199
000380 ae 1a e4 3d bf 22 ab 3d 56 e9 5e bd 6c 23 af bd
       0.11137901 0.08356237 -0.054421745 -0.08551678
000390 a8 79 b5 3d af f0 b2 3d 24 6f c1 3c 17 b8 4f bd
       0.08861095 0.08737313 0.023612566 -0.05071267
0003a0 d4 e5 8e 3d 51 1e 98 3d 3a aa d5 3c 60 9d 18 bd
       0.0697743 0.074276574 0.026082147 -0.03725946
0003b0 40 1b 8e bc 3d 03 8c 3d 43 00 68 39 c5 96 dd bc
       -0.017346978 0.06836555 0.00022125342 -0.027049432
0003c0 51 62 d3 3d e7 9d e6 3c c4 3a 84 bd e9 18 84 bd
       0.10321487 0.028151466 -0.06456521 -0.06450064
0003d0 81 71 50 3d 9b 31 99 bc 7c de a8 bc 9b b1 83 3d
       0.050889496 -0.018700412 -0.020613901 0.0643036
0003e0 25 84 a7 3d e8 24 b5 3d 58 4f 0b bd 39 cc b3 bc
       0.081795014 0.0884493 -0.034011215 -0.021947967
0003f0 cb 75 b7 3d 77 72 51 bc f5 46 82 bb 05 3f d0 3c
       0.08958014 -0.012783638 -0.003975744 0.025420675

network_body.observation_encoder.processors.0.conv_layers.2.bias f4 [32]
000000 e0 bc 17 bd a7 36 99 3d 5b 14 fb 3c 74 c2 61 bc
       -0.03704536 0.07481127 0.030649355 -0.013779271
000010 b1 52 b4 bd 4c c9 1d 3a a3 24 bb 3c 4c 92 ae bc
       -0.08804835 0.000601907 0.022844618 -0.021309994
000020 be 03 6c bc 26 33 43 3d 25 ad 8c 3d f0 f5 75 3b
       -0.014405189 0.0476562 0.06868962 0.0037530623
000030 ca 2b 00 3d 1c 7e 7d 3d 49 8d 85 bd e1 2b c7 bc
       0.03129176 0.061887845 -0.06521089 -0.024312915
000040 ca 06 03 3d ed 01 1d bd 2f 8f 52 bb ec 63 02 bd
       0.031988896 -0.038331915 -0.00321288 -0.031833574
000050 1e 4e 93 bc eb 59 4b 3d 70 09 bf 3b 6a 7b a9 bd
       -0.017981585 0.0496463 0.0058299825 -0.082754925
000060 da 36 ce bc 90 fe 1b bc 41 5e 06 3d 0d 58 81 bc
       -0.02517264 -0.009521142 0.03280473 -0.015789056
000070 77 31 cc 3d da 0e e8 3c 7a 4c aa bc 68 0e 39 bd
       0.09970372 0.028327394 -0.02078842 -0.045179754

network_body.observation_encoder.processors.0.dense.0.weight f4 [128, 32]
000000 38 45 aa be d0 ba c2 3e d4 d0 89 3c 73 87 99 be
       -0.33255935 0.38033152 0.01682321 -0.29986152
000010 d8 6a 9f 3d 0f 70 02 bf 46 36 08 3e dc a0 8f be
       0.07784051 -0.5095224 0.13301954 -0.28052413
000020 ce 70 07 3f 72 cc 6a 3e 6a e1 b0 3e 02 dc 79 be
       0.529065 0.22929552 0.34546977 -0.24400333
000030 f1 0c 3b 3e 00 e9 75 be 04 0d fb 3e 0e aa 8a 3e
       0.18266656 -0.24014664 0.49033368 0.27082866
000040 a3 da 39 3e 24 ba ca 3d 36 40 a1 be c5 df 19 3e
       0.1814981 0.09898785 -0.31494302 0.15026768
000050 34 e9 17 3e 7f 2a 1e 3d 8f 1c eb 3c 48 e1 10 3e
       0.14835054 0.038614746 0.028700141 0.14148438
000060 22 9d b1 3e bb 82 3b be aa cb 67 3d b6 ab c3 be
       0.34690195 -0.18311588 0.056590714 -0.38216943
000070 5e 41 1b 3f e6 17 43 be 0c e4 31 3e 6e f1 77 be
       0.6064662 -0.19052085 0.17372149 -0.24213192
000080 5d bb 1a be fe c4 4e bd 4e 4a 2a 3f 4c 87 8e 3d
       -0.15110536 -0.050480835 0.6651963 0.069593996
000090 af 68 d5 3e 3e 9d 99 be 7f 01 45 be c3 2c 1d be
       0.4168143 -0.3000278 -0.19238852 -0.15349106
0000a0 8b ce 15 be c6 81 d5 3d 3f 6f bb bd aa 15 11 be
       -0.14629571 0.10425143 -0.09152078 -0.1416842
0000b0 a8 8a 42 bd 8f da 45 bf 3c b1 09 3e 0e 38 d1 be
       -0.047495514 -0.7728662 0.13446516 -0.4086308
0000c0 47 0c ac 3e ad 28 27 3e 32 61 a3 bc a5 67 13 be
       0.33603117 0.1632411 -0.019943807 -0.14395006
0000d0 ad 03 90 3d 0b 13 8b 3e 48 e9 0c 3e 63 5c 72 3e
       0.07031951 0.27162966 0.13760865 0.23668055
0000e0 53 f6 c7 3c 8d b8 49 3e 54 48 96 bd b2 6c 83 3e
       0.024409449 0.19699307 -0.07338014 0.25668865
0000f0 ea f2 28 be a0 cd 17 bf 70 24 c9 3d ca 82 99 3e
       -0.16498914 -0.59298134 0.09821403 0.29982597
000100 8a 2f 0a bd 9d 61 30 be 35 d5 df 3e 10 dc 76 3d
       -0.033736743 -0.17224737 0.43717352 0.06026846
000110 38 90 6a bd e0 84 a8 be f5 89 71 be fb 8d 0f be
       -0.057266444 -0.32913876 -0.23587783 -0.14019005
000120 2b 4c 99 be b7 93 b4 bb 67 0c 01 bf 8e 96 82 bd
       -0.29940924 -0.005510773 -0.5040955 -0.06376372
000130 62 ee a9 3e b9 6a 62 bf d0 8b fa 3c 92 c0 36 3e
       0.33189684 -0.88444096 0.030584246 0.17846897
000140 e3 97 02 be b5 3a a2 bb 08 53 92 bb 1e 7d a4 be
       -0.12753253 -0.004950846 -0.0044654645 -0.32126707
000150 cb 2a 2e 3e c2 69 ba be 6f 15 90 3e a2 cc e3 3e
       0.17008512 -0.36408812 0.28141353 0.4449206
000160 94 10 eb 3d f9 23 51 3e 34 2e df 3e 57 c2 47 bd
       0.114777714 0.20423879 0.43589938 -0.04876932
000170 57 eb f3 3d 58 40 c3 bd 88 02 8a 3e f1 0b 38 3e
       0.11910122 -0.09533757 0.26955056 0.17973305
000180 48 76 0a 3e 71 ec 1a 3d a6 e0 50 3d 81 dc bb be
       0.13521683 0.037823144 0.05099549 -0.3669167
000190 c2 78 b7 be a1 4d 84 be f8 21 05 be c0 04 ba bc
       -0.35834318 -0.25840476 -0.1300124 -0.022707343
0001a0 dc 2f 8a be a6 de 26 be 7c c1 c3 3e ae a7 3d be
       -0.2698964 -0.16295871 0.38233554 -0.18520996
0001b0 5a 11 62 3d 0b b6 b9 be c1 9f 1c be 90 ef 4e be
       0.05519233 -0.362717 -0.15295316 -0.20208573
0001c0 ce c8 45 3e 30 12 e7 bc 74 d7 e8 3d a0 79 9b 3c
       0.19314882 -0.028206915 0.113692194 0.018978894
0001d0 11 14 77 be 5b 1c 62 bd 7d b7 63 be fb fc 1a 3e
       -0.24128748 -0.055202823 -0.22237964 0.15135567
0001e0 e0 79 9c be 11 7d 10 be 8f 06 42 3e 0c 47 ef 3e
       -0.30561733 -0.14110209 0.18947814 0.46733892
0001f0 fb 48 10 be 64 7c 8a be 1b 8f f0 3d 07 1f 70 3e
       -0.1409034 -0.27048028 0.11746045 0.23449336
000200 31 0e 64 bd 68 f0 d6 3c 18 14 82 bd 60 38 2b 3e
       -0.055677596 0.026237682 -0.06351489 0.16720724
000210 db 76 13 3e 85 22 ad bd 95 a3 2c bf 5d 1b dc be
       0.14400809 -0.0845385 -0.67437106 -0.42989627
000220 3a 40 4b 3e 7c 2d 1c bf b6 02 b9 3d 1d 01 53 bd
       0.19848719 -0.61006904 0.0903372 -0.051514734
000230 1e e9 a7 bc 1f ff ba 3e 57 b7 b1 bd 5b 03 08 bf
       -0.020496901 0.36522767 -0.086775474 -0.5313012
000240 43 b4 4e 3d ab aa 83 be b4 09 94 bd b4 0b 75 bc
       0.05046488 -0.25716147 -0.07228413 -0.0149564035
000250 52 02 a3 3e f2 b5 a2 be 9a f0 b8 3d 33 5e 0b 3d
       0.31837708 -0.31779438 0.09030266 0.034025382
000260 ef e9 a8 3e d7 6a 92 bd bc 79 b1 3e 5c 85 ca 3e
       0.32990977 -0.07149284 0.34663188 0.3955487
000270 c8 fa 81 be de 82 08 3e 6e d6 99 3e 2e 36 49 3e
       -0.25386643 0.13331172 0.3004641 0.19649574
000280 0c 9b 9c 3d e6 7d 15 3d 8b e1 49 bd a5 e9 28 3e
       0.0764676 0.03649702 -0.04928736 0.16495378
000290 24 3e 90 3d 59 55 e2 bd 99 8e 2a 3a f6 11 bc bd
       0.070431024 -0.11051435 0.0006506234 -0.09183113
0002a0 15 5b bd be 87 5b 44 bc b5 8b 3c 3e ed 49 38 3e
       -0.36983553 -0.011984712 0.18412669 0.1799695
0002b0 90 12 fb be 27 46 be 3e c5 60 e9 bd a6 18 7f be
       -0.490376 0.37162897 -0.113954104 -0.24911746
0002c0 ea 7b 05 3f 09 6d 33 3e d5 e2 0b bf 7f e1 80 3e
       0.521422 0.17522062 -0.54642993 0.2517204
0002d0 de fb cd 3c 02 05 51 3d 1c 21 94 be dc 39 2e be
       0.025144514 0.051030166 -0.2893151 -0.17014259
0002e0 0b 3f 56 3d a4 e3 b4 3d 94 4a ac 3c d6 d9 a0 be
       0.052306216 0.088324815 0.021031655 -0.31416196
0002f0 17 92 c8 be 6f db c9 bc d4 3b 08 3e 9e 8e 82 be
       -0.39173958 -0.024640767 0.13304073 -0.25499433
000300 05 c2 85 3e 0d 83 84 3d 20 e5 1c 3e a6 0e e8 3d
       0.26124588 0.064703085 0.15321779 0.11330919
000310 74 7c 2a be 48 fc 46 3d fb 0a 7b 3e 06 5d 58 3e
       -0.16649038 0.048580438 0.24515907 0.21129236
000320 98 0c c1 be 11 3d b1 3e e5 20 5f be c1 75 5e 3e
       -0.3770492 0.34616902 -0.21789892 0.21724607
000330 99 a8 99 bd 20 32 91 3d e0 ac 6e be a0 e6 6e be
       -0.075028606 0.07089639 -0.23308134 -0.23330164
000340 4d bf b3 3e 25 b8 87 3e 7d 9d 93 3e c1 92 e2 3e
       0.35106888 0.2650768 0.28831092 0.4425259
000350 9a 2c 1a bc 6e c3 18 be e8 9e 86 bc 65 99 69 bd
       -0.009410048 -0.149183 -0.016433194 -0.057031054
000360 57 44 68 be b7 2b 1b be 08 cb 86 be 58 6f c5 be
       -0.2268232 -0.15153395 -0.26326776 -0.3856151
000370 ae c4 0b be 08 45 2a bc 14 12 ab bc a8 f9 be be
       -0.13649246 -0.010392435 -0.020882644 -0.37299848
000380 00 41 92 3e 96 f2 8d bd 18 82 15 be c3 9b 93 3e
       0.28565216 -0.06931035 -0.14600408 0.28829774
000390 c8 0f 5c 3d 6b 2b 86 3d 43 e9 1d 3c 5b bf 8e bd
       0.053725988 0.0655125 0.009638133 -0.06970092
0003a0 69 0f b2 3e ca 5e 83 3e f3 49 d4 bd 63 f5 9d 3c
       0.34777382 0.25658256 -0.10365667 0.019282049
0003b0 8b 05 93 3e e4 97 8d be 75 bf dd be a1 78 66 be
       0.28715166 -0.27654946 -0.43310133 -0.22506954
0003c0 f8 3c 83 3d 42 d2 aa bd 38 58 08 3f ab 7d 17 be
       0.06408113 -0.08340885 0.5325961 -0.14794032
0003d0 3d 1d 8d be 5b 02 d7 be a7 44 87 3d 8b ea b4 3d
       -0.2756137 -0.41993985 0.06604891 0.08833798
0003e0 25 fa 09 be eb 5a 7e 3e 5a b9 0f 3e a9 08 37 be
       -0.13474329 0.2483937 0.1403555 -0.17874397
0003f0 48 fe d6 3d 20 40 d7 bc 57 a3 86 3e 5d cd 7b 3c
       0.10497719 -0.026275694 0.26296493 0.015368787

network_body.observation_encoder.processors.0.dense.0.bias f4 [128]
000000 c7 a8 f9 3c 54 bf ea 3b 2a 99 2f 3d 61 5e ba bc
       0.030475987 0.0071639214 0.042870678 -0.022750081
000010 1d e3 49 3d aa a4 dc 3c 6a b0 86 3b d5 69 a4 3d
       0.049288858 0.026933987 0.0041103857 0.08027998
000020 4e a7 0b bc 7f f5 3f 3d 37 ea 83 3c 69 aa d0 bc
       -0.008523775 0.046864983 0.016102893 -0.025471883
000030 ac 98 5b bc 1d 9e 3b 3d 79 a5 ef 3c 32 17 23 3d
       -0.013403099 0.045805085 0.029253708 0.039817043
000040 ab 2b 0c bb 6f d0 fe 3b 68 fe 48 3d 54 e3 04 3d
       -0.0021388333 0.007776312 0.049070746 0.03244336
000050 77 34 9b 3c 34 a6 f5 3c 81 25 1c 3d 82 a5 5b 3c
       0.018945916 0.029986478 0.038121704 0.013406159
000060 cd ba 08 3c 57 95 ea 3c ba e4 63 3d ad 0b b9 bc
       0.008345318 0.028635664 0.055638053 -0.022588575
000070 65 a3 0b bd 7f 14 d2 3c e4 8e 91 3a d1 2c 06 3c
       -0.034091372 0.025644539 0.0011105207 0.008189396
000080 14 3a 97 3c 8c df 48 bc 51 2f 09 3d ad 78 53 bd
       0.018460311 -0.012260329 0.03349239 -0.051628757
000090 06 ae 87 bb bc e5 3f 3c fe ef 80 3c b5 74 53 3b
       -0.0041406183 0.011712488 0.015739437 0.0032265608
0000a0 93 c2 da 3c a3 f7 a4 3a 93 60 53 3d 61 46 32 3d
       0.026704108 0.0012586009 0.051605772 0.04352415
0000b0 e4 77 0a 3d 00 6d d4 3c 4b ae 34 3a b2 8b 6a bd
       0.033805743 0.025930882 0.0006892427 -0.05726213
0000c0 5d 66 e2 3c 8d dc 65 3d ba 20 40 3d 79 9c 6e 3d
       0.027636701 0.056118537 0.04690621 0.058254693
0000d0 51 00 52 bc 20 80 44 3d 90 c6 da 3b 5f c0 1a 3c
       -0.012817458 0.047973752 0.0066765025 0.009445279
0000e0 cd cf 3b 3d 90 1d 90 3c 9f 23 22 3d 72 a9 dc 3c
       0.04585247 0.017592221 0.039584752 0.026936267
0000f0 4b d2 fc bc b7 00 0f 3d 33 7c 06 bc 9e 42 ca 3c
       -0.030861994 0.03491279 -0.008208322 0.024689969
000100 5f fd 64 3d e6 e6 91 bb fa 50 fb 3a 7f ab 4c 3d
       0.055905696 -0.004452574 0.0019173913 0.04996824
000110 a6 e8 c5 3b c1 d0 10 3d 84 22 f2 3b 76 b7 99 ba
       0.0060396967 0.035355333 0.0073893685 -0.0011727649
000120 05 e2 ab 3c a6 10 7f bc 23 7c 46 3c 1b 69 e7 3c
       0.020981798 -0.015567934 0.012114557 0.02824836
000130 a6 e5 9e 3b 12 21 9c bb 46 25 2a 3d 4d df e3 3c
       0.0048491536 -0.0047646845 0.041539453 0.027816439
000140 6e 79 1a 3c 05 17 ea 3a e4 80 82 3c ab d2 27 3d
       0.009428365 0.0017859644 0.0159306 0.040972393
000150 79 66 3c 3d c1 85 f9 3c 39 c7 14 bb 60 8f c5 3c
       0.045996163 0.030459287 -0.0022701754 0.024116218
000160 ce 79 e8 3a a0 a4 6d 3d 11 a3 b4 3c d7 51 35 3d
       0.0017736496 0.058018327 0.022050412 0.0442675
000170 3f c8 86 3b bb be ac bc c5 cd 3f 3a 15 de 81 3c
       0.0041132267 -0.021087041 0.0007316734 0.015852967
000180 29 9f 21 3d b4 99 43 3d 79 1a c2 bb aa d3 08 3b
       0.039458428 0.047754005 -0.005923566 0.0020878115
000190 99 b0 65 3d 40 ff af 3c 03 8a ea bc 0e c3 2b bd
       0.05607662 0.021484017 -0.028630262 -0.041934066
0001a0 3f f9 0a bd f4 0e 14 3c cf 83 e2 3b 22 97 07 bb
       -0.033929106 0.009036768 0.0069126855 -0.0020689447
0001b0 e2 b3 61 ba 79 af 9c bc 19 e6 7f bd 38 a5 66 3d
       -0.00086098735 -0.01912664 -0.062475298 0.05630991
0001c0 28 dc c8 39 f9 94 71 3d 71 ac 62 bb e4 50 a1 bc
       0.00038311002 0.058979962 -0.0034587646 -0.019691892
0001d0 8a f6 b4 3b 8a 23 22 3d 82 85 c8 3c dc c5 89 3d
       0.005522554 0.039584674 0.024477724 0.06727192
0001e0 d6 b2 8f bc c9 f9 04 3d 9b 93 c1 bc ae 68 bc 3c
       -0.01754133 0.032464776 -0.023629954 0.022999134
0001f0 c3 69 8f ba fa 58 ec bb b8 56 9a 3d 05 0c d8 3b
       -0.0010941554 -0.0072127553 0.075360715 0.0065932297

network_body._body_endoder.seq_layers.0.weight f4 [128, 128]
000000 86 7b f8 ba 31 24 2f bc 9d ba 85 3d 1d 4d 7d bd
       -0.0018957711 -0.010689781 0.06529734 -0.06184112
000010 ad 7f e5 3d 71 3a c4 3d 3b 7e 43 3d bd 9c 8e bd
       0.11205993 0.09581459 0.047727805 -0.06963489
000020 79 19 29 bd de 6f ff 3c ca c2 8c bc 87 32 a2 bd
       -0.04128406 0.031181272 -0.017182726 -0.079197936
000030 a4 63 8d 3d 78 b0 da 3d c2 81 eb 3c 8d c4 99 bd
       0.069037706 0.1067819 0.028748397 -0.07508192
000040 f5 08 75 3b e0 40 6e bd 9d 11 09 be 9f 52 ef bd
       0.0037389372 -0.05816734 -0.13385625 -0.116856806
000050 49 76 05 be 18 e7 48 3e d9 38 99 3c 77 8e ff bd
       -0.13033403 0.19619405 0.018703865 -0.12478345
000060 a5 2d 21 bd 34 04 d6 bd 08 c2 09 3d 32 d5 95 bd
       -0.03935017 -0.104500204 0.03363231 -0.073160544
000070 3c 5a 4a 3c a2 da 19 3d 2f 6a 36 3e c1 92 21 bd
       0.012350615 0.03756202 0.17813943 -0.039446596
000080 1a de 06 be b4 0a 83 be 05 f5 95 bc 12 77 a2 3b
       -0.13170663 -0.25594103 -0.018305311 0.004958042
000090 53 88 25 3c 86 8e 3d bd be 58 45 bd fe 14 b0 bd
       0.010103303 -0.0462785 -0.048180334 -0.08597754
0000a0 c5 d8 a6 3d 04 a0 21 bd 26 2b b3 bc 77 2e 1b bd
       0.08146814 -0.039459243 -0.02187116 -0.03788611
0000b0 b8 09 37 3e 21 83 50 bd 27 ed 83 bb 2c 9d b2 3d
       0.17874801 -0.050906304 -0.0040260735 0.087213844
0000c0 f2 81 15 be c0 36 39 3d b0 88 bf 3d 00 1c 12 3c
       -0.14600351 0.04521823 0.09352243 0.0089178085
0000d0 f2 16 58 b9 08 64 a5 3a e8 75 23 3e f5 86 fb bc
       -0.00020607913 0.0012618313 0.15962946 -0.030704001
0000e0 7f 4f 48 3e fe 9f 5d 3e 25 89 0a be b9 da 2f 3d
       0.19561575 0.21643063 -0.13528879 0.0429332
0000f0 65 87 cb 3d 4d a3 33 be 27 33 55 3d 34 c0 95 3c
       0.09937934 -0.17542763 0.052050736 0.018280126
000100 2e cb b2 3d 0f 19 4a be f9 69 68 bc 5e 13 ad bc
       0.0873016 -0.19736122 -0.014185422 -0.021127399
000110 61 40 fe bd be 26 1f be d4 21 bf bd b6 87 37 bb
       -0.12414623 -0.15542123 -0.09332624 -0.0028004474
000120 cb 8a 52 bd b4 aa c8 3d 44 3e 59 be a2 3d a8 bc
       -0.051401895 0.09798184 -0.21215159 -0.020537201
000130 5a 9d fa 3d fb 1f a8 3c 8a b2 8c 3d 9c 0d ec bc
       0.12237044 0.020523062 0.06869991 -0.028815083
000140 e4 34 19 3e cf 61 27 3d 77 67 b4 bd d7 ba 0f 3d
       0.14961582 0.040864762 -0.08808797 0.035090294
000150 de 2b ec bd 96 54 f8 3b 44 53 eb bc f2 13 96 bd
       -0.115318045 0.007578443 -0.028726228 -0.07328023
000160 e4 11 73 bd e5 54 aa bd 84 cc 18 3e 0e 09 4f 3d
       -0.059343234 -0.083169736 0.14921767 0.050545745
000170 f5 85 62 3e 1f 0c ee bc 57 9d 0f 3e 97 5d 91 3d
       0.22121413 -0.029058514 0.14024864 0.07097929
000180 8a df e2 bd 72 52 0b 3d 1d a0 04 3e 10 84 65 3e
       -0.11077793 0.034014173 0.12951703 0.22413659
000190 72 71 15 be 27 a2 d1 3d 88 b5 5d 3d 90 bf c2 3d
       -0.14594057 0.10236006 0.0541282 0.09509194
0001a0 6e 5a 91 3d aa 00 12 bd 93 ce 2a be ad b2 24 3e
       0.07097326 -0.035645165 -0.16680364 0.16083784
0001b0 70 c2 0b 3d c8 70 d2 bd 47 37 6b 3e 52 75 84 3c
       0.034120977 -0.102754176 0.22970305 0.016169224
0001c0 ee 20 51 3d 68 d2 92 bd 46 b1 93 3d a7 73 cb bd
       0.051056795 -0.07169038 0.072115466 -0.09934168
0001d0 4c 79 8e 3c 2b 40 5c 3e d7 95 31 bd e6 32 cf 3b
       0.017391823 0.21508853 -0.04335579 0.0063232062
0001e0 ea da ea 3c 31 ee ba 3d 98 ca e2 3c da dc d6 bd
       0.02866884 0.09127463 0.027684495 -0.10491343
0001f0 bb 6a 9e 3c 24 03 8a 3b 54 0a 38 bd b3 1c da bd
       0.019338002 0.0042118 -0.044931725 -0.10650005
000200 39 fd ba bc ef ae 2f 3e 1d 71 c9 3d 85 7c 0e be
       -0.022825824 0.17156576 0.09836028 -0.13914688
000210 04 1c 18 be 33 d6 b3 bb dc e5 c4 bd ab 4b 00 3d
       -0.14854437 -0.005488181 -0.09614155 0.031322163
000220 b5 04 20 be b3 cf 2c be ba 77 0a 3e c8 03 02 3e
       -0.15626796 -0.16876106 0.13522235 0.12696755
000230 ed 86 95 3c 7e 1a 77 be 8d f3 1b 3d ae 3d aa 3d
       0.018252814 -0.241312 0.038074065 0.08312546
000240 65 00 10 bd b1 dd c1 bc f4 1d ba 3d b7 f2 98 3d
       -0.035156626 -0.023665281 0.09087744 0.07468169
000250 c9 0d 2f be 00 0a 49 3d f4 be 40 3e fc cc 04 be
       -0.17095102 0.049081802 0.18822843 -0.1296882
000260 4e 8e cc bb 7c 4b eb 3c 36 57 76 bd 62 14 25 bc
       -0.00624255 0.028722517 -0.060141765 -0.01007566
000270 6e df 51 bc 75 34 d7 3d 13 84 b4 bd 05 1f 15 be
       -0.012809617 0.10508052 -0.08814254 -0.14562614
000280 3a af ff 3d b6 f1 81 bc b6 cb d9 bd 37 4d eb bd
       0.12484594 -0.015862327 -0.10634558 -0.11489337
000290 5e 30 5d bc d0 bd c9 3d 4e c5 b1 bd 9c 38 33 be
       -0.013500301 0.09850657 -0.08680211 -0.17502064
0002a0 b5 70 01 bc 61 00 09 bd f2 f2 25 3e 3d 3c 13 be
       -0.007900407 -0.033447627 0.16205958 -0.14378448
0002b0 ab 99 9b 3d c2 24 9d bb a8 e3 82 bd e8 8c f3 bd
       0.07597669 -0.0047956416 -0.06391078 -0.1189211
0002c0 5e 85 35 3d d5 de 9b bc 8a d0 32 3e f1 93 40 3e
       0.044316642 -0.019027153 0.17462364 0.18806435
0002d0 ee 2d 6e bd 7a da ac 3d 91 a2 cc bb 33 1f 2d bd
       -0.05814927 0.084401086 -0.0062449654 -0.042266082
0002e0 59 1d 4b bd 85 55 7f bd 41 b2 01 3e 9c aa ec bc
       -0.049588535 -0.062337417 0.12665655 -0.028889947
0002f0 8f 89 97 bb 35 2a ef bd d1 24 90 3d 58 16 60 3d
       -0.0046245526 -0.11677972 0.07038272 0.05470881
000300 59 a8 0b 3e 18 e8 8a 3d ee 43 8d bd ba d7 3c 3d
       0.13638438 0.067825496 -0.06897722 0.04610417
000310 e3 f1 2c 3e 39 98 43 3e bc 3d 74 3d a5 79 4d 3d
       0.16889147 0.19101037 0.059629187 0.050164837
000320 a8 0b e3 3c 46 69 a1 3d 7c 28 ef bd 71 c1 33 bd
       0.02771552 0.078814074 -0.11677644 -0.043885652
000330 f6 d6 86 bd bf 32 c2 bd 0c ac 6c bd 1b 1d d5 bc
       -0.06583969 -0.09482335 -0.057781264 -0.026014855
000340 25 35 26 be 1c 59 cf bc 75 bd 89 3c af df c3 bd
       -0.1623121 -0.025311045 0.016813973 -0.09564149
000350 f3 b7 2c 3e 9e 09 f4 3c 18 28 b3 bc 55 56 e7 bd
       0.16867046 0.029789742 -0.021869704 -0.112957634
000360 30 61 53 bc 37 f8 b5 bb ea 01 06 bc 73 04 48 3e
       -0.012901589 -0.005553271 -0.008179167 0.19532947
000370 ca 7c 26 bb 27 b8 06 be 29 98 24 3d 64 18 a1 bd
       -0.002540397 -0.13156186 0.040184174 -0.0786598
000380 28 b8 5a bd db 2b 2e 3d e1 78 d8 3c 44 f9 f5 bb
       -0.05339828 0.042522293 0.026424827 -0.0075065214
000390 41 30 a3 bc b2 5a a8 3d c2 8f f0 bc df 11 2d 3c
       -0.01992047 0.08220424 -0.029365424 0.010563343
0003a0 18 4e 9d bd 86 c1 1a be 44 db 9b 3d b3 9a 88 3d
       -0.07680911 -0.15112886 0.07610181 0.066701315
0003b0 0a cc de bd 9a fa a5 bc 29 c1 01 be 1b 2b c0 bc
       -0.10878761 -0.020261098 -0.12671341 -0.023458054
0003c0 43 cc ae bd 0a fc 0b be b3 3b ac 3d d7 4f 97 bc
       -0.085350536 -0.13670364 0.08409824 -0.018470688
0003d0 1c ab 55 bd 2c 4c 00 bd de 27 a3 3d 54 71 79 bd
       -0.052165136 -0.031322643 0.079665884 -0.060899094
0003e0 fe d2 73 3d 51 d4 1b 3d 75 45 87 bd 76 34 52 be
       0.05952739 0.038044278 -0.06605045 -0.20527825
0003f0 84 b6 d1 3c dd bf 00 3e dd e7 91 bd e2 5e 9a 3c
       0.025599726 0.1257319 -0.071243025 0.018844072

network_body._body_endoder.seq_layers.0.bias f4 [128]
000000 c2 33 9a bc f4 88 d3 3c bf 50 b7 ba 50 41 ef 3c
       -0.018823508 0.02582214 -0.0013985856 0.029205948
000010 61 d1 ea 3c 7c 62 78 bc 96 44 67 bc df 7e ad bc
       0.028664293 -0.015160199 -0.014115473 -0.02117866
000020 07 22 51 3d 18 66 80 3d f5 12 f6 bc d7 41 fc ba
       0.05105784 0.06269473 -0.030038336 -0.0019245696
000030 ad ed 92 3c c9 a1 b9 3c fd 99 99 bb 0d fe 3b bc
       0.017935598 0.022660153 -0.0046875463 -0.011474145
000040 00 70 5d 3d b7 47 9e 3a b5 fc 01 3c 29 35 88 3c
       0.05406189 0.0012075816 0.007933785 0.016626911
000050 7f 3e 87 bb 70 b2 ca 3c 17 54 86 bc 58 5f 7b 3b
       -0.004127323 0.024743289 -0.016397519 0.003835639
000060 28 ad 81 bc 31 14 40 3d bd a9 45 bc fc b3 60 3d
       -0.015829638 0.046894256 -0.012064395 0.054859146
000070 f4 3a 48 3d a8 3c 10 3d 52 01 fe 3b 02 50 b1 3b
       0.048884347 0.035214096 0.0077516222 0.005411149
000080 40 bd c0 3b 4f 63 e2 3c 14 05 68 bb 28 b2 77 3c
       0.0058819354 0.027635245 -0.0035403417 0.015118159
000090 5d fc b0 bb 6e a0 8a 3c fe 48 17 3d 34 a3 14 3b
       -0.005401178 0.016922202 0.036934845 0.0022680284
0000a0 9b 60 2f 3d 9e 11 21 3d 3e a7 53 3d ba 8e 4d 3d
       0.04281674 0.03932344 0.051673166 0.050184943
0000b0 92 9b 06 3d 1b c1 53 3c b9 6b 34 3c 54 1d e1 bc
       0.032863207 0.012924458 0.011012011 -0.027479805
0000c0 04 e3 5a 3c b0 83 ef 3c 2f 1a c4 3c da 65 a9 3c
       0.013359789 0.029237598 0.023938267 0.02067845
0000d0 79 00 51 3d ab dc 38 3d ae 3b 25 3d 9a 6b 07 3d
       0.05102584 0.04513232 0.040340118 0.0330616
0000e0 1f 1e c3 bc 43 5f 65 3c 47 15 57 3c e5 23 43 3c
       -0.023818074 0.013999763 0.0131276315 0.011910413
0000f0 68 0f 0c ba f3 da b8 3c de dc f0 3c a0 93 13 bc
       -0.0005342872 0.02256534 0.029402193 -0.0090073645
000100 f9 e6 e3 bc ff 4d a4 3d 3c a4 6a 3d 79 9c 19 bc
       -0.027820097 0.08022689 0.057285532 -0.009375685
000110 d0 0e eb 3c f8 11 a6 3c b0 77 f2 3c ca 04 73 3c
       0.028693587 0.02027224 0.029598087 0.014832685
000120 6f 34 a6 3c 06 5e 8d 3b b7 aa 42 3d ff 4b b7 3c
       0.020288674 0.004314187 0.047526088 0.022375105
000130 1a 83 06 bd 38 ef 43 bb eb 3e 1e 3d 70 59 39 3c
       -0.032839872 -0.0029897224 0.038634222 0.0113128275
000140 f2 27 8b bb ec 11 ee 3b d8 a9 f9 3c bb 46 86 bc
       -0.004246705 0.00726532 0.030476496 -0.016391149
000150 ab 58 38 bd 69 3a 18 bd 6c 34 90 bc 14 6e a4 3c
       -0.045006435 -0.03716508 -0.017603122 0.02007202
000160 c3 b0 38 3d c1 79 07 bd 06 fb 0f 3d 76 5c ad bb
       0.045090448 -0.033075098 0.035151504 -0.005290563
000170 2d 65 b1 3b 7d ac 3a bc 8b 5d fd 3c 9f 1e bb 3c
       0.0054136724 -0.0113936635 0.030928394 0.02284175
000180 cc 8d 1e 3d 0c 51 a1 3b cf d3 65 bb 18 8b c3 3c
       0.038709447 0.0049229916 -0.0035068875 0.023870036
000190 14 70 02 bd 1a 5a 06 bd 4f 7b a2 3c 1a 6b e6 bc
       -0.031845167 -0.03280077 0.019834189 -0.028127242
0001a0 70 f6 76 bc ce fd a8 bc b7 9f 5c 3c bc 0a 31 3c
       -0.015073404 -0.020628836 0.013465813 0.010805782
0001b0 0e 7b 11 3d d3 a5 0e 3d 0c e9 99 3b 13 31 33 bc
       0.035517745 0.03482611 0.004696971 -0.010936993
0001c0 b2 b0 be bb 4f 23 c0 3c ab a0 69 3c dd a6 d5 3c
       -0.0058194036 0.023454336 0.014259498 0.026080543
0001d0 a3 20 03 3d 10 6d 0e 3d d3 42 ee 3c cb 3e 9e ba
       0.032013547 0.03477198 0.029084599 -0.0012073157
0001e0 93 9b 05 bc 5b 21 35 3b 11 ec 37 39 22 09 dc bb
       -0.008154768 0.002763829 0.00017540182 -0.006714956
0001f0 3b 25 7d 3b 29 9c 1f 3c e9 1c ae bb 65 32 e4 3c
       0.0038626927 0.009741821 -0.005313505 0.027856061

network_body._body_endoder.seq_layers.2.weight f4 [128, 128]
000000 d3 c1 45 be 4a 27 69 bb 33 3f 41 3e 68 25 26 3e
       -0.1931222 -0.0035576397 0.18871765 0.16225207
000010 69 a6 45 bd 54 36 fb bd a6 43 58 bd 4a ab 6f 3c
       -0.048254404 -0.12266222 -0.05279889 0.014628241
000020 3a b8 ad 3d a0 13 59 3e 9f 5c e3 3b d3 7c 3c be
       0.08482404 0.21198893 0.0069385315 -0.18406992
000030 c9 d6 23 3c 79 ef a0 3c 14 a2 3d 3d 94 0a d7 bd
       0.009999939 0.01964544 0.046297148 -0.105000645
000040 64 5c 39 bd 65 9b 25 3d 8d db 7a bd f6 21 d8 bd
       -0.045254126 0.0404314 -0.061244536 -0.105533525
000050 bd 7c b0 bd f5 40 90 bd e2 ce 01 3e 5a 48 62 be
       -0.08617542 -0.070436396 0.12676576 -0.22097912
000060 3c 6b 7f bc a6 e2 b9 3d e3 4a e5 3c eb 0e 1f 3d
       -0.0155895315 0.09076433 0.02798981 0.038832586
000070 88 1d 15 3e 91 88 e3 bd c6 e1 0f be 17 1a 04 3e
       0.14562047 -0.11110032 -0.1405097 0.12900577
000080 01 2b af 3d c0 ab ba bd 72 0e 59 3d 0d d6 1a 3e
       0.08553124 -0.0911479 0.05299229 0.15120716
000090 e8 f0 cb 3d f0 21 49 be b6 18 0d 3e b1 01 9c bd
       0.099580586 -0.19641852 0.13778958 -0.0761751
0000a0 e7 d8 db bd cb 8c 16 bd b4 76 1c 3d 3b 0c a9 3c
       -0.1073473 -0.036755364 0.03819914 0.020635715
0000b0 30 58 9c bd 9b ec 20 be ef 45 78 bd dd 33 b7 bd
       -0.07634008 -0.15715258 -0.06061357 -0.08945439
0000c0 f0 c6 e6 bd b9 d4 9d be 8d 18 50 3c b4 a6 67 3e
       -0.11268413 -0.30826357 0.012701166 0.22622186
0000d0 78 f8 d7 bd c2 78 6e 3e 81 a0 a6 bd fd b3 a5 bd
       -0.105454385 0.23288253 -0.081360824 -0.08090971
0000e0 ab 03 89 3c 8b 5d a8 3d ae a0 fc 3d 05 28 85 3d
       0.016725382 0.08220967 0.12335335 0.06501774
0000f0 fd 7c c7 bc 73 6c c9 3d 77 45 de 3d ef 24 23 bd
       -0.024351591 0.09835138 0.10853093 -0.039830144
000100 53 8d bc 3c 43 58 a5 bd 0e 8c 81 bd 4b f8 65 3d
       0.023016607 -0.08073475 -0.063255414 0.056144994
000110 03 a4 5b bd 39 87 c8 bd 0c 68 3e bc 6f e5 93 bd
       -0.05362321 -0.09791417 -0.011621486 -0.07221495
000120 f0 34 0c be 28 52 1e 3e 99 cd 42 3e c3 bb a0 be
       -0.13692069 0.15461028 0.19023742 -0.3139325
000130 f5 7e 56 be 18 f2 82 3c b5 91 31 3d a6 ff cd 3b
       -0.20946868 0.01598458 0.043351848 0.006286579
000140 3e 8e 9f bd 4d 21 b4 3d 28 ca fc bd 37 6f ad bd
       -0.077908024 0.08795414 -0.12343246 -0.08468478
000150 30 80 f6 bc c8 11 db bd 34 b6 e7 bc 01 60 4e 3d
       -0.030090421 -0.10696751 -0.028285123 0.050384525
000160 c6 0f 3e bd e8 aa ea bc 24 5d d6 3d 1e 56 d0 3d
       -0.04640176 -0.028645948 0.10466984 0.101726755
000170 dc 50 85 3d 31 de 11 3d 69 0b 69 be 58 cd d2 3d
       0.06509563 0.03561229 -0.22758259 0.102930725
000180 e4 0d d9 bd 15 41 2b bc 3d 31 92 bd ea 1f 1d bb
       -0.105983526 -0.0104525285 -0.07138298 -0.002397532
000190 c7 f8 87 bc 47 ac 17 be 6c 5f 24 be ed ee dc bc
       -0.016598118 -0.14811812 -0.16052026 -0.026969397
0001a0 a5 62 1d bc c7 52 24 3e 69 d4 49 bd 31 e5 aa bd
       -0.009606038 0.16047202 -0.049274836 -0.08344496
0001b0 7d fb 12 3e e9 51 10 3c d2 e8 89 bd 87 a1 92 bc
       0.14353748 0.008808591 -0.0673386 -0.017899288
0001c0 95 35 c2 bc a5 a9 8c bd 65 26 a5 3b d0 5e 9a bc
       -0.02370719 -0.068682946 0.0050399774 -0.018844038
0001d0 4e fa d9 3d cf 06 b2 bc 2d 9f b0 3d cc dc ab bc
       0.10643445 -0.021731762 0.0862411 -0.020979308
0001e0 b2 a2 f2 3c 76 4e 7f 3b 02 d5 b5 3d b8 7b 0d 3e
       0.029618595 0.0038956678 0.08878519 0.13816726
0001f0 ea fe 55 bd 1f c1 50 3e 36 77 aa bc e0 64 04 3d
       -0.052245058 0.2038617 -0.020808797 0.032322764
000200 c8 5f 3a bc 62 11 03 bc dd c8 49 3d c7 6f de bd
       -0.011375375 -0.00799975 0.049263824 -0.108611636
000210 fe 65 10 be 8c b6 fc bd f4 58 27 3c 24 c6 7a 3c
       -0.14101407 -0.123395056 0.010214079 0.0153060295
000220 59 e6 b6 3d 39 25 2d 3e 68 9b 48 be 21 14 8a bd
       0.08930654 0.1690873 -0.19590533 -0.067421205
000230 be 35 b8 3c bf 19 b3 3d 79 87 c4 3d 35 4d 6e 3d
       0.022486564 0.08745145 0.09596152 0.0581791
000240 33 3a 5d bb 2d d6 1d 3e 3d 87 0a be f2 e2 d9 bd
       -0.0033756613 0.15413733 -0.13528152 -0.106389895
000250 3a 32 fb 3c e2 94 0a 3e 07 c2 0e be 20 be 19 bc
       0.030663598 0.13533357 -0.13941203 -0.009383708
000260 7d 86 01 3c 32 7e ce 3b 81 d3 9e bc ef 44 8c 3d
       0.0079056 0.0063016647 -0.019387962 0.068490855
000270 5c d5 e7 bd 50 28 b9 bd 6f d4 e8 3c 5a 39 6c bd
       -0.11319992 -0.09040892 0.028421609 -0.057671882
000280 51 6d e8 3d 20 6a a6 bd 94 67 e2 bd b4 bd a4 3b
       0.113489754 -0.081257105 -0.11054912 0.005027497
000290 58 e9 59 3d 86 54 52 bd bf ff 08 be 38 dc c7 bd
       0.05320105 -0.05135014 -0.1337881 -0.097588
0002a0 b0 62 2b 3e 2a 54 42 3e 78 8f f4 3d 5d 84 88 3d
       0.16736865 0.18977419 0.11941427 0.06665871
0002b0 0f 21 27 3e 3d f7 a1 3c 55 dd 9d be ee 5d bc bd
       0.16321205 0.019771213 -0.30832925 -0.09197603
0002c0 cb 7d 9b bd f5 dd cf 3d 7a 6d f9 3d 84 19 24 3c
       -0.075923525 0.10149757 0.12179084 0.010015849
0002d0 97 19 a8 3c c4 c5 55 bb d1 68 de bc 95 a5 6a 3d
       0.020520015 -0.0032619098 -0.02714959 0.057286818
0002e0 96 ec a8 bc 82 17 9a bd 92 6c 9d bd 3d 10 df bd
       -0.020620625 -0.07524015 -0.07686724 -0.10891769
0002f0 be 9a 85 bc ec a1 3d 3d 20 1b e3 bd 1f db 1a 3e
       -0.016309138 0.046297 -0.11089158 0.1512265
000300 54 c7 95 bc f1 c6 04 3e 5a bb 59 bb 54 d7 06 bc
       -0.018283524 0.12966515 -0.0033223242 -0.008230049
000310 05 4d 88 3e 5f 29 52 3d 69 8c cc 3c 4c ab 13 bd
       0.2662126 0.051308986 0.024969297 -0.036052033
000320 c8 0e cb bc dd dc e3 3d c5 2e 54 bd ed d4 16 bd
       -0.024787322 0.11126111 -0.051802415 -0.036824156
000330 ee 63 16 be e9 3a 9b bd ec e1 04 3e 9b 54 36 3e
       -0.14686558 -0.075795956 0.12976807 0.17805712
000340 37 3c 24 3d 97 d3 f8 bc d9 02 18 3d 5e 61 e6 bd
       0.040096488 -0.030374331 0.03711209 -0.1124904
000350 67 08 84 3d 3f 41 0d be d4 1e be bc 85 2d dc bd
       0.06446915 -0.1379442 -0.02320806 -0.1075087
000360 29 f1 11 bd 0a e1 97 bd 70 4c f4 bb 27 ba d2 bd
       -0.03563038 -0.0741597 -0.007455401 -0.10289412
000370 f2 79 02 3e 44 e7 0b be 33 09 a6 ba c5 ca 90 bd
       0.12741831 -0.1366244 -0.0012667537 -0.07069925
000380 10 13 b6 3d f2 69 9a 3d 02 58 c6 bc 5e d3 88 bb
       0.08890355 0.07539739 -0.024211887 -0.0041755876
000390 fe 1d 57 be 48 7e db 3b e5 b9 0e bc 70 a6 b9 bd
       -0.21007535 0.0066984035 -0.008711313 -0.090649486
0003a0 ce c3 c2 bd fa eb 1b bb 9c 09 cc bd c6 49 54 bd
       -0.09510003 -0.0023791776 -0.0996277 -0.05182817
0003b0 28 65 fc 3d 28 0d 09 3e 17 65 07 bc 67 6b 05 be
       0.123239815 0.13383925 -0.008263848 -0.13029252
0003c0 55 38 ee bd db 57 50 3e 70 3c 0c be b7 51 88 3c
       -0.11631838 0.20346014 -0.1369493 0.016640527
0003d0 62 df b7 3a 7e 63 fc 3d fb 0f 3a 3d d1 ff 8e 3c
       0.0014028365 0.12323664 0.045425396 0.017455967
0003e0 95 18 1a bc 85 9a ee bd b5 b1 e9 bd 32 77 4f bb
       -0.009405275 -0.11650566 -0.11410848 -0.003165674
0003f0 1e 03 9d bd be 1b c4 bd fe d8 39 bd e0 2b 21 3d
       -0.0766661 -0.09575604 -0.045372956 0.039348483

network_body._body_endoder.seq_layers.2.bias f4 [128]
000000 0f 76 01 3d cd ee 18 3d f3 4c 43 3d ed 28 49 ba
       0.03160673 0.037337113 0.047680806 -0.000767364
000010 63 97 9e 3d 4e 8b 34 3c e8 ea 17 3d e0 17 27 3d
       0.077437185 0.011019541 0.03708926 0.040794253
000020 22 af 55 3d f7 60 0b bc 9c 4e ee 3b f2 21 77 bc
       0.052168973 -0.008507005 0.0072725546 -0.015083777
000030 7a 24 bf 3c 3e a6 de bc 93 2a 93 3d ed 3b 1c 3d
       0.023332823 -0.02717888 0.07185855 0.038143087
000040 b3 b3 b3 3b 6f e1 90 3c db f7 a2 3d 6d 38 11 3d
       0.0054840683 0.01768562 0.07957431 0.035454202
000050 08 4a 1d 3d 19 fe c7 3b 3c 7f 1e bd 5e 21 77 3d
       0.03840068 0.006103289 -0.03869556 0.060334556
000060 9a 28 d8 3c 44 90 9b bc 5f a0 25 3d a7 d1 8a 3c
       0.026386548 -0.01898969 0.040436145 0.016945673
000070 51 3d 11 3d bb 43 38 3d 53 ef d9 3c 5c b2 92 3c
       0.035458867 0.044986468 0.026603376 0.017907314
000080 7c 3d b3 3c fd 15 9f b8 29 37 5e 3d 91 5e b4 3c
       0.021879904 -7.5858065e-05 0.054251824 0.022017749
000090 05 94 99 3b 21 a6 32 3a 58 ed 72 3c 9a b1 a2 bc
       0.0046868348 0.0006814916 0.014827095 -0.019860078
0000a0 09 41 3b bc ae b9 2d bc 37 cd e6 3c 91 2e a9 3b
       -0.01142908 -0.0106033515 0.028174026 0.005163022
0000b0 02 03 9e bb fd dc c7 3c e3 85 7a 3c d7 b9 b5 3a
       -0.004822136 0.024397368 0.01529071 0.0013864589
0000c0 ce a8 68 3d 0c ac 3c 3d 00 32 88 3d 6e 83 ed 3c
       0.05680161 0.046062514 0.06650162 0.028993335
0000d0 ca 2c c7 3c 80 d2 69 3c 10 6e 8d 3c 87 01 7a 3d
       0.02431335 0.0142713785 0.017264396 0.061036613
0000e0 5b 00 f1 3c 4d 9e b9 3b ed eb ce 3c 05 1d 43 3d
       0.029419115 0.005664623 0.025258983 0.047635097
0000f0 e9 e6 e2 3c d8 a2 4a 3d fd 20 ac ba a7 f7 96 3c
       0.027697997 0.049471706 -0.001313239 0.018428637
000100 11 8e 0e 3d ed 8c da bc 8f d3 26 3c 77 0c 6b 3c
       0.034803454 -0.026678527 0.010182275 0.014346234
000110 91 0e 7a 3d 9f dd e4 3b 5f 0d 5f 3a ae e8 f6 3c
       0.061049048 0.006984427 0.00085087674 0.030140247
000120 87 18 8b 3d fe 64 f4 bc 7e 07 79 bc 76 1a ba bc
       0.067917876 -0.029833313 -0.01519954 -0.022717696
000130 4c 80 df ba cf a8 5e 3c 9f 26 0a 3b 12 a9 f0 3b
       -0.0017051785 0.013590052 0.002108015 0.0073443735
000140 cb df 2a 3c d0 bd 00 3d 9c d9 0c 3b b3 54 03 bd
       0.010429333 0.03143102 0.002149201 -0.032063197
000150 e6 de 2a 3d 24 cf 8d 3d 4a 59 e0 3c 16 0e 9e 3d
       0.04171648 0.069242746 0.027386326 0.077175304
000160 77 c7 46 3d 73 f1 87 3c 23 70 ef 3c 49 aa 0e 3b
       0.04853007 0.016594624 0.029228276 0.0021768978
000170 ec c4 47 3c d3 48 da 3c 77 2c 0f 3c 8b 33 46 bd
       0.012192946 0.026646053 0.008738629 -0.048389
000180 55 25 b0 bc 4b 14 f2 3c bb 2a 9c 3c 05 bf 69 3c
       -0.021502176 0.029550692 0.019063344 0.014266734
000190 f9 7a dc 3c 46 a4 a9 3d 82 e4 d3 3c ed f3 00 bc
       0.026914107 0.08283286 0.025865797 -0.007870656
0001a0 91 9c a0 3c af ee a3 ba af e5 9c 3c ab 61 1b 3d
       0.019605907 -0.0012507046 0.01915249 0.03793494
0001b0 ff f2 4e bc ac af 5e 3d cd 91 8a 3c 88 ce 0f 3d
       -0.012631177 0.054366753 0.016915226 0.035109073
0001c0 78 26 e8 3c 89 85 8c bb 6b a5 54 bb 5a 15 29 bb
       0.028338656 -0.0042883796 -0.003244723 -0.002580008
0001d0 32 53 d6 3c 7c f0 8a bc f2 15 75 3d 8c ef b1 bc
       0.026162717 -0.016960375 0.05983538 -0.02172067
0001e0 75 f1 2f 3d 47 df 74 bc 46 ea d7 3c b1 24 b1 3c
       0.04295488 -0.014945812 0.026356827 0.021623941
0001f0 53 01 cc 3b 58 6d 92 bc cb 1d 0f 3d cf 63 a1 3c
       0.006225744 -0.017874405 0.034940522 0.019700913
