results/AttackerDefender_Skill1_v2/Defender/Defender-8499982.onnx (onnx, 891078 bytes, 17 tensors)

discrete_act_size_vector f4 [1, 2]
000000 00 00 a0 40 00 00 40 40
       5.0 3.0

network_body.observation_encoder.processors.0.conv_layers.0.weight f4 [16, 5, 8, 8]
000000 1d 70 14 bd d2 0b e9 bd 0e f1 d5 3d 20 38 06 bd
       -0.036239732 -0.11379208 0.10446368 -0.03276837
000010 1e f3 3f bd 9e c7 c1 3c e9 33 8c 3d 97 7e a3 bb
       -0.046862714 0.023654755 0.068458386 -0.004989456
000020 81 dd c6 bd ed 63 00 bd 9e 4d ba 3c 99 1c 73 bd
       -0.09710217 -0.031345297 0.022742089 -0.059353445
000030 bb 99 3d 3d 57 f4 ab bb 05 70 12 3e eb b1 15 3e
       0.046289187 -0.0052476334 0.14300545 0.14618652
000040 12 07 9f bd b5 40 81 3d c5 53 57 3e 1a c4 ad bd
       -0.077650204 0.0631117 0.2102805 -0.08484669
000050 7e 72 e8 3d 90 17 89 bc de 2d 52 bd 2d 1c 5a 3d
       0.11349963 -0.016734868 -0.051313274 0.053249527
000060 d0 48 38 3d 96 e3 a9 3d 0d c9 c5 3d c6 79 3a 3e
       0.044991314 0.08295362 0.09657488 0.18210515
000070 3d 02 15 3e 39 c3 4c bd 43 84 e0 3c 22 5c 12 bc
       0.14551635 -0.049990866 0.027406817 -0.008933099
000080 da a4 91 bd 45 9a 9a 3c 95 f1 a7 bc 4e 87 93 bd
       -0.07111521 0.01887239 -0.020500937 -0.07203542
000090 45 16 3b 3e 0a f2 a5 bd 47 61 4c 3d c9 ea 30 3e
       0.18270214 -0.08102806 0.04989746 0.17277063
0000a0 55 a3 16 bd 66 b1 06 3c 68 1c e6 3c 0c 58 94 3c
       -0.03677686 0.008221006 0.028089717 0.01810839
0000b0 af 8f 60 bd 3e 8a da bc a2 e7 23 be 0e 24 80 3d
       -0.054824527 -0.026677247 -0.1600633 0.06256877
0000c0 c6 c1 50 3e b6 45 3d bd de 02 d8 3d 12 a1 b3 bd
       0.20386419 -0.04620906 0.10547422 -0.08770956
0000d0 19 63 95 bd f7 01 25 3e 56 77 6d 3d a5 f3 94 3d
       -0.07294292 0.16114031 0.057975136 0.07273034
0000e0 b9 e1 50 3d 61 d5 ee 3c 83 2d 6e 3b ff f1 93 bd
       0.050996516 0.029154481 0.0036343045 -0.072238915
0000f0 84 0b 40 bd 3e c9 31 3c 9f a5 b8 bc 2f b5 e1 bd
       -0.046885982 0.0108512025 -0.022539912 -0.11020886
000100 34 92 01 3d 80 fa 06 bd 52 da 3a bd 28 3d 22 be
       0.03163357 -0.03295374 -0.045618363 -0.15843642
000110 ce 82 6f bd a3 f6 89 bc c9 36 26 3e 8f 37 95 bd
       -0.058474354 -0.016841238 0.16231836 -0.072859876
000120 3f bf 15 3e 5b 02 31 3d f7 c3 fb 3b f6 2a ce 3c
       0.14623736 0.043215137 0.007683273 0.02516697
000130 03 53 04 3d dd 48 77 3c c2 44 c5 3d d7 13 34 3d
       0.03230573 0.015093056 0.09632255 0.043964233
000140 0f ee 8d 3d af 55 b6 bd 2c a2 64 bd 72 d6 3c 3d
       0.06930172 -0.089030616 -0.05581872 0.04610295
000150 35 c6 8f 3d 8c 3a 13 bd 00 5f 02 bd d2 f8 4d bd
       0.07020227 -0.035944507 -0.03182888 -0.05028612
000160 db 24 a0 3d a8 6a 1e 3e d8 69 7e 3d ba 52 a1 bd
       0.078195296 0.15470374 0.06211266 -0.07877107
000170 fe 43 21 bd d8 99 fa 3c 15 6f 8f bd 9f e0 a6 3d
       -0.039371483 0.030590937 -0.07003609 0.08148312
000180 af 01 c8 3c 13 b5 c2 3d f0 f6 a4 bd 3f b4 2c 3d
       0.024414865 0.095071934 -0.08054912 0.042164084
000190 41 6d 15 3d e7 34 9b 3d e3 2a 20 bd cc 01 32 3e
       0.036481146 0.0757845 -0.0391034 0.17383498
0001a0 5f 85 11 bd 91 fd f0 3d 2b f1 00 be 4f f6 8b bd
       -0.035527583 0.11767114 -0.12591998 -0.06834089
0001b0 52 12 5a bd cb 9a 29 bd ad 2b d7 bd c0 bc 06 ba
       -0.053240128 -0.041407388 -0.10506377 -0.000513982
0001c0 bf 2d 05 3e a6 6d 99 3d e6 72 49 3e 07 da d2 3c
       0.13005732 0.07491617 0.19672737 0.02573873
0001d0 7b 83 23 be 14 05 e9 bc f3 50 5a 3d cb 14 75 bc
       -0.15968125 -0.028444804 0.053299855 -0.014958571
0001e0 6f e6 3b bd b3 1f 71 bd 80 0b ad bc 05 a8 b8 3d
       -0.045874055 -0.05886812 -0.021123648 0.09016422
0001f0 9e 59 5f 3b e4 78 b2 bd 43 de 84 3d 78 0a 7a 3d
       0.0034080516 -0.08714464 0.064877056 0.06104514
000200 aa 23 13 bd 54 87 6f bb 9e 1e 4b 3d f9 74 da bc
       -0.035922684 -0.0036549168 0.049589746 -0.026667105
000210 24 90 ad 3d cf 7d 9a 3d 31 0b 1f 3d ae c0 12 be
       0.08474758 0.07543527 0.038829032 -0.14331314
000220 20 da 1c 3e 4a 25 69 3c 5f f0 9d 3c c7 ec 9a bc
       0.15317583 0.014230082 0.019279657 -0.018911732
000230 eb 14 78 bc c2 89 b5 3c 03 88 da 3d b2 d4 38 3e
       -0.015141706 0.022160415 0.106704734 0.18049887
000240 73 03 b9 bc a2 14 b5 3d 5a 22 67 bd 9a 6b 47 bd
       -0.022584653 0.08841826 -0.056429245 -0.0486866
000250 05 a8 16 3d bb 1b c7 3d 8d 6e 58 bd c1 aa 09 bd
       0.03678133 0.09722086 -0.052839804 -0.03361011
000260 a7 3c ba bc 95 3b 29 3d 66 e8 28 bd b0 fb 6d be
       -0.022734 0.041316587 -0.041237257 -0.23240542
000270 c3 73 53 3e bb 5f c6 bd 81 17 cd 3c bd de b2 3d
       0.20649628 -0.09686228 0.025035622 0.0873389
000280 b9 1b 41 3d bd 45 21 3e e8 f5 88 bc dc af 03 3e
       0.04714558 0.1574926 -0.01671882 0.12860054
000290 5f f9 7d 3d 17 5f ba 3c 33 54 00 bd 9d 44 09 3e
       0.062005397 0.02275042 -0.0313303 0.1340508
0002a0 67 37 10 bd fb aa 5f bd 20 4c b9 3d f6 f2 bf bd
       -0.035209086 -0.05460642 0.09047723 -0.09372513
0002b0 c2 d4 26 be b6 f2 b5 3c 8f 8b 2a 3c ca 6b 89 bd
       -0.16292098 0.02221046 0.01040925 -0.06710012
0002c0 a8 d2 35 3e 36 e3 67 bc 16 cd 0b 3d 18 0f 20 3d
       0.1775614 -0.014153292 0.034131132 0.039076895
0002d0 29 ba fd bc 2a ed 5b 3d e4 c9 2a bd 27 a8 8c 3d
       -0.030972557 0.053692974 -0.041696444 0.0686801
0002e0 b9 ac ef 3d 43 60 e5 bd 25 3e a7 3d 3c 97 02 3d
       0.11702866 -0.11200001 0.0816615 0.03188251
0002f0 4b 95 df bd 3f 8b 29 be 47 90 54 3d 18 a9 ba 3c
       -0.10917147 -0.16557024 0.051895406 0.022785708
000300 2e b8 1c 3d 82 1e b0 bc 68 a3 60 bd c2 28 b1 bc
       0.038261585 -0.021498922 -0.054843336 -0.02162588
000310 92 54 5b 3d 00 83 09 bd 22 a2 a1 bc 80 e6 84 bb
       0.05354745 -0.033572197 -0.019730631 -0.004055798
000320 8c 3f de bc 24 c1 c4 3c 12 75 3a 3d 21 ac ca bc
       -0.02712991 0.024017878 0.045521803 -0.02474028
000330 9a 62 4d bd 58 ce 50 3c 31 8e 2f bd 40 bd 92 3c
       -0.050142862 0.012744509 -0.042860214 0.017912507
000340 e9 92 3c bd cd fb 9a bb 78 46 16 bd a5 f5 49 bd
       -0.046038542 -0.004729724 -0.036688298 -0.04930653
000350 58 cd 06 bc 4d 9d 90 3c 44 06 09 bd 3e db 13 3d
       -0.008227669 0.017653132 -0.03345324 0.036097758
000360 68 25 0a bd f0 bc 33 3c fc ef 0e 3d a0 76 0a bb
       -0.03372708 0.010970339 0.034896836 -0.0021127835
000370 ea 9a 00 bd 70 f1 a4 3c 1a 35 39 3d 60 bb 4a 3c
       -0.031397738 0.020134658 0.045216657 0.012373775
000380 60 16 8a 3b c0 94 2e bd 1c 90 40 bd e2 ba b0 bc
       0.004214093 -0.042622328 -0.047012433 -0.021573488
000390 68 6b 0e 3d f8 93 1b bd e8 ce 4a bd 5c a3 e7 3c
       0.0347704 -0.03798291 -0.049513727 0.028276138
0003a0 29 03 1e bd 20 73 0a 3c b8 1e f5 bc 18 cd 04 bc
       -0.038577233 0.0084502995 -0.029921874 -0.008105539
0003b0 50 5f 8d 3c 7c e3 93 3c d6 3e 33 3d a4 0c dd 3c
       0.017257363 0.018052809 0.043761097 0.026983567
0003c0 7c c1 83 3c d4 35 46 3c 30 6c e4 3b 34 dc 35 3d
       0.016083471 0.012097795 0.006970905 0.044399455
0003d0 2c 42 dd 3c a1 72 a5 bc 64 30 91 3c 46 98 5f bd
       0.027009092 -0.02019626 0.01772327 -0.05458858
0003e0 ce a2 2c bd 18 7e 82 3c 05 ab 39 bd a0 ae d9 3b
       -0.04214745 0.015929267 -0.045329113 0.0066431314
0003f0 a0 03 08 bc 48 6e f0 3c c5 a9 62 bd 88 1a 09 3d
       -0.0083016455 0.029349461 -0.055337686 0.033472568

network_body.observation_encoder.processors.0.conv_layers.0.bias f4 [16]
000000 86 63 ac bb 2f be 2f bd 2f 94 8c bb 05 cc 75 bd
       -0.0052608876 -0.042905983 -0.004290126 -0.06000902
000010 d9 f3 e5 3c 04 f2 2b bc f4 2e 62 bc 46 07 c3 bc
       0.028070377 -0.010494713 -0.01380514 -0.02380718
000020 0e c6 b4 bc da 29 e9 3b b0 3b 16 bd 7c 4c 13 3c
       -0.022067096 0.007115585 -0.036678016 0.008990403
000030 f9 4c 0f 3a ce e2 68 bd 7e 9f bc bc 65 ab 86 bd
       0.0005466487 -0.056856923 -0.02302527 -0.0657566

network_body.observation_encoder.processors.0.conv_layers.2.weight f4 [32, 16, 4, 4]
000000 eb cf de bb bc 03 cd bd 43 2a 4e 3d f5 0f 98 3c
       -0.006799688 -0.10010478 0.050333273 0.018562296
000010 3c 9c 21 bd fb bb c6 3c ea 22 12 be 15 b9 a7 3c
       -0.039455637 0.024259558 -0.14271131 0.020473996
000020 63 8a fc bc cb 03 af bd 71 f0 d5 3d ce 5f fa bd
       -0.030827707 -0.08545645 0.10446251 -0.122253045
000030 4e 34 9e bd 05 e1 9f bd 6c ef 44 3d a5 61 9b bc
       -0.0772482 -0.07806591 0.048079893 -0.018967459
000040 2c 24 97 bc 23 db 07 be d2 7a 7b 3d 14 33 e1 bc
       -0.018449865 -0.13267188 0.061396427 -0.027490176
000050 a3 a5 8f 3d da 7d 5e be 30 2e cf bd 4e f3 f2 3c
       0.070140146 -0.21727696 -0.101162314 0.029657032
000060 8c 11 a4 3c 08 ed f0 3c c3 2c 12 bd c9 2b f9 3d
       0.020027898 0.0294099 -0.03568722 0.121665545
000070 f1 e7 8b 3c 7b 57 4f bd 70 ae 10 3c 5d cf 50 3d
       0.017078372 -0.050620537 0.008830652 0.050979007
000080 fb 82 2b bc 59 84 86 3c 0b 28 eb bd cd c0 8b bd
       -0.01046824 0.01642053 -0.11482247 -0.06823883
000090 3c eb b0 bd 7d d3 30 be 7d 9e 8d bd 73 ea d4 3c
       -0.086386174 -0.17268176 -0.06914995 0.0259907
0000a0 53 82 46 3d 32 d0 07 bc 38 10 00 3e f5 eb b7 bd
       0.04846413 -0.008289384 0.12506187 -0.08980552
0000b0 47 6f b3 3d 75 19 e8 3d 23 70 87 3d ca cc 3f bb
       0.08761459 0.113329805 0.06613185 -0.002926635
0000c0 4d 24 d1 3c fe 49 b6 3c 26 d2 46 3d ff e3 52 3c
       0.025530005 0.02225208 0.048540257 0.012871741
0000d0 aa 67 db bc 8f bb 02 bd c1 5e 49 3a 6c b7 37 3d
       -0.02678283 -0.03191715 0.0007681661 0.04485266
0000e0 07 07 64 3d 4d d9 a6 bc af c9 f7 3c 50 1b 99 3d
       0.055670764 -0.020367289 0.030247537 0.074759126
0000f0 dd ca 74 3d e4 5a 04 bb 40 62 f1 3c 3a dd ac bc
       0.059763778 -0.0020195777 0.029465795 -0.021101583
000100 5e ac 87 bd 64 c9 7e bd a6 3a 2b bd 65 a9 96 3b
       -0.06624673 -0.06220378 -0.04180398 0.00459783
000110 5f 1a 1a 3b d3 15 73 3d 50 c9 1b bd cd a1 1d bd
       0.0023514254 0.059346985 -0.038033783 -0.038484383
000120 60 4e 80 bc 1e 5c de bc 2b 4f ef bc 00 2b c7 bc
       -0.015662372 -0.027143534 -0.029212555 -0.024312496
000130 43 87 ac 3d 71 dd a9 bd 30 ae ee bb 18 10 91 3d
       0.084242366 -0.0829419 -0.0072839484 0.07083148
000140 96 74 eb 3c c3 6f f2 bc 68 1e 24 3d db f8 96 3d
       0.028742116 -0.029594308 0.04006806 0.07371684
000150 41 32 53 bc d0 81 9d bd 4f 26 5d bd 5d a2 64 3d
       -0.012890399 -0.076907754 -0.053991612 0.055818904
000160 c1 65 ce 3c 20 f3 1d be bf 74 d3 3c 4a c9 3f 3d
       0.025195004 -0.15424776 0.025812505 0.046822824
000170 1c fd de 3d 05 06 64 bd ec 1f ab bc eb 01 42 3d
       0.108881205 -0.055669803 -0.020889245 0.04736511
000180 8c 9a 23 bd b3 bd 45 3d 81 82 93 bc a7 7b 49 bc
       -0.03994231 0.048276614 -0.018006565 -0.012297547
000190 33 bc 8e bd d9 0a 4d 3d 6d b3 ac 3c b6 6a 9c bd
       -0.0696949 0.050059173 0.02108165 -0.07637541
0001a0 89 a3 5d 3c 0d 11 0d bd d0 60 88 bd 41 21 f5 b9
       0.013527759 -0.03444009 -0.066590905 -0.00046754818
0001b0 33 b7 5a bc e6 5a 7b bd d4 91 8f 3b 3b 83 75 bd
       -0.013349342 -0.061365984 0.0043813977 -0.059939604
0001c0 1e a0 8f 3c d3 5c 1b bd d2 48 db bd 06 30 b6 3c
       0.017532405 -0.03793032 -0.10707249 0.022239696
0001d0 65 05 6f 3d 29 e7 17 bd 2d 72 01 be 8b 11 d1 3c
       0.058354754 -0.037085686 -0.12641211 0.02552106
0001e0 f5 d9 ec bb 94 90 a3 bd 41 9c 92 bd b4 8a 2a 3d
       -0.007228131 -0.079865605 -0.07158709 0.041636184
0001f0 1c e0 7e bd 5a 35 fd bb e5 52 ff bd 6b 26 b7 bd
       -0.062225446 -0.0077273073 -0.12466983 -0.089428745
000200 91 5c 35 bd da f3 15 3d 38 79 73 3a f1 ce 24 3c
       -0.04427773 0.036609508 0.00092877774 0.010059104
000210 d0 19 6d bc 0f fa 0d be ce 90 1f bd 92 4c 26 3d
       -0.014471486 -0.13864921 -0.038956456 0.040600367
000220 2a df 75 3b ea f7 8e bc b9 c5 70 bd 72 8a 81 3c
       0.003751705 -0.017452199 -0.058782313 0.015813086
000230 ea 9b 7c 3d 06 94 0e 3d fe 69 54 3d 0c b6 61 bd
       0.06167213 0.034809135 0.051858895 -0.055105254
000240 98 a7 1c bd 11 6b 63 bd 61 49 13 3d 28 b4 f4 3b
       -0.038245767 -0.05552203 0.03595865 0.0074677654
000250 0d ff c2 3d ee 12 b0 3c d4 c9 4a bc cd 22 69 bd
       0.09521303 0.021493401 -0.012377221 -0.056917954
000260 fe 4b 80 bd ca bb ae bc 77 28 1b 3d df 27 38 bd
       -0.06264494 -0.02132978 0.037880387 -0.0449599
000270 a9 80 8d bc 91 10 9c bd cf 94 86 bc c8 e6 bc bd
       -0.017273264 -0.07620347 -0.01642838 -0.092237055
000280 5e a4 54 bc 14 47 95 bc b0 1f db 3c bc ea d2 3c
       -0.012978641 -0.01822237 0.026748508 0.025746696
000290 28 f8 33 3d bc 81 d0 bd 70 c7 3e 3d 28 dc bc 3d
       0.043937832 -0.10180995 0.046576917 0.09221679
0002a0 95 58 3d bc d8 2b 0c 3e 2f 5d 88 bd 64 e0 78 3d
       -0.011556764 0.136886 -0.06658398 0.06076087
0002b0 fa 39 14 3c 11 23 aa bc 60 3e e5 3d 2a c5 c3 3c
       0.009047026 -0.020768674 0.11193538 0.023897726
0002c0 6f 94 f2 bc 06 0b d8 bc 29 a3 64 3c 5b 09 96 bb
       -0.029611794 -0.026372444 0.013954916 -0.004578752
0002d0 31 7a 5b bd 96 10 f6 ba f6 7c 8b bd f2 9c c9 3d
       -0.053583328 -0.0018773254 -0.06810944 0.09844388
0002e0 2e fc bf bc 33 a2 8b bd ee 50 aa 3d ae b3 a1 bc
       -0.023435678 -0.068180464 0.08316217 -0.019738998
0002f0 e1 86 b1 bd 52 22 b3 3d 5e a2 c2 3d 0c 62 7a 3d
       -0.08668304 0.087467805 0.09503625 0.06112866
000300 21 71 e7 bc d6 11 08 3d d9 8f 93 bd 48 17 9e 3c
       -0.028252186 0.033220135 -0.07205171 0.01929821
000310 9f 74 01 bd 75 77 38 3d 59 7d 5a bd b4 ae 12 bd
       -0.03160536 0.045035798 -0.053342197 -0.03581114
000320 10 8a 92 bc 85 cf 91 bd db f0 8b bc fa 98 e6 3b
       -0.017888099 -0.07119659 -0.017082622 0.007037279
000330 25 44 32 3c 9f cd 30 bc 56 30 bf 3d b4 b5 40 bd
       0.010880505 -0.010791211 0.09335391 -0.047048286
000340 4b bc 2b bd 8f e6 b6 3c 52 a4 3d bb c8 55 30 3d
       -0.041927617 0.022326736 -0.0028937054 0.043050557
000350 7f 39 53 3d 73 89 1c bd b5 26 6d be f9 18 10 bd
       0.051568504 -0.03821702 -0.23159297 -0.035180066
000360 5d 0b b1 bc 5d 3c 9b 3d 18 e9 0a be 9b bf 75 3c
       -0.021611864 0.07579873 -0.1356548 0.014999296
000370 a9 e1 a4 3c e4 6d 95 3c 23 52 0a bd 17 25 bd 3b
       0.020127134 0.018240876 -0.033769738 0.0057722437
000380 81 95 6d bd 1c e9 bd bd fe 55 10 3d 80 83 0e bd
       -0.058003906 -0.09272978 0.03523826 -0.034793377
000390 01 15 3d 3d be a3 5c 3c 3b 48 64 3b 8b 0d 21 bd
       0.04616261 0.013466774 0.0034833092 -0.039319556
0003a0 84 5a 74 3d aa 23 ab 3d 2f 05 eb 3c e8 a4 b8 bc
       0.059656635 0.08356412 0.028688995 -0.02253957
0003b0 a4 e7 ad bd c6 9a 4b 3c 10 99 3b bc ca 09 15 3d
       -0.084914476 0.012427038 -0.011450067 0.03638629
0003c0 ee e0 47 bc 4f da 15 bc 5c be 11 3d d4 15 29 bd
       -0.0121996235 -0.009146287 0.03558193 -0.041280583
0003d0 61 50 9a bd 36 2a f6 bc 75 cc 9f bb 6f d6 76 3d
       -0.07534862 -0.030049425 -0.004876668 0.060263094
0003e0 8a 6e ae bd 6c 86 a4 3c 3e 40 b8 3c d1 31 31 3c
       -0.085171774 0.020083629 0.02249157 0.0108151
0003f0 5b 98 5c bd f8 d2 63 bd dd 31 d0 3d 56 29 99 bc
       -0.053856235 -0.055621117 0.10165761 -0.018696468

network_body.observation_encoder.processors.0.conv_layers.2.bias f4 [32]
000000 9d ca 87 bc 63 67 bf bc 2b c1 cd bc 3e d0 a5 bc
       -0.016576106 -0.023364728 -0.025116524 -0.0202409
000010 74 47 82 3b ec 5f 69 bd 0f 6e e5 3c 44 83 c2 3b
       0.003975803 -0.056976244 0.028006582 0.0059360582
000020 ed e3 03 bd 7f 69 9b 3a b2 db c2 bb 35 b9 5d bc
       -0.03219979 0.0011857002 -0.0059466 -0.013532926
000030 b5 c9 a6 bb 97 8c c9 bc e3 a3 e6 3c 38 52 a3 bd
       -0.0050899633 -0.024603171 0.02815432 -0.07974666
000040 1e 79 09 3d f5 b3 9b bc d7 8c 17 bd ca e1 e1 3a
       0.033562772 -0.019006709 -0.03699955 0.0017233428
000050 08 ce 92 bc 06 c4 78 ba 73 e7 92 3d 30 39 fd bc
       -0.017920509 -0.0009489659 0.07173052 -0.030911058
000060 ca a6 76 3c a4 1b af 3c dd f1 1a 3d 0f df 74 bd
       0.015054414 0.021375485 0.037828315 -0.059783038
000070 4a 3e 9d bc 1a a0 cd bd e7 1f 96 3b b2 e1 37 3c
       -0.01919474 -0.100403026 0.00458144 0.011223244

network_body.observation_encoder.processors.0.dense.0.weight f4 [256, 32]
000000 03 92 47 3e 93 f3 d0 be 28 d9 ab 3e 3e 51 dd 3d
       0.19489293 -0.40810832 0.33564115 0.10806511
000010 a2 8c 03 bd 17 79 0a bf fe 7d 7e be 56 09 c2 bc
       -0.03211654 -0.5409102 -0.2485275 -0.023686092
000020 1e 7d 27 3f ee 2b 3d 3d ae f7 ec be e5 72 12 3e
       0.6542529 0.046184473 -0.46282715 0.14301641
000030 b9 5c 95 be 5c f0 a3 3d e7 f5 71 3e 1c 1f 1c bd
       -0.29172304 0.08004829 0.2362896 -0.038115606
000040 d2 86 36 be 95 7d 9d be 16 2b 13 3e 19 1e 08 3e
       -0.17824867 -0.30759874 0.14371905 0.13292731
000050 43 05 7b 3e d9 ae 60 3e 0f 23 07 bf 1a 8d 1c be
       0.24513726 0.21941699 -0.5278787 -0.15288201
000060 ef 2f d3 bc 72 4c 83 bd fb a4 12 be 15 3e cf be
       -0.025779692 -0.06411065 -0.14320748 -0.40477052
000070 02 74 19 3e a1 91 30 3d ec ce 63 3e 81 fd 51 bf
       0.1498566 0.043107633 0.22246903 -0.8202744
000080 6e ee 90 3e 7f d4 ee ba 94 a7 82 be 01 40 50 3e
       0.28306907 -0.0018221288 -0.25518477 0.20336916
000090 3d 87 48 bd 80 ea 9e be 02 14 b7 3d db 5e d4 bd
       -0.0489571 -0.31038284 0.08939363 -0.10369655
0000a0 72 0b 2d bd 74 5e 93 3d e4 de 81 be eb 5c f9 3d
       -0.042247243 0.0719575 -0.25365365 0.12175926
0000b0 91 bd 3f be 59 f3 b1 3d 3b c8 12 3f 91 2c 70 3b
       -0.18724658 0.08688993 0.5733678 0.0036647657
0000c0 e3 77 45 be f0 3a 25 bd 14 f7 e6 3e 93 95 a0 3e
       -0.19284014 -0.04033941 0.4511038 0.31364116
0000d0 ae 6e 89 be 4a 9b dc 3e fd 67 2c be 45 09 8f be
       -0.26842254 0.43087226 -0.16836543 -0.2793676
0000e0 3d 80 55 be a1 aa 21 be 1b 82 f0 bd 11 a0 6c be
       -0.208497 -0.15787746 -0.11743566 -0.23107935
0000f0 eb 94 16 3e ee c3 41 3e 72 28 01 be be 8e 1b 3e
       0.14705245 0.18922397 -0.12613085 0.1519117
000100 35 f9 ab bd e5 7e 3a bf 94 ca 7c 3e b3 36 86 be
       -0.08397142 -0.72849876 0.24686652 -0.26213607
000110 8f 1a eb 3e fe e8 1d be 01 7e c8 3e 8c 81 8d bd
       0.459187 -0.1542091 0.39158633 -0.06909475
000120 c3 b6 1a bf ba 9b 9f be 0b f1 13 3e 59 d3 9f be
       -0.6043512 -0.31173497 0.1444742 -0.31215933
000130 67 95 92 3d 88 50 46 be d4 d0 fa 3e 5c 10 7f 3d
       0.071574025 -0.19366658 0.48987448 0.06227146
000140 11 86 1a be 24 ae ea 3d 84 8b 3e 3e c5 5d 24 3e
       -0.15090205 0.11458996 0.18607908 0.16051395
000150 ce b9 d9 be a1 39 4e 3e a5 37 58 be db 34 04 bd
       -0.4252457 0.20139171 -0.21114977 -0.03227697
000160 89 0c 7c 3e b4 f2 96 be 49 35 61 be ed db 1e be
       0.24614157 -0.29482043 -0.21992983 -0.15513583
000170 d3 8a 0c be 79 70 44 be 29 99 9c 3e 2f 20 49 bf
       -0.13724832 -0.1918353 0.30585602 -0.78564733
000180 24 81 24 3e 7c d1 fe bd c3 a4 63 3e 1a 38 10 3b
       0.16064888 -0.124423 0.2223082 0.0022006095
000190 82 0e 2c bd 74 09 27 be 09 b3 87 3d 9e e0 cb bd
       -0.042006023 -0.163122 0.06625945 -0.09954952
0001a0 ac 1d 0e be 5c 10 04 be a3 2e 84 be 2e 82 c7 bd
       -0.13878506 -0.12896866 -0.2581683 -0.09741627
0001b0 cf 15 97 be 3b 70 f8 3d 88 3f 01 3e 96 d6 c0 3d
       -0.29508826 0.12130781 0.12621891 0.09415929
0001c0 85 61 bf bd 0d 88 fd 3b 03 18 a1 3d 74 26 d8 3e
       -0.09344772 0.007737166 0.07865908 0.42216837
0001d0 c9 1e 81 be 55 4e b7 3e c9 04 a8 bc ec 56 2b ba
       -0.252188 0.3580195 -0.020510094 -0.00065360847
0001e0 ad f3 15 3c f4 4f 6f 3e df f5 9d be cd b9 d1 3d
       0.009152335 0.23370343 -0.30851647 0.10240517
0001f0 4a 8d b5 be 08 87 a7 be ab 14 07 bf 53 44 34 3d
       -0.35459358 -0.32720208 -0.5276591 0.04401047
000200 52 bc f3 bd 2a 3b 14 be d2 d8 0e bf 51 05 e7 bd
       -0.119011536 -0.14475694 -0.5579959 -0.11280311
000210 0d 02 8d be 84 64 52 3e a1 97 f3 bd e8 45 4f bd
       -0.27540627 0.20546156 -0.11894155 -0.050603777
000220 bd ac 20 3e fc 13 54 3e 43 93 d1 3d fa 63 ac bd
       0.15690894 0.20710748 0.10233166 -0.084175065
000230 47 79 dd be 35 46 8d 3e b2 90 15 be c4 f1 a8 be
       -0.4325659 0.27592626 -0.14605978 -0.32996953
000240 14 99 82 3d 05 14 ed 3d 82 35 ad 3e 8d ee 94 3e
       0.063768536 0.11576084 0.33829886 0.2908825
000250 3e c9 74 be 1e b4 ca be 34 ca 4f be c9 1d 3a be
       -0.23904893 -0.39590544 -0.20291978 -0.18175425
000260 db 04 86 be 04 fc 29 be 70 ac 4f 3e a2 c5 b0 3e
       -0.2617558 -0.16600043 0.20280623 0.34525782
000270 e3 23 96 bd 8b a9 9d 3d 00 03 66 3d 49 88 a2 3e
       -0.073310636 0.076983534 0.056155205 0.31744602
000280 28 7f 7b bd 13 df 66 3e 84 e8 bb 3e 48 03 ce be
       -0.061400563 0.22546034 0.36700833 -0.40236878
000290 89 d6 bd 3e 00 0f 80 bd 42 1f 37 be 2b d3 fd bc
       0.3707774 -0.06252861 -0.17883018 -0.030984482
0002a0 99 85 81 3d df c3 59 be f1 73 e8 3c 5d 1b 03 3e
       0.0632431 -0.21266125 0.028375598 0.12803407
0002b0 38 5e 99 3d 56 d5 d3 bd 1a 3e f7 bc 53 45 68 be
       0.07488674 -0.10343425 -0.03018098 -0.22682695
0002c0 c4 fe 56 3e ec b8 0f 3e c3 44 8d 3e 32 cb 4c 3e
       0.20995623 0.14035386 0.27591524 0.19999388
0002d0 ee 20 bd bd e1 03 1f 3e 92 7e fa 3e 74 67 98 3e
       -0.092347965 0.15528823 0.4892469 0.29766428
0002e0 68 ac 8f be a5 8e ce 3c fd 8b ba 3b 10 25 ce be
       -0.28061223 0.025214503 0.0056929574 -0.4026265
0002f0 20 3c ef bd 8c 62 22 3e 70 65 b2 3e f1 41 81 3e
       -0.1168139 0.15857905 0.34843016 0.25245622
000300 0f 4a 32 be d5 5b 8e 3d 6c e1 a8 bd c3 07 89 be
       -0.17411064 0.06951109 -0.08246121 -0.26763734
000310 ac 16 c1 be d9 2e 31 3d 85 bc e8 3d 1c f9 e2 bd
       -0.3771261 0.043257568 0.11364082 -0.1108267
000320 38 09 ad 3e 92 16 ed bd 71 4b 37 3e 32 ae 6e be
       0.33796096 -0.115765706 0.17899872 -0.23308638
000330 5d 98 29 bd 1b ed eb bd c4 8c 34 be a2 fb a3 bd
       -0.04140507 -0.11519834 -0.17631823 -0.080069795
000340 54 4a a7 be 6c fe ab 3c 7e fd fc 3d 07 d5 f8 bd
       -0.32673895 0.020995341 0.12353037 -0.12150007
000350 8b 87 18 be 9f ea 74 3e a8 f5 8f 3e 38 4e 86 bd
       -0.14895456 0.23917626 0.28117108 -0.06557888
000360 13 fa 9c b8 c5 a5 f5 bd 6e e4 8b 3e c2 fa 4a 3e
       -7.4852396e-05 -0.11994509 0.27322716 0.19822219
000370 ef c0 42 be 3c 74 27 be ad 34 1f 3f 11 26 58 bd
       -0.19018911 -0.16352934 0.6218975 -0.052770678
000380 78 f3 2a 3f 7f a7 64 bc ab 6b c3 be 0d cd 02 bf
       0.66777754 -0.01395595 -0.38168082 -0.5109413
000390 00 b3 60 3e 33 a2 c5 bc 22 2f 97 bd 6a 75 30 be
       0.21943283 -0.024125194 -0.07382037 -0.1723229
0003a0 81 8e ed 3d d2 87 5c 3e c0 57 3a 3e e6 a5 ca 3c
       0.11599446 0.21536186 0.18197536 0.02473731
0003b0 cf a6 9c 3e 02 74 47 3e 8f 5e ad 3e 18 72 c6 3c
       0.30596015 0.19477847 0.33861205 0.024224326
0003c0 5a 3d 11 3e 39 37 33 be 8a 84 8c 3b 5a dd c0 3d
       0.1418356 -0.17501535 0.004288261 0.094172195
0003d0 eb 0b c0 be 29 41 d9 bc 2a c5 8f 3e 00 0f 9b be
       -0.37509093 -0.026520329 0.28080112 -0.30284882
0003e0 3a 70 fe 3d 3e 21 a9 bd 38 24 aa 3d a2 a8 2b be
       0.12423749 -0.082582936 0.083076894 -0.16763547
0003f0 e8 dd 1b be 81 d4 0d be 2e 26 18 3e c8 f4 d2 3d
       -0.1522137 -0.13850595 0.14858314 0.103005946

network_body.observation_encoder.processors.0.dense.0.bias f4 [256]
000000 54 61 0d 3d 26 88 c5 bb 98 bd 5f 3d ec 44 8f 3c
       0.034516647 -0.006028193 0.05462417 0.01748892
000010 77 aa 6f bd c6 fc 97 bc 46 87 47 3d 93 7b 69 bd
       -0.058512177 -0.018553149 0.04871299 -0.057002615
000020 52 e5 28 bd c1 72 8b 3c 77 9f 3e bd 3e 05 51 bd
       -0.041234322 0.017022492 -0.046538796 -0.05103039
000030 b3 d7 49 bd d6 99 e4 bb 79 f6 84 3d c0 46 08 bd
       -0.049277972 -0.0069763465 0.064923234 -0.033270597
000040 ec f6 0b bc 51 ec d9 bc 5e 99 5f ba 4e 9a b8 bd
       -0.0085427575 -0.026601942 -0.00085296284 -0.09013806
000050 3b 1e 95 bc 3a 35 ac 3b 62 05 cc bc e2 4e 6b 3d
       -0.018202892 0.0052553685 -0.02490491 0.057448275
000060 49 50 c0 3c 82 0b 87 bb fe 41 77 bd 98 d7 07 bd
       0.023475783 -0.004121245 -0.06036567 -0.03316459
000070 37 56 a0 3b 5b 5e aa 3c 3c b3 5b 3d 86 1e f2 3c
       0.00489309 0.020796945 0.053637728 0.02955557
000080 06 df 49 3d 00 b7 34 bd b1 80 d4 3d 6d ff 43 3d
       0.049284957 -0.044119835 0.103761084 0.047851015
000090 6e 26 ea 3c 08 85 a1 3d a7 66 63 bd f3 9c 30 3d
       0.028582778 0.07886702 -0.05551782 0.04311843
0000a0 18 9c 5a bc 48 e0 bd bc 3f 08 2c bd 75 a8 12 3d
       -0.01334288 -0.023178235 -0.04200005 0.035805184
0000b0 01 50 d3 3c d4 32 9a bc 38 dc 16 3c ce 0e 49 3d
       0.025794985 -0.018823065 0.009207778 0.049086384
0000c0 2b e1 57 bb 80 ee c7 3b 09 40 a6 3d 8c f2 c3 bc
       -0.0032940607 0.0061014295 0.081176825 -0.023919366
0000d0 19 b4 49 3c a8 8b 5e 3c 8d d8 89 bd 36 e0 47 bc
       0.012311005 0.013583101 -0.06730757 -0.012199452
0000e0 31 e7 23 3d 7f 2e 2c bc d2 96 03 3d 51 ff 6a 3d
       0.040015403 -0.010509132 0.032126255 0.057372395
0000f0 d7 43 8e bc 75 f4 80 bd ee d1 72 bc ad 9e ae 3b
       -0.017366333 -0.062966265 -0.014820559 0.005328974
000100 8c 39 a5 bb ac 9d 55 bd 73 88 89 bc 21 5f 26 3d
       -0.0050422605 -0.05215232 -0.016788697 0.040618066
000110 dc 9f 6a 3c a5 90 fd 3c 33 3d 86 bb d2 c2 55 bc
       0.01432034 0.030952761 -0.004096651 -0.013046937
000120 df 72 ed bb 02 db 04 3d ef db 44 3c ab 4f e6 3a
       -0.0072463597 0.032435425 0.012015327 0.001757135
000130 0a 12 04 bc 0c 70 58 bb 44 ba c2 ba 99 59 7a bd
       -0.0080609415 -0.003302577 -0.0014856537 -0.061120603
000140 ee c9 8f 3d 75 77 16 bd bd 5a 58 bc 9b 36 96 bd
       0.07020937 -0.036735017 -0.013205227 -0.07334634
000150 8c 7c 0c bd 30 e1 43 bc 01 37 52 bc 96 e5 5b bd
       -0.034298465 -0.011955544 -0.012830497 -0.053685747
000160 b3 f2 1c bc a1 be 1f 3c 0b f1 56 3d 6a 74 ef 3c
       -0.009579348 0.009750039 0.05247597 0.029230315
000170 4f d1 cf bb df 32 fa bc a1 d9 0f 3d 43 54 74 3b
       -0.00634209 -0.030541835 0.035119656 0.003728167
000180 93 f9 8e bc 93 e3 59 bc 7e 5a 5a bb 13 7c 2d 3c
       -0.01745299 -0.013298887 -0.0033318098 0.010588664
000190 9f 12 03 3c 0a 09 1e bd 50 d2 2c 3d cc 76 66 bd
       0.008000045 -0.03858284 0.042192757 -0.056265637
0001a0 0c 0c c1 bc 3b b2 c8 3b 79 4e 1d bd a9 f0 17 3c
       -0.023565315 0.0061247624 -0.038404915 0.009273686
0001b0 bf 98 d8 3c f9 6b 33 3d e7 2f bb 3b 37 97 19 bd
       0.026440023 0.043804143 0.0057124975 -0.037497725
0001c0 f9 49 77 bc 99 c3 cc 3c 6d 91 97 3c 2f 6a 38 3d
       -0.01509332 0.024995612 0.018501962 0.04502314
0001d0 94 43 e0 3c d5 91 c4 b9 fb c7 28 3b 3e 95 22 3d
       0.027375974 -0.00037492687 0.0025753963 0.03969311
0001e0 54 a0 14 3b f2 a5 8a bc f8 46 f3 bb e8 5d c4 3a
       0.002267857 -0.016924832 -0.0074242316 0.00149816
0001f0 7d 4d a2 3d f7 bb 2c bd 0f f8 03 bd b8 61 d3 3c
       0.07924936 -0.042171445 -0.03221899 0.025803432
000200 d6 e6 7a bd 82 0d 6d bc 78 8e c1 3b 3f 61 98 3b
       -0.0612553 -0.014468553 0.005906876 0.0046502645
000210 88 a0 53 3c 66 d5 18 3d 0a 11 25 bc 9d 0b 7d 3c
       0.012916692 0.037312888 -0.010074863 0.015444663
000220 a2 80 c2 bb 17 8a 06 bd 3a f7 0e ba 4c 77 20 3c
       -0.0059357444 -0.032846536 -0.000545371 0.009794068
000230 f3 77 75 bc 08 49 0e bd 77 b0 6e 3a db 6d 9f 3c
       -0.014982211 -0.034737617 0.0009105275 0.019461563
000240 a6 bc fe bc be e3 e0 bc 26 13 f9 bc ec d8 b1 bc
       -0.031095814 -0.027452346 -0.030404638 -0.021709882
000250 c8 14 9f 3c 0a 40 37 3d 46 01 2c bd 44 24 63 3d
       0.019419089 0.044738807 -0.041993402 0.055454507
000260 04 24 62 bc 25 81 a1 3c 5b db fc 3c 17 12 16 bd
       -0.013802532 0.019714901 0.030866316 -0.036638346
000270 1f 7a 04 3d 57 7c 1e bb 1b 58 ae 3c 98 af bf bb
       0.032343026 -0.0024183 0.021282246 -0.00584979
000280 99 ce ca 3c d9 81 f3 bb ab 6e 02 3d a6 8f 25 bc
       0.024756717 -0.0074312505 0.031843822 -0.010105049
000290 5f 56 c1 3b e4 9f 0c 3d 63 3d a9 bc c8 61 a2 3c
       0.005900189 0.03433217 -0.020659154 0.019822016
0002a0 b3 9e 78 3c f9 9b 26 3d 84 5b a1 3c 2c 20 00 3c
       0.015174556 0.04067609 0.019696958 0.00782017
0002b0 b6 1c 28 bd c1 26 c6 bc dc ce 87 bc 01 d2 0b bd
       -0.041043006 -0.024188401 -0.01657813 -0.034135822
0002c0 13 b6 63 3d 1c 35 b9 bc 5d da 8c 3b b4 42 d4 bb
       0.05559356 -0.022608332 0.004298492 -0.006477678
0002d0 1a 04 79 bc c0 c7 69 bd 44 3e 4f 3d 72 14 09 bd
       -0.015198732 -0.057075262 0.05059649 -0.033466764
0002e0 d3 51 03 3c 4e b5 07 3d 38 82 cb 3c 84 c9 59 bb
       0.008015114 0.03313189 0.024842367 -0.0033231685
0002f0 f2 84 c7 3c 3f d0 91 3d 9a af e0 bc 5b b8 c2 3c
       0.024355385 0.07119798 -0.027427483 0.023769548
000300 ca b4 61 3d 36 47 7b 3d c7 cb bd 3b 6b 2e fe bc
       0.055104055 0.06134721 0.0057921144 -0.031027993
000310 e9 11 f3 3b c0 9f 5a 3d c7 c9 bc bc b7 ee 83 3d
       0.0074179065 0.053375006 -0.023045434 0.064420156
000320 db 07 85 bc 54 2f 81 bc ae d8 44 bb 28 99 23 3d
       -0.016239097 -0.015769638 -0.0030036378 0.039940983
000330 f0 76 51 3d 8f f3 3d 3c e0 1c 96 3b e8 4d c2 bd
       0.05113882 0.011593713 0.004581079 -0.09487516
000340 c0 c5 cc 3c a7 60 26 ba 1e 49 5a 3d 56 5a e2 3c
       0.024996638 -0.00063468 0.053292386 0.027630966
000350 73 a9 42 bd 0c 67 c4 bc e7 97 af 3c e7 e3 a6 ba
       -0.04752488 -0.023974918 0.021434737 -0.0012732715
000360 8f 1a 29 bd 47 d7 0d 3d df a8 95 bc 20 c3 20 3b
       -0.041285094 0.034629133 -0.018269 0.0024530366
000370 9c 0a f8 3c a7 80 22 3d 47 6a 4c 3c c3 6d 83 bb
       0.030278496 0.039673474 0.01247651 -0.0040108874
000380 cf 71 42 3d f5 2f f7 bb d1 17 40 bd 6e a2 0c 3c
       0.047471818 -0.0075435587 -0.046897713 0.008583648
000390 f7 3c 41 3d 1f 39 55 3d dd 64 18 bb 11 99 ae bc
       0.04717728 0.052056428 -0.0023253479 -0.021313222
0003a0 dd e9 61 3d 2c a6 5b 3d f4 dc b2 3c 68 6b 2d bc
       0.05515467 0.05362527 0.021833874 -0.01058469
0003b0 46 a0 a6 bc 59 4e 94 bb a1 2a e5 3c 12 c2 1c 3c
       -0.020340096 -0.0045259413 0.027974429 0.009567754
0003c0 df 94 67 3c 5e c5 a6 3c 62 9a cd 3c f8 9a f8 3c
       0.014134615 0.020357784 0.02509803 0.030347332
0003d0 c0 72 37 bb 61 12 d9 3c 09 92 6c bb e2 00 ec bc
       -0.002799198 0.026498022 -0.0036097786 -0.028809015
0003e0 69 9b a3 bb 3b d5 46 3d f4 a9 17 bd 81 ab 9b bd
       -0.0049928916 0.048543196 -0.037027314 -0.07601071
0003f0 31 5c 89 bb bd d7 d5 bb 65 11 32 3d 10 34 a4 3c
       -0.0041918983 -0.006525962 0.04347362 0.020044357

network_body._body_endoder.seq_layers.0.weight f4 [256, 256]
000000 3c 63 a7 bc 3c 1c 57 bd 25 42 86 3c c4 63 2c 3d
       -0.02043306 -0.05251716 0.016388962 0.04208733
000010 2f 43 9a bc 7f 74 ab 3c 2d ae 9e 3c a1 15 9f 3d
       -0.018830864 0.020929573 0.019370163 0.07767797
000020 62 97 e3 3c d3 10 30 3d 63 be ca 3d fc 59 8f bd
       0.027782146 0.042984795 0.09899595 -0.06999585
000030 2f b2 28 3d 60 19 0e 3d 9a 9b 48 3d df 04 a3 3b
       0.041185554 0.03469217 0.04897652 0.004974946
000040 71 3f ea 3b e6 7f 86 bd e9 68 04 3d ea 30 01 bd
       0.007148676 -0.065673634 0.032326613 -0.03154079
000050 52 11 20 3d 53 4e c9 bd 6f c6 f6 bd d8 1f bf 3d
       0.039079018 -0.09829392 -0.12049567 0.093322456
000060 95 e9 01 bd 32 7c 94 bd cd 98 65 3c 52 1f 77 bd
       -0.0317169 -0.07250251 0.014013481 -0.060332604
000070 e4 de 29 3c b0 dd 53 bd f6 c8 90 bd 85 0f 97 3d
       0.010368083 -0.05172509 -0.0706958 0.07376007
000080 97 32 ac bd 5f 6b 5c 3d 0c d8 b7 3c 47 e0 1d 3d
       -0.08408087 0.053813335 0.022441886 0.038543966
000090 e7 56 cb bd 1f 7c 46 bd 43 07 fa bd cd fa 03 bd
       -0.09928685 -0.048458215 -0.12208416 -0.032221604
0000a0 4e f7 ae bd 57 66 a6 3c 50 b9 57 bd 16 e7 a3 bd
       -0.085432634 0.020312471 -0.052666962 -0.080030605
0000b0 b9 94 b4 bc f4 a0 25 be fe 1e 87 3d f8 01 a3 3c
       -0.022043573 -0.1617468 0.06597708 0.0198984
0000c0 d7 b8 47 bd db 76 62 bd 70 ce 55 bd 8d 03 91 bd
       -0.04876026 -0.05528913 -0.052198827 -0.070807554
0000d0 0f 2a 22 3c c9 33 b8 3d b8 1d a1 bd fc e2 1c bd
       0.009897723 0.08994252 -0.078669965 -0.038302407
0000e0 c5 89 05 be 64 35 8c bd 05 5c 17 3c b8 c7 0c be
       -0.13040836 -0.06846121 0.009238248 -0.13748062
0000f0 8e b3 bb 3d 24 d9 61 bd 20 b8 3c be 3d 2c 65 3d
       0.09165107 -0.055138722 -0.18429613 0.055950392
000100 a5 73 07 3d 24 b4 87 bd 90 c9 7f bd 95 e6 29 bd
       0.03306927 -0.06626156 -0.062448084 -0.041479666
000110 74 91 c1 3d 96 e8 7a bc f0 a1 0e be fe b1 d5 39
       0.09451571 -0.015314242 -0.13928962 0.0004075914
000120 43 94 54 b9 b8 59 e8 bd a2 53 c5 3d 2c b8 44 3d
       -0.00020273127 -0.113452375 0.09635092 0.048027202
000130 c6 4a 94 bd a3 f5 1e bd 7c 6e dc 3c 72 65 c4 3c
       -0.072408244 -0.038808476 0.026908152 0.023974154
000140 de 4f 0f 3e 11 05 b8 bc 98 7d 4a bd 4c eb 47 3d
       0.1399531 -0.022463353 -0.04943618 0.04880838
000150 37 e5 08 3c 76 33 56 bd 02 42 7a bc 77 a2 73 3d
       0.00835543 -0.05229517 -0.015274527 0.05948111
000160 c8 82 4c 3a c5 a2 1c 39 47 8e 68 3e 3e 18 0d be
       0.00078014703 0.00014937956 0.22710524 -0.13778779
000170 ae 00 e7 ba ed f1 b6 3d 43 9a ed 3d ff 16 05 bd
       -0.0017624104 0.089328624 0.11601689 -0.032492634
000180 6f bc a7 bb 8e 01 81 ba 9c b0 23 be dc 8e 0c be
       -0.0051188986 -0.0009842382 -0.1598534 -0.13726372
000190 f0 ca be bd 44 c0 5f bd 5c d5 b2 bd e9 36 77 3d
       -0.09316051 -0.05462672 -0.08732101 0.0603551
0001a0 29 4a 84 3d 2b cc 28 bd 12 aa 9f bd 01 59 9b bd
       0.064594574 -0.041210335 -0.0779611 -0.075853355
0001b0 07 ff ed bd 1b 31 cc bc df ea c0 3d 3e 95 95 bd
       -0.11620908 -0.024925759 0.09419798 -0.07303856
0001c0 05 a2 14 3d 69 d1 89 3d 07 91 2b 3e f5 dc 8b 3d
       0.036287326 0.06729395 0.16754542 0.068292536
0001d0 16 59 b8 3d 20 61 ab bd 2c fb cf bd ce 75 69 bd
       0.09001367 -0.083681345 -0.10155329 -0.056997113
0001e0 3e 13 2f be cb c7 09 3d 26 6f dc 3d 24 74 1a 3d
       -0.17097184 0.033637803 0.107633874 0.037708417
0001f0 bf e4 91 3d c1 ea 45 39 49 3f 40 bd 04 de 52 be
       0.07123708 0.00018874837 -0.046935353 -0.20592505
000200 10 26 42 bd 0c 8b 58 be a4 9b 54 bd 5c eb 27 bc
       -0.04739958 -0.21146792 -0.051906243 -0.010248985
000210 af fc e2 bc 7d fa a6 3c 61 a6 7b bd 19 6d 16 bd
       -0.02770838 0.020383114 -0.06143797 -0.036725137
000220 91 a2 90 bd d5 e0 4c bd 78 92 06 bd 5d 66 d1 bd
       -0.07062257 -0.050019104 -0.032854527 -0.10224602
000230 fe 58 1a be c3 52 74 3d 68 6f 69 bd 4c 39 02 3e
       -0.1507301 0.05964924 -0.05699101 0.1271717
000240 8e c7 83 bd 5a 97 c9 3d 69 c4 c3 3b f3 7c 0a 3b
       -0.064345464 0.09843321 0.0059743416 0.0021131604
000250 0b eb d7 3b ee c3 51 3e 06 9f 1b bd 2f 32 3b bc
       0.0065892986 0.20484897 -0.037993453 -0.011425539
000260 db 47 c3 3d 36 95 ec bc 9c 1a 6c 3d 98 9c 3d 3b
       0.0953519 -0.028879743 0.057642564 0.0028932448
000270 68 4f 08 bd b9 20 5e 3e ba 79 cb 3d 55 d3 8d 3d
       -0.033278853 0.2169217 0.09935327 0.06925074
000280 d0 30 a2 3d b2 8f 9b bd 37 b8 f3 3d 55 38 ab bc
       0.079194665 -0.07595767 0.119003706 -0.020900885
000290 c3 b4 cb bd 93 90 83 bd 66 87 0f 3c e8 76 b6 bc
       -0.09946587 -0.0642406 0.008760309 -0.022273496
0002a0 30 12 e2 bd 35 f4 32 be ab 97 2b 3d 18 15 3a 3d
       -0.11038625 -0.1747597 0.04189269 0.045430273
0002b0 aa 66 75 bc 25 c8 29 3b 86 31 e7 3d ca ea ae bd
       -0.01497809 0.002590665 0.11288743 -0.08540876
0002c0 d5 d1 b2 3d 91 56 81 bd dc a9 49 3d 4e a6 f2 3d
       0.087314285 -0.06315339 0.049234256 0.11848126
0002d0 67 03 9d 3b 07 63 97 bd aa 55 8d 3a 33 06 8a bd
       0.0047916654 -0.07391935 0.0010782976 -0.06739464
0002e0 42 67 de bc 18 61 f7 3d ec 5c de 3d 04 c1 91 3c
       -0.027148847 0.12079066 0.10857567 0.017792232
0002f0 6b ea dd 3d e5 5c f0 3c 0d 38 52 bd 45 d6 66 3b
       0.10835727 0.02934117 -0.051322985 0.003522293
000300 13 85 09 be 46 07 c1 3d 5c 82 e5 bc 69 cb f7 3c
       -0.1342967 0.094252154 -0.028016262 0.03024836
000310 a1 79 cb bd 7a 5d f8 3c 02 19 04 be 50 be a0 3c
       -0.09935308 0.03031801 -0.12900165 0.019621998
000320 ad 8a 19 3e 27 bb a6 3c 33 92 bf 39 f9 8a c9 bd
       0.14994307 0.020352913 0.00036539286 -0.0984096
000330 96 5b 77 bd 84 9d 68 bd 66 a2 af bb 08 7a bf bc
       -0.060390078 -0.056790844 -0.0053599356 -0.023373619
000340 7c 7d b4 bc fe fb 09 bd 9a 94 6d 3e 30 8f 80 bd
       -0.022032492 -0.033687584 0.23201218 -0.06277311
000350 f3 d6 48 bd 61 09 03 be c3 d7 64 bd 27 12 6b 3d
       -0.049033117 -0.12796547 -0.05586983 0.05739036
000360 37 36 56 3d c1 36 d3 3c 11 da ad bc 35 d8 10 bd
       0.052297797 0.025782945 -0.021222146 -0.03536244
000370 f4 a3 1a bd a4 ed 56 3d 81 a7 07 3d 9b 5f 99 bd
       -0.037754014 0.052472726 0.03311873 -0.074889384
000380 70 a6 80 3d 39 28 db bc b5 77 e1 3c a7 0a 5b bd
       0.062817454 -0.026752578 0.027522901 -0.053476956
000390 26 de ae bd ca 58 4c bc 2a 67 c5 3c 11 86 18 bd
       -0.08538465 -0.012472341 0.024097044 -0.03723723
0003a0 11 e3 24 bd d8 6c 79 bc fd 54 9e bd 4b 49 d0 3d
       -0.04025561 -0.015223704 -0.07731054 0.101702295
0003b0 f9 54 89 bc 4d d8 01 3c 95 30 61 bd dd b8 83 3c
       -0.016764151 0.007925105 -0.054977972 0.01607936
0003c0 9d 71 dc 3c 49 96 24 3d 89 94 9c bd 8d a4 99 bd
       0.026909644 0.040182386 -0.07645518 -0.07502089
0003d0 db 4c 98 3c d7 24 a6 3d 7c 9e b3 3d b9 b0 1b be
       0.018591335 0.081124954 0.08770463 -0.15204133
0003e0 2e 91 3f 3d 69 1b ff 3d 1d d1 47 bc 47 f2 fc bd
       0.046769314 0.124564 -0.012195853 -0.12350898
0003f0 10 88 92 3d 49 5e 2e 3d 35 9b c8 bc 72 fa ed 3d
       0.07154858 0.042570386 -0.024488071 0.11620034

network_body._body_endoder.seq_layers.0.bias f4 [256]
000000 d3 0a 47 3c ef 3d 3b 3c 47 c2 19 bc e2 6f bb 3c
       0.012148577 0.01142834 -0.009384698 0.022880498
000010 34 bd dd bb 76 12 04 3c 2f 9d 6c 3c c2 80 89 bc
       -0.0067669395 0.008061042 0.014441772 -0.01678503
000020 5e e4 c1 bb f7 bb 45 bc 13 a7 90 bc 72 7f b8 3c
       -0.005917116 -0.01206874 -0.017657792 0.022521708
000030 2e cb 9d bc 81 06 44 bc be 58 e4 bb bb 2f 24 bc
       -0.019261923 -0.011964441 -0.0069685867 -0.010021145
000040 89 44 2b 3c 97 a6 50 bc ba 46 7a 3c ea 93 78 3c
       0.010453352 -0.012735031 0.015275652 0.015171984
000050 a9 17 88 3b 3f 69 88 bc 8a 88 e8 3c cf b3 39 bc
       0.004153211 -0.016651748 0.02838542 -0.011334374
000060 57 90 5e bc e9 1f b1 3c 30 60 5d 3c 42 32 b0 3c
       -0.013584218 0.021621661 0.013511702 0.02150834
000070 f0 f2 b7 3c a7 32 2c 3c ae a4 87 3c 97 32 f8 3b
       0.022454709 0.010510123 0.016558018 0.00757439
000080 80 8b 85 3c f3 c2 07 3b 87 31 72 3b 1f b6 3a bc
       0.01630187 0.0020715564 0.003695579 -0.01139596
000090 ca 96 f9 bb f8 68 5d bc 9a 28 ac 3b 6c 79 74 3b
       -0.0076168524 -0.013513796 0.0052538635 0.0037303818
0000a0 42 34 b3 3c 24 ed 2c 3c 01 35 d6 3c f0 d6 c5 3c
       0.021875504 0.010554586 0.026148321 0.024150342
0000b0 22 5a 7e 3c a5 fb 68 bc a5 d0 57 bb 8a 4e fe ba
       0.015524419 -0.014220153 -0.0032930758 -0.0019402069
0000c0 b7 d3 48 3c c4 c3 08 b9 1f e6 78 bc e6 79 a3 3c
       0.012257508 -0.00013042899 -0.015191584 0.019955587
0000d0 3c 91 ac 3c fb f3 13 bc ec ba 71 bc f8 4d a9 bc
       0.021065347 -0.009030337 -0.014754038 -0.020667061
0000e0 59 d6 00 bc 2b bd 8d bc cc 76 0a ba e2 19 d8 3c
       -0.007863604 -0.017302116 -0.00052819843 0.02637953
0000f0 1d 49 5c 3c a8 6b 8d bc 9e 79 b6 3c 98 51 1c bc
       0.013445166 -0.017263249 0.022274788 -0.009540938
000100 ad d0 ee 3c db 25 7e bc 0f b7 4b 3c f1 9d 1e 3d
       0.029152239 -0.015511955 0.012433781 0.038724843
000110 3a 93 93 bc 01 d1 8f 3c 1f 5b 97 3c fc 5d f5 bc
       -0.018014539 0.017555716 0.018476067 -0.029952042
000120 2e 5b 02 3c c7 48 83 bc 1f 3b ee 3b 07 77 d8 3c
       0.007956309 -0.016025914 0.0072702314 0.026423944
000130 0a b0 19 3c e8 e3 3d bc 01 40 89 3c 12 0b af bc
       0.00938035 -0.011589982 0.016754152 -0.021367583
000140 e8 2c 99 3c 4c fe a2 bb cf c9 b4 3c 25 df 3d 3c
       0.01869817 -0.004974162 0.022068886 0.011588846
000150 a9 f1 06 bc bd b4 03 bb 0f 65 1a bc d3 a9 55 bc
       -0.008236327 -0.0020096742 -0.009423508 -0.0130409775
000160 45 f1 93 bc 3e 96 1d bc f7 17 1c 3b 85 c9 50 bb
       -0.018059382 -0.00961834 0.0023817995 -0.0031858396
000170 12 98 5f bc cb 42 b3 3c 9d 7d bf 3c e6 95 aa 3c
       -0.013647096 0.021882435 0.023375327 0.02082343
000180 49 63 9a 3b d2 e0 77 3b 68 da a5 3c b2 47 92 bc
       0.0047115427 0.0037823212 0.020245746 -0.017856453
000190 ac 08 22 bb 0e 7c f0 3c 63 46 de 3c 14 4e 4a 3c
       -0.0024724407 0.029356029 0.027133172 0.012347717
0001a0 48 2f 3d 3c 12 e0 10 bb f9 a4 89 3c be dd 06 3c
       0.011546917 -0.0022106213 0.016802298 0.008231578
0001b0 06 c3 a0 3c 8d 45 9e 3c 93 7e 1d bc 53 fa eb bb
       0.019624244 0.019320274 -0.009612697 -0.007201472
0001c0 f0 a2 9a 3c 71 64 76 3c 9d 44 db bb 2b df 2c bc
       0.018876523 0.015038596 -0.006691529 -0.010551254
0001d0 cc 61 cb 3b 97 da c4 3c 2f 9d 69 39 2f ad b5 bc
       0.0062067267 0.024030013 0.00022279167 -0.022177307
0001e0 37 a7 69 bc 2d e1 86 3c 53 95 3f bc c2 0d 2d bc
       -0.0142610585 0.016464794 -0.0116933165 -0.010562362
0001f0 0d 02 95 3c fd f3 9d bc 13 9a b1 3c 47 9c f0 3a
       0.018189454 -0.019281382 0.021679914 0.0018357121
000200 07 bd 23 bc c6 0e a1 39 a1 d0 68 ba fa 0a 86 bc
       -0.009993798 0.0003071932 -0.0008881186 -0.016362656
000210 71 e8 37 ba d5 c8 8d bc c4 7f cc 3b ee 4b 56 bc
       -0.00070155325 -0.017307678 0.006240817 -0.0130796265
000220 67 c8 98 3c 1a 31 84 3c d9 dd 96 bb d1 69 ce b9
       0.018650247 0.016136695 -0.004604083 -0.0003937022
000230 e3 ea bd bc e0 70 cc 3c 1c a2 8f 3c 5a 3e c6 3c
       -0.023183292 0.024956167 0.017533354 0.024199653
000240 dc 17 28 bc f3 4e 3d bc 4a ca 9d bc 4c 68 f1 3c
       -0.010259595 -0.0115544675 -0.019261498 0.029468678
000250 07 f8 21 3c 58 2b 47 3c 20 f3 bc 3b 58 ef 6c 3c
       0.0098857945 0.01215633 0.0057662874 0.014461361
000260 a8 32 bb 3c fa b4 bd bb a1 3f 5c bc a9 28 76 3c
       0.022851303 -0.0057893964 -0.013442905 0.015024343
000270 bb ee 29 bc d4 60 1d bc 64 d1 5d bc 01 b7 22 3c
       -0.010371859 -0.009605605 -0.013538692 0.009931327
000280 bf 69 ef 3b c7 f9 45 3c 6b 66 96 3c d3 41 23 3c
       0.007306307 0.012083477 0.018359384 0.009964424
000290 3e e8 91 3c 14 a7 56 bc ba 5c a3 3c 51 68 38 bc
       0.017810937 -0.013101358 0.019941676 -0.01125534
0002a0 28 95 0f 3c 9c 23 aa 3c 12 77 0f 3c 3d ce 8c 3c
       0.008763589 0.020768933 0.008756416 0.017188186
0002b0 76 1a a3 bb 80 5f 9f 3b f3 48 46 bc 08 62 a8 3c
       -0.0049775196 0.0048636794 -0.012102353 0.020554557
0002c0 a6 76 a8 3c 31 08 48 3c 5e 31 d8 3c 3d 01 c5 3c
       0.020564388 0.012208984 0.026390728 0.024048442
0002d0 cd bd 5a 3c 01 1b de 3c ee 01 9f 3a b3 9d aa 3b
       0.013350916 0.027112486 0.0012131312 0.0052067875
0002e0 6e b8 b1 bc 22 05 7e bc 11 65 a4 3c d2 e4 3f bc
       -0.021694388 -0.015504153 0.020067723 -0.01171227
0002f0 6c 2a 68 3c 1b 93 bd 3c 20 54 9c 3c 24 40 7d 3c
       0.01417027 0.023141434 0.019083083 0.015457187
000300 28 4a 97 3b 6a e5 b6 ba bf f2 1f 3c 48 4b 90 3c
       0.0046169944 -0.0013953869 0.009762465 0.017614022
000310 66 56 3a bc c4 35 80 bc 9f ac a3 3c d8 ce 48 3c
       -0.011373138 -0.015650637 0.019979773 0.012256347
000320 6e 12 dd 3c 4f 25 bf bb ff b3 58 bc bf 8b 90 3c
       0.026986327 -0.005833305 -0.013226508 0.017644761
000330 4e 03 ef bb bf f8 8d 3c 26 93 3f 3c f6 a0 8a 3c
       -0.007294095 0.017330525 0.011692798 0.016922455
000340 ad 6e 60 3c 4b bc 2e bc 53 81 c9 3c b5 84 5b 3c
       0.013698262 -0.01066501 0.0245978 0.013398339
000350 0a ff 67 3b 4b 57 a8 bc 3e e4 cd bb e0 e7 da bb
       0.0035399818 -0.020549437 -0.006283312 -0.0066804737
000360 15 67 58 3c a0 d0 79 bc 56 82 2d bc 41 81 29 3d
       0.01320817 -0.015247494 -0.010590157 0.04138303
000370 6e e8 81 3c 76 ce 37 3b bb 08 59 bc d1 b9 cc 3c
       0.015857901 0.0028046644 -0.01324671 0.024990948
000380 1e 5b a1 3c bf 7e 5d ba 51 5d 9d 3c 76 5b 35 bc
       0.019696768 -0.00084493676 0.019209536 -0.011069169
000390 ab 94 99 3c 10 7c 72 3c b8 00 91 bc 74 f4 77 bc
       0.018747648 0.014800087 -0.017700538 -0.015133966
0003a0 0e 82 74 3c 51 61 3c bc ac ba 8e 3c e4 57 07 bc
       0.014923586 -0.011497811 0.017422996 -0.008260701
0003b0 eb e1 ae 3c ac 42 d6 bc e8 26 7d bc ca e2 8e 3b
       0.02134796 -0.026154839 -0.0154511705 0.0043605315
0003c0 3d 47 5d bb a1 b0 9b 3c 0c 86 df 3c cb 8f 39 bc
       -0.0033764385 0.019005122 0.027285598 -0.011325787
0003d0 1e 7d 81 3c 7c 8b af bc c8 e1 70 bb d4 87 bc 3c
       0.01580673 -0.021428816 -0.003675567 0.023013987
0003e0 2b 60 a4 bc cb fd 29 3c 16 39 cc bc de a6 5f 3b
       -0.020065388 0.01037545 -0.024929564 0.003412656
0003f0 2b b3 64 3b ac 9e b6 3c c9 bb b8 3c 2f ae 2a 3c
       0.0034896831 0.022292458 0.02255048 0.010417505
