results/AttackerDefender_Skill1_v2/Defender/Defender-6499996.onnx (onnx, 891078 bytes, 17 tensors)

discrete_act_size_vector f4 [1, 2]
000000 00 00 a0 40 00 00 40 40
       5.0 3.0

network_body.observation_encoder.processors.0.conv_layers.0.weight f4 [16, 5, 8, 8]
000000 16 90 46 bd c1 57 e9 bd 2e 5b c9 3d 54 0b 0c bd
       -0.048477255 -0.11393691 0.09831844 -0.03419049
000010 ad 4f 16 bd 43 af c1 bc 67 42 ab 3d a4 7f c4 3c
       -0.03669708 -0.023643142 0.083622746 0.023986645
000020 c3 93 b9 bd 16 6f 82 bd 79 b5 f1 3c 31 25 24 bd
       -0.090613864 -0.06368844 0.029505478 -0.04007453
000030 5f 57 04 3d 4e 00 93 bc 67 23 f3 3d bb 37 16 3e
       0.032309886 -0.017944481 0.11871987 0.14669697
000040 d2 f2 b3 bd c9 b2 91 3d dd 29 2f 3e 17 d8 88 bd
       -0.08786549 0.07114179 0.17105813 -0.06681841
000050 ac c2 0e 3e 5c f7 69 bc c8 5f 32 bd f3 9b 57 3d
       0.13941449 -0.0142801665 -0.043548375 0.05263896
000060 00 05 82 3d e8 ef d6 3d cf de af 3d 8a fe 11 3e
       0.0634861 0.10494977 0.08587419 0.14257255
000070 81 d5 1f 3e 81 f2 4a bd df c6 ef 3c 00 11 78 3b
       0.15608789 -0.049547676 0.029269634 0.003785193
000080 5b e9 55 bd f1 ab 58 3d 17 92 5e 3c 2b 80 85 bd
       -0.0522245 0.05289835 0.013584635 -0.06518587
000090 4c 83 25 3e 0f 8d b1 bd fc e8 bb 3c 87 98 57 3e
       0.16163367 -0.08669483 0.022938244 0.21054278
0000a0 c8 54 f8 bc 89 9c f3 3c b9 14 31 3c e1 f5 9e 3b
       -0.030313864 0.029737728 0.010808163 0.0048510884
0000b0 ca aa ab bd 8f a8 fb bb 1c f1 24 be a3 7f 46 3d
       -0.08382185 -0.007680006 -0.16107601 0.048461568
0000c0 4e a5 57 3e 90 6e 0d bd 0a 6f ee 3d 85 4d ab bd
       0.21059152 -0.03452927 0.11642273 -0.08364395
0000d0 7c ea 8e bd 7f ab e3 3d 1f cb 8b 3d 61 af a8 3d
       -0.06978318 0.11116695 0.06825852 0.08236576
0000e0 9c 86 b0 3c dc 2c 32 3d 92 fc 03 3a 53 4e a7 bd
       0.021548562 0.043499812 0.00050348893 -0.08169236
0000f0 07 1d 61 bd ff 88 37 3c c7 48 99 bc 5a de d6 bd
       -0.054959323 0.011202096 -0.01871146 -0.10491629
000100 8b 85 0f 3d 2c 34 4f bd 4f c3 4c bd 2a b6 e7 bd
       0.035039466 -0.050586864 -0.04999095 -0.11314042
000110 22 38 55 bd 5c 7a 80 3c ca e8 14 3e 42 6f 91 bd
       -0.052055486 0.015683345 0.14541927 -0.07101299
000120 18 13 2d 3e b1 7a bd 3c dd a0 7e bc 59 93 d5 3c
       0.16901815 0.023129793 -0.0155412825 0.026071237
000130 5e 7e 12 3c e8 8f d1 3c b4 21 c7 3d 15 35 4b 3d
       0.008941261 0.025581315 0.09723225 0.04961117
000140 bc 1b 60 3d 9c 4c c5 bd c3 3a 31 bd e5 a0 26 3d
       0.05471395 -0.09633753 -0.04326893 0.040680785
000150 1f 8e 91 3d 2e 55 31 bd 5a ea 26 bd 7f c9 40 bd
       0.071071856 -0.043294124 -0.04075084 -0.04706716
000160 e5 ab aa 3d 4f 53 19 3e 90 51 73 3d e0 50 bf bd
       0.083335675 0.14973186 0.059403956 -0.093415976
000170 27 ba 72 bd ae b7 18 3d 56 61 32 bd 0b 69 af 3d
       -0.05925956 0.037284546 -0.043549858 0.08564957
000180 9b 1f 02 3d 5b d9 f5 3d d0 e2 90 bd 97 74 52 3d
       0.031768423 0.12004348 -0.07074511 0.05138072
000190 f9 78 6b 39 e0 bc c7 3d 83 ec 7e bc 79 c1 2d 3e
       0.00022456412 0.09752822 -0.0155593185 0.16968335
0001a0 15 f6 87 bd de bf c9 3d 07 45 04 be d4 f5 81 bd
       -0.06638733 0.09851049 -0.12916957 -0.06345716
0001b0 a5 41 3a bd b5 32 e1 bc 7e f0 d0 bd 67 97 30 3c
       -0.04547276 -0.02749 -0.1020212 0.010778285
0001c0 da e8 05 3e 6c a3 b1 3d 08 ab 40 3e 7c 01 9c 3c
       0.13077107 0.086737484 0.18815243 0.019043677
0001d0 60 b0 12 be 16 cf 2d bd 59 f7 68 3d 0a bc 5d bc
       -0.14325094 -0.04243382 0.056876514 -0.013533602
0001e0 f5 e7 49 bd 2e e2 0c bd 11 45 93 bc 19 b2 cd 3d
       -0.049293477 -0.03439539 -0.01797727 0.10043735
0001f0 6f 29 5f bc d5 00 bb bd 64 d5 57 3d 83 77 44 3d
       -0.013620718 -0.09131018 0.05269374 0.047965538
000200 57 06 5b bc c6 9f c6 bc b6 96 0a 3d 01 18 d0 bc
       -0.013368211 -0.024246108 0.033835135 -0.025402071
000210 42 92 8d 3d 2a 84 a4 3d 4c a6 45 3d 4f e6 ea bd
       0.06912662 0.08033021 0.048254296 -0.11469709
000220 ad 23 11 3e b8 8b 77 3c be 9b 6d bc e6 e6 22 bd
       0.14173765 0.015108995 -0.014502464 -0.039770983
000230 8e c6 a5 3c 14 70 1d 3d fb da dc 3d ac de 33 3e
       0.02023628 0.038436964 0.10783955 0.17565411
000240 2d 5e 7e bc d0 6d e9 3d 73 d0 e2 bd 68 f2 95 bd
       -0.015525383 0.11397898 -0.11074915 -0.07321626
000250 91 15 78 3d 6b f4 b1 3d 98 d9 34 bd a8 b8 62 bd
       0.060567442 0.08689197 -0.044152826 -0.055351883
000260 a7 6d 52 bb c9 58 99 3c 27 f6 81 bd b8 d1 5e be
       -0.0032108815 0.018719094 -0.06345778 -0.21759689
000270 da 17 1d 3e bb 6b d1 bd c4 5a ea 3c 73 e8 89 3d
       0.1534113 -0.10225626 0.028607734 0.06733789
000280 89 9d 8e 3d 71 85 26 3e e6 ef a0 3b c4 84 88 3d
       0.06963641 0.16261841 0.0049114106 0.06665948
000290 a5 4d 98 3c f9 11 37 3d 55 40 b4 bc 45 b1 12 3e
       0.018591711 0.044694874 -0.022003332 0.14325435
0002a0 56 8a 51 bc 01 70 91 bd e1 3f 95 3d 41 b4 f6 bc
       -0.0127893295 -0.07101441 0.072875746 -0.030115249
0002b0 aa 8b 08 be f3 da 58 3d 3b d4 e4 3b b6 ed 7a bd
       -0.13334528 0.05294318 0.0069833077 -0.061261855
0002c0 9c 29 33 3e 92 e6 55 bd c3 bd 4b 3d 8f ad 56 3d
       0.17496341 -0.052221842 0.049741518 0.052411612
0002d0 9b 9d 6c bd 83 68 b9 3d 6e df db bc c1 a4 8f 3d
       -0.05776749 0.09053137 -0.026839938 0.07013846
0002e0 b3 0e d2 3d f3 45 83 bd f7 08 d2 3d 5e aa 28 3d
       0.1025671 -0.06409826 0.10255616 0.0411781
0002f0 0d cf 11 be 81 7b f3 bd 22 5b 34 3d 3b be 88 3b
       -0.1423914 -0.11888791 0.044032224 0.004173068
000300 2e b8 1c 3d 82 1e b0 bc 68 a3 60 bd c2 28 b1 bc
       0.038261585 -0.021498922 -0.054843336 -0.02162588
000310 92 54 5b 3d 00 83 09 bd 22 a2 a1 bc 80 e6 84 bb
       0.05354745 -0.033572197 -0.019730631 -0.004055798
000320 8c 3f de bc 24 c1 c4 3c 12 75 3a 3d 21 ac ca bc
       -0.02712991 0.024017878 0.045521803 -0.02474028
000330 9a 62 4d bd 58 ce 50 3c 31 8e 2f bd 40 bd 92 3c
       -0.050142862 0.012744509 -0.042860214 0.017912507
000340 e9 92 3c bd c3 05 85 3b 78 46 16 bd a5 f5 49 bd
       -0.046038542 0.0040595247 -0.036688298 -0.04930653
000350 58 cd 06 bc 97 99 42 3c 44 06 09 bd 3e db 13 3d
       -0.008227669 0.011877439 -0.03345324 0.036097758
000360 68 25 0a bd f0 bc 33 3c fc ef 0e 3d a0 76 0a bb
       -0.03372708 0.010970339 0.034896836 -0.0021127835
000370 ea 9a 00 bd 70 f1 a4 3c 1a 35 39 3d 60 bb 4a 3c
       -0.031397738 0.020134658 0.045216657 0.012373775
000380 60 16 8a 3b c0 94 2e bd 1c 90 40 bd e2 ba b0 bc
       0.004214093 -0.042622328 -0.047012433 -0.021573488
000390 68 6b 0e 3d f8 93 1b bd e8 ce 4a bd 5c a3 e7 3c
       0.0347704 -0.03798291 -0.049513727 0.028276138
0003a0 29 03 1e bd 20 73 0a 3c b8 1e f5 bc 18 cd 04 bc
       -0.038577233 0.0084502995 -0.029921874 -0.008105539
0003b0 50 5f 8d 3c 7c e3 93 3c d6 3e 33 3d a4 0c dd 3c
       0.017257363 0.018052809 0.043761097 0.026983567
0003c0 7c c1 83 3c 86 8b 45 3c 30 6c e4 3b 34 dc 35 3d
       0.016083471 0.012057191 0.006970905 0.044399455
0003d0 2c 42 dd 3c df c6 9b bc 64 30 91 3c 46 98 5f bd
       0.027009092 -0.019015728 0.01772327 -0.05458858
0003e0 ce a2 2c bd 18 7e 82 3c 05 ab 39 bd a0 ae d9 3b
       -0.04214745 0.015929267 -0.045329113 0.0066431314
0003f0 a0 03 08 bc 48 6e f0 3c c5 a9 62 bd 88 1a 09 3d
       -0.0083016455 0.029349461 -0.055337686 0.033472568

network_body.observation_encoder.processors.0.conv_layers.0.bias f4 [16]
000000 6a de 96 b9 ee bb 31 bd 0b f5 90 ba c3 51 58 bd
       -0.0002877594 -0.043392114 -0.0011059357 -0.05281235
000010 45 a0 c7 3c 82 ad 02 bc b1 15 71 bc 87 9e 97 bc
       0.024368415 -0.007975938 -0.014714644 -0.018508209
000020 1c 42 b2 ba fe 13 3b 3c 51 64 b5 bc 36 d9 9f 3c
       -0.0013600024 0.011418341 -0.022142561 0.019512754
000030 3f 20 9c 3b 85 c0 4c bd 16 f7 78 bc 71 0a 7b bd
       0.004764586 -0.04998829 -0.015195629 -0.061289255

network_body.observation_encoder.processors.0.conv_layers.2.weight f4 [32, 16, 4, 4]
000000 65 af 3c bc 6f d4 cf bd d6 e0 5a 3d f8 2c a1 3c
       -0.011516427 -0.1014794 0.053437077 0.019674763
000010 7f 8d 3a bd 44 ca ec 3b bb 0d 1a be 94 4e a6 3c
       -0.045545097 0.0072262604 -0.150443 0.02030114
000020 f3 a1 11 bd 17 0e 9d bd a2 e7 c6 3d e6 ff fe bd
       -0.035554837 -0.07668703 0.09712149 -0.124511525
000030 43 b7 7d bd bb 31 9d bd 56 1f 4c 3d 02 c2 55 bc
       -0.06194235 -0.07675501 0.04983457 -0.013046743
000040 f2 0c c0 bc 1f 25 f4 bd 24 ce 8b 3d 7e 18 01 bd
       -0.023443673 -0.11921143 0.068264276 -0.0315175
000050 c0 01 89 3d 5a d6 41 be f5 98 bc bd 42 9b d6 3c
       0.06689787 -0.18929425 -0.09208862 0.02619708
000060 0b ea e1 3c 55 fd c5 3c 9f 7a 25 bb 35 a7 f9 3d
       0.02757742 0.02416865 -0.002525009 0.12190095
000070 70 56 cb 3c 19 97 8c bd c3 6d 4c bc 31 6e 43 3d
       0.02482149 -0.06864757 -0.012477341 0.04771251
000080 8c 3f 24 bb 5f 7a f7 3c 2d 7a e7 bd 5f 34 68 bd
       -0.002506229 0.030209718 -0.113026 -0.05669057
000090 9b 35 ae bd 50 a7 2f be 9e 2e 7d bd 51 45 1d 3d
       -0.08506318 -0.17153668 -0.061812036 0.038396183
0000a0 c7 42 29 3d 61 3f d6 3b 77 ea e9 3d 59 38 a0 bd
       0.04132345 0.006538317 0.11421674 -0.078232475
0000b0 1c 71 a8 3d 36 68 dc 3d 8a f9 7a 3d 85 ed 26 3c
       0.08224699 0.10762064 0.061273135 0.010188465
0000c0 18 5a 47 bc d5 9c f9 3c 73 69 6f 3d 42 cc 95 3c
       -0.012167476 0.030470291 0.058450174 0.018285874
0000d0 d2 c8 3b bd ca e2 bb bc 75 0a cd 3b 3f 32 57 3d
       -0.045845814 -0.02293529 0.00625735 0.052538153
0000e0 ad da aa 3d 11 20 1d bc 65 38 f5 3c bf ba a8 3d
       0.0834249 -0.009590165 0.029934118 0.08238744
0000f0 c8 84 35 3d ab ca f2 3b ee 97 0e 3d b6 6a 72 bc
       0.044316083 0.007409414 0.03481286 -0.01479595
000100 cc 00 5f bd 72 ec 35 bd 59 16 08 bd 20 4d e6 3b
       -0.05444412 -0.044414945 -0.033224437 0.007028237
000110 d1 37 a8 bc fa 67 73 3c b0 02 05 bd eb 4c 44 bd
       -0.020534428 0.014856333 -0.032473266 -0.047924917
000120 8e 93 9b bb 5a 08 e2 bc f1 19 81 bd 5e 5c c9 bc
       -0.0047478145 -0.027591873 -0.06303776 -0.024580177
000130 a9 dd 77 3d 26 a4 b0 bd 74 3b 01 3c 43 56 c9 3d
       0.060514126 -0.08625059 0.00788771 0.09830906
000140 27 42 22 3d 6a 3d aa bc a3 ea 6a 3d 53 15 a8 3d
       0.03961387 -0.020781238 0.057352673 0.08207192
000150 c2 60 aa bb 7c a7 a9 bd b2 ea 4d bd 88 fb 80 3d
       -0.0051995227 -0.08283898 -0.05027265 0.06297976
000160 4e c2 ad 3c 00 de 0b be 22 a9 37 bc d1 c4 5b 3d
       0.021210816 -0.13658905 -0.011209758 0.053654496
000170 47 2e bf 3d 6d 94 99 bd 8a 52 c2 bc 7d 23 68 3d
       0.093349986 -0.07499013 -0.023720998 0.05667447
000180 7a ac 7e bd 1c 66 36 3d 73 38 b4 bc ec 5e 5f bc
       -0.062176205 0.044530973 -0.021999573 -0.013633471
000190 aa 84 96 bd a8 9b 56 3d 75 eb a2 3c 73 dd a5 bd
       -0.073495224 0.05239454 0.019887665 -0.08098879
0001a0 fa d2 b0 3b c9 c5 09 bd 85 99 82 bd 7b bb c6 ba
       0.005396244 -0.03363589 -0.06376938 -0.0015162075
0001b0 aa 03 6e bc 09 b7 8d bd 7d e5 9f ba 5f 8d 86 bd
       -0.014527241 -0.06919677 -0.001219913 -0.06569933
0001c0 42 fd 63 3c 78 73 5a bd e9 d1 bf bd 49 ea 1d 3c
       0.013915362 -0.053332776 -0.09366209 0.009638377
0001d0 05 87 86 3d e4 a5 16 bd 6b 13 06 be da 09 72 3c
       0.06568722 -0.0367793 -0.13093345 0.014772857
0001e0 24 a3 ab bb 2d 7d c5 bd 1a 77 8e bd ea da 01 3d
       -0.0052379537 -0.09643016 -0.069563106 0.031702913
0001f0 40 60 67 bd e1 64 8f 3c 5d e2 f8 bd 06 37 da bd
       -0.056488276 0.017504157 -0.1215255 -0.10655026
000200 e8 e3 68 bd ae 24 0d 3d 39 f1 7e 3a b5 72 96 3c
       -0.056857973 0.03445881 0.0009725276 0.018365243
000210 83 8f b7 bc 32 41 0c be 5b e1 02 bd db 94 3f 3d
       -0.022407299 -0.13696745 -0.031953197 0.04677282
000220 e9 16 7d 3b 3b 76 de bb bb 2d 4c bd 21 a8 af 3c
       0.0038618392 -0.0067889965 -0.0498483 0.021442475
000230 30 0e 70 3d 58 e5 16 3d 8f ea 57 3d f5 f0 36 bd
       0.05860728 0.036839813 0.052713927 -0.04466339
000240 2a 4a 1c bd 49 8d 88 bd b4 44 12 3d 10 d5 5a 3c
       -0.038156666 -0.06667573 0.03571005 0.013356462
000250 a2 99 b8 3d 1a aa dc 3c f5 e6 38 39 c3 34 65 bd
       0.09013678 0.02693658 0.00017633646 -0.05595852
000260 6b 4b 5a bd 7d f9 01 bc 62 a4 4e 3d fa d7 34 bd
       -0.05329458 -0.007933018 0.050449736 -0.044151284
000270 4b 02 fd bc 60 bd 89 bd 51 55 4a bc 25 fa ba bd
       -0.030884882 -0.067255735 -0.012349443 -0.091297425
000280 34 cc 86 bc b6 0d aa bc 65 c1 fa 3c 65 a7 fe 3c
       -0.016454794 -0.020758491 0.030609796 0.03108568
000290 83 09 10 3d c3 65 02 be fe 07 53 3d b8 8f be 3d
       0.03516532 -0.12734132 0.051521294 0.09304756
0002a0 e0 63 08 bb 40 08 22 3e c6 19 2d bd a8 c1 7e 3d
       -0.0020811483 0.1582346 -0.042260908 0.062196404
0002b0 1c 54 0f 3c e7 81 04 bd 95 de e7 3d 8c 34 f0 3c
       0.008748081 -0.032350447 0.11321751 0.029321931
0002c0 a4 8a d7 bc f9 33 d6 bb 38 ac 0b 3d 6a c8 8b 39
       -0.026311226 -0.0065369573 0.034099787 0.00026661466
0002d0 36 32 70 bd c8 c5 c9 3b bd ac 5b bd ac 89 be 3d
       -0.058641635 0.0061576106 -0.053631533 0.093036026
0002e0 73 06 cf bc 53 3c 3f bd 6d cd 83 3d db 2f c6 bc
       -0.02527163 -0.04668839 0.06435666 -0.024192741
0002f0 92 0a a8 bd 31 f3 b6 3d f5 8b 96 3d fe 38 76 3d
       -0.08205141 0.08933104 0.073509134 0.060112946
000300 ab 06 99 bc f2 9c 03 3d 59 1e 87 bd e0 6c 6e 3c
       -0.018679937 0.032132097 -0.06597585 0.014552325
000310 2e 9d f0 bb 4d 9d 39 3d 8f 5a 6c bd b1 e0 27 bd
       -0.007342956 0.04531603 -0.05770355 -0.040985767
000320 f6 8a 87 bc bb f7 8e bd 48 f7 94 bc 36 46 45 3b
       -0.016545754 -0.069808446 -0.01818432 0.0030101663
000330 b4 67 9c bc 9c b1 af bc 20 a1 cb 3d 33 60 42 bd
       -0.019092418 -0.021446995 0.099428415 -0.047455024
000340 1c fc e5 bc 5e 97 1a 3d 02 d0 9f 3b 69 5b 44 3d
       -0.028074317 0.03774201 0.0048770914 0.047938738
000350 25 d4 9a 3d 65 1a 0f bd 73 da 6d be b5 e5 f2 bc
       0.075599946 -0.03493728 -0.23227863 -0.029650548
000360 81 82 1e bd e9 18 95 3d 6c 26 0b be a3 d5 a7 3c
       -0.038698677 0.07280142 -0.13588876 0.020487612
000370 7c 9d 06 3d 25 7e c1 3c 51 7a 12 bd 73 b5 45 3c
       0.032865033 0.02361972 -0.03576118 0.012067187
000380 9c 70 4a bd 26 a9 bf bd 50 d4 d9 3c 60 d2 da bc
       -0.0494238 -0.093584344 0.026590496 -0.026711643
000390 30 53 15 3d e5 f7 b6 3c 14 42 20 3c dc 08 00 bd
       0.036456287 0.022335002 0.009781379 -0.03125845
0003a0 9b 80 8b 3d af b2 a8 3d a1 d5 fb 3c f2 72 b7 bb
       0.06811639 0.08237206 0.030741515 -0.0055984193
0003b0 27 53 a4 bd 79 84 11 3d d6 06 39 bb 69 c8 62 3d
       -0.080236726 0.035526726 -0.0028232834 0.055366907
0003c0 bd c6 27 bd 80 f5 0a 3c 5b 1f 33 3d 9d fe 0c bd
       -0.040961016 0.008481383 0.043731075 -0.034422506
0003d0 f0 58 a0 bd c6 8e dc bc 5b cb 87 3c f2 6e 83 3d
       -0.078294635 -0.026923548 0.01657646 0.064176455
0003e0 a7 fb bd bd 33 09 3c 3d e6 94 4a 3d f8 ea b0 3c
       -0.092765145 0.04590721 0.049458407 0.021596417
0003f0 f6 31 87 bd 5f b8 5e bd d4 c3 a7 3d 16 9b 81 bb
       -0.06601326 -0.05437505 0.08191648 -0.0039552553

network_body.observation_encoder.processors.0.conv_layers.2.bias f4 [32]
000000 5d 99 1d bc 8f 71 a0 bc 09 db fd bc 2f b1 9a bc
       -0.009619084 -0.019585399 -0.030988233 -0.018883316
000010 6c 51 df 3b 76 58 65 bd 96 78 ad 3c 49 ed 15 3c
       0.006815126 -0.055992566 0.021175664 0.0091508115
000020 cc 2d 83 bc e4 b4 17 3b 72 bf 64 3b 5e 43 81 bc
       -0.016013049 0.002314859 0.003490415 -0.015779193
000030 0b 76 3d 3a 37 65 c5 bc fc c5 12 3d 1b f3 bd bd
       0.00072273676 -0.024096115 0.035833344 -0.09274884
000040 78 fd 09 3d f3 30 87 bc 2d b7 0e bd e6 64 03 bc
       0.033688992 -0.016502833 -0.03484266 -0.0080196615
000050 2d 27 9e bc 07 47 f7 bb b4 bd 89 3d 22 8a 0b bd
       -0.01930579 -0.007546309 0.06725636 -0.03406728
000060 82 c9 a4 3b 1c c1 17 3c cf b3 e6 3c 89 d5 9a bd
       0.0050289044 0.009262349 0.028161911 -0.0756026
000070 49 25 18 bc fb a7 cc bd 63 9b 1a 3c ea c9 b8 3c
       -0.009286233 -0.09992977 0.009436461 0.022557218

network_body.observation_encoder.processors.0.dense.0.weight f4 [256, 32]
000000 49 43 56 3e e3 f0 cd be 3a fe ab 3e 3a c9 db 3d
       0.20924105 -0.40222844 0.33592397 0.1073174
000010 b3 67 e0 bc f8 17 0e bf c1 97 80 be c6 82 9a 3b
       -0.027393198 -0.55505323 -0.2511578 0.0047152964
000020 44 12 2b 3f b8 be 6f 3d 20 88 ec be 2c 06 03 3e
       0.66824746 0.058531493 -0.46197605 0.12795323
000030 16 8e 97 be 55 c5 91 3d a4 f1 76 3e 82 07 32 bd
       -0.2960059 0.07117716 0.24115616 -0.04346419
000040 48 f3 2f be 00 ba 99 be 8f 70 0c 3e 48 43 01 3e
       -0.17182648 -0.3002472 0.13714813 0.12623322
000050 84 84 71 3e 5f 0c 58 3e a1 e8 01 bf 9b e6 0c be
       0.23585707 0.21098469 -0.5074559 -0.13759844
000060 31 3f 48 bb 47 fe 91 bd 6f ad e8 bd 79 68 b1 be
       -0.0030555243 -0.07128578 -0.11361205 -0.3465002
000070 97 af 0e 3e 61 6d c6 3c e9 7b 5a 3e 55 07 4d bf
       0.1393417 0.024222078 0.2133633 -0.8008931
000080 87 bf 94 3e 32 8a 40 bc 8e 66 85 be d4 99 4a 3e
       0.29052374 -0.011751698 -0.26054806 0.19785243
000090 9d cc 0e bd 05 a1 9d be cb 4d 97 3d 43 be d7 bd
       -0.034863103 -0.3078691 0.07387885 -0.105343364
0000a0 1e b5 37 bd 82 e7 8e 3d d8 7e 88 be a1 3b 00 3e
       -0.04485046 0.0697775 -0.26659274 0.12522747
0000b0 1b a3 44 be c7 23 82 3d 1f f1 11 3f 63 cd 40 3c
       -0.19202845 0.0635448 0.57008547 0.011767718
0000c0 e6 68 45 be 76 47 25 bd b1 b3 e8 3e 02 75 99 3e
       -0.19278297 -0.040351354 0.45449594 0.29972082
0000d0 74 bc 8d be ad 8d d8 3e c3 6c 28 be e8 7c 8e be
       -0.2768284 0.4229559 -0.1644774 -0.2782967
0000e0 2f f8 52 be 3a af 30 be 42 d0 da bd 6f 96 56 be
       -0.20602487 -0.17254344 -0.10684253 -0.20955823
0000f0 39 34 16 3e 2b b5 46 3e 4f 0c 20 be be 2e 21 3e
       0.14668359 0.19405048 -0.15629695 0.15740487
000100 f5 c8 d4 bd 8d 67 38 bf 9c 82 75 3e a1 f4 87 be
       -0.10389892 -0.72033006 0.23975605 -0.26553825
000110 3e d6 ea 3e 4b 8a 16 be 52 a7 c8 3e b1 9d 8e bd
       0.4586658 -0.14701192 0.39190155 -0.06963671
000120 58 16 1c bf 55 16 a1 be 3d 97 23 3e 51 eb a4 be
       -0.60971594 -0.3146235 0.15975662 -0.32210782
000130 ad 14 6e 3d 67 c5 44 be 34 37 f8 3e bc a1 8f 3d
       0.058125187 -0.19215928 0.48479617 0.0701327
000140 52 f0 12 be 74 3c e0 3d f9 44 27 3e a1 16 21 3e
       -0.14349487 0.109490305 0.16334905 0.15731288
000150 90 c7 e0 be 56 18 45 3e 25 7d 5d be d5 ae fe bc
       -0.43902254 0.19247565 -0.2162977 -0.031089226
000160 7a 04 7a 3e 40 51 9c be 70 8a 6a be ab 50 fd bd
       0.2441577 -0.3053074 -0.22904372 -0.12368902
000170 99 6e 13 be 29 1e 3c be c3 ba a3 3e 69 3f 4f bf
       -0.14397658 -0.1837088 0.31978425 -0.8095613
000180 34 b2 38 3e ec 59 fd bd c6 a4 62 3e 92 9c b1 3b
       0.18036729 -0.12370667 0.22133169 0.005420276
000190 2e 34 31 bd 97 ab 1d be a7 70 82 3d 95 f7 b4 bd
       -0.043262653 -0.15397488 0.06369143 -0.08836285
0001a0 19 21 01 be d8 d9 04 be 1d 06 8c be bb c3 b7 bd
       -0.12610282 -0.12973726 -0.27348414 -0.089728795
0001b0 13 13 98 be c8 98 f8 3d dc 07 12 3e 1b 00 c3 3d
       -0.29702052 0.12138516 0.1426081 0.095215045
0001c0 2e bf d0 bd bd d9 98 3b c5 03 aa 3d 00 fd c6 3e
       -0.10192715 0.0046646283 0.083015 0.388649
0001d0 e2 86 81 be 76 65 b1 3e 63 f2 a3 bc 85 34 9a 3b
       -0.2529822 0.3464772 -0.02001304 0.004705968
0001e0 0e f6 63 3c ba 37 73 3e 8a c7 91 be 57 35 fa 3d
       0.0139136445 0.23751727 -0.2847255 0.12217205
0001f0 93 e0 b4 be 1b 17 ae be ec 11 00 bf ee 72 46 3d
       -0.35327587 -0.34002003 -0.50027347 0.04844945
000200 7c 5a ee bd 8b a4 12 be 76 22 0e bf b2 52 c6 bd
       -0.11638352 -0.1432058 -0.55521333 -0.09683742
000210 3d 03 8c be 1a d8 4c 3e 56 22 d7 bd f6 32 5a bd
       -0.2734622 0.20004311 -0.10504596 -0.053271256
000220 64 ae 1e 3e 74 28 52 3e d8 bc d9 3d 34 37 ac bd
       0.15496212 0.20523244 0.10631722 -0.08408967
000230 74 03 da be 0d 1b 8d 3e bc 62 1a be c0 f8 a9 be
       -0.4258076 0.275597 -0.15076727 -0.33197594
000240 78 5a 73 3d 60 cb ed 3d 4d b6 ad 3e 04 98 95 3e
       0.05941245 0.11611056 0.33928147 0.2921754
000250 76 e7 70 be f0 b9 c1 be 6e a7 51 be f5 8f 3b be
       -0.23525795 -0.37837172 -0.20474026 -0.18316634
000260 fd 98 89 be 0e a7 2e be c0 f9 2f 3e 48 fd a6 3e
       -0.26874533 -0.17055914 0.17185116 0.32615113
000270 14 e9 95 bd c9 ee a4 3d 00 d6 3f 3d 56 a8 a2 3e
       -0.07319847 0.08053357 0.046834946 0.31769055
000280 8d 5d ba bc 21 8d 70 3e c5 86 c0 3e 9c 66 c2 be
       -0.022749687 0.23491336 0.3760282 -0.3796891
000290 82 c6 b4 3e 2b 29 72 bd 44 f4 38 be 84 d0 ec bc
       0.353077 -0.059121292 -0.1806193 -0.028908022
0002a0 e9 89 a0 3d 5b 59 5b be 18 f7 4f 3c 20 94 03 3e
       0.07838804 -0.21420805 0.012693189 0.12849474
0002b0 be ba af 3d 89 0a a8 bd 91 f2 b3 3b 32 ba 7b be
       0.0858054 -0.082051344 0.0054915627 -0.24582747
0002c0 dc 56 5a 3e 7a a6 14 3e fa 1f 96 3e 10 d0 33 3e
       0.21322197 0.14516631 0.2932127 0.17559838
0002d0 82 63 8c bd 24 5c 24 3e f5 45 01 3f 11 63 98 3e
       -0.06854917 0.16050774 0.5049737 0.29763082
0002e0 2a b2 82 be 82 4a 77 3d a5 0b 60 3c 18 9f d0 be
       -0.25526553 0.06037379 0.013674651 -0.4074638
0002f0 c6 0e e2 bd 46 c2 1b 3e 05 7a c7 3e 0a e8 80 3e
       -0.11037974 0.15210828 0.3896028 0.25177032
000300 6a 96 32 be f2 cc 86 3d b4 0d ad bd 0d 54 80 be
       -0.17440191 0.06582059 -0.08449879 -0.25064126
000310 53 15 c2 be ed dd 5b 3d 11 d2 00 3e 2b 7e c9 bd
       -0.37906894 0.05367844 0.12580134 -0.09838518
000320 56 2f ae 3e 63 0c e6 bd 02 a7 41 3e 0d d5 6d be
       0.3402049 -0.11232831 0.18911365 -0.23225804
000330 19 9a 19 bd 86 dc f3 bd 15 2f 2b be 59 53 ba bd
       -0.037500475 -0.11907296 -0.16717179 -0.090979286
000340 8c cf a6 be f6 9f 14 3d 7a 95 e7 3d bb f4 d0 bd
       -0.3258022 0.036285363 0.11307807 -0.10202929
000350 c4 28 13 be d4 1c 75 3e 51 0f 94 3e 23 55 7f bd
       -0.1437102 0.23936778 0.28917935 -0.062337052
000360 39 2f 07 3b 87 75 dd bd 5c c5 7f 3e d9 15 31 3e
       0.0020627512 -0.10813432 0.2497763 0.1729349
000370 e3 33 3f be 05 34 2e be 8d ac 28 3f e1 12 3d bd
       -0.18672137 -0.17012031 0.6588829 -0.046160582
000380 4d 62 2f 3f 33 55 59 ba 81 f8 b8 be 5f a9 fe be
       0.6850937 -0.0008290589 -0.36127093 -0.49738595
000390 eb 72 65 3e f4 66 ad bc da 26 9b bd 9e 4c 33 be
       0.22407119 -0.021167256 -0.0757577 -0.17509696
0003a0 84 43 fc 3d a2 0d 62 3e 96 08 35 3e 4e 23 e8 3c
       0.12317565 0.22075513 0.17679057 0.028337147
0003b0 8e 01 a3 3e b1 4b 5b 3e 35 a3 af 3e b8 26 9d 3c
       0.31837124 0.21415593 0.34304205 0.019183502
0003c0 26 9b 03 3e fb ee 37 be da a9 30 3d b7 55 bc 3d
       0.12852153 -0.17962258 0.043130733 0.09196036
0003d0 42 23 ba be 0b c5 1c bc 10 6a 92 3e 9d 55 9c be
       -0.36355025 -0.009568463 0.28596544 -0.30534068
0003e0 2d 8e 00 3e 76 54 a3 bd d8 70 b4 3d c6 13 50 be
       0.12554236 -0.07975094 0.08810586 -0.20320043
0003f0 26 61 16 be 87 ce 0e be 40 59 02 3e 8f 14 e4 3d
       -0.14685497 -0.13945971 0.12729359 0.11136734

network_body.observation_encoder.processors.0.dense.0.bias f4 [256]
000000 9d 4f 3c 3d 05 09 7d bc 55 87 3c 3d d3 82 e1 3c
       0.045974363 -0.015444045 0.0460275 0.027528202
000010 b5 fc 81 bd 56 fa 85 3a 8d 54 60 3d af b0 4b bd
       -0.06347028 0.0010221701 0.054768134 -0.049729045
000020 23 4b 13 bd 6b a4 e7 3c f7 00 08 bd b6 93 e0 bc
       -0.035960328 0.028276643 -0.033204045 -0.027414184
000030 58 09 1c bd 76 46 6a 3a 6a 52 80 3d c7 46 10 bd
       -0.03809485 0.0008936891 0.06265719 -0.03522375
000040 3c 5a 7a 3b 05 07 57 bc c0 3e b3 3b de 05 af bd
       0.0038200757 -0.013124232 0.005470127 -0.08546041
000050 0a e3 cd bc dd 2b 71 3c 6c a4 bd bc 36 54 f6 3c
       -0.025132675 0.0147199305 -0.023149692 0.030069452
000060 f7 f2 61 3c dd 00 74 b9 19 a4 85 bd cd 6f bb bc
       0.0137908375 -0.00023269975 -0.0652544 -0.02288046
000070 15 64 eb 3b e1 de ac 3c 3a 05 2b 3d 6d 4f 24 3d
       0.0071835616 0.02110237 0.04175303 0.04011481
000080 35 71 10 3d 48 ff 27 bd a5 5e d6 3d bf 2b 6f 3d
       0.035264213 -0.04101494 0.10467271 0.05839133
000090 7a b4 05 3d 59 b3 98 3d aa 3f 5e bd 5b a3 1f 3d
       0.03264282 0.07456083 -0.054259934 0.038974147
0000a0 4e ec 92 bc 77 8e fa bc 6e b0 5f bd 2b 7f 1c 3d
       -0.017934944 -0.03058551 -0.054611616 0.038207214
0000b0 fc c1 70 3c d7 b2 37 bc 68 5f 54 3c ad 5f 52 3d
       0.014694687 -0.011212072 0.0129622 0.051360775
0000c0 a4 59 cd bb c1 5b c3 bc f3 a3 8f 3d 31 ea bf bc
       -0.0062667895 -0.023847463 0.07013693 -0.0234271
0000d0 37 af e1 3c b4 6b 91 3c 1e 99 6c bd 84 cc 1d bc
       0.02754937 0.017751552 -0.05776321 -0.00963128
0000e0 1e da ff 3c 0d 00 cc bc 94 24 2b 3d c0 28 6e 3d
       0.031231936 -0.024902368 0.04178293 0.05814433
0000f0 59 76 6a bc 96 ad 86 bd 1f 3d 00 bc ea ee 24 3c
       -0.014310443 -0.06576078 -0.007827072 0.010066727
000100 b8 3e a9 ba cf 56 30 bd f2 ac 65 bc 5f c5 12 3d
       -0.0012912368 -0.043051537 -0.014018284 0.03583276
000110 f0 83 cb 3c 30 11 f6 3c f5 19 3e bb d4 d9 05 bc
       0.024843186 0.030037493 -0.002900717 -0.00816961
000120 74 f2 e0 bb 71 52 0a 3d 4f 8a 88 3c 58 98 aa ba
       -0.00686484 0.03377003 0.016667513 -0.0013015373
000130 e2 f0 24 bc 0b 27 00 bc 9d 2d 0e 3c 11 4c 11 bd
       -0.010067197 -0.007821809 0.008677867 -0.035472933
000140 e3 b8 96 3d 5a 4f 0f bd 97 f5 bc bc d9 91 97 bd
       0.07359483 -0.034987785 -0.023066325 -0.07400865
000150 d7 7c b1 bc eb 20 45 bc 16 83 8f 3b a0 33 1f bd
       -0.021665974 -0.012031774 0.0043796403 -0.038867593
000160 63 d8 af bc 9f 53 e6 bb bc 3e 69 3d 7e 38 02 3d
       -0.021465486 -0.0070290114 0.056944594 0.031792156
000170 59 69 ad b8 c0 c7 46 bc 1a f1 39 3d 39 43 0c 3c
       -8.2689054e-05 -0.012132585 0.045395948 0.008560949
000180 11 c3 8e bc be 20 c4 bb 7d cd ba b9 5a b0 11 3c
       -0.017427 -0.0059853485 -0.00035629785 0.008892143
000190 08 c3 ca 3b f2 a3 28 bd 15 70 3a 3d c5 e8 49 bd
       0.0061878003 -0.041171975 0.045517046 -0.049294252
0001a0 4d 44 ab bc ce cc 33 bb 0d 16 1f bd 12 c7 82 3c
       -0.020906592 -0.0027435306 -0.03883939 0.015964065
0001b0 06 28 c6 3c a0 15 4c 3d ed df 69 3c 07 c6 1b bd
       0.024189007 0.04982531 0.0142745795 -0.03803065
0001c0 ba 05 21 bc 49 a2 e1 3c 03 a3 1f 3d 81 86 23 3d
       -0.0098280255 0.027543204 0.03897382 0.039923195
0001d0 93 ac 0a 3d 12 94 aa ba 2e fd 3c 3a bb eb fd 3c
       0.033855986 -0.0013014099 0.00072093576 0.030996194
0001e0 09 31 72 3c 93 0a b2 bc fd 32 bb bb ed db a4 bb
       0.014782199 -0.021733558 -0.0057128654 -0.0050311
0001f0 4c 84 a2 3d 8e 73 41 bd 6f d2 0d bd dd 25 2e 3d
       0.0793539 -0.047229342 -0.034624513 0.042516578
000200 da db 4b bd 36 ef b1 bb 8d 42 b8 bb c4 f9 58 3c
       -0.049770214 -0.0054301275 -0.005623168 0.0132431425
000210 0d 0f 5d 3c 01 98 5f 3d 41 09 d1 bb 8b 4e 2f 3c
       0.013492358 0.05458832 -0.006379277 0.010699878
000220 7e c2 fd 3a 9f e4 b4 bc 66 a1 07 bc 48 00 e7 3b
       0.0019360331 -0.022081671 -0.0082782265 0.007049594
000230 b1 d7 cb bb b3 67 1a bd db b2 e3 3b 69 98 4e 3c
       -0.006220781 -0.03769655 0.0069488115 0.01260958
000240 4f 1b 0d bd 02 ef cb bc 03 f4 b6 bc 2c 74 72 bc
       -0.03444987 -0.024894241 -0.02233315 -0.014798205
000250 3b 0a 1b 3d b9 1f 74 3d 37 f4 ed bc b3 6d 73 3d
       0.037851553 0.059600566 -0.029047115 0.05943079
000260 37 f8 36 bb 6b 2b 27 bc ba 0d bb 3c 30 48 20 bd
       -0.0027918944 -0.010203223 0.022833694 -0.039131343
000270 ed a1 12 3d ef ca 0d 3c c0 72 0c 3d 2f bc 79 bc
       0.035798956 0.00865434 0.03428912 -0.01524262
000280 05 4f 30 3d e6 e6 0f 3b 9d 4e 17 3d 0d e0 25 bb
       0.04304411 0.0021957695 0.036940206 -0.0025310547
000290 a0 ce 81 bc e3 78 2c 3c 5e 81 b2 bc a4 b4 ca 3c
       -0.015845597 0.0105268685 -0.021790203 0.02474434
0002a0 fe e0 d1 bc c4 d4 1e 3d e3 ff db 3c 26 b9 5a 3b
       -0.02561998 0.038777128 0.026855415 0.0033374517
0002b0 a1 3f 1f bd e5 cd 4a bc ad b8 1e bb d1 a4 0f bd
       -0.03887904 -0.012378191 -0.0024218962 -0.03506929
0002c0 fc 89 75 3d 13 5a b9 bc ee 6b e9 3b 35 2b 9d 3b
       0.059946045 -0.022625959 0.007123462 0.0047964104
0002d0 81 0b 95 3b eb 39 2a bd 45 d5 79 3d 3b bb d9 bc
       0.0045484905 -0.04155914 0.060994405 -0.026578536
0002e0 22 f9 34 3a 6a c8 24 3d 93 31 db 3c d4 4c 31 bb
       0.0006903579 0.040230192 0.026757037 -0.002705385
0002f0 77 24 0f 3d ce 3b 97 3d f5 fe c3 bc 55 07 ae 3c
       0.034946885 0.07384454 -0.023925284 0.02124373
000300 e3 a6 58 3d a5 da 86 3d ba 40 72 3c 09 4b 04 bd
       0.05289353 0.06584672 0.01478594 -0.03229812
000310 73 25 c2 3b 4f 57 79 3d ef 2c be bc 63 8c 89 3d
       0.0059248745 0.06087428 -0.023214785 0.0671623
000320 cc 2e 36 bc 8f 20 b5 bc 79 71 07 bb 11 6d 4a 3d
       -0.011119556 -0.022110252 -0.0020667 0.04942042
000330 26 8c 63 3d 43 cc a6 ba 4b a4 60 3c 2f 3e c2 bd
       0.055553578 -0.001272567 0.0137110455 -0.09484517
000340 eb 92 d4 3c c7 61 dd ba 33 01 5f 3d e1 35 bf 3c
       0.025948962 -0.0016890102 0.054444503 0.023341121
000350 d6 79 fe bc 5e e4 84 bc 3e 01 27 3c e6 df cf 3a
       -0.031063955 -0.016222175 0.010193167 0.0015859574
000360 3c ce 07 bd ba 78 1d 3d 49 07 81 bc 2d d0 58 ba
       -0.033155665 0.038445212 -0.015750544 -0.00082707667
000370 31 38 34 3d 8e 33 62 3d 81 5c a0 3c 04 c0 a5 3b
       0.0439989 0.055224948 0.01957536 0.0050582904
000380 a9 12 54 3d ff 17 d2 3b 63 99 06 bd 46 01 8b 3c
       0.05177561 0.006411552 -0.032861125 0.01696838
000390 14 53 3d 3d e6 df 16 3d 0b 19 d8 bb 92 9c 28 bc
       0.046221808 0.03683462 -0.006594782 -0.0102912355
0003a0 71 99 6d 3d 9a 4c 63 3d 96 32 91 3c ce f5 9d bc
       0.05800766 0.055492975 0.017724317 -0.019282248
0003b0 fd 81 d5 bc 80 ac ea bb 12 3e 0a 3d d7 96 80 3c
       -0.02606296 -0.007161677 0.0337506 0.015696926
0003c0 ae 4d 42 3c 88 2d a3 3c 07 68 eb 3c 9c 70 c0 3c
       0.011859341 0.019919172 0.028736128 0.023491196
0003d0 0d cb 1f 3c 97 83 dd 3c e4 f3 f5 3a 97 30 ca bc
       0.009753001 0.027040286 0.0018764702 -0.024681373
0003e0 24 62 4f 3c b9 e6 45 3d 3e c0 02 bd 61 1c 69 bd
       0.012657676 0.048315737 -0.031921618 -0.05691183
0003f0 45 68 44 3b f7 dd 9e 3a be c1 f5 3c bc 19 24 3c
       0.0029969376 0.0012120594 0.02999961 0.010015901

network_body._body_endoder.seq_layers.0.weight f4 [256, 256]
000000 d5 08 3c bc 9d f7 38 bd df 70 95 3c 85 ca 32 3d
       -0.011476715 -0.045158017 0.018242298 0.04365017
000010 18 2f af bc 96 75 02 3d 47 6c e7 3c 7b e1 93 3d
       -0.02138476 0.03185042 0.028249873 0.07220741
000020 e4 0c e1 3c ab ea 2c 3d ed 5e b1 3d 05 4b 92 bd
       0.027471967 0.042215984 0.08660684 -0.07143215
000030 63 48 2a 3d 7b 70 fd 3c db 73 45 3d 84 30 b9 3b
       0.04157294 0.030937424 0.04820619 0.0056515355
000040 75 22 70 3c ba cf 89 bd 47 da 16 3d 5f 12 a6 bc
       0.014656653 -0.06729074 0.03682926 -0.020272432
000050 bb 4f 31 3d 03 97 d4 bd 41 17 00 be 85 fe d7 3d
       0.043288928 -0.10380366 -0.1250887 0.105465926
000060 f1 3b f0 bc e9 bd 89 bd f5 7a 54 3c 11 c3 36 bd
       -0.029325457 -0.067256756 0.012968768 -0.044619624
000070 8d 23 4e 3c 57 2c 4f bd ec 5d 80 bd 0a 70 95 3d
       0.012581718 -0.050579395 -0.06267914 0.072967604
000080 c8 81 a3 bd d0 ff 45 3d ce c5 a4 3c a8 5c ef 3c
       -0.07983738 0.048339665 0.020113852 0.029218987
000090 f9 34 c2 bd 73 2a 4f bd 03 98 f8 bd 78 14 c8 bc
       -0.0948276 -0.050577592 -0.12138369 -0.024423823
0000a0 43 fc c0 bd c3 8b ae 3c e7 2e 52 bd 08 9e ab bd
       -0.09423115 0.021306878 -0.05131426 -0.083797514
0000b0 37 bf 12 bb dc 90 2c be 5a 82 81 3d 97 67 d3 3c
       -0.0022391805 -0.16852134 0.06323691 0.025806231
0000c0 f1 4d 87 bd 50 71 ac bd 37 3b 79 bd 0f df 8b bd
       -0.06606663 -0.0842005 -0.060847487 -0.068296544
0000d0 ec a7 07 3c 0c 70 bf 3d 39 2c a3 bd 90 5f 30 bd
       0.008279782 0.09347543 -0.07967419 -0.043059886
0000e0 05 2a f2 bd 9d 86 72 bd ae 23 bf 3c b6 cb 13 be
       -0.11824421 -0.05921041 0.023332443 -0.14433178
0000f0 8f 6d a7 3d dd b7 6d bd f7 cf 3b be 75 08 82 3d
       0.081751935 -0.058036674 -0.18341051 0.06349269
000100 4b 90 19 3d e5 9a 94 bd 08 27 9a bd 00 1d 4f bd
       0.037491124 -0.07256106 -0.07526976 -0.050564766
000110 15 a3 d1 3d 62 36 88 bc 58 c9 10 be 53 4d cf 39
       0.102361836 -0.016627494 -0.14139307 0.00039539728
000120 f6 d7 96 ba 64 6c ec bd 05 93 d4 3d 47 b2 55 3d
       -0.0011508453 -0.11544111 0.10379604 0.05217197
000130 7f 3f 91 bd 7e 7f 1e bd 2c cc c0 3c 67 a0 e9 3c
       -0.07092189 -0.038695805 0.023534857 0.028518869
000140 5e 44 17 3e 92 72 c4 bc 9b e8 31 bd 2d be 3c 3d
       0.14772174 -0.023980413 -0.04343472 0.046079803
000150 f5 0e 99 3c 68 e2 50 bd 57 aa 86 bc 13 3e 81 3d
       0.01868389 -0.050997168 -0.016438646 0.06310668
000160 d4 62 04 3c 3f f5 6f bc 8b 32 63 3e 85 34 05 be
       0.008080203 -0.014645874 0.2218725 -0.13008316
000170 ea 47 2e bb 57 f9 9f 3d f6 f5 00 3e 57 6a ff bc
       -0.0026593157 0.0781123 0.12593827 -0.031178636
000180 a9 28 26 bc 48 00 f7 bb 17 ce 1c be ff b9 11 be
       -0.01014153 -0.0075378753 -0.15312992 -0.14231108
000190 f7 f7 b2 bd 9d 03 5a bd c9 59 b6 bd 25 cc 52 3d
       -0.08738702 -0.053226102 -0.08903844 0.05146422
0001a0 ae 3a 8d 3d d3 7e 0b bd a6 bb aa bd 35 95 a7 bd
       0.06895958 -0.034056496 -0.08336572 -0.08182756
0001b0 6f c3 fb bd ec 9b c8 bc 3b f7 c8 3d 6c 80 4c bd
       -0.122931354 -0.024488412 0.098127805 -0.04992716
0001c0 f8 f1 03 3d f9 fb a0 3d 01 ca 35 3e 83 dd 92 3d
       0.03221318 0.0786056 0.1775284 0.07171156
0001d0 71 0e c5 3d 02 85 7b bd d7 34 c6 bd a2 ee 68 bd
       0.09621895 -0.061406143 -0.09678047 -0.056868203
0001e0 97 4b 31 be 1e ef 06 3d 0e ef c9 3d ae e6 30 3d
       -0.17313991 0.032942884 0.09860049 0.043188743
0001f0 5e 15 a8 3d e7 37 85 bc f0 a3 5c bd a6 98 5c be
       0.082072005 -0.016262008 -0.05386728 -0.21542606
000200 fb 5b 41 bd 6c 13 57 be 66 cd 27 bd f8 0d 0f bc
       -0.04720686 -0.21003503 -0.040967368 -0.008731358
000210 04 06 a6 bc a1 61 c4 3c d1 4f 72 bd 6d 3a 19 bd
       -0.02026654 0.023972334 -0.05915815 -0.037409235
000220 45 c8 a4 bd 09 74 3a bd 6d c6 f6 bc 85 0b bf bd
       -0.08046011 -0.045520816 -0.030123914 -0.09328369
000230 f6 f8 1f be f2 56 5f 3d 57 82 6d bd 7e 13 d7 3d
       -0.15622315 0.054526277 -0.05798563 0.10501765
000240 69 b3 80 bd a4 92 d8 3d 57 67 a7 3b 79 72 6d 3b
       -0.0628422 0.105748445 0.0051087546 0.003623156
000250 13 92 4c 3c 6e 55 5a 3e 9a cd 2f bd 72 86 30 bc
       0.012485999 0.21321651 -0.042920686 -0.010774242
000260 eb 75 90 3d 9d 07 72 3b 8b 38 2b 3d 79 05 21 bc
       0.07053741 0.0036930807 0.04180197 -0.009827965
000270 1d bc 02 bd d7 ce 5f 3e 6c 00 c9 3d 0f 58 83 3d
       -0.03191768 0.21856247 0.098145336 0.0641328
000280 c4 ae b9 3d e6 97 8c bd 35 88 00 3e cc 9a f2 bc
       0.09066537 -0.0686491 0.12551959 -0.029614829
000290 c7 b4 80 bd 60 6f 82 bd a8 b9 fc 3b f4 7c c4 bc
       -0.062844805 -0.06368899 0.0077125616 -0.023985364
0002a0 18 ce d8 bd 2a 43 33 be dc 96 42 3d 64 10 26 3d
       -0.10586184 -0.1750609 0.047507152 0.040542975
0002b0 52 60 84 bc 38 8b 8f 3a 07 cb 02 3e 7d 88 b5 bd
       -0.01615921 0.0010951525 0.12772761 -0.08863924
0002c0 a1 4a c3 3d b6 5e 73 bd 89 a5 8a 3d 75 7c fa 3d
       0.09535719 -0.059416495 0.067698546 0.122307695
0002d0 2b a3 5a 3b 23 25 8f bd 7a 1c 59 3c b3 50 84 bd
       0.0033361416 -0.06989505 0.013251418 -0.06460705
0002e0 93 f9 d6 bc bc e4 06 3e d4 2c d1 3d 5e 69 cf 3c
       -0.026242053 0.13173193 0.102136284 0.025318798
0002f0 86 ec dc 3d 94 b9 c2 3c 88 36 3d bd cd bc ed 3b
       0.10787301 0.023770131 -0.046194583 0.007255173
000300 75 08 10 be 0b af d7 3d 15 44 8c bc e8 72 34 3d
       -0.14065726 0.10531434 -0.017122308 0.044054896
000310 8e 7a d2 bd 0b 23 10 3d 87 44 09 be bd 42 e9 3c
       -0.10277282 0.03518967 -0.13405047 0.028474206
000320 ef 1d 1f 3e 92 fc eb 3c 32 90 a5 3b 1d 36 cb bd
       0.15538763 0.028806958 0.00505259 -0.09922431
000330 1b 39 5e bd ff db 71 bd 01 a4 ca bc 63 c4 f0 bc
       -0.05425368 -0.059047695 -0.024736406 -0.02939052
000340 11 a7 02 bb 67 ae 82 bc e4 b5 6d 3e 67 36 66 bd
       -0.0019936005 -0.015952302 0.23213917 -0.056204226
000350 4b 9f 61 bd 71 42 0a be cc 54 69 bd 75 14 3b 3d
       -0.055083554 -0.13501908 -0.056965634 0.045673806
000360 69 06 60 3d 4b a5 d3 3c 3b 4f b8 bc 43 0d c7 bc
       0.054693613 0.025835654 -0.022498718 -0.024298316
000370 de 47 cf bc dc de 68 3d 14 e9 17 3d b8 72 85 bd
       -0.025302824 0.05685316 0.037087515 -0.065160215
000380 00 02 80 3d 3b 76 04 bd af e3 02 3d ac d9 72 bd
       0.062503815 -0.032339316 0.031955417 -0.05928962
000390 8b bb b3 bd d7 99 14 bc 4e a4 8a 3c 18 62 5f bd
       -0.08776005 -0.009069881 0.01692405 -0.05453691
0003a0 d0 50 2e bd 1a 42 6e bc 0f 2b 9e bd 8e 3d d8 3d
       -0.042557538 -0.014542127 -0.077230565 0.105586156
0003b0 37 19 1e bc eb cb 45 3c 65 0b 44 bd 62 99 7d 3c
       -0.009649566 0.012072544 -0.04786243 0.015478464
0003c0 be 43 eb 3c ed 1c 27 3d 95 f1 8e bd 77 c8 9c bd
       0.028718825 0.04079907 -0.06979672 -0.07655423
0003d0 20 4d b7 3c 5f 58 aa 3d cc 87 af 3d 8b c4 1e be
       0.022375643 0.08317637 0.08570823 -0.15504663
0003e0 cb 2c 63 3d 2e 47 08 3e 86 38 a0 bc c5 fe 01 be
       0.05546264 0.13308403 -0.019558202 -0.12694843
0003f0 1e 62 92 3d a5 76 36 3d 64 11 c6 bc e3 1f f1 3d
       0.071476206 0.044546742 -0.024178214 0.1177366

network_body._body_endoder.seq_layers.0.bias f4 [256]
000000 57 63 8b 3c 97 d5 59 3c 3d 31 5a bc 93 da f0 3c
       0.017015142 0.013295553 -0.013317403 0.0294011
000010 5b e6 52 bc d3 3f e6 3b 20 88 a1 3c db bc 68 bc
       -0.012872304 0.0070266514 0.01971823 -0.014205183
000020 a6 25 f7 bb bc 9e 62 bc c2 da 91 bc e7 b7 e4 3c
       -0.00754233 -0.013831791 -0.017804507 0.027919723
000030 e2 31 94 bc 71 58 59 bc b0 07 8c bb dc ff 3f bc
       -0.018090192 -0.013265715 -0.0042733774 -0.0117187165
000040 4f 85 62 3c 82 7e 9b bc dc 8e 8b 3c 40 fd a1 3c
       0.013825729 -0.018981222 0.017035894 0.01977408
000050 c2 fb 8a 3b 01 0b 86 bc f1 1b 07 3d 42 47 47 bc
       0.0042414377 -0.016362669 0.03298563 -0.012162985
000060 25 35 8d bc 31 a6 a2 3c b0 e8 6f 3c 83 4f ae 3c
       -0.017237255 0.019854637 0.014642879 0.021278149
000070 3e ae b1 3c 8c e7 63 3c 6e 4f 7a 3c ab f7 38 3c
       0.02168953 0.013910186 0.015277727 0.011289517
000080 08 52 97 3c 4a 99 55 3b 76 6d 84 3b 05 45 43 bc
       0.018471733 0.0032592588 0.004041369 -0.011918311
000090 ef 81 02 bc 05 6e 8d bc 8c 6e 1b 3c 6c 8c 15 3b
       -0.007965549 -0.017264375 0.009486806 0.0022819294
0000a0 e7 a2 c5 3c da ba a5 3c e3 ab f2 3c 9d 51 d2 3c
       0.02412553 0.0202307 0.029622978 0.025673682
0000b0 5d dd 8f 3c 8a 59 97 bc cf 3c 17 bc 53 9f 9a ba
       0.017561609 -0.018475313 -0.0092308065 -0.001179675
0000c0 99 cb 80 3c 0d 21 66 3a 6e 1f 9b bc ff 5d cb 3c
       0.015722083 0.00087787287 -0.018935885 0.024825094
0000d0 bb fc cf 3c b7 70 f7 bb db 14 6e bc fb 2b ab bc
       0.025389066 -0.0075512785 -0.0145313395 -0.020894995
0000e0 d5 37 fe bb a4 5c 8a bc 38 75 da b9 a9 36 eb 3c
       -0.0077581205 -0.016889878 -0.00041667535 0.028712587
0000f0 8f 9e 82 3c ee e1 95 bc b8 f5 c5 3c 14 59 26 bc
       0.015944747 -0.018296208 0.02416502 -0.010153074
000100 63 6e f2 3c 37 27 9a bc 45 9f 81 3c 3f 9c 30 3d
       0.029593652 -0.018817527 0.015823016 0.043117758
000110 be 5b a4 bc be 2e 83 3c e3 4a ac 3c 45 ce 0d bd
       -0.020063277 0.0160135 0.021031803 -0.034620542
000120 58 86 d5 3b 93 3f 81 bc be 36 37 3b 3e d2 f6 3c
       0.006516259 -0.015777385 0.0027956213 0.030129548
000130 f1 6a 6c 3c 60 78 63 bc 21 ea 8d 3c f9 e5 be bc
       0.014429794 -0.01388368 0.017323555 -0.023303019
000140 8c 76 a3 3c bf 17 46 bb fd 51 e6 3c f1 a6 61 3c
       0.019953988 -0.0030226556 0.028115267 0.013772712
000150 13 72 19 bc 46 ac b5 b9 d1 24 09 bc 5e 49 aa bc
       -0.009365576 -0.00034651364 -0.008370594 -0.020786937
000160 58 45 ab bc 9a b7 5b bc 38 0f 2f 3b dc 8a c1 3a
       -0.02090709 -0.013410473 0.0026711952 0.0014766115
000170 64 31 4f bc a0 f6 cf 3c 96 8c d9 3c 83 1f c7 3c
       -0.012646053 0.025386155 0.026556294 0.024307018
000180 ab 72 53 3b 89 77 17 3c 3f 6a b9 3c 5a 62 c3 bc
       0.0032264392 0.009244808 0.02263367 -0.023850609
000190 1f 8d 22 bb 2d 81 12 3d 38 7d ed 3c 1b 1a 4c 3c
       -0.0024803353 0.035767723 0.028990373 0.012457396
0001a0 ba 33 7d 3c e2 a2 1d bb 36 d0 9b 3c 2d 18 61 3c
       0.015454227 -0.0024053385 0.019020181 0.013738674
0001b0 2f a2 85 3c 53 91 ac 3c bd 67 81 bc 59 9d 1d bc
       0.016312687 0.02106539 -0.015796537 -0.009620034
0001c0 4c 81 bb 3c be d2 2d 3c 1d 99 f6 bb a0 a6 2b bc
       0.022888802 0.010609327 -0.0075255767 -0.010476738
0001d0 ee f1 28 3c 14 7e dc 3c 60 12 b1 ba ae c0 b4 bc
       0.010311587 0.026915587 -0.0013509504 -0.022064533
0001e0 9a 9c 83 bc ef 1d a6 3c cf fe 56 bc 12 5d 6e bc
       -0.016065884 0.020277945 -0.013122275 -0.014548557
0001f0 99 f5 a5 3c cd 9c 95 bc aa 71 ca 3c 31 b4 0b bb
       0.020258712 -0.018263245 0.024712402 -0.002131712
000200 1d ab 18 bc d1 33 c2 3a 00 14 01 bb 80 f9 aa bc
       -0.00931814 0.0014816468 -0.0019695759 -0.020870924
000210 7c 34 42 ba 47 c0 cc bc 78 77 f1 3b ef 0a 48 bc
       -0.00074083335 -0.024994029 0.007368978 -0.012209638
000220 0d b9 b7 3c 76 10 98 3c e4 a3 54 bc f6 96 ec b9
       0.022427106 0.018562537 -0.012978528 -0.00045125902
000230 87 0b cc bc 5a 0d aa 3c 4e dc 2d 3c 86 48 db 3c
       -0.02490784 0.02075832 0.010611607 0.02676798
000240 34 cb 27 bc c9 a1 5e bc 8c b3 be bc 12 a4 0b 3d
       -0.0102413185 -0.013588377 -0.023278974 0.034092017
000250 10 9d 5e 3c 50 48 1a 3c 65 0b 60 3b 2a 96 87 3c
       0.013587251 0.009416655 0.003418648 0.016551096
000260 83 6e bd 3c c2 86 0f bc d2 8f 80 bc b3 c5 96 3c
       0.023123985 -0.008760156 -0.015693579 0.018404817
000270 1e 5a 72 bc d3 00 2b bc 1f 8f b2 bc a6 92 4e 3c
       -0.014791993 -0.010437208 -0.021796761 0.012608206
000280 bf f2 05 3c 37 24 89 3c cc 9b c4 3c c9 79 40 3c
       0.008175551 0.016740901 0.024000071 0.011747786
000290 c8 e7 aa 3c b1 83 51 bc 60 e6 a8 3c 8e b5 47 bc
       0.020862475 -0.012787745 0.020617664 -0.012189282
0002a0 1e 15 1a 3c e7 d0 bf 3c e2 cd 58 3c 76 1b a1 3c
       0.009404449 0.023415042 0.01323268 0.019666415
0002b0 c6 30 81 bb 9b f2 e7 39 49 58 62 bc 6c 47 a8 3c
       -0.003942582 0.0004424051 -0.013814994 0.02054187
0002c0 82 5a b6 3c 4c 3f 76 3c cd fb ee 3c 5d b0 d3 3c
       0.022259954 0.01502974 0.029172802 0.025840933
0002d0 48 ec 65 3c f9 80 fe 3c 23 aa 81 3b 50 f5 10 3b
       0.014033385 0.031067358 0.0039570495 0.0022118874
0002e0 c8 c3 d3 bc 06 21 85 bc 16 f6 bd 3c 1d 30 3b bc
       -0.025850192 -0.016251098 0.023188632 -0.011425045
0002f0 a2 01 31 3c b2 62 bc 3c d2 31 9f 3c 54 46 8e 3c
       0.010803612 0.02299628 0.019432936 0.01736752
000300 b4 47 d2 3b 97 6b a5 39 b2 71 c0 3b fb 3e 9e 3c
       0.006417239 0.00031551413 0.0058729285 0.01931714
000310 f7 46 68 bc 00 42 9f bc db 2f 8e 3c b7 23 63 3c
       -0.014177076 -0.019440651 0.017356804 0.013863496
000320 dc b9 01 3d bf ec 14 bc 4d 30 52 bc 51 9a ab 3c
       0.03167139 -0.009089648 -0.012828899 0.020947607
000330 90 a5 17 bc 6e 90 a4 3c d4 b6 82 3c 32 16 ae 3c
       -0.009255782 0.0200884 0.01595632 0.021250818
000340 2f 1c 9c 3c 08 f3 37 bc 84 18 c3 3c ea 2f 7f 3c
       0.019056408 -0.011227377 0.0238154 0.015575388
000350 65 43 d1 3b c5 bb aa bc 70 a2 ba bb d3 85 97 bb
       0.006386208 -0.020841489 -0.0056956336 -0.0046241074
000360 37 d2 8f 3c 80 44 67 bc 55 4d 2f bc b2 ab 44 3d
       0.017556293 -0.014115453 -0.01069959 0.048015304
000370 f4 97 80 3c a9 3e 07 3a ed 69 1d bc 1f ca f0 3c
       0.015697457 0.00051591784 -0.009607774 0.029393254
000380 5f cf 92 3c 28 58 1b bb e7 a9 c1 3c cf c9 67 bc
       0.017921148 -0.0023703668 0.023640586 -0.014147236
000390 dc 8c c9 3c b3 a2 97 3c 4b 34 c3 bc 16 be a1 bc
       0.0246033 0.018510198 -0.023828646 -0.01974396
0003a0 73 22 7d 3c a8 2a 6d bc 4f cf 9a 3c e1 22 62 bc
       0.015450108 -0.014475502 0.01889768 -0.013802261
0003b0 7c ac c6 3c 02 25 e2 bc 63 90 8f bc 20 bd c5 bb
       0.024252169 -0.027605537 -0.017524904 -0.0060345083
0003c0 a4 6a 84 bb b0 65 a0 3c 96 03 08 3d 27 b8 c2 bb
       -0.004041033 0.019579738 0.033206545 -0.005942363
0003d0 a9 ed a7 3c ce b6 cf bc aa 5b 8f bb d0 82 ec 3c
       0.020499067 -0.025355723 -0.004374941 0.02887097
0003e0 59 5f bf bc 40 9e 4f 3c d2 5c e6 bc 6f 03 de 3b
       -0.023360895 0.012672007 -0.028120432 0.0067753117
0003f0 8e 1b e4 3b 38 46 ba 3c 62 7a d8 3c bc 82 51 3c
       0.0069612926 0.022738561 0.026425544 0.012787517
