results/MultiJumper_v4/SingleJumper/SingleJumper-499936.onnx (onnx, 213574 bytes, 12 tensors)

network_body.observation_encoder.processors.0.conv_layers.0.weight f4 [16, 6, 8, 8]
00000000: 3c67 683d 7a3f 5c3c bafe 10bd 04ac 7c3d
00000010: 4345 313d 9ce9 34bc 8b9d 39bc cee2 f83c
00000020: 5f4c 653d 5c32 a23c 0736 bebc 9884 6a3c
00000030: 7afc 6a3c 065e aebc b33a ac3c 1afd 3fba
00000040: 6242 50bd 7c5c 563d 9358 273d 1bbe 5b3b
00000050: da4e 39bd f944 8fbc 024a bc3c 6fde a6bc
00000060: 6abb 47bc 9392 103d a14a 65bc 25cd 083d
00000070: b37a 9e3c 2d29 b13c 1651 0c3d 6016 333d
00000080: 4c10 6ebc 2be7 2b3d b3ba 45bd e28d 813d
00000090: 217d d13c 7cdb 123c fde4 05bd 826e e1b9
000000a0: 6a27 12bb 32ac 4cbc 7e57 5f3d f642 15bd
000000b0: 6f97 1fbd e382 88bc a9e3 0cbd d52b 223d
000000c0: b4d7 f7bc 1853 ec3a 256f 1cbc 865d 90bd
000000d0: 7246 92bd 0843 0e3d 4bf4 88bc 86ab 30bd
000000e0: d375 9f3c ba32 15bd 62c2 9ebb 026c ffbc
000000f0: dd84 30bd db5e 473d 9cf0 4dbc 09e7 203d
00000100: 9df9 783a 1476 28bc f97d 5a3d fadf 143c
00000110: 2ec8 673d b2bd 513c 63fa a43c 655e 93bc
00000120: ec01 ffba d7f6 d63b 469d 293b 54ec 323d
00000130: cb86 233d d883 d13c 2783 afbc d79f d13c
00000140: 3cae c6bc 596a d73c 8ada 17bd f639 1a3c
00000150: a13a 143d 5f88 1bbd da7f b239 3539 89bd
00000160: 029f 9dbc 8add a23c fdcb adbb 45d1 b63c
00000170: 5430 25bd f7e4 1d3d 1981 04bd 8e83 f33a
00000180: 54ee 673c 2e43 233d 319b 1abd 931a 813d
00000190: e7b9 d8bc 5c6b c03c 06d6 1bbc 30f0 7f3d
000001a0: 9890 a33c 4f36 12bd 60cc 9e39 9f2e 843c
000001b0: f145 00bd f688 183d 05b4 f03b b793 85bc
000001c0: 7a52 babc 10af bdbc 452a 18bd e504 013c
000001d0: 52bc 003d 22bf 2dbd 4203 4e3d 3352 eebb
000001e0: 873e e23c 1544 25bd 6396 ddbc 09e0 e4bc
000001f0: ad0e 2bbd 7237 4b3d 352b ba3c 0f0a cf3c
00000200: 09db 603d 21d2 c6bc 3ab2 4a3d 0846 2fbd
00000210: cc1a a7bc 92cf c43c ef22 8fbc 24e5 dcba
00000220: fdb5 ba3c e485 e5bc b5aa a7b9 d81f d03a
00000230: a029 703d 714f d73c 7e5a 9a3c 9485 5d3d
00000240: 2c54 113c 583e ccbc 26b5 0cbd 7fba efbb
00000250: 0e4e 4b3d aa9b 6f3d 29fb 863d b6b4 fbbc
00000260: c1f2 bfbc f70c 123d f544 b1bc 2fa5 b33c
00000270: 076a 8e3c 1f59 293d f302 793c bafc b63c
00000280: 4af4 5b3d 29f3 32bc 6c38 a63c 60fc 353d
00000290: 0ad3 2d3c ce2c 67bc c6e0 2bbc 4566 973c
000002a0: ce88 4e3b 346e 52bc 4cf3 793d 39eb 1e3d
000002b0: 48cb 383c 80b8 92bc 35f0 243d 7934 e0bc
000002c0: d5c9 3b3d 972b 533d d14f 5c3d 8f51 203d
000002d0: 5a5d d1bc fc42 abbc dc16 023d 8cc0 0d3d
000002e0: d8f8 0bbd 025b 843d 68c1 debb 0e05 b9bc
000002f0: d60a e6bc 3246 d43b ed61 0cbd 0573 f13c
00000300: 13fa 2b3c ed2d 6abc 8613 3c3d e237 0b3c
00000310: a22a 77bc a002 f93c 9f60 f5bb 3fc1 07bb
00000320: 402f 8c3d 911d 843d 911f d53c 91b8 863d
00000330: ff07 443c 53d9 d5bc 54e4 233d 22bd 2b3d
00000340: c919 e9bc bf54 11bd 4bdc abbb 9f1a 83bc
00000350: 739e 6dbc 28ea 14bd 8495 e53c 5d6b 27bb
00000360: 2669 273d bb0c 033d 493a 553c 1851 a43c
00000370: 63c1 933b c235 123d 9590 1d3d 9ba4 463d
00000380: 5b04 b4bb 883b 8c3b 810f fabc 5d61 71bb
00000390: 4e24 adbc 66c7 333d 26ff 623d 1058 913d
000003a0: db87 efbb f979 4b3b e9bb 853c ee90 1b3d
000003b0: 600c 043d 54eb e9bc ad2a 1c3d 9bf3 a4bc
000003c0: bb6f d63b bcc3 2a3d 5bb3 3d3d 6d46 c0bc
000003d0: 0cc4 3bbd 4221 aa3c a1c4 8bbc 110e cfbb
000003e0: a9da a6bc e7f6 003c ad35 573d 4c33 a9bc
000003f0: e200 fbbc 8874 48bd 007b 58bc c839 1bbd
0.056739077 0.013442868 -0.035399176 0.061687484 0.043278944 -0.011042025 -0.011329065 0.030381586
0.055981036 0.019799404 -0.023219122 0.014313839 0.014342422 -0.021285068 0.021024084 -0.0007323787
-0.050844558 0.052334294 0.040855955 0.003353006 -0.045241214 -0.017488943 0.022984508 -0.020369736
-0.012190679 0.035296034 -0.013994844 0.033398766 0.019345617 0.02162608 0.034257017 0.04372251
-0.014530253 0.041968506 -0.048273753 0.0632589 0.025572361 0.008963462 -0.032689083 -0.0004299768
-0.0022301325 -0.012492226 0.0545268 -0.036440812 -0.038962778 -0.016663974 -0.0343968 0.039592583
-0.030254222 0.0018030135 -0.009547983 -0.07049088 -0.071423426 0.034731895 -0.01671805 -0.043132327
0.019465363 -0.03642533 -0.0048449496 -0.031179432 -0.04309546 0.048674446 -0.012569573 0.039282832
0.00094976445 -0.010282058 0.053342793 0.009086603 0.05658739 0.012801575 0.020138925 -0.017989347
-0.0019455529 0.0065601873 0.0025881096 0.04368241 0.03992347 0.025575563 -0.021424843 0.025588913
-0.024253003 0.026295828 -0.03707365 0.009413233 0.036188725 -0.03797185 0.00034046063 -0.067003645
-0.01924086 0.019881029 -0.0053038583 0.022316584 -0.040329292 0.038548436 -0.03234968 0.0018578635
0.014155943 0.03985899 -0.03774566 0.06303897 -0.026455833 0.023488693 -0.009511476 0.06248492
0.019966409 -0.035696324 0.0003028838 0.016135512 -0.0313167 0.03723999 0.0073456788 -0.016305787
-0.022744406 -0.023154765 -0.037149686 0.007874702 0.031429596 -0.042418607 0.050296076 -0.0072729825
0.027617706 -0.04034813 -0.027049249 -0.02793886 -0.041762043 0.049613424 0.02272568 0.025273351
0.05489639 -0.02427012 0.049486376 -0.042791396 -0.02039852 0.024024758 -0.017472712 -0.0016852957
0.022791857 -0.028017946 -0.0003197991 0.0015878631 0.058633447 0.026282998 0.018841978 0.05408247
0.008870166 -0.024932072 -0.034352444 -0.0073159332 0.049634986 0.058498062 0.06590874 -0.030725818
-0.023431184 0.035656895 -0.021639327 0.021929352 0.017384542 0.041344758 0.015198457 0.022337306
0.05369977 -0.010922232 0.020290576 0.044430137 0.010609398 -0.014109803 -0.010490602 0.018481383
0.0031514647 -0.012843657 0.06102304 0.038798545 0.011278935 -0.017910242 0.04026814 -0.02736877
0.04584678 0.051555242 0.053787056 0.03914028 -0.025557209 -0.020905964 0.03176008 0.034607455
-0.034172863 0.06462671 -0.006797958 -0.022585418 -0.028081339 0.0064780945 -0.034273077 0.02947379
0.010496634 -0.014293176 0.045917057 0.00849721 -0.015085848 0.03039676 -0.007488325 -0.002071455
0.0684495 0.06450952 0.026016029 0.06578172 0.011964797 -0.026104605 0.040012673 0.041928418
-0.028454678 -0.03548121 -0.005244767 -0.016003905 -0.014503109 -0.03635612 0.028025396 -0.0025546171
0.04087176 0.031994563 0.013014385 0.0200582 0.0045091375 0.0356958 0.038467962 0.048496824
-0.0054936833 0.0042795576 -0.030524971 -0.0036831715 -0.021135475 0.043891333 0.05541911 0.07096875
-0.0073098964 0.0031048043 0.016324954 0.037980013 0.032238364 -0.028554596 0.038126636 -0.020135691
0.006544081 0.041690573 0.046313625 -0.023471082 -0.04584126 0.020767812 -0.017061533 -0.0063188155
-0.020367937 0.007871366 0.052541424 -0.020654343 -0.03064007 -0.048939258 -0.013212919 -0.0378969

network_body.observation_encoder.processors.0.conv_layers.0.bias f4 [16]
00000000: 26f0 8a3d 0937 993c 8ce6 313c d9d3 26bd
00000010: 966b 263d bb71 02bd 37a2 7e3d d761 403d
00000020: 0824 b33c c5a9 823d 12bf 2abc 2d10 b63c
00000030: 905b babc 1f65 f83c 34f3 0b3d 2c06 ab3c
0.06784086 0.018703 0.010858189 -0.040729377 0.040629946 -0.031846743 0.06216642 0.046968307
0.021867767 0.06380037 -0.010421531 0.02222451 -0.022748739 0.030321656 0.034167483 0.020876966

network_body.observation_encoder.processors.0.conv_layers.2.weight f4 [32, 16, 4, 4]
00000000: ed5f de3b 0439 8dbd 14d1 fbbc 047f 2ebc
00000010: c870 db3c 684f 10bc 09e1 21bd e065 24bc
00000020: dd9a 023c a336 eabc b958 a43c da3f b3bc
00000030: 61cb 3cbd aba7 59bd 82d3 0bbd 3f19 353d
00000040: 70b1 373c 0812 e0bb a3a4 39bd 32ab b7bc
00000050: 66a2 26bc 9541 f5bc fa4a 0b3d 8454 77bc
00000060: 5deb 06bd 202c dbbc 7af9 ec3c 9e1e 853c
00000070: 1d3c b03c 2779 043d fb11 e8bc 8dcd 09bd
00000080: 2f45 7dbc 75e8 143c cd56 913c ad93 4abd
00000090: 95f3 1d3c 2fe8 193a 8439 343c c545 80bd
000000a0: e558 f73c 8237 54bd aa8c e2bb 4a18 9c3c
000000b0: f9b3 35bd 58da 6a3c 0d10 b9bc e3ff 81bd
000000c0: 2b6d 50bd 4bf8 64bd 9c39 16bd 7211 523d
000000d0: 4b4c de3c b84a 5bbd e6e4 c1bc e89d 24bc
000000e0: 111a 5c3c cfcd 0c3d ac60 28bd c6fb 55bd
000000f0: cd60 4e3d 5cb0 8a3c 21bc 0bbc 64d6 50bd
00000100: 8486 4cbc ffb4 4bbd 6ba7 f23c dbbd 783d
00000110: 32d1 80bd 124d 08bd 5d30 863c 177c 403d
00000120: 96f4 733d 7edd 75bd 2dbd c8bc 3b58 05bd
00000130: b21c fe3c 8452 e9bc 50c5 77bd e74f 66bd
00000140: c9a1 68bd 8113 053d 42af 5e3d 4dc7 f73c
00000150: e97f 4fbd c85d fdbb e3c0 0a3c 74d3 c63c
00000160: e03e 673c e9f1 d6bc 7f29 8fbb 7e00 2c3d
00000170: cf1d 83bc fbf8 543d a871 34bd 6cb2 283d
00000180: a73e 3bbd 8e72 80bd 966b 86bd 6c86 403b
00000190: bd9b 9abd 61c3 2fbc 47bf 7abd 328e c73c
000001a0: 26d6 50bd d9f2 9dbc e3fb cd3b e31e 23bc
000001b0: bfeb 5c3c d7ec 89bd e0ce 3fbc f44c 9bbd
000001c0: 1c5d f7bc 32f8 15bd b51a 5abd 4a5f cc3c
000001d0: 35fd 87bb 2b2c 0dbd 985b dabc 76c9 2b3d
000001e0: 1f54 2ebd 169d dd3b 81f0 95bb 6ba3 4bbc
000001f0: 5341 70bd 2845 59bd 9b22 8ebd 26f4 05bc
00000200: 6e9e 59bd accc 533d faca 6b3c 5325 4abb
00000210: 17cc 333c 0577 583d edd7 a9bc 340d 3abd
00000220: f310 35bd 2475 52bd 0885 04bc ca4c 63bd
00000230: df8e a4bc 827a 3fbc 232d 6abc 974b 9f3b
00000240: f3f4 9a3c 01f8 613d 9ac8 4a3d 4a3e 5fbd
00000250: fef0 003d a6cb 02bd 0cc7 02bd eb41 583c
00000260: cc8b 07bd 23a7 203d 7807 1fbc 9361 30bc
00000270: bfda 19bd d9d6 40bd d036 653d 13b7 bfbc
00000280: 3992 803c 620e 103d 3a53 1c3d 0cf1 8d3c
00000290: 0774 8abc 8a4f 433d d774 0f3d 1410 a53c
000002a0: ee2e 25bc 8529 4d3d 1af7 34bd 29eb e2bc
000002b0: aff7 103d ca46 7cbd 74bb 863c 369e 3f3d
000002c0: 3cf0 1a3c 27bd 2c3a 9abd 283d 70b4 97bc
000002d0: cd01 073a b0da d53b 0caa 6f3b 0c15 7fbc
000002e0: 770e e83b bf4c 3d3d 8cba 093d 370d 6abc
000002f0: 51b0 b13b fe54 94bc a2a2 333d 1e49 a7ba
00000300: 9085 87bd 71d4 60bd bbf7 e4bb a107 9d3c
00000310: 52a2 d13c cd3a 163d 80aa f8bc 7a3c a0bc
00000320: e641 8dbb 28fc 45bd 3a3d 8bbd bc8a ebbc
00000330: f945 2abd 694c 8b3b 53e9 893b b650 70bd
00000340: a2ff f1bb 6f7d b6bc 2221 0bbd 04c0 e7bc
00000350: be26 39bd 433d 3c3d 2bf3 42bd e71e 52bd
00000360: f1f7 183d 7815 3d3c 7227 c5bc 42d5 ddbc
00000370: a7c8 0e3c 2500 d53c fcd0 8abd f215 0b3d
00000380: 164d 9a3c 4c73 85bc e990 693d dba2 ca3b
00000390: 73c7 7f3c 9727 a53c 8f44 ecbc acc6 433b
000003a0: 2aae 6abd ca4d a2bb 6cb3 e6bc 50bc 573b
000003b0: d434 693b 539c 853b ee0a ec3b d35b 0c3d
000003c0: e50b 0c3d 776c d23b c2e0 5abd 5c8b 42bc
000003d0: 3525 053d e690 20bd 5655 563c e2e5 f23b
000003e0: bfe5 ffbc 2f09 74bc 4005 463c 2d58 acbc
000003f0: 1793 0d3d d35b 6f3d 8b1d 67bc 6128 503d
0.0067863376 -0.068956405 -0.030739345 -0.0106504 0.026787177 -0.008807994 -0.03952125 -0.0100340545
0.007971493 -0.028590506 0.020061838 -0.021881033 -0.046092395 -0.053138416 -0.034137256 0.04421353
0.011211738 -0.006838087 -0.045323025 -0.0224205 -0.010170555 -0.029938499 0.03400705 -0.015095834
-0.032939304 -0.026754439 0.028927553 0.016249951 0.02151304 0.032342102 -0.028328886 -0.033643294
-0.015458389 0.009088625 0.017741585 -0.04945724 0.009640594 0.0005871085 0.011000041 -0.062633075
0.030193755 -0.05181075 -0.006913741 0.01905455 -0.04436109 0.014334284 -0.022590661 -0.06347635
-0.05088536 -0.055900853 -0.036676034 0.05128617 0.027135989 -0.053538054 -0.023668718 -0.010047413
0.013433949 0.034375962 -0.04110782 -0.052242063 0.050385285 0.016929798 -0.00852874 -0.05098571
-0.012483243 -0.04973316 0.029620847 0.060727935 -0.06289901 -0.033276625 0.016380483 0.04699334
0.059559427 -0.060025685 -0.024504269 -0.032554846 0.031019542 -0.02848173 -0.060490906 -0.056228545
-0.056794915 0.032489303 0.054366358 0.030246401 -0.050659094 -0.007732127 0.008468839 0.02427075
0.014114112 -0.026238399 -0.0043689604 0.041992657 -0.016005425 0.05199526 -0.044053704 0.04118578
-0.045714047 -0.062718496 -0.06563489 0.0029376997 -0.07549236 -0.010727734 -0.061217573 0.024359796
-0.050985478 -0.019280838 0.0062861308 -0.009956094 0.013483941 -0.06734627 -0.011707038 -0.07583037
-0.030195765 -0.03661365 -0.053248126 0.024947781 -0.0041500577 -0.03446595 -0.026655003 0.041940175
-0.042560693 0.006763111 -0.0045757894 -0.012429099 -0.058656048 -0.05304447 -0.06940194 -0.008175885
-0.053129606 0.051708862 0.014391655 -0.0030845 0.010973952 0.05284788 -0.020732844 -0.045422748
-0.044205617 -0.051381245 -0.008088358 -0.055493154 -0.020087657 -0.011686923 -0.014292988 0.004861306
0.018915629 0.055168156 0.049507715 -0.054502763 0.031479828 -0.031932496 -0.031928107 0.01319931
-0.033092305 0.039221894 -0.0097063705 -0.010765451 -0.03756213 -0.047079895 0.055960476 -0.023402726
0.015694724 0.035169967 0.03816531 0.017326854 -0.01690103 0.047683276 0.035023537 0.020149268
-0.01008199 0.050088424 -0.044180967 -0.027700024 0.03539246 -0.061590947 0.016446806 0.04678174
0.00945669 0.0006589465 0.041196443 -0.018518656 0.00051501096 0.0065263137 0.0036569862 -0.015568983
0.0070818025 0.04621577 0.03362517 -0.014285377 0.00542263 -0.018106934 0.04385627 -0.001276288
-0.06617272 -0.0548901 -0.0069875396 0.019168677 0.025590096 0.03667717 -0.030354738 -0.019560087
-0.004310834 -0.048336178 -0.067987874 -0.028752677 -0.041570637 0.004251052 0.0042087226 -0.058670722
-0.00738521 -0.022276608 -0.033967145 -0.028289802 -0.045202963 0.04595686 -0.047595184 -0.051299002
0.03734583 0.011540763 -0.02406666 -0.027079228 0.008714831 0.026001045 -0.06778142 0.033956476
0.018835586 -0.01629033 0.057022963 0.0061839647 0.015611517 0.02016048 -0.028841285 0.0029873056
-0.057295002 -0.004953121 -0.028161727 0.003291864 0.0035584467 0.004077473 0.0072034514 0.034267258
0.03419103 0.0064216214 -0.053437002 -0.011874046 0.032506187 -0.039200686 0.013081869 0.007412658
-0.031237481 -0.014894768 0.012086213 -0.02103814 0.034564104 0.05843718 -0.014106165 0.05081976

network_body.observation_encoder.processors.0.conv_layers.2.bias f4 [32]
00000000: 2e51 30bd 0087 f33c b6e2 523b 4667 70bd
00000010: 46f6 8dbd da62 83bc 6d4e 923d 38bf b0ba
00000020: 79c1 8a3c ebc9 763c 43da 713d ade0 a43d
00000030: fb35 1e3c 2da0 053d 53b9 2fbc 2e9e ad3b
00000040: 1ae4 49bd 2458 42bc 7dc4 553d 3c82 7bbd
00000050: e3c8 093d c313 2dbd 805b 373d 58bd 333d
00000060: 5a7d 28bc c186 483d a059 a03d 4b14 9cbc
00000070: e6c8 9c3d d45a 33bd 9c91 f2bb ba66 15bd
-0.04304617 0.029727459 0.0032178587 -0.05869224 -0.069317386 -0.016038347 0.07143865 -0.0013484722
0.016937958 0.015062789 0.05904604 0.08050666 0.009656425 0.03262346 -0.010725337 0.0052983975
-0.0492898 -0.011861835 0.05218934 -0.061403498 0.033638846 -0.042255174 0.044764996 0.043881744
-0.010283792 0.048956636 0.078295946 -0.019052645 0.07655506 -0.043787792 -0.007402612 -0.03647492

network_body.observation_encoder.processors.0.dense.0.weight f4 [128, 32]
00000000: 1dc4 c1be 8869 05bf 8c61 0d3e e557 9fbe
00000010: 26cf aebe 62b1 26bf 32ee 23be 06ca be3e
00000020: 38a6 9d3d 67b2 533c 215a 6bbd ba4f a73e
00000030: 687a 733e 1fa2 a23d b5cb e83d 0fdc d53d
00000040: 40c9 c8be d2f3 ba3e d6bd cbbe 22f4 2a3e
00000050: 07cc cdbd 2355 ee3d f133 0c3f 4a80 4e3d
00000060: 9565 6f3e 5ce9 16bf 61c6 ba3e d8b9 12bd
00000070: 8fb7 203e 6016 b2bd a476 a03d 737a 86be
00000080: 060a 7b3e 47dd 093d ec62 123e 6d1b 57bd
00000090: d23e a9be baa7 c23e d59b 08be 9194 7ebe
000000a0: 540f bc3e 7eb0 2b3f ec6d c3be d617 d13e
000000b0: 0e76 583d 207b 00be 191f 35be 377f 053f
000000c0: aab8 b53d 7477 2f3d fcf0 9abc 94f3 febd
000000d0: 2fc9 7c3e 81bc 01bd 5c91 1f3e de9a 44be
000000e0: fedb cebe 7e16 f4bd fd0b 533d ec30 7bbe
000000f0: 5736 46be 9f3e 60be 1d83 b1be 3792 c8be
00000100: d324 f43d b664 8b3e d437 ca3c 5db1 c63d
00000110: 03b6 50be 1221 1c3e 0b60 22be db06 763e
00000120: db53 8fbd a998 6b3e bf79 93be 8b7b 4f3e
00000130: 784d 093f f24c 85bd 306c b3bc 1ba8 b83d
00000140: baac 0cbe 927e 923e 8452 063d 46f8 e03e
00000150: 389d 003e 5061 2b3e 91e7 4a3e 2e28 75be
00000160: 6903 113e 404f babe 79de 20be c0e1 1a3e
00000170: 7062 1f3d 6b2c 66be 427f 30bd 4b06 53be
00000180: 94a2 babc 6432 00bc da0b 2bbe 56af d63c
00000190: 125f 21bd 7e6a a5bc 9ac4 0f3f e31d aabd
000001a0: 75a5 463d 49df 70bc ddbe e7bd 8af7 2ebd
000001b0: be65 213e 0036 c4be 9f72 25be 5408 34be
000001c0: 7b85 14bd 166c 623e 1a1f 853e 3c61 76be
000001d0: 9f25 033d 1b55 49be d96f 3d3d 6b27 e93e
000001e0: 4439 acbe d9f8 af3e 1f7f 41bd b4bf a73c
000001f0: 978c 133d f72b 51be ac2b adba 64ed ea3e
00000200: 82bf 5a3e 7424 10bc 0e88 493e 53be 873e
00000210: 403b f83e d078 c33d b9ec dc3e d29d 44bb
00000220: 11bb 66be 0399 c9bd d909 8ebe 8869 7f3e
00000230: 662c ce3e 3563 8f3d 214d 1f3e f352 b63e
00000240: 5080 b83d 6cb7 9c3d 3fd0 b93e 5519 9abe
00000250: 5b11 c7bd 3de9 cd3d 1c9f 04bf 46e5 20bf
00000260: f68f 89bd 7cbd fbbe 3e78 2bbe bd7a 22be
00000270: feb8 f0bd eab2 91bd 0b49 aabd a2dd 8bbe
00000280: a7ab ff3d ea99 493d e82c 02bd 2c1c 8d3d
00000290: 4686 3abd 90a8 b0be 8918 b73d 1e6c 763e
000002a0: 9061 8cbd 81cf 19bf e6b1 db3e 54e8 203e
000002b0: 7ff0 f5bd 5cb0 893e 38ce 9c3e 13ba 04bf
000002c0: bd77 7dbe b811 103f 7761 2b3e 3ee3 dd3e
000002d0: 8390 963d 56b9 c6bd 1e6f 8abe 94c3 b63e
000002e0: af65 66be eab5 7fbe 6f66 03be 0887 adbd
000002f0: 1242 35bb 086c 1f3f 679d be3d 4223 5fbc
00000300: 089d c4be 575d d0bd 39b7 22be c45c 1abe
00000310: 691e 98be 2346 0f3e 22f3 473d 3fd1 66be
00000320: c6f1 49be 8564 953e d274 1ebe 18f8 8bbe
00000330: 2164 cfbe 09f2 3cbe 6f87 03bd eb34 2f3d
00000340: eb33 983d 365f 6ebe 6a2b b1bd 7d73 613e
00000350: 4b0b b1bd dd12 7fbc 8da1 f33d 9f91 86be
00000360: 58c0 073f 4398 54be 0c9b 24be 0059 7d3e
00000370: 324f 7d3a a179 9fbe 9065 d0bd 7957 dd3e
00000380: 86c6 79bd b318 b93d d2e9 a0be 1687 23be
00000390: 0a30 973e e926 97be 0172 98be b999 8c3a
000003a0: 06d9 eb3c b2d3 143e 4e3a b1bd 40ff 473b
000003b0: bcb2 7dbe 5362 2bbe 322b 1d3e 0ca4 8f3d
000003c0: 16ad 23be 3821 303e 49f1 95be fb4d a6bd
000003d0: 0649 8dbe 41dd fd3d 5072 7bbe 1ada 33be
000003e0: ba67 05be 8270 1c3e e995 4dbe ba1e 073d
000003f0: 91db 7d3b bfa4 4c3e 9194 573e d461 59be
-0.37844935 -0.5211415 0.13806742 -0.31121746 -0.34142417 -0.65114415 -0.16008833 0.37263507
0.07697719 0.012920952 -0.057459 0.32678014 0.23777163 0.079410784 0.11366979 0.104423635
-0.39216042 0.36514145 -0.3979327 0.16694692 -0.10048681 0.11637332 0.54766756 0.050415315
0.23378594 -0.5894983 0.36479476 -0.035821766 0.15695022 -0.08695674 0.07835129 -0.26265296
0.24515542 0.033658292 0.14295548 -0.05251639 -0.3305574 0.3801859 -0.13340695 -0.24861361
0.36730444 0.6706618 -0.381698 0.40838498 0.05284696 -0.12546968 -0.17687644 0.5214724
0.088731125 0.04283853 -0.018913738 -0.124488026 0.2468612 -0.031673912 0.15582794 -0.19199702
-0.40402216 -0.119183525 0.051525105 -0.24530381 -0.19356667 -0.21898888 -0.34670344 -0.39174053
0.11921086 0.27225274 0.024684824 0.09701798 -0.20381932 0.1524699 -0.1585695 0.24026053
-0.06998416 0.23007454 -0.28803822 0.20261972 0.5363383 -0.06508817 -0.021902174 0.090164386
-0.13737765 0.2861219 0.032793537 0.43939418 0.12559974 0.1673634 0.19814898 -0.23941109
0.14161457 -0.36388588 -0.15709867 0.1512518 0.038912237 -0.22477882 -0.043090113 -0.2060787
-0.022782601 -0.007824514 -0.1670374 0.026206654 -0.039397307 -0.020192381 0.56159365 -0.08306482
0.048497636 -0.014701673 -0.11315701 -0.04271654 0.15761468 -0.3832245 -0.16157006 -0.17581302
-0.03626011 0.22111544 0.2600029 -0.2406053 0.0320183 -0.19661371 0.046249244 0.45537886
-0.3363744 0.34369543 -0.047240373 0.020477153 0.03602275 -0.20426928 -0.0013211868 0.4588424
0.21362117 -0.008797754 0.19680807 0.26512393 0.48482704 0.095445275 0.43149355 -0.0030001295
-0.22532298 -0.09843638 -0.27741888 0.249426 0.40268248 0.07001344 0.15556766 0.3561016
0.09008849 0.076521724 0.36291692 -0.30097452 -0.09720107 0.10054252 -0.5180528 -0.62849844
-0.067169115 -0.49168003 -0.16745088 -0.15867133 -0.117540345 -0.07114203 -0.08314713 -0.2731753
0.12483912 0.04921905 -0.031781107 0.06890139 -0.04553821 -0.34503603 0.089402266 0.24064681
-0.06854546 -0.6008225 0.42909163 0.15713626 -0.120087616 0.26892364 0.30626082 -0.51846427
-0.24752708 0.56277037 0.16736399 0.43337435 0.07351782 -0.09703319 -0.270379 0.3569609
-0.22499727 -0.24971738 -0.12832044 -0.08473021 -0.002765779 0.6227422 0.09307366 -0.013619246
-0.38401055 -0.10174053 -0.15890206 -0.1507445 -0.297107 0.13991599 0.048815854 -0.22540759
-0.19721135 0.29178253 -0.15474251 -0.27337718 -0.4050608 -0.18451704 -0.03211158 0.042775076
0.074317776 -0.23278508 -0.08650859 0.22016712 -0.08644732 -0.015568462 0.11896048 -0.26282975
0.5302787 -0.20761208 -0.1607477 0.24740982 0.0009662985 -0.31147483 -0.101756215 0.432308
-0.060980342 0.09037914 -0.3142839 -0.159695 0.29528838 -0.29521874 -0.29774478 0.0010726965
0.028790008 0.1453388 -0.08653699 0.003051713 -0.24775213 -0.16736726 0.15348509 0.07013711
-0.15983996 0.17200172 -0.29285648 -0.08120342 -0.27594775 0.123957165 -0.24555326 -0.17563668
-0.1302785 0.15277293 -0.20076717 0.032988288 0.0038735608 0.1998472 0.21052767 -0.21228725

network_body.observation_encoder.processors.0.dense.0.bias f4 [128]
00000000: ba3b 6d3c 0ad8 073d a655 2a3c d256 f63b
00000010: f027 22bc 91cc b33c 2dfb bc3a 1b31 66bc
00000020: 220f 04bc eaf9 9b3c a311 3b3c 7e5f 2d3c
00000030: 55d8 e63b 388c 92bc d9b5 14bb 7744 95bc
00000040: 2240 943c 95c5 1b3c 2e1e 23bc c617 6a3c
00000050: e691 5f3c 647f f139 e19a fc3b 0d25 b03b
00000060: 78b3 253c b21e 8b3c 4e27 fd3b 6511 613b
00000070: 9288 bcbb 548c 3f39 ade7 653c bee2 793a
00000080: 0172 913c 9c47 b73c cd74 9c3c 80a9 babb
00000090: 20b9 573c ce74 923c 7239 cfbb 9a20 e1bb
000000a0: 5596 2cbc 690e dcb9 f33b 963c 4de2 a33c
000000b0: 5a18 dd3a 6f0b 673c 624e 933c b806 e13b
000000c0: 9b86 803c ff41 c1bb 8e04 b2bb afd6 413b
000000d0: 0ba5 573c 44b3 b53b d183 673c 7585 78bc
000000e0: b232 623b 3840 913c 630c 913b 4586 44bb
000000f0: 9e59 823c 3f60 873c 1a61 ad3c 7bd0 0c3c
00000100: 0d77 6b3c 9e8d a13c cabc 503b aec9 ac3c
00000110: 411e 0dbc 03f0 633c 6a08 abbb c803 013c
00000120: a5ca 0d3b 074c 95ba e791 863c 2396 b53c
00000130: 0474 81bb f78b 8f3c 0408 b6bc f362 96bb
00000140: 93cf 81bc ff26 19bc b9b5 2d3c b488 103c
00000150: fe76 773c 9f39 d83b 0257 443c d46d c03c
00000160: 40a7 703a 6ff7 923c 0273 433c 4e40 15bc
00000170: 74f9 8f3c 86bc 13bc 3d5c a2bb b37e 743c
00000180: 85df c33b 72df 93bc 2f43 0a3c ad9a a13c
00000190: cea8 853c e1cc 613a e0e4 993c e93f 50bc
000001a0: 2ef4 12bb a081 743c b368 2bbc 7e5c bc3c
000001b0: e3ad 0a3b 5c35 7a3c b134 a03c 493a 8b3c
000001c0: 863a b3bb 1242 33bb 04ed 1e3d a692 8d3c
000001d0: 5a66 20bb 712e 593c 8cea 953c f5f4 e23b
000001e0: 93b7 9cbb 09ad 91bc c968 a53c e79e 953b
000001f0: d06a a63c cb70 a03c 136b adbc aa51 c6bc
0.014479572 0.033165015 0.010396397 0.007517674 -0.009897217 0.02194813 0.0014418118 -0.014049794
-0.008060249 0.019040067 0.011417779 0.010581849 0.0070448318 -0.017889127 -0.0022691397 -0.018221123
0.018096987 0.009507556 -0.009955926 0.014287895 0.013645625 0.00046062015 0.0077088927 0.0053755105
0.010113589 0.01698241 0.0077256327 0.0034342643 -0.005753585 0.00018267456 0.014032287 0.00095323834
0.017754557 0.022373013 0.019098664 -0.0056964755 0.013166696 0.017877962 -0.0063239867 -0.0068703415
-0.010533889 -0.00041972406 0.018339133 0.02000537 0.0016868219 0.014101847 0.017981712 0.006867256
0.015689185 -0.00589776 -0.005432672 0.0029577424 0.013161908 0.005545052 0.014130549 -0.015168537
0.003451508 0.017730817 0.0044265254 -0.0029987257 0.015911873 0.016525386 0.021164466 0.0085946275
0.014371646 0.019720849 0.0031850808 0.021092262 -0.00861317 0.013912204 -0.005219509 0.007874437
0.0021635678 -0.0011390456 0.016426994 0.022166317 -0.0039505977 0.017522795 -0.022220619 -0.0045894324
-0.01584605 -0.009347676 0.010602408 0.008821655 0.015104054 0.006598666 0.011983635 0.02348987
0.00091801956 0.017940251 0.0119292755 -0.00910957 0.017575003 -0.009017115 -0.0049548433 0.014922786
0.0059775733 -0.018050883 0.008438869 0.019727075 0.016315844 0.0008613598 0.018785894 -0.01271055
-0.0022423374 0.014923483 -0.010461974 0.022993322 0.0021160773 0.015271511 0.019556375 0.016995566
-0.005469623 -0.0027352613 0.038800254 0.017281841 -0.0024475069 0.013255701 0.018300317 0.006926174
-0.004782626 -0.017782705 0.020191567 0.004566062 0.020314604 0.019585034 -0.021169221 -0.024208862

network_body._body_endoder.seq_layers.0.weight f4 [128, 128]
00000000: 36e2 a6bb 94a2 91bb 8a2e 5abe 4d18 c5bd
00000010: ae40 51bc ca08 963d 66b8 953c 4ed8 26bd
00000020: 5d75 8fba 9a06 1b3d 90c3 c03d 2d1c 853d
00000030: d0c1 783d c563 f0bd a213 ab3d 1481 073e
00000040: ba33 353d 0677 7cbd b69a bbbd 32aa df3d
00000050: 469e 813e 1923 0e3d 16f1 073e d97a bfbb
00000060: f8a5 ba3b 0140 603c 5998 4a3d ba33 ae3d
00000070: 1d28 df3d 79c9 ce3d 39aa d23d 0ea7 81ba
00000080: 2a43 3c3d a63e 483d 959b bf3d 77c3 68bd
00000090: 8ae9 c83d b374 173e 9e78 733a 8392 3e3d
000000a0: 9d52 dcbd 6198 bc3d 7902 2c3d db40 833b
000000b0: 95a1 3cbd 3523 763c ebf5 233c fcd7 a63c
000000c0: 7d4d b03d 2740 1abd f16b cbbd db6f 893d
000000d0: 660e 0abe d582 043c 8e1c b03d 8f8d 85bd
000000e0: fea5 c73d dbc8 ba3c f464 ddbd 9ee7 e53c
000000f0: e8de ac3d 50c1 d03d 87bd 363d 3e75 5a3d
00000100: 6983 543e b079 683d 5c04 e53d 3446 85bc
00000110: 8cdb e13d ed0e 8b3c 0830 d33c 1a96 27bd
00000120: 1ae8 d13a 7e20 5c3d 3755 f9bc b4ca 643d
00000130: 2db1 22be e265 033e 883a 1c3e 71b8 a93d
00000140: c2e0 283e f86f 82bd e0ab 8d3d eced 433d
00000150: eef5 abbd b27c 12bc 5c09 593d 1c21 fd3d
00000160: 6afe f0bd 1ccb d13c e128 c5bc afef a33c
00000170: 297c 373e a55f 643d 78ba bdbd 358b 0bbc
00000180: b8bb 1ebd e900 babd 6edf b63d 1715 253c
00000190: 0789 9dbd 44c1 afbc f5e1 f93c 2df7 093d
000001a0: 1502 9ebd bc9e bfbb d097 c7bb f48d debd
000001b0: d224 5d3d a854 3ebd feeb 1dbd 743a 173d
000001c0: 4346 b6bc 6599 48bc b332 dd3c caad e9bc
000001d0: f4ec f13b 274a 5fbd 4f74 1f3d 65a7 7e3d
000001e0: bf83 b8bd 1115 52bd 5e35 373d 9d1f 0d3b
000001f0: a947 b4bc ec88 a9ba 8448 c7bd bfce 1f3e
00000200: 164f ef3c 2b0d ef3d 664a f33d 9450 e63a
00000210: 0a4b 9d3d a09e 4ebd 21dd 1bbd 4106 3dbd
00000220: 83c8 143d 3683 603d 52fb f33a a0a2 76bb
00000230: 9bcb a53c b458 1b3c 878b b4bb 7f29 3d3e
00000240: c407 c4bd 668d c0bc 2b9f 363e 24b0 9dbc
00000250: b43e 99bd 177c 8f3d 77b8 813d e99e ce3d
00000260: 9060 2a3b 71aa ef3d fcb3 023e 3733 4fbb
00000270: 5dad 863c 8674 2c3e 5bf7 0fbc 0fa7 5c3d
00000280: 0475 86bd 411c 15bd c882 d5bd 7e7b 2a3e
00000290: 8805 603d a80d 973d d2df b0bd cddf 94bd
000002a0: 8e76 fe3d 68c9 d23d ed25 03be c4bf 9f3c
000002b0: e6ea 823d a0ad cebd 1f8f 993d 73f9 cebc
000002c0: 1ac9 e73d 732b 93bd e64f 7abd 114a a33d
000002d0: 18c4 183c 8b65 a23d 482e fe3d 874b 143c
000002e0: 008f 533d 85c0 da3d c618 323c 17d5 833d
000002f0: 2822 d13d 5a64 c93d cedf 7e3d a554 aabd
00000300: 51cb ea3b 4719 f33c eb1c 203d 5df2 c23c
00000310: 7afa 1e3d be54 b6bc 2fd3 923b c27b cbbc
00000320: 6feb 61be 06ab 3a3d a7bb 033d 121f acbc
00000330: 55d8 99bd 94e5 58bd 2128 36bd 767a fabc
00000340: 6cb5 45bb dc9e fabc b4f7 c13c b1ba 2d3d
00000350: d1c1 77bd 982c 843d 10ab 823b b42c 5e3c
00000360: be96 ae3d 99d0 213e 4edc dd3d 09aa 1fbd
00000370: 5462 99bd e8f2 1d3d b205 f6bd 09a9 98ba
00000380: e1cf b83b 19c1 7fbd f97d d23d b48d 453c
00000390: d7d8 4b3b 3352 d2bb 80b2 2b3d 74d3 aebd
000003a0: 9ffa bc3d 573a 80bc af3c 16bd 2dcd 283d
000003b0: 4bb3 50bd 946d 663e 36eb 13bd e653 e13d
000003c0: 10c3 63bd f5ba 583d a6ce a8bd b6c9 003d
000003d0: 1b98 0abd e5ba 18bd e7fd 0ebe 5037 a7bd
000003e0: 4f81 803c c71b 433e 8b33 0cbd bce3 bf3d
000003f0: 0a54 fe3d ea4d fa3d 30d5 0fbe a8b2 1bbc
-0.0050928844 -0.0044444297 -0.21306816 -0.09623776 -0.0127717685 0.07325895 0.018276405 -0.040733628
-0.0010945011 0.037848093 0.094123006 0.06499515 0.06073171 -0.117377795 0.08353354 0.13232833
0.044238783 -0.061636947 -0.09160368 0.10921134 0.25316066 0.03470144 0.1327556 -0.005843502
0.0056960545 0.013687135 0.049461696 0.0850596 0.10896323 0.100970216 0.10286374 -0.0009891705
0.04596249 0.04888787 0.09355847 -0.056827035 0.09810169 0.14790611 0.0009287688 0.046526443
-0.10757945 0.092087515 0.041994546 0.004005534 -0.046052534 0.015023042 0.010007362 0.020366661
0.0860853 -0.037658837 -0.099326976 0.06710788 -0.13482055 0.008087833 0.085991964 -0.06521141
0.09748457 0.022800853 -0.10810271 0.028064545 0.084409535 0.101931214 0.04461434 0.053334467
0.20753254 0.056756675 0.11182472 -0.016268827 0.11028203 0.01697489 0.025779739 -0.040914632
0.0016014606 0.053741924 -0.030436141 0.055857375 -0.158879 0.12831834 0.15256703 0.082871325
0.16491988 -0.063690126 0.06917548 0.04783432 -0.08396517 -0.0089408625 0.05298744 0.12359831
-0.11767276 0.025609545 -0.024067344 0.020011751 0.17918457 0.055755276 -0.09264082 -0.008517076
-0.03875324 -0.09082205 0.089293346 0.010075829 -0.076921515 -0.02145446 0.030503253 0.03368299
-0.07715241 -0.00584778 -0.0060910955 -0.10866919 0.053990193 -0.046467453 -0.038555138 0.03692098
-0.0222503 -0.012243603 0.027001714 -0.028525252 0.0073829833 -0.054514077 0.03892928 0.06217136
-0.090095036 -0.05128962 0.04472863 0.0021533736 -0.022006826 -0.0012934483 -0.09730628 0.15606211
0.029212516 0.116724335 0.11879425 0.0017571622 0.07680328 -0.050444245 -0.03805268 -0.046148542
0.036324035 0.054812633 0.0018614328 -0.0037633553 0.020238688 0.009481598 -0.005509797 0.18472861
-0.09571794 -0.023504924 0.17834155 -0.01924903 -0.07482663 0.0700609 0.06334012 0.100889035
0.0025997497 0.11702431 0.12763971 -0.003161622 0.016440088 0.16841325 -0.0087870015 0.053870257
-0.06565288 -0.0364039 -0.10425335 0.16648671 0.054692775 0.073756516 -0.0863644 -0.07269249
0.12424956 0.102923214 -0.12807436 0.01950062 0.063924596 -0.1009171 0.07498001 -0.025265431
0.11317654 -0.07186022 -0.061111353 0.079731114 0.009324096 0.07929524 0.12411171 0.00905121
0.051650047 0.106812514 0.010870164 0.06437128 0.10211593 0.09833594 0.062225156 -0.08316926
0.0071653505 0.02967514 0.03909008 0.023797208 0.03881309 -0.022257205 0.0044807415 -0.024839286
-0.22062467 0.045573257 0.03216138 -0.02101091 -0.07511965 -0.052953318 -0.044471864 -0.030575972
-0.003016795 -0.030593328 0.023677684 0.04241437 -0.060487572 0.06453818 0.0039876774 0.013560463
0.085248455 0.1580223 0.108330354 -0.038980518 -0.07489458 0.03856173 -0.12012805 -0.0011647056
0.0056400155 -0.06244001 0.102779336 0.01205771 0.0031104588 -0.0064184903 0.041918278 -0.08536425
0.0922749 -0.015652819 -0.036678966 0.041211296 -0.050952237 0.22502738 -0.036112987 0.110023305
-0.055605948 0.05291267 -0.0824254 0.031442367 -0.033836465 -0.03728761 -0.13964044 -0.08164847
0.01568666 0.19053565 -0.034228843 0.09369609 0.12418373 0.12221892 -0.14046168 -0.009503044

network_body._body_endoder.seq_layers.0.bias f4 [128]
00000000: 2640 a33c b7de 713c 53f5 1c3c d20f ad3c
00000010: bc00 92bc 34cb 243c fa6e 8bbc e254 303c
00000020: 559a a8bb f6f7 943b 3e9a 61bb d6ce 853c
00000030: eab4 643c 5416 d4bb 51d0 1ebc b9ea 023c
00000040: 0547 f8bb da72 23bc fb84 343c e5a5 903c
00000050: 45f6 08bb b365 893c 7ead 5d3c 99f3 abbc
00000060: ec6b 9f3c 3e3d 933c 9d4c 59bc 5dd0 a73c
00000070: 8c33 76bc 1798 72bc e6ae 6abc 8017 7cbc
00000080: 36f1 81bb 2cc4 8c3c 0a70 9739 d6cf 86bc
00000090: 7623 05bc 593a a8bc 450e 8fbc 8120 803c
000000a0: 1a6e 733c 220c 673b 8fce 6dbc 9218 1a3c
000000b0: f139 a63b 50a3 22bc d690 893c c380 3a3c
000000c0: 99c8 23bc 46b2 75bc 9f98 3c3c b2cd 913b
000000d0: 4aa7 babb b929 033c cca6 973b 65cd 2cbc
000000e0: 5f00 4ebc 0595 2dbc 8888 ecbb 11c1 aebb
000000f0: 795b 3cbb 1230 bdba e649 d03b bde1 24bb
00000100: 8f8f 493c c09a 9f3c 6630 a4bc 1fcb b53c
00000110: 800e a5bb 47a1 b13c a538 513c 3462 073c
00000120: 3a8e 8abc 3065 ddbb 580c 90bc f5ff 993c
00000130: 381a 84bc 83af 0fbc 8577 11bc 4989 a93c
00000140: dabb 213c 6f32 93bc b033 19bb 3533 213c
00000150: 979f 5bbc f286 e0bb 68a3 d7bb 1389 fabb
00000160: ff7a 8bbc 88bf b4bb 1bd5 8f3c 2727 893c
00000170: 5d4c 8b3c 6b87 0fbc 3bd9 17bb e9c2 a93c
00000180: cce7 4f3c 5e8e 5639 fcae 15bc 7202 4abc
00000190: a682 653c e788 60bb ab5d 1c3a 660c f7bb
000001a0: f97c c9ba b0b6 33bc 252f 65bc c651 4abc
000001b0: 084b ab3c 5f8d 693c 42a8 4ebb b74e 983c
000001c0: 0d9e 953c f874 8f3c 34a7 a33c dca7 4ebc
000001d0: 53ab 903c eb54 2abc 4ee4 00bc ad1d 6c3c
000001e0: 122a 5b3c 7a12 003c dd73 8c3c 69fb b5bb
000001f0: 6973 98bb e23f 7f3c 87d6 cbbb 392d 4d3c
0.01992805 0.014762572 0.009579974 0.021125708 -0.017822616 0.010058213 -0.017020691 0.010762425
-0.005145351 0.004546161 -0.003442421 0.016333979 0.013959149 -0.0064723883 -0.009693221 0.007990533
-0.0075768256 -0.009976113 0.011018033 0.01765723 -0.0020898741 0.016772127 0.013530133 -0.02099018
0.01946064 0.017973538 -0.013262895 0.020485098 -0.015026938 -0.014806769 -0.014323926 -0.015386462
-0.003965522 0.017183386 0.0002888444 -0.016456526 -0.00812613 -0.020535635 -0.017462859 0.0156405
0.014857793 0.0035255034 -0.014514579 0.009405272 0.005072825 -0.009926632 0.016792696 0.011383238
-0.009996557 -0.014996117 0.011510997 0.0044495696 -0.005696212 0.008005553 0.004628038 -0.010547017
-0.012573331 -0.010594611 -0.007218424 -0.005333074 -0.0028741045 -0.0014433882 0.0063564656 -0.0025158965
0.012302293 0.01948297 -0.02004261 0.022191582 -0.005037129 0.021683348 0.012769853 0.00826316
-0.016913522 -0.0067564473 -0.017584011 0.018798808 -0.016125783 -0.008769873 -0.008878593 0.020695345
0.009871447 -0.017968385 -0.0023376755 0.009838869 -0.013404748 -0.0068520242 -0.006580759 -0.007645735
-0.017026423 -0.0055159964 0.017557671 0.016742302 0.017004186 -0.0087603135 -0.002317025 0.020722823
0.012689542 0.00020461666 -0.009135958 -0.012329685 0.0140082 -0.0034261288 0.00059648853 -0.00753932
-0.0015372328 -0.010968849 -0.013988291 -0.012348598 0.020909801 0.014254897 -0.0031533395 0.018592222
0.018263841 0.01751183 0.01997719 -0.012613263 0.017659819 -0.010396223 -0.007866932 0.014411372
0.01337673 0.007816905 0.017145092 -0.005553652 -0.00465243 0.015579196 -0.006220642 0.012522989

network_body._body_endoder.seq_layers.2.weight f4 [128, 128]
00000000: 2f22 13bc 0ded 2cbe f8a5 00be 0e9e ca3d
00000010: 328e 883d 98de 35bd 13e1 82bd 1c13 2b3e
00000020: f3d3 c1bb 3f7a b7bd 05a0 363e 8c5a 57bd
00000030: 619c 32be e109 e73c d4c7 343d 6d43 243e
00000040: 559f 1ebe 7c2f 3d3d adad 9a3c ae4e 22bd
00000050: bb90 81bb eaa1 f13d 5d8d ce3d a94d 25bd
00000060: 8f81 35bc 082d 34bc 7637 f33d 1f13 9fbc
00000070: 9b47 a5bc 1755 d83d fda7 c03d abd2 18be
00000080: 1a29 bcbd a3fa 4ebd f325 99bd e397 53bd
00000090: 772a 193e 011e 86ba f2d6 a03d 15ea 763c
000000a0: b99f 063d a090 44bd b1f8 8abc e6a2 fa3c
000000b0: f469 5f3b d0c1 37be 46aa 003d a650 3fbd
000000c0: 6683 2dbd 2add 2f3e b2fc 5b3e 6dbb cabd
000000d0: 5d33 0bbe df47 103e d4b8 c33c 19f9 083e
000000e0: c148 10be 180a c53d 91a4 a4bd 26ae c2bc
000000f0: ae28 f73d 4acd 36be b312 13be 6b0f 2f3d
00000100: a986 22bd d952 173e cedc b0b9 f572 e9bd
00000110: 708b 9a3d 3d17 db3c 38d9 7cbd 286d 52be
00000120: fccf 2a3b 6339 08bb 68bf f73d 93dc dcbd
00000130: 6c70 e6bc 72b7 8f3d f8d5 163e ee07 f5bd
00000140: db5d 49be 7024 24bd 4a77 53bd 5c5c 783d
00000150: 3104 0c3e 6f0f efbc a48f abb7 cd83 cf3c
00000160: 5a31 6f3d 297a ab3c 3a82 2e3e bb77 4abe
00000170: 1413 9bbc 2c32 39bc 6acd 883c 6a80 c4bd
00000180: 9c6c 6d3e d839 de3d dc53 1e39 9662 a6bd
00000190: 24ef 123e f94c a0bb c47b fcbc ea7c 283c
000001a0: 99fc ca3d 53b3 1e3e 27d0 babd 430d 353d
000001b0: 5120 b0bd 3b19 ce3c 2588 b1bc a858 84bd
000001c0: 6d65 0c3e c810 69bd 6e87 043c 2bba b4bd
000001d0: 4699 e73d f862 023b ad87 5dbc c59d 053d
000001e0: 6476 22bd aa90 60be 3af7 8a3d aceb 8bbb
000001f0: 1ed6 233d 27bc 553e 0c1c a43d b03b 0e3d
00000200: 929c 2ebd fa7d 1c3d 0dd5 a4bd 7540 833d
00000210: 8486 52be fc96 483d c761 5bbd 5d34 45be
00000220: 781e c33b 3b17 bdbc c020 41bd 23f4 313a
00000230: 76f1 313e a4ec 1c3d 7c08 2fbc c3b5 febd
00000240: 99b1 033e fbd5 ce3c 94e4 ab3d ad54 79bd
00000250: 1869 04bd 4a41 86bd b37c 9dbc 1a0d 3d3e
00000260: 2d6e c9b9 081f 853d 5bbe 693c 6b25 923d
00000270: c20c 38bb 1e72 45bd 8f36 6cbe 266a 723d
00000280: 35ff e13d 4c90 dc3d cdc1 8c3d b1ed 1e3d
00000290: 2917 9ebd 23f7 96bd b8c8 53bd 33be 13bd
000002a0: b52a 6ebd 81cf 433c 9183 063e 0a92 a7bc
000002b0: 29d1 ebbd 89ea cabd 774c e6bb 1c22 71bd
000002c0: e42e 95bd 18f1 153e 0b2e cc3d f426 b63d
000002d0: f269 c93b 7e52 36bc c160 d33d 248b 493d
000002e0: 34e9 11be a9f6 f83c a9c5 64bc 8f11 3ebd
000002f0: 53ab eebd 98d8 ce3d ae5c b83c 6926 653d
00000300: 0180 8dbd e653 d6bc d011 b83d 4b48 8d3c
00000310: 3c97 fdbd ca5f c83d 529c 0bbd 9d56 a3bd
00000320: de2b 6c3d 1f40 493e d585 16bd 65c8 25be
00000330: 284c e13d eb5f 55bd 553b a63a e383 0ebe
00000340: b370 ccbd 645e 66bc 59ef 55bd 0684 b83d
00000350: dee7 a83c d3f2 d23c c211 203c c643 0ebd
00000360: d1a3 4d3d 96aa c23d 481c 2cbe 8a50 f5bd
00000370: a24c 08bc 06c5 083d 154b 2dbc ab3f 29bc
00000380: b3c1 c1bc d5e8 c0bd 3b1f f1bd 9864 9ebd
00000390: 0698 a1bd 8113 e1bc 2db3 523c f55a 9cbd
000003a0: 3481 f0bc 55c1 ec3d bc58 d4bc a574 fe3d
000003b0: fd1c 9e3c c25b 1bbe bce2 a0bc c991 14be
000003c0: a3bc 343d c73b 92bd 7817 c13d 4532 303e
000003d0: 17ef a8bb bb46 d8bd 1129 083e 61ce cabd
000003e0: ad30 833d 835f c5bc 3857 e4bd d409 c63d
000003f0: 7793 a8bd 4935 bfba 38e9 db3d a15d bcbd
-0.008980318 -0.16887303 -0.12563312 0.09893428 0.066677466 -0.044401735 -0.06390586 0.16706508
-0.005915159 -0.089588635 0.1783448 -0.052576587 -0.17442466 0.028202953 0.044135883 0.16041346
-0.15490468 0.046187863 0.018881643 -0.039625816 -0.003954021 0.11798461 0.10085557 -0.040357266
-0.011078252 -0.010997064 0.11875813 -0.019418297 -0.020175746 0.105631046 0.09407041 -0.14924113
-0.09187527 -0.050531995 -0.07477941 -0.051658522 0.14957605 -0.001023233 0.078534976 0.015070458
0.032867167 -0.047989488 -0.016964288 0.030595254 0.0034090253 -0.17945027 0.031412385 -0.04670777
-0.04236164 0.17174211 0.21483114 -0.0989903 -0.13593812 0.14089917 0.023891844 0.13376273
-0.14090253 0.09621066 -0.08039201 -0.023764681 0.12068306 -0.17851749 -0.14362602 0.042739313
-0.039679203 0.14777698 -0.00033733848 -0.113988794 0.07546127 0.02674448 -0.061730593 -0.20549452
0.002606391 -0.0020786158 0.12097055 -0.10784259 -0.028129779 0.07017411 0.1473006 -0.11964403
-0.1966471 -0.040073812 -0.051627435 0.060634956 0.13673474 -0.029182164 -2.0451676e-05 0.025331402
0.058396675 0.020932274 0.17041865 -0.19772236 -0.018929996 -0.011303466 0.016699512 -0.095948055
0.23185962 0.108508766 0.00015099294 -0.081242725 0.14349037 -0.0048919884 -0.030820735 0.010283688
0.099114604 0.15498094 -0.09121733 0.0442021 -0.08599914 0.025158515 -0.021671364 -0.06462222
0.13710566 -0.05690077 0.00808893 -0.08824571 0.113085315 0.0019895416 -0.013521117 0.032621164
-0.039663687 -0.21930185 0.06785436 -0.0042700376 0.03999912 0.20872556 0.08013162 0.03472489
-0.042629786 0.038206078 -0.08048449 0.064087786 -0.20559126 0.048972115 -0.053560045 -0.19258256
0.00595456 -0.023082366 -0.047150373 0.00067883934 0.17377266 0.038311616 -0.010683175 -0.12437012
0.12860717 0.025248518 0.08393207 -0.06087177 -0.032326788 -0.06555422 -0.0192245 0.18462029
-0.00038419795 0.06500059 0.014266576 0.07136043 -0.0028083776 -0.048204534 -0.23067687 0.059183262
0.11035005 0.1076971 0.06872902 0.0388009 -0.07719261 -0.07371356 -0.051705092 -0.03607006
-0.058146197 0.011951328 0.13136126 -0.020455379 -0.115145035 -0.09908015 -0.0070281583 -0.05887042
-0.07284334 0.14642751 0.099697195 0.088941485 0.006146663 -0.011128066 0.10321189 0.04920496
-0.14249116 0.030391054 -0.0139631415 -0.046403464 -0.11653771 0.10099906 0.02250513 0.055944834
-0.069091804 -0.026163053 0.089877725 0.017246386 -0.12382361 0.09783895 -0.034084626 -0.079755045
0.057659023 0.19653367 -0.036748726 -0.16189726 0.11000854 -0.052093428 0.0012682477 -0.13917498
-0.09982433 -0.01406059 -0.052230213 0.090095565 0.020618375 0.025750553 0.009769859 -0.034732603
0.050205056 0.09505193 -0.16807663 -0.11978252 -0.008319052 0.03339102 -0.010576983 -0.010330121
-0.023651933 -0.09419409 -0.11773535 -0.077340305 -0.07890324 -0.02747512 0.012860102 -0.07634536
-0.029358484 0.11560313 -0.025921218 0.12424592 0.019300932 -0.15171722 -0.019639365 -0.14508738
0.04412521 -0.07140308 0.094283044 0.17206676 -0.005155455 -0.10560366 0.13296916 -0.09902645
0.064057685 -0.024093395 -0.11149448 0.09669843 -0.08231252 -0.0014588024 0.10737842 -0.09197546

network_body._body_endoder.seq_layers.2.bias f4 [128]
00000000: 2468 83bc 3605 8abc 93b9 713c f18f a33c
00000010: 82e6 7ebc 9185 8f3c a59c 3e3c 8346 98bc
00000020: bad6 ae3c 0b03 3e3c e860 043c 323d ad3c
00000030: 7506 943b f249 96bc 0731 503c fe7b 46bc
00000040: b163 42bc dfb1 88bc 40e8 823c f77e 7f3c
00000050: 1162 70ba d869 8d3c 55f9 1d3c 73e5 19bc
00000060: 6d78 883b 74b4 e8bb 6bdf 993c b7d4 1cbc
00000070: 748f 393c e7ac 23bc a1c4 9d3c 08fb 953c
00000080: 0626 833c 986e 0a3b 8686 833c f364 413c
00000090: e1a3 78bc 9a5a 88bc 8017 44bc 8d14 b63c
000000a0: edb3 ffbb 78c5 acbb b52e a83c 8933 873c
000000b0: ca88 59bc 16b9 c93b dc7d 493a ba91 bc3c
000000c0: a3cc 6f3c 262b a1bc 7397 f7bb 490e a03c
000000d0: ac1a b83c 294d a83c b235 9dbc 99ae 7bbb
000000e0: bec5 7f3c 80ef 05bc 69cd 81bc ef3e 4fbc
000000f0: bf8a b1bb 0e7f 4e3c e0d6 b73c 8a82 83bc
00000100: cdf1 7c3c 135a 843c 30f9 6b3c ae3e 313c
00000110: 95e0 983c e4d1 b1b9 c2b2 64bc 59c5 8a3b
00000120: e428 4bbc a528 9a3c a57e 633b 0d26 54bc
00000130: 99cc f73a 4f62 37bc 8e7b efbb 0bff 5dbc
00000140: 4b58 9b3b f917 9f3c df8d 4b3c 86f8 05bc
00000150: 2bc2 8d3c 218d 853c 75bb 35bc ef9a 3bbc
00000160: 025c bdbb 9e92 4ebc 43d7 16bc f9f7 32bc
00000170: 32b6 8a3c 98d3 47bc 0187 51bc 2e00 1bbc
00000180: 0a46 eabb cb11 ac3c f99e 27bc 1166 febb
00000190: cdbd 94bb b93f ad3c 303e 38bc d105 1ebc
000001a0: a723 3bbc b773 723c 9bf6 a4bc 85d9 9c3c
000001b0: 51fe 25bc 23d4 5d3c 7726 84bb 011b 62bc
000001c0: 2d7f 993c 82ba 39bc f9ec 69bc 3c87 e9bb
000001d0: 9752 633c e4d0 a2bb 2547 9cbc acd3 af3c
000001e0: ed4f af3c 2345 63bb e330 5b3c ec71 2d3c
000001f0: 7823 0d3c c624 94bc bdd4 d23b 8886 9a3c
-0.016040869 -0.016848188 0.014753717 0.019966098 -0.015557887 0.017519744 0.011634027 -0.01858831
0.021342624 0.011597405 0.008079745 0.021147344 0.0045173713 -0.018345807 0.0127070015 -0.012114523
-0.011864589 -0.016686378 0.015979886 0.015594236 -0.00091698865 0.017262384 0.009641965 -0.009393084
0.0041647465 -0.00710159 0.018783292 -0.0095722 0.011325706 -0.009989954 0.019258799 0.018308178
0.016009342 0.0021123048 0.016055357 0.011803853 -0.0151757905 -0.016644765 -0.011968493 0.022226596
-0.0078034312 -0.0052725635 0.020530084 0.016504066 -0.013277242 0.006156097 0.0007686296 0.023018707
0.014636192 -0.019673895 -0.007555896 0.019538062 0.022473656 0.020544605 -0.019190643 -0.003840363
0.01561111 -0.008174777 -0.015845018 -0.012649282 -0.005418151 0.012603534 0.022441328 -0.016053457
0.015438509 0.016156232 0.014402673 0.010818167 0.018661777 -0.00033916452 -0.013958635 0.0042349515
-0.012399886 0.018818209 0.0034712937 -0.012948525 0.0018905579 -0.011192872 -0.00730843 -0.0135495765
0.00474075 0.01942061 0.012423961 -0.008176928 0.0173045 0.016302647 -0.0110920565 -0.011450513
-0.0057787905 -0.012608198 -0.009206596 -0.010923379 0.01693258 -0.012196444 -0.012788535 -0.009460492
-0.0071494626 0.021004578 -0.010230773 -0.007763632 -0.0045392276 0.02114855 -0.011245295 -0.009644941
-0.011422074 0.014798096 -0.020137122 0.01914669 -0.010131435 0.013539347 -0.0040329057 -0.013800384
0.0187374 -0.011335971 -0.01427769 -0.007126717 0.013874671 -0.0049687494 -0.019076893 0.021463238
0.021400416 -0.003467866 0.013378355 0.010586243 0.008614413 -0.018083941 0.006434052 0.018862978

action_model._discrete_distribution.branches.0.weight f4 [5, 128]
00000000: 3851 093d ff00 1c3d f568 24bd f3ae 40bd
00000010: 2a6a 0c3d d9d5 5cbd f5a6 06bd cfbf 1e3d
00000020: 3e06 39bd de15 16bd 046b 4bbd 27e6 2fbd
00000030: 588b d9bc 7e94 d03c 0005 0cbd 9127 223d
00000040: cbd6 223d d759 933c 9b72 08bd f92f 13bd
00000050: d1bc 0a3d daad 50bd 220b 3abd ac08 7a3d
00000060: 9a4b 2e3c 60bf b13c 1f7b 28bd 2bbe f63c
00000070: 0d7d 21bd c307 e53c a955 84bd 0fe7 36bd
00000080: 41f4 f9bc 1066 9b3c 1e52 27bd 17d8 0ebd
00000090: a457 0d3d fc0e ee3c 267e d43c e335 42bd
000000a0: df21 483c ef35 d13c 7feb 16bd b9da 2cbd
000000b0: 890d ad3c 8693 fcbc 8bfa a2bc a0d7 36bd
000000c0: 6a43 32bd a17f d83c e6a2 e63c 4e34 21bd
000000d0: e35a 4bbd 2517 66bd 6fb7 f23c 3f8a cb3c
000000e0: 0bbf 18bd 2db4 053d 22d5 423d 20c6 e53c
000000f0: 617a f13c e33e 2fbd c978 62bd 5685 a23c
00000100: d5f1 8dbc dd99 30bd b65c 0ebd fde8 da3b
00000110: 6c6a 59bd a357 98bc 28ee 163d bd47 9bbc
00000120: 9b3d be3c 6f1f 2cbd a968 ac3c 666f 003d
00000130: 40cc fb3c d89a 333d f907 b33c c99d 0e3d
00000140: 7bf4 ac3c bb36 4cbd e3d1 edbc f882 393d
00000150: e9fe 57bd 15f7 12bd e575 e23c ca47 f03c
00000160: 770f 8dbc f4e6 1e3d 6c9b 103d d6b8 063d
00000170: 8546 2fbd 7f18 083d 9d78 033d 841e b43c
00000180: 1b1d 383d 3c32 3fbd befe a43c aa6a 003b
00000190: 1e58 9a3c 8a1f 3abd 5446 f93c a5ae b03c
000001a0: 8a99 1d3d e0ac 0cbd 971c 1e3d 1dca 4bbd
000001b0: 055a 273d 7e28 05bd 0e74 c6bc db57 e53c
000001c0: caec 22bd 2605 c33c 0485 f13c c76e d13c
000001d0: 08ac 38bd ac23 923c dc78 e63c 5a62 60bd
000001e0: 8599 45bd 3643 1bbc 1ad1 19bd ed3e 2abd
000001f0: 600b 8bbc 41f4 9a3c a658 a737 f5c0 20bd
00000200: d0e8 43bc 641f 0dba 2d22 a53a 2bbb 043b
00000210: 8c7f 40bb dd2c 5fb9 b74c 82bb b4b3 2abb
00000220: 59d9 2c3c a949 3d3c 0755 6fbc c6b0 2b3c
00000230: 007d 1f3d 070d 94bc 1708 403c 6cc3 5abc
00000240: 6ab8 7bbc 5d28 b4bc 73aa f73b c344 6e3c
00000250: e7b4 d63a cef5 eaba f087 673c 589b 153b
00000260: a291 0bbb 17d4 2bbb 012f e93a 547a 9ebc
00000270: bc70 5f3b 621c 9bbc a0c0 943b fbf9 273c
00000280: f5c0 3d3b f3a2 29bc 3a51 813b 30d8 973c
00000290: c115 24bb 2056 2ebc 5535 82bc 0ea9 1c3c
000002a0: bc12 e83b b4ea ebbb 1948 8f3c 08b3 fd3b
000002b0: 8292 27bc 34ad ab3b d542 10bc dccb 7e3c
000002c0: 4003 0d3d 2a2e 18bc 05d1 d73b 6c9d e13b
000002d0: aeff 903c b090 e3bb daba 173b 0d7d 6cbc
000002e0: 8b89 de3b ce78 7bbc 77c8 6cbc 7275 aebc
000002f0: 44a4 9fbc 4c47 da3c efa5 2d3c ff20 4fbc
00000300: 51ae 593c 5c0a ddbb 53a7 593c 1461 d5bb
00000310: 726d 183c 991a 4c3c 3229 80bb a987 f93b
00000320: 0195 2ebc b6c3 243c 3e20 f93b 4372 97bc
00000330: 31e0 69bc 1b3d 03bc 9369 91bc d7c0 f5bb
00000340: f62f 1abc e739 503c f4ec 693c c969 89ba
00000350: d2d0 4b3c d292 9b3c bf9f 13bc ffcb 18bc
00000360: 1f10 ce3a 7063 e5bb 14e3 aebc 15e3 093c
00000370: 80e9 25bb d0dd 9ebc 496d 5ebb 4466 a8bc
00000380: 4ec3 973c 7cd0 d03c 6f2e 4dbb 96e9 6d3b
00000390: 5b04 61bc 1772 a23b e3fc 1c3a dc62 2dbc
000003a0: a8fa 30bc 62a2 1e3c d6d4 5dbc e92f 483b
000003b0: cedd 07bc eca3 a53c 5651 aa3a 951f 49bc
000003c0: 24a3 ef3b 838e 09bc b0f6 38bc a5bc 3dbc
000003d0: 24e6 a93c 2b9d debc 97ce 54bc 763f 353c
000003e0: 91e2 a83b 94b8 253c 00de 2a3c fc85 023a
000003f0: f209 963b 3947 45bc 75ed d438 5211 043c
0.03352472 0.038086887 -0.040139157 -0.047041845 0.034280933 -0.05391488 -0.032874066 0.03875714
-0.04517197 -0.036641948 -0.049662605 -0.0429441 -0.026555702 0.025461432 -0.034184456 0.039588515
0.039755624 0.017987175 -0.03331242 -0.035934422 0.033871476 -0.050947048 -0.045420773 0.061043426
0.010638142 0.0216977 -0.041133042 0.030119976 -0.0394259 0.027957803 -0.06461651 -0.04465395
-0.030511977 0.018969566 -0.040849797 -0.034874048 0.03450741 0.02905988 0.025939059 -0.04741467
0.012215107 0.025538413 -0.03684568 -0.042200778 0.021124618 -0.030832063 -0.019894859 -0.04463923
-0.043521322 0.026428046 0.028153848 -0.039356522 -0.049647223 -0.056174416 0.029628484 0.024846194
-0.037291568 0.032642532 0.04756654 0.028048575 0.0294773 -0.042784583 -0.05529097 0.01983897
-0.017327229 -0.043115485 -0.034756385 0.0066806064 -0.053080007 -0.018596476 0.036848217 -0.018955106
0.023222735 -0.042022165 0.021046 0.031356238 0.030737042 0.043848842 0.021854388 0.034818444
0.021112671 -0.049856883 -0.029030746 0.045290917 -0.052733336 -0.035880167 0.027644107 0.029331107
-0.017219288 0.038794473 0.03530447 0.032891117 -0.042791862 0.033226486 0.032097448 0.021987207
0.044949632 -0.046678767 0.020141002 0.0019594827 0.018840846 -0.045440234 0.030429043 0.021567652
0.038476504 -0.034344554 0.038601484 -0.049753297 0.040857334 -0.03250932 -0.024225261 0.027995994
-0.0397766 0.023806166 0.029482372 0.025565518 -0.045085937 0.017839275 0.028133802 -0.054781295
-0.04824211 -0.009476474 -0.03755293 -0.041563917 -0.016973197 0.018915297 1.9949232e-05 -0.03924652
-0.011957362 -0.0005383401 0.0012598686 0.0020253162 -0.00293729 -0.0002128365 -0.0039764303 -0.0026047053
0.010549867 0.0115532065 -0.014607674 0.010479158 0.03893757 -0.018072618 0.011720679 -0.013352256
-0.015363792 -0.021991903 0.007558161 0.014542761 0.0016380817 -0.0017926039 0.014131531 0.0022828188
-0.002129652 -0.0026218945 0.0017790498 -0.01934544 0.0034094295 -0.018934432 0.0045395643 0.010252471
0.0028954123 -0.0103537915 0.0039464505 0.018535703 -0.002503738 -0.010640651 -0.015894571 0.00956179
0.0070823114 -0.0071996097 0.017490434 0.0077422895 -0.010227801 0.0052391533 -0.0088049965 0.015551534
0.034426928 -0.00928835 0.0065861964 0.006885221 0.017700043 -0.0069447383 0.0023152144 -0.014434111
0.0067912987 -0.015348626 -0.014452091 -0.021296237 -0.019487508 0.026645325 0.010598644 -0.012642144
0.013286189 -0.0067456197 0.013284522 -0.0065118168 0.009303438 0.012457513 -0.003911161 0.007615049
-0.0106556425 0.010056427 0.0076027205 -0.018487101 -0.014274643 -0.008010174 -0.017750537 -0.007499795
-0.009410849 0.0127091175 0.014277685 -0.0010483797 0.012439923 0.018990908 -0.009010254 -0.00932598
0.0015721357 -0.0070003793 -0.021348514 0.008415957 -0.0025316179 -0.019392878 -0.003393965 -0.020556577
0.018525746 0.025490038 -0.0031308194 0.0036302558 -0.013733949 0.004957448 0.0005988611 -0.010582652
-0.010801949 0.00968227 -0.013539514 0.0030546135 -0.008292628 0.020219766 0.0012994211 -0.012275596
0.007313149 -0.008395794 -0.011289284 -0.011580621 0.020739622 -0.027174553 -0.012988708 0.011062494
0.005153962 0.010114808 0.0104289055 0.00049790717 0.0045788223 -0.012040907 0.000101531776 0.00806077

action_model._discrete_distribution.branches.0.bias f4 [5]
00000000: 4521 aebc 5dc3 083c da05 5b3c c2ce 1e3c
00000010: 5f76 193c
-0.021256099 0.0083473595 0.013368094 0.00969285 0.009366601
