results/GroupJumper_Skill1_v5/GroupJumper/GroupJumper-1688490.onnx (onnx, 627479 bytes, 15 tensors)

discrete_act_size_vector f4 [1, 2]
000000 00 00 a0 40 00 00 40 40
       5.0 3.0

network_body.observation_encoder.processors.0.conv_layers.0.weight f4 [16, 5, 8, 8]
000000 c7 a6 e9 3e c4 a6 83 3e 74 18 82 be e8 b7 0e 3e
       0.45635054 0.2571317 -0.2540928 0.13937342
000010 ab e9 0e be 56 dd 8a be 55 a6 d8 3e b0 ca 33 3e
       -0.13956325 -0.2712199 0.423144 0.17557788
000020 e1 fb 94 bd 8c 72 34 be bb be 4b be fb cf f3 bd
       -0.072746046 -0.17621821 -0.19896977 -0.119049035
000030 e8 9c 4e 3d 6a da ec bd f8 3b 94 bd e6 33 92 3e
       0.050442606 -0.11565097 -0.07238001 0.2855522
000040 b6 cf 2b bd 1b 73 f9 3d ed 2c 4c 3f eb f7 b1 be
       -0.041946135 0.12180158 0.7975605 -0.3475946
000050 7b 01 5c bc 07 57 af be 88 4a 1c 3f 15 2b 37 3e
       -0.013428087 -0.34246084 0.61051226 0.17887528
000060 f4 5c 25 3d e3 fa 1d 3e c7 48 d7 bd d4 83 b4 bc
       0.04037185 0.15427737 -0.10511928 -0.022035517
000070 8e da c8 3e dc 2d 6e 3e 1f b6 d1 3d 28 98 60 3e
       0.39229244 0.23259681 0.10239815 0.21933043
000080 91 09 8a bd 2a 7a cf 3d 5f 4f 83 3e 15 ef a5 3d
       -0.06740106 0.10130723 0.25646493 0.08102242
000090 04 06 2c be 77 92 d5 bd 7f 93 b6 3e 9e fd 16 be
       -0.1679917 -0.104283266 0.35659406 -0.14745185
0000a0 f9 a9 39 3e e4 ef 34 3d 21 10 a7 3e 52 97 21 bd
       0.18131246 0.04417409 0.32629493 -0.03945095
0000b0 80 6c 69 be 9e 08 a3 3e 97 12 8d 3e 2b b9 27 3e
       -0.22795296 0.31842512 0.27553245 0.1637923
0000c0 63 87 83 3e ab b5 9d bd 29 c3 e9 3e 25 d5 ee 3e
       0.2568923 -0.07700666 0.45656708 0.4664699
0000d0 06 82 e1 3d 66 a6 eb bc db 53 5f 3e 01 16 cc bd
       0.11011128 -0.028765868 0.21809332 -0.099651344
0000e0 47 cd cc be 3d 53 b6 bd 8b 4d 50 bd 4b 1c da 3d
       -0.40000364 -0.08902595 -0.0508552 0.10649928
0000f0 c9 58 06 be 48 16 81 3e 56 cb 12 3f a3 62 e8 3d
       -0.13119806 0.25212312 0.57341516 0.113469385
000100 93 50 c1 be 88 c9 b6 3c 17 8a 30 ba 6a 88 39 3e
       -0.37756786 0.022312894 -0.0006734444 0.18118444
000110 29 b3 29 3e f7 47 15 be e7 5b 52 bd 3f 4c 2c 3e
       0.1657225 -0.14578234 -0.051357176 0.1682596
000120 e0 fd 89 be 88 9e ba be 0c 09 c7 3e e2 e0 0e be
       -0.26951504 -0.36449075 0.3887409 -0.13952973
000130 6a d8 32 3f 3f 49 03 3e 3c 2b 27 3e aa 63 2c bd
       0.6986147 0.1282091 0.16325086 -0.042087235
000140 09 a6 ad 3e 32 bc 40 3e ff b1 0d 3c eb 33 a2 be
       0.33915737 0.18821791 0.008648395 -0.31680235
000150 90 47 2b be 2a bd 2b 3e 62 6b 4d bc 4b dd 6e 3c
       -0.16726518 0.16771379 -0.012537809 0.014579128
000160 18 83 44 3e 4b 10 4a 3c ad eb 1f 3f da a2 83 3c
       0.19190633 0.012332986 0.6246899 0.016068865
000170 0b a6 47 3d 36 08 c5 3e 85 c3 40 3e 68 dc 9b 3e
       0.048742335 0.38482827 0.18824585 0.30441594
000180 59 1a 9a 3e 2d f7 4d 3e 28 f0 25 bd 02 65 6f 3e
       0.30098227 0.20113821 -0.040512234 0.23378375
000190 f8 c6 09 3f 45 20 34 3e 5c 3f c2 bd d2 22 03 be
       0.5381923 0.17590435 -0.09484741 -0.12806252
0001a0 7c 70 f2 be bf 1a 4f 3e 82 1a 65 be b2 43 8e 3e
       -0.47351444 0.20225047 -0.22373393 0.27786022
0001b0 c5 b9 0d 3e d1 ac e0 bc 98 66 a5 be 38 73 89 3e
       0.13840397 -0.027426155 -0.32304835 0.26845717
0001c0 20 85 f0 3d 46 41 53 bd 7a 4e 15 3f f4 4c 0a bd
       0.117441416 -0.05157592 0.5832287 -0.033764794
0001d0 54 21 e0 3d 7b d9 09 be 94 d8 49 3e 5d 5c 53 be
       0.10943857 -0.13461868 0.19711524 -0.20640703
0001e0 2a 51 80 be d0 4a 00 bd ed 0f 92 3e 01 a1 52 be
       -0.25061923 -0.031321347 0.28527775 -0.2056923
0001f0 b2 68 81 be f0 1d 63 be bd 62 41 be 91 2d 05 be
       -0.2527519 -0.22179389 -0.18885322 -0.13005663
000200 c9 c8 42 3e 74 fb 01 bf 06 de 71 3e 3a 36 9f be
       0.19021906 -0.5077431 0.23619851 -0.3109606
000210 eb 7a b6 3d f1 7e d9 3d a0 ad 63 be 19 7c ad 3e
       0.089101635 0.10619915 -0.22234201 0.33883741
000220 97 30 8e be 57 53 b9 bd 0b f7 06 3e 74 d3 94 3d
       -0.27771446 -0.09049099 0.13180177 0.07266894
000230 37 0a c2 be 10 14 90 3e 2b 91 9d 3e bf 43 08 3e
       -0.37898418 0.28140306 0.30774817 0.13307093
000240 95 9f d9 bd e8 ec 31 3e e5 8e 8d bd 33 e3 ee 3c
       -0.10626141 0.17375529 -0.069120206 0.029161071
000250 2a e3 c6 3e a9 fc 83 3e c7 96 f0 3e 33 13 86 be
       0.38845187 0.25778702 0.46990034 -0.26186523
000260 66 be 07 3e 85 5d cd bd e7 b7 9b 3e 94 7c e4 3d
       0.13256225 -0.10027603 0.30413744 0.11156574
000270 07 c6 90 be 08 be b5 3e ff be 89 be 22 9d 3f be
       -0.28276083 0.35496545 -0.2690353 -0.18712285
000280 2d f2 fd 3e d0 63 5a bd eb 76 aa 3d fd e9 0c 3f
       0.49598828 -0.053317845 0.08323463 0.5504454
000290 cb b6 1a be 6b 08 36 bc 9d 20 02 bd e3 b3 0a 3e
       -0.15108792 -0.011110405 -0.031769384 0.13545184
0002a0 f3 0e 4e be 6f 41 a2 be 35 fb b6 3e 4d a3 3f be
       -0.2012289 -0.31690547 0.3573853 -0.18714638
0002b0 c0 c2 ca be 2e 72 f6 bc ae 27 5e 3e 1e 1d 07 bf
       -0.39601707 -0.030083742 0.21694824 -0.52778804
0002c0 23 12 c3 be 23 68 2d 3e a8 82 83 be cd 6c 40 be
       -0.38099775 0.16934256 -0.2568562 -0.18791504
0002d0 3a fd 9b bd ed 06 81 3d 0a f9 04 3f 4e 65 87 3e
       -0.076166585 0.06300149 0.51942503 0.26444477
0002e0 06 0c 60 3e 80 16 7c be e7 eb 66 be dc 14 11 be
       0.21879587 -0.24617958 -0.22550927 -0.14168113
0002f0 d2 fb 0f 3d 9e 5a c1 3e dc e3 f2 3d dd 7b ed 3d
       0.035152264 0.37764448 0.11859867 0.11595891
000300 b2 33 2b bd e0 45 a6 bd 9a 9e 50 3e af 9b 91 3e
       -0.041797347 -0.08118796 0.20373002 0.2843909
000310 fd 2e 47 3e ef ed 65 be 64 58 0b 3d 3d 86 ab be
       0.19451518 -0.22454046 0.034019843 -0.33500853
000320 25 9c 92 be 1f aa e2 3d 18 bb b7 bd 9c 66 25 3d
       -0.28634754 0.11067604 -0.08971232 0.04038106
000330 89 04 53 ba da 68 9c 3d e9 34 39 be 36 9e 86 3e
       -0.0008049687 0.07637186 -0.1808659 0.2629258
000340 89 7b 3f 3e a2 ed 86 3e a1 b1 bb be a2 3d 8a 3d
       0.18699469 0.26353174 -0.36658958 0.06750037
000350 42 e3 29 be 53 6c d5 3d 4b 1e 99 3e b4 08 1f bc
       -0.16590598 0.10421052 0.29905924 -0.009706665
000360 06 26 c4 bd d8 e0 96 3d 20 dd 34 3e 1e 14 ee be
       -0.09577565 0.07367104 0.17662477 -0.46499723
000370 1b 0d 66 be 5c 97 5a 3e 47 24 95 be 97 f7 c6 3e
       -0.22465937 0.21346802 -0.2912924 0.3886077
000380 00 9a 96 3d a8 f9 09 be eb cd 18 bd 39 c5 81 bd
       0.07353592 -0.13474143 -0.037305754 -0.06336445
000390 71 76 41 3e f2 0b 18 be f8 93 5c 3d 00 57 13 bd
       0.18892838 -0.14848307 0.05385205 -0.03597164
0003a0 93 ea bf bd fc a8 7c 3d 6c 12 20 3d b3 2b 39 3f
       -0.09370913 0.061684594 0.03908007 0.72332305
0003b0 fd 9a 0f 3e 96 1c 8f bc 4e 00 af bd 58 32 a5 3d
       0.14023967 -0.017469686 -0.0854498 0.08066243
0003c0 5b 6d 23 be ab 99 a5 3d 1e 14 1e bd 43 22 18 be
       -0.15959685 0.080859505 -0.038593404 -0.1485682
0003d0 a8 81 25 3d b9 1c 89 3e 06 45 f0 3d 89 eb 94 3e
       0.040406853 0.26779726 0.11731915 0.2908595
0003e0 27 4f 4d 3d c1 96 88 bc c6 fe a6 bd 6e b9 11 3e
       0.050124314 -0.016673448 -0.08154063 0.14230892
0003f0 d5 c4 16 3e 3b 6e b3 bd c6 0a 1c be 9f 0a 0a 3d
       0.14723523 -0.08761259 -0.15238485 0.033701535

network_body.observation_encoder.processors.0.conv_layers.0.bias f4 [16]
000000 7a 6b 86 be 9d 3b 4d be 65 a1 ff bd 18 f3 0f be
       -0.26253873 -0.20042272 -0.124819554 -0.14057577
000010 95 69 17 be 63 be 04 be e2 74 2f be ca 76 05 be
       -0.1478637 -0.12963252 -0.17134431 -0.13033596
000020 7d fe 2f be 95 45 0c be 2d fc c6 bd 2f 2b ed bd
       -0.17186923 -0.13698418 -0.097160675 -0.11580502
000030 de 00 41 be cf 97 4b be 0d c4 59 be e0 33 65 be
       -0.18847987 -0.19882129 -0.21266194 -0.2238307

network_body.observation_encoder.processors.0.conv_layers.2.weight f4 [32, 16, 4, 4]
000000 e8 a5 2b 3d b7 b2 8b bd 61 2c 2b 3e 56 8d c0 bb
       0.041906267 -0.068211965 0.16716148 -0.0058762236
000010 ee 0f 6a 3c 77 71 8c 3d ee f5 19 be 53 62 2a bd
       0.0142860245 0.06857579 -0.15035221 -0.041597676
000020 57 85 80 be 1e 4a 3d be 01 fa c5 3c 0f c8 d8 3d
       -0.2510173 -0.18485305 0.024167063 0.10585033
000030 74 ff cf 3c 5c 35 3a 3d 02 39 54 3e 29 e5 ba bb
       0.025390364 0.045461044 0.20724872 -0.0057035876
000040 04 80 66 3d 33 b8 98 be c8 72 d1 3e 93 0c 12 be
       0.05627443 -0.29828033 0.40907884 -0.14262609
000050 d9 32 bc bc ba f1 ef 3d ba fc 7b be 6b f9 c4 3d
       -0.022973465 0.117160276 -0.24608126 0.09617885
000060 ea c2 95 3d 7f ad 87 be f7 b6 2a be 5e b6 11 be
       0.073125675 -0.26499555 -0.16671358 -0.14229724
000070 c6 03 c1 bd a3 97 d7 3d 80 2d 54 3e e8 0b fb 3c
       -0.09424548 0.10526969 0.20720482 0.030645326
000080 cf 79 61 be 14 fe 62 be 8c 8f 0f be e9 67 41 bd
       -0.22019123 -0.22167236 -0.14019603 -0.047218237
000090 8c 40 61 3e 3f 94 df be c3 15 ad be fe f5 3e 3e
       0.21997279 -0.4366779 -0.33805665 0.18648526
0000a0 22 e0 8e ba 1b 9b 09 be cf 83 86 3e 89 1e e2 bc
       -0.0010900537 -0.13438074 0.26272437 -0.02760245
0000b0 c1 00 2e be 43 12 98 3d 0d e8 29 3e 17 f8 06 3e
       -0.16992475 0.07425358 0.16592427 0.13180576
0000c0 c9 2c 8c 3d 15 ed 89 3e b3 35 d9 bd 92 2e 2d be
       0.068444796 0.26938692 -0.106059454 -0.16912296
0000d0 b3 e1 dd bd 68 b9 9d bd 04 5e ce 3c 92 d6 b8 bd
       -0.10834064 -0.07701379 0.025191315 -0.09025301
0000e0 f1 d8 92 3d ac af 88 bd 7e ab 05 3d 4c e0 28 bd
       0.071702845 -0.06674132 0.03263425 -0.04122953
0000f0 b9 a1 86 3c d1 f3 c9 3d 0b 63 7e 3d 1d 41 67 3e
       0.016434537 0.098609574 0.062106173 0.22583432
000100 fe ce 61 3e 2e 74 43 bd 1e a0 be 3d ce 49 31 3e
       0.22051618 -0.04771822 0.09307884 0.1731331
000110 11 3d 47 be 8c 74 ef 3c 59 2c c6 3d 13 79 a0 be
       -0.19456889 0.029230379 0.096764274 -0.31342372
000120 53 c2 47 3e 45 3c c7 bd e4 45 57 3e 42 bf d9 3d
       0.19507723 -0.097282924 0.21022755 0.10632183
000130 23 bd 71 3d db 07 20 3e 90 63 d7 3d ca f7 e5 3c
       0.059018265 0.15627997 0.10517037 0.028072257
000140 8f af 38 3e f3 5f 20 3e 7e 9c 77 bd b2 83 bd bd
       0.1803572 0.15661602 -0.060451977 -0.092536345
000150 44 50 6e 3e 76 4d 8a be f9 f0 cc be a1 4d 61 be
       0.23272806 -0.27012223 -0.40027598 -0.2200227
000160 9e cc 15 be 84 af 49 3e b8 38 83 3c 1f c3 12 3e
       -0.14628837 0.1969586 0.016018257 0.14332245
000170 43 48 5c 3d c7 9c 6a 3d 65 65 26 3e aa e1 0f 3e
       0.05377985 0.05727842 0.16249616 0.14050928
000180 4f dd b0 bd 97 72 73 3e 3d d3 b1 3e 76 68 fe 3d
       -0.08635961 0.23774181 0.34731475 0.12422268
000190 7b 45 42 3e 87 d6 e2 3d 5b b3 ae 3c 76 31 d9 bd
       0.18971817 0.11076074 0.021325758 -0.10605137
0001a0 a2 42 8d be 61 43 98 3c 7a 2c d5 3d 9e 47 a0 3e
       -0.275899 0.018586816 0.10408874 0.3130464
0001b0 d8 7e 43 3d 39 df 76 3d 07 17 b0 bd 2a bf ac 3c
       0.04772839 0.060271475 -0.08598142 0.021087248
0001c0 80 90 82 bc 56 63 8b be 2f 33 bd bd 41 df 8d 3e
       -0.015938044 -0.27224225 -0.09238278 0.27709392
0001d0 61 ae 4d be 40 d5 6f 3e ae d2 ca 3c 8c 09 86 3d
       -0.20086052 0.23421192 0.024758663 0.0654479
0001e0 fc e6 0b 3d 8b ed ce be 66 f1 36 be 0d f4 0d 3e
       0.03415583 -0.40415606 -0.17865524 0.13862629
0001f0 9e 55 3f 3d 3e 6e 41 be 0b 97 61 3d 66 58 3b 3e
       0.04671251 -0.1888971 0.055075686 0.1829544
000200 80 a9 d4 3d 1f e0 37 3e ef 15 86 be f2 90 43 be
       0.10383892 0.17956589 -0.2618861 -0.19098261
000210 e0 4a 7f bb e0 90 67 bd 0b 45 09 3e c5 c3 01 3b
       -0.003895454 -0.056534648 0.13405244 0.0019800526
000220 67 c2 0b 3d e4 06 3d 3e 73 09 99 3e 3f d8 87 3e
       0.034120943 0.1845966 0.29890022 0.2653217
000230 f3 b2 5b bc 62 7e 72 3e a4 a4 56 ba 92 af df 3e
       -0.013409364 0.23681024 -0.00081879855 0.43688637
000240 5b 22 48 3e d0 24 d4 bd 83 53 fd bd fe d2 2f bd
       0.19544356 -0.10358584 -0.12369444 -0.042925827
000250 d7 9b 89 bb f8 37 c4 bd 93 3c d3 bd bb 24 38 3d
       -0.0041994858 -0.09580988 -0.10314288 0.044956904
000260 d7 61 95 bd 41 7b 43 bd a6 a2 79 be 65 45 fb 3c
       -0.07294052 -0.047724966 -0.24378452 0.030672738
000270 80 c2 ac bc 6a fd 5b 3e 08 9f 13 3e 56 d9 e8 bc
       -0.021088839 0.21483389 0.14416134 -0.028423946
000280 40 d1 bf bd 8e b4 cf bc 1d 49 1a bd 39 6f 29 3d
       -0.09366083 -0.02535465 -0.037667383 0.041365836
000290 f3 5e a9 3e c4 b0 bb 3d 04 31 83 3e 0c 2d 20 3d
       0.33080253 0.09164575 0.25623333 0.03910546
0002a0 d9 58 d6 bd a8 88 b5 bc 99 f9 0f bf 87 df 33 39
       -0.10466165 -0.02215989 -0.5624023 0.0001715404
0002b0 46 8f 5e be 1e 86 89 3e 06 b9 a1 3d d0 4d 14 3e
       -0.21734342 0.26860136 0.078966185 0.14482808
0002c0 97 f8 04 3d a9 04 6d 3d ea 09 95 be ee b1 9d bd
       0.032463636 0.057865772 -0.29109126 -0.07699953
0002d0 b2 d3 10 bd 5d 67 c4 3e 68 41 4c be b4 08 b2 3d
       -0.03535814 0.3836011 -0.19946826 0.08693066
0002e0 c8 0a 84 be 4a e1 14 be ac 4b be 3e 6f eb 1c be
       -0.25789475 -0.14539066 0.37167108 -0.15324186
0002f0 79 76 00 bd 5f 36 6c bd f2 c6 a9 3d ee 4d 54 bd
       -0.031362984 -0.05766904 0.08289899 -0.051832132
000300 8f 87 87 bd c3 e9 2e bd 21 33 af 3c a3 7f 81 3e
       -0.066176526 -0.0427034 0.021386685 0.25292692
000310 6b dd 54 3e 60 c6 10 3c f5 af 95 3b 72 60 e2 bc
       0.20787589 0.008836359 0.004568095 -0.02763388
000320 ee 44 52 3e 89 4d 65 3e f0 da 4c be 01 92 6f 3d
       0.20534107 0.22392859 -0.20005393 0.05848885
000330 47 1e 86 3e c4 a5 0b 3f d5 6c 17 3e 16 9d 58 3e
       0.26194975 0.54549813 0.1478761 0.21153674
000340 60 64 ba 3d f2 93 4c 39 c8 7e 82 3e 9a 12 a0 3e
       0.09101176 0.0001951007 0.2548735 0.31264192
000350 2a 9f a2 3d 31 04 88 be 9d d7 8d be 5e 25 8c 3d
       0.079405144 -0.26565698 -0.27703562 0.06843065
000360 e8 8e aa bc a5 d9 02 3d 66 42 48 3d 37 8f 17 3d
       -0.020820096 0.031945843 0.048891447 0.037001815
000370 e1 53 68 be 6a 6d 84 3d d2 83 82 3e 26 d3 a6 3e
       -0.22688247 0.064661816 0.25491196 0.32582968
000380 b9 94 15 bc 3a 3c 0f 3d 39 32 16 3e bd 23 0a 3e
       -0.0091296965 0.034969546 0.14667596 0.13490196
000390 28 7f a0 bd cb 8a 9a be f6 b3 25 3e 37 ca 12 be
       -0.07836753 -0.30184016 0.16181931 -0.14334951
0003a0 b5 2b af bd f2 60 fd bb 07 f9 14 3d 9f 52 c2 3d
       -0.08553258 -0.007732504 0.036370303 0.09488415
0003b0 20 d9 b7 3d 4d 49 fe 3d db 93 cc 3c 1b 98 c7 bc
       0.0897696 0.12416325 0.024972847 -0.024364522
0003c0 4a 51 cf 3d 8f ab ed 3d ba 7d aa bc 8c 8d 8a be
       0.101229265 0.11604988 -0.020811904 -0.27061117
0003d0 34 09 6a 3d 44 ca bc bd c1 c6 b8 bd e3 cf 5a bc
       0.057137683 -0.092182666 -0.09022284 -0.013355228
0003e0 9d d1 63 3d 3f 9b 98 3e 65 ce 0d be 3d 60 bb bc
       0.055619825 0.29805943 -0.13848265 -0.022873038
0003f0 6d 23 21 be e5 88 c1 3e aa f8 0d 3e 84 43 95 bd
       -0.1573617 0.37799755 0.13864389 -0.07288268

network_body.observation_encoder.processors.0.conv_layers.2.bias f4 [32]
000000 26 45 1f be 74 4f e0 bd e7 6a c4 3d 55 f2 e8 3c
       -0.15553722 -0.109526545 0.095907025 0.028435865
000010 52 5a d4 3d 8b 1a a4 bd ec dd 05 3e 02 0f 07 3c
       0.1036879 -0.08012875 0.13072938 0.008243324
000020 5f 04 8b 3d 82 0f 65 bd b6 b6 c6 3d a1 74 b8 be
       0.06787943 -0.055922993 0.09702818 -0.3602648
000030 3f 22 d1 3d 52 14 c6 3d 86 02 45 3d 31 d9 99 bc
       0.1021161 0.096718445 0.04809811 -0.018780323
000040 f4 b4 b3 bc 93 93 59 3d 1d 5c 65 bd 90 58 12 bd
       -0.021936871 0.053119253 -0.05599605 -0.03572899
000050 9a 5f 91 bd 2f 24 a0 bc ba f3 8a bd 16 3d 07 3e
       -0.07098313 -0.019548504 -0.067847684 0.13206896
000060 85 bc 0d 3d aa b3 77 bd 93 0f 55 3d e8 70 56 bd
       0.034603614 -0.060474075 0.052016806 -0.05235377
000070 9e af 8e 3c 58 4c 16 bd 8c 57 bc bd c6 aa cf 3b
       0.017417725 -0.0366939 -0.09196386 0.0063374965

network_body.observation_encoder.processors.0.dense.0.weight f4 [256, 32]
000000 17 dd de 3e a1 76 6d bd e0 4c dd be 67 04 9c be
       0.43528053 -0.05797446 -0.43222713 -0.3047211
000010 20 dd 95 bd 39 58 bf 3d d2 0b 99 bd fe c1 dd be
       -0.07317567 0.09342999 -0.07472958 -0.43312067
000020 59 ec 0c 3e ee 32 ce 3e 62 8d 2b bd 6c ee f3 bd
       0.13762034 0.4027323 -0.04188288 -0.1191071
000030 18 72 69 be a0 eb 8d 3e 39 10 8c bc 19 42 0f 3e
       -0.2279743 0.2771883 -0.01709758 0.13990058
000040 11 29 f0 3d 83 80 9e be ba 1b 93 3e ba e1 93 be
       0.11726583 -0.30957422 0.2873209 -0.28883153
000050 4d 6e 2e bd a9 71 49 bd 45 d0 db 3e cc e4 7d bd
       -0.04258566 -0.04918066 0.42932335 -0.061985776
000060 75 a2 2c bf 1b 01 dd bd c3 21 c2 3b 74 6e 32 bf
       -0.6743539 -0.107912265 0.005924435 -0.6969979
000070 49 ec 2f be b9 03 15 3e fc a9 55 be 1c 39 c9 3d
       -0.1717998 0.14552201 -0.20865625 0.09825346
000080 69 44 48 3e bd 3f 67 be 43 ac 8b be 88 87 43 be
       0.19557346 -0.22582908 -0.27279863 -0.1909467
000090 0f 56 69 3d 19 f5 88 be 3f 53 0e bd 4b 89 df 3d
       0.056966837 -0.26749495 -0.03474736 0.109148584
0000a0 c5 78 9d 3c 3e 10 ac be ae b8 61 3e 38 24 56 3d
       0.019222626 -0.33606142 0.22043106 0.052280635
0000b0 0d f5 3e be af 8e 18 bf 27 94 0c be df 35 18 bf
       -0.18648167 -0.5959272 -0.1372839 -0.594572
0000c0 e0 e8 9d bd 3e ad 0c be 65 8d a3 bd de 73 60 be
       -0.07710433 -0.13737962 -0.07985953 -0.219192
0000d0 11 1d 25 bd 0d f4 fa bd b9 14 64 bb e4 8f 90 3c
       -0.040310923 -0.1225358 -0.003480239 0.017646737
0000e0 ff 2d 8f be 12 ef 1d be 9c e4 dd 3d 14 48 1d 3a
       -0.2796478 -0.1542323 0.108346194 0.0005999815
0000f0 3f 29 73 3e 02 8c a3 bd 7b 9a 89 be 1f 30 84 be
       0.23746203 -0.07985689 -0.26875672 -0.25817963
000100 1c 3a a5 be 01 f2 58 3e 31 9e 0f be 14 3e 9b bd
       -0.32270896 0.21186067 -0.14025189 -0.075802
000110 08 52 2f 3d 14 2e 43 bd 73 7a 75 3e 66 74 69 be
       0.04280284 -0.047651365 0.23972492 -0.22798309
000120 88 99 d6 be 70 5b fe 3e f8 35 97 3d ca 9c 8a be
       -0.4191401 0.49679136 0.073833406 -0.27072746
000130 63 63 1c be 95 d6 83 be e7 43 6e bf 15 99 61 3e
       -0.15272288 -0.2574965 -0.9307236 0.22031052
000140 60 81 e2 3d 31 45 1c 3e 6f 91 88 3b 8a 46 62 bf
       0.110598326 0.1526077 0.0041677277 -0.88388884
000150 87 ed cd bd 93 af cd bc 14 c6 cf 3d 0d 52 02 be
       -0.1005507 -0.025108134 0.10145202 -0.12726612
000160 9f 8d 4b 3f d7 a2 d6 3e 9c c7 e6 3e be 6d 72 be
       0.7951297 0.41921112 0.45074165 -0.23674676
000170 a6 42 5b be 6d 81 d1 3e 48 ec 81 3e c8 e3 c0 3e
       -0.21412143 0.40919057 0.2537558 0.37673783
000180 e1 1b 9e be 18 13 85 bd a4 84 42 be c3 e5 5a 3e
       -0.30880645 -0.064977825 -0.18995911 0.2137671
000190 f2 ca fe bc 51 15 c7 3e 26 20 ae be 3d 6b 6b 3d
       -0.031102631 0.3888345 -0.34008902 0.057475317
0001a0 35 81 e7 3d 1d 96 62 be 6d e2 a5 be 19 77 82 3e
       0.11303941 -0.22127576 -0.32399312 0.2548149
0001b0 37 7e c1 be a5 1e fa 3e 69 2a 51 be fe 01 dd 3e
       -0.37791607 0.48851505 -0.20426334 0.43165582
0001c0 6e 89 c0 be 33 75 8a be bd f1 af 3d 34 00 ae be
       -0.3760485 -0.2704254 0.0859103 -0.3398453
0001d0 ab 78 e1 bd 17 e7 84 be c2 95 52 bd 6c b0 58 be
       -0.11009344 -0.25957558 -0.05141235 -0.2116105
0001e0 92 f6 9f be e2 6c f6 be d7 18 ac be af df 58 3e
       -0.31242806 -0.48129946 -0.336127 0.21179079
0001f0 a9 b9 31 be aa 61 f5 bc d3 0d 98 be 6c ce 9e bc
       -0.1735598 -0.029953796 -0.29698047 -0.019385539
000200 6d c0 02 bd f1 71 bb 3e 68 1f a7 be 45 73 5d 3e
       -0.031921793 0.36610368 -0.3264115 0.21626003
000210 15 ae ac 3d eb 59 28 be 4a a7 d9 bd ae ee c3 3c
       0.08431641 -0.16440551 -0.10627611 0.023917522
000220 6c 8a 09 3d dc 8a d5 3d 1d e3 4c 3e 7d 5d 69 be
       0.033579275 0.10426876 0.20008512 -0.22789569
000230 6e 75 78 be 8b a3 fa bd 1a 37 cf 3d e7 f5 bc be
       -0.24263546 -0.122382246 0.10117932 -0.3690636
000240 f0 a7 e3 be 93 43 20 bf 99 65 81 3d 97 83 71 bd
       -0.44464064 -0.6260311 0.06318206 -0.058963384
000250 7f bb d1 3e 88 c7 18 3e 3f 4d 7e be 59 67 8b be
       0.4096336 0.14919865 -0.24834155 -0.27227286
000260 4d 65 8d be 85 46 28 be 40 3a 04 3f d5 33 e8 bd
       -0.2761635 -0.16433151 0.5165138 -0.11338011
000270 07 74 b7 3e 96 60 48 be 1d 5c da 3b 87 86 ef be
       0.3583071 -0.19568095 0.006663813 -0.46782324
000280 37 d7 cc 3e 79 ff b7 3e e5 70 c3 bd 9c f8 e2 3e
       0.40007946 0.35937098 -0.09543017 0.443303
000290 dd d2 4f bd 45 8e 7d bd 24 2f c9 be d0 39 5a bd
       -0.050738204 -0.061903257 -0.39293778 -0.05327779
0002a0 2a aa 16 3d e2 9f 85 be 84 ba 77 3d 52 b6 49 be
       0.036783375 -0.26098543 0.06048061 -0.19698456
0002b0 c7 be 18 3e 98 9f b8 be 29 37 0b 3f 9a 5e 83 be
       0.14916526 -0.3605926 0.5438104 -0.25658113
0002c0 89 cc 6d be 28 d3 82 be 48 14 9d be 40 fb b6 3e
       -0.23222555 -0.25551724 -0.30679536 0.35738564
0002d0 7a 25 9e bc 5d 29 f7 bd 89 a1 01 3e e0 a7 07 be
       -0.01930498 -0.12068436 0.12659277 -0.13247633
0002e0 ea 74 87 be 22 d2 26 bd 00 b1 aa bc ed af 4e 3e
       -0.26456386 -0.040727742 -0.020836353 0.20184298
0002f0 62 5e 0d be a5 5e ea 3d ab dc 54 bd db 24 86 be
       -0.13805535 0.11443833 -0.051968258 -0.26199993
000300 d6 de 34 3d b8 8c ef be d5 43 dc bd 9f d6 0b 3e
       0.044157825 -0.46787047 -0.107551254 0.1365609
000310 56 33 0c bf c3 82 9d be 45 6f 01 be f1 d0 0b bf
       -0.5476583 -0.30763826 -0.12640102 -0.54615694
000320 85 cb c6 be 20 e6 ad be ab e2 47 be 3d 30 ac 3d
       -0.38827148 -0.33964634 -0.1952006 0.08407638
000330 e9 d2 ba be fb fb 96 be e4 06 a8 3d 03 2f 28 3f
       -0.36489037 -0.2948912 0.08204439 0.65696734
000340 df b8 70 be 5f 9b 13 be 9d 87 c0 bd 79 f0 c7 3d
       -0.23508023 -0.14414738 -0.09400866 0.097626634
000350 4a 60 3d 3e d0 76 1e be e0 4a 21 be b4 18 63 3e
       0.18493763 -0.15475011 -0.15751219 0.22177392
000360 09 78 52 3d a7 3e 5f 3e 71 a2 a3 3e 54 26 57 be
       0.051384006 0.21801244 0.3195987 -0.21010715
000370 d3 6c 12 be 6b b1 2f bd a8 18 0d 3e 7d 80 3b be
       -0.14299326 -0.04289381 0.13778937 -0.18310733
000380 84 f2 d9 3c f8 5c a7 3e 20 0f 0a bf 00 78 85 3e
       0.026604898 0.32688117 -0.5392933 0.26068115
000390 0d de 81 be 09 67 05 3d 58 6f 60 be fb 44 80 3e
       -0.25364724 0.032568965 -0.21917474 0.25052628
0003a0 31 2e 83 be 8d 68 5e be 07 14 4f 3e b1 ac 40 3d
       -0.2562118 -0.2171957 0.20222484 0.04703969
0003b0 5a b3 18 be a0 47 f1 3d c1 a9 4e be 62 89 ac 3d
       -0.14912167 0.117812395 -0.20181943 0.08424641
0003c0 57 25 68 3e ff e4 95 bf 38 42 c9 be 81 96 8f be
       0.22670494 -1.1710509 -0.39308333 -0.28044513
0003d0 a3 c2 60 be a3 4b 53 3e d6 58 0b 3f 2e 4c 11 be
       -0.21949248 0.20634322 0.5443243 -0.14189216
0003e0 ff ec 55 3e 7a 9b 39 be 4d a5 8c 3e 5f 14 a6 3e
       0.20891188 -0.18125716 0.27469864 0.32437417
0003f0 6c 7c f8 be 44 2c 29 3e 5b 2e e7 3e 74 90 7c be
       -0.48532426 0.16520792 0.45152554 -0.2466448

network_body.observation_encoder.processors.0.dense.0.bias f4 [256]
000000 1a ef 88 be 51 9d 58 bd 7e c1 25 bd 2a c1 19 be
       -0.2674492 -0.052884404 -0.04046773 -0.15015092
000010 82 fe aa bd a0 ed 2b bc 46 62 25 be 4e 7d 3a bd
       -0.08349325 -0.010493666 -0.1615077 -0.045529656
000020 46 ce 58 3d fd 1e 82 3d 29 db b3 bc 12 41 d9 bd
       0.052931093 0.06353567 -0.02195509 -0.10608114
000030 9e 79 c2 bd f9 c3 3d 3c 76 90 8c bc 8f bb 11 be
       -0.09495853 0.011582368 -0.017158728 -0.14231704
000040 26 1f a5 3d 4b 9f 3f 3d b7 ae 5e bc 32 5a 97 3d
       0.08062582 0.046782773 -0.01359146 0.0739025
000050 42 4c 82 bd 67 a0 19 bd 9f 3a fd bd e9 c2 e9 3d
       -0.06362201 -0.037506487 -0.12364697 0.11414129
000060 e1 69 2b be ef e8 76 be 62 b4 3d be 9a 49 b0 3d
       -0.16739608 -0.24112295 -0.18525842 0.086077884
000070 1a bb 0c 3d d7 c3 96 bd 3c 7c 54 3d 05 c7 02 bd
       0.03435812 -0.07361572 0.05187629 -0.03192808
000080 d3 db 3e be b8 93 53 be 79 3e 82 bd 15 ed 8e 3d
       -0.18638544 -0.20661819 -0.06359572 0.069788136
000090 29 b6 55 3c 2a dc ed bd 74 50 41 bd 67 f9 f7 bb
       0.013043919 -0.116142586 -0.047195867 -0.007567573
0000a0 ed 20 31 be 35 2f f6 bd 77 5f cd bb 22 b1 e8 bc
       -0.17297716 -0.12020723 -0.006267484 -0.028404776
0000b0 c3 ae 0b be b7 2b d8 bd 34 9e 28 be 37 13 a5 3c
       -0.13640885 -0.10555213 -0.164666 0.020150764
0000c0 43 75 17 be 04 ad a6 bd 1a 46 34 be 2d 50 fd bd
       -0.14790826 -0.08138469 -0.17604867 -0.12368808
0000d0 aa 0b 68 be 23 86 5d be dc 60 ba bd 6c ce 9b bc
       -0.226607 -0.216332 -0.09100506 -0.019019328
0000e0 74 80 69 3d ea 8a 10 be 7a 40 32 bd 05 43 aa bd
       0.057007268 -0.14115492 -0.04351852 -0.08313564
0000f0 41 aa e7 bd 74 54 4a be 47 63 9b 3a 3a 15 f1 3c
       -0.1131177 -0.19758779 0.0011855148 0.029429067
000100 14 bb 3b be 74 a4 21 3e f9 16 86 3d 0a ea 41 bd
       -0.18333083 0.1578539 0.065473504 -0.047342338
000110 a6 86 09 3d c6 25 98 bd 3c d2 82 3c 33 b6 16 be
       0.033575676 -0.0742908 0.015969388 -0.14717941
000120 5b c3 2f be 54 8d 7d 3c 0f a1 05 be 6f 1c 30 bc
       -0.17164366 0.01547559 -0.1304972 -0.010748967
000130 6b d1 50 bc 58 04 15 be 95 6d 02 be 89 85 1a 3d
       -0.012745242 -0.14552438 -0.12737115 0.037725005
000140 ac 69 b4 3c 8c 8d 19 be b5 1d 6d bd 49 d7 82 bd
       0.022023045 -0.14995402 -0.05788966 -0.06388719
000150 ef c5 2c be f8 18 0c bd 20 c7 fc 3d 92 0c 17 be
       -0.1687238 -0.0342035 0.123426676 -0.14750889
000160 41 01 2e be 54 ea 00 be bf e5 4c be 06 ee 65 be
       -0.16992666 -0.12589389 -0.20009516 -0.2245408
000170 f6 0f 23 3b 6e eb 1d be f4 5e 11 be 38 c5 68 bd
       0.002488134 -0.1542184 -0.14196378 -0.056828707
000180 de 5d 1d be 4d 13 06 be 54 dd ba bd b7 be d1 bd
       -0.15367839 -0.130933 -0.09124246 -0.10241454
000190 35 50 9d bc e1 59 19 3d 50 5f f6 bd 1e a2 27 3d
       -0.019203285 0.03743923 -0.12029898 0.04092609
0001a0 7c e0 98 3c ee 08 53 be 26 94 84 bd 43 a6 57 bd
       0.01866173 -0.20608875 -0.064735696 -0.052648794
0001b0 80 58 23 3d eb 1e b2 bb b2 7f 61 bd ee cc 78 bb
       0.039879322 -0.0054358146 -0.05505342 -0.0037963944
0001c0 f5 03 37 be d1 76 90 3c 79 b2 32 be b3 f9 00 be
       -0.17872603 0.017634781 -0.17450894 -0.12595253
0001d0 5f 5b d5 bd 1a e8 4c 3d f2 c8 90 bc 83 0d 7d be
       -0.10417818 0.050026037 -0.017673943 -0.24712186
0001e0 f0 81 0a bc 8e 41 8f bd 44 32 84 3d e8 bc 2a be
       -0.008453831 -0.069949254 0.064549 -0.16673625
0001f0 3f b6 3f be c1 80 ad 3d d3 8a 6c bc ce d9 df bd
       -0.18721865 0.084718235 -0.014437395 -0.10930215
000200 9b e2 0e 3d dc 7f 36 be a1 9b c9 bc 26 23 0b be
       0.034884077 -0.17822212 -0.024610342 -0.13587627
000210 d1 8f 1c be 33 0f bd bc 9f 49 b5 be d1 94 5a bc
       -0.15289237 -0.023078537 -0.3540773 -0.013341145
000220 b5 8f cc bd e5 37 80 bd 15 02 6d bc 12 02 8f 3c
       -0.099883474 -0.06260661 -0.014465828 0.017457042
000230 4f b2 74 be 6f d6 da bd 3f 94 a0 3d d3 6b 91 3c
       -0.23896144 -0.10685431 0.07840776 0.01775161
000240 05 14 33 3c 65 2e 1b be 62 34 e9 bd f0 31 d7 bd
       0.010930066 -0.15154417 -0.11386944 -0.10507572
000250 3c 1e d9 bd da 3a 2a be 9e 3d ee bd 10 1c 45 be
       -0.1060147 -0.16624013 -0.11632846 -0.19248986
000260 a8 9a 2d 3d 8d 8a da 3d 82 58 e6 bd a0 18 c9 3b
       0.04238382 0.10670958 -0.1124735 0.0061369687
000270 52 cb 2d 3e 00 82 4d 3d 4f ba 83 bd 73 df 1f be
       0.16972092 0.050172806 -0.0643202 -0.15612583
000280 2f 4b df bd 92 69 1f 3e 48 90 3e be f6 f0 ef bd
       -0.10903012 0.15567616 -0.18609726 -0.117158815
000290 ed 06 04 be 70 1c 1e be 0d 97 49 be b8 72 ad 3d
       -0.12893267 -0.15440536 -0.19686528 0.084691465
0002a0 55 ed 17 be 23 72 bd bd 8e 1a 86 be ea 3c 89 3e
       -0.14836629 -0.092502855 -0.26192135 0.26804286
0002b0 17 94 14 bc 60 35 08 3d c8 cb b2 3c 26 e6 aa bd
       -0.0090685105 0.033254027 0.021825686 -0.083446786
0002c0 82 6f 25 bd 03 9d c7 bd 86 84 33 be a8 8a 53 be
       -0.040389545 -0.097467445 -0.17531022 -0.20658362
0002d0 41 4c 0e be aa cb 52 be d0 8c 86 3d ce 54 b8 bd
       -0.13896276 -0.20585504 0.065698266 -0.0900055
0002e0 6c d4 70 bd 8d 56 75 be 09 fa 68 bc a0 f4 14 be
       -0.05879633 -0.23958798 -0.014219769 -0.14546442
0002f0 29 24 eb ba 39 a1 7b be 26 c7 72 be 3a c6 71 be
       -0.0017939854 -0.2457322 -0.23708782 -0.23610774
000300 0a 3a 9c 3d d5 0c e5 3c d4 c0 4f bd 85 1b 00 bd
       0.076282576 0.02796022 -0.050721005 -0.031276245
000310 2f a7 e1 bd ae d9 35 bd 57 d4 a6 3d 01 35 83 be
       -0.11018216 -0.04439705 0.08145969 -0.25626376
000320 e1 5a 82 be c0 67 35 be e8 37 3e bd ae 93 d3 bd
       -0.2545996 -0.17715359 -0.046440035 -0.10330902
000330 0d c8 0d 3e 23 60 cf bc f1 3f 25 bd 47 07 54 3b
       0.13845845 -0.025314396 -0.040344182 0.003235297
000340 6b aa 10 be e5 f9 4c be d9 ff a8 bd 5a 0c ae bd
       -0.1412751 -0.20017202 -0.08251924 -0.084984496
000350 a2 1d 80 bc 47 78 20 be 8c be b8 bd 2b 01 6a be
       -0.01563913 -0.15670882 -0.09020719 -0.22852008
000360 24 a9 27 be 6b 63 0d 3e 2e e8 81 3d 15 b4 83 bd
       -0.16373116 0.13807456 0.06343113 -0.06430832
000370 ec 04 a7 bd 77 21 07 bd 3f 01 9b bd 66 be 9d bd
       -0.08155236 -0.0329909 -0.07568597 -0.07702331
000380 ca 1a 79 3d 73 0b d2 bd bd 91 d1 bd 37 88 03 be
       0.060816564 -0.1025609 -0.102328755 -0.1284493
000390 b0 1f 1e be a8 a5 1f 3d 09 6e f7 bb 53 7e de 3d
       -0.15441775 0.03897634 -0.007550959 0.10863938
0003a0 7f 5a 13 be a1 2b 18 be d5 e4 de bd a2 ff 30 be
       -0.1438999 -0.14860393 -0.1088349 -0.17285016
0003b0 58 ce e6 bd 41 5d fa bd 15 90 c2 bb e0 6b d4 bd
       -0.11269826 -0.12224818 -0.005937586 -0.10372138
0003c0 36 4c db 3d 5e 53 d5 bd 56 b5 b1 3c 39 5c 1b 3d
       0.107078955 -0.10416292 0.021692913 0.037929747
0003d0 ac 7d 3d be 62 a2 d7 bd b4 a0 a1 bc ac aa 5d be
       -0.18504971 -0.10529019 -0.01972995 -0.21647137
0003e0 34 79 bd bd bd 32 23 3d 8f f4 e7 bd 6c 33 e6 bb
       -0.09251633 0.03984331 -0.11325943 -0.007025173
0003f0 6e 4c 79 bd db cb bc 3c eb bc 49 be dc bf ee bc
       -0.060863905 0.023046425 -0.19700973 -0.02914422

network_body._body_endoder.seq_layers.0.weight f4 [256, 256]
000000 d6 bb 91 bd e3 ab 30 3e 5b cb ef bd f5 f6 77 bd
       -0.07115905 0.1725307 -0.11708709 -0.06053825
000010 10 89 c9 3d b5 d0 11 3e 3a 3f 50 be 44 9a 9e 3c
       0.09840596 0.14239772 -0.20336619 0.019360669
000020 d7 a7 84 3d d6 6c ed bd 56 66 f0 3e 10 d4 72 bb
       0.064773254 -0.115930244 0.46953076 -0.0037052669
000030 03 88 31 bd c2 c3 62 3e de fb ca be 2b 3a 1e 3c
       -0.0433426 0.22144988 -0.39645284 0.009657423
000040 d3 db 83 3e ae 2c 55 3e 1d 12 d3 3c 73 d2 24 3e
       0.2575365 0.20817825 0.025765473 0.16095905
000050 67 b4 e4 3d 9f 5d 36 3d cd fe 43 be fa a7 58 3e
       0.111672215 0.044522878 -0.19140168 0.21157828
000060 f8 75 22 3e d2 ce 25 bc 65 ce a1 3e 19 e6 8d 3c
       0.15865314 -0.010120111 0.3160278 0.017321633
000070 b9 ac 16 3e f5 83 bb bd 4b 80 a0 be 78 f6 08 be
       0.14714326 -0.09156028 -0.3134788 -0.1337527
000080 62 37 03 bc 7e c9 3b bc 39 c9 8b 3e 21 e7 93 bd
       -0.00800881 -0.011461614 0.27301958 -0.07221819
000090 a0 ca bd be 4c 03 a4 bd 42 19 a2 3c a6 04 a6 3d
       -0.37068653 -0.08008441 0.019787434 0.08106355
0000a0 e0 df 86 3e 9f 0c 37 3e 80 3e b1 bd 82 5f 7a bd
       0.26342678 0.17875908 -0.08654499 -0.06112624
0000b0 e7 89 0d be 11 ec 59 bd b9 5a 8c be ba 92 1d 3e
       -0.13822137 -0.053203646 -0.27412966 0.15388003
0000c0 55 30 76 bd f6 e0 3d 3e 4b 92 c8 bc 7e f8 34 bc
       -0.060104687 0.18542847 -0.02448382 -0.011045573
0000d0 be 30 63 be 8b c8 11 be 7d 01 84 bd a9 d2 15 3e
       -0.22186562 -0.14236657 -0.06445596 0.14631142
0000e0 91 c8 e7 3e 3f 17 00 be a8 a4 36 3e f9 60 ea 3c
       0.45270208 -0.12508868 0.17836249 0.028610693
0000f0 5d 2b 2b be 81 d1 74 bb d2 47 2e 3e a0 db e9 bd
       -0.1671576 -0.003735632 0.17019585 -0.11418843
000100 89 71 76 3e d1 e6 33 3d 92 c6 91 be a9 96 72 be
       0.24066748 0.043921296 -0.2847181 -0.23690285
000110 1f 29 88 be bf 6d 8e 3c b8 54 c6 3d 28 f8 91 3e
       -0.26593873 0.017386315 0.096841276 0.2850964
000120 95 78 14 3d 2c 4a 21 be 28 d0 b6 3d 47 98 b9 bd
       0.03624781 -0.1575095 0.089264214 -0.09062248
000130 87 b7 8a 3e 81 5a 23 bd ea 6e 16 3e 7a 68 9b 3d
       0.27093145 -0.039881233 0.14690748 0.07588287
000140 35 e1 46 3d b9 e9 11 bc cb 57 3c 3e f2 98 6e 3e
       0.048554618 -0.0089058215 0.18392865 0.23300532
000150 e2 c4 0d be e4 5a ba be e6 94 84 3e a0 4f 60 bd
       -0.13844636 -0.3639747 0.2589485 -0.054763436
000160 35 82 d7 3d f0 7c 64 3e b3 bb f5 3c 5c 08 60 be
       0.10522882 0.22313285 0.029996729 -0.21878189
000170 15 0c aa 3d 1a 9e 0a 3c e2 15 fa bd 0c e5 7c bd
       0.08303086 0.008460546 -0.12211205 -0.061741874
000180 55 35 0a 3e 82 9f 1f 3d 5f f6 f3 3d 49 29 c9 bd
       0.13496907 0.038970478 0.11912226 -0.09822328
000190 1b 47 01 3e 4f a5 2c 3e 28 21 12 3e 3e 17 2b be
       0.12624781 0.16859935 0.1427046 -0.16708085
0001a0 93 d8 44 3c c3 1d 9f bd 7e bc a2 3e 0f 65 96 3d
       0.012014526 -0.077693485 0.31784433 0.07343494
0001b0 32 c1 a4 3e f7 ee 06 3e ae d9 2a 3d 4a 11 54 3e
       0.32178646 0.13177095 0.0417115 0.2070972
0001c0 0c 31 c5 bc 08 4f 20 3d 07 70 da 3d 91 b4 de bd
       -0.024071239 0.03913787 0.10665899 -0.10874284
0001d0 e4 16 81 be 24 78 92 3e d8 81 b9 3e 78 ae 0c 3e
       -0.25212777 0.28607285 0.36231875 0.1373843
0001e0 5d a8 78 be 65 a6 56 3e 70 d3 32 be 32 54 6c 3d
       -0.24282975 0.20961912 -0.1746347 0.057697482
0001f0 4e c1 74 3c f9 23 b2 bd 31 5b 9e 3e 50 7c 35 3e
       0.014938666 -0.086982675 0.3092895 0.17723203
000200 33 a8 14 bd 01 f6 83 3e f6 e7 45 bd b7 02 21 bb
       -0.03629322 0.25773624 -0.04831692 -0.0024568269
000210 e0 55 38 be 6d 3b 75 3e 46 37 de 3d 79 39 53 bd
       -0.18001509 0.2394845 0.10850386 -0.051568482
000220 e1 58 17 bd ee 99 a2 3e 7c 59 4c bd e7 e0 1b 3d
       -0.036949996 0.31758064 -0.049890026 0.03805628
000230 4d 8f 46 bd 29 cb 8f 3e 30 ec 9a 3e 7b d7 7b 3e
       -0.048476506 0.28084686 0.30258322 0.24593918
000240 ac 51 ef 3c e8 62 08 be 80 8a c5 3d 7a a8 33 3e
       0.029213749 -0.1331898 0.096455574 0.17544737
000250 7e 2a 85 3c 3c fc a9 3e e4 7a 0a 3e b8 44 9c 3d
       0.016255613 0.33200252 0.13523442 0.076302946
000260 49 db b1 3e 57 f6 3d 3e c7 c9 59 3d 84 ef 7d bd
       0.34737614 0.18551002 0.053170945 -0.061995998
000270 38 f2 18 3e 72 ca 38 be 9d cd fc 3b 74 3f c7 3e
       0.14936149 -0.18045977 0.0077149407 0.38915598
000280 7d f1 a7 bd 9a fd 71 be 08 95 c3 bd 23 c9 c7 ba
       -0.08200357 -0.23631898 -0.0954991 -0.0015242439
000290 f8 0a c2 bd 9a a2 b9 be 51 19 23 3d fc 6c 6c 3e
       -0.094747484 -0.36256868 0.039819065 0.23088449
0002a0 c0 fa 7a 3d 07 25 29 3e ad 0b f4 3c 5a 59 09 3e
       0.06127429 0.16518031 0.029790724 0.13412991
0002b0 61 70 da bc 3e 14 9d bd 10 cc 3d be 1d 2a ff 3d
       -0.026664915 -0.076698765 -0.18534875 0.12459204
0002c0 4b 1a 8d be 67 34 96 be ea d6 87 3e 72 00 01 3e
       -0.27559122 -0.29336855 0.26531154 0.12597826
0002d0 98 4e 1a 3e a4 a6 03 3e 39 b3 4c 3e bb 3d 93 3d
       0.15069044 0.12856537 0.19990243 0.071895085
0002e0 f9 b0 c3 bd 84 74 69 3d 37 91 aa bc aa 73 58 3e
       -0.09555239 0.056995884 -0.020821197 0.21137872
0002f0 9e e0 95 be 6d 6b fe 3d cc c6 ce 3d 6b 8a 99 bc
       -0.29272932 0.124228336 0.10096511 -0.01874276
000300 47 cc 99 be 8c f9 85 3d 52 b1 2d be bb 71 78 3e
       -0.30038664 0.06541738 -0.16962174 0.24262135
000310 5f 66 94 39 76 5b 04 3e ca 59 31 3e 56 0b 9b be
       0.00028305032 0.12925515 0.17319408 -0.30282086
000320 4e 22 c2 3d 9b 3c 80 bd 1f ca 5c 3c 13 fa 9c bd
       0.09479199 -0.062615596 0.013475924 -0.07664885
000330 4b d8 bf be ed 9d 52 3d 72 eb 1f 3f f8 36 32 3e
       -0.37469706 0.05142014 0.62468636 0.17403781
000340 b7 a2 2c be ec d9 5a be 7c ba 83 3d 2e cd 90 3e
       -0.16858946 -0.21372193 0.064320534 0.2828154
000350 ec 70 8e bd 1e 76 8b be 5e 7b ed bd 26 a3 87 3d
       -0.06955132 -0.27238554 -0.11595796 0.06622915
000360 93 3d 46 3d 64 09 5c be 6a 8b ca bd 7c 7e 4f 3e
       0.048398566 -0.21487957 -0.09889872 0.20263094
000370 64 10 8d bd a3 9e 89 bd ec 48 4f 3a a0 9e 0d 3e
       -0.06887892 -0.06719711 0.00079072895 0.13830042
000380 c9 da f5 bc 42 b1 54 3e 88 f8 50 bd cc ba 4e be
       -0.030011551 0.20770743 -0.051018268 -0.20188445
000390 35 2c 27 3d 94 af 91 bc 5c b2 24 3e 73 a7 3a 3d
       0.040813643 -0.017783917 0.16083664 0.04556985
0003a0 2d a6 a5 3b 11 ab 68 3e 9c a2 6b bd 2a d8 d5 bd
       0.00505521 0.22721507 -0.057528123 -0.10441621
0003b0 88 06 87 be 18 5e aa bd 76 8a bf be af de a3 3d
       -0.2637217 -0.08318728 -0.37410325 0.08001458
0003c0 6e 15 d1 3b c2 54 cd bd b3 81 53 3e 89 3b 88 be
       0.0063807284 -0.10025932 0.20654945 -0.26607922
0003d0 2f 96 d2 3d 86 1a 3b 3e 3c 08 e6 3d 7b 78 14 3f
       0.102825515 0.18271837 0.11232039 0.5799634
0003e0 c3 48 24 3e d9 48 88 bd 2d b6 3a 3e ab 4a de bd
       0.16043381 -0.066545196 0.18233557 -0.108540855
0003f0 15 16 64 3d dc 9d 2a 3e 3e 6c 8c 3b 5e 7f 22 3d
       0.05568512 0.16661781 0.0042853644 0.039672248

network_body._body_endoder.seq_layers.0.bias f4 [256]
000000 ee cb 8b bd 2d a4 14 bb 2f 55 08 bd 52 d7 08 be
       -0.06826006 -0.0022680864 -0.033284362 -0.13363388
000010 46 42 0c bd 33 e9 da 3b f3 3d 79 bd 6b 70 99 bc
       -0.03424289 0.0066806315 -0.060850095 -0.018730363
000020 d7 62 bd 3c ef 30 2e 3d 6d 84 05 3d cd ea 67 3d
       0.02311842 0.042527135 0.032596994 0.056620408
000030 d3 49 17 3c ba 87 8f 3b 74 53 80 3c 9f 82 8b 3d
       0.00923391 0.0043801935 0.015664794 0.06812023
000040 d6 04 8e bd cf de 84 3c 0c 70 d1 ba 11 15 a2 3d
       -0.06934516 0.016219525 -0.0015978827 0.07914174
000050 50 ff 94 bd 44 e9 3a 3d 2d 26 e7 3d 30 5c 81 3d
       -0.072752595 0.045632616 0.11286578 0.063164115
000060 4a 66 68 3d 53 71 04 3d 22 10 8f bd e1 42 95 3d
       0.056738175 0.032334637 -0.06985499 0.07288147
000070 6d 70 9f 3c ef 6d 7b bb 6c 31 e2 3d 63 b4 d5 bb
       0.019462788 -0.0038365086 0.11044583 -0.006521748
000080 b9 2b 60 3d 2a 6a 0f 3c 69 05 0d bd 80 c3 8a 3c
       0.054729197 0.008753339 -0.034428988 0.016938925
000090 08 8e 05 bd 46 17 03 bd 55 6d 9b bd 9e 3d 71 bc
       -0.032606155 -0.032004617 -0.07589213 -0.014724163
0000a0 ea cf 38 ba 4a 43 a3 3d 57 7b 67 bb e7 2e 5b bd
       -0.00070500246 0.07971819 -0.003532132 -0.053511526
0000b0 4a 84 9d 3d d1 14 a8 3d 25 f6 bc bc 20 b7 67 ba
       0.07691248 0.082070954 -0.02306659 -0.00088392384
0000c0 6b f0 97 3c 71 81 f9 3c 95 da 19 bc fd 49 11 3d
       0.018547257 0.03045723 -0.009390493 0.03547095
0000d0 23 c4 26 be b2 69 98 3c 27 c4 41 3d 4d a5 9a bc
       -0.16285758 0.018605087 0.047306206 -0.01887765
0000e0 88 16 7c bd 27 c5 10 bd 35 0f 8b bb 7c 11 9e bc
       -0.061544925 -0.03534427 -0.004243756 -0.019295447
0000f0 e7 2f ed 3c 77 84 da bd 3d 40 c1 bd ef 1f 20 bd
       0.028953506 -0.10669797 -0.094360806 -0.039092954
000100 17 53 c2 3c 1a 62 93 bd 2a de 09 3d 54 dc c1 bd
       0.023721261 -0.07196446 0.033659138 -0.094658524
000110 fd fd 53 3c e3 3b 5d 3d 02 6d cf bc 04 47 55 3d
       0.0129389735 0.05401219 -0.025320534 0.05206968
000120 00 7b 46 bd 75 21 d9 bd 7c cb 34 3a 21 57 0d bd
       -0.048457146 -0.106020845 0.00068967766 -0.03450692
000130 dc 9d 4c bd f3 6b c9 bc 64 86 69 bd 7c 02 3f bd
       -0.049955234 -0.024587607 -0.05701293 -0.04663323
000140 43 cd 3e bd c9 cd 10 bd cf db 19 3d 85 75 68 bd
       -0.04658247 -0.035352502 0.03756314 -0.0567527
000150 81 01 a6 bc 6f fd 54 bd 62 2a b0 3b 40 cc 93 3c
       -0.020264389 -0.051999506 0.005376146 0.01804173
000160 b2 2c 2f 3d d3 76 9b 3d 9f 10 9c 3d 25 cd f0 bc
       0.042767234 0.07591023 0.07620358 -0.029394696
000170 5c a6 8b bd 3e e8 00 bd 74 95 8e bd 7f 5e c9 bc
       -0.0681884 -0.031471483 -0.069621 -0.024581192
000180 88 55 3e 3d 0b e7 4d bd 2c 6e 8a 3b 37 70 46 bd
       0.046468288 -0.050269168 0.0042245593 -0.04844686
000190 c1 95 9e 3d 42 a9 ac 3c c1 9a ae bc c6 17 14 3d
       0.07743407 0.021076802 -0.021314027 0.036155485
0001a0 c4 4f c8 3a 00 5c 8e 3a 22 5a a7 bc 66 56 3b 3d
       0.0015282561 0.0010861158 -0.02042872 0.045736693
0001b0 e9 1f 5b 3c 68 08 1a bd 33 9e c6 ba 14 c0 32 bd
       0.013374307 -0.037605673 -0.0015153348 -0.04364021
0001c0 28 71 44 bd 1f 79 96 3c 65 39 45 bd 75 f5 12 3d
       -0.047959477 0.018368302 -0.04815044 0.035878617
0001d0 33 a3 88 3c dd 78 86 3c d9 9a 0c 3d d3 20 f6 3c
       0.016679382 0.016415054 0.03432736 0.030044949
0001e0 4f 12 2c 3d 9b b3 40 bd 9e 87 0d bd 7b 96 da 3c
       0.042009648 -0.047046285 -0.034553163 0.026683083
0001f0 5f 79 af bc 8a c5 32 bd 9f 27 6c 3c 51 26 04 3d
       -0.021420179 -0.04364542 0.014413743 0.032263104
000200 f2 a5 3a 3d 80 cb 94 bd 8d db 88 bc c5 83 27 bb
       0.045568414 -0.07265377 -0.016706252 -0.0025560718
000210 3e 48 8d bc b8 d1 8c bc 65 b9 4f bd 0d a5 b6 bd
       -0.017246362 -0.017189845 -0.050713915 -0.089182
000220 bc 40 2c bd 20 2b 40 bd 0f c1 5d 3d da 43 92 bd
       -0.042053923 -0.046916127 0.054139193 -0.07141848
000230 b9 71 86 bb 20 3d 1b bc 7f b3 23 3d 03 ce 20 3d
       -0.0041029123 -0.009475023 0.039966103 0.039258968
000240 a5 b8 a2 3b c8 a4 d3 3d e9 e1 24 3d 7a 31 5d 3b
       0.004965859 0.10334164 0.040254507 0.0033751414
000250 bd bd 20 bd 30 ef 0a bd c0 b9 ea bd a2 44 47 be
       -0.03924345 -0.033919513 -0.1146121 -0.19459775
000260 ea ce d7 3c e3 02 94 3a 48 2f 96 3d 0c 27 39 bd
       0.026343782 0.0011292364 0.07333237 -0.045203254
000270 c3 a7 56 3d 1b 6c 96 bd 84 e0 12 bd 23 40 73 3d
       0.052406084 -0.07344838 -0.035858646 0.059387337
000280 82 3b 47 bd 36 f1 19 3c df 38 6e bc 23 83 45 3d
       -0.048640735 0.009395888 -0.014539926 0.048220765
000290 f4 01 2c 3d 74 1b ff bb b8 c5 c4 3c bd 62 72 3c
       0.04199405 -0.007785255 0.02402006 0.014794049
0002a0 b0 95 66 bc df e8 45 3c 93 2b 86 3d 2d ad 88 bd
       -0.014073774 0.012079447 0.0655128 -0.06673656
0002b0 a1 e0 0b bd 23 6a e6 bb 65 2a b7 bd 53 c6 0f bd
       -0.03414977 -0.0070316955 -0.08943633 -0.035101246
0002c0 7a 71 b4 3c 83 92 8c 3a e3 d7 2c 3d 58 ec d7 bd
       0.022026766 0.0010724816 0.042198073 -0.10543126
0002d0 7f 3d 3a bb f2 ee 9d bd 7e 84 88 3c 83 81 a4 3c
       -0.0028418002 -0.07711591 0.01666474 0.020081287
0002e0 fb 97 30 3c cd 97 45 bd e1 02 85 3c 61 22 8c bd
       0.0107784225 -0.04824047 0.016236724 -0.06842495
0002f0 69 a7 19 3a a8 9b 29 3d 3c 6c 8d 3d 44 83 ea ba
       0.0005861433 0.04140821 0.0690541 -0.0017891903
000300 1e 88 81 bc db 80 08 bd 60 6e a1 3d 5a b8 ce bb
       -0.015811976 -0.03332601 0.078823805 -0.0063085975
000310 22 9a 01 3b 51 0c 14 3d dc 6a b2 3c 87 cc 88 3d
       0.0019775708 0.03614456 0.02177947 0.066796355
000320 be a9 82 bc 64 de 22 3d a9 93 cf bc e8 5b 7e bd
       -0.01595008 0.03976287 -0.025338965 -0.062099367
000330 fa d7 ac 3c 73 eb 8d bc c9 f7 50 bd 8e 48 c8 bc
       0.02109908 -0.017324185 -0.051017556 -0.02444866
000340 6a fe b7 3b 53 24 4f 3c 9f 4c 64 bd 0a 99 d9 bd
       0.0056150453 0.012642938 -0.055737134 -0.10624893
000350 ee f9 ce bc 0e 41 0a bd 4a 3c 97 3b 67 80 6d bd
       -0.02526566 -0.033753447 0.0046153413 -0.057983782
000360 20 85 9d bb 19 b8 0d bd b0 e2 ba 3d f1 e1 25 3d
       -0.0048071295 -0.034599397 0.091252685 0.040498678
000370 d1 87 79 3d e8 ca cf bc 30 ac 4f 3c 9e 8e 7b 3d
       0.06092054 -0.025365308 0.01267533 0.061415307
000380 ad 5d 49 3d 1b f4 5c 3c 48 3b 96 3c 36 b0 fe 3c
       0.0491616 0.013485934 0.018338814 0.031089883
000390 98 12 6f bd de 0d 1a bd 17 a8 a2 3c a2 52 e0 bb
       -0.05836734 -0.03761088 0.019855542 -0.006845788
0003a0 1f a0 8c bd 52 3d 4c bd 0d d0 44 bd 5b 20 8a 3d
       -0.06866478 -0.049863167 -0.048049975 0.067444526
0003b0 bb 0d 1d bd c6 86 dc bc ba c0 12 3e 57 50 21 bb
       -0.038343173 -0.026919734 0.14331332 -0.0024614537
0003c0 de b3 08 bd d0 d3 69 bd 2f 7a 47 3c d0 60 2e bd
       -0.03337466 -0.057086766 0.012175127 -0.042572796
0003d0 d6 f6 89 bc d6 8d 10 3c 1c 75 5a bd ed fb 8e bd
       -0.016841333 0.008822879 -0.05333434 -0.06981645
0003e0 69 67 f1 3c 72 fd 60 3c 23 29 ba bd e5 a6 87 bd
       0.029468255 0.013732301 -0.090898775 -0.066236295
0003f0 4f ea aa bd 05 58 d2 3d a5 08 bc 3c 47 78 fa bd
       -0.08345472 0.10270695 0.02295334 -0.12229972
