results/MultiJumper_v7/SingleJumper.onnx (onnx, 280053 bytes, 14 tensors)

network_body.observation_encoder.processors.0.conv_layers.0.weight f4 [16, 6, 8, 8]
0	0x3d1baa83	0.03800441
1	0x3bece2eb	0.007229199
2	0xbcab3a13	-0.020901715
3	0xbc4236c4	-0.011853877
4	0x3d405bff	0.046962734
5	0xbce6fda8	-0.028197125
6	0xbc2f6958	-0.010706268
7	0x3c3372cf	0.0109526655
8	0xbbcdf53b	-0.0062853373
9	0x3d466c07	0.048442867
10	0xbc694e7e	-0.014239905
11	0x3c8543ec	0.01626774
12	0xbc891fe6	-0.016738843
13	0x3d21b331	0.03947753
14	0x3b63f0ec	0.0034781052
15	0x3b483186	0.0030547096
16	0xbd222fdf	-0.039596435
17	0x3c7a9b8e	0.015295876
18	0x3d1070a0	0.035263658
19	0xba8fa080	-0.0010957867
20	0xbc2d245c	-0.010567751
21	0x3d808812	0.06275953
22	0x3db76418	0.08954638
23	0xbcb82cb0	-0.022482246
24	0x3d1b0117	0.037842836
25	0x3d2b16b1	0.041769687
26	0x3d1dda32	0.038538165
27	0xbc74847a	-0.014924163
28	0x3d0dc150	0.034608185
29	0x3d8604e3	0.06543901
30	0x3b99a83d	0.004689245
31	0xbd6760c2	-0.05648876
32	0xbc258f1c	-0.010104921
33	0x3b970994	0.004609296
34	0x3c97519c	0.018471532
35	0x3cfce8e1	0.030872764
36	0x3c274bfa	0.010210985
37	0x3c029f5f	0.007972567
38	0x3bf98c9d	0.0076156394
39	0xbd0b7199	-0.034043882
40	0xbd00857b	-0.031377297
41	0xbd8a955a	-0.06766768
42	0x3ab28f6b	0.0013623064
43	0xbcf76ed2	-0.03020421
44	0x3d1f9729	0.038962517
45	0xbd2724ec	-0.040806696
46	0x3d65ab71	0.056071702
47	0x3d306473	0.043064546
48	0xbcf4b9ba	-0.029873718
49	0x3c886309	0.016648786
50	0xbd9d8c6b	-0.07692798
51	0x3cfc079a	0.030765343
52	0xb9370a40	-0.00017456058
53	0x3cca7c89	0.024717586
54	0x3d85bb0f	0.06529819
55	0x3d55cb99	0.05219612
56	0xbd20afd9	-0.0392302
57	0xbd32d258	-0.04365763
58	0xbc6a1f81	-0.014289738
59	0xbcbb255e	-0.022844967
60	0x3c9676ad	0.018367136
61	0x3b9df962	0.0048209885
62	0xbcb1e346	-0.021714818
63	0x3d18f938	0.03734705
64	0x3cea9f2d	0.028640354
65	0x3ce96d69	0.028494554
66	0x3cdf6716	0.027270835
67	0x3cd1f594	0.025629796
68	0xbbbc1e88	-0.0057409443
69	0x3d7cd3b3	0.06172533
70	0x3d8ef2fc	0.06979939
71	0xbc49ed4a	-0.0123246405
72	0x3cf8830d	0.030335927
73	0x3d437ac5	0.047724504
74	0x3d4a2d67	0.049359705
75	0xbd1a4c7d	-0.0376706
76	0x3c8e7db7	0.01739393
77	0x3d1f0ea1	0.03883231
78	0x3b5afbda	0.0033414275
79	0x3cf278c1	0.029598596
80	0x3d406210	0.04696852
81	0xbc92cb6c	-0.017919265
82	0x3cac302b	0.021019062
83	0x3c0c69d2	0.008570151
84	0xbcdb649f	-0.026781378
85	0xbd233142	-0.039841898
86	0xbccefb2e	-0.025266256
87	0x3d6d3139	0.05790827
88	0xbd19a86b	-0.03751413
89	0xbc61b25a	-0.0137754325
90	0x3bc9b171	0.006155186
91	0xbd0277f2	-0.03185267
92	0x3be90c1c	0.0071120393
93	0x3cf3e815	0.029773751
94	0xbcd492f5	-0.02594898
95	0x3cb7f0be	0.022453662
96	0xbd1be8f5	-0.038063962
97	0x3b955c3e	0.0045581153
98	0x3d35853c	0.044316515
99	0x3d291bae	0.041286163
100	0xbc810196	-0.015747827
101	0x3cde16a1	0.0271104
102	0xbd3aec11	-0.045635287
103	0x3cb73bea	0.022367436
104	0x3dacbf8d	0.08434973
105	0xbbfb2d4b	-0.0076653115
106	0x3b7d731e	0.0038673352
107	0xbd02b926	-0.031914853
108	0xbceb47a3	-0.028720682
109	0x3cee3495	0.029077807
110	0xbc2e53db	-0.01064011
111	0xbc354b7d	-0.011065361
112	0x3da25491	0.07926286
113	0x3ca60779	0.020267235
114	0xbd475a65	-0.04867019
115	0x3c4b7346	0.01241762
116	0x3c9b4f90	0.018958837
117	0x3d9a3885	0.075303115
118	0x3cd5befe	0.026092049
119	0x3ccff7cd	0.025386715
120	0x3cf35985	0.029705772
121	0x3d0dad82	0.034589298
122	0x3d02f5c5	0.031972665
123	0xbd3d1c8d	-0.046169806
124	0xbcb65dda	-0.022261549
125	0x3d31e702	0.043433197
126	0x3d6c1d28	0.057644993
127	0x3a91576f	0.0011088679
128	0xbc86189f	-0.016369162
129	0x3d1d64b1	0.038426105
130	0x3d15eb21	0.03660119
131	0xbbc25e78	-0.0059316717
132	0x3d65951b	0.0560504
133	0xbc1df9ff	-0.009642123
134	0x3d1ee415	0.038791735
135	0x3d786ec6	0.060652517
136	0xbd0716e0	-0.0329808
137	0xbce0f341	-0.027459743
138	0x3d088e5f	0.0333389
139	0x3d7a9d03	0.061184894
140	0x3d64b0e6	0.055832766
141	0xbac18905	-0.0014765566
142	0x3d5f5980	0.054528713
143	0x3d93c59f	0.072154276
144	0x3cf545a3	0.029940432
145	0xbaa4ee2a	-0.0012583185
146	0x3d2f3ac1	0.04278064
147	0x3d815339	0.063147016
148	0xbc3c9252	-0.011509495
149	0x3d78ead0	0.06077081
150	0x3c90ed10	0.017691165
151	0x3d3af060	0.045639396
152	0x3c1896e7	0.009313322
153	0x3c1ab715	0.009443064
154	0x3b2c8c10	0.00263286
155	0xbc3eae18	-0.011638187
156	0x3d9c63a8	0.076361954
157	0xbceb23fe	-0.028703686
158	0x3d45dd32	0.04830665
159	0x3d34227e	0.043978207
160	0x38007e2c	3.0635085e-05
161	0xbc9febd4	-0.019521631
162	0x3d53aa38	0.051676005
163	0x3c14669a	0.009057665
164	0x3d9b6567	0.075877
165	0x3d7c173a	0.061545588
166	0xbcf940cf	-0.030426411
167	0x3d91c148	0.071169436
168	0xbcd2aafb	-0.025716295
169	0xbc49818c	-0.012298953
170	0x3ca85da8	0.020552471
171	0x3d816b52	0.06319298
172	0x3d70c2bc	0.058779463
173	0x3ceb743e	0.028741952
174	0x3c5876c9	0.013211914
175	0xbcbc847a	-0.023012388
176	0xbc16d938	-0.009207062
177	0xbc30d1b3	-0.010792184
178	0x3cf3c4b3	0.02975688
179	0x3d93f30b	0.07224091
180	0x3ce36fe2	0.02776331
181	0x3d60eb8a	0.054912128
182	0xbbb74f67	-0.0055941823
183	0x3b65cce8	0.003506476
184	0xba00db56	-0.0004915496
185	0x3d2089a0	0.03919375
186	0xbc78f4dc	-0.015195098
187	0xb9bc5dbd	-0.00035927995
188	0x3cb135c5	0.021632085
189	0x3cb10cf0	0.021612614
190	0x3ca30a52	0.019902382
191	0xbcfdb5f7	-0.030970557
192	0x3dabd602	0.08390428
193	0x3d8e6bd7	0.069541626
194	0xbcd667b7	-0.026172502
195	0xbc88f2f0	-0.016717404
196	0xbd42b683	-0.047537338
197	0x3b8e1831	0.00433638
198	0x3d7f1feb	0.0622863
199	0xbca1cf8d	-0.019752288
200	0x3d5b6d37	0.053570952
201	0xbc9d2015	-0.019180337
202	0xbc0d407c	-0.008621331
203	0x3d2735a6	0.040822648
204	0xbccbe199	-0.024887847
205	0x3d7dac6f	0.061932024
206	0xbbe8e414	-0.007107267
207	0xbd1fda9f	-0.039026853
208	0xbc8e6f40	-0.017387033
209	0x3d1908d2	0.037361927
210	0x3c57ac5e	0.013163654
211	0xbc4f9800	-0.012670517
212	0xbcce80b4	-0.025207855
213	0x3d75ee37	0.060041633
214	0x3dc2b522	0.095072046
215	0xbc536b98	-0.01290407
216	0x379c8498	1.8658393e-05
217	0x3cc4e488	0.024034753
218	0xbce2ce3c	-0.02768623
219	0x3d155d9c	0.036466226
220	0x3bf69579	0.0075251427
221	0x3d1aced6	0.03779491
222	0x3dbcf4a6	0.092263505
223	0x3d3cc9f5	0.04609104
224	0x3d37d241	0.044878248
225	0x3cc0a13b	0.02351438
226	0xbb11d7c0	-0.002225384
227	0xbcc64d70	-0.024206847
228	0x3dbde3fb	0.092719994
229	0x3c1d807c	0.009613153
230	0x3d411071	0.04713482
231	0xbbcc085c	-0.0062265825
232	0x3cc0d661	0.023539724
233	0xbd58b60d	-0.052907992
234	0xbd6f88a4	-0.05847992
235	0x3d711307	0.058856037
236	0xbcca5912	-0.024700675
237	0x3d815730	0.06315458
238	0xbd3649f4	-0.04450412
239	0x3d1aecb4	0.037823394
240	0xbd401ed3	-0.046904396
241	0x3c86acb3	0.016439771
242	0xbd136904	-0.035988823
243	0xbcd99287	-0.026559127
244	0x3d141e8c	0.036161944
245	0x3d81cf48	0.06338364
246	0x3b2ef645	0.002669708
247	0x3d4e72db	0.050402503
248	0x3c353fae	0.011062546
249	0xbc502aa2	-0.012705477
250	0x3b746919	0.0037294088
251	0x3d286ee6	0.041121386
252	0x3d0211af	0.031755146
253	0x3d2bd735	0.041953284
254	0x3db3cb9b	0.08779069
255	0x3b75272f	0.0037407388

network_body.observation_encoder.processors.0.conv_layers.0.bias f4 [16]
0	0xb970ec94	-0.00022976316
1	0xbcf0e77e	-0.02940726
2	0x3ba970f6	0.0051709367
3	0xbd16292a	-0.03666035
4	0x3d29aa48	0.04142216
5	0x3d06bd05	0.032895107
6	0x3bfd15e6	0.0077235578
7	0x3cceb3b2	0.02523217
8	0xbc9159b8	-0.017742977
9	0xbd1cac4b	-0.03825025
10	0x3d1da9a0	0.038491845
11	0xbc8c1781	-0.017101051
12	0xbbe217e7	-0.006899822
13	0x3c04718e	0.008083714
14	0x3d087dfc	0.033323273
15	0x3cc7f42a	0.024408419

network_body.observation_encoder.processors.0.conv_layers.2.weight f4 [32, 16, 4, 4]
0	0x3d041177	0.03224322
1	0xbbfcf47f	-0.007719576
2	0xbd02a7bf	-0.031898256
3	0xbd3533f3	-0.044238996
4	0x3d915d96	0.07097928
5	0xbd3037a2	-0.043021806
6	0x3d411e6d	0.047148157
7	0xbda9619e	-0.08270572
8	0x3dbc1163	0.09183004
9	0xbd179c31	-0.03701419
10	0xbd1ef8b0	-0.038811386
11	0xbc9cb416	-0.01912884
12	0x3cd230a6	0.025657963
13	0x3d0f7988	0.03502801
14	0xbd53c296	-0.051699243
15	0xbc329aa3	-0.010901126
16	0x3d4a2239	0.049349044
17	0x3da0c3f0	0.07849872
18	0x3ccb43d2	0.024812613
19	0x3c0a0c33	0.00842576
20	0x3d0fab23	0.035075318
21	0xbcf7a68a	-0.03023078
22	0xbd306ee3	-0.0430745
23	0xbd6d6fa8	-0.05796781
24	0xbb9e7929	-0.0048362208
25	0x3d964b4f	0.07338583
26	0x3ba955ce	0.0051676994
27	0xbd3c1617	-0.045919504
28	0x3c11aa6b	0.0088907285
29	0x3bf47ffb	0.0074615455
30	0x3d07c224	0.03314413
31	0xbd5adb49	-0.053431783
32	0xbc674797	-0.014116189
33	0xbc7d4abd	-0.0154597135
34	0xbd4f1655	-0.050558407
35	0x3d74a5f2	0.05972857
36	0xbcad361c	-0.021143965
37	0xbd2a5805	-0.04158785
38	0xbc07763d	-0.008267936
39	0xbad65b34	-0.0016354085
40	0x3c95d810	0.018291503
41	0xbd1b7fa0	-0.03796351
42	0x3d274b2e	0.04084318
43	0xbd89aceb	-0.067224346
44	0x3d634999	0.05549011
45	0xbce81f58	-0.028335258
46	0x3cf6b627	0.030116154
47	0xbcd32fcf	-0.025779633
48	0x3d8bbc7b	0.06823059
49	0xbd73d85d	-0.059532512
50	0xbd520f82	-0.05128432
51	0xbd21c231	-0.039491836
52	0x3d7d6408	0.061862975
53	0xbc7a4389	-0.015274891
54	0x3ca8fd20	0.020628512
55	0xbd5becea	-0.053692736
56	0x3dadb2aa	0.08481343
57	0xbcd69625	-0.026194641
58	0xbb147b41	-0.0022656473
59	0x3c727e06	0.014800554
60	0xbb84b9c9	-0.0040504676
61	0x3d188fdd	0.037246574
62	0xbd16b461	-0.036793116
63	0xbd40c9db	-0.047067504
64	0x3db80c15	0.089866795
65	0x3ca7791d	0.020443494
66	0x3d3a8cf3	0.045544576
67	0xbd12ff28	-0.035887867
68	0x3d3c316e	0.045945577
69	0x3da8c98b	0.08241566
70	0xbd747839	-0.059684966
71	0x3d05f502	0.03270436
72	0x3cbbb2ee	0.022912469
73	0x3d2a9d35	0.04165383
74	0xbc6f0b16	-0.014590045
75	0xbd0baa00	-0.03409767
76	0x3d000814	0.031257704
77	0xbcf8abec	-0.030355416
78	0xbce47b24	-0.02789075
79	0x3d1d4f26	0.03840556
80	0x3d8c81c9	0.06860692
81	0x3d39ba36	0.0453436
82	0x3c5a3d1c	0.013320234
83	0xbd8895eb	-0.066692196
84	0x3c83e1b1	0.016098829
85	0x3b9ced7c	0.0047890525
86	0x3d926f13	0.07150092
87	0x3c3005a8	0.010743536
88	0x3cdd70d6	0.027031343
89	0xbc80603e	-0.015670892
90	0x3d11de91	0.035612646
91	0xbcaaf6ac	-0.020869575
92	0xbcace7b3	-0.021106577
93	0xbd3da674	-0.04630132
94	0x3d739a8d	0.059473563
95	0x3cf9ddd9	0.030501293
96	0x3d831697	0.06400793
97	0x3d1a5105	0.037674922
98	0x3daea9be	0.085284695
99	0x3d68c19b	0.05682526
100	0x3c835fd6	0.01603691
101	0x3d4a69c2	0.049417265
102	0x3d87e7a5	0.066359796
103	0xbbe2a162	-0.006916211
104	0xbc0b15e8	-0.00848911
105	0x3d240e3a	0.04005263
106	0x3d0a8ecb	0.033827584
107	0x3b78f80f	0.0037989651
108	0x3d60a490	0.05484444
109	0x3abac86e	0.0014250407
110	0xbd6c6145	-0.05770995
111	0x3ce29974	0.027661063
112	0x3bc3698c	0.00596351
113	0x3c113bf9	0.008864396
114	0xbabd67ae	-0.0014450455
115	0xbcbb7136	-0.022881132
116	0x3c8e3270	0.017358035
117	0x3d4d6329	0.050143395
118	0xbc142762	-0.009042593
119	0xbd09ff73	-0.03369088
120	0xbd007674	-0.031362966
121	0xbcfc879d	-0.030826384
122	0xbd9ecc79	-0.07753844
123	0xbcb0a3c6	-0.021562468
124	0x3a3922bf	0.00070623675
125	0xbd010188	-0.0314956
126	0xbd916220	-0.07098794
127	0xbd8d2efe	-0.06893729
128	0xbb710306	-0.0036775484
129	0x3cb6a022	0.022293154
130	0xbb0da56c	-0.0021613492
131	0xbd04c4bd	-0.032414187
132	0xbc28ab2c	-0.010294717
133	0x3d8388a2	0.06422545
134	0xbd10dfa5	-0.035369534
135	0x3d4cbddc	0.04998575
136	0xbd4c4a1b	-0.04987536
137	0x3d70d5ca	0.058797635
138	0xbd07c7b5	-0.03314944
139	0xbd4f7fab	-0.050658863
140	0xbd379a0e	-0.044824652
141	0xbd09d5d6	-0.033651195
142	0x3d028123	0.031861436
143	0x3ba5e273	0.0050623952
144	0xbcd70c59	-0.026251005
145	0x3d4927f0	0.049110353
146	0xbc114ddc	-0.008868661
147	0xbd11a7f2	-0.035560556
148	0xbc6e030b	-0.014527093
149	0x3da63792	0.08116068
150	0x3d02f8f2	0.031975694
151	0xbd2be111	-0.041962687
152	0xbbc79879	-0.006091174
153	0x3d8e450d	0.06946764
154	0x3c44b260	0.012005419
155	0xbc45ac79	-0.0120650465
156	0xba05f1f8	-0.00051096035
157	0xbd1d6cac	-0.038433716
158	0xbcb657b6	-0.02225862
159	0xbd86ec81	-0.06588078
160	0xbbe755f9	-0.0070598093
161	0xbc851c19	-0.01624875
162	0x3d5d7715	0.054068644
163	0x3c3660a3	0.011131438
164	0x3d138d9b	0.036023717
165	0x3c02edd9	0.007991278
166	0xbd434531	-0.047673408
167	0x3caddf4c	0.02122464
168	0xbcf9aac0	-0.030476928
169	0x3c967319	0.01836543
170	0x3d7e6bbb	0.06211446
171	0x3c13eed7	0.009029112
172	0xbd195a7c	-0.03743981
173	0xbd3d329e	-0.04619085
174	0x3cb6839f	0.022279559
175	0xbbc48290	-0.0059970096
176	0x3d9d6fdc	0.07687351
177	0xbd0625c9	-0.03275088
178	0x3d443684	0.047903553
179	0x3d07ceed	0.033156324
180	0x3dbbb2fc	0.09164998
181	0xbcc24244	-0.023713239
182	0xbc914c60	-0.017736614
183	0xbd736e06	-0.0594311
184	0x3d611e89	0.05496076
185	0xbd10c9b6	-0.035348617
186	0x3aeaedd1	0.0017923658
187	0xbc7bfcdd	-0.0153801115
188	0xbc1c915b	-0.00955614
189	0x3d0b9754	0.034079865
190	0x3d63ade1	0.055585746
191	0x3c259774	0.01010691
192	0x3d38910e	0.04506021
193	0x3d02f7d2	0.03197462
194	0x3cacc2fb	0.021089068
195	0xbd64640c	-0.055759475
196	0x3cd05cb9	0.025434839
197	0x3c50ca5e	0.012743561
198	0xbd393a82	-0.045221813
199	0xbcb7e317	-0.022447152
200	0x3d753999	0.059869383
201	0x3c450d53	0.0120271025
202	0xbd3e97c3	-0.04653145
203	0xbcb0f9b8	-0.02160345
204	0xbc734952	-0.014849024
205	0xbd0a6a74	-0.033792928
206	0x3d0525ef	0.03250688
207	0xbd2b5b37	-0.041835036
208	0x3ca58235	0.02020369
209	0x3d8e65ba	0.069529966
210	0x3d6119d9	0.05495629
211	0x3c990737	0.018680198
212	0x3d2ec3c7	0.042667177
213	0x3d64a169	0.055817995
214	0x3b79d8ce	0.003812361
215	0xbc19a0b5	-0.009376694
216	0x3d92e88d	0.07173262
217	0x3d1fc5e4	0.039007083
218	0xbd0b3a11	-0.033990923
219	0xbd15417a	-0.036439396
220	0x3dc4925a	0.09598227
221	0xbc2ef199	-0.010677719
222	0x3ad1ee30	0.001601642
223	0xbd066ca7	-0.032818463
224	0x3da804b2	0.082040206
225	0x3d6d0e45	0.057874937
226	0x3d059a4e	0.03261786
227	0x3ca9ab14	0.02071146
228	0x3ae769f9	0.0017655484
229	0x3d21f26a	0.039537825
230	0x3d869b07	0.06572538
231	0xbd189567	-0.037251856
232	0x3ca1c997	0.019749446
233	0xbc514bb5	-0.012774398
234	0x3b4ce001	0.0031261446
235	0x3cf76924	0.030201502
236	0x3c28ff6e	0.010314805
237	0x3c498300	0.012299299
238	0xbd54f795	-0.051993925
239	0x3d3e24ee	0.046421938
240	0x3d2a9e01	0.04165459
241	0x3db6e436	0.089302465
242	0x3d8f92d7	0.07010429
243	0x3cf09d96	0.029372018
244	0x3d3de062	0.046356566
245	0x3b6bae75	0.0035962139
246	0x3cbc16b6	0.022960048
247	0x3d450bb9	0.048106883
248	0x3c0d4fa4	0.008624945
249	0x3ca533d0	0.020166308
250	0x3cfb4e8a	0.030677099
251	0xbcd227fd	-0.025653834
252	0xbd051707	-0.032492664
253	0x3d8027aa	0.06257565
254	0xbd386ffb	-0.045028668
255	0x3d1e8f7d	0.03871106

network_body.observation_encoder.processors.0.conv_layers.2.bias f4 [32]
0	0x3c21e03a	0.00988012
1	0x3c9a1f01	0.018813612
2	0xbd81c587	-0.063365035
3	0xbcf1b84b	-0.029506823
4	0xbd4716a8	-0.04860559
5	0x3d5dd38e	0.054156832
6	0x3d5fc0bb	0.05462716
7	0x3abfed32	0.0014642833
8	0x3d44d51a	0.048054792
9	0x3cf67bf5	0.030088404
10	0x3c5cd7ff	0.013479232
11	0x3c407d11	0.011748568
12	0xbd16ce6b	-0.03681795
13	0xbd1b27e0	-0.037879825
14	0x3cad015b	0.02111881
15	0xbd101d5c	-0.03518425
16	0x3d387da3	0.04504169
17	0xbd23821e	-0.03991901
18	0xbbd9c4c5	-0.006645771
19	0x3d2312e2	0.03981293
20	0x3beff229	0.007322569
21	0xbd00a0d6	-0.031403385
22	0x3d5bd6d2	0.053671665
23	0xbc754c1a	-0.014971757
24	0xbc7d669c	-0.0154663585
25	0x3cda0903	0.026615625
26	0xbc201ac5	-0.009772007
27	0x3d604628	0.054754406
28	0x3cb1a84e	0.0216867
29	0xbd120c09	-0.03565601
30	0xbcef7ef0	-0.029235333
31	0xbd0050f8	-0.031327218

network_body.observation_encoder.processors.0.dense.0.weight f4 [128, 32]
0	0x3c06e170	0.008232459
1	0x3df77c05	0.12084202
2	0xbe1571d7	-0.14594208
3	0xbd36e30c	-0.044650123
4	0x3eaf7c87	0.34274694
5	0x3ebe58e0	0.3717718
6	0x3de9e248	0.11420113
7	0xbdf2883f	-0.11842393
8	0x3e2d8805	0.16946419
9	0x3ae35831	0.0017345009
10	0xbe9cf97f	-0.306591
11	0xbe3e0300	-0.18555832
12	0x3e4164eb	0.18886153
13	0xbedd2db9	-0.43198946
14	0xbe951701	-0.29119113
15	0x3d378217	0.044801798
16	0xbce9f0a9	-0.028557139
17	0xbdd7701b	-0.10519429
18	0xbf0e7a95	-0.55655795
19	0x3eb77701	0.3583298
20	0xbe0783a2	-0.13233808
21	0x3ea1ea5a	0.3162411
22	0x3d852350	0.06500876
23	0xbd7e4ad1	-0.06208307
24	0x3ea092e9	0.31362084
25	0x3e3c256b	0.18373649
26	0xbeb3305f	-0.34997842
27	0x3f1ad2b4	0.6047776
28	0x3e8ca6eb	0.27471098
29	0x3d0374a4	0.03209366
30	0xbe8cf9f6	-0.27534455
31	0xbd97ae25	-0.07406262
32	0x3dadc1db	0.084842406
33	0x3df3d3ad	0.11905608
34	0xbe07f2cb	-0.13276212
35	0x3e871425	0.26382557
36	0x3ebd37c6	0.36956614
37	0xbedcd310	-0.43129778
38	0x3e4d201d	0.20031781
39	0x3dcb5e90	0.09930146
40	0xbf405296	-0.75126016
41	0x3ea475c3	0.32121095
42	0xbe2102ac	-0.15723675
43	0xbc0f29a4	-0.008737955
44	0x3e0aac2c	0.13542241
45	0x3ea6270c	0.32451665
46	0x3e17e40b	0.14833085
47	0xbe1641df	-0.14673565
48	0x3e4d8887	0.20071612
49	0xbed5e2a2	-0.4177447
50	0xbd5833d5	-0.052783806
51	0xbc0d17df	-0.008611648
52	0x3f219a81	0.6312638
53	0xbe84e0f5	-0.2595288
54	0xbd856d65	-0.06515006
55	0x3ddd5dc1	0.10808898
56	0x3dd69a06	0.104785964
57	0xbe5e98ae	-0.2173793
58	0x3f0f6df0	0.56027126
59	0x3eb83cce	0.3598389
60	0xbeaf9070	-0.34289885
61	0x3ec7cbcb	0.3902267
62	0xbdfb77c9	-0.122787066
63	0xbf1cd18d	-0.6125725
64	0x3e8e63d4	0.27810538
65	0xbe2add02	-0.1668587
66	0xbe223b22	-0.1584287
67	0xbddbfde2	-0.10741784
68	0x3e447d4a	0.19188419
69	0xbe97eaa3	-0.296712
70	0xbe3119a4	-0.17294937
71	0x3eef514c	0.46741712
72	0xbed2563a	-0.4108141
73	0x3c796c5f	0.015223592
74	0x3e11410f	0.14184974
75	0xbe05cc32	-0.13066176
76	0x3e6e440b	0.23268144
77	0xbd923589	-0.07139117
78	0xbe86d964	-0.2633773
79	0x3e193462	0.14961389
80	0xbd14f5dd	-0.036367286
81	0xbdf7dd0f	-0.121027105
82	0xbe99a3d7	-0.30007812
83	0xbd87062f	-0.06592976
84	0xbe026242	-0.12732795
85	0xbf075b87	-0.52874035
86	0x3ded467c	0.115857095
87	0xbe1f2ce9	-0.15544476
88	0xbe2d4c63	-0.1692367
89	0x3f0637ec	0.5242908
90	0xbe3845e2	-0.17995408
91	0xbf013886	-0.5047687
92	0xbd2ab9e6	-0.041681193
93	0x3e24a655	0.16079076
94	0xbe916639	-0.28398302
95	0xbe931efc	-0.28734577
96	0xbe691f6e	-0.22765896
97	0xbecc7ee8	-0.39940572
98	0xbe318d70	-0.1733911
99	0x3e3e136b	0.18562095
100	0x3de5eee2	0.11227204
101	0xbe63229f	-0.22181176
102	0x3e62c3ac	0.22144955
103	0x3e87f392	0.26553017
104	0xbe8c42c4	-0.27394688
105	0x3e01aa3c	0.12662596
106	0x3e1ac276	0.15113243
107	0x3bef0629	0.0072944355
108	0x3e54b0c0	0.2077055
109	0xbe97c4d7	-0.29642364
110	0x3da713f9	0.08158106
111	0x3d9e1293	0.077183865
112	0x3e264223	0.16236167
113	0x3f10125f	0.5627803
114	0xbe7fdb1c	-0.24985927
115	0x3f19562d	0.5989712
116	0x3bb9b6f9	0.005667564
117	0xbde0d0d2	-0.10977329
118	0x3dfdadce	0.12386666
119	0x3e5b62bc	0.21424383
120	0x3db6e50f	0.08930408
121	0x3f31ba5c	0.69424987
122	0xbba5f00c	-0.005064016
123	0x3e57fc30	0.21092296
124	0xbe098301	-0.1342888
125	0x3e61c1ab	0.22046535
126	0x3e97ec42	0.29672438
127	0xbe6f42a1	-0.2336526
128	0x3d31fadb	0.043452125
129	0xbd7c3db9	-0.0615823
130	0x3d7e9ef8	0.062163323
131	0x3e5f8ef7	0.2183188
132	0xbd9ef2b0	-0.07761133
133	0xbe1bacd1	-0.15202643
134	0xbe19c495	-0.15016396
135	0x3e23c286	0.15992174
136	0x3e365a1e	0.17807814
137	0x3e91891b	0.28424916
138	0xbd93fb6c	-0.07225689
139	0x3dba2a0f	0.09090053
140	0xbd0a9ad7	-0.033839073
141	0x3e5d500f	0.21612571
142	0x3e1aaa99	0.1510414
143	0xbd2940b6	-0.04132148
144	0x3e99a9d4	0.3001238
145	0x3e45ee45	0.19329174
146	0xbe8fc028	-0.2807629
147	0x3dde9fe6	0.10870342
148	0x3b824c9a	0.003976417
149	0x3e5e9354	0.21735889
150	0x3e8a77ac	0.27044427
151	0x3de2bc65	0.1107109
152	0xbf49bc1b	-0.7880265
153	0xbe9986e8	-0.29985738
154	0x3e926a61	0.28596786
155	0xbeba384a	-0.3637107
156	0x3d28071f	0.041022416
157	0xbe3f05d8	-0.18654573
158	0x3e8d1bf7	0.27560398
159	0xbcac1a72	-0.021008704
160	0xbececcf3	-0.4039074
161	0x3e1e9c92	0.15489414
162	0x3ccad867	0.024761392
163	0x3e918165	0.28419033
164	0x3dbb9764	0.09159735
165	0xbea631ea	-0.32459956
166	0xbe3a7b9b	-0.18211214
167	0x3e8227eb	0.2542108
168	0x3dc87d9f	0.09789585
169	0xbe93ecdc	-0.28891647
170	0x3e154015	0.14575227
171	0x3d903c5a	0.07042761
172	0x3ccc66dd	0.024951393
173	0xbe1d1086	-0.15338334
174	0x3c47832a	0.012177268
175	0x3efc9385	0.49331298
176	0xbf0b7e24	-0.5448935
177	0x3dd537ea	0.104110554
178	0xbe3a8059	-0.18213023
179	0x3e06b3be	0.13154504
180	0xbe8aa7f4	-0.27081263
181	0xbe899672	-0.26872593
182	0x3e278436	0.16359028
183	0xbe56ecda	-0.20988789
184	0xbe8d0575	-0.27543226
185	0xbd2d1165	-0.042252917
186	0xbdba6e17	-0.09103029
187	0xbe9f5e14	-0.31126463
188	0xbcd0aa06	-0.025471698
189	0xbdced23c	-0.10098693
190	0x3e322612	0.17397335
191	0xbd9c9837	-0.0764622
192	0xbe331860	-0.17489767
193	0x3e358365	0.17725904
194	0x3cb2026e	0.021729674
195	0xbd33db17	-0.043910112
196	0xbd8dfb68	-0.069327176
197	0xbebbd9a7	-0.36689493
198	0xbd55f81e	-0.052238576
199	0xbda5ca20	-0.08095193
200	0x3e8862df	0.26637933
201	0xbd94bc3f	-0.072624676
202	0x3b27a113	0.0025578185
203	0x3ea80386	0.32815188
204	0x3e62408c	0.22094935
205	0x3e2eb493	0.17061071
206	0xbf08f8d5	-0.5350469
207	0x3e9646d9	0.29350927
208	0x3e3c38cd	0.18381043
209	0x3e52220c	0.205208
210	0xbc78d4a6	-0.015187418
211	0x3e9bbd79	0.30417994
212	0x3e57d72c	0.21078175
213	0x3e601b65	0.2188545
214	0x3e98eabb	0.29866585
215	0xbea5f3c8	-0.32412553
216	0x3b8d0ec7	0.00430474
217	0x3c573ab9	0.013136559
218	0xbe87daf8	-0.26534247
219	0x3dbcd8eb	0.09221061
220	0x3deeb24e	0.11655103
221	0x3de11227	0.109897904
222	0xbd9ac0c6	-0.075563
223	0xbe09e50c	-0.1346628
224	0x3e540fdc	0.20709175
225	0xbea4a7ba	-0.32159215
226	0xbe05a747	-0.13052092
227	0x3daf15e7	0.085490994
228	0x3e08117b	0.13287918
229	0xbec01685	-0.3751718
230	0xbe2d958e	-0.16951582
231	0x3e695af6	0.22788605
232	0xbeb02868	-0.34405828
233	0xbea09841	-0.3136616
234	0x3e55620c	0.20838183
235	0xbe579273	-0.2105196
236	0xbdb37b0f	-0.08763706
237	0xbd0c05f8	-0.03418538
238	0x3ed43cca	0.41452628
239	0xbe83f475	-0.25772443
240	0xbe5f6a70	-0.21817946
241	0xbe149018	-0.14508092
242	0xbe6594da	-0.22420064
243	0xbec44e3e	-0.38340944
244	0x3bf7bc20	0.007560268
245	0xbe41dca9	-0.18931831
246	0x3eff5500	0.49869537
247	0x3d922794	0.07136455
248	0xbe58ab16	-0.21159014
249	0xbebc1305	-0.3673326
250	0xbdb22912	-0.0869924
251	0xbdb97a2c	-0.090565056
252	0xbd992cff	-0.074792854
253	0x3e86ca50	0.26326227
254	0x3d8e8059	0.06958074
255	0xbe3903ae	-0.1806781

network_body.observation_encoder.processors.0.dense.0.bias f4 [128]
0	0x3bdc51c3	0.006723614
1	0x3c5f7251	0.013638095
2	0x3c0a1186	0.0084270295
3	0xbbfb35c3	-0.007666321
4	0x3d2b80d1	0.041870896
5	0xbc4a8e08	-0.012362964
6	0x3c36130f	0.011112942
7	0xbc777a34	-0.015104819
8	0x3b63c73e	0.0034756209
9	0x3ccb24bf	0.024797795
10	0x3bad3e58	0.005286973
11	0x3bed2c79	0.0072379676
12	0xbcd64f38	-0.026160821
13	0xbc4bf413	-0.012448329
14	0x3c4fd172	0.012684213
15	0x3c1f85a8	0.009736456
16	0xbb5a6362	-0.0033323397
17	0xbc4c4574	-0.012467731
18	0x3c30e95e	0.010797827
19	0x3c14c90b	0.0090811355
20	0x3c422814	0.011850376
21	0x3ba5e81a	0.005063069
22	0x3beee2a0	0.0072901994
23	0x3c085098	0.008319996
24	0x3cfc96db	0.030833652
25	0x3cfc5bbd	0.030805463
26	0x3bd8ee8d	0.0066202343
27	0xba8f6fc1	-0.001094334
28	0xbc17c245	-0.009262626
29	0x3bcf8f6d	0.0063342364
30	0xbbe2e003	-0.006923677
31	0x3c128789	0.008943447
32	0x3c03fc2e	0.00805573
33	0x3c23a5af	0.0099882325
34	0x3c14d59e	0.009084133
35	0xbbf59696	-0.007494758
36	0x3cd237fa	0.025661457
37	0xba8e863b	-0.0010873744
38	0xbc2620f1	-0.01013969
39	0x3c44ac45	0.012003963
40	0x3a8d18f8	0.0010764888
41	0x3ba03e88	0.004890267
42	0x3d155d28	0.036465794
43	0xbbaeaa46	-0.005330357
44	0xbaa2999c	-0.0012405398
45	0x3b4d0a07	0.0031286494
46	0x3c2e88bf	0.01065272
47	0x3ce83ca6	0.028349232
48	0x3cba37e2	0.022731725
49	0xbc906b24	-0.017629214
50	0x3c2b3e14	0.010451812
51	0xbbe15142	-0.0068761418
52	0x3c1ad873	0.00945102
53	0x3ab56cec	0.0013841665
54	0x3c12c24e	0.008957459
55	0x3d194fa8	0.03742948
56	0x3bc11e9c	0.0058935415
57	0xbc11832d	-0.008881372
58	0x3c267ffe	0.010162352
59	0x3c777053	0.015102464
60	0x3c6f6b28	0.01461295
61	0x3c20c4e2	0.0098125655
62	0x3ae366d0	0.0017349366
63	0xbb37c0d3	-0.0028038516
64	0xbc52fc09	-0.012877473
65	0xbc68d371	-0.014210568
66	0x3d10d5bf	0.035360094
67	0x3c5cd6a2	0.013478907
68	0x3c89d175	0.01682351
69	0x3c18ca09	0.009325513
70	0x3b401e68	0.0029314999
71	0xbb5467b2	-0.003241044
72	0x3c853ebb	0.016265264
73	0x3c9fd559	0.019510912
74	0x3b84a311	0.0040477593
75	0x3b4aca1c	0.003094322
76	0xbb9ac556	-0.0047232313
77	0x3d36b17e	0.044602863
78	0x3ae67d16	0.0017584886
79	0x3b7d64b7	0.0038664767
80	0x3cfd7dfe	0.030943867
81	0xbad432dc	-0.0016189474
82	0xbc367bb6	-0.011137893
83	0x3b82d3bb	0.0039925254
84	0x3ce908fd	0.028446669
85	0x3bab3b9c	0.005225612
86	0x3bb632e8	0.0055602677
87	0x3b5e5ce8	0.0033929888
88	0x3bc20358	0.0059208088
89	0x3c5d911c	0.013523366
90	0x3b35d1e5	0.0027743515
91	0x3bfb90ed	0.0076771886
92	0xbac78235	-0.00152213
93	0x3c54c76e	0.012987001
94	0xbc864044	-0.016388066
95	0x3c1122d6	0.008858403
96	0xbbb209ab	-0.0054332814
97	0x3c3377c0	0.010953844
98	0xbc16e684	-0.009210233
99	0xb8a6a86b	-7.946867e-05
100	0x3cbbfa81	0.022946598
101	0x3cc3a132	0.023880575
102	0x3bed26ce	0.007237292
103	0x3bb3179d	0.0054654614
104	0x3c85b6e0	0.016322553
105	0xbbaeee1a	-0.0053384425
106	0x3c1afde7	0.009459949
107	0x3c47ef20	0.012203008
108	0xba9f9163	-0.0012174066
109	0xbc8291e4	-0.015938707
110	0x3c3d64c7	0.011559672
111	0x3c405477	0.011738888
112	0xbc1ef496	-0.0097018685
113	0x3cdd3869	0.027004438
114	0x3c7f20e8	0.01557181
115	0x3ca2f733	0.019893264
116	0x3be14a76	0.0068753315
117	0x3c8480a2	0.016174618
118	0x3c1ad3b9	0.009449893
119	0x3c9dc2d8	0.019257948
120	0xbc00ae21	-0.007854016
121	0x3cb5d3b6	0.022195678
122	0x3c0dfc43	0.008666101
123	0x3c5798f6	0.013159027
124	0x3b00e8e7	0.001967007
125	0x3d0f71e0	0.03502071
126	0x3c1a5bde	0.009421317
127	0x3ce2bceb	0.027677974

network_body._body_endoder.seq_layers.0.weight f4 [128, 128]
0	0x3df9f333	0.1220459
1	0xbe1a15cf	-0.15047382
2	0xbc825298	-0.015908524
3	0x3e23ead1	0.16007544
4	0xbcaea269	-0.021317678
5	0x3dd0ccbb	0.10195299
6	0xbc44eef1	-0.012019859
7	0x3da53e1b	0.08068486
8	0x3dab6f03	0.08370783
9	0xbd629a2a	-0.055322804
10	0xbce30157	-0.0277106
11	0x3d5b1aab	0.05349223
12	0x3d93c62c	0.07215533
13	0x3db92c5b	0.09041663
14	0xbe03490d	-0.12820835
15	0x3d287be3	0.041133773
16	0x3c49896a	0.0123008285
17	0x3d8f4bb9	0.06996865
18	0xbcc020cd	-0.02345314
19	0x3dd3d692	0.103436604
20	0x3dac82f8	0.08423418
21	0xbc4e99a7	-0.012609876
22	0x3d7198b9	0.05898354
23	0xbdaa6fa3	-0.08322074
24	0x3cf156c8	0.029460326
25	0x3d2ed0c9	0.04267958
26	0x3cb890b5	0.02252994
27	0x3b4612e7	0.003022367
28	0x3c48bda0	0.012252241
29	0xbd10e9dc	-0.035379276
30	0xbdc3552b	-0.09537729
31	0x3c5ddd34	0.0135415085
32	0xbd445557	-0.04793295
33	0xbd976f60	-0.0739429
34	0xbe27b7fb	-0.16378777
35	0xbe087834	-0.13327104
36	0xbcf58654	-0.02997128
37	0x3c2954c2	0.010335149
38	0xbcf1d28b	-0.02951934
39	0x3d350370	0.04419273
40	0x3d26e9fd	0.040750492
41	0x3e04ac32	0.12956312
42	0x3d5a173e	0.05324482
43	0x3c38afb8	0.011272363
44	0xbd2be877	-0.041969743
45	0xbd18d7f0	-0.03731531
46	0x3d2eba82	0.042658336
47	0x3cd02fa1	0.025413336
48	0xbdf13665	-0.11777953
49	0xbdb00471	-0.08594597
50	0x3c250f88	0.010074504
51	0x3e2afc2a	0.16697755
52	0xbdd2a2eb	-0.102849804
53	0xbd4ec066	-0.050476454
54	0xbdaabd9b	-0.083369456
55	0xbe618e92	-0.22027043
56	0xbda3e52e	-0.08002697
57	0xbe37f797	-0.17965542
58	0xbd9eccce	-0.07753907
59	0xbe1f8c6f	-0.15580915
60	0xbd7b0b7c	-0.06129025
61	0xbc845cd8	-0.016157553
62	0xbd46caa4	-0.048533097
63	0x3c9432a2	0.01809055
64	0xbaae0548	-0.001327672
65	0x3d4c1f8d	0.049834777
66	0xbcacc9d9	-0.021092342
67	0xbc9197c4	-0.017772563
68	0x3d9e5bf7	0.07732385
69	0x3d8533f5	0.06504051
70	0x3e0769e6	0.13223991
71	0x3e16b15e	0.14716098
72	0x3d433272	0.04765553
73	0x3d3ce02b	0.04611222
74	0xbe26bf98	-0.16284025
75	0x3da354f6	0.079751894
76	0xbd9dd658	-0.077068985
77	0x3d36e2f9	0.04465005
78	0xbca43ff7	-0.020050032
79	0xbddb506f	-0.10708701
80	0x3d90433c	0.07044074
81	0xbd734656	-0.05939325
82	0x3dd0a92b	0.10188516
83	0xbc2099cd	-0.009802294
84	0x3c515738	0.012777142
85	0xbd406153	-0.046967816
86	0xbdf2c191	-0.11853326
87	0xbdecc858	-0.1156165
88	0xbbd28fbb	-0.0064258254
89	0xbdf53b81	-0.1197424
90	0x3d601606	0.054708503
91	0x3d94aedf	0.072599165
92	0x3d3c9767	0.046042826
93	0xbd132294	-0.03592165
94	0x3dc9b63b	0.09849211
95	0xbd6b87eb	-0.05750267
96	0x3d325389	0.043536697
97	0x3e857a5f	0.26069924
98	0xbdb393df	-0.087684385
99	0x3dae6378	0.08515066
100	0x3dd507fe	0.10401915
101	0x3d37a0ef	0.044831213
102	0x3dd141ae	0.102176055
103	0xbd545796	-0.05184134
104	0xbe163d97	-0.14671932
105	0x3e179f4d	0.14806862
106	0xbd553ee6	-0.052061938
107	0x3d90a474	0.07062617
108	0x3d6b15b2	0.057393737
109	0x3ddb9ba3	0.10723045
110	0x3e417f50	0.18896222
111	0xbcb223dd	-0.021745617
112	0xbe0797a5	-0.13241442
113	0xbd812957	-0.06306713
114	0xbe18f635	-0.1493767
115	0x3d1dcce9	0.038525496
116	0x3de3eaa1	0.11128736
117	0x3e220a6e	0.15824291
118	0x3e2234b7	0.15840422
119	0x3d0be488	0.03415349
120	0xbdcbe677	-0.09956067
121	0xbe0570c1	-0.13031293
122	0x3d9112cd	0.07083664
123	0x3d1ff8cb	0.039055627
124	0xbca2d170	-0.019875258
125	0x3d1be944	0.038064256
126	0xbde46963	-0.111529134
127	0xbcf15d39	-0.029463397
128	0x3d597e6b	0.053099077
129	0xbd0dad66	-0.034589194
130	0xbd6bab92	-0.05753667
131	0x3d7d8535	0.061894614
132	0xbd5f4d9a	-0.054517366
133	0x3c8a367d	0.016871685
134	0x3dddba5e	0.10826562
135	0xbb030dc4	-0.0019997219
136	0xbd8250f1	-0.063630946
137	0xbc0a423a	-0.008438641
138	0x3d3b315c	0.04570137
139	0x3c5cb9af	0.013472005
140	0xbd9c50d0	-0.07632601
141	0xbca60626	-0.020266604
142	0xbd998738	-0.07496494
143	0x3db6da4c	0.089283556
144	0x3c944592	0.01809958
145	0xbde586ea	-0.112073734
146	0xbdbe4fa6	-0.092925355
147	0xbe149379	-0.14509381
148	0x3cf32364	0.029679962
149	0x3e1dcd68	0.15410388
150	0x3d0a2d6a	0.033734716
151	0x3dbbc11f	0.09167694
152	0x3e0ea38e	0.13929579
153	0xbafa9fcc	-0.001912111
154	0xbe19c884	-0.15017897
155	0x3d55e0e3	0.05221642
156	0x3bc18d95	0.0059067705
157	0xbdfd8f94	-0.12380901
158	0x3e1ad5fd	0.15120693
159	0xbe030871	-0.12796189
160	0x3daafd5b	0.08349105
161	0xbcb8be53	-0.022551691
162	0x3d73e2bf	0.059542414
163	0xbda71cd1	-0.08159793
164	0xbba6f8b4	-0.0050955657
165	0xbde9c445	-0.114143886
166	0x3b3bef8c	0.0028676717
167	0x3da32550	0.07966101
168	0xbe1473eb	-0.14497344
169	0x3d7e8f6b	0.062148493
170	0x3e6cce08	0.2312547
171	0xbca55e28	-0.020186499
172	0xbca64166	-0.020294856
173	0xbd0fbdd3	-0.03509314
174	0x3e17e07e	0.1483173
175	0xbce00bf8	-0.027349457
176	0x3dc7be62	0.097531095
177	0x3d09886a	0.03357736
178	0xbd555703	-0.052084934
179	0x3dcd5719	0.10026378
180	0x3e1e96af	0.15487169
181	0xbc507eeb	-0.012725572
182	0xbdcc2d44	-0.09969571
183	0xbd217943	-0.039422285
184	0xb94ad9bc	-0.00019345334
185	0x3dc80f57	0.09768551
186	0x3d0b44c8	0.03400114
187	0xbe58077b	-0.21096604
188	0x3cc70a47	0.024296893
189	0x3d278418	0.04089746
190	0x3e0cd92b	0.13754718
191	0x3d556ca5	0.052105565
192	0xbdfe7bb8	-0.12425941
193	0x3e45cf53	0.19317369
194	0xbe1ea0e4	-0.15491062
195	0x3ce27293	0.027642524
196	0x3e0053d9	0.12531985
197	0x3e229099	0.15875472
198	0x3d401a02	0.046899803
199	0xbe451205	-0.19245155
200	0xbcd3da76	-0.025861006
201	0x3ddb2b37	0.10701602
202	0xbd2b7562	-0.04185999
203	0xbd950a8b	-0.072774015
204	0xbe0c5ac5	-0.13706501
205	0xbe05bc37	-0.1306008
206	0x3dacc8e5	0.08436755
207	0xbd67210b	-0.056427997
208	0xbe48e66f	-0.19619153
209	0x3e3e6838	0.18594444
210	0x3d8ef7d8	0.06980866
211	0x3b7c7419	0.0038521348
212	0x3d65f1ff	0.05613899
213	0xbc291e04	-0.010322098
214	0x3cadb97b	0.021206608
215	0xbda61bdc	-0.081107825
216	0x3e0c49a9	0.13699974
217	0x3ba6088b	0.0050669364
218	0x3e31c007	0.17358409
219	0xbbc6e9ac	-0.0060703363
220	0xbccf5e6e	-0.025313582
221	0xbc6ee535	-0.014581014
222	0xbd5ff1db	-0.05467401
223	0x3db64beb	0.08901199
224	0xbcf89313	-0.030343568
225	0xbd392e20	-0.045210004
226	0xbe0b7a7a	-0.1362094
227	0x3d25ec59	0.0405086
228	0x3d8ebea9	0.06969959
229	0x3d5cb41d	0.053882707
230	0x3daccba6	0.0843728
231	0x3cc01adb	0.023450306
232	0xbda4fcca	-0.08056028
233	0xbc643746	-0.013929194
234	0x3d594d6d	0.053052355
235	0xbdaac3e7	-0.08338147
236	0x3d8bc5a0	0.06824803
237	0xbc5b3e54	-0.013381559
238	0x3db0d77f	0.086348526
239	0xbe1c4648	-0.15261185
240	0xbd856268	-0.0651291
241	0x3d0af33a	0.033923365
242	0xbdec4727	-0.11537009
243	0xbdca80e4	-0.09887865
244	0x3d9eac67	0.07747727
245	0x3d519c09	0.051174197
246	0xbd769f60	-0.060210586
247	0xbd4a8337	-0.049441542
248	0x3d0f53af	0.034991916
249	0x3db10364	0.08643225
250	0xbe11dcee	-0.14244434
251	0xbd004e69	-0.031324778
252	0xbd641340	-0.05568242
253	0x3e289a47	0.16465102
254	0x3d012211	0.03152663
255	0xbd926f1b	-0.07150098

network_body._body_endoder.seq_layers.0.bias f4 [128]
0	0xbc99b76a	-0.018764216
1	0x3b2b81db	0.002616993
2	0xb858252b	-5.153303e-05
3	0x3bf36ad1	0.007428505
4	0x3bf561b3	0.0074884533
5	0x3c11f070	0.008907422
6	0xb9b07ee4	-0.00033663877
7	0x3b9b2e1e	0.004735722
8	0x3c20cdf4	0.009814728
9	0x3b9956b1	0.004679524
10	0x3c935cd0	0.017988592
11	0xbb33007c	-0.002731352
12	0xb8f33161	-0.000115963405
13	0x3c6336f6	0.013868084
14	0xbc329f3a	-0.01090222
15	0x3bdcc49d	0.0067373053
16	0x3c4a0332	0.012329863
17	0x3c9b442d	0.018953407
18	0x3c7b34e2	0.015332432
19	0xbbfa8cd5	-0.007646183
20	0x3bc9be48	0.0061567165
21	0xbc32a27d	-0.010902998
22	0xbc62ed72	-0.013850557
23	0xbbb80dc3	-0.005616875
24	0xbc204e3b	-0.009784277
25	0xbc0d7fa7	-0.008636392
26	0x3a6afd4e	0.0008964137
27	0x3c3ce7aa	0.011529842
28	0x3bda6812	0.006665238
29	0x3c36e151	0.011162118
30	0x3c396c9d	0.011317399
31	0x3c8f00d3	0.017456448
32	0x3bcbc2f9	0.006218311
33	0x3c3ea002	0.0116348285
34	0x39c01fc3	0.00036644758
35	0x3c453d1c	0.012038495
36	0x3b897e9e	0.004196002
37	0x3c4ffb38	0.012694173
38	0x3bb0132f	0.0053733806
39	0x3c265af5	0.010153522
40	0xbae201aa	-0.0017242928
41	0x3cb1a4c9	0.021685021
42	0x3b98630b	0.0046504787
43	0x3c067750	0.008207157
44	0x3a19fdf6	0.000587433
45	0xbc12d948	-0.008962937
46	0xbc4ecd2c	-0.012622159
47	0x3abf2c0c	0.001458527
48	0x3c191472	0.009343253
49	0x3b9562db	0.0045589036
50	0x3c76f314	0.015072603
51	0xbbf4b479	-0.007467803
52	0x3c06fadd	0.008238521
53	0x3bd45c42	0.0064807246
54	0x3c823509	0.01589443
55	0x3ba65ae2	0.005076752
56	0x3b1cdf87	0.0023936944
57	0xba45064c	-0.0007515892
58	0xbbb5cb1f	-0.0055478956
59	0xb9b675b9	-0.00034801455
60	0xbc579c5f	-0.01315984
61	0xbc087875	-0.0083295
62	0xbc41b262	-0.011822315
63	0x3ba1101e	0.0049152514
64	0xbbcac7fa	-0.00618839
65	0xbc47f116	-0.012203475
66	0x3c295d0d	0.010337126
67	0x3c362dbc	0.011119302
68	0xbc728365	-0.014801835
69	0xbc7054bf	-0.014668643
70	0xbc834ee1	-0.016028823
71	0x3c07e737	0.008294872
72	0xbc087a2f	-0.008329912
73	0xbabc1fcb	-0.0014352737
74	0x3c5e09b1	0.013552115
75	0xb811a9d0	-3.4728844e-05
76	0x3c082931	0.008310602
77	0x3bec0a81	0.0072034006
78	0x3c759a17	0.014990351
79	0xbb94eb09	-0.00454462
80	0xbac2d13d	-0.0014863383
81	0x3c1a2dcc	0.009410333
82	0x3ca6275c	0.02028244
83	0x3c715e1d	0.014731911
84	0x3c75ef98	0.015010737
85	0xbaabf57f	-0.0013119428
86	0x3bbb3ad5	0.0057138004
87	0xbbc7feeb	-0.0061033866
88	0x3c5efc09	0.013609895
89	0xbba51fa3	-0.005039172
90	0x3caa98c4	0.020824797
91	0xbc202075	-0.009773363
92	0xbc5627e6	-0.013071036
93	0x3aa089eb	0.0012248134
94	0xbb18b05c	-0.0023298478
95	0x3b2b3191	0.0026122073
96	0x3ca2c89e	0.019871052
97	0x3bbc7911	0.005751737
98	0xbb999d2f	-0.004687927
99	0x3bb9a109	0.005664949
100	0x3c26bcf3	0.010176885
101	0xbbe482cd	-0.0069736005
102	0x3c98de94	0.018660821
103	0x3b21dd69	0.002469862
104	0x3c0a243f	0.008431493
105	0x3a651e44	0.00087401667
106	0xbad79f23	-0.0016450625
107	0x3c309b36	0.010779193
108	0x3c03568d	0.008016241
109	0xba212484	-0.0006147104
110	0xba2b53aa	-0.0006535599
111	0x3ad25efb	0.0016050035
112	0xbc2b478e	-0.010454072
113	0xbc5a585b	-0.01332673
114	0x3c78aa96	0.01517739
115	0x3bd8a057	0.006610911
116	0xb9c8c266	-0.0003829181
117	0x3bc2c78d	0.0059441985
118	0x3c960ac0	0.018315673
119	0x3b7c708b	0.003851923
120	0xbbc928a9	-0.0061388803
121	0x3c4815ab	0.012212197
122	0x3ccd91dd	0.025093967
123	0xbbdc4154	-0.006721655
124	0x3c656d9e	0.014003186
125	0x3cd6d375	0.026223877
126	0x3b076b1b	0.0020663205
127	0x3c551a08	0.013006695

network_body._body_endoder.seq_layers.2.weight f4 [128, 128]
0	0xbd76a2dd	-0.060213912
1	0x3e3764ca	0.17909542
2	0x3e5f01f5	0.2177809
3	0x3d2600e9	0.04052821
4	0x3d13a379	0.03604457
5	0x3e00a47e	0.12562749
6	0xbdc38293	-0.095463894
7	0x3ce1ec4c	0.027578495
8	0x3bedf592	0.0072619403
9	0xbdb6b148	-0.089205325
10	0x3dc7872e	0.0974258
11	0xbdb7fb08	-0.08983427
12	0x3d00fc7a	0.03149078
13	0x3c966ba9	0.018361883
14	0x3d7b45fb	0.061346035
15	0x3ddda57b	0.108225785
16	0xbc863073	-0.016380524
17	0xbb296715	-0.0025848795
18	0xbdb80093	-0.089844845
19	0xbdbbc9e1	-0.09169365
20	0x3d851fd2	0.0650021
21	0xbc7e0d44	-0.015506092
22	0x3ccef546	0.02526344
23	0x3c0df662	0.008664699
24	0xbdbccb30	-0.092184424
25	0xbc393a24	-0.011305366
26	0x3cae0471	0.021242352
27	0x3d2506db	0.04028974
28	0xbb8d3717	-0.0043095457
29	0xbd28df08	-0.041228324
30	0x3da95ebb	0.082700215
31	0x3dbf3d3c	0.093378514
32	0xbd8a7ebb	-0.06762453
33	0x3c2facb9	0.010722333
34	0xbde34302	-0.11096765
35	0x3d080fa9	0.03321806
36	0xbe303408	-0.17207348
37	0x3de13179	0.10995764
38	0xbdf1ec45	-0.11812643
39	0xbc9ba622	-0.019000117
40	0xbdc55a9e	-0.096364245
41	0x3b7d5a00	0.003865838
42	0xbd612e4a	-0.054975785
43	0xbd45c501	-0.04828358
44	0x3dfd9d58	0.123835266
45	0xbcd10239	-0.025513755
46	0x3dafd939	0.08586354
47	0x3cabb0ba	0.020958293
48	0xbd3b5c9d	-0.04574262
49	0x3dccc3b5	0.09998266
50	0x3c81180d	0.015758539
51	0x3e39ab3e	0.1813173
52	0xbd593dbe	-0.053037398
53	0x3ce3e5ea	0.027819593
54	0x3cb506e8	0.02209802
55	0x3e3af3a3	0.18257003
56	0xbcf1a59d	-0.029497916
57	0x3ce9ecfd	0.028555388
58	0xbd73293d	-0.0593655
59	0x3d5615dc	0.05226694
60	0xbd80c004	-0.06286624
61	0xbd824f95	-0.06362835
62	0xbc4494d0	-0.01199837
63	0x3d5862cc	0.052828595
64	0x3d938a4e	0.07204114
65	0xbdf47813	-0.11936965
66	0xbace12eb	-0.0015722191
67	0x3c9ea4b7	0.019365652
68	0xbdec62c3	-0.11542275
69	0x3dc3e7f1	0.09565724
70	0x3ca0a40b	0.019609472
71	0x3e3ad361	0.18244697
72	0x3d9fa3c3	0.07794907
73	0x3dd03a7e	0.101674065
74	0x3dfdc26c	0.12390599
75	0x3e187cc5	0.14891346
76	0x3cfdb839	0.030971633
77	0x3d998582	0.07496168
78	0xbe160be4	-0.14652973
79	0xbd429856	-0.04750856
80	0x3e3420c2	0.17590621
81	0x3d1e25e3	0.03861035
82	0x3d9a1102	0.07522775
83	0x3e1351cd	0.14386673
84	0xbd941193	-0.072299145
85	0x3cc80276	0.024415236
86	0x3d5b4334	0.053530887
87	0xbe1605e9	-0.14650692
88	0x3c97b44f	0.018518595
89	0x3e26be3e	0.16283509
90	0xbd327eba	-0.043577887
91	0xbe635af5	-0.22202666
92	0xbd8b0f72	-0.06790055
93	0x3d2f04e7	0.042729285
94	0x3e891017	0.26770088
95	0xbcf99275	-0.030465344
96	0xbc018e7d	-0.007907507
97	0xbcb9f8c6	-0.022701632
98	0x3de92b87	0.11385255
99	0x3cd541f8	0.026032433
100	0x3da12ccb	0.07869872
101	0x3da926df	0.08259367
102	0xbe0c4150	-0.1369679
103	0xbe0ce642	-0.13759711
104	0x3e13967f	0.14412878
105	0xbd0bfde1	-0.034177665
106	0xbb3ce7be	-0.0028824653
107	0xbe0f4bb4	-0.13993722
108	0x3dbf7fa5	0.09350518
109	0xbdd7b35f	-0.10532259
110	0xbdca6418	-0.098823726
111	0xbd59b31e	-0.053149335
112	0x3e72b306	0.23701105
113	0xbda3eb66	-0.08003883
114	0xbe0a63e0	-0.13514662
115	0x3e7d1ee3	0.24718814
116	0x3d3eaae3	0.04654969
117	0xbe261752	-0.16219833
118	0x3e365fad	0.17809935
119	0xbe198964	-0.14993817
120	0xbab567a2	-0.0013840089
121	0xbddd8b23	-0.10817554
122	0x3bed7e42	0.007247717
123	0x3e17d8c8	0.14828789
124	0xbd79fedb	-0.061034065
125	0x3d6f4c5a	0.058422424
126	0xbc0719f6	-0.008245936
127	0xbc96084a	-0.0183145
128	0x3df0e034	0.11761513
129	0xbd807321	-0.06271959
130	0xbda22b3e	-0.07918404
131	0x3d9d19cd	0.07670937
132	0x3cf96f7a	0.030448664
133	0xbd1e5cef	-0.038662847
134	0x3b2d5062	0.0026445617
135	0x3da6318b	0.08114918
136	0xbd013245	-0.03154208
137	0x3d1d06fd	0.038336743
138	0x3dcb8e6d	0.09939275
139	0xbcdcd443	-0.026956683
140	0x3e36d9dc	0.17856544
141	0x3dc9e288	0.098576605
142	0x3d556b35	0.052104194
143	0xbbbff6de	-0.0058582863
144	0x3e13f43a	0.14448634
145	0x3dffbef0	0.1248759
146	0x3e126d84	0.1429959
147	0x3a64f2ff	0.0008733719
148	0xbceb0bee	-0.028692212
149	0x3cd54753	0.026034987
150	0x3c98a6a4	0.018634148
151	0xbe0e7e81	-0.13915445
152	0x3b8710ad	0.004121861
153	0x3d8c5f89	0.068541594
154	0x3d534330	0.051577747
155	0xbd6108ca	-0.054940023
156	0xbd13cec1	-0.036085848
157	0xbdc20878	-0.094742715
158	0x3dab77db	0.0837247
159	0xbd8379ab	-0.06419691
160	0x3d5886d7	0.05286297
161	0x3e294db4	0.16533548
162	0x3d62924c	0.0553153
163	0xbd8d3b78	-0.068961084
164	0x3ddf2630	0.108959556
165	0x3dfe21b6	0.124087736
166	0xbc78c062	-0.015182586
167	0x3da50175	0.080569185
168	0xb9c5d0fb	-0.0003773047
169	0xbdfedd0b	-0.12444504
170	0xbd0c63a4	-0.034274712
171	0xbde9c905	-0.114152946
172	0x3afad2dd	0.0019136328
173	0xbb2ba2c2	-0.002618954
174	0xbd73daec	-0.059534952
175	0xbc94acbc	-0.018148772
176	0x3e176a46	0.14786634
177	0xbd82f799	-0.06394882
178	0x3de31404	0.11087802
179	0xbe41462b	-0.18874423
180	0xbcf0503a	-0.02933513
181	0x3dbc49bf	0.091937535
182	0x3e0a182c	0.13485783
183	0x3e0b6880	0.13614082
184	0x3c5d53d1	0.013508753
185	0x3d024817	0.03180703
186	0xbe5a60ad	-0.21325941
187	0xbd0533f2	-0.032520242
188	0xbda30db1	-0.07961596
189	0xbd2b94c5	-0.041889925
190	0x3d7cf2ba	0.06175492
191	0x3db38b5c	0.08766815
192	0x3dbfbf77	0.09362691
193	0xbdf19167	-0.117953114
194	0xbe414a15	-0.18875916
195	0x3d705b19	0.058680627
196	0xbc9000a6	-0.017578434
197	0x3daed945	0.085375346
198	0x3d00ea03	0.03147317
199	0x3dd6b27c	0.10483262
200	0xbdab3b4a	-0.08360918
201	0xbdc6856c	-0.09693417
202	0xbd60dcae	-0.054897957
203	0xbde6fe08	-0.11278921
204	0xbb9c8942	-0.0047771046
205	0x3e1adc0e	0.15123007
206	0x3da06d2b	0.07833322
207	0xbe42e41b	-0.19032328
208	0xbd68331b	-0.056689363
209	0xbdc49bb0	-0.096000075
210	0x3d002692	0.031286784
211	0x3c01cade	0.007921902
212	0x3d0ee1b6	0.034883223
213	0x3d0f36c1	0.034964327
214	0xbe29693e	-0.16544053
215	0xbe1e7193	-0.15473013
216	0xbdc58919	-0.0964529
217	0xbd56f5d4	-0.052480534
218	0x3e36d55f	0.17854832
219	0x3c5153f0	0.01277636
220	0xba88c915	-0.0010435904
221	0xbdf226c2	-0.11823799
222	0xbe7c4160	-0.24634314
223	0xbd9b7739	-0.07591099
224	0x3dd76a12	0.10518278
225	0xbb245f97	-0.002508139
226	0xbe1849b6	-0.14871868
227	0xbd3b1302	-0.045672424
228	0x3dcb02f9	0.09912676
229	0x3dc8be72	0.098019496
230	0xbc2da572	-0.010598527
231	0x3d058681	0.032598976
232	0xbcec8815	-0.028873483
233	0x3dd9529a	0.10611458
234	0xbda7e9de	-0.081989035
235	0x3cc61112	0.024178062
236	0xbd5d1364	-0.05397357
237	0x3d5709a1	0.052499417
238	0xbd6629df	-0.056192275
239	0x3d954768	0.0728901
240	0xbe3c10e3	-0.18365817
241	0x3e0124ca	0.1261169
242	0x3d003c86	0.03130772
243	0xbd8285a5	-0.06373147
244	0x3e55b361	0.20869209
245	0xbda0b0be	-0.07846211
246	0x3d48eb56	0.04905256
247	0x3bf36641	0.007427961
248	0xbb820496	-0.003967832
249	0x3d394432	0.04523105
250	0x3dae6db9	0.08517022
251	0x3c877392	0.0165346
252	0x3e291782	0.16512874
253	0xbd9b6f26	-0.07589559
254	0x3e483d24	0.19554573
255	0x3e1c6608	0.15273297

network_body._body_endoder.seq_layers.2.bias f4 [128]
0	0xbba4c012	-0.0050277794
1	0x3c91b7be	0.01778781
2	0x3c28319e	0.010265736
3	0x3c12b3d0	0.008954003
4	0x3b6af98e	0.0035854313
5	0x3c69d380	0.014271617
6	0x3ab2d0f6	0.0013642597
7	0x3c2cdb58	0.0105503425
8	0x3a339c6c	0.0006851617
9	0x3c62a19b	0.013832475
10	0x3c0913f5	0.0083665745
11	0xbbb4e599	-0.0055205342
12	0x3c3f5536	0.011678031
13	0xbc742dbd	-0.014903483
14	0x3b4e46e8	0.003147537
15	0xbba9b6e0	-0.005179271
16	0x39147941	0.0001415955
17	0x3b7e3e38	0.003879441
18	0x3cb9e5e8	0.022692636
19	0xbb1f6dd5	-0.002432694
20	0xbbc71e3e	-0.006076603
21	0xbb357786	-0.002768965
22	0xbb770d59	-0.0037697165
23	0x3b4a9628	0.0030912254
24	0x3b567d0f	0.003272835
25	0xbb9dbd67	-0.0048138383
26	0xbc940b8c	-0.018071912
27	0xba59bb2d	-0.00083057844
28	0xb992f8d7	-0.0002803269
29	0x3cea157d	0.0285747
30	0x3c0e1203	0.0086712865
31	0xbc26a29a	-0.010170603
32	0xbbfc9dbd	-0.0077092336
33	0x3cd11895	0.025524417
34	0x3b3f1e8c	0.0029162494
35	0x3b42dbe4	0.0029733116
36	0xbb1856af	-0.0023245027
37	0x3c68320d	0.014172089
38	0xbc75b8fb	-0.014997716
39	0x3c8cfcda	0.017210413
40	0x3c8641bb	0.016388765
41	0xbb11b93f	-0.002223566
42	0xbbbf732f	-0.0058425884
43	0x3c770d0c	0.015078794
44	0xbb98e721	-0.0046662246
45	0x3cedfe00	0.02905178
46	0x39f55674	0.00046794454
47	0x3c0c5100	0.008564234
48	0xbbcf4f8c	-0.0063266214
49	0xbca33ce6	-0.0199265
50	0xbb054c8f	-0.0020339822
51	0x3b16221f	0.0022908521
52	0xbc97ad60	-0.018515289
53	0x3cfe63ab	0.031053385
54	0xbae9087c	-0.0017779018
55	0x3c108b02	0.008822205
56	0x3c1cf6dd	0.009580341
57	0xbb8168cf	-0.0039492617
58	0x3c299de0	0.010352582
59	0xbc8cc6f3	-0.01718471
60	0x3aa78fc0	0.001278393
61	0x3bf9d8c1	0.007624716
62	0xbc343f17	-0.01100137
63	0xbc32e911	-0.010919825
64	0x3c2b78d5	0.01046582
65	0x3b16a727	0.0022987814
66	0xbb1fad73	-0.0024364858
67	0x3c668f22	0.014072211
68	0xba810027	-0.0009841964
69	0x3b056835	0.0020356302
70	0x3cc8fe23	0.024535244
71	0x3c34eb31	0.011042402
72	0xbb250ff6	-0.0025186515
73	0xbbf2b476	-0.0074067665
74	0xbbb79825	-0.005602854
75	0x3c8c409f	0.017120657
76	0x3bc999b8	0.006152358
77	0x3c040498	0.008057736
78	0x3c85c0e6	0.016327333
79	0xbb782a3d	-0.0037866973
80	0xbc1829a8	-0.009287275
81	0xbbc30c3e	-0.005952387
82	0x39ac5c27	0.00032875055
83	0x3bcb9576	0.0062128855
84	0x3bc442f8	0.0059894286
85	0x3c8f34d4	0.017481245
86	0xbb438b8b	-0.0029837813
87	0xbc1f2aa4	-0.009714756
88	0x3c1ab0bc	0.009441551
89	0x3c8a19b3	0.016857957
90	0x3bdeb0a5	0.00679596
91	0x3c00b6c2	0.007856073
92	0x3c758e14	0.014987487
93	0x3cb150ff	0.021645067
94	0x3bea821a	0.0071566226
95	0xbc4786aa	-0.0121781025
96	0xb993b555	-0.00028173128
97	0x3c9a7fa3	0.01885969
98	0x3cbae36b	0.02281352
99	0x3c7a3b0a	0.015272865
100	0x3ac8be7d	0.0015315559
101	0x3c641ff5	0.013923635
102	0xbc61187a	-0.013738746
103	0x39a52126	0.0003149595
104	0xba8f5660	-0.0010935776
105	0xbc4530f5	-0.012035598
106	0x3c443ceb	0.011977415
107	0x3ca8f6ad	0.020625437
108	0xbb8a5674	-0.004221732
109	0xbb86af41	-0.0041102474
110	0x3bdd3f75	0.0067519494
111	0x3c0f8b50	0.008761242
112	0x3c8f2057	0.017471476
113	0xbc43dbc9	-0.011954256
114	0xbb7f0030	-0.0038910024
115	0xbba1888d	-0.004929608
116	0x3ccffea9	0.025389986
117	0x3cb5bf23	0.022185868
118	0x3c7c5a1f	0.015402346
119	0xbc91bfdc	-0.017791681
120	0xbc5d7620	-0.013516933
121	0xbc196e5d	-0.009364692
122	0xbc898835	-0.016788581
123	0x3bc67f56	0.00605766
124	0x3c12fe5a	0.008971775
125	0xbc8778e0	-0.01653713
126	0xb9fec1b7	-0.00048590984
127	0x3c6670e9	0.014065006
