results/BasicXZGridSensor/BasicXZ/BasicXZ-500030.onnx (onnx, 201284 bytes, 12 tensors)

network_body.observation_encoder.processors.0.conv_layers.0.weight f4 [16, 3, 8, 8]
00000000: 4fc4 633d 5a98 6d3d 7977 773b e3e5 d73d
00000010: ad3b 14bd aebf dfbd 67c3 4dbc 6b11 163d
00000020: 16a7 fbbc 9d06 7e3d 3529 4cbd 2788 d43c
00000030: 70c9 753d 8a20 ae3c 3f49 303d 677d b0bb
00000040: c276 a4bd 88d2 333c fbd2 86bd 7635 433c
00000050: f689 d13b e027 b83d b7b2 c33d fa83 363d
00000060: dd2c 5b3d 451c 203b 92a9 87bc e3a7 c0bc
00000070: f509 b13c 4011 f43c baba cfbc a04e 823d
00000080: fbad cebc 0ef6 263d 4b0c bb3b 2109 763b
00000090: 7281 40bd 3ccd b43d 559a e63c 09b0 4d3a
000000a0: 11aa 08bd 9b35 a33c 7b26 ca3c 4e77 93bd
000000b0: 8065 46bd 377c 4fbb 1287 863d 1e5b 953c
000000c0: 9648 8dbd 881a c1bc cd43 883d d180 14bb
000000d0: af01 94bd 9fd0 373c 69e7 acbc 2470 e3bc
000000e0: 0b88 cdbc 5478 833d 220c dfbc 3e34 123d
000000f0: 3c0b 863b 75d5 73bc 5c7b f83b dc59 21bd
00000100: 6bea 583d db84 703d d8a6 833d f43f 73bc
00000110: 2331 20bd ea7f 90bd ab46 91bd ad63 8a3d
00000120: 0d7f b63d 750d b13d 55a7 043c 9d84 133d
00000130: 8ac6 97bd 4100 2fbd 6437 c23b 256d 863c
00000140: 62d5 9a3d 84d6 19bd fbcb 1d3d c470 8b3d
00000150: 3a04 b7bd 5a87 9abc ddb6 a13d f0a9 33bb
00000160: dc31 f63d 49a0 10bd 4dec 9abd 5809 cabd
00000170: 8717 9cbd e675 363d f029 ce3d 6f87 b0bd
00000180: 724b 9f3c 5d15 573d 5fc2 3ab9 4a39 fb3c
00000190: ae1f b13d 3159 df3d 3172 17bd a5c3 1b3d
000001a0: 79a2 d83c 1525 c33d e4cf ce3d e24a 8bbc
000001b0: 382a 4d3d 463f f1ba 0ec9 c83d dfbf 40bd
000001c0: 03a6 9b3c eb29 eb3d 0d29 003b 1455 853c
000001d0: c879 82bc 3f17 523c 97a1 593d a4bc 90bc
000001e0: a0d2 5e3d 904c da3c 7c25 863d cbf7 46bd
000001f0: 5c15 86bd 87d0 7ebd ec6d 083d 19dc 0ebc
00000200: 1031 473d f844 15bc 6843 4ebc 20c7 743b
00000210: c252 8b3d 4ef5 2b3d 681f 763d d021 24bc
00000220: f703 77bd d0b1 a83b 647c 883d 880e 723d
00000230: 0864 45bd f410 4dbd d070 cb3b aa98 343d
00000240: a8b5 d03c 5a7d 41bd ad6f 4fbd f048 8e3c
00000250: 6481 c63c 7d49 83bd bc2c 8d3d c081 d23b
00000260: 5871 e23c 7d95 8cbd c8c6 663c f609 293d
00000270: 406d 44bd 5a15 083d 34f2 be3c 5093 3ebd
00000280: e8c9 cc3c fa97 303d bd10 80bd 1079 0a3c
00000290: c83d 6e3d 184d 383d aaca 6abd 7a6a f6bc
000002a0: e4f5 c43c fca6 ef3c ee21 8dbc d012 8abd
000002b0: 1060 51bd 4068 67bd e0fb ac3b 8420 923d
000002c0: 20ad f2bc dca4 403d 1cce 733d 9477 2a3d
000002d0: 1878 10bd 1818 2f3d e623 5dbd da88 1c3d
000002e0: 8a61 fdbc f0f2 96bc 8cfc 75bd 3ab0 1f3d
000002f0: a8c6 6a3d f881 723d 540d 6d3d 5891 303c
00000300: d154 8cbc a8a5 95bd 102b b23d 8570 89bc
00000310: 3a78 a43c 98c0 843b 960e 3a3d bda1 cf3d
00000320: e04d b23c 24e6 9c3a ef8d 8ebc 9fd5 0f3d
00000330: 623d 62bd 0c1f 9c3d d9ea 713d 1179 3d3d
00000340: c227 f83b 8fb7 07bc a1e6 80bc d1ac 50bd
00000350: 921b cc3c 9eb0 593d 942a 433c d171 1eb9
00000360: 4729 93bd dc17 763c 9a89 50bd dc8f 65bd
00000370: 7dc1 403d 0093 873d 467c 07bd b594 ae3c
00000380: 94dd 3ebc a2c8 653d 4dce a7bc ee7a 583d
00000390: aa0a 60bc d45a 753d 9749 753a fd7e d03c
000003a0: 2e33 e73c 48eb 073d 7ba7 0d3d da05 f9bc
000003b0: b1b2 a4bd ac5f 453d 3837 7a3c 8428 a6ba
000003c0: 60c6 b23d c149 5f3c 7e76 23bd 3076 e8bc
000003d0: 7bde 8b3d 1c5e b13d a3c9 873d 4b0d 87bd
000003e0: 8aa7 a53d 6af5 43bc 677f 883d 9c26 af3d
000003f0: 43ef a83c c82d 293d 6125 4dbc eaff 883d
0.055607136 0.058006622 0.003776042 0.10541894 -0.036189724 -0.10925232 -0.012558795 0.036637705
-0.030719321 0.062018026 -0.049843986 0.025943829 0.06000656 0.02125575 0.043038603 -0.005386043
-0.08030464 0.0109754875 -0.0658321 0.011914602 0.00639462 0.089919806 0.095555715 0.044559456
0.05350958 0.0024430912 -0.01656035 -0.023517555 0.021611193 0.029793382 -0.025357593 0.06362653
-0.025229445 0.040762 0.0057082525 0.0037542062 -0.04699845 0.08828208 0.028149763 0.00078463607
-0.033365313 0.019923022 0.024676552 -0.0720049 -0.04843664 -0.0031659731 0.06568731 0.018231925
-0.0689861 -0.023572221 0.06653557 -0.0022659788 -0.072268836 0.011219173 -0.021106439 -0.027763434
-0.025089284 0.06419435 -0.027227465 0.035694353 0.0040906947 -0.014882435 0.007583065 -0.039392337
0.052957933 0.05872045 0.06428307 -0.014846791 -0.03910936 -0.07055648 -0.07093557 0.06757293
0.08910952 0.08645145 0.008096536 0.03601514 -0.07410915 -0.04272485 0.0059270132 0.016409466
0.07560231 -0.037558094 0.03852461 0.06808618 -0.08936353 -0.018863369 0.078962065 -0.0027414523
0.12021229 -0.03530911 -0.07564602 -0.098650634 -0.07621675 0.04454603 0.10066593 -0.08619582
0.019445155 0.052510608 -0.00017810751 0.030666966 0.086486205 0.10905684 -0.036974136 0.038028378
0.02644466 0.09528557 0.10098246 -0.01700348 0.05008909 -0.0018405698 0.09803973 -0.047057983
0.019000059 0.114826046 0.0019555718 0.01627592 -0.01592721 0.012822925 0.05313262 -0.017668076
0.054400086 0.026647836 0.06550118 -0.048576158 -0.06547043 -0.062210586 0.033307955 -0.008719468
0.048630774 -0.009110682 -0.012589313 0.0037350133 0.06802894 0.041981988 0.060088545 -0.010017827
-0.060306516 0.00514815 0.06664351 0.05909589 -0.0481911 -0.050064996 0.0062085167 0.044090904
0.025477245 -0.047238685 -0.05064361 0.017368764 0.02423162 -0.06410501 0.06893298 0.006424159
0.027641937 -0.0686445 0.014085479 0.041269265 -0.04795575 0.033223487 0.02330885 -0.046527207
0.02499862 0.043113686 -0.062531926 0.008451715 0.058164388 0.044995397 -0.05732218 -0.030080069
0.024043031 0.029254429 -0.017228093 -0.067418694 -0.051117003 -0.056495905 0.0052790493 0.07135108
-0.029623568 0.047032222 0.059522733 0.041617945 -0.03527078 0.042747587 -0.053989314 0.03821645
-0.0309303 -0.018426389 -0.0600553 0.038986422 0.05731836 0.05920598 0.05787404 0.01077684
-0.017130287 -0.07306987 0.0869962 -0.016777286 0.02007686 0.0040512793 0.045424066 0.10138271
0.02176565 0.0011970443 -0.017401664 0.035115834 -0.05523432 0.07623109 0.05906186 0.046258036
0.007573099 -0.00828351 -0.015734972 -0.05094606 0.02491549 0.05314695 0.011912007 -0.00015110454
-0.071856074 0.015020337 -0.050912477 -0.056045398 0.047059525 0.06619835 -0.0330775 0.021311143
-0.011649508 0.05609954 -0.020484114 0.05285161 -0.0136744175 0.059901074 0.0009356974 0.025451178
0.028222647 0.033183366 0.03458355 -0.030398298 -0.08041895 0.048186943 0.015271954 -0.001267687
0.08729243 0.013628424 -0.039907925 -0.028376669 0.06829544 0.08660528 0.06630256 -0.06594332
0.08088596 -0.011960367 0.06664925 0.08552286 0.020621901 0.041303426 -0.012521119 0.06689437

network_body.observation_encoder.processors.0.conv_layers.0.bias f4 [16]
00000000: 3480 c73c 7c97 38bc ee1c e03c 5027 603a
00000010: 70e0 8e3d cc1e af3d 2664 733d 88b1 9a3c
00000020: 31c6 483d 4f81 77bc c872 b33d 09ba 5c3b
00000030: 9ba7 583d 03b4 3a3d ae3a e637 ede1 dd3c
0.024353124 -0.011266585 0.027357545 0.000855078 0.06976402 0.08550796 0.05942168 0.018883482
0.049017135 -0.015106513 0.08762127 0.0033680222 0.052894216 0.04558183 2.7445461e-05 0.027085269

network_body.observation_encoder.processors.0.conv_layers.2.weight f4 [32, 16, 4, 4]
00000000: 99ab 0ebd 8cb3 603d 1ced 383b 81e9 02bd
00000010: 4f5b ed3c eb89 e53c 35a1 a73d 3cf8 8e3d
00000020: 73e3 27bd feec b13c 1391 49bc 3767 dbbc
00000030: 393f 4bbd 1472 1a3d 3960 c0bd 52d8 923d
00000040: db37 83bc 5c7b d83d 17c4 92bd e8ae 143d
00000050: 4a6b 3abd 935d 3a3c 4ff2 4e3d c06f 723c
00000060: c2d9 d6bc 55a4 2fbb a8dd 61bc ad8e 903c
00000070: 635a 883d 1fc6 87bd 5bea 453d 04d0 d23c
00000080: 9e7d 9e3c 62ec e83d aa6b 85bd 4df2 50bd
00000090: 9ffb 85bc f5fc 243d bae8 babb b2ba debc
000000a0: dba1 2b3d 1be5 71bc 4b92 bf3d 50fa e9ba
000000b0: 59ef 983c 9b94 81bc f925 8dbd 6921 2c3d
000000c0: 3fdf 5b3d 6973 5a3b 22d9 593d 7e09 9d3d
000000d0: c029 1dbd b622 2a3d edd5 12bd 8012 92bc
000000e0: 1113 0f3d 5e96 923d 7c77 23bc d782 fe3c
000000f0: cee9 abbd f710 0e3d 99e4 e8bb e9bb 66bd
00000100: 186c 03bd 11f0 69ba 396f 6cbd e43e 0b3c
00000110: 24f2 983d 40a5 63bc e7fb d03c 081c 003d
00000120: 596c 06bd 8e67 e5bb 1acf 02bd 6933 7dbd
00000130: 9e59 023d 08e6 c43b 08ac 0c3d 6ee1 b73c
00000140: 7c18 b93c e9cb 5e3d 8695 7abc 8b97 933d
00000150: 3dfc 813d f84d 7cbd e4c2 213d 2829 22bc
00000160: e700 313d 84a7 8bbd 23b5 5ebd 39b2 af3c
00000170: 6d30 b23c c689 873d 134f bcbb 2bda 713d
00000180: 8ba5 ccbc 75e2 35bc 2351 4a3c 0323 ee3c
00000190: 756a 1bbc edc7 533d 351d 673d 2bce 3d3d
000001a0: 1979 eebc 4fdc 67bd 7ac9 2e3d cbe3 3bbc
000001b0: ea5a 5d3d be9d 5ebd 5c41 9cba 8ebc 8f3d
000001c0: 5130 04bd f697 a43d 7add 11bc 1617 d4bc
000001d0: 593a 0d3d 5070 8c3c 9e84 01bd c1ed a0bc
000001e0: 84b8 81ba abe4 3a3c 2ddd c1bc da6f d53c
000001f0: dc35 203c 0366 e1bd 2363 dc3c 1336 1bbd
00000200: be7a e23c 5854 c2b8 0db8 e03c 9d67 de3c
00000210: cb2f e13c c7eb 8cbc 42e2 90bc b77e 713d
00000220: e888 e0bc 150f 433b 15fc 92bc 9e37 3b3d
00000230: 404f 02bd 850b a6bc a0d6 223d bb38 003d
00000240: 512d 6f3d 8d7c ec3c 7b31 b63c f5d8 48bd
00000250: deba 6e3d 6e00 e33c c1ff 713d b07f 2abd
00000260: 6735 3e3d 65b9 97bc b907 25bc 5d05 f4bb
00000270: e4ba 813c f481 e4bc 6100 e6bb 1624 223d
00000280: c62a 293d 5916 163b e131 d73c fce1 9e3b
00000290: 49aa 863d 14ea f93b 636a f43c 1eca e93b
000002a0: 42cc aa3d 9d2e ba3d 4d2d 5a3d 68ad a7b9
000002b0: 6fcb 443d 1a64 11bc bf9e 353d 1090 12bd
000002c0: f006 3f3c ccf7 1a3d 77c4 b63c dc38 443d
000002d0: 81b6 19bd e584 2a3c 017c 733b 1fe4 2a3d
000002e0: 4053 6dbd ab2e 1d3d 5e54 c03c 7a92 42bd
000002f0: 13e8 a9bc 60db c03c 0be7 6ebb dfd0 963d
00000300: 5d7c 5d3d 6ad9 ac3d eac8 8fbd 7fa9 9cbc
00000310: 0b07 363d bc8b be3d 539c 49bd 057a 793c
00000320: 946d b03c a0fc 88bd 41f5 a43d 30b2 ce3c
00000330: 04a1 2cbd 0a66 edbb 1bde 963c 0f3e afbc
00000340: 663e 87bb c6ca 553d 72ce fc3c e458 95bd
00000350: 89df 773d b08a a53d e904 5c3d 6d41 593d
00000360: a386 a13d be02 8fbc d21c 063c e115 1abc
00000370: d594 323d 8fef 0bbd 8287 dabc c790 1bbd
00000380: 5b6d 143d b436 433d a725 89ba b694 76bc
00000390: 50ce 86bc ea57 4c3c d92a 6cbd 55ab 73bc
000003a0: 26ad 1e3d f06e 90bd 7fdd 1cbd 05ef 3d3d
000003b0: 2dee 233c 9c52 4bbd 857b 443d e898 9a3d
000003c0: af99 423b 79b7 dc3d 1bad c83c 40aa 383d
000003d0: 975f ddbb 225c 253c daa4 0d3d c8dc d4bc
000003e0: 7891 45bd ffe1 55bd 37a8 2a3c 1e8b eb3c
000003f0: 741f 613d ced2 a6bd cb2d 593d 1260 0f3d
-0.034831617 0.05485873 0.00282175 -0.031960968 0.028974203 0.028019866 0.08185045 0.06980941
-0.040988397 0.021719452 -0.012302655 -0.026782615 -0.04962084 0.03770645 -0.09393353 0.07170166
-0.016017845 0.10570404 -0.071663074 0.036299616 -0.045512475 0.011374849 0.050524052 0.014797151
-0.026226882 -0.002680083 -0.013785757 0.017646158 0.06657865 -0.066295855 0.048319202 0.025733955
0.019347008 0.113732114 -0.06514676 -0.051012326 -0.016355334 0.0402803 -0.0057040127 -0.027188633
0.041902404 -0.014764096 0.09354075 -0.0017851088 0.018668817 -0.01581793 -0.06892008 0.04202405
0.0536797 0.003333295 0.05318559 0.07667826 -0.038369894 0.04153701 -0.035848547 -0.017831087
0.034930293 0.071575865 -0.009977218 0.031068249 -0.08394204 0.034684148 -0.007107329 -0.05633155
-0.032085508 -0.00089240173 -0.057723258 0.008498881 0.0746806 -0.013894379 0.025510741 0.031276733
-0.032818172 -0.00700087 -0.03193579 -0.061816607 0.031823747 0.006008867 0.03434375 0.02244636
0.022594683 0.054393683 -0.015294438 0.07206639 0.06346939 -0.061597794 0.039492503 -0.009897508
0.04321375 -0.068190604 -0.054371964 0.021447288 0.021751607 0.06618075 -0.005746731 0.05904595
-0.02498128 -0.011101355 0.012348446 0.02906943 -0.009485831 0.051704336 0.05642434 0.046339195
-0.029110478 -0.056606587 0.04267261 -0.011467884 0.05404178 -0.054349653 -0.0011921334 0.07018386
-0.03227264 0.08036797 -0.008902902 -0.025889914 0.034479473 0.017143399 -0.031620614 -0.01964462
-0.0009896909 0.011407058 -0.023665035 0.026054312 0.009778466 -0.11005785 0.02690274 -0.037893366
0.027646419 -9.266351e-05 0.027431512 0.027149016 0.02748861 -0.017202271 -0.017686013 0.058958735
-0.027409032 0.0029763628 -0.017942468 0.045707338 -0.03181386 -0.020269165 0.039755464 0.031304102
0.058392826 0.028867984 0.022240391 -0.04903503 0.05828368 0.027710166 0.059081797 -0.04162568
0.046437647 -0.01852102 -0.010072642 -0.0074469284 0.015836187 -0.027893998 -0.007019088 0.039585195
0.041300558 0.0022901504 0.026268901 0.004848717 0.06575448 0.0076267812 0.029835885 0.00713469
0.0833974 0.09090922 0.05326586 -0.0003198192 0.048045572 -0.008873964 0.044340845 -0.03578192
0.011659369 0.037833974 0.022310479 0.047905788 -0.037527565 0.010407661 0.003715277 0.04172146
-0.05794072 0.038374584 0.02347773 -0.047502972 -0.020740544 0.023542106 -0.003645363 0.07364058
0.05407368 0.08439906 -0.07020743 -0.01912379 0.04444031 0.09303996 -0.049221348 0.015226846
0.021536626 -0.066888094 0.08054591 0.02523145 -0.042145744 -0.00724483 0.018416455 -0.021391897
-0.0041273115 0.052195333 0.03086016 -0.07292345 0.060515914 0.08083093 0.05371562 0.05304091
0.07887008 -0.017457362 0.008185582 -0.00940463 0.04359897 -0.034164008 -0.026675943 -0.037979867
0.036237102 0.04765959 -0.0010463492 -0.015050104 -0.0164558 0.012472132 -0.05765805 -0.014872392
0.038739346 -0.0705241 -0.038297173 0.046370525 0.010005516 -0.04963933 0.04796936 0.07548696
0.0029693653 0.10777182 0.024496606 0.045084238 -0.00675578 0.010092767 0.034581043 -0.025984183
-0.048234433 -0.05221748 0.010416082 0.02875286 0.054961637 -0.081456766 0.053022187 0.03500373

network_body.observation_encoder.processors.0.conv_layers.2.bias f4 [32]
00000000: e0dc 383d 22ef 8ebc 5fbc 13bd 40c9 1cbd
00000010: da8c b7bc 878a 4f3d bf79 013d a53a 0dbc
00000020: ce15 5bbc addb e43b 7dfc 49bd 68f8 583d
00000030: 6638 a2bb 03bf 7c3d 197c a3bd 9bc7 203d
00000040: eb0f 8abd 3dd8 cdbd a256 fcbc 340a 52bb
00000050: d205 da3b 2e95 3e3d b723 e5bc c293 f83b
00000060: bd53 853d e4ca 37bd d565 f6bc 4c9d 40bd
00000070: 2d34 123c d6d6 2d3b 2faa b73c 52fa 91bd
0.045132518 -0.017448012 -0.036068317 -0.038277864 -0.02240603 0.05066922 0.031610247 -0.008619939
-0.013371898 0.006984195 -0.049313057 0.052971274 -0.004950571 0.0617056 -0.07982654 0.03925286
-0.06741317 -0.1005101 -0.030803028 -0.0032049539 0.006653526 0.046528988 -0.027971132 0.0075859735
0.065101124 -0.044871226 -0.030077854 -0.04702501 0.0089235725 0.0026525757 0.022420017 -0.07127823

network_body.observation_encoder.processors.0.dense.0.weight f4 [128, 32]
00000000: 3407 ab3e d076 70be 2f29 783e ce39 a03e
00000010: 2017 b2be 3f9d df3e f3e3 45be a074 9f3e
00000020: 7b67 50be 98bd a5be d9d6 103e 1dd6 acbd
00000030: 5305 813e 6aa1 853e c3cd 9e3e 0a91 223e
00000040: 6f61 e9bd 8699 d5bd cf6f c4be f12e 2a3d
00000050: d41a c73e cf98 9abd 9441 1dbe 5d32 dd3c
00000060: c18f 9bbe 5520 f1bd f968 0e3e a461 b83b
00000070: 753d 9a3d 57c1 5f3d d641 72bd f7ac 963c
00000080: 21a7 033e 22c8 bd3c 0730 a4bd 8136 03be
00000090: 1fd0 053e 6732 123e 98a0 88be 30bb c13e
000000a0: ddf3 d23d 64a8 833e 81da f4be 8980 043e
000000b0: 5283 50be d142 953d 91fd fd3d 73c6 2a3e
000000c0: 97cc 2b3d 61b3 9fbe 8af3 753e 5688 b4be
000000d0: ba26 9e3d 55e1 693e 8c5c 16be 36c5 1b3e
000000e0: 0366 9dbe 24da 8a3e 1d1d a93e 986e 17be
000000f0: b54c e23b 1abb c7be e375 58be 791a d1bc
00000100: 4bf9 31bd 01ac dcbd ab46 00be 0516 8bbd
00000110: d3cd ba3c aaac 62bd c61c f03e 89ce d93e
00000120: db6e 54be 9ad4 b1be d259 14bd 39cd 193e
00000130: 8f35 d1be 686e fd3d 3c07 af3d 9eec 1ebe
00000140: 22c6 8f3e 5984 e8bd 4664 7bbd b86c ff3b
00000150: d0ef 2abe e453 e33e 91ce c7be 0b06 3a3d
00000160: 687f 3d3e 0c45 9bbc 6ae6 0abe 9bcf 993e
00000170: cb4f 49be 21ca 04bd f163 023f f4a9 113f
00000180: 9cb4 993d 1b9e 57be 55b7 cb3e e694 f13c
00000190: daac ddbe f4cc 183e 2919 c73e f5db 42be
000001a0: 908a 023e a617 cf3e a247 9abe 61c8 9e3e
000001b0: c24e f83d 2f00 6ebe 9b80 cb3e e388 56be
000001c0: 5e9a b43d 0a9e 39be e63f 273f ca52 b43e
000001d0: cd03 fd3d f65d 5dbe ee4c 06be 5a2d acbe
000001e0: 21ab febd 60e2 9ebe 5bc2 0b3f e1e1 f53e
000001f0: 6c99 4bbe 4f7b 843e 613b dcbd 169e 923e
00000200: 65eb 4e3e ca52 3a3d 2d0b 133e de4a cabd
00000210: b797 ffbd 2f03 2fbe 3961 e8bc 78e2 ce3d
00000220: fe24 afbc c267 8a3d d0bd ed3e 779c a9be
00000230: b552 dc3d 342d e73c eaf7 1e3e 97fc db3c
00000240: 1873 373c 3395 923e 610c bfbe 2b96 1dbd
00000250: a8ab 7f3e a884 f83d 7875 8f3e 5d37 0cbe
00000260: 07a0 a43e a251 55be 29d3 82bb 0b02 05be
00000270: 0ea6 d43e 09b3 1bbe d5a8 0c3e 4ab2 78be
00000280: 4ca6 fc3e 95dd 62bc 705e 45be bda8 a53e
00000290: d08a 3cbc 0e9d c93d a074 20be 9a74 cb3d
000002a0: aa02 9a3e 45fc 8b3e 6c9e a63d 51df 90bc
000002b0: 56f4 03bf c4a2 07bf f745 293e 731c 9c3e
000002c0: 2e59 8cbe bc40 753e bb7b 8b3c 7918 3f3c
000002d0: c823 ebbd 04ed de3d 51c5 a73d 6ff2 87be
000002e0: ab38 633e 228e 303e c54e e1bd ffd2 a93e
000002f0: 92ee 36be 7881 09bf e5eb 76be 6f22 ae3d
00000300: 13c1 9d3d c3d5 8c3e 097f da3d eeb9 a2be
00000310: e1f3 003e a942 68be 778a d3bd f371 183c
00000320: 1bb4 72be 1717 553e a7ef 9dbe 3ab0 31bd
00000330: 6c2d 96be d268 8d3e 04f0 5bbe 9b74 dabb
00000340: ce4c dcbe 9e9d dd3d 3571 d83d c19a c03e
00000350: 73c5 c43e e8cd 65bd d9e2 86bd fc47 4b3e
00000360: d3d0 ecbe 9d83 0b3f f0ab 093c 6265 e63d
00000370: 4a97 c8be 0344 1fbe 4499 a7bc 6728 5ebd
00000380: f239 dfbc 5e28 853c 3ab3 593d d5f0 abbd
00000390: 8536 f9bd 8744 34bd 12fc c43d 4697 fe3c
000003a0: f0f8 8fbe ce9d 9e3c 8bc8 ce3c b658 fb3d
000003b0: 260d 073e 0bc3 8a3e d9bf f23e 8711 a5bd
000003c0: afcc 6b3e 7dd4 153d 0c77 77be 1a6a 3c3d
000003d0: 43c0 233e e05b 8c3e 0a46 48be aa04 b0bd
000003e0: fb33 2a3e 90c8 7dbe cf09 46be 4a9a f43d
000003f0: dc98 963d e954 9d3e 5e3b 08bf 3045 59be
0.33403933 -0.23482823 0.2423446 0.312941 -0.34783268 0.43674657 -0.19325237 0.31143665
-0.20351975 -0.3237121 0.14144458 -0.08439276 0.25199375 0.26099712 0.3101636 0.1587564
-0.11395537 -0.10429673 -0.38366553 0.041548673 0.38887656 -0.07548677 -0.15357047 0.027001554
-0.30383113 -0.11773745 0.13907231 0.005626874 0.07531253 0.054627743 -0.059144817 0.018393023
0.12856723 0.02316672 -0.08016973 -0.1281376 0.13067673 0.1427704 -0.26685023 0.37838125
0.103004195 0.2571441 -0.47822955 0.12939657 -0.20362595 0.07288135 0.124018796 0.16677265
0.04194316 -0.31191543 0.24018684 -0.35260266 0.0772223 0.22839864 -0.14683741 0.15211949
-0.3074189 0.27119553 0.33030024 -0.14788282 0.006906117 -0.39009935 -0.2113872 -0.025525318
-0.043450635 -0.10774995 -0.12526958 -0.06791309 0.022803223 -0.055340447 0.46896952 0.42540386
-0.20745413 -0.34732515 -0.03621847 0.15019692 -0.40861174 0.12374574 0.08546302 -0.1551995
0.2808085 -0.11353368 -0.061374925 0.0077949427 -0.16693044 0.4439994 -0.39024785 0.04541592
0.18505633 -0.018953823 -0.13564458 0.30041203 -0.19659345 -0.032419328 0.5093375 0.5689995
0.07505152 -0.21056406 0.3978831 0.029489946 -0.43295938 0.14921933 0.38886383 -0.1902922
0.1274817 0.4044773 -0.30132776 0.31012252 0.12124397 -0.23242258 0.39746556 -0.20950656
0.08818506 -0.18126693 0.65331876 0.35219413 0.123542406 -0.21617875 -0.13115284 -0.3362835
-0.12434984 -0.31032085 0.5459344 0.48023894 -0.19882745 0.25875327 -0.10753513 0.28636235
0.20206983 0.04548911 0.14359732 -0.09877561 -0.12480109 -0.17091058 -0.028366672 0.10101789
-0.021379944 0.067580715 0.46433878 -0.33127186 0.107579626 0.028219797 0.15524259 0.026853843
0.011196874 0.28629455 -0.37314132 -0.03847329 0.24967825 0.12134677 0.2801931 -0.13692994
0.3215334 -0.20831922 -0.0039924574 -0.1298906 0.4153294 -0.15205015 0.1373628 -0.24286762
0.49345624 -0.013846775 -0.19274306 0.323553 -0.011507705 0.09844409 -0.15669489 0.09934349
0.30080158 0.27340904 0.08135685 -0.01768461 -0.515447 -0.52982736 0.16530596 0.30490455
-0.2741179 0.23950475 0.017026773 0.01166355 -0.11481434 0.10885051 0.08191932 -0.2655215
0.22189586 0.1724172 -0.11001352 0.3316879 -0.17864445 -0.5371318 -0.24113424 0.085026614
0.077028416 0.27506837 0.10668761 -0.31782478 0.12593032 -0.22681679 -0.103291444 0.009304511
-0.23701517 0.2080959 -0.30846903 -0.043380953 -0.2933153 0.27619034 -0.21478277 -0.0066667325
-0.43027347 0.10821079 0.105684675 0.37618068 0.38431892 -0.05610457 -0.065862365 0.19851679
-0.4625307 0.544977 0.0084028095 0.11249806 -0.39177924 -0.15553288 -0.020458825 -0.05423775
-0.02724931 0.0162546 0.05314944 -0.083955444 -0.12168602 -0.044010665 0.09618391 0.031077992
-0.28119612 0.019362357 0.02524211 0.1227278 0.1318861 0.2710193 0.47411993 -0.08059984
0.230273 0.036579598 -0.24166507 0.045999624 0.15991311 0.27413845 -0.19557968 -0.085946396
0.16621391 -0.2478354 -0.19339679 0.11943491 0.07353374 0.30728844 -0.5321559 -0.21217799

network_body.observation_encoder.processors.0.dense.0.bias f4 [128]
00000000: 26c2 f73c de80 e63c bbca 853c c344 8c3b
00000010: 4eac 193c b91c 8c3c 7e13 023d d424 48bc
00000020: 9d40 f83b de0c 903c 23f6 5c3c 51bf f03c
00000030: e0b6 543d c0de 92bc 0a8d 973c 6498 59bc
00000040: 901c 9f3c 923d ac3c 6239 c8ba 8b56 113d
00000050: 7e41 ed3c 99bb ea3c ff0c 223d 7eb7 493d
00000060: e19f da3b 6605 f43a c517 e13c 0cca 513d
00000070: a362 723c 1f21 1fba fac3 a83c 7d02 6a3c
00000080: b073 573c 7838 eb3c d939 843c 2b81 043d
00000090: ab75 0c3d e5d7 8a3c f5cd 0d3d 8087 023d
000000a0: b4df 8d3d f7fc 583c 1bba ee3c 002f 983d
000000b0: 3cb0 be3c b8d2 893a b436 373d d306 203d
000000c0: 9dbb f33c 8976 33b8 4fcd 963c 6407 733d
000000d0: 9dd0 11bc 39a8 29bb 6cd3 333d 13fa a03c
000000e0: 9fce 243d cf31 183d 9ec3 e03c a76c 0e3d
000000f0: 2db1 55bc 6a30 dd3c 864b 743c 5fb7 11bc
00000100: 9ba0 763c 940b 363a 3c2a 843c 456c b1b9
00000110: 513b 5e3c 7094 143c febd b73c cfd2 433c
00000120: 6425 bb3c 21d9 4f3c 8705 e63b 7d80 0d3d
00000130: 4043 1a3d 1cba 52bd 7c5c 7c3c 89bd 773d
00000140: fbff d2bb 4fdb 08bc 7da5 133d c12c 423d
00000150: cfda 09bc bec5 84bc 9d2b 813c 9081 ae3c
00000160: b621 4d3c 0997 60bb 3ef5 053c 3659 dfbc
00000170: ae29 123d b054 df3b aa16 b7ba 9c99 083d
00000180: c530 7abc 67b4 703d 6886 043d f016 d23c
00000190: a01c 793c 38d9 1c3b 4c43 b5bb f4c9 163d
000001a0: 2741 32bc eb41 083c bc37 163d b6cd e53c
000001b0: 242a 483c 9bfe dd3a ce8b 283d 6c1f 593c
000001c0: a6fd d23c 7892 88bb bd5c a3bc 645b 063d
000001d0: a97d 573c a29d f23b aad4 553d daeb ec3c
000001e0: 5594 533a 41e3 9dbc b983 423d 28e5 c73c
000001f0: 6874 643d 2229 a83c 7da6 983c 3fd8 293d
0.030243944 0.02813762 0.016332021 0.004280658 0.00937946 0.01710354 0.03175687 -0.012215812
0.007576062 0.01758426 0.013486418 0.029388102 0.051932216 -0.017928481 0.01849987 -0.013280962
0.0194228 0.021025453 -0.001527589 0.035482924 0.028961893 0.028653907 0.039563175 0.049247257
0.006671891 0.0018617332 0.027477155 0.051218078 0.014794025 -0.0006070304 0.020601261 0.01428282
0.013150141 0.02871345 0.016140865 0.032349747 0.034291904 0.01694865 0.034620244 0.031867504
0.069274336 0.013243905 0.029141476 0.074308395 0.023277394 0.001051507 0.044729903 0.039069008
0.029752547 -4.278732e-05 0.018408446 0.05933322 -0.008899835 -0.0025887622 0.0439028 0.019650495
0.04023611 0.037156876 0.027437028 0.034771588 -0.01304273 0.027000625 0.014910584 -0.008893817
0.01505294 0.00069444743 0.01613342 -0.00033840738 0.013563947 0.009068593 0.022429463 0.011952116
0.022844978 0.012686045 0.007019702 0.034546364 0.03766179 -0.05144702 0.015402909 0.06048349
-0.0064392067 -0.0083530685 0.036046494 0.047405962 -0.008413984 -0.016207572 0.015767867 0.021302015
0.012520244 -0.0034269711 0.008176146 -0.027264219 0.03568428 0.0068155155 -0.0013968546 0.03334962
-0.015270417 0.058765795 0.032354742 0.025645703 0.015204579 0.0023933183 -0.005531704 0.03681369
-0.010879791 0.008316497 0.036674246 0.028052192 0.012217078 0.001693684 0.041148953 0.01325212
0.025755715 -0.004167851 -0.019941682 0.032802 0.013152518 0.007404045 0.052204765 0.028921057
0.00080711144 -0.019273402 0.0474889 0.024401262 0.055775076 0.020527426 0.018634075 0.041465994

network_body._body_endoder.seq_layers.0.weight f4 [128, 128]
00000000: 3f11 923d 9540 97bd 55d2 593e 27bf e3bd
00000010: e12a 7f3c d703 c0bd b2ef 2e3d b472 d73d
00000020: f543 253e e7b5 a7bd 76d7 8a3d 3899 023e
00000030: 102d 8d3d 8de6 66bd fce1 d8bc 14eb 2ebc
00000040: 0b5a 583d 3cd2 a83c 0965 e5bc d8b7 533e
00000050: 41f7 d83d 3210 9f3e babc 043e 3c81 153c
00000060: 2ce9 b93c 3f90 2cbd d357 863d ffdb 3d3e
00000070: 9b48 e0ba ac2c 973d f15c bebd d30e cb3c
00000080: 4143 0dbd 1101 c73d 3ee7 d1bd f1da 56bd
00000090: 12d7 75bc ed44 84bd 12ff 5b3e 27bf 1ebe
000000a0: 7411 d4bc 2412 ae3e 8a27 083d a75e 873d
000000b0: 1cd3 c2bd 7ad3 853d 1c66 81bd 64bd 7dbd
000000c0: 0713 90bd 8f86 b0bd fe88 d7bd d2e3 3f3e
000000d0: 4e51 8b3d 6a8c e9bd 8ed7 fe3d 52ce 6e3e
000000e0: a7cb 9ebd 8afb d33d ebac 85bd fab7 2c3d
000000f0: 81ec eb3d 13bb d6bd 02f1 f23d a4a5 b2bd
00000100: 98ab 3abd 71ff 853d 7f46 25bd 8f26 0b3d
00000110: be8d 863d 62c8 1a3d 92a1 e83d 1027 9d3c
00000120: a3df 40be cae0 bfbd acb1 273c ec54 513d
00000130: 5308 e73d 95d0 5bbe c039 d83d 8697 7dbd
00000140: 23ca 0cbe 1dbd a33d 4471 b73d 3c1e a13c
00000150: 219d a43c 249e 91be a3e9 05bd 9859 203c
00000160: a3d3 7abc cf95 3d3e 451e 1a3e 34a6 bdbd
00000170: 238e d0bd 765b 953c 80bb dd3b 9ef5 13bd
00000180: 2a0b 89bd f50c c03d 4c20 11bd 7b69 fa3d
00000190: 0394 173e 8f3e e6bd 1f27 7a3e cf0e 873d
000001a0: 8483 a7bd f98d 273d 5d28 fb3c 8286 9e3b
000001b0: 664f 0e3d 0ef7 b5bd 2418 063e ac7f ddbd
000001c0: f7e1 ef3d abef 87be e781 b13d bed9 f8bd
000001d0: aa16 8fbd f456 cc3a bd45 673d 0607 803e
000001e0: 5a63 6fbd 33b9 01be 1a72 6d3d 9e4f a73c
000001f0: 5be3 903d 18d6 553d 1bf4 fa3d d99b 42bd
00000200: 68ed 9ebe 49f5 463e f4d4 4bbd b9de 8d3d
00000210: 1af5 16bd d662 ef3d 9130 be3b 1c08 653c
00000220: 2368 063d 918d e53d 746e 643d 025e 9abd
00000230: 2857 e9bd 89a1 873b e48f f6bd 7c24 a63c
00000240: 8590 073e 600a 5f3e 082e 813d fce6 bebe
00000250: 000c 123e bd37 08bd 65da 9f3c 556e 58be
00000260: f1a4 103d e9d5 203d 9d4f 1cbd d410 92be
00000270: f7ac 1dbe 3c17 ff3d 3ce4 fb3d 8ce2 a63c
00000280: 287c cdbd 01b1 31bc e92a 28bc 1b93 0bbe
00000290: 2828 13bc d97f c8bd e403 463d 1780 4e3e
000002a0: b9c3 d33e 2e62 95bd 9037 973d 31c6 09be
000002b0: d71a 8b3d a43d 0dbe 172e 14be a3ec 693e
000002c0: b6f2 0dbc 0e76 bc3d 88fe 8c3d a554 dbbc
000002d0: da9e 4a3d ccc2 dcbc 230e b83d 44ea 903d
000002e0: 573d 38bd 8525 91be 2499 e53d 4b1d 96bc
000002f0: 705f 7dbd a1b0 653d 8c65 d7bd 4468 c03d
00000300: ac16 1d3d 3204 9fbd f63a 2f3e 7600 53bc
00000310: 9231 96bd a851 113e 3520 48be 3ee9 f0bd
00000320: fec1 443e 3ecc 523d 0690 43bd 9289 0fba
00000330: b1b7 813d c16a 203e e246 b03c cc31 e6bd
00000340: 22c7 8cbd c3a9 ec3c ecfc b0bb ad93 2d3e
00000350: 1127 653d 48d0 243e 9df2 19bd 64a5 173d
00000360: ba31 bebd 2cdd 9cbd 690b af3c dfd0 bdbd
00000370: a11c 073c df38 65bc 9eca d83c 5a33 0dbe
00000380: 2b68 a7bd a3a9 05be fde3 373d ee66 bf3b
00000390: c3f7 c5bd 0668 373d bd13 8e3d a30a 08be
000003a0: febf 953d afd1 4b3d a68b 18bd 3ba1 743e
000003b0: 9413 94bc 878e 1dbd 0163 b5bb 9215 afbb
000003c0: 142d 4bbe 2244 ab3d 8b83 31be d7fd 41be
000003d0: 6a2b d03c 8ce4 f5bc 56fe bcbb 6374 dbbd
000003e0: 3ec8 453e 1d46 f03d af90 2f3e fca0 f8bd
000003f0: bf32 58be 3f5f 5ebe 66b3 473c 02be c83b
0.07132196 -0.07385365 0.21271642 -0.11120444 0.015574188 -0.093757324 0.04270906 0.10519925
0.16139205 -0.08188992 0.06779377 0.12753761 0.068933606 -0.056372214 -0.026474945 -0.010676164
0.052820247 0.02060806 -0.028002279 0.206756 0.10594035 0.31067044 0.12962618 0.00912505
0.022694193 -0.04212975 0.0655972 0.18540953 -0.0017111482 0.07381567 -0.09295071 0.024787342
-0.034487966 0.09717 -0.10249184 -0.052454893 -0.01500489 -0.06458459 0.2148402 -0.15502606
-0.025887229 0.33998215 0.033240832 0.066098504 -0.09512922 0.065344766 -0.06318304 -0.061948195
-0.07034879 -0.08619415 -0.10524176 0.1873925 0.06802617 -0.11403735 0.124434575 0.23320892
-0.07753687 0.10350712 -0.06527122 0.04216764 0.11519719 -0.104849 0.11862375 -0.08723
-0.0455738 0.06542862 -0.040350433 0.03397232 0.06570004 0.037788756 0.11358942 0.019183666
-0.1883531 -0.09369047 0.010235231 0.05110638 0.112808846 -0.21466286 0.1055789 -0.061912082
-0.13748984 0.07995055 0.089571506 0.019667737 0.020094456 -0.28440964 -0.032693516 0.009786986
-0.015309247 0.18514179 0.1505061 -0.09260216 -0.101833604 0.018232089 0.0067667365 -0.03612291
-0.066915825 0.09377471 -0.03543119 0.1222715 0.14802556 -0.11242401 0.24428986 0.065946214
-0.081793815 0.04090688 0.030658895 0.004837812 0.03474369 -0.088850126 0.13095146 -0.10815367
0.11713021 -0.2655004 0.08667355 -0.12150906 -0.06986745 0.0015589879 0.056462992 0.25005358
-0.05844436 -0.12668304 0.057970144 0.020423707 0.070746146 0.05220613 0.12253591 -0.04751191
-0.31040502 0.19429506 -0.049763635 0.069272466 -0.03685484 0.11688773 0.0058041294 0.013978984
0.032814156 0.11208642 0.0557694 -0.07537462 -0.11393577 0.0041391295 -0.12039164 0.020281069
0.13238724 0.21781301 0.06307608 -0.37285602 0.1426239 -0.03325628 0.019513318 -0.21135838
0.03531355 0.0392665 -0.038161863 -0.28528464 -0.15398012 0.124556035 0.122993916 0.020371698
-0.100334466 -0.010845424 -0.010264137 -0.13630335 -0.008981742 -0.0979001 0.048343554 0.2016605
0.41360262 -0.07294117 0.073836446 -0.1345451 0.06792229 -0.13793045 -0.14470707 0.22844176
-0.008663824 0.09202205 0.068844855 -0.02677376 0.0494679 -0.026948355 0.08987071 0.070759326
-0.044980373 -0.28348938 0.1121085 -0.018324515 -0.061858594 0.05607665 -0.105174154 0.09394887
0.0383517 -0.07764472 0.17112336 -0.012878528 -0.073336735 0.14191306 -0.19543536 -0.117632374
0.19214627 0.05146431 -0.047744773 -0.00054755167 0.063338645 0.15665723 0.021518175 -0.11239967
-0.06873919 0.028889542 -0.0054012444 0.16950865 0.05594546 0.16095078 -0.03758489 0.037022963
-0.09286828 -0.07659373 0.021367745 -0.092683546 0.008246572 -0.01399061 0.026463803 -0.1378912
-0.08174165 -0.13052993 0.04489516 0.0058411276 -0.096663974 0.04477694 0.069373585 -0.13285308
0.0731201 0.049760517 -0.037242554 0.2388963 -0.018075742 -0.038466003 -0.005535484 -0.0053431476
-0.19841415 0.08362605 -0.17335336 -0.18944488 0.025411326 -0.030016206 -0.005767624 -0.107155584
0.19314668 0.11732123 0.17145036 -0.1214008 -0.21113108 -0.21716021 0.012188768 0.0061261663

network_body._body_endoder.seq_layers.0.bias f4 [128]
00000000: 57dd e53c 2578 17bc 3e35 5a3c 103a b43c
00000010: 3660 1f3c f284 ea3b 02a7 fb3b d09b 563c
00000020: 3f4a 3d3b 956f 263c e9fb ab3c 2b8d 1c3c
00000030: a107 193d e87b 7d3c cf71 563c d90e b7bc
00000040: 53e1 603c a85c b83c ca46 ec3b 4b5a b8bb
00000050: 53cb a0bc aec0 4c3c 0ca6 3f3c 3d0d b23c
00000060: b1eb 043d 9982 b83c 9cdf 393c ebaa 9e3c
00000070: aa0e 8d3c 34f1 d53c 8d58 1e3c 9f63 233c
00000080: 8424 943b b37b 813a 6561 a4bc e3db 2d3c
00000090: 4915 4bbc da9a 1fbc 0f75 f4bb 1495 833c
000000a0: 1894 933c 71ac 9e3c 1a41 a0ba 748d e93b
000000b0: 962b 313c 297e c2bc 60bc 10bc a2be 26b9
000000c0: a58f 903c b62f 9cbb 589b 6d3c 731e fc3b
000000d0: 8980 303d 38fb 4bbb 5f67 933c c29e 0738
000000e0: 5f5a 0b3c 965c 043c c595 e73b 8e96 c63c
000000f0: c130 343d 8317 433c 008f 933c 4d6c 343c
00000100: dc35 3c3b c80a b53a f1c2 4c3c 628d 213b
00000110: aa83 d13c fa1f 803c d2dc 823c 5c76 ab3c
00000120: fef4 0dbc ba17 a53c 66ea 6e3d f974 82bc
00000130: 80a6 aabb fa49 d3bb 1930 063c 52b3 a13c
00000140: d6e6 0dba 72ae db3c e4be 6c3c 82fc be3c
00000150: 4859 a13c 493a ef3c de00 0d3d e32e dbbb
00000160: 3d19 273b d36c c23c e490 733a 5697 173a
00000170: ff8b e2bb 8a9a 953c eeb6 d5bc cfee 31bc
00000180: 0905 69bb de61 c13b a98b c23c 425a 89bc
00000190: fd9a d63b d214 78bc 5300 e03b c863 943c
000001a0: 3aff 833c 2f65 213c 72ff eabc f097 503c
000001b0: 11e7 bc3b aa99 9f3c b93d 883c 6944 973c
000001c0: dbac 6f3c 57a8 e0bb e769 b0bc 8ff0 f93b
000001d0: e0e5 553b 9151 a33c 1830 653c 2869 b43c
000001e0: b89b 1cbb 27ce 63bc cae0 783b 2087 6e3c
000001f0: b338 d73c 9387 863c 9375 f93c 8943 a63c
0.028059645 -0.009244953 0.013318358 0.022000343 0.009727528 0.0071569616 0.007679821 0.013098672
0.0028883365 0.010158439 0.020994144 0.009555141 0.03736079 0.015471436 0.0130886575 -0.022345947
0.0137255965 0.02250512 0.007210587 -0.005625998 -0.019628203 0.01249711 0.0116973035 0.021734828
0.032451335 0.022523211 0.011344817 0.01936861 0.017218906 0.026115991 0.009664667 0.009972482
0.0045209546 0.0009878784 -0.020065973 0.010611507 -0.0123952115 -0.009741509 -0.0074602435 0.016062297
0.018014953 0.019369336 -0.0012226433 0.007127458 0.010813614 -0.023741798 -0.008833975 -0.0001590201
0.01764662 -0.00476643 0.014502369 0.0076940595 0.04309133 -0.003112508 0.017993627 3.2334363e-05
0.008505433 0.008078715 0.0070674145 0.024241712 0.043991808 0.011907461 0.018012524 0.011012149
0.0028718626 0.0013812417 0.0124976495 0.002465092 0.025575478 0.015640248 0.015974436 0.020930462
-0.008664368 0.020152915 0.05832901 -0.015924918 -0.0052078366 -0.0064480277 0.008190178 0.019738827
-0.00054131204 0.02681658 0.014449809 0.023313764 0.019695893 0.029202597 0.034424655 -0.006688939
0.002549722 0.023733532 0.0009291305 0.00057827437 -0.0069136615 0.018262167 -0.026088204 -0.010860159
-0.003555598 0.0059015593 0.023748236 -0.016766671 0.0065492378 -0.015141683 0.006835976 0.018113986
0.016112912 0.009850784 -0.028686259 0.012731537 0.00576485 0.019482452 0.016630994 0.018465238
0.014628614 -0.006856005 -0.021534873 0.007627554 0.0032638237 0.019936355 0.013988517 0.022022799
-0.0023896527 -0.013904131 0.0037975782 0.0145585835 0.026272153 0.016422069 0.030451572 0.020295875

network_body._body_endoder.seq_layers.2.weight f4 [128, 128]
00000000: e8ff aebd 6035 07be bf93 f2bd d4ad 3f3e
00000010: 3f38 883a b2cb dd3d e1a9 77be 4094 9c3d
00000020: ab51 e03c 30c5 133d 6e57 e2bc 701c 133e
00000030: 2b82 b2bc 6a24 c53c f3c7 20bd 61d0 84bb
00000040: 9f00 3b3c 1f3c b2bd 99d5 ae3d 321f be3d
00000050: 86cf 173d f9ce ba3c 5832 123e 9b3e 313d
00000060: 6932 193e 22bf f93d 1cbf 27be 4b64 e83c
00000070: 7efc 8f3d a815 cd3c 3223 0cbd 78e0 58be
00000080: b27c c9bd 0abc 3c3d bcba fabd 0375 d4bd
00000090: 7be9 71bd 9652 e53d 2006 95be 3ea7 f93d
000000a0: 6c1e 9b3e 09d5 473d 1326 ed3d 6a76 12be
000000b0: c336 043e 03b2 ecbd 3492 1a3c 58fa aa3d
000000c0: 51c3 513e ae3c 53bd f408 d73c 4eea b3bd
000000d0: 4646 9dbd 8cb5 2bbe dee2 31be 74b2 fd3d
000000e0: dcbb 193e 696c 223e 180c 01bd 8c4e 6dbd
000000f0: 29dd 15be 19d7 20be 9a5f 92bd c6a5 22bd
00000100: 5d29 07be 41d9 1b3c 2dbd 8e3b 5594 cebb
00000110: de31 68bd 27ea 653e 7d74 0dbe 8d1f 4e3c
00000120: 7dd8 203c 25c5 6d3d 10cb 00be 735e 25be
00000130: 4983 ccbb 79be 94be 2d7b cd3d 8bce 0fbd
00000140: 0fb9 69be f0f8 03bd 745b 89bd 4004 fe3d
00000150: 0469 cb3d e883 4abd 49dc 0d3e 9a82 ebbd
00000160: 532b 19bd 5469 4abd b086 593c 863c 20be
00000170: e76e 75bd 2d53 9cbd 341b 00be 8e27 753d
00000180: 0555 c7bd 35fa 01bd 654a 9f3d a7d7 ae3d
00000190: 10b3 e5bc 68b8 993d 0814 b43d 5353 4bbd
000001a0: e74a f9bc 7e18 833e 4e6c 27bc 87b9 7e3c
000001b0: e217 cd3d f045 2ebd 9b45 08bc 4cb5 c63d
000001c0: e705 193e 80f1 acbd 9968 6a3d 3fc8 4b3d
000001d0: ea62 8bbd a252 6dbe 10b2 24be 9519 503d
000001e0: 7ca5 ab3d db2a 913d 388e b9bc d640 0ebe
000001f0: e973 973d 525c c03d 02c0 19be 9f96 b9bd
00000200: 743a 29be d052 1c3e 9654 6abe 609a d63b
00000210: 8d6d 163e 1783 c93d c406 a23d 701b 9d3b
00000220: 335e 993d 58d1 893d c682 da3d 6446 183b
00000230: 57f2 72bd 64ee a7bd 8735 c73d 7b79 f83d
00000240: a556 ce3d 61f0 773c 3962 10be 7db1 aabd
00000250: 986a 0abe 88ba 983d cf0b 003d c7ad 1fbe
00000260: 89fd c0bd 44e0 253d eef2 053d 423a 1bbd
00000270: ab42 ed3d dc63 97be c4cd 78bc 48fb d33c
00000280: 8ca7 b6bc e434 bd3c 48e4 09be 298f 283d
00000290: df23 013e d988 82bc 0e11 053e 40fe 293d
000002a0: 3ab4 8bbd 231d 11bc 1ac8 2ebd fe97 143e
000002b0: 30d3 d73d 9d0f 933d b352 173e 2db5 403d
000002c0: e03f 33bd 4e3a abbd 9541 613b 1784 6a3e
000002d0: a9d1 30bc 87db 763d bb6c 98bd 6ddd 62be
000002e0: a083 c5bd bc0c 0ebe d32f adbc 55e7 67be
000002f0: 9ce9 c3bb 3bcf 94bd b298 23bd 0eda b53d
00000300: ba7c 4dbc 95b5 343e e842 bc3c 2569 7ebd
00000310: 19d2 d13b f614 23be b05d 46bd 6ca0 2fbe
00000320: 6ffe ebbd aa7a e43c d8db 683d 9c8e 863d
00000330: e49a d5bd 1dad 243d 8597 83bd 61e6 af3d
00000340: fda3 373e 0bc7 9ebd cc76 20be 4de1 1cbe
00000350: f547 95bd f3f6 06be 3fad 53be cb67 013e
00000360: 800a 76bd eeb3 6b3d 0c48 86bb 586b 023e
00000370: 69c8 263e 1f38 4c3d ee28 c23c 7f5b e33d
00000380: 4dcb c33d c306 ba3d 67c9 02be 01b5 45bd
00000390: 348d 993d 0cae 3dbc dd29 103e 8826 823d
000003a0: 2658 01be de3f 1c3d 5a82 953c 7ab9 9dbd
000003b0: 2012 fb3c e8ff c1bc af57 963d 7688 96bd
000003c0: 4062 28bd 8712 c3bb 8032 7fbb 7074 3bbe
000003d0: f4e1 1b3e bf32 083d 5c85 6e3e 5d3f 8b3d
000003e0: 1f7d 8ebc b901 703e ee24 873d ea22 9ebd
000003f0: b16d bdbd 562d 83be f17b 063e aa62 c3bd
-0.08544904 -0.13203955 -0.118445866 0.18718654 0.0010392739 0.108298674 -0.24185897 0.07645464
0.027382692 0.036076725 -0.02762958 0.14366317 -0.021790585 0.024065215 -0.039253186 -0.004053161
0.011413722 -0.087028734 0.08536834 0.09283294 0.037063144 0.02280377 0.14277017 0.043272596
0.14960636 0.12194659 -0.16381496 0.028368136 0.07030581 0.02503474 -0.034213252 -0.21179378
-0.09838237 0.046077766 -0.12242648 -0.10373881 -0.059060555 0.11197393 -0.29106236 0.12190102
0.30296648 0.04878715 0.11579528 -0.14302984 0.12911515 -0.115573905 0.009434272 0.083485305
0.20484664 -0.05157154 0.026249386 -0.087849244 -0.07679419 -0.16768473 -0.17371699 0.12387553
0.15013069 0.15861668 -0.031505674 -0.057936236 -0.14635147 -0.15707053 -0.07147141 -0.039708875
-0.13199373 0.009512247 0.0043560476 -0.0063043036 -0.056688182 0.22452603 -0.13813968 0.0125807645
0.00981724 0.05804934 -0.12577462 -0.16149311 -0.0062412363 -0.2905157 0.100332595 -0.035109084
-0.228245 -0.032219827 -0.067068964 0.124031544 0.099321395 -0.0494422 0.13853563 -0.1149952
-0.037394833 -0.049416855 0.013276741 -0.15648088 -0.059920218 -0.07633052 -0.12510377 0.059852175
-0.09733013 -0.031732757 0.077778615 0.08537226 -0.028039485 0.07505876 0.08792883 -0.04964001
-0.030431224 0.25604624 -0.010218693 0.015547163 0.10014321 -0.042547166 -0.0083173765 0.097025484
0.14943658 -0.084445 0.05722866 0.049751516 -0.06805976 -0.23176053 -0.1608355 0.050805647
0.08381173 0.07088252 -0.022650823 -0.1389192 0.07395155 0.09392609 -0.15014651 -0.09061932
-0.16526204 0.15265965 -0.2288383 0.0065491647 0.14690228 0.098394565 0.07911447 0.0047945306
0.0748867 0.06729382 0.10669474 0.0023235315 -0.059313145 -0.08199766 0.097270064 0.121325456
0.1007512 0.015132994 -0.14099969 -0.083346345 -0.13517225 0.07457453 0.03126126 -0.15593635
-0.09423358 0.04049708 0.03270238 -0.037897356 0.115849815 -0.29568374 -0.015185777 0.025876656
-0.02229669 0.02309651 -0.13465989 0.041152153 0.1261134 -0.015934395 0.12994787 0.041502237
-0.06821485 -0.008857044 -0.0426713 0.14511105 0.10538328 0.07180712 0.14777641 0.047047783
-0.043762088 -0.0836073 0.0034371365 0.22901951 -0.010792174 0.06026795 -0.07442614 -0.2215478
-0.09644246 -0.13872045 -0.021140968 -0.2264684 -0.005978776 -0.072660886 -0.039940543 0.08879481
-0.012541944 0.17647393 0.022981122 -0.062111992 0.0064032194 -0.15925965 -0.04842919 -0.1715104
-0.11523139 0.027890522 0.056850284 0.06570169 -0.10429934 0.040204156 -0.064253844 0.08588863
0.1793365 -0.07752808 -0.15670317 -0.1532032 -0.07289115 -0.13180141 -0.20671557 0.1263725
-0.060068607 0.05754464 -0.004097944 0.12736261 0.16287388 0.04985821 0.023701157 0.11101436
0.09560261 0.09083321 -0.12772141 -0.048268322 0.074976355 -0.011577141 0.1407847 0.063550055
-0.12631282 0.038146846 0.018250633 -0.077013925 0.030648291 -0.023681596 0.07340943 -0.073502466
-0.041109324 -0.0059531364 -0.0038940012 -0.18306136 0.15222913 0.03325152 0.2329306 0.06799195
-0.017393647 0.23438157 0.06598841 -0.07721503 -0.092494376 -0.25620526 0.13133217 -0.09540303

network_body._body_endoder.seq_layers.2.bias f4 [128]
00000000: 8913 0c3c 0f14 45bc da8b a03c 5753 5d3a
00000010: 9e42 72bc a6fe 73bc ba28 04bb eb60 a73c
00000020: a963 4b3c 7206 bcbb a8a3 0d3d 8530 23bc
00000030: a104 703b ebc9 ca3b 8932 3fbc 1138 e03b
00000040: ef3c 19bc d7fb 4fbc 6a05 d0bb f165 133d
00000050: 42e2 9a3c c56b 39bc 2a00 393c 50c3 62bb
00000060: a2ca 41bb a4fa f33c 217c 8f3b 2c09 f1bb
00000070: e1a0 af3c 74a7 98bc 518c 50bc 68c2 d93c
00000080: 7a5c 03bd 2cbf cebc 0505 f03b 7d21 8c3b
00000090: 2678 333c 3e0c 963b 6a0a 13bb d80e 533a
000000a0: b95b 9438 acd4 85ba 4b26 d739 f559 98bc
000000b0: 74bc 0d3d 574f 7ebb 637e 61bb 7d40 ae3b
000000c0: db10 fdbb 2512 a43c c0fc b6bb b875 6f39
000000d0: 4367 9b3d 8798 c43b 1c71 2ebc 97f3 b0bb
000000e0: 7a0c 9aba 6d56 0aba 173f 3e3d bbcb 3d3c
000000f0: 7b3d 8ebb 07d2 5bbc cc61 d3bb b038 a6bc
00000100: 6e83 c9ba 4895 4f3b 723f fb3c 3f48 e6bc
00000110: 743e 9b3b 80f4 703c f62f 3e3c 8912 cfba
00000120: f788 c6ba 806c ad3c 7473 d63a 0802 593b
00000130: 4125 f6bb 89a5 01bc 7f99 8a3c f566 953c
00000140: 3db3 b53b 65e4 d3bc 828d f7ba d059 38bc
00000150: 7567 573c 3b47 22bc 6d9c 253c 2b14 fabc
00000160: edf0 cdbc ecc6 bebb e8cf a1bc d24a c63c
00000170: dbd7 90bc f54f 5ebc 0b13 53bc 3c62 71bc
00000180: 54cb 373d 132c 363d 93e6 bfbc a8e7 10ba
00000190: 8447 c63d 6f09 cd3c 7143 33bc 4c8b bc3b
000001a0: 9fff 633a 0278 af3b 2d50 d03b a5ab 043a
000001b0: cbee 843d 04e1 2f3b 3f19 c93b 2166 90bc
000001c0: 55e2 df3c bedc f03b fd56 50bc 4f35 29bc
000001d0: 8686 0b3c 9b90 c4bb 534e d5bb 9920 e43c
000001e0: ba31 cbbc a6fc 20bc 2db9 6f3b 07c2 b339
000001f0: 18ef a7bb 121a d73b c421 48bc 6904 593c
0.008549579 -0.012028708 0.019597936 0.00084428996 -0.014786391 -0.014892256 -0.0020165876 0.020431956
0.012413898 -0.005738073 0.034579903 -0.009960298 0.0036623853 0.0061886213 -0.011669763 0.006842621
-0.009352907 -0.012694321 -0.0063483017 0.03598589 0.018906716 -0.011317198 0.011291543 -0.0034601279
-0.0029570241 0.0297826 0.004378811 -0.0073558297 0.021439018 -0.018634535 -0.012728767 0.026581958
-0.032070614 -0.025237642 0.007324817 0.004276453 0.010953939 0.004579096 -0.0022436627 0.0008051223
7.0742746e-05 -0.0010210476 0.00041036526 -0.018597582 0.03460355 -0.0038804614 -0.0034407608 0.005317746
-0.0077229566 0.020028183 -0.0055843294 0.0002283667 0.07588055 0.005999628 -0.010647085 -0.005400132
-0.0011752986 -0.00052771607 0.046446886 0.011584218 -0.004340825 -0.013416774 -0.0064508673 -0.020290703
-0.0015374252 0.0031674672 0.030669902 -0.028110621 0.0047376696 0.014706731 0.0116081145 -0.0015798371
-0.001514702 0.0211699 0.0016361312 0.0033112783 -0.007511765 -0.007913002 0.016918896 0.01823757
0.0055450485 -0.025865743 -0.0018886777 -0.011251882 0.013147225 -0.009904678 0.010108096 -0.030527195
-0.025139296 -0.005822053 -0.019752458 0.024205599 -0.017681053 -0.013568868 -0.012882958 -0.014732894
0.044871643 0.044475626 -0.023425376 -0.00055276835 0.09681609 0.025028912 -0.010941372 0.00575391
0.00086974533 0.005354882 0.006357214 0.00050609774 0.06490859 0.0026837 0.006137043 -0.017626824
0.027329603 0.0073505333 -0.012716052 -0.010327651 0.00851596 -0.0059986836 -0.006509581 0.027847575
-0.024803985 -0.009825861 0.003657888 0.00034286102 -0.0051249377 0.006564387 -0.012215082 0.01324568

action_model._discrete_distribution.branches.0.weight f4 [5, 128]
00000000: 4254 8f39 75cf 113b 4259 d7ba 6dec 66bb
00000010: 97fc 473c 8a87 53bb a8f2 2cbc c241 51bc
00000020: 1b58 9fbc a685 d8bb ca4f 84bc 2f2d 103d
00000030: 8a24 4dbc 735f 3abc cc09 2a3d 6497 633c
00000040: d362 54b9 5209 233c 375b 4d3a 87dc fbbb
00000050: f7e0 c8bb 595a 333c 5ab6 06bb 89fc f33b
00000060: 66e1 bebc 627c e0bc 37fe fd3b 333d ef3c
00000070: 82e2 92bb 2728 24ba a496 663c 18e5 83bc
00000080: abbb 1a3d dfef e83c efd5 543b 7993 bcbc
00000090: dd2e 2ebc b9db 013a 7013 06bc 34da 48bc
000000a0: a1de 63bc 7f38 57bc 0f5d bbbb dcdb f23b
000000b0: eda5 d0bc a472 dc3c 0abe 1ebd 26bb a2bc
000000c0: 2d02 8e3c b7fb 92bc 34ea 1a3b 76e1 1f3c
000000d0: 56ff 0cbd 8a86 69bc 3a05 41bc 1a27 a93b
000000e0: 2cd8 02bc df39 39bc 614a 05bd 96b8 73bc
000000f0: 2fcf 7a3b 2f5b 253c 3086 0cbb bfe2 773c
00000100: 4339 aa3b 4eeb 51bc c059 03bd cbea 1c3b
00000110: edb3 60b9 4962 37bb 62c5 54bc aaa2 13bc
00000120: c763 993b 01a8 31bc 0375 52bc 4366 553c
00000130: 76d6 4f3c 10e2 643c dd51 8f3a e74a 16bd
00000140: baa9 03bc 5d7d 943c 2b1c 04ba 47de 183d
00000150: f612 3dbb 3340 2a3c 161a ebbc 3b02 003d
00000160: 2154 33bb 83c0 a9bb 9d94 983c d8af 89bc
00000170: 73a5 32bb 3afb ebbc 4180 d23c aae7 06bc
00000180: 7e5c 4dbd 9c11 2bbd 4eba 013d 88bc d2bc
00000190: 018f 06bd e4e0 993a 4675 3f3a 2aa8 58bc
000001a0: 317b 6cbc 2920 753c 5f89 9a3c 92dd 55bc
000001b0: e90a 18bd f085 9abc 374e 77bc ba54 2a3c
000001c0: 2969 1cbb e3a0 c33b ebef cf3b 564b ff39
000001d0: 5070 9239 bea1 30bb fa4b 2abc 15fc a0bc
000001e0: dae9 b43c 238d 4d3b ab3c 97bc f11e acbc
000001f0: 9f5d 853c 5c0f 87bc c1c0 353c 5906 3b3b
00000200: 366b 423c edf3 a43b 252d 2ebd cd17 0bbb
00000210: 9a69 bd3c 467e 843c 5012 43bb 92a0 c83c
00000220: a8f6 3ebc d5d1 d33b 7707 a43b ef90 983b
00000230: bd53 5cbc a663 043d f380 a63b f708 5f3b
00000240: 284f af3c a272 b33c 23ce d03c d8d5 80bc
00000250: 45fd 403c c215 4d3c c698 6b3b 75b4 8a3c
00000260: a7d2 043c 306d ac3a d30a eb39 bcc3 d4b9
00000270: 4a45 58bb 4b07 9e3c 8d72 c83a 105d 073c
00000280: 09c2 313c 1f9d 8d3c 1bcf 5d3b d4f8 0c3b
00000290: 427d 11bc 4e10 ab3c 5e9e 49bc 0832 883c
000002a0: 8d46 98bc fc14 e5bb cad5 443c 3a4c 59bc
000002b0: e00f d8bc 9dce 54bc c487 d03c 212a 4cbc
000002c0: 6197 dcbb dc6c 4e3b ee8b 14bc ff07 ccbb
000002d0: 3ff8 84bc a524 9abc ec81 96bc 5e6e ffba
000002e0: 18d7 ddba 29ae e6bb 59b9 80bc 0e68 1f3c
000002f0: d7e4 d7bc 9d96 523c 3cf6 43bc acfc db3a
00000300: 8820 9a3c daed f8bb e4c7 d33b df3d c03c
00000310: 02e8 14bb 8ff2 0c3b b255 0bba edef 593c
00000320: 4a05 d1bc 38e2 833b dfac e0bb a57a 17bb
00000330: 804d b13b 04db c13c faf1 563b 0b7d 833c
00000340: 7ac8 433c 8f86 a93c d43f a53c 28e2 57bc
00000350: e1e7 373c 45ac 8d3c e612 0ebd 39d3 b83c
00000360: e7fa 803c 5d2c 61bc cc36 783c 4f0c 85bc
00000370: 696c ea3b e73e a83c 7ffa 873a 56c8 1b3c
00000380: 653f 6cbc 7d71 3ebc ce89 4e3c 00b0 b53a
00000390: 03b2 14bd 63d5 a4bb 39fe b2bb af7b 493c
000003a0: 333f 2ebc 56e1 28bc 9d3c a1bc bdc1 1d3c
000003b0: 5de9 92bc f6b2 2e3c 13d7 503c 2e1c 783c
000003c0: cc54 0fbd 77fa 28b7 3b9f d13b f589 58bc
000003d0: f17f 073c 171d c03c 1a5b 78bb 45b8 1cbb
000003e0: 5816 cd3c 3b28 b53c 7469 46bc 090e d0bb
000003f0: b25a 91bc 140a 313c a142 393c ef2b edbc
0.00027337862 0.0022248898 -0.0016429799 -0.0035236136 0.012206218 -0.0032276832 -0.010555901 -0.012772026
-0.019451192 -0.006607729 -0.016151328 0.03519934 -0.012520919 -0.011375296 0.04151325 0.013891075
-0.0002025471 0.009950953 0.00078337215 -0.007686201 -0.0061303335 0.0109468335 -0.0020555467 0.007445876
-0.023300838 -0.02740306 0.007751252 0.029203987 -0.0044825682 -0.00062620867 0.014074001 -0.016100451
0.03777663 0.028434692 0.0032476147 -0.02301954 -0.01063129 0.00049537007 -0.008183345 -0.012259055
-0.013908059 -0.013136028 -0.0057178806 0.007411463 -0.025469745 0.026910134 -0.038755454 -0.01986463
0.017335022 -0.017942293 0.002363813 0.009758344 -0.034423195 -0.014253268 -0.011781031 0.005162132
-0.00798611 -0.011305301 -0.032541636 -0.014875552 0.0038270464 0.010092541 -0.0021442287 0.015129744
0.0051948144 -0.012812449 -0.032068014 0.0023943658 -0.00021429332 -0.0027982167 -0.012986513 -0.00901095
0.004681084 -0.010843278 -0.012845281 0.013024869 0.012685409 0.013969913 0.0010934431 -0.036692526
-0.008036071 0.018126184 -0.0005039598 0.037321355 -0.0028850413 0.010391283 -0.028698962 0.031252127
-0.0027363377 -0.00518042 0.018625552 -0.016807482 -0.002725926 -0.028806318 0.025695922 -0.008233944
-0.050137036 -0.04176484 0.031671815 -0.025724664 -0.032851223 0.0011739996 0.0007303547 -0.013223687
-0.014433668 0.014961281 0.018864332 -0.013053315 -0.03711978 -0.018862695 -0.0150943315 0.010396177
-0.0023866391 0.005970107 0.006345739 0.0004869352 0.0002793097 -0.0026951875 -0.010394091 -0.019651452
0.022084165 0.0031364642 -0.018461546 -0.021010848 0.016279994 -0.016486816 0.011093319 0.002853772
0.011866381 0.005033961 -0.042523522 -0.0021223903 0.023121644 0.016173493 -0.0029765554 0.024490628
-0.011655487 0.006464223 0.0050057727 0.0046559493 -0.013447699 0.032321595 0.00508129 0.0034032443
0.02140005 0.021905247 0.025488919 -0.015726969 0.011779134 0.0125173945 0.0035949214 0.016931752
0.008106864 0.0013155099 0.00044830758 -0.00040581624 -0.0033000284 0.019290587 0.0015292928 0.008261934
0.010849484 0.017286835 0.0033845368 0.0021510618 -0.008879961 0.020881798 -0.012305824 0.01662542
-0.018588329 -0.006991027 0.012013862 -0.013262803 -0.026374757 -0.012988714 0.025455363 -0.012461216
-0.006731913 0.003149799 -0.009066565 -0.006226539 -0.016231654 -0.018816302 -0.018372498 -0.0019487848
-0.0016925065 -0.0070398045 -0.01571338 0.009729398 -0.026354237 0.012853292 -0.011960562 0.0016783676
0.01881434 -0.0075967135 0.006463038 0.023467002 -0.0022721295 0.002150688 -0.0005315199 0.013301832
-0.025515217 0.00402477 -0.0068565453 -0.0023113873 0.00541085 0.023664005 0.0032798038 0.016050836
0.011949653 0.020694045 0.020172037 -0.013176478 0.011224718 0.017294059 -0.03468599 0.022561656
0.01574464 -0.013743487 0.015149783 -0.01624122 0.007154037 0.020537807 0.0010374336 0.009508213
-0.014419411 -0.011623737 0.012606097 0.0013861656 -0.036302578 -0.0050303205 -0.0054624346 0.012297555
-0.010635185 -0.0103076305 -0.019682223 0.00962871 -0.017933542 0.010662785 0.01274659 0.015143437
-0.034992978 -1.0071896e-05 0.0063971556 -0.013216485 0.00827025 0.023451371 -0.0037896098 -0.0023913544
0.025035068 0.02211391 -0.012110103 -0.0063493294 -0.017743442 0.0108056255 0.0113073895 -0.028951613

action_model._discrete_distribution.branches.0.bias f4 [5]
00000000: b6f3 8cbc eeb3 17bc f7d2 3bbc f110 61bc
00000010: 0440 563d
-0.017206054 -0.009259207 -0.011463872 -0.013736949 0.052307144
