results/BasicXZGridSensor/BasicXZ/BasicXZ-500005.onnx (onnx, 201284 bytes, 12 tensors)

network_body.observation_encoder.processors.0.conv_layers.0.weight f4 [16, 3, 8, 8]
000000 cf 86 23 3d 81 12 5b 3d 31 2c 2f 3c a4 53 e5 3d
       0.039923485 0.053484444 0.010691688 0.11197594
000010 68 ae fb bc 31 2c bd bd 8a 54 59 bc c6 7a a2 3c
       -0.030722812 -0.092369445 -0.013264785 0.019833934
000020 57 82 28 bd 2e 1b 88 3d 36 40 46 bd 26 89 f3 3c
       -0.041139927 0.06645809 -0.04840108 0.029728483
000030 03 71 61 3d 04 5f 1f 3d a4 1f 81 3d e6 83 31 bc
       0.055039417 0.038908973 0.06304863 -0.01083467
000040 be a5 97 bd 60 24 0b 3c d1 fd 94 bd 53 f2 96 3c
       -0.0740466 0.008492559 -0.07274974 0.018426096
000050 f0 c4 51 ba 96 2f d3 3d 92 87 e7 3d 76 d1 38 3d
       -0.0008002063 0.10311811 0.11305155 0.045121633
000060 b4 a6 43 3d a6 39 3a 3b 9a d3 0e bc ad 25 57 bc
       0.047766402 0.0028415709 -0.008717442 -0.013131541
000070 1a 30 80 3c a9 53 01 3d e2 a3 af bc ae 1a 4d 3d
       0.015647937 0.031573925 -0.02144045 0.05007427
000080 fb c4 08 bd 41 43 00 3d 14 6c d4 ba 9b c8 4d bc
       -0.03339098 0.03131414 -0.0016206526 -0.012560035
000090 f4 8b 70 bd 67 68 c0 3d 79 34 f2 3c c9 2f 24 bb
       -0.05872722 0.09394913 0.029566037 -0.0025052896
0000a0 7d fa 0d bd 9b 30 b5 3c 9c 3b ce 3c f4 3a a7 bd
       -0.034662712 0.022117903 0.025174908 -0.08165541
0000b0 d8 df 50 bd 0b 66 a4 bc f2 2f 54 3d ef d8 c1 3c
       -0.050994724 -0.02006819 0.051803537 0.023663012
0000c0 29 14 80 bd 78 b9 63 bc c0 a4 94 3d ce 41 90 bb
       -0.06253845 -0.0138992 0.07257986 -0.004402376
0000d0 53 9d 8c bd ae 24 a9 bb 09 0d 11 bd 0e 35 e6 bc
       -0.06865945 -0.0051618433 -0.035412822 -0.02810147
0000e0 8f dc be bc 78 23 76 3d 69 96 12 bd b1 96 da 3c
       -0.02329853 0.06009242 -0.035787974 0.026683183
0000f0 b2 17 5d 3b 86 e9 ba bc 1a db 34 39 d5 5e 0a bd
       0.0033736047 -0.02281643 0.0001724776 -0.033781845
000100 10 f4 6f 3d 5e 89 33 3d 4d 4c 4c 3d 94 68 b8 bc
       0.058582366 0.043832175 0.049877454 -0.022510804
000110 45 d7 65 bd 66 db 83 bd 83 e1 b7 bd f4 92 54 3d
       -0.0561135 -0.06438331 -0.0897856 0.051897958
000120 ac 14 e1 3d 0e f7 a8 3d b1 0b 6c bb 6f 2d d7 3c
       0.10990271 0.08250247 -0.003601771 0.026266782
000130 32 c8 89 bd 49 df 1e bd 32 2e be 3b bf 9d 82 3c
       -0.06727637 -0.03878716 0.0058038468 0.01594436
000140 c2 e2 ce 3d e8 53 13 bd 87 5c b4 3c 83 db 59 3d
       0.10101844 -0.03596869 0.022016777 0.05318786
000150 1a 61 b1 bd ae 81 5d bc bd 41 a3 3d 01 a1 58 3b
       -0.08661099 -0.013519688 0.07971523 0.003305495
000160 6e ef 15 3e 37 2e 0f bd d4 b7 ab bd 9f e9 c9 bd
       0.14642116 -0.034956183 -0.08384672 -0.09859013
000170 90 50 92 bd d1 aa 6c 3d 3f dd cf 3d 47 0f d1 bd
       -0.07144272 0.05778009 0.10149621 -0.10207992
000180 b6 35 4c 3d b8 a9 3f 3d 45 41 62 bc c4 62 c1 3c
       0.04985591 0.046792716 -0.013809507 0.023606665
000190 aa 3b b4 3d 2e fe fb 3d d8 bd 1e bd 89 2a 04 3d
       0.088004425 0.1230434 -0.038755268 0.032267127
0001a0 3b c7 0d 3d dd ca c4 3d 28 5c c2 3d 8f 79 c5 bc
       0.03461383 0.096090056 0.09490234 -0.024105815
0001b0 db 76 4b 3d 7d 0e c0 bb 8d d6 a0 3d b8 f8 6a bd
       0.049673896 -0.005861102 0.07853422 -0.057366103
0001c0 a6 59 7a 3c 95 af df 3d a1 7b 0a bb d8 ba 99 3c
       0.015280163 0.109221615 -0.0021130817 0.018765852
0001d0 3c 47 49 bc b2 f3 1a 3c e2 61 24 3d 2f d3 d7 bc
       -0.01228505 0.009457516 0.04013241 -0.026345817
0001e0 11 f9 13 3d 20 63 d2 3c b0 50 82 3d cc 1e 48 bd
       0.0361262 0.025682032 0.06363046 -0.048857495
0001f0 eb 38 5d bd d1 76 87 bd 03 81 f4 3c 0e 5a 63 bc
       -0.05400936 -0.06614459 0.029846674 -0.013876451
000200 10 31 47 3d f8 44 15 bc 68 43 4e bc 20 c7 74 3b
       0.048630774 -0.009110682 -0.012589313 0.0037350133
000210 c2 52 8b 3d 4e f5 2b 3d 68 1f 76 3d d0 21 24 bc
       0.06802894 0.041981988 0.060088545 -0.010017827
000220 f7 03 77 bd da 6a 47 bb f6 fd 7c 3d 88 0e 72 3d
       -0.060306516 -0.0030428679 0.061765634 0.05909589
000230 08 64 45 bd 1e e1 76 bd 52 4a 1d bc aa 98 34 3d
       -0.0481911 -0.060273282 -0.009600239 0.044090904
000240 a8 b5 d0 3c 1e 22 5f bd 11 fc 62 bd f0 48 8e 3c
       0.025477245 -0.054475896 -0.05541617 0.017368764
000250 64 81 c6 3c 67 03 9c bd 23 26 61 3d c0 81 d2 3b
       0.02423162 -0.076178364 0.05496801 0.006424159
000260 58 71 e2 3c 7d 95 8c bd c8 c6 66 3c f6 09 29 3d
       0.027641937 -0.0686445 0.014085479 0.041269265
000270 40 6d 44 bd 5a 15 08 3d 34 f2 be 3c 50 93 3e bd
       -0.04795575 0.033223487 0.02330885 -0.046527207
000280 e8 c9 cc 3c fa 97 30 3d bd 10 80 bd 10 79 0a 3c
       0.02499862 0.043113686 -0.062531926 0.008451715
000290 c8 3d 6e 3d 18 4d 38 3d aa ca 6a bd 7a 6a f6 bc
       0.058164388 0.044995397 -0.05732218 -0.030080069
0002a0 e4 f5 c4 3c 2a ae 82 3c 6f 2d fc bc d0 12 8a bd
       0.024043031 0.015952189 -0.030783383 -0.067418694
0002b0 10 60 51 bd 99 01 30 bd 9c b2 a7 3c 84 20 92 3d
       -0.051117003 -0.042970274 0.02047091 0.07135108
0002c0 20 ad f2 bc 9d 20 0d 3d 8b e2 42 3d 94 77 2a 3d
       -0.029623568 0.03445493 0.04757933 0.041617945
0002d0 18 78 10 bd 09 5f 65 3d e0 06 1f bd da 88 1c 3d
       -0.03527078 0.055998836 -0.038824916 0.03821645
0002e0 8a 61 fd bc f0 f2 96 bc 8c fc 75 bd 3a b0 1f 3d
       -0.0309303 -0.018426389 -0.0600553 0.038986422
0002f0 a8 c6 6a 3d f8 81 72 3d 54 0d 6d 3d 58 91 30 3c
       0.05731836 0.05920598 0.05787404 0.01077684
000300 bd 33 52 bc ce 7d ab bd 84 1f c5 3d 70 65 81 3b
       -0.012829718 -0.08373605 0.09625152 0.00394886
000310 1f 84 e1 3c 77 13 b7 bb b2 58 4c 3d e6 33 ee 3d
       0.02752882 -0.005587037 0.049889274 0.116309926
000320 62 18 b5 3c 6d 61 80 3b dc 11 2d bc eb 71 36 3d
       0.022106353 0.003917864 -0.01056334 0.044542234
000330 99 8f 42 bd 42 25 aa 3d 69 7b 67 3d fe 11 45 3d
       -0.047500227 0.083078876 0.056514177 0.04811286
000340 ab d9 31 3b 67 d0 0e 3b 16 bb 13 bc 5c 7a 55 bd
       0.0027137797 0.0021791698 -0.009016773 -0.052118644
000350 4e 17 ae 3c 09 90 56 3d 5a 3f cf 3b 84 a7 23 bc
       0.021251347 0.052383456 0.0063246908 -0.009988669
000360 78 e2 c9 bd 7d 67 db b9 17 77 5e bd fa c7 3b bd
       -0.098576486 -0.0004184804 -0.05431279 -0.04584501
000370 91 37 23 3d f3 d5 95 3d ab f7 7e bc 77 b7 d1 3c
       0.039847914 0.07316198 -0.015561978 0.025600178
000380 ae c8 42 bc 60 c1 5e 3d 7e da 07 bd 8c 10 4c 3d
       -0.011888666 0.054383636 -0.033167355 0.049820468
000390 27 a1 d2 bc 1c 85 3c 3d bb 6f 16 bc d5 de 4f 3c
       -0.025711609 0.04602538 -0.009181912 0.012687405
0003a0 8b e0 13 3d 4b d2 fc 3c 63 3b f0 3c 04 e6 2b bd
       0.036102813 0.030861994 0.029325193 -0.041967407
0003b0 9e dc c6 bd 80 6f 3f 3d 63 1c 4d 3c 66 f3 95 bc
       -0.09710048 0.046737194 0.012518975 -0.018304538
0003c0 01 65 c8 3d bf bb bb 3b 44 83 41 bd 6a f9 28 bd
       0.0978489 0.005729168 -0.047244325 -0.041253485
0003d0 35 dc 3b 3d 76 a0 ca 3d cd a8 a5 3d 29 4e 85 bd
       0.045864303 0.09893887 0.08088837 -0.065090485
0003e0 bb db c7 3d bf 7d 8b 3b db b9 8c 3d 9f da 99 3d
       0.09758707 0.0042569335 0.068713866 0.07512402
0003f0 a1 88 07 3b 11 0c 19 3d 41 37 69 bc a6 84 80 3d
       0.0020680802 0.037365023 -0.014234365 0.06275301

network_body.observation_encoder.processors.0.conv_layers.0.bias f4 [16]
000000 56 29 55 3c b0 09 08 bc 79 bb c5 3c 76 e8 28 b9
       0.013010344 -0.008303091 0.024137245 -0.00016108327
000010 c7 3d 8a 3d 07 53 9b 3d bf ba 48 3d 9f 85 60 3c
       0.06750064 0.075841956 0.04900622 0.013703733
000020 cc d0 3b 3d 21 1e c7 bc 24 44 b0 3d 59 8e 1f bb
       0.04585342 -0.024306359 0.08606747 -0.002434632
000030 b8 97 45 3d 77 b1 3a 3d 84 52 f4 3a 65 73 a0 3c
       0.048240393 0.0455794 0.0018640314 0.019586274

network_body.observation_encoder.processors.0.conv_layers.2.weight f4 [32, 16, 4, 4]
000000 b8 c2 f7 bc 64 bc 6a 3d 32 98 aa 3a 55 44 00 bd
       -0.030244216 0.05730857 0.0013015328 -0.031315167
000010 83 39 ea 3c b2 58 13 3d 51 ec 9b 3d 85 1f 89 3d
       0.028591877 0.03597326 0.07613433 0.06695465
000020 41 99 15 bd 4b 16 62 3c c7 8d d8 bb e5 82 01 bd
       -0.036523107 0.01379926 -0.006608698 -0.03161897
000030 24 9a 61 bd 77 7e 0d 3d cb ac b7 bd ac ed 8a 3d
       -0.05507864 0.034544434 -0.089685045 0.067836136
000040 cc fe ea bb c4 80 e8 3d f9 30 97 bd ba 4c fe 3c
       -0.0071714874 0.11352685 -0.07382388 0.031042445
000050 67 62 52 bd 6b 68 55 3b e9 4a 5f 3d fc 15 88 3c
       -0.051363375 0.0032563459 0.0545148 0.016612045
000060 67 ca 2c bc 4c f3 b5 bb 9b a6 64 bc 43 0f ce 3c
       -0.010546303 -0.005552685 -0.013955737 0.025153762
000070 1b 16 7a 3d a7 88 25 bd 5f 35 5f 3d 6c b6 b7 3c
       0.061056238 -0.040413525 0.054494258 0.022425853
000080 70 2b 9e 3c 56 22 f5 3d 41 4d 66 bd f5 8f 55 bd
       0.019307822 0.1196944 -0.05622602 -0.05213924
000090 d4 d2 94 bc 4b e3 38 3d d4 2a 01 bc 61 32 09 bd
       -0.018166937 0.04513864 -0.007883746 -0.03349531
0000a0 f2 e1 2c 3d 44 7c a4 bc e6 66 c8 3d 7d 04 4f bc
       0.042207666 -0.020078786 0.09785251 -0.012635347
0000b0 9e fc a4 3c b2 f0 88 bc 83 f5 87 bd ec 09 23 3d
       0.020139989 -0.016716335 -0.066386245 0.039804384
0000c0 7b cf 82 3d 81 72 67 3c b4 0f 70 3d 4b 3a ab 3d
       0.0638723 0.014126421 0.058608726 0.08360728
0000d0 e5 4c 34 bd eb 9a 4b 3d fd d1 21 bd 83 2f 2d bb
       -0.044018645 0.04970829 -0.0395069 -0.0026426024
0000e0 a1 53 9e 3c 27 da c2 3d c1 3b 9e bc 9a ac 0c 3c
       0.019326987 0.095142655 -0.019315602 0.008586073
0000f0 e8 f8 d7 bd 9b f2 7d 3d 44 ae 39 bc e7 f8 8e bd
       -0.10545522 0.061998945 -0.011333052 -0.06981068
000100 2e b9 01 bd 36 fa fe ba 89 0e 88 bd 4c dc d2 3b
       -0.03167074 -0.0019453231 -0.06643397 0.006434953
000110 86 3b 96 3d 7c 86 94 bc d9 e6 db 3c f7 37 11 3d
       0.07335572 -0.018130533 0.026843475 0.035453763
000120 48 9a 00 bd a1 92 24 bc b6 a6 0f bd 11 71 6a bd
       -0.031397134 -0.010044725 -0.035071097 -0.057236735
000130 d7 4a f7 3c 6b 94 17 3c ca 6b 00 3d cb 68 ca 3c
       0.030187054 0.009251694 0.031352796 0.024708172
000140 1d 30 b1 3c 34 dd 55 3d e3 12 3e bc 15 be 96 3d
       0.021629388 0.05221291 -0.011601183 0.07360474
000150 4d ed 82 3d aa 98 6b bd 78 d7 25 3d 2c c5 00 bc
       0.06392918 -0.05751864 0.04048869 -0.007859509
000160 ba 98 2c 3d 38 5c 8e bd a8 23 57 bd b3 33 c7 3c
       0.04213784 -0.06951183 -0.05252424 0.024316644
000170 bc 97 bb 3c 9e b0 83 3d 04 f4 f6 bb 20 d5 65 3d
       0.022899501 0.064301714 -0.007536413 0.056111455
000180 fe ee d2 bc 3d 2d 70 bc 27 74 1f 3c 6c f3 ef 3c
       -0.025748726 -0.014659223 0.009732283 0.029290877
000190 09 bd 2b bc f9 3a 7b 3d ef dd 73 3d dd d7 34 3d
       -0.010482081 0.061335538 0.059537824 0.044151176
0001a0 d0 24 fe bc be 85 68 bd d0 b0 3a 3d a1 59 77 bc
       -0.031023413 -0.05676817 0.045578778 -0.015097053
0001b0 b4 7b 5d 3d 3d 6d 68 bd 2a 68 b8 bb 28 15 8d 3d
       0.05407305 -0.056744803 -0.0056276517 0.06888801
0001c0 bc 2f 0c bd 46 06 b7 3d 59 c1 28 bc 16 0e ed bc
       -0.03422521 0.089367434 -0.010300004 -0.02893738
0001d0 8c b0 17 3d a5 32 ca 3c 1f ec f8 bc 4d 03 c3 bc
       0.037033603 0.024682352 -0.030386029 -0.023805285
0001e0 d5 3a 58 bb 51 83 68 3c 67 74 cc bc d1 99 a7 3c
       -0.003299405 0.0141914645 -0.024957849 0.020459088
0001f0 83 dc e3 3b 70 ec fa bd 18 d8 f3 3c 4c a1 3d bd
       0.0069537773 -0.12252128 0.029766127 -0.046296403
000200 30 d0 fa 3c f1 26 09 3c 3a 7d ed 3c 6e 62 91 3c
       0.03061685 0.008371101 0.028990377 0.01774713
000210 5e cb e5 3c 66 bc b9 bc 97 a9 9b bc 55 26 6f 3d
       0.028051075 -0.022672843 -0.019001765 0.058386166
000220 c9 d0 e3 bc 20 84 a7 3b 13 48 a2 bc e7 d5 4b 3d
       -0.027809517 0.005112186 -0.019809758 0.04976454
000230 73 e4 f9 bc 7c af 9a bc 3f 8c 1f 3d 8a f7 00 3d
       -0.03050444 -0.018882506 0.03895211 0.03148607
000240 29 9a 8d 3d 91 38 b0 3b 46 6d cb 3c e6 4a 55 bd
       0.06914169 0.005377837 0.02483238 -0.05207338
000250 2d 1b 88 3d dc 88 e7 3c e2 a9 8a 3d ac b6 1e bd
       0.06645808 0.028263502 0.06770684 -0.03874843
000260 ad 25 27 3d bd 99 aa bc 89 44 83 bc 14 96 1b 3c
       0.040807415 -0.020825261 -0.016023891 0.009496231
000270 ee 78 94 3b 59 4d f4 bc 50 53 90 bc 47 80 bd 3c
       0.0045310175 -0.029822038 -0.017617851 0.023132456
000280 27 2a 2f 3d 4f bf 3f 3b db e8 19 3d f7 af 76 3b
       0.04276481 0.0029258316 0.037575584 0.0037641504
000290 ee a8 87 3d df 7d 6f 3b c9 32 df 3c 43 31 fe 3b
       0.06624018 0.003654353 0.027245896 0.0077573373
0002a0 6f 3e ab 3d 8f 37 c5 3d 4a 3f 4c 3d e6 44 57 3b
       0.08361518 0.096297376 0.049865045 0.0032847463
0002b0 e3 26 46 3d e4 e5 09 bc a7 1d 2d 3d 11 b9 10 bd
       0.04837693 -0.008416627 0.042264607 -0.035332743
0002c0 45 5a b1 3c 83 80 39 3d e8 ab b5 3c 44 98 35 3d
       0.02164949 0.045288574 0.022176698 0.044334665
0002d0 3f ba e8 bc fa 1a 64 3b 76 b0 aa 3b 2e 4f 2a 3d
       -0.028409122 0.0034806118 0.005209024 0.041579418
0002e0 c5 30 98 bd 2d 7e 1f 3d ad 46 c9 3c 86 5e 38 bd
       -0.07431177 0.03893869 0.024569834 -0.04501202
0002f0 1e 45 1e bd 59 0f 1d 3d 88 ac 63 ba 23 bb 84 3d
       -0.038640134 0.038344715 -0.0008685072 0.06481006
000300 01 13 5f 3d 1c 3a ab 3d 00 17 94 bd 9f d2 b8 bc
       0.054461483 0.08360693 -0.072309494 -0.02256137
000310 26 97 31 3d 19 49 c2 3d 85 da 61 bd 17 e5 47 3c
       0.043357037 0.094865985 -0.055140037 0.012200615
000320 2a 61 bb 3c 78 dd 81 bd e4 3c a9 3d 02 25 b5 3c
       0.02287348 -0.0634107 0.08263567 0.022112373
000330 65 97 2d bd 4b a6 de bb 37 70 9b 3c 56 f4 b0 bc
       -0.04238071 -0.006794726 0.018974407 -0.021600883
000340 53 90 ad bb e2 c9 76 3d 65 01 2d 3d 6a 10 97 bd
       -0.005296746 0.060251124 0.042237658 -0.073761776
000350 05 29 78 3d 30 3c b1 3d 77 c6 4e 3d ba 80 49 3d
       0.060585994 0.08654058 0.05048224 0.04919503
000360 77 a5 a2 3d d2 a3 99 bc 4e 96 50 3c 12 9b 6b bc
       0.07941716 -0.018754873 0.012731148 -0.014380233
000370 ad b9 3a 3d 65 a5 0f bd 11 27 a4 bc d5 be 18 bd
       0.04558723 -0.035069842 -0.02003816 -0.037291367
000380 02 05 20 3d d8 07 47 3d 9d 36 08 bc c3 91 e6 bc
       0.039067276 0.048591465 -0.008313802 -0.028145676
000390 25 80 55 bc ed f0 9b 3c 60 95 5a bd 0c b3 b1 bc
       -0.01303104 0.01903578 -0.05336511 -0.021691822
0003a0 a4 97 58 3d 67 68 89 bd c8 9e 4e bd 3b ac 37 3d
       0.05287899 -0.06709366 -0.050444394 0.044841986
0003b0 5e bd df 3a 13 17 05 bd 45 91 5a 3d 9b 42 95 3d
       0.0017069986 -0.03249271 0.053361196 0.072880946
0003c0 a4 14 ce 3a 1a 50 e6 3d 03 65 99 3c a6 3d 42 3d
       0.0015722704 0.11245747 0.018724924 0.047422074
0003d0 bb 70 06 bc 8c 33 6b 3c 66 73 0f 3d d4 23 eb bc
       -0.008205588 0.014355551 0.035022162 -0.028703608
0003e0 2e ef 40 bd 36 f5 5a bd ee c2 a1 3c 8d 39 c7 3c
       -0.0471031 -0.053456508 0.01974627 0.024319435
0003f0 6d 27 62 3d 8c 81 b7 bd 5a 89 5a 3d fd 57 12 3d
       0.05521338 -0.08960256 0.053353645 0.035728443

network_body.observation_encoder.processors.0.conv_layers.2.bias f4 [32]
000000 8c d0 39 3d 70 73 86 bc ce c9 14 bd f5 3b 1b bd
       0.0453649 -0.016412467 -0.03632527 -0.037898976
000010 6b cf c2 bc bc 11 4e 3d 04 85 04 3d 09 20 25 bc
       -0.023780545 0.05030988 0.032353416 -0.010078439
000020 04 73 4a bc d0 0a 11 3c 6c 88 48 bd 82 b1 53 3d
       -0.012356523 0.008852676 -0.048958227 0.051682957
000030 93 19 d6 bb bb d6 7a 3d 0f f8 a1 bd be 33 21 3d
       -0.0065338104 0.06123994 -0.079086415 0.039355986
000040 b5 a5 85 bd 8e 7c cf bd 56 ef fd bc 63 45 41 bb
       -0.06525747 -0.10131179 -0.030997913 -0.002949082
000050 3f 09 ec 3b b0 f4 47 3d 1a a2 e0 bc 05 3d a8 3b
       0.0072032507 0.048817337 -0.027421046 0.005134227
000060 72 0f 87 3d 6c 00 3a bd 92 1c e8 bc 87 c9 1c bd
       0.06594743 -0.04541056 -0.028333936 -0.03827813
000070 54 a5 02 3c a9 37 32 3b 20 a7 a1 3c af 8f 93 bd
       0.007973988 0.002719382 0.019733012 -0.0720514

network_body.observation_encoder.processors.0.dense.0.weight f4 [128, 32]
000000 96 9f ab 3e 45 f8 6a be 61 1b 81 3e 6a 4f a2 3e
       0.33520192 -0.2294627 0.252162 0.31701213
000010 8b d5 b4 be 98 84 e3 3e 32 97 41 be 23 a5 a1 3e
       -0.3531917 0.44437099 -0.18905333 0.31571302
000020 f0 bc 53 be ba 10 a7 be 34 ed 31 3e 25 39 ad bd
       -0.20677543 -0.3262995 0.17375642 -0.08458165
000030 63 f4 83 3e b3 41 86 3e ee 55 9e 3e f8 3d 1a 3e
       0.2577239 0.26222 0.30924934 0.15062702
000040 f1 b0 ee bd 70 b3 d4 bd 8e 45 c5 be ed 05 1f 3d
       -0.11654843 -0.103857875 -0.3852963 0.03882401
000050 c1 92 c5 3e 17 03 95 bd 88 7b 18 be 37 aa cb 3c
       0.38588527 -0.0727598 -0.14890873 0.024861438
000060 3a 0b 9a be 79 cb fc bd 6a a9 12 3e 1b 4d 60 3b
       -0.3008669 -0.12343497 0.14322439 0.0034225646
000070 87 82 99 3d 62 e7 80 3d 04 ef 68 bd 6b a4 91 3c
       0.07495599 0.06294133 -0.056868568 0.017778596
000080 ca 04 11 3e 40 2b c8 3c 2b 83 98 bd e8 3f f3 bd
       0.14161983 0.024434686 -0.07446893 -0.118774235
000090 41 e4 f8 3d d3 66 1c 3e 43 d4 80 be 40 bf c9 3e
       0.12152911 0.152736 -0.25161943 0.39403725
0000a0 62 17 f3 3d 68 d9 8a 3e 7d dd f8 be 1a d3 0e 3e
       0.11869694 0.27118993 -0.48606482 0.13947716
0000b0 32 e8 52 be 20 96 b3 3d f3 d5 e4 3d e5 43 42 3e
       -0.20596388 0.087688684 0.1117362 0.18971212
0000c0 8c 5f ef 3c 05 c7 a6 be c5 76 83 3e 6d 51 ac be
       0.029220365 -0.32573715 0.2567655 -0.33655873
0000d0 9f 31 88 3d a6 ad 79 3e 8c a6 06 be 21 9b 1c 3e
       0.066500895 0.24382648 -0.1314947 0.15293552
0000e0 85 11 96 be 20 82 8e 3e 0c 32 ac 3e 8d 44 fc bd
       -0.2931024 0.27833652 0.33631933 -0.123177625
0000f0 27 af 80 ba 2f 58 c3 be 7c 1d 4b be 3b da 24 bd
       -0.0009817824 -0.38153216 -0.19835466 -0.040247183
000100 99 a7 23 bd 00 3a e5 bd 4f 7f e1 bd cc 09 87 bd
       -0.039954755 -0.11192703 -0.1101061 -0.065936655
000110 30 14 9c 3c ed 95 25 bd 12 ff f5 3e 55 d6 de 3e
       0.019052595 -0.040426183 0.48046166 0.43522897
000120 8d de 55 be 99 af b2 be e9 68 37 bb 84 29 1a 3e
       -0.20885678 -0.34899595 -0.0027986115 0.150549
000130 8e 44 ce be cf f7 00 3e 92 64 ad 3d 50 52 28 be
       -0.40286678 0.12594531 0.08466448 -0.1643765
000140 c0 23 8d 3e ed 79 e8 bd 0f 95 81 bd 9a 51 41 3b
       0.27566338 -0.113513805 -0.06327259 0.0029498101
000150 12 aa 31 be 33 2c e7 3e 54 36 c1 be ff 44 28 3d
       -0.17350033 0.4515091 -0.37736762 0.041081425
000160 9d 42 43 3e 84 55 33 bd a2 cb 0a be 48 3a 95 3e
       0.1906838 -0.043782726 -0.13554242 0.29146028
000170 c9 8f 49 be 79 65 d9 bc e4 6d 03 3f e8 b2 11 3f
       -0.19683756 -0.026537644 0.51339555 0.56913614
000180 9f c0 9e 3d 4a 9d 5c be b2 a7 cc 3e 7e b8 db 3c
       0.07751583 -0.21544376 0.3997169 0.026821371
000190 0e b2 dc be c5 41 1d 3e ee 9a ca 3e b6 ec 3c be
       -0.43104595 0.1535712 0.39571327 -0.18449673
0001a0 2e 7e 06 3e 91 02 d1 3e 81 66 a0 be b9 27 9f 3e
       0.13134071 0.4082227 -0.31328204 0.31084993
0001b0 cd 96 f6 3d 41 54 6d be 95 7c cb 3e 0a 15 54 be
       0.12040482 -0.23176672 0.39743486 -0.20711151
0001c0 88 dc b0 3d 02 30 3a be 6a 09 28 3f 91 11 b4 3e
       0.08635813 -0.18182376 0.65639365 0.35169652
0001d0 70 07 f8 3d 22 ee 59 be 3b c5 f8 bd 78 43 ac be
       0.121107936 -0.21282247 -0.12146994 -0.33645225
0001e0 a6 eb f9 bd 27 88 a4 be 3e e8 0b 3f 78 87 f1 3e
       -0.122031495 -0.32135126 0.5465125 0.47173667
0001f0 e9 91 4b be 49 ae 83 3e 35 45 da bd f2 b3 92 3e
       -0.19879879 0.25718907 -0.106577314 0.28652912
000200 9b 33 51 3e 94 fb 27 3d 01 1d 15 3e d7 a4 d0 bd
       0.20429842 0.041011408 0.14561845 -0.10187691
000210 ad fe fa bd c0 c5 2a be 9e cc b5 bc 95 d9 d9 3d
       -0.12255607 -0.16676998 -0.022192296 0.106372036
000220 79 89 91 bc 03 b0 91 3d 7e 94 e8 3e f4 4b a9 be
       -0.017765747 0.0711365 0.4542579 -0.3306576
000230 15 7a da 3d 3c b9 ec 3c be 21 1f 3e 86 ef e7 3c
       0.106678165 0.02889692 0.15540215 0.028312456
000240 ee 03 1c 3c 76 6a 92 3e 4e 96 bd be e6 85 20 bd
       0.009522421 0.28596848 -0.37028736 -0.039190196
000250 96 2f 7d 3e b9 70 ff 3d e9 ca 94 3e 5f f7 0b be
       0.24725184 0.12472672 0.29061058 -0.13668583
000260 a1 90 a5 3e 57 95 5f be 19 8c 33 bb 6e 24 0c be
       0.32336906 -0.21834312 -0.0027396737 -0.13685772
000270 ce b8 d4 3e 12 17 1d be ae 64 0d 3e 06 6a 78 be
       0.41547245 -0.15340832 0.13807938 -0.24259195
000280 ad 27 00 3f 4e 8e 9d bc 5a 44 46 be 27 1c a6 3e
       0.5006054 -0.019232895 -0.19362012 0.32443354
000290 2e 23 52 bc d5 9f d0 3d e0 e7 17 be 6e 6b dd 3d
       -0.01282577 0.101867355 -0.14834547 0.10811506
0002a0 cd 4e 9f 3e 37 4c 90 3e 9e 3a 8f 3d ef 11 67 bc
       0.31114808 0.28183147 0.06993602 -0.014103397
0002b0 e9 a2 05 bf 4b d5 05 bf aa 94 24 3e 7c c5 a2 3e
       -0.52201706 -0.52278584 0.16072336 0.31791294
0002c0 e2 91 8e be 76 09 6f 3e 29 6e f1 3c 55 3e a9 3c
       -0.27845675 0.23343453 0.029471474 0.020659605
0002d0 06 11 f4 bd 62 68 ec 3d 6e 0f bf 3d f8 87 88 be
       -0.119173095 0.11543347 0.09329115 -0.26666236
0002e0 08 78 68 3e 5b 8b 36 3e 28 93 db bd f9 59 b6 3e
       0.22702038 0.17826597 -0.10721427 0.3561552
0002f0 58 c4 3a be 9c f4 0a bf a0 e6 71 be e9 01 a0 3d
       -0.18238962 -0.54279494 -0.23623133 0.07812864
000300 1e d9 98 3d 30 4c 90 3e 79 51 d7 3d a1 4c a0 be
       0.07463287 0.28183126 0.105135866 -0.31308463
000310 f4 ce fa 3d 12 83 6d be f4 b6 e5 bd b0 d6 4e 3b
       0.122465044 -0.2319453 -0.11216536 0.003156107
000320 c9 81 77 be 6a 16 53 3e a2 e0 9d be 99 23 30 bd
       -0.24170603 0.20614019 -0.30835444 -0.0430027
000330 ad 58 95 be a4 c9 8d 3e 1c 48 5d be 05 e6 07 bc
       -0.29169217 0.27692902 -0.21609539 -0.008294587
000340 33 06 dc be 3d e2 dc 3d 3b 90 cf 3d db e5 c1 3e
       -0.4297348 0.10785339 0.10134932 0.37870678
000350 44 e0 c5 3e 94 b6 7a bd 83 9b 9c bd 0c 4f 49 3e
       0.38647664 -0.061209276 -0.07646849 0.1965906
000360 ef 77 ed be 0e 2f 0e 3f 48 10 d4 3b a6 eb f6 3d
       -0.46380565 0.5554055 0.0064716674 0.12056665
000370 50 bd c8 be b5 74 1f be 66 72 a5 bc 87 a1 62 bd
       -0.39206934 -0.15571864 -0.020196151 -0.055329826
000380 47 3f da bc 54 12 17 3d e2 15 26 3d 7f 75 b7 bd
       -0.026641501 0.036882713 0.040548213 -0.089579575
000390 20 fd f7 bd ac 7e 68 bd c3 ef b1 3d 99 0c d6 3c
       -0.12108827 -0.05676143 0.08688309 0.026129054
0003a0 b3 3a 8d be e3 cc ba 3c 15 5d 95 3c 39 7f ea 3d
       -0.27583846 0.022802776 0.018232862 0.11450047
0003b0 d2 a8 f8 3d c3 f4 87 3e 00 6d f5 3e 60 1f bd bd
       0.12141575 0.26553926 0.47934723 -0.092345
0003c0 65 05 75 3e 28 8c 2f 3d ce b7 72 be 01 48 2c 3d
       0.23927839 0.042858273 -0.23702928 0.042060856
0003d0 2f 1e 28 3e ab ce 86 3e 4a 30 41 be ce ce 9e bd
       0.16417764 0.2632955 -0.18866077 -0.077542886
0003e0 cd 35 21 3e fd ad 77 be 4a b9 42 be 4b fc 0d 3e
       0.1574318 -0.24187465 -0.19015995 0.13865773
0003f0 a5 37 9a 3d dd 7a 99 3e 92 b3 0a bf 4f 74 54 be
       0.075301446 0.2997655 -0.5418025 -0.20747493

network_body.observation_encoder.processors.0.dense.0.bias f4 [128]
000000 86 93 fe 3c 86 4b 28 3d 25 86 95 3c 89 7a aa 3b
       0.031076204 0.04108765 0.018252442 0.0052025956
000010 3e 2f 23 3c bd 9d b5 3c ae e3 02 3d 40 16 99 bc
       0.009959994 0.022169942 0.031955414 -0.018687367
000020 e4 9b e2 3b af 7a 9c 3c 4c b1 90 3c 51 e5 f4 3c
       0.0069155563 0.019101469 0.017662667 0.029894503
000030 aa 1d 5e 3d 59 1c 8b bc 42 93 b6 3c 8d 9b 5c bc
       0.05422751 -0.01698129 0.022287015 -0.013464821
000040 8c 05 83 3c 21 bb a7 3c 5f 94 22 ba c0 8e 11 3d
       0.015993856 0.020474972 -0.00062019186 0.035536528
000050 1d a5 ef 3c d1 44 f8 3c 96 a0 1e 3d f7 be 54 3d
       0.029253537 0.030306252 0.038727365 0.05193993
000060 30 8b fa 3b d0 29 34 3b 0c 15 df 3c a7 6f 4d 3d
       0.007645987 0.0027490743 0.027231716 0.050155308
000070 ec 67 a8 3c 25 77 12 3a ef 4f b6 3c d1 d6 73 3c
       0.020557366 0.0005587212 0.022254912 0.014882759
000080 80 a7 ee 3c d0 8d e9 3c a8 f9 80 3c 5a 2b 05 3d
       0.029132605 0.028510004 0.015744045 0.032512046
000090 11 05 08 3d ec 58 cb 3c a5 01 0b 3d 17 5c 01 3d
       0.033207957 0.024822675 0.033937115 0.031581964
0000a0 64 a7 ae 3d 94 6a 51 3c f4 7f f9 3c 09 16 9d 3d
       0.08528021 0.012781758 0.03045652 0.076702185
0000b0 7c 25 da 3c 92 1d de 39 d5 e7 34 3d d2 6a 28 3d
       0.026629202 0.0004236517 0.044166405 0.041117497
0000c0 80 44 0f 3d 9f 69 2d ba c0 79 ed 3c e3 3c 74 3d
       0.034977436 -0.0006615165 0.028988719 0.05962838
0000d0 07 2c a5 bb 4c 7b e9 ba e4 b9 36 3d 3a c0 b1 3c
       -0.005040649 -0.0017813235 0.044610873 0.021698106
0000e0 f2 96 2e 3d 1f 18 14 3d d0 d7 e8 3c d3 9c 2a 3d
       0.04262442 0.036155816 0.02842322 0.041653465
0000f0 9e f7 53 bc 33 0d dc 3c b7 ee 6a 3c ec f8 09 bc
       -0.0129374545 0.026861763 0.014339141 -0.008421164
000100 01 03 5a 3c 8b ac af 3a 0c c5 97 3c 87 53 91 b9
       0.01330638 0.0013402862 0.018526576 -0.00027718788
000110 2d 48 74 3c fe 36 2a 3c 87 d4 ae 3c 21 b1 3b 3c
       0.014909786 0.010389088 0.021341575 0.011455805
000120 13 0c f0 3c e5 45 82 3c c2 93 05 3c 5a 2c 14 3d
       0.029302632 0.015902469 0.008152904 0.03617511
000130 f4 9a 1b 3d 8a d9 58 bd 86 3b 6c 3c 60 6c 7b 3d
       0.03798957 -0.052941836 0.014418488 0.06138265
000140 94 93 46 3b 3d b6 06 bc 34 52 30 3d aa f6 49 3d
       0.0030300366 -0.00822216 0.043047145 0.049307503
000150 6d 05 25 bc e4 a8 8e bc 72 7e 7d 3c e8 58 c1 3c
       -0.010072094 -0.017414518 0.015472041 0.023601964
000160 13 52 bd 3b 4e 63 07 bb b5 68 32 3c 28 a4 ef bc
       0.0057776063 -0.0020658555 0.010889222 -0.02925308
000170 7b df 09 3d b7 0f cb 3b d4 61 c5 b9 53 bc 6c 3d
       0.033660393 0.0061969417 -0.00037647656 0.057796787
000180 63 65 8c bc 9f 6b 71 3d 9d a2 05 3d b5 6f db 3c
       -0.017138189 0.058940526 0.032625783 0.026786665
000190 ab 07 69 3c 41 f0 5f 3b 42 7e 8f bb 7c ff 15 3d
       0.01422302 0.0034170302 -0.004379065 0.036620602
0001a0 7c 32 07 3a c6 7b 19 3c 3d a1 1e 3d d6 b8 10 3d
       0.0005157364 0.009367889 0.038727988 0.035332523
0001b0 60 6e 69 3c 8f 18 1e 3b 67 d7 2b 3d 5f 9a 6b 3c
       0.014247507 0.0024123525 0.04195347 0.014380067
0001c0 03 1c cb 3c ba 8a e5 bb 7c 46 c0 bc 06 3d 02 3d
       0.02479363 -0.007005063 -0.02347111 0.031796478
0001d0 2e 0c 32 3c 42 20 0c 3c 6d 59 6c 3d 80 5d f7 3c
       0.010867162 0.008552613 0.05770247 0.030195951
0001e0 16 3e 2d bb be 15 ab bc 44 4d 45 3d ed e9 d1 3c
       -0.0026434711 -0.02088439 0.04816939 0.02562424
0001f0 56 cf 58 3d 3e 95 ad 3c 0b 7c 98 3c a4 03 3a 3d
       0.052932106 0.021189328 0.018613836 0.04541363

network_body._body_endoder.seq_layers.0.weight f4 [128, 128]
000000 cc 1f aa 3d c7 be c8 bd 95 e5 5f 3e af fb d8 bd
       0.08306846 -0.09802013 0.21864922 -0.1059488
000010 4b a5 d6 3c f4 ed e9 bd 6a 28 17 3d fd ac e7 3d
       0.026201865 -0.11422339 0.036903776 0.11312292
000020 97 04 26 3e f3 53 a2 bd 0b a4 84 3d 0e 4d 06 3e
       0.16212688 -0.07926168 0.06476601 0.13115332
000030 2f a1 a4 3d 77 00 77 bd 4a 32 81 bc c2 1a 68 bc
       0.08038556 -0.060303178 -0.01577105 -0.014166536
000040 ae d6 4b 3d 9d 4b ba 3c d2 9e e9 bc 45 ce 5b 3e
       0.04976528 0.022741133 -0.028518114 0.21465404
000050 60 ba d8 3d 5f 57 a1 3e 67 36 08 3e 0d ee 5d 3c
       0.10582423 0.3151197 0.13302003 0.013545525
000060 d8 64 cb 3c ec 33 e4 bc 3a e2 8c 3d 3f 2d 44 3e
       0.02482836 -0.02785679 0.06879087 0.19157885
000070 e2 bd 97 3b ce 6f 91 3d 50 ba b8 bd f9 83 e2 3c
       0.00463079 0.07101403 -0.09019911 0.02765082
000080 57 c3 85 bc 0f c3 bf 3d 73 36 bb bd 6f 9f 16 bd
       -0.016328497 0.09363376 -0.09141245 -0.03677314
000090 cd 84 77 bc 26 2f 93 bd 37 c2 62 3e 76 c1 36 be
       -0.015107346 -0.07186727 0.221444 -0.17847237
0000a0 73 15 2a bd 28 50 b2 3e 27 12 39 3d 78 77 93 3d
       -0.04152436 0.3482678 0.045183327 0.07200521
0000b0 8f e3 ba bd 1b 2c 74 3d 37 e6 72 bd 99 37 69 bd
       -0.091254346 0.059612375 -0.05930158 -0.056937788
0000c0 b6 82 09 bd 92 74 b1 bd 05 d8 d0 bd b1 d4 4e 3e
       -0.03357192 -0.08664812 -0.101974525 0.20198323
0000d0 94 94 88 3d 11 83 e1 bd 19 98 10 3e 51 5d 6e 3e
       0.06668964 -0.11011327 0.1412052 0.23277785
0000e0 71 11 a4 bd b2 30 da 3d ac 9a 9c bd 69 7f c1 3c
       -0.08011139 0.10653819 -0.07646689 0.023620324
0000f0 da e0 f8 3d 93 b4 d6 bd a8 44 f6 3d 08 4a ae bd
       0.12152262 -0.104836605 0.12024814 -0.08510214
000100 43 08 26 bd 3f d9 84 3d d4 d6 13 bd a5 94 dc 3c
       -0.040535223 0.06486749 -0.036093548 0.026926348
000110 b6 2c 91 3d d5 f9 3c 3d 70 f5 ec 3d 1d 6c 99 3c
       0.07088606 0.046136696 0.11570251 0.01872831
000120 c5 a2 2e be 78 f0 ba bd 9d 28 89 3c 52 e9 61 3d
       -0.17054279 -0.09127897 0.016742999 0.055154152
000130 63 2b ef 3d 1f 73 5f be ba 3c d6 3d d9 d7 6b bd
       0.11678197 -0.21821259 0.104608014 -0.057578895
000140 25 e6 f4 bd 47 3a 8d 3d 21 fa 8f 3d fe 24 e5 3b
       -0.11957959 0.06895881 0.0703013 0.006992935
000150 ba 8c 79 3c 9a 2a 93 be 50 57 d9 bc c7 41 d3 3b
       0.015231306 -0.2874344 -0.026530892 0.0064470503
000160 ec e0 93 bc 45 6d 40 3e ee 2e 23 3e 51 9c c5 bd
       -0.018051587 0.18791683 0.15935871 -0.096489556
000170 f4 91 bc bd f1 20 5b 3c 8c 25 3b 3c 40 3b e1 bc
       -0.09207526 0.013374553 0.011422526 -0.027494073
000180 ee 15 95 bd 6a 2f d0 3d 42 ed 18 bd 58 68 0b 3e
       -0.072795734 0.101652935 -0.03733564 0.13614023
000190 e0 45 1f 3e 68 64 df bd d6 02 7b 3e a3 c6 91 3d
       0.15553999 -0.10907823 0.245128 0.07117965
0001a0 e2 5d b7 bd bf 76 3e 3d 7c 85 2b 3d 83 29 cc 3a
       -0.089534536 0.046499964 0.041875347 0.0015576336
0001b0 95 bd 13 3d 4b 7f af bd ce e0 0b 3e 8b e9 d7 bd
       0.03606947 -0.08569201 0.13659975 -0.10542592
0001c0 50 17 f4 3d 6c e4 86 be 9b d4 aa 3d bb a3 f5 bd
       0.11918509 -0.26346147 0.083413325 -0.1199412
0001d0 c8 09 9a bd 20 56 17 3b ff b5 50 3d d0 05 83 3e
       -0.07521397 0.0023092106 0.050954815 0.25590372
0001e0 ce 50 87 bd 8e bd 0a be ad 5c 88 3d df 3e cf 3c
       -0.06607209 -0.13548872 0.066583015 0.025298534
0001f0 6c 51 95 3d 5c ec 6d 3d 5c d2 05 3e 59 9f 2b bd
       0.072909206 0.058086738 0.13068527 -0.041900013
000200 90 10 a2 be 48 d2 63 3e 57 04 4b bd 35 6f 91 3d
       -0.3165326 0.22248185 -0.049564686 0.07101289
000210 f1 11 1f bd 08 8f 10 3e 80 98 37 3c 46 66 0a 3b
       -0.03883547 0.14117062 0.011205792 0.0021118089
000220 f7 eb d8 3c 9a 7b ea 3d 0e a7 86 3d a0 42 97 bd
       0.026479704 0.114493564 0.06574832 -0.073857546
000230 fc 4f f3 bd 52 f2 df 3a be 40 f8 bd b1 c2 95 3c
       -0.1188049 0.0017085767 -0.121217236 0.018281313
000240 14 fd 10 3e f8 d0 63 3e dc 5b 8c 3d 1f af c0 be
       0.14159042 0.22247684 0.06853458 -0.37633607
000250 77 14 16 3e 59 a1 10 bd 23 1e a3 3c a2 28 57 be
       0.14656244 -0.035310123 0.019911831 -0.21011594
000260 a6 74 1f 3d a8 1c 05 3d 5b b8 11 bd be 75 93 be
       0.038929604 0.03249803 -0.035576206 -0.28800768
000270 4c 96 20 be 7a f5 08 3e 4f 0f 02 3e df 13 dd 3c
       -0.15682334 0.13374892 0.12701152 0.026987014
000280 d2 c2 f6 bd 18 12 60 bb 94 c4 74 bc 13 cb 14 be
       -0.12048878 -0.0034190472 -0.014939446 -0.14530592
000290 99 32 ad bb 98 68 c4 bd 85 db 3e 3d 0d 85 67 3e
       -0.0052855727 -0.09590262 0.04659607 0.22609349
0002a0 50 ef e0 3e 60 9f 9a bd 96 15 8f 3d e4 90 0e be
       0.4393258 -0.075499296 0.06986539 -0.13922459
0002b0 dd 95 93 3d d7 db 0d be fe 27 14 be 13 bc 6c 3e
       0.072063185 -0.13853393 -0.14468381 0.2311862
0002c0 62 6e 12 bd 71 f5 ca 3d 9b 74 76 3d 0f e6 0c bd
       -0.0357498 0.099100955 0.060169797 -0.03439909
0002d0 33 0f 51 3d 23 b1 c4 bc 1a e6 a2 3d 6b 92 9c 3d
       0.051039886 -0.024010247 0.07954045 0.076451145
0002e0 39 83 14 bd 93 a8 90 be 45 89 01 3e a2 17 f0 bb
       -0.036257956 -0.28253612 0.1265002 -0.007327036
0002f0 cf 83 7c bd a3 f8 75 3d ac d9 e1 bd dc 49 c6 3d
       -0.06164914 0.06005157 -0.11027846 0.09682056
000300 31 83 27 3d c8 60 94 bd c7 fe 32 3e 7b 5a 2f bc
       0.0408966 -0.07245022 0.17480002 -0.010702725
000310 3a c3 93 bd 25 06 10 3e e1 57 44 be 37 9b e5 bd
       -0.07214971 0.14064844 -0.19174148 -0.112112455
000320 9e 66 3b 3e 38 c0 62 3d 8e b0 41 bd 09 6b d1 3a
       0.18300864 0.055359095 -0.047287516 0.0015977334
000330 fa ff 77 3d 7f b5 1d 3e 40 fd e4 3c 28 bb ed bd
       0.060546853 0.15401267 0.02795279 -0.11607963
000340 5d 93 b1 bd f9 45 31 3d e8 88 9e bb 41 80 3f 3e
       -0.086706854 0.04327962 -0.004838098 0.18701269
000350 31 61 61 3d f4 82 23 3e 5d cd 14 bd 80 e8 13 3d
       0.05502433 0.15967923 -0.036328662 0.0361104
000360 d5 5e c3 bd 54 ac 97 bd b9 5c 9e 3c 7f 89 c1 bd
       -0.09539572 -0.07405916 0.019331323 -0.094500534
000370 e4 7a d0 3a 76 9b be bb 9e 2e eb 3c 0a b0 1c be
       0.0015905765 -0.005816872 0.028708752 -0.15301529
000380 18 30 a6 bd e3 0e 08 be 4b 87 36 3d cf d5 45 bb
       -0.08114642 -0.13286929 0.04456262 -0.0030187254
000390 e2 8a ca bd ab 10 41 3d b9 1c 8d 3d 89 b7 09 be
       -0.09889771 0.047135036 0.06890244 -0.1344892
0003a0 b6 26 aa 3d 4e 9c 51 3d b6 ea 32 bd 83 2d 7f 3e
       0.08308165 0.051174454 -0.04368087 0.24919705
0003b0 91 ad 45 bc 79 67 0f bd bb 84 05 bc 98 b3 86 ba
       -0.012065307 -0.03501079 -0.008149321 -0.0010276912
0003c0 0d 36 48 be 03 d1 b2 3d 79 1e 31 be bb 9d 40 be
       -0.19551869 0.08731272 -0.1729678 -0.1881017
0003d0 66 8e 06 3d 41 b5 c9 bc 65 60 01 bc 8c f0 db bd
       0.032850645 -0.024622561 -0.007896517 -0.1073924
0003e0 0a 40 50 3e 44 c9 f2 3d 0c 9f 29 3e 19 28 f5 bd
       0.20336929 0.118547946 0.16564578 -0.11970539
0003f0 ff 76 53 be 50 7d 64 be cb e0 28 3c 27 04 71 3b
       -0.20650862 -0.22313428 0.010307501 0.0036776157

network_body._body_endoder.seq_layers.0.bias f4 [128]
000000 f5 7e f7 3c c8 8e cc bb 13 90 67 3c ae 88 bc 3c
       0.030211905 -0.006242607 0.014133471 0.023014393
000010 9b ac 31 3c e3 d9 01 3c 83 31 24 3c b2 85 5c 3c
       0.010844375 0.007925483 0.01002157 0.01345961
000020 dc bd 68 3b 66 f1 2b 3c e5 ad c0 3c b7 ca 19 3c
       0.0035513556 0.010494566 0.02352042 0.00938671
000030 20 35 22 3d 49 da 7c 3c 6c 5e 78 3c fe 24 ae bc
       0.039601445 0.015432903 0.015159231 -0.021257874
000040 d3 2a 83 3c 02 6a cd 3c d8 1e e8 3b b2 f9 a6 bb
       0.016011631 0.025074963 0.007083755 -0.005095684
000050 07 86 ae bc 4e a7 60 3c b4 7d 43 3c 88 f6 b5 3c
       -0.021304144 0.013711764 0.011931825 0.022212282
000060 9b 97 0b 3d 6b bb c1 3c 8d bc 68 3c 63 55 a6 3c
       0.03408013 0.023648938 0.01420511 0.020304387
000070 8f fa 9d 3c 7e 6e dd 3c 75 f9 50 3c 06 19 41 3c
       0.019284515 0.027030226 0.012754788 0.011785751
000080 a8 0a e1 3b d1 ba 14 3b cf ae a7 bc a6 89 54 3c
       0.0068677254 0.002269436 -0.020469097 0.012972271
000090 8e fd 36 bc 54 68 1f bc 5d b1 b2 bb dc 0c 81 3c
       -0.011168851 -0.009729464 -0.0054532723 0.015753202
0000a0 76 f8 9a 3c bb 3b ad 3c 06 f4 33 ba ad 3e 0f 3c
       0.018917304 0.021146646 -0.00068646704 0.00874297
0000b0 4b 64 35 3c 65 c0 c4 bc 79 6b c8 bb b5 be b8 b9
       0.011071275 -0.024017522 -0.0061163274 -0.00035237303
0000c0 35 c7 93 3c d0 74 38 bb 8d ae 6c 3c 7b 98 19 3c
       0.018039325 -0.0028145798 0.014445913 0.009374733
0000d0 8e b4 3e 3d 2a 7a 60 ba 64 53 ac 3c 2d d8 a8 b9
       0.04655891 -0.0008563126 0.021035857 -0.0003220452
0000e0 68 ab 0f 3c 46 d1 06 3c 21 4a 1d 3c fa 7f c6 3c
       0.008768894 0.008228606 0.009600193 0.024230946
0000f0 7b 18 49 3d 23 c1 6f 3c cd 8c a4 3c e0 a8 64 3c
       0.049095612 0.01463345 0.02008667 0.013956279
000100 14 1e 89 3b 2d 85 54 3b 7c 72 73 3c 5b b7 f5 3a
       0.004184494 0.0032428012 0.014858838 0.0018746661
000110 fb 3d e9 3c 35 65 82 3c 51 29 97 3c ef 1f b5 3c
       0.028471937 0.0159174 0.018452318 0.022109954
000120 0b 9b 0f bc 42 01 a3 3c 2f 39 7f 3d ba ba 6a bc
       -0.0087649925 0.01989806 0.062310394 -0.014326746
000130 62 33 b4 bb 9c f7 c3 ba 8a a2 04 3c ed 30 b7 3c
       -0.0054992894 -0.0014951113 0.008095393 0.022362197
000140 1f a7 eb 3a c4 40 e7 3c 6b 88 87 3c 64 a2 c2 3c
       0.0017978883 0.028229125 0.016544541 0.023759075
000150 48 bd a2 3c 22 85 f5 3c 93 3b 16 3d c0 41 b3 bb
       0.019865647 0.02997071 0.03667791 -0.0054704845
000160 c4 6e 29 3b cf 23 c4 3c 6f 19 e7 3a 84 68 3a 3b
       0.0025853375 0.023942856 0.0017631481 0.0028443644
000170 0e ac 9d bb 87 b4 b0 3c b6 ef d4 bc b6 71 28 bc
       -0.0048117703 0.021570457 -0.02599321 -0.010281017
000180 ac 97 0e bb 99 e8 1c 3c 9c c3 c6 3c 28 cc 8c bc
       -0.0021757884 0.00957694 0.024263196 -0.017187193
000190 c6 0c 0b 3c 06 34 6b bc 4d cc 14 3c 20 cc a7 3c
       0.008486932 -0.014355665 0.009081912 0.020483077
0001a0 e4 26 80 3c 9d 2f 46 3c 10 ac e5 bc a8 58 55 3c
       0.015643544 0.012096313 -0.028036147 0.013021626
0001b0 cf 33 ba 3b 3d ee 9f 3c c7 96 9c 3c 15 25 ac 3c
       0.0056824456 0.01952278 0.019114865 0.021013776
0001c0 50 90 75 3c 19 f2 6b bb 45 c4 ad bc 73 52 ed 3b
       0.01498802 -0.0036002456 -0.021211753 0.0072424947
0001d0 ea 2a 9b 3b de e4 b8 3c e9 c4 84 3c d1 b7 c9 3c
       0.0047353404 0.02257007 0.016207175 0.024623783
0001e0 f4 00 45 bb 97 7f 66 bc 61 99 86 3a 06 5e 92 3c
       -0.0030060383 -0.014068506 0.0010269099 0.0178671
0001f0 3d 01 e8 3c 0a 81 8e 3c 7c ef 07 3d bd 19 b2 3c
       0.028320903 0.017395515 0.033187374 0.021740789

network_body._body_endoder.seq_layers.2.weight f4 [128, 128]
000000 10 88 ad bd 24 9a 09 be ef ae f1 bd fb 71 41 3e
       -0.084732175 -0.13437706 -0.11800944 0.18891136
000010 dd 6f 84 3c f3 99 f3 3d 40 9d 7f be c6 5b 9f 3d
       0.016166622 0.11894598 -0.2496233 0.07781176
000020 cd 7c 2e 3d 67 7a 59 3d a3 0b f2 bc 7d bc 1c 3e
       0.042599488 0.053095248 -0.029546564 0.15306278
000030 48 76 a5 bc 1e c8 d3 3c 13 c4 36 bd 8a 3f d6 bb
       -0.020198002 0.02585226 -0.044620585 -0.006538336
000040 9d 9a dc 3b d7 b1 d0 bd e8 58 bb 3d e9 f3 d2 3d
       0.0067322985 -0.1019017 0.09147817 0.103004284
000050 39 96 16 3d 89 a0 c9 3c 1b 1a 1b 3e 0e 8a 3c 3d
       0.036764357 0.024612682 0.15146677 0.046030097
000060 74 f9 1a 3e 11 16 fa 3d 92 42 33 be b5 a4 01 3d
       0.15134221 0.1221124 -0.17505863 0.031651217
000070 2e 6b 76 3d 96 f4 df 3c db 41 19 bd 98 4a 62 be
       0.06016081 0.027338307 -0.03741632 -0.22098768
000080 de 2e d6 bd 74 e4 28 3d 25 7e fa bd d6 94 e0 bd
       -0.10458158 0.041233495 -0.122310914 -0.10965888
000090 c6 dc 81 bd 24 76 f4 3d 65 46 96 be d5 96 01 3e
       -0.06340937 0.11936596 -0.29350582 0.12655194
0000a0 0a 23 9c 3e 6e 78 4b 3d e5 9c 03 3e da bb 18 be
       0.30495483 0.049675398 0.1285282 -0.1491541
0000b0 33 91 09 3e 37 0c ec bd 5e 79 cd 3b a3 3c bc 3d
       0.13434295 -0.11525767 0.0062705716 0.09191253
0000c0 f3 83 55 3e a7 91 5a bd ab a0 00 3d 50 0e d1 bd
       0.20851116 -0.05336156 0.031403225 -0.10207808
0000d0 94 20 9f bd e9 48 2f be cf b2 3b be ca ce 05 3e
       -0.07769886 -0.17117657 -0.18329929 0.13067165
0000e0 1c af 21 3e bc 85 28 3e 00 22 38 bd d4 ee 5d bd
       0.15789455 0.16457266 -0.0449543 -0.054182842
0000f0 6f cd 16 be 2a 53 2b be 12 82 9e bd 68 0e 32 bd
       -0.14726804 -0.16730943 -0.07739653 -0.04347077
000100 e3 13 15 be 80 6a d3 3b 53 ae 03 bb 1d fe aa 3a
       -0.14558367 0.006451905 -0.002009292 0.0013045702
000110 57 9d 80 bd fe 15 73 3e 37 78 1d be 99 1a 82 3c
       -0.0628001 0.23738858 -0.1537789 0.015881823
000120 19 9f 97 3c a5 0f 72 3d 88 48 01 be 6b 94 27 be
       0.01850848 0.05909695 -0.12625325 -0.1636521
000130 1f c3 83 3b 58 7f 95 be 5b 7c d7 3d 05 c2 2a bd
       0.004021063 -0.29198718 0.10521766 -0.041688938
000140 e5 b7 6c be 9d 1d 02 bd aa ea 86 bd d6 7b 05 3e
       -0.23117025 -0.031766523 -0.06587727 0.13035521
000150 f7 ec dc 3d 59 ed 39 bd 99 5d 0f 3e 74 e4 ef bd
       0.10787385 -0.045392368 0.14000548 -0.11713496
000160 c4 d6 fc bc 6c 76 4b bd 7b 34 e3 3c ff 8a 23 be
       -0.030864127 -0.049673483 0.027734986 -0.15970992
000170 95 04 7d bd 5e f6 b0 bd aa c6 00 be a2 47 80 3d
       -0.061771948 -0.08640741 -0.12575784 0.06263663
000180 b9 18 cc bd 54 34 0d bd 91 82 a3 3d ee d9 c7 3d
       -0.09965653 -0.034473732 0.07983888 0.09758364
000190 16 f2 24 bd 2c e7 9b 3d 8a 9b ad 3d 7f fb 56 bd
       -0.040269934 0.07612452 0.08476932 -0.05248594
0001a0 3d 97 c2 bc 20 da 81 3e 6d 0f 14 bc 7c fd ad 3c
       -0.023753757 0.2536173 -0.009036881 0.021239035
0001b0 e5 ca d6 3d d2 2f ed bc e8 42 8b bc d7 b1 cb 3d
       0.10487918 -0.028953467 -0.016999677 0.0994603
0001c0 0b 51 1c 3e 9a 29 b0 bd 9e 0c 6e 3d 4c 4d 50 3d
       0.1526529 -0.08601685 0.0581175 0.050854966
0001d0 c1 f3 93 bd d0 b6 71 be e5 86 31 be 2f a6 2b 3d
       -0.07224227 -0.23604894 -0.17336614 0.041906532
0001e0 07 69 b8 3d fd 9b 92 3d 12 97 b5 bc 8a 0f 0f be
       0.090044074 0.07158659 -0.022166763 -0.13970771
0001f0 2f dc 98 3d 7a bc c0 3d db 4d 1a be 49 27 b7 bd
       0.07463872 0.09410949 -0.15068762 -0.0894304
000200 ae cd 2c be f2 50 2d 3e 1e c6 7d be 6a ba ff 3a
       -0.16875336 0.1692541 -0.24782607 0.0019510512
000210 29 15 16 3e 36 85 c5 3d 3c 79 ac 3d 49 79 22 3b
       0.1465651 0.096445486 0.08421561 0.002479153
000220 86 9f 93 3d 01 81 92 3d 4e e2 de 3d be c1 03 3a
       0.07208161 0.07153512 0.10883008 0.0005026123
000230 b9 a3 8d bd 61 fc ad bd 3c 23 dc 3d 63 73 fc 3d
       -0.06915993 -0.08495403 0.10748908 0.12326696
000240 3e c5 d0 3d 1a 48 49 3c e2 19 10 be 98 78 ad bd
       0.10193871 0.012285257 -0.14072374 -0.08470267
000250 b2 94 0c be e8 02 88 3d 70 e6 15 3d 5d 6d 27 be
       -0.13728598 0.06641179 0.036596715 -0.16350313
000260 bc be d1 bd 77 1f 07 3d 6b 6b 0f 3d c3 4d 0f bd
       -0.10241458 0.03298899 0.03501455 -0.03498627
000270 30 81 eb 3d 59 c2 9b be 79 f0 5d bb bd 31 bf 3c
       0.1149925 -0.30421713 -0.0033865257 0.023339147
000280 07 ee 91 bc db 76 b8 3c dd 2d 0b be 62 cd 29 3d
       -0.017813696 0.022517612 -0.13591714 0.041455634
000290 b5 e5 0b 3e d6 11 9a bc 73 92 12 3e 0f 6a 1d 3d
       0.13661845 -0.018807333 0.14313678 0.038431223
0002a0 d5 43 9e bd a1 c7 62 bc 3d 61 39 bd 1f 39 18 3e
       -0.07727782 -0.013841541 -0.04525875 0.1486554
0002b0 4c 2b cf 3d ae 3d 8f 3d e1 70 1f 3e 58 a8 35 3d
       0.1011568 0.06994186 0.15570404 0.04435
0002c0 14 6b 2e bd 87 d5 8c bd e0 6f 76 3b 7d ea 66 3e
       -0.042582586 -0.068766646 0.0037603304 0.22550388
0002d0 7d 20 88 bc e4 c8 8d 3d 0e 70 8f bd 71 e6 65 be
       -0.016617054 0.069230825 -0.070037946 -0.22451188
0002e0 a2 66 cc bd 88 96 11 be d7 f0 76 bc 37 1f 69 be
       -0.09980513 -0.1421758 -0.015072069 -0.22765814
0002f0 cf db 37 bc 5f 61 8e bd c9 06 2c bd 24 ee c3 3d
       -0.01122184 -0.06952166 -0.04199866 0.09566906
000300 4b 4c 57 bc 28 74 3c 3e 8b 49 be 3c 45 fe 88 bd
       -0.013140748 0.18403685 0.023228427 -0.06689123
000310 ad 2a 8d 3b 2e e6 21 be 15 eb 48 bd d9 7e 38 be
       0.004308066 -0.15810463 -0.049052317 -0.18017139
000320 2c 6e f0 bd 76 91 9e 3c 8b a6 5e 3d d5 cb 91 3d
       -0.117397636 0.01935647 0.054358047 0.07118956
000330 b1 c1 dd bd a6 80 62 3d 24 f4 90 bd 67 4b b5 3d
       -0.10827959 0.05529847 -0.07077816 0.088522725
000340 f3 27 3f 3e b8 72 a8 bd 44 52 2d be e1 c7 17 be
       0.18667583 -0.08225006 -0.16925913 -0.14822342
000350 ed 95 95 bd 31 5e 05 be e3 83 58 be f7 b6 08 3e
       -0.07303987 -0.13024212 -0.21144061 0.13351046
000360 23 60 80 bd 9e bb 45 3d a5 8a 1a bb 56 e5 10 3e
       -0.062683366 0.04827463 -0.0023581174 0.14149985
000370 61 7e 33 3e 1e e2 5b 3d b9 09 be 3c b2 03 e3 3d
       0.17528678 0.05368244 0.023197995 0.11084689
000380 be dc c7 3d cf 53 dc 3d fa ca 05 be c0 34 4f bd
       0.097589 0.10758173 -0.1306571 -0.050587416
000390 40 55 a2 3d 78 e6 48 bc 6b 58 11 3e 00 7f 85 3d
       0.079264164 -0.012261979 0.14193885 0.06518364
0003a0 2e 57 05 be a1 05 0c 3d df 50 96 3c 0a f0 a9 bd
       -0.13021538 0.034185056 0.01834911 -0.08297737
0003b0 12 60 d2 3c d7 dc c5 bc 43 87 99 3d 5c cc 9c bd
       0.025680576 -0.024153156 0.07496502 -0.07656166
0003c0 c0 03 30 bd 18 78 a2 3c cd b9 d2 bb 46 39 43 be
       -0.042972326 0.019832656 -0.0064308406 -0.19064817
0003d0 14 f1 1e 3e 25 65 0d 3d e6 f9 6c 3e fb 97 85 3d
       0.15521652 0.034520287 0.23142204 0.065231286
0003e0 9d 9a b3 bc 87 a2 6d 3e 24 6d 86 3d 93 7b c4 bd
       -0.021924311 0.2320653 0.06563786 -0.095938824
0003f0 7a e7 cb bd fc b1 87 be 9c 36 fd 3d 01 81 d1 bd
       -0.0995626 -0.2650298 0.123639315 -0.10229684

network_body._body_endoder.seq_layers.2.bias f4 [128]
000000 d8 63 1e 3c 7e 2a 1b bc 84 b7 c4 3c 44 3f 94 3b
       0.009667359 -0.00947058 0.024013288 0.0045241434
000010 8b 17 54 bc 15 28 49 bc 83 59 04 3b 6a 61 b8 3c
       -0.012945066 -0.012277623 0.0020194955 0.022507388
000020 ef 88 a6 3c aa 10 b5 bb 2d 1e 1b 3d 7f a0 e2 bb
       0.020328967 -0.005525668 0.037870575 -0.0069161053
000030 ea 25 fe 3b 3e 69 09 3c da 10 0c bc 08 f0 cf 3b
       0.0077559846 0.008386908 -0.00854894 0.0063457526
000040 25 34 0f bc f0 7e 42 bc 9f 27 b2 bb b1 c9 22 3d
       -0.00874046 -0.011871085 -0.005436852 0.03974313
000050 9f 54 a1 3c be ce 2d bc 60 2a 3e 3c b3 5b 4e bb
       0.01969367 -0.010608373 0.011606783 -0.0031487762
000060 ed 6e 1c 3b b6 73 0e 3d bd e8 15 3c 37 a6 42 bb
       0.0023869828 0.03477832 0.009149727 -0.0029701123
000070 59 a9 bb 3c bc 43 8c bc e5 93 42 bc f2 d7 ef 3c
       0.0229079 -0.017122142 -0.011876081 0.029277775
000080 c7 b5 fa bc f3 1b d6 bc 48 2a ee 3b a6 e2 0e 3c
       -0.030604256 -0.026136374 0.007268224 0.008721029
000090 35 49 8c 3c e8 54 b1 3b de c3 c9 3a 9f 6a 05 3b
       0.017124752 0.005411733 0.0015393456 0.002035774
0000a0 44 69 c0 3b d4 d3 40 3b 98 2f 40 3a af 13 81 bc
       0.0058719236 0.0029423134 0.0007331311 -0.015756456
0000b0 66 fb 24 3d 54 e0 b5 b9 93 11 f9 ba 7e 2d 2a 3c
       0.040278815 -0.00034690148 -0.001900243 0.010386823
0000c0 88 bb b2 bb 46 7b ab 3c 17 8b 24 bb 1c 35 60 3b
       -0.0054544844 0.020932805 -0.0025107318 0.0034211343
0000d0 0f d4 a2 3d 29 a6 49 3c 5c c8 fa bb c3 20 0e bb
       0.07950603 0.012307682 -0.007653279 -0.0021687008
0000e0 55 d8 54 3b f6 14 87 3b 83 70 50 3d 20 56 4f 3c
       0.0032477577 0.004122372 0.05088855 0.012654811
0000f0 89 89 8e ba 18 d9 4a bc ae b6 47 bb 66 29 9c bc
       -0.0010874729 -0.012380861 -0.0030473876 -0.019062709
000100 3b ce fb b9 35 7f 0a 3c 1b a2 16 3d 36 46 df bc
       -0.00048028104 0.00845318 0.03677569 -0.027255159
000110 7e 56 14 3c ca 59 85 3c 21 ba 3f 3c 01 90 55 3b
       0.0090538245 0.016278166 0.011702091 0.0032587054
000120 20 02 0b 3b d6 66 b3 3c 80 e4 b7 3b c3 6a f6 3a
       0.0021210983 0.021899622 0.005611956 0.0018800128
000130 be d6 00 bc 8d f0 e1 bb 2e 42 99 3c 27 0a a9 3c
       -0.0078636985 -0.006895131 0.018708315 0.020634724
000140 52 fe cb 3b 5c ad d1 bc f6 6b 42 ba b0 71 06 bc
       0.0062253857 -0.02559536 -0.00074166 -0.008205816
000150 5e 9a 82 3c 13 e1 0b bc ca 61 92 3c e6 e1 ff bc
       0.015942749 -0.008537549 0.017868895 -0.031235646
000160 7a 6b ce bc 99 58 15 bb 59 70 96 bc 19 97 fd 3c
       -0.025197733 -0.0022788404 -0.018364118 0.030955838
000170 a9 0d 75 bc 87 2f 4c bc 2f 0a 18 bc a0 33 73 bc
       -0.01495687 -0.012462503 -0.009279772 -0.014843851
000180 ec 83 4c 3d de c1 47 3d c5 46 b1 bc 40 11 7a 3b
       0.049930498 0.04876887 -0.02164019 0.0038157254
000190 59 86 cc 3d f1 73 da 3c 26 57 05 bc 73 c4 d6 3b
       0.09986562 0.026666613 -0.008138454 0.0065541803
0001a0 0b d0 4a 3a 4a 05 49 3b 19 8f cb 3b 1d 50 97 3a
       0.00077366893 0.0030673319 0.006212127 0.0011544261
0001b0 95 83 8c 3d bd 3b fe 3b 70 4a e0 3b 62 18 85 bc
       0.06861035 0.007758586 0.006844811 -0.016246978
0001c0 3b 65 05 3d 38 90 d7 3b d0 91 47 bc df 88 0a bc
       0.032567244 0.0065784715 -0.0121807605 -0.008455484
0001d0 e5 e0 18 3c 25 de ad bb 97 f0 57 bb a5 71 fd 3c
       0.009330963 -0.0053060227 -0.00329498 0.030937979
0001e0 7e f6 c1 bc 00 4f 17 bc 79 e5 46 3c 00 56 d3 3b
       -0.023677107 -0.009235144 0.0121396715 0.006449461
0001f0 26 c1 c2 ba 28 21 e9 3b b4 26 48 bc 96 8e 99 3c
       -0.0014858588 0.0071145482 -0.012216259 0.018744748
