results/BasicXZGridSensor/BasicXZ/BasicXZ-18610.onnx (onnx, 201284 bytes, 12 tensors)

network_body.observation_encoder.processors.0.conv_layers.0.weight f4 [16, 3, 8, 8]
000000 7b 02 b0 3d 41 84 6d 3d c2 f2 c7 3c 4f 19 98 bc
       0.08594223 0.057987455 0.024407748 -0.018566756
000010 58 b9 ea 3c 53 77 c4 bd be a2 0b bd 67 f6 d5 3c
       0.028652832 -0.09593072 -0.03409075 0.02611847
000020 69 a2 35 3d 88 4d 9c 3d 66 35 62 bb 87 68 77 bd
       0.04434434 0.076319754 -0.0034516691 -0.06040242
000030 22 24 be 3b ea 4b 49 bd 1d 40 c6 bd cc 52 39 bd
       0.005802647 -0.049144663 -0.096801974 -0.045244977
000040 cd 9f 96 3c b4 2a 0e bb 21 74 38 3d 46 23 a5 bd
       0.018386746 -0.0021692934 0.045032624 -0.080633685
000050 30 15 ff 3c e0 2f 91 3c 18 01 aa bd fc 9f 32 bd
       0.031138033 0.017723024 -0.0830099 -0.043609604
000060 12 75 c3 3d d6 f4 7f 3d 1a 08 30 bc 67 65 2d bd
       0.09543814 0.062489353 -0.010744119 -0.042333033
000070 83 66 9b 3d 11 1f 2a 3d 90 c0 87 3d 83 e8 a7 bb
       0.07587912 0.041533533 0.06628525 -0.005124153
000080 d6 86 a4 3d 7e a1 88 3d 1d 44 9a bb d9 a6 95 3c
       0.080335304 0.06671427 -0.0047078268 0.018268036
000090 58 da 44 bc be 9f 09 bd e3 37 84 3d af e6 f2 3a
       -0.012014948 -0.033599608 0.06455972 0.0018531884
0000a0 7a 10 f0 3d 8d ed 9a 3d 32 96 cc bc f3 43 3b 3c
       0.11721893 0.075648405 -0.024973962 0.011429775
0000b0 a5 e7 88 bd 5a 51 58 bd 58 1f 9b 3d 08 02 e3 3c
       -0.06684808 -0.052811958 0.07574338 0.02771093
0000c0 e8 95 44 3d e8 4d 67 3c 2d 0f 7c bd e8 aa 85 3d
       0.047994524 0.014117695 -0.06153791 0.065267384
0000d0 1a 54 44 bd ff 06 4e bd 94 53 1d 3d 5c 35 4d 3b
       -0.047931768 -0.05029964 0.038409784 0.0031312322
0000e0 87 2d a3 3d 51 f6 c7 3d 3b 39 49 bd 7e e0 2a 3d
       0.07967668 0.09763778 -0.049126845 0.041718
0000f0 b8 f2 02 3d 34 d7 3a 3d f4 1e 4c bd de 61 22 bd
       0.031969756 0.04561539 -0.049834207 -0.039644115
000100 59 1e 58 bd d5 ff b0 3c 24 dc cc bc 4c c5 57 3d
       -0.052763317 0.021606365 -0.025007315 0.05267839
000110 80 8c 51 bc 34 42 85 3d 0e 26 3a 3d 1e e6 b6 3c
       -0.0127898455 0.06506768 0.045446448 0.022326525
000120 7f 51 c7 3d 2a 27 3d bd d1 7c 99 3d ad 8a c3 3b
       0.09732341 -0.046179928 0.0749451 0.005967459
000130 04 98 3b 3d 6c 18 10 3e 6d 41 02 bc 25 bc 71 bd
       0.04579927 0.14071816 -0.007950169 -0.05901732
000140 63 df 38 3c 1f ad d7 bc 6a 91 89 3d 2d 08 1c bd
       0.011283728 -0.026327668 0.06717189 -0.038093735
000150 bf eb da 3d d3 93 c3 3c 53 00 0d 3d f0 a6 1c bd
       0.10689496 0.023874199 0.034424137 -0.03824514
000160 d3 55 ca bc 9e 95 98 3d f8 9f 02 bd 5d 9f c4 bc
       -0.024699127 0.07450412 -0.03189084 -0.024001772
000170 3f 20 4d 3d a9 6d 3c 3c 16 63 9e bc dc 90 59 bd
       0.05007958 0.011500754 -0.019334357 -0.053116664
000180 f9 95 36 bd 62 56 eb bb fe 0d 18 3d 46 78 68 bd
       -0.04457662 -0.0071819285 0.03712272 -0.056755327
000190 54 55 f5 bc b8 a4 db 3d 10 7e 29 bd c3 12 9b 3d
       -0.029947914 0.10724777 -0.04137999 0.07571938
0001a0 d4 0f 2f 3d c5 05 a2 bd 43 6b 08 3d d8 8e 68 bd
       0.042739704 -0.07911257 0.033305418 -0.05677685
0001b0 5c 70 04 bd 67 4a 9e bc 7a 35 69 bd 3f 97 6d bd
       -0.032333717 -0.019322587 -0.056935765 -0.058005568
0001c0 d2 26 97 bc 12 44 5d bb b0 85 09 3d 8a 2d 5e bd
       -0.018451128 -0.0033762497 0.03357476 -0.05424265
0001d0 18 b5 ad bb c0 66 33 3b 16 fd 00 bc d5 2a 17 bc
       -0.005301129 0.0027374476 -0.00787284 -0.009226521
0001e0 fe bb b7 3d 22 40 87 bd c7 25 ed bd 09 96 0c 3d
       0.089714035 -0.06604029 -0.11579471 0.034322772
0001f0 5c 11 36 bd 63 60 47 3d c4 d0 c0 bb 6c b7 f2 3c
       -0.04445015 0.048675906 -0.005884262 0.029628478
000200 84 4f d5 3c ac f0 ed bc 08 60 88 3d cc e7 3e bc
       0.026038893 -0.029045425 0.066589415 -0.011651944
000210 b8 7d 76 3d 04 47 e6 bc 2c ed 8d bc 24 63 c2 3c
       0.06017849 -0.028110035 -0.017325006 0.023728915
000220 f9 8d 55 bd 01 4e 90 3d 32 8b 6c 3d 9e 79 8d 3d
       -0.05213735 0.07046128 0.057749934 0.06907962
000230 11 60 25 bd 6b a1 3d 3d 5c c6 aa 3d bc 71 fd 3c
       -0.04037482 0.04629652 0.08338615 0.030938022
000240 80 25 a3 ba 8e 9e 85 3d 9b 57 2a bd d4 5d 91 3c
       -0.0012447089 0.065243825 -0.041587453 0.017744936
000250 80 6e 6d 3d 8a 55 27 bc a0 4a db 3c b4 b2 4f 3d
       0.05796671 -0.010213265 0.026768982 0.050707534
000260 b6 26 4c 3d 30 59 18 bc e8 90 1a 3d 14 c4 a1 3c
       0.049841605 -0.009298608 0.03773585 0.019746818
000270 35 3a 5b bd d3 35 8c bd 5c 48 05 3d 9e e2 8d 3d
       -0.053522307 -0.06846204 0.03253971 0.069279894
000280 8a 75 02 bd 18 87 7c 3d 98 8f 08 3c 3c 73 e0 3c
       -0.031850375 0.061652273 0.008335017 0.027398698
000290 95 f3 90 bd b0 7f 85 bb 28 ce 6b bd 00 54 75 3b
       -0.070777096 -0.0040740594 -0.057569653 0.00374341
0002a0 c0 7f ad ba 3e 85 72 3d 4f 6f 64 3c 91 07 22 bd
       -0.0013236925 0.0592091 0.013942554 -0.039557997
0002b0 38 7a 03 3d a6 3a 43 3c b9 3a e5 3c 2a 05 85 bc
       0.03209898 0.011915838 0.027982103 -0.016237814
0002c0 10 be 3a 3d 8a 8c 6c bd 3f bb 23 3c 4a 99 41 bd
       0.045591414 -0.057751216 0.009993373 -0.04726533
0002d0 3a 4a 05 3d 68 4b 4e 3d 27 ef 92 bd 08 95 8d 3d
       0.03254149 0.05036488 -0.07174521 0.06913191
0002e0 40 fb e9 3a 2a c6 8b bc 77 6f 17 bd 12 13 3d bd
       0.0017851368 -0.017062265 -0.036971536 -0.046160765
0002f0 e2 35 58 3d e5 c6 8d bd 84 b0 82 3c 5a e4 3b bd
       0.05278576 -0.06922702 0.01595331 -0.04587207
000300 ce f4 49 bd 94 18 28 3d 5b ca cc bc 6b b8 74 bd
       -0.04930573 0.041039065 -0.024998834 -0.059746187
000310 3f 66 36 bd 13 26 0f 3d be 3e ab 3d 02 6f 6a 3d
       -0.044531103 0.03494842 0.083615765 0.05723477
000320 ae 7d d7 3c 36 bd 18 bc c8 13 b3 bb 6f 5e 17 bd
       0.026305046 -0.009322455 -0.0054650046 -0.036955293
000330 fd b5 a1 3d f7 44 13 bd e1 c7 af bd 56 8d 56 bc
       0.0789604 -0.035954442 -0.08583046 -0.013095221
000340 a9 c6 15 bd 91 bb 94 3c 74 a1 df bb 3d 69 6d bd
       -0.03656641 0.018155845 -0.0068246666 -0.05796169
000350 1a 25 c2 bc a9 19 0d 3c fd 1b 30 3d 07 20 64 3d
       -0.023699332 0.008612075 0.04299544 0.055694606
000360 06 ca e7 bb ff 5d 85 bd 5d 65 87 bd e9 95 98 ba
       -0.0070736436 -0.06512069 -0.066111304 -0.0011641356
000370 c0 e4 1f 3d 8f 98 43 3d e0 46 03 bd a8 f6 98 3d
       0.039036512 0.047752913 -0.032050014 0.07468921
000380 7c 41 6f 3d de 6b 0a 3d c0 f3 4b 3d f4 08 1f 3d
       0.05841206 0.033794276 0.049793005 0.038826898
000390 5b 8d 5f bd dc 4d b6 bd b6 5d 0b bd 39 a7 18 bc
       -0.054578166 -0.08901569 -0.034024917 -0.009317213
0003a0 0d 32 0a 3d b4 c8 0b bd af 39 12 3d 2e 4b 2f bc
       0.03373914 -0.034126952 0.035699543 -0.010699077
0003b0 a6 16 03 bb 57 4c 1f 3d f1 5d a9 bd 8a 61 2b 3c
       -0.0020002513 0.038891163 -0.08269871 0.010460267
0003c0 0d 79 0a 3c 27 00 07 3d 50 9e 69 3d 5a 8d 4c 3d
       0.008451712 0.03295913 0.057035744 0.04993949
0003d0 62 4d 48 3d 0b c9 1c bc cb 70 d8 3c 5d 45 1b bd
       0.048901923 -0.009569417 0.026420971 -0.037907947
0003e0 58 5b 81 bd 3a e5 cb 3d f9 42 6f 3d db fa 16 bd
       -0.063162506 0.09955831 0.05841348 -0.03686033
0003f0 8d ca c2 bc d0 80 28 3d 7d b2 0e 3d fd 79 cf bd
       -0.023778224 0.04113847 0.03483819 -0.10130689

network_body.observation_encoder.processors.0.conv_layers.0.bias f4 [16]
000000 03 88 aa 3d e9 c6 75 bc 37 e3 aa 3d 22 a9 74 bd
       0.083267234 -0.015001037 0.08344119 -0.05973161
000010 d0 09 0a bd 4e 5e a6 bb f5 60 56 3c c1 71 6b 3d
       -0.033700764 -0.00507716 0.01308464 0.05748153
000020 21 e6 fe bc 1f d0 7e 3d ea 20 49 3d 3a ba ef 3c
       -0.031115593 0.0622102 0.049103655 0.029263604
000030 10 81 3d 3d 09 b3 58 3c f3 b0 76 3d 02 c7 08 bc
       0.04626566 0.013226279 0.060227346 -0.008348228

network_body.observation_encoder.processors.0.conv_layers.2.weight f4 [32, 16, 4, 4]
000000 2c ac 33 bd 2d f6 4a bb 10 08 73 3a 9a 9d 58 3a
       -0.043865368 -0.0030969486 0.0009270916 0.00082632306
000010 06 f6 09 3d 04 1e 62 3d d6 b8 3e bd c9 4a 1b 3d
       0.03368189 0.055204406 -0.046562992 0.037913118
000020 ad 42 8f 3d c9 0b 97 3c 34 52 c5 3c 39 3d 5f 3d
       0.06995139 0.018438237 0.024087049 0.054501746
000030 81 cc 03 3a 88 8b a6 bb fa 12 11 3b 0d 1e b0 3c
       0.0005027727 -0.0050825514 0.0022136555 0.021498704
000040 1d e7 98 bc cf f7 a9 bc 89 e5 7b bd ac 55 90 3b
       -0.01866489 -0.020748047 -0.0614982 0.004404744
000050 43 07 16 bd 49 18 fd 3c a2 88 26 3d 05 f0 7f bd
       -0.03662802 0.03089537 0.040657647 -0.06248476
000060 1e e6 2b bd 59 ef d0 bc 50 ac 1a bc 06 16 e5 bc
       -0.041967504 -0.025504755 -0.009440497 -0.027964603
000070 7c e3 1c 3b f5 8e 0f bc 4e ce d5 bc fe a6 a6 3c
       0.0023939302 -0.008762111 -0.02609935 0.0203433
000080 26 a6 4c 3c a7 f1 8f 3d df ef 20 3d 56 5e 04 bd
       0.012490785 0.070285134 0.03929126 -0.03231653
000090 22 a9 f2 3c 81 e2 10 bd ad 6d e1 3c f0 fc 3e bd
       0.029621664 -0.03537226 0.027518118 -0.04662794
0000a0 ce 30 5c 3d dc 76 89 3d 89 4f c2 bc bf dd b9 3b
       0.05375748 0.06712124 -0.023719566 0.005672186
0000b0 be 32 01 3d 30 79 32 3c ad 4e ad bc ac 1e 1c 3c
       0.031542532 0.010893151 -0.02115568 0.009528797
0000c0 90 b6 84 3c 21 e2 03 3d a2 81 4c bd 75 1d f5 bb
       0.016200334 0.032198075 -0.049928315 -0.007480318
0000d0 29 bf a6 bc eb 09 a5 3d a8 c4 a3 3c 72 7b 15 bd
       -0.020354824 0.08058532 0.019991234 -0.03649468
0000e0 d2 fb 1a bd 90 35 5e bc 59 5c 85 bc 50 f9 8f bb
       -0.03783781 -0.013562575 -0.016279386 -0.004393734
0000f0 60 d1 26 bd 08 40 93 bc 36 16 01 3d fd 71 11 bd
       -0.04072702 -0.017974868 0.031515323 -0.0355091
000100 15 d7 71 bd 3b 68 86 3c aa 40 45 3d f5 59 3d bd
       -0.05904301 0.016407123 0.04815737 -0.046228368
000110 aa 04 83 bd 06 43 8d 3b c5 e6 8c 3c 88 cf 70 bc
       -0.06397374 0.0043109683 0.017199883 -0.014697917
000120 3d 9f 3d bd 86 26 86 bc 81 6a 21 3d ba 58 63 3d
       -0.04629444 -0.016375791 0.03940821 0.055504538
000130 ab bc 01 3c 2c 8d 77 bd 3f 1a 11 bc c3 9f 9c bb
       0.007918517 -0.060437366 -0.008856355 -0.0047797873
000140 fe 3b 32 bd ff b2 c1 3b b7 83 32 3d c4 a6 36 bd
       -0.043514244 0.0059112306 0.043582644 -0.044592634
000150 3a bb 8a 3d 86 0c 73 bc 6d e8 61 3d 94 e4 a7 bc
       0.06773992 -0.014834529 0.0551533 -0.020494737
000160 90 76 0b bd e3 d7 4a 3d dc c9 59 bd 29 77 84 bb
       -0.034048617 0.049522292 -0.053171024 -0.0040425253
000170 12 c4 1f bc 63 6d 14 3c d7 48 99 3d a0 6f a3 3d
       -0.009751337 0.009059283 0.07484596 0.07980275
000180 9c 4e 31 bd f6 fd a7 3d c9 7e 66 3d d1 82 c4 bd
       -0.04328786 0.08202736 0.056273255 -0.09595264
000190 af 82 69 bd d8 9e a6 bb 41 66 a7 3d 90 c5 b5 bd
       -0.057009395 -0.0050848536 0.081738 -0.08875573
0001a0 32 18 a5 bc 70 a3 f1 3b e5 44 9a bc 3b a0 29 bd
       -0.020153139 0.0073742196 -0.01883168 -0.041412573
0001b0 6e 08 99 3b 70 a7 27 3d e7 f4 06 bd fc c1 f3 bc
       0.0046701944 0.040931165 -0.0329484 -0.029755585
0001c0 d3 12 3b bd e8 9a 02 bd a9 e6 4a bd 6e 40 9f 3d
       -0.04567225 -0.03188601 -0.04953638 0.07775961
0001d0 68 ee 4e 3d 96 0d 18 bd 3d 7a 12 3d 05 84 f6 3b
       0.05052033 -0.03712233 0.035761107 0.007523062
0001e0 18 67 cf 3b 12 41 8c 3d a6 4a 4f 3b 9d f0 8e 3c
       0.0063294284 0.06848349 0.0031630187 0.017448718
0001f0 90 51 b7 3b b0 bb ec 3a c2 b9 7d 3d f9 cf 08 ba
       0.00559444 0.0018061306 0.06194473 -0.00052189786
000200 ce f6 44 3c b3 86 93 bc 42 93 45 bd bb 78 3d 3d
       0.012021733 -0.018008566 -0.04823614 0.046257716
000210 03 64 ce 3c ed 67 68 3c ac 36 a9 bb 2f c4 10 3d
       0.025194174 0.014184934 -0.005163988 0.035343345
000220 bd 68 69 bd f4 9b be 3b b2 dd bf bd 54 0a 07 bc
       -0.05698465 0.005816931 -0.09368457 -0.0082422085
000230 fd 5e cc 3b cc f7 cd 3c 14 7f 23 bd 04 da 74 3d
       0.0062369094 0.025142573 -0.039916113 0.05977823
000240 2b 3c be bc 6c b0 13 bd e3 fc c6 ba ef f5 7c 3d
       -0.02322205 -0.03605692 -0.0015181567 0.061757978
000250 70 57 6f 3d 94 cb 35 bc 12 48 a7 3d 2c 75 71 3d
       0.058432996 -0.0110959 0.08168043 0.058949634
000260 c2 06 83 3d 08 ed 21 3b 5e 69 9c 3c 87 b5 4c 3d
       0.06397773 0.0024707932 0.019093212 0.049977805
000270 8b 1c af bc a8 38 f6 bc 40 a6 00 3d a3 6a 30 bd
       -0.021375915 -0.030056313 0.03140855 -0.043070447
000280 02 c4 a5 3d 26 e1 73 bb fd 77 2f bd fe 22 27 3c
       0.08094026 -0.0037213056 -0.04283904 0.010201214
000290 b3 18 55 3d a8 20 c6 3d 07 27 29 bd 04 c7 5a 3d
       0.052025508 0.096741974 -0.041296985 0.053412452
0002a0 d5 d0 90 3d 4a ff 50 bd 63 5f cb bc 45 95 5f 3d
       0.070710815 -0.051024713 -0.024825757 0.054585714
0002b0 56 c9 8e bc c2 fd f2 bc c2 a9 85 3d c8 d3 b3 bc
       -0.017429989 -0.029662017 0.06526519 -0.021951571
0002c0 a6 ba a0 bd 86 f2 b5 3c 19 2d 40 3d 8d 0a 26 bd
       -0.078481 0.02221037 0.04691801 -0.040537406
0002d0 10 f5 a8 3d 0b b8 24 3c 34 6f 88 39 fa ff 43 bd
       0.08249867 0.010053645 0.00026022794 -0.04785154
0002e0 d2 00 c9 3c d2 38 6a 3d d0 f9 9d 3d e2 6e 56 bc
       0.024536524 0.057183094 0.077136636 -0.01308796
0002f0 85 e5 51 bc d0 74 48 bd 9e 51 06 3d 32 11 b9 bc
       -0.012811069 -0.048939526 0.03279268 -0.022591207
000300 c4 4e 01 bd 2a 1a 0b 3d 1f ef a3 3c a0 e7 04 3c
       -0.031569257 0.0339605 0.020011483 0.008111864
000310 bf 6c 53 3d 6a be 22 3d 73 9f 15 3d b0 c1 5a bc
       0.05161738 0.039732374 0.036529016 -0.013351843
000320 e7 2e 98 3d f2 59 10 3d 35 d6 1a bd f4 d6 a6 3d
       0.07430821 0.03524203 -0.03780194 0.08146468
000330 d5 df 2b 3a a7 20 e2 3b f2 23 0b bd c0 fb 3f 3d
       0.0006556486 0.006900865 -0.033969827 0.046870947
000340 93 43 84 3d e7 ba ea bc 06 b9 46 bd e6 38 c7 3c
       0.06458201 -0.028653575 -0.048516296 0.024319123
000350 e1 d4 1d bd a7 f4 11 3c d9 24 8d 3d df 1f 5f bd
       -0.038533095 0.008908427 0.06891794 -0.054473754
000360 8e 58 26 bc 1a 3b 1e 3d 7d 89 26 bd f7 ae 99 3c
       -0.010152949 0.038630582 -0.040658463 0.018760188
000370 60 61 3e 3d 70 f7 36 3d 1b 5f c4 bc 2a de 8d 3d
       0.046479583 0.04466957 -0.023971131 0.0692714
000380 8a f1 7b bc e5 51 7a bc 06 6e e7 3c fa eb 32 bb
       -0.015377412 -0.015278314 0.028250705 -0.0027301298
000390 8a d8 f5 3c 3b 9a 38 3d ff 1a 2d 3d 38 52 88 3c
       0.03001048 0.04506896 0.042262074 0.016640767
0003a0 74 8c 6a 3c 43 d3 6c 3d b6 bf 21 3d 21 8e 8e bc
       0.014315713 0.057818662 0.03948947 -0.017401757
0003b0 49 74 65 3d c7 2f 4d 3d 9b f1 0d 3d c9 5e 52 3d
       0.0560191 0.050094392 0.03465424 0.051359925
0003c0 36 f9 b4 3b ce 61 19 3d 56 36 c5 bd 19 7a 0b bd
       0.0055228723 0.03744679 -0.096295044 -0.03405199
0003d0 7d 63 da 3c 88 39 50 bc 01 38 69 3d 18 ac 28 3c
       0.026658768 -0.012709029 0.056938175 0.010294937
0003e0 f2 7a b5 bc 10 3b eb 3d 37 07 16 3d 6d d6 24 3d
       -0.022153351 0.11485875 0.036627974 0.040243555
0003f0 38 45 3e 3c 76 ee 38 bd f3 90 55 bc a3 1c a1 bc
       0.011613183 -0.04514929 -0.013035047 -0.019666975

network_body.observation_encoder.processors.0.conv_layers.2.bias f4 [32]
000000 b9 0d 39 3d 72 aa ac bc 87 ab 64 3c aa 88 96 3d
       0.045179103 -0.021077368 0.013956911 0.07350285
000010 bf f7 53 3d e0 7b e2 3c 25 22 ce 3c 70 b7 19 bc
       0.05174994 0.027646959 0.025162766 -0.009382114
000020 38 c0 ae b8 67 33 1b 3d 73 70 9c bc 34 79 5d 3c
       -8.33277e-05 0.037890818 -0.019096589 0.013517667
000030 b4 c6 90 bd 9e e8 5a 3d f6 d1 7c 3a 26 12 fa 3c
       -0.070691496 0.053444497 0.0009644324 0.030526232
000040 7f 7c 0b bd 8c 4d 9c bd 27 54 9a 3c 43 ae 7c 3d
       -0.034054276 -0.076319784 0.018838955 0.061689626
000050 dc 2c ee 3c 07 2f f9 3c ed e5 00 3d a5 6b 78 bc
       0.029074125 0.030417932 0.031469274 -0.015162383
000060 be 67 ba 3b e5 b8 d9 bc 0d c8 45 3d c7 2f af 3b
       0.0056886366 -0.026577422 0.048286486 0.0053462717
000070 76 69 23 bd ff 29 53 bc 9e 40 aa 3d be 7b 59 3d
       -0.039895497 -0.012888431 0.08313106 0.053096525

network_body.observation_encoder.processors.0.dense.0.weight f4 [128, 32]
000000 39 4a be be f1 48 a3 be c1 68 f3 be 36 de b3 3e
       -0.37166002 -0.31891587 -0.47540858 0.3513047
000010 e2 77 64 3e dd 8b df bc c0 2d 13 bd 51 f7 e7 3c
       0.22311357 -0.027288372 -0.035932302 0.028316172
000020 80 4f 08 bf fa 2d 06 be 6e 0f 51 be 1e d4 67 be
       -0.5324631 -0.13103476 -0.20416042 -0.2263951
000030 2b ba 08 bf d7 29 29 3d 66 39 42 be 52 17 0d 3e
       -0.5340907 0.041299667 -0.18967208 0.13778427
000040 29 9c 3b bd 53 e4 25 be 27 ab fb bc 4f be ad 3c
       -0.045803223 -0.1620038 -0.03072126 0.02120891
000050 b9 54 0a bf 8c 49 09 be 83 7a a1 3c b0 6f e3 bd
       -0.54035527 -0.13406962 0.019711738 -0.11105287
000060 55 18 81 3e 82 3a 9e 3e ad 60 9b 3c 9e 40 c9 be
       0.25213876 0.30904013 0.018966997 -0.39307112
000070 7d b7 9f be f8 be e4 3d 3f f3 8a 3e 91 cb ed bd
       -0.31194678 0.11169237 0.27138707 -0.11611093
000080 08 ec a2 bc ed 53 38 be 49 10 fe 3d 83 db d6 3d
       -0.01988794 -0.18000765 0.1240545 0.10491087
000090 49 d0 03 3f e6 db 19 3e 7f 25 30 3e d7 40 b3 3d
       0.5148969 0.15025291 0.17201804 0.087526016
0000a0 5e 36 d6 3e 25 33 e0 be 05 b7 d0 be 10 79 c2 be
       0.41838354 -0.4378902 -0.40764633 -0.37982988
0000b0 cc 97 22 be 3f bc 71 3d 1c ea df 3e 7a 2d 8d 3e
       -0.15878218 0.059017416 0.437333 0.27573758
0000c0 62 c2 03 3e bc de 2b 3d e8 4e 0f 3d c1 19 74 3d
       0.1286712 0.041960463 0.03498736 0.059594873
0000d0 57 03 9a be 32 7f 46 3d 13 81 33 3d c3 6e 1a 3e
       -0.30080673 0.048461147 0.043824267 0.15081315
0000e0 63 14 4c 3e 67 e4 ca 3e a4 82 90 3e f3 19 0b 3e
       0.19929652 0.39627382 0.2822467 0.13584118
0000f0 eb 20 08 3f 48 1f d2 bd 34 76 48 3c 4d ef 8a be
       0.5317523 -0.10259873 0.012235213 -0.27135697
000100 18 cc 02 bb b2 a7 96 3e e0 69 e0 bd 13 ce 28 3f
       -0.0019958075 0.29424816 -0.10957694 0.65939444
000110 25 b3 83 be 41 9f 48 bd 81 e6 ca be c8 1e 93 bc
       -0.25722614 -0.04898 -0.39628986 -0.017959014
000120 14 ed 57 be c4 90 01 bf 49 b4 ff bd 3d e9 a9 3d
       -0.21086532 -0.5061152 -0.124855585 0.0829644
000130 8a 3f 77 be 61 4b 8f be bb a0 fe bd fd 0d a4 be
       -0.24145332 -0.27987197 -0.12433001 -0.32041922
000140 74 a3 af 3e 05 b0 e2 bd c9 81 c8 3d c9 54 a6 bd
       0.34304392 -0.11068729 0.097903796 -0.0812164
000150 0e 10 e5 3d ef 3e 21 be 06 c1 c5 3e ea 05 96 3d
       0.11184703 -0.15746664 0.38623828 0.07325347
000160 c6 97 3e 3e 4c 33 1c 3e d7 76 6a be 48 85 b4 3d
       0.18612584 0.15253943 -0.22896896 0.08814484
000170 b7 f1 60 bd 08 0f 3f be a5 3d ca 3e 98 67 a6 be
       -0.054918017 -0.18658078 0.39500156 -0.3250091
000180 78 22 30 be f8 bb 20 3f 9d 48 b5 be e2 8c c2 be
       -0.17200649 0.6278682 -0.35406962 -0.3799811
000190 70 98 56 3d f6 07 bb be 84 b6 ab bd c8 a2 74 be
       0.05239147 -0.3652951 -0.083844215 -0.23890221
0001a0 84 a8 0d 3e 99 0f dc 3e 2e 54 ca bc 55 57 36 bf
       0.13833815 0.4298065 -0.024698343 -0.7122701
0001b0 89 06 08 3d 7f bd 40 be d7 95 04 be 52 9d 0f 3e
       0.033209357 -0.18822287 -0.12947784 0.14024857
0001c0 f7 de 91 3d 4f 2c 05 be 88 3c da bd 82 aa e9 be
       0.07122605 -0.13005184 -0.10656077 -0.456379
0001d0 2b 72 03 3e 8a 16 c1 bd f6 de a0 3e 2d 8d 71 bc
       0.1283652 -0.09428127 0.31420106 -0.014743132
0001e0 25 88 04 be a2 dc 9e be 44 1d 53 3e b5 fd ae 3e
       -0.1294256 -0.31027704 0.20616633 0.34177938
0001f0 98 0e 46 be e4 b0 84 3e d2 ff 5d 3e 36 40 1d bd
       -0.19341505 0.25916207 0.21679619 -0.038391314
000200 42 58 54 bd 8c 7e 56 3d ab 85 a7 be 49 b0 65 3e
       -0.05184198 0.05236678 -0.32719168 0.22430529
000210 91 1a 53 3e 51 36 94 be ff d2 e9 bd 2c f1 3f be
       0.20615603 -0.2894769 -0.114171974 -0.18744344
000220 25 53 9d 3e f2 ab 8a be 5b 30 88 3e 2a 7a a4 3e
       0.30727497 -0.2708431 0.26599392 0.32124454
000230 42 bc 0e be d9 62 fe be 65 e3 5c 3e 29 3c 98 bd
       -0.13939002 -0.4968479 0.21571119 -0.0743335
000240 e8 a9 8e 3e 72 b3 35 be 94 bb d5 3b 9e ee 48 3e
       0.27864003 -0.17744234 0.006522605 0.19622275
000250 b4 a9 19 3e 55 2a 57 bc cc 12 8f bd 50 d3 8c be
       0.15006143 -0.013132651 -0.06986007 -0.2750497
000260 2a b1 10 be 65 c3 15 3d 47 d1 24 be b0 5f 65 3e
       -0.14130083 0.036563296 -0.16095458 0.22399783
000270 f5 9a 88 be 06 77 2c be 81 1e 0e 3f 50 5b 84 3e
       -0.26680723 -0.16842279 0.55515295 0.25850916
000280 de 43 cf 3e af eb 56 be c6 94 87 3e 7c c6 ae 3e
       0.40481466 -0.20988344 0.26480693 0.34135807
000290 2a 71 06 3f 82 0b cd be 05 74 59 3d de ee 82 3d
       0.52516425 -0.40047842 0.05308916 0.063932166
0002a0 22 bb 24 3e 83 ec f0 3b de cf 84 be 1a 86 10 3e
       0.1608701 0.007352413 -0.2593984 0.14113656
0002b0 3a ed 36 bd 5f 85 9c 3e f6 9f 4a be ba 5d 27 be
       -0.04465983 0.30570504 -0.19787583 -0.16344348
0002c0 7c 7b 66 be f3 e2 4c bf 8e a5 e3 bd 06 4e 4f be
       -0.22508043 -0.800338 -0.111155614 -0.20244607
0002d0 40 1d 73 3e 81 9d d3 3d 08 bb a3 bc cd e0 21 3e
       0.23741627 0.10332776 -0.019986644 0.15808411
0002e0 fe 3c 54 be e9 98 33 bd c6 61 9d 3e 99 31 15 bd
       -0.20726392 -0.043847 0.30738658 -0.036424253
0002f0 5f 6a 90 3d b8 38 67 bc 6a 1a a3 3e 0b 28 1e be
       0.07051539 -0.014112644 0.3185609 -0.15444963
000300 35 05 86 3e 29 7a 99 be e8 24 56 3e be 2c a0 3d
       0.26175848 -0.29976013 0.20912516 0.07821034
000310 18 3e 55 3e f9 1c bd bd 9b a3 08 3d 60 61 07 bf
       0.20824468 -0.09234042 0.03335915 -0.5288296
000320 91 a2 bd bc 0c bb 52 3e bf 22 1e be 39 97 21 3e
       -0.023148807 0.20579165 -0.15442942 0.15780343
000330 62 6a 43 be 31 76 6e be c0 5d 11 3e 62 40 ef 3d
       -0.1908355 -0.23287274 0.14195919 0.11682202
000340 3e 18 73 3d 99 ad 42 be ba 7b 1b be 6e a9 36 3e
       0.05934929 -0.19011535 -0.15183917 0.1783807
000350 b3 5a 00 3f f1 5a a8 3e 62 b0 40 be 68 96 08 3d
       0.50138396 0.32881883 -0.18817285 0.033346564
000360 ff ec 39 be ba 44 4a 3d 98 58 bc 3e 5e be 08 bf
       -0.18156813 0.04938195 0.36786342 -0.5341548
000370 b0 df 1c bd 45 b8 a6 3e e4 87 d2 3d b5 d7 6b 3e
       -0.038299263 0.32562461 0.10279825 0.23031504
000380 d6 f3 89 bd 10 50 1c 3e 04 81 b6 3e 20 e7 2f 3e
       -0.06735961 0.15264916 0.35645306 0.17178011
000390 01 50 69 3d 81 b2 1d 3e f4 02 b6 3d d5 87 af be
       0.056961063 0.15400125 0.08887282 -0.3428332
0003a0 02 40 65 be 77 15 8e 3e c4 33 c8 bc b2 42 5e be
       -0.22387698 0.2775075 -0.024438746 -0.2170513
0003b0 0e 1b bf 3e 59 0f ed bd 0b 99 7f 3e a3 ec 07 bd
       0.3732533 -0.11575193 0.24960725 -0.03318466
0003c0 ca 8a 17 3e b0 d7 1a 3e c1 f9 da bd 7c a0 84 bd
       0.14799038 0.15121341 -0.10692168 -0.064759225
0003d0 ac 70 3b be 8b 36 03 3e 4f ed b1 be ff 9c ec 3d
       -0.183047 0.12813775 -0.34751365 0.11553382
0003e0 1d a2 e8 3e 71 10 04 be 62 65 24 be 19 ee dc be
       0.45436183 -0.12896897 -0.160543 -0.43150404
0003f0 1a 35 17 bd 88 3a 84 be 2e d4 c8 be 3f a6 c7 be
       -0.036915876 -0.25825906 -0.3922438 -0.38994023

network_body.observation_encoder.processors.0.dense.0.bias f4 [128]
000000 c1 ce a6 3a 6f a2 bb 3b 67 f4 ea 3c 07 67 10 3c
       0.0012726412 0.0057261507 0.028680993 0.008813626
000010 1a 97 9c 3c 8b 56 b6 3c fd d6 22 3c 28 cb a0 bb
       0.01911502 0.022258064 0.0099389525 -0.0049070306
000020 35 7f 75 3c d5 97 3f bc ac 3d 94 3c 8f fc d2 3c
       0.014983942 -0.011693914 0.018095814 0.025755195
000030 b5 b9 b1 3c 5f 2e ad bb c1 cf 58 3c ea de 80 3c
       0.021694997 -0.005285069 0.013233126 0.015731294
000040 64 03 be 3c 41 3d 03 3d 8a 29 d6 bc 89 87 ef 3b
       0.023194976 0.03204084 -0.026142854 0.007309858
000050 44 71 d9 3c 06 4b b0 3c fc f6 80 3c 79 ef 90 3c
       0.026543267 0.021520149 0.015742771 0.017692314
000060 82 2c 8e bb 2e f0 bd 3c bc 6e 8b 3c f0 80 b6 3c
       -0.004338802 0.023185816 0.017020576 0.022278279
000070 02 d7 c5 3c 47 61 40 3b f7 1b 91 3c ed c5 15 bb
       0.024150375 0.0029354857 0.01771353 -0.0022853569
000080 c5 e2 ab 3c f2 30 27 3c e6 b7 31 3c f2 a2 5d 3c
       0.020982156 0.010204541 0.010847067 0.013527619
000090 69 0d 93 3c 14 18 c0 3c 66 18 f6 3c 1e 44 b6 3c
       0.01795073 0.023448981 0.030040931 0.022249278
0000a0 96 9f da 38 8a 12 d4 3c 01 cb ac 3c 16 30 ad 3c
       0.00010424775 0.025887746 0.021092894 0.021141093
0000b0 83 c0 9e 3c 3d aa 05 bc f7 d5 cd 39 51 7f 90 3c
       0.019378906 -0.008158264 0.00039260063 0.017638834
0000c0 3f c8 ea 3b 27 73 9d 3c ab b9 6d bc e3 8a 79 bb
       0.0071649845 0.019219948 -0.014509599 -0.0038077168
0000d0 87 d3 bc 3c e6 50 9e 3c 37 95 c0 bb 07 20 47 3c
       0.023050083 0.019325685 -0.005877163 0.012153632
0000e0 09 07 3c 3c 11 a0 f2 3c 2b cd 00 3b 59 a2 84 3c
       0.011476287 0.029617341 0.001965354 0.016190695
0000f0 1f 37 0c 3d ff cb dd bb 4a 7a 28 3c db c5 76 bc
       0.034232255 -0.006768703 0.010283062 -0.015061821
000100 f8 67 cf 3c 39 c1 5c bc 6a eb 18 3c 1b 47 7b 3c
       0.02531813 -0.013473802 0.009333471 0.015336777
000110 c8 7d a6 3c f5 23 d4 3c 4f db f2 3c 30 21 90 3b
       0.020323649 0.025896052 0.02964559 0.0043984875
000120 aa 23 25 3c e5 1c 92 3c 16 f9 86 bc d5 93 a8 3c
       0.010079304 0.017836044 -0.016476195 0.020578304
000130 13 38 ec 3b 61 ba 5a 3c 64 4e 87 bc 91 00 30 3c
       0.007208833 0.0133501 -0.016516872 0.010742323
000140 e3 93 60 3b d8 46 c5 3c 46 ad f6 b8 92 ac 92 3c
       0.0034267835 0.024081632 -0.00011762469 0.017904554
000150 c9 18 24 3c 0f 35 09 3b 76 f7 fb bb 9f 26 80 3a
       0.010015675 0.0020936166 -0.0076894118 0.0009777135
000160 77 8c 94 3c e6 9d 09 bc 6f 82 85 3b d7 2b 32 bc
       0.018133385 -0.008399462 0.004074387 -0.01087471
000170 a2 18 2d 3d c8 5b 84 bb 99 31 cb ba 42 cf 00 bc
       0.04225982 -0.0040392615 -0.0015502452 -0.007861914
000180 70 28 63 3c 85 f0 18 bc 0a 36 bb 3c 48 0c 32 bc
       0.0138646215 -0.009334688 0.022852916 -0.010867186
000190 52 f1 d8 3c a5 b2 5a 3c 6a 1c bc 3c 89 55 d5 3c
       0.026482258 0.013348256 0.022962768 0.026041763
0001a0 15 3d d2 3c 56 89 e3 3c e4 4e bf 3c 53 9c 3e bb
       0.025663892 0.027775448 0.023353048 -0.0029084876
0001b0 b9 83 56 bb 1f bc 26 3c 0e ea 8f 3c cd 4f 83 3c
       -0.0032732321 0.0101766875 0.01756766 0.016029263
0001c0 33 7f 98 3c 24 50 24 bc 7e 34 82 3c 06 18 18 3c
       0.01861534 -0.010028873 0.01589417 0.009283071
0001d0 8e 81 a8 3c 59 cd 56 3c 87 99 88 3c 84 76 a5 3c
       0.020569589 0.013110482 0.01667477 0.020198114
0001e0 44 77 0a 3d f5 1c bc 3c 04 48 8a bb 87 a7 13 bc
       0.033805147 0.022963027 -0.0042200107 -0.00901211
0001f0 8c cd fe bb 65 73 b2 3c c2 ab f4 3c 16 f5 a7 3c
       -0.007775968 0.02178354 0.029867057 0.020502608

network_body._body_endoder.seq_layers.0.weight f4 [128, 128]
000000 e4 bf 86 3d d6 46 c6 bc 70 52 93 bd 45 92 44 3e
       0.06579569 -0.0242037 -0.07193458 0.19196422
000010 30 bf ae 3d 43 1b dd 3d a0 62 cc 3d ef f6 94 3b
       0.0853256 0.107962154 0.09979749 0.0045460383
000020 38 78 02 3e 4d cb 21 3e 83 78 c1 bd a8 14 ef bd
       0.12741172 0.1580021 -0.09446814 -0.11673862
000030 e3 dd ad 3d 5e 86 17 3d 65 dc 18 3d fb 4b bd 3d
       0.08489587 0.036993377 0.03731956 0.09243008
000040 87 09 29 3d 94 78 1d bc b9 3d cd 3d ea b6 d6 3d
       0.04126885 -0.009611268 0.10021538 0.10484107
000050 f8 40 54 be 2a c7 e0 bd 84 83 99 bc 70 cc a9 bc
       -0.20727909 -0.109754875 -0.01873947 -0.020727366
000060 aa 6c 7e 3d 1e a4 f5 3d ec 8e 90 3d 76 b4 d2 bc
       0.06211535 0.119941935 0.0705851 -0.025720816
000070 f0 6f 80 be 3e 2c b6 3d a2 c7 c0 bc 63 23 54 3d
       -0.25085402 0.08895157 -0.023532692 0.05179156
000080 58 42 0e be ee 94 04 3d cb 1b f7 3d a8 35 bf 3d
       -0.13892496 0.032368593 0.12065848 0.09336406
000090 59 03 ab bd ef 30 a0 bd 99 f9 91 3c 30 ed a6 bd
       -0.08350248 -0.07821833 0.017819213 -0.08150709
0000a0 fe 9e 2d bd a1 cf 71 bb 91 da e3 3b a1 f5 3e bd
       -0.042387955 -0.0036897438 0.0069535454 -0.04662097
0000b0 cf 0e bb 3d 66 89 cc 3c 28 4e 13 be f3 7a 81 3c
       0.09133684 0.02496786 -0.14385283 0.015805697
0000c0 46 0b cb 3d bf 8f 22 bc 17 f7 6d 3d 1b 71 28 be
       0.099142596 -0.009921967 0.05809697 -0.16449396
0000d0 b5 03 77 bd 16 3f a3 bc 48 19 8c bd f7 0c c0 bc
       -0.06030627 -0.019927543 -0.068407595 -0.023443682
0000e0 b2 71 8c bd f3 7e 42 bc ef 98 cc 3d 54 da 86 3b
       -0.06857623 -0.011871087 0.09990107 0.004115382
0000f0 2e 4b cd 3d 7b a9 33 bd a0 ed 90 3c cc cc bd bd
       0.10024105 -0.0438628 0.017691433 -0.092675775
000100 32 9d ac 3d e3 08 cd 3c bf 1e 82 bd a7 f3 83 3e
       0.0842842 0.025028652 -0.063535206 0.2577183
000110 31 7b 7a 3b e8 4e 66 be 60 f8 eb 3d 60 b6 2d 3d
       0.00382204 -0.22491038 0.11521983 0.042410254
000120 6f 91 2a 3d fe c6 10 3e 1b 77 d0 3d f1 6e 1f 3e
       0.041642603 0.1413841 0.101789676 0.15569665
000130 fc 11 ac bd 27 87 a5 bd 31 73 07 3d 64 81 03 3e
       -0.08401868 -0.08082419 0.03306884 0.12842327
000140 8c fa 5c bd 9a fb 22 3c 86 e3 00 3d cd 0f 82 3d
       -0.053949878 0.009947682 0.031466983 0.0635067
000150 f3 cf 32 3e 95 4f 04 be 22 6d ea bc 24 77 5c bb
       0.17462139 -0.12920983 -0.028616492 -0.003364035
000160 00 45 c0 bd 21 55 52 3e 33 2f 41 3d 04 70 89 bd
       -0.09388161 0.20540287 0.047164153 -0.067108184
000170 16 19 09 3e 6a c2 23 ba 29 45 a8 bc c3 7d d8 bb
       0.13388476 -0.00062469265 -0.02054079 -0.006606789
000180 2e e9 ff 3c b3 14 19 bd 17 fe a5 bd cb e0 b2 3d
       0.031239118 -0.037373256 -0.081051044 0.08734282
000190 0e cf 09 3d c9 c0 3b 3e 87 19 12 be ab 69 1a 3d
       0.03364473 0.1833526 -0.1426755 0.03769843
0001a0 19 3e ad bc 5d f2 9f 3c e5 07 0a be 76 ac 39 bc
       -0.021147775 0.019524748 -0.13479574 -0.011332622
0001b0 a3 de b0 3c ac 19 df 3d ce 9f 0a 3e 5f dd 3d 3d
       0.021590536 0.108935684 0.13537523 0.046353694
0001c0 e8 c9 d5 3b 43 87 1a 3d c2 27 8d bd b8 2c 1b be
       0.0065243132 0.037726652 -0.06892349 -0.15153778
0001d0 2e d5 95 3c ed 42 41 be b6 f0 d2 3d a0 f2 bf bc
       0.018290129 -0.18873186 0.10299818 -0.023431122
0001e0 de ab 08 3d 27 92 2a 3c c4 59 28 be 3f ca 90 bd
       0.03336703 0.010410822 -0.16440493 -0.070698254
0001f0 c3 7e b6 bd 9c d9 46 bd 3c d3 cf bd 2f 85 77 3d
       -0.08910897 -0.048547372 -0.10147712 0.06042975
000200 b4 a6 af bd c8 c3 28 bd a9 d1 b6 3d 9b 4c ad bd
       -0.08576718 -0.041202337 0.08926708 -0.08461877
000210 c0 82 aa 3d 3a 58 9d bd 19 c8 01 bb 88 10 22 3c
       0.0832572 -0.076828435 -0.0019803105 0.009891637
000220 d4 7c 51 3d 1a de 64 bd ef d6 a9 bd 46 25 f9 bc
       0.051144436 -0.055875875 -0.082929485 -0.030413281
000230 f9 b7 85 bd 16 8b f9 bd be c2 f6 3d aa 24 2d 3e
       -0.065292306 -0.12184732 0.12048863 0.16908517
000240 73 a4 3a 3d dd b8 8f 3d 13 03 75 bd ae a1 a1 3d
       0.045566987 0.07017682 -0.059817385 0.07892166
000250 c7 dc 47 bd b9 b6 08 3e 4a 78 29 3c e1 5a d6 3d
       -0.048794534 0.13350953 0.010343621 0.104665525
000260 99 be c0 bd 89 aa 93 bd ae be 13 3e f6 e3 5b 3d
       -0.094113536 -0.072102614 0.14428207 0.053684197
000270 88 36 96 bc aa 59 86 3c c9 07 95 3d 1a 39 ce bd
       -0.01833655 0.016400177 0.072768755 -0.10069485
000280 3e ee 56 3e a2 c8 f8 3c 87 ff df 3d 49 94 00 3e
       0.2098932 0.030369107 0.1093741 0.12556566
000290 ed 87 55 bb 40 c9 43 3e 0d d1 75 bd 40 60 03 be
       -0.0032582239 0.1911974 -0.06001382 -0.12829685
0002a0 bc b3 4f 3d bd ad 20 be e0 b7 97 bd 91 06 ec bd
       0.050708517 -0.15691276 -0.07408118 -0.1152469
0002b0 69 4a ad 3d 2c 32 8f bd f6 cd 0b be bf cc 0b be
       0.08461458 -0.069919914 -0.13652787 -0.13652323
0002c0 14 98 0b bd 20 b5 10 bc a5 41 22 3d 0d f8 c0 bc
       -0.03408058 -0.008832246 0.039613385 -0.02355578
0002d0 fd 7b 03 be 03 5b fb bc 54 80 80 bd 97 71 d2 3a
       -0.12840267 -0.030683046 -0.06274477 0.0016055581
0002e0 e3 e9 21 3d 10 60 48 3e 12 68 23 3e 32 3d 46 3d
       0.039529692 0.19567895 0.15957668 0.048398204
0002f0 7e 12 3e bb 63 80 9e bd c8 a2 3d 3e c5 cc 02 3b
       -0.0029002721 -0.077393316 0.18519127 0.0019958478
000300 f7 c3 88 3d 9e a1 20 be 91 c1 bc b9 14 cd 8a bd
       0.06678002 -0.15686652 -0.00036002373 -0.06777397
000310 7b 7a 4e 3e 09 6b 2c 3e 13 11 55 3d bf 75 83 3d
       0.2016391 0.16837706 0.052018236 0.06418943
000320 37 a5 85 3d 10 8c 19 3d 82 28 34 bd 1f a9 cf 3d
       0.06525653 0.03748709 -0.043983944 0.10139679
000330 44 06 0b 3e 57 45 19 bc 31 73 d1 ba 31 ca b5 bc
       0.13576609 -0.009354911 -0.0015979764 -0.022191139
000340 a7 fa 01 3d 29 f4 0d 3c 81 90 53 be 02 a4 b4 3b
       0.03173318 0.008664169 -0.20660593 0.0055127153
000350 d8 e1 80 bd 26 8c 2e 3e 90 f1 df 3c 2e 80 08 bc
       -0.06293076 0.1704565 0.027336866 -0.008331342
000360 43 e4 7a 3d 7f 41 00 3d 00 b5 45 bd 81 53 4a 3e
       0.061252844 0.031312462 -0.04826832 0.19758417
000370 cf b6 93 bc a2 71 09 bd c3 e8 2a 3d 21 1c 16 3c
       -0.018031506 -0.033555634 0.041725885 0.00916198
000380 9a 04 21 3e 3d 87 8d 3d d6 79 82 be eb 1b a4 3d
       0.15724412 0.0691056 -0.25483578 0.080131374
000390 04 8b 99 bc 72 07 ba 3d e9 01 e4 3d 45 1c 99 bd
       -0.018743046 0.09083451 0.11133177 -0.07476095
0003a0 b8 f8 4f be 1a 2e c4 3d 1f b5 68 bc 26 0a c9 bd
       -0.20309722 0.09579106 -0.014203339 -0.09816389
0003b0 1a 13 49 bd fa 9e 13 3c e9 e4 01 3e 07 b8 be 3c
       -0.049090482 0.009010071 0.12684979 0.02328111
0003c0 ea ce 16 3e f3 96 06 3d d8 9b 95 3e f2 9a e9 3d
       0.14727369 0.0328588 0.29220462 0.114065066
0003d0 16 5e a3 bc ae 5a 30 3d 39 3e 30 bd 61 f2 93 3d
       -0.019942325 0.04305523 -0.04302809 0.072239645
0003e0 30 60 0f 3e cb 7e 00 3e 0e d8 99 3d 0d 5a 5f bd
       0.14001536 0.12548368 0.07511912 -0.05452924
0003f0 0b 94 68 be a2 ae 80 bd 99 3e a4 3d 70 a3 73 bd
       -0.22712724 -0.062833086 0.08019752 -0.059482038

network_body._body_endoder.seq_layers.0.bias f4 [128]
000000 f2 ff 93 3a 39 7d a2 3c b6 b3 94 3c d1 69 fd 3b
       0.0011291488 0.019835101 0.0181521 0.0077335616
000010 6e 4d 0b 3c e7 f4 5d bc 2b 59 b3 3c d0 f5 79 3c
       0.008502347 -0.013547159 0.021893105 0.01525636
000020 1b f5 19 bc 6e 01 83 3c 02 27 9b 3c ae 65 3a bc
       -0.009396817 0.015991893 0.018939499 -0.011376781
000030 35 89 08 bc a8 2c d6 bb a7 68 95 bc 4c b6 d1 3c
       -0.008333494 -0.006536085 -0.018238379 0.025599621
000040 09 d2 33 bc 63 28 5c 3c 1c 04 a0 3c a5 09 94 3c
       -0.010975369 0.013437363 0.01953321 0.018071005
000050 87 04 25 bb a4 4f fc 3b 42 a1 bb 3c bf be 37 bc
       -0.00251797 0.0076999236 0.022904042 -0.011214911
000060 7b 9a d3 3c f1 d7 6e 3b 85 a2 62 3c 2a 96 69 3c
       0.025830498 0.003644463 0.013832693 0.014256993
000070 46 eb 06 3c 99 3f b8 3b e0 73 04 3d 93 0b 96 3c
       0.0082348045 0.005622816 0.03233707 0.018316066
000080 b5 eb bc 3c e7 5d 41 3c 46 9b c4 3b e2 d4 8c 3c
       0.023061613 0.011802173 0.0059999553 0.017191354
000090 e0 c5 72 bc 5a d4 7e 3c 82 f5 91 3c e1 51 43 bc
       -0.014817685 0.015553558 0.017817263 -0.011921377
0000a0 18 8b 91 bc 5b c2 d5 3c 4d 2b a2 3c dc 90 73 bc
       -0.01776652 0.026093652 0.019796038 -0.01486608
0000b0 b0 1f 35 bc 70 63 83 3c 82 40 f6 bb 1f 38 31 bc
       -0.011054918 0.016038626 -0.007515014 -0.010816603
0000c0 15 fa 06 3d 9e 32 c2 3c 3a 09 55 3c 17 6e 83 3c
       0.03295334 0.023705777 0.013002688 0.016043706
0000d0 69 41 5b 3c cb b9 88 3c ba 1b 9d 3c 06 18 a6 3c
       0.013382294 0.016690155 0.01917826 0.020275127
0000e0 ce 72 55 bb 29 93 8c 3c e6 6b df 3b 0b dd 86 bc
       -0.003256965 0.017160015 0.0068182824 -0.016462823
0000f0 40 a7 1d bc aa 62 73 3c a6 78 a6 3c 18 49 bc 3c
       -0.009622395 0.014855066 0.020321202 0.022984073
000100 5b 4e 9d 3c f7 04 68 3c 5c 65 06 3c ee 32 b0 3c
       0.019202402 0.01416134 0.008202877 0.02150866
000110 66 03 8f bc 39 bc cd 3c 55 04 3f bc eb 49 b3 3c
       -0.017457675 0.025114166 -0.011658748 0.021885833
000120 6a 97 9a bb 01 43 6c 3c 13 ff d8 3c a5 b6 84 3c
       -0.004717757 0.014420272 0.026488816 0.016200373
000130 39 b6 91 3c b0 e9 10 bc a3 57 40 bc 81 b2 15 3c
       0.017787086 -0.008844778 -0.011739644 0.009136797
000140 d9 7e 81 bc 7a b9 a8 bb a2 8f 76 3c cf f6 0f 3c
       -0.015807556 -0.0051490637 0.015048893 0.008786871
000150 ac 17 99 3c 0e e8 cc 3c 0a aa 34 3d b1 58 a7 3c
       0.018688045 0.025012996 0.044107474 0.020428034
000160 00 48 21 3c ad 21 94 3c af 5a b7 3c e7 6c 69 3c
       0.009843826 0.018082464 0.022382108 0.014247156
000170 ef a1 3f bc 95 1d f3 3a 27 cd 02 bc 6a 03 8c 3b
       -0.011696323 0.0018548245 -0.007983482 0.004272868
000180 9f c1 8e bb 1f 8a 14 3c 0b 3d b4 3b b9 e9 63 3b
       -0.0043565775 0.009066134 0.005500441 0.003477676
000190 00 da 44 37 2e 2e 6e 3c 0b 40 e9 bb 01 01 aa 3c
       1.17332675e-05 0.014537377 -0.00711823 0.020752432
0001a0 c7 2e f2 3c 45 42 bf bb 74 13 e6 3c c7 25 d4 ba
       0.02956332 -0.0058367574 0.028085448 -0.0016185575
0001b0 15 a7 d0 bb df 68 2b bc 1c 85 a7 bb 6e 56 bb 3a
       -0.006367574 -0.010462015 -0.0051123034 0.0014292726
0001c0 db f5 1f bc bf da aa 3c cf 68 91 3c 9f c8 7b bc
       -0.009763206 0.02085626 0.017750172 -0.015367656
0001d0 07 93 71 bc d9 fb 23 bc e9 c5 2d 3c b2 c6 7f 3c
       -0.014744527 -0.010008776 0.0106062675 0.0156113375
0001e0 d7 2d 93 3c c8 9a 9e 3c 55 3c a1 bc cc 11 4a bc
       0.017966194 0.019360915 -0.019682089 -0.012333345
0001f0 41 8a 96 3b e4 81 8b 3c b4 dc 95 3c 9d f6 9e 3b
       0.004594118 0.01702971 0.018293716 0.004851176

network_body._body_endoder.seq_layers.2.weight f4 [128, 128]
000000 be 69 06 bd 77 bd b4 3d 7b 50 72 bd da 82 fd 3d
       -0.032815687 0.088252 -0.059158783 0.123784736
000010 8f 4c 50 3d 5a 10 a5 3d e8 eb 07 3d ea 05 11 be
       0.050854262 0.080597594 0.033183962 -0.14162412
000020 f0 43 c1 bd af 1e 92 bd 58 67 e3 3d c0 48 a7 3c
       -0.09436786 -0.07134759 0.11103696 0.020420432
000030 24 05 94 bd e0 f9 05 bd 0f b0 66 3c 18 2d 5d 3e
       -0.07227543 -0.032709002 0.014080062 0.21599233
000040 49 88 2b be b8 d7 1d be f9 b5 4f bd 0c 7e 0d bd
       -0.16751207 -0.15414321 -0.050710652 -0.034544036
000050 5c 49 c6 bd 0e de 07 3c 1c df fc bd 61 d8 4b 3d
       -0.09681961 0.008292688 -0.12347242 0.049766902
000060 1b f3 4e 3d 66 95 a4 bd e1 b4 2f be c7 bd 93 3d
       0.050524812 -0.08036308 -0.17158844 0.072139315
000070 6b be 58 3c 2a 2d 27 bb c5 e6 8c 3d f9 a7 46 bd
       0.013228993 -0.0025509098 0.06879953 -0.048500035
000080 7d c0 a3 bd 80 74 85 3b b5 3a 0e be 5a 41 0c 3d
       -0.079956986 0.004072726 -0.13889582 0.03424201
000090 c3 2b e1 3c d6 bf 1e 3e 8c 98 02 bd 06 71 f3 3d
       0.027486688 0.15502867 -0.03188376 0.11886792
0000a0 e0 47 03 3d 5e f5 11 bd f0 12 6f 3d 80 63 fc bc
       0.032050967 -0.03563439 0.05836767 -0.030809164
0000b0 3c 09 84 3d be 5b 11 bd 87 bd b4 ba 67 38 4f 3c
       0.06447074 -0.035487883 -0.0013789394 0.012647725
0000c0 3a 9e 20 bc 1c 13 36 3c 4a cd 24 3e ee 33 c3 bc
       -0.009803349 0.0111129545 0.16093937 -0.023828473
0000d0 52 1d 0e 3d ce 46 ce 3d f8 90 05 be 3f 00 02 be
       0.03469593 0.10072099 -0.13043582 -0.12695406
0000e0 cf b5 c7 bc 17 b3 30 3c db 7f 00 3e 1d 28 2e 3e
       -0.024378685 0.010784886 0.12548773 0.1700749
0000f0 05 3f dd 3d 80 2b 80 bd 70 9f 2e bd 33 58 98 3c
       0.10803036 -0.06258297 -0.04263252 0.018596744
000100 8d 04 2f bc 0d 0a 06 bd 56 b5 1a 3e 3a a2 35 bd
       -0.010682237 -0.03272443 0.15108237 -0.044344164
000110 d7 67 73 bd e7 67 e1 3d aa cb ea 3b a8 56 3c 3d
       -0.0594252 0.11006146 0.007165392 0.04598108
000120 21 c3 88 3d 73 70 8d bd 98 84 fe bd 22 f7 51 3e
       0.06677843 -0.069062136 -0.12427634 0.2050443
000130 b5 9f 89 3b 7a 1b be 3c 6c bf b2 3d c5 15 22 3e
       0.0041999468 0.023206461 0.08727917 0.15828617
000140 97 e3 13 3d ef 30 81 3d 2a 48 3f 3d 19 23 37 3d
       0.03610572 0.063081615 0.04669968 0.044711206
000150 4f 14 ad 3d f1 e7 33 bd 24 4a c2 bd f5 5c 33 be
       0.08451139 -0.04392237 -0.094867975 -0.17515929
000160 5b 9d a1 3c fd 94 0d bd 0d 68 84 bd f4 50 8b 3d
       0.019728353 -0.034565914 -0.064651586 0.0680255
000170 eb a8 d3 3c 79 fb be 3c 6b e8 56 be 6c 5b 7a bd
       0.025837382 0.02331327 -0.20987098 -0.061122343
000180 53 37 7c 3b 28 51 68 be 14 f5 ff b9 60 e7 c4 bd
       0.0038485124 -0.22687209 -0.00048819988 -0.09614444
000190 4e b2 97 3b eb cf 57 3d 80 ee dd bc 78 40 4e be
       0.00462941 0.05268852 -0.027091265 -0.2014178
0001a0 48 5e 54 bc f0 83 1f be 00 15 8e bd 73 08 27 3d
       -0.0129619315 -0.15577674 -0.06937599 0.040779542
0001b0 04 33 64 3d 0e 34 de 3d 5a 8a 12 bd aa 10 ce bd
       0.055712715 0.108497724 -0.035776474 -0.10061772
0001c0 01 8d 26 3d 76 dc a3 bb d4 05 5e bd d6 83 c0 3d
       0.040661816 -0.005000646 -0.054204777 0.09400146
0001d0 db d3 3e 3d 01 5a 5a bd 23 44 d2 bb 40 00 81 bd
       0.04658876 -0.05330849 -0.006416814 -0.06298876
0001e0 49 d9 df bc 52 3c 22 ba 9c c3 ee 3d 95 53 38 be
       -0.02732529 -0.0006188798 0.11658403 -0.18000634
0001f0 3d 33 9f bd e4 ab 92 3d 02 4a 4f bd 84 ee 20 bc
       -0.07773445 0.07161692 -0.05060769 -0.009822492
000200 56 f2 13 3e 18 3a 0a 3e 49 81 ea bb 0e 63 4a bd
       0.14447913 0.13498724 -0.0071565253 -0.049410872
000210 6e 2e 97 3d 84 36 4c 3d ae ad 3b 3e c5 6a 34 be
       0.07381903 0.049856678 0.18327972 -0.17618854
000220 6b 98 bc bc 59 dd 28 3d 22 fd 19 3e 30 67 28 be
       -0.023021897 0.04122672 0.15037969 -0.16445613
000230 ba 27 10 3c 60 0a 51 bb f6 43 87 3d 5c d0 92 3d
       0.008798534 -0.0031897053 0.066047594 0.07168648
000240 47 4c 8d bd be 70 f1 3b 8a e4 95 3b bc 8f 02 3e
       -0.068993144 0.0073681762 0.004574363 0.12750143
000250 79 02 f8 3c c7 0c 7c bc 7e 8d 5a 3d cb 43 68 3d
       0.030274617 -0.015383906 0.053357594 0.056705277
000260 3b 88 b8 3d de b5 93 3e ba b9 4d 3d 0a 4e 88 be
       0.09010359 0.2884969 0.05022595 -0.2662204
000270 90 90 b2 3d 43 0b 79 3d 2b a1 a8 3d 59 71 b0 3b
       0.08718979 0.060801756 0.08233865 0.005384606
000280 90 1b b8 3d cd cc ac bd 08 b2 98 3d d2 21 9b 3d
       0.08989632 -0.084375 0.07455832 0.0757481
000290 aa 0c 22 bd 03 77 29 3e 26 5a 37 3d 8c 0d 42 3d
       -0.03956286 0.16549306 0.044763707 0.0473762
0002a0 3d 52 c9 bd 8c 04 10 bd 13 f1 c1 bd 7f 5f 95 bd
       -0.09830139 -0.035160586 -0.094698094 -0.07293605
0002b0 5d d7 0b bd 4c 8c da bb 56 17 29 3d df e5 0b bd
       -0.034140933 -0.0066695567 0.04128202 -0.03415477
0002c0 71 9b 3c 3d f3 e3 8a bd 25 67 2c 3d a6 3c 32 3e
       0.046046678 -0.06781759 0.042090554 0.17405948
0002d0 7a ff 24 bc 35 59 0b 3e da 1a 45 3d 18 2f ee 3c
       -0.010070676 0.13608249 0.04812131 0.02907519
0002e0 fa 81 e2 3d 14 88 0b 3e 57 97 a9 3d 89 42 ec bc
       0.11059947 0.13626128 0.08280819 -0.02884032
0002f0 29 8f 26 3d 4b d9 11 be 40 58 03 3e 5e 59 30 be
       0.040663872 -0.14243047 0.12826633 -0.17221591
000300 65 4b 6a be aa 3a c7 3d 0b 3d 3c 3d 91 20 a2 3a
       -0.22880323 0.09727986 0.045956653 0.0012369325
000310 00 9f 97 bd 21 a6 e4 3d 84 97 61 3c c9 6e 38 bd
       -0.07403374 0.11164499 0.013769034 -0.045027528
000320 32 a0 e1 bc d6 0f ca 3d 97 9d 5e 3d 7b f7 fe 3d
       -0.027542207 0.09866302 0.054349508 0.12449547
000330 51 7f 0e be a0 69 5d 3d c7 ca 79 3b aa 12 1b be
       -0.13915755 0.05405581 0.003811525 -0.15143839
000340 73 99 eb bd 18 59 8f bd a4 88 3f bd 17 41 ae bd
       -0.115038775 -0.06999415 -0.04676117 -0.08508509
000350 97 33 19 3d 42 fe 0d 3e 8b cd ff 3d c5 54 26 be
       0.037402716 0.13866523 0.12490376 -0.16243275
000360 7d 0f 89 bc ad 78 3f be db d3 0d be 40 07 e6 3d
       -0.016731018 -0.18698378 -0.13850348 0.112318516
000370 27 7a 19 3e 8a 02 bf ba 72 2f 47 3c 1d 36 20 bd
       0.14988004 -0.00145729 0.012157308 -0.039114106
000380 38 f6 cb 3c 19 57 bc 3d d6 51 ff bc f9 f8 78 3d
       0.02489768 0.091963 -0.031166952 0.060784314
000390 0b 90 0e bd 3c 13 8a bd 88 ee 8f 3d 52 f8 c6 3b
       -0.03480534 -0.0674195 0.07027918 0.0060720826
0003a0 51 58 8b bc 2b 4d 97 bd 57 32 9e 3d 7e 64 04 3d
       -0.017009886 -0.073877655 0.07724445 0.0323224
0003b0 cc e3 09 bc 54 f2 18 3e 18 c0 62 3d 2d cc 24 3d
       -0.008416127 0.14936191 0.055358976 0.04023378
0003c0 8d ca 96 3b a8 de c1 3c a8 99 10 3e ea 31 8a bd
       0.0046017827 0.023665741 0.14121115 -0.067478016
0003d0 c8 7e 6a 3d a7 ba 44 be 1d b3 a2 3c 82 c2 af 3d
       0.057249814 -0.19211827 0.019860798 0.08582021
0003e0 e8 2b ba bb 5c cf c1 bd 20 13 8f bd b1 50 54 bd
       -0.0056815036 -0.09463379 -0.0698607 -0.051834766
0003f0 46 35 b6 bd 85 d6 43 bd bf ae fe 3d 67 e6 1e be
       -0.0889688 -0.047812004 0.12435674 -0.15517579

network_body._body_endoder.seq_layers.2.bias f4 [128]
000000 00 df 20 bb 38 d4 f5 3b ce 08 15 3c c7 8b 3f bc
       -0.002454698 0.007502105 0.0090963375 -0.01169104
000010 dd 9e 89 3c 15 60 13 3c dc 4a 85 3c 23 04 3b bc
       0.016799385 0.008995076 0.016271047 -0.0114145605
000020 ee 38 34 bc 34 e4 1c 3c b8 17 24 bc f8 62 68 bc
       -0.010999901 0.009575892 -0.010015421 -0.014183752
000030 c9 59 a5 3c 3e 01 b8 3c 9f 36 99 bc 6f 61 27 3c
       0.020184414 0.02246153 -0.018702803 0.010216101
000040 8f aa 81 3c 0d 28 fe 3a 63 ce 59 3c d6 ce 23 bc
       0.015828399 0.0019390598 0.013293835 -0.009998044
000050 fe aa 81 3c 7a 69 2b bc 99 d1 61 3b 93 68 62 3b
       0.015828606 -0.010462159 0.0034457205 0.0034547194
000060 87 5b b1 3c 99 e1 42 3c 4d d4 9a 3c 3e 75 64 bc
       0.021650089 0.011894607 0.018900061 -0.013943968
000070 76 57 92 ba 76 99 b0 3c 83 34 7f bc 77 4d a1 3b
       -0.0011164981 0.02155755 -0.015576485 0.0049225646
000080 d3 72 81 3c da 59 2c 3c 26 44 c4 3b 7e cc a0 3c
       0.015801823 0.010519469 0.0059895692 0.01962876
000090 a5 bc ac 3c a0 35 b2 3c ee 07 4e bb f5 08 99 b8
       0.021086046 0.021754086 -0.0031437832 -7.297277e-05
0000a0 f9 1e 16 3b 0d 83 37 3c 3d 2b 3f 3c 78 ee 85 3c
       0.0022906645 0.011200679 0.011668024 0.016349062
0000b0 be ba ef bb 8b d5 b1 39 d2 3e 6c bc 20 5c 3f bb
       -0.0073159626 0.00033919173 -0.014419274 -0.0029199198
0000c0 f5 84 95 bc f3 54 7c bb 46 99 5e 3c 4e 1c 80 3c
       -0.018251875 -0.0038502782 0.013586348 0.015638497
0000d0 41 c6 64 bc 1a 07 85 3c be fc b8 3c 5f cf 8c bb
       -0.013963283 0.016238738 0.022581454 -0.0042971815
0000e0 b9 be 6c 3c 26 68 64 3c a7 cc c0 bb 8f 24 38 3b
       0.014449769 0.013940847 -0.0058837715 0.0028097962
0000f0 fe bb 31 3c fb 3f 64 ba ab 47 32 3c d4 81 82 bc
       0.0108480435 -0.00087070436 0.010881345 -0.015931047
000100 0e 9b b0 ba 4f e1 56 3c 26 91 11 bc 0a ef 02 3b
       -0.0013473944 0.013115241 -0.008884704 0.0019978904
000110 08 a8 6a bc 21 91 31 3c b8 05 2e bb bd a3 9b 3c
       -0.014322288 0.010837824 -0.0026553702 0.018998975
000120 b1 85 3e 3b 78 88 cd 3c f0 90 36 3c 99 1b a0 3c
       0.0029071386 0.025089487 0.011142954 0.01954441
000130 5a 6c 98 3c dd 65 13 3c 84 22 42 bc 71 2f c3 3b
       0.018606354 0.008996454 -0.0118490495 0.005956583
000140 f9 93 bf 3c 4d 46 ad 3c 1a 50 c7 3c 2c 5e 6f bc
       0.023385989 0.021151686 0.024330188 -0.014609855
000150 d0 65 b4 3c ca 1e 47 3c 2b 92 8a 3c ee e8 8c bc
       0.022021204 0.012153337 0.016915401 -0.017200913
000160 b2 cb bf 3c d5 98 a7 3b 58 e7 8d bc ac 29 77 3c
       0.02341256 0.0051146545 -0.017322227 0.015085619
000170 91 de 4c 3b 98 bf 4f bb 6c 59 9f 3c 6f 46 88 bc
       0.003126059 -0.0031699892 0.01945182 -0.016635148
000180 f9 59 88 3c 0f c1 94 3c 7f f8 63 3c eb 8d 12 3c
       0.016644465 0.018158464 0.013914227 0.008944969
000190 38 02 ad 3c 52 d4 95 bb 7a 6c ab 3c ec d6 b8 3c
       0.021119222 -0.0045724297 0.02092575 0.02256342
0001a0 bb 7a 84 bc b9 af 05 3c 38 4b d0 3c e1 ee 8d 3c
       -0.016171804 0.008159571 0.025426492 0.01732582
0001b0 01 02 38 3a b1 17 73 bb df ce aa 3c d6 7b d6 3c
       0.00070193416 -0.0037092979 0.020850597 0.026182096
0001c0 6b 0b 62 bc 0e 1d 88 3c a8 e6 26 3c 63 eb bd 3c
       -0.013796668 0.016615417 0.010186829 0.02318353
0001d0 96 a8 2b 3c 98 a9 b7 3b e3 d1 1a bc 55 48 86 3c
       0.010477206 0.005604934 -0.009449455 0.016391912
0001e0 d0 ed 3b bc 21 83 f0 3b 7d ea 99 3c 3f 07 17 3c
       -0.011470273 0.0073398505 0.01878857 0.009218036
0001f0 97 8b a2 3c 57 fa ca 3b 54 4b 96 3c ea 41 a2 3c
       0.019841952 0.0061943936 0.018346466 0.01980682
