results/BasicXZGridSensor/BasicXZ/BasicXZ-500037.onnx (onnx, 201284 bytes, 12 tensors)

network_body.observation_encoder.processors.0.conv_layers.0.weight f4 [16, 3, 8, 8]
00000000: 3af1 3e3d 9292 693d 0d9a 1c3c cd86 e53d
00000010: abe7 02bd 6880 babd ec15 97bb 97b2 083d
00000020: 0c16 06bd 6e75 883d bd19 41bd 889e f93c
00000030: 2b1f 803d 59c5 d83c 9b5f 573d b767 8cbb
00000040: dd7a aebd bbc1 033c a6c0 91bd c7f6 543c
00000050: 4243 d63b 4a83 b93d 58da c43d fe43 303d
00000060: d2b4 533d 4313 acba be44 5ebc 82f1 96bc
00000070: 4f4f ba3c 425a 123d d3bd c0bc 52e1 593d
00000080: d946 f8bc b343 233d 82dd d23b e564 f9bb
00000090: 59ea 5cbd d18c b43d cf74 ce3c b7e5 e5ba
000000a0: 60c7 1cbd cac2 b93c eb1d e83c 1df2 9ebd
000000b0: 52d5 4bbd 3e28 0abc a049 703d dcb3 9f3c
000000c0: b26a 9dbd c2f9 97bc 48c2 903d 07ed 92bb
000000d0: 252e 90bd 7ce6 af3b c397 d9bc 0929 debc
000000e0: 0a71 e0bc 2183 8d3d f3d3 e0bc a28f e33c
000000f0: 48ff 913b e340 a0bc fabc 9c3a 2613 0bbd
00000100: a529 3f3d 0109 493d 6a98 803d ec2c 5ebc
00000110: b4f3 5bbd b10d 83bd c60e b6bd 747c 5b3d
00000120: 6a13 c13d f144 a43d 2892 5a39 b687 ea3c
00000130: 2e5e 90bd 6611 5cbd 29ae 3dbb 96b8 583c
00000140: 5532 b23d 1c3c 09bd 0a36 eb3c 4ef9 653d
00000150: 63c9 b6bd 0ece b1bc 3005 a53d 7559 103c
00000160: 2fbc 083e fe68 12bd 3041 acbd 4409 d2bd
00000170: 1e95 8dbd fb9d 5c3d 8684 d83d 8433 b0bd
00000180: f438 203d 2187 733d ef6e 70b9 4e49 a23c
00000190: e338 9c3d 88b7 db3d 6779 34bd 60c0 193d
000001a0: 34d7 1e3d fcc5 bf3d 6515 c53d bb2f b2bc
000001b0: a5f6 273d 151b 01bb 71e7 b43d 5ea3 51bd
000001c0: ddaf d13c 4b2b d53d 1ae6 c6bb 3a34 bd3c
000001d0: 3ee4 1fbc adc7 8d3c 69eb 4f3d a9fe acbc
000001e0: 7cae 5c3d 60fa f23c 4a4b 873d d1f0 3dbd
000001f0: 9d15 80bd e9c6 7fbd 30ca cd3c d110 b5bc
00000200: 1031 473d f844 15bc 6843 4ebc 20c7 743b
00000210: c252 8b3d 4ef5 2b3d 681f 763d d021 24bc
00000220: f703 77bd d0b1 a83b 647c 883d 880e 723d
00000230: 0864 45bd f410 4dbd d070 cb3b aa98 343d
00000240: a8b5 d03c 5a7d 41bd ad6f 4fbd f048 8e3c
00000250: 6481 c63c 7d49 83bd bc2c 8d3d c081 d23b
00000260: 5871 e23c 7d95 8cbd c8c6 663c f609 293d
00000270: 406d 44bd 5a15 083d 34f2 be3c 5093 3ebd
00000280: e8c9 cc3c fa97 303d bd10 80bd 1079 0a3c
00000290: c83d 6e3d 184d 383d aaca 6abd 7a6a f6bc
000002a0: e4f5 c43c fca6 ef3c ee21 8dbc d012 8abd
000002b0: 1060 51bd 4068 67bd e0fb ac3b 8420 923d
000002c0: 20ad f2bc dca4 403d 1cce 733d 9477 2a3d
000002d0: 1878 10bd 1818 2f3d e623 5dbd da88 1c3d
000002e0: 8a61 fdbc f0f2 96bc 8cfc 75bd 3ab0 1f3d
000002f0: a8c6 6a3d f881 723d 540d 6d3d 5891 303c
00000300: a375 85bc 5448 9bbd 1b2d b73d 7169 24bc
00000310: e389 973c 2e62 c139 79d0 473d 3e42 e33d
00000320: fac3 fa3c 729a 1c3c dd0f a6bc a7b9 113d
00000330: 34cc 47bd 7446 ab3d 3de9 7a3d f126 513d
00000340: bfbd 603c 8b28 cd3b 819c 70bc 3494 4abd
00000350: d676 023d 603e 403d de7a 213b ed13 c5bb
00000360: b783 a1bd 3e4f 473c 1afa 4fbd bd21 41bd
00000370: 0636 5b3d abf6 833d b638 08bd fde1 d63c
00000380: b087 99ba ddad 6f3d 744d cfbc a4a9 573d
00000390: 2939 6bbc 8268 683d 583a 02bb 89b7 943c
000003a0: 7d30 e63c 6adb 0c3d 0174 123d 187b 1abd
000003b0: f7b8 b1bd e263 423d a09b 763c b9fa 33bc
000003c0: 94c8 aa3d 8031 853c deb7 18bd fbe3 10bd
000003d0: c656 7b3d e203 c33d 4b8a 973d bcce 88bd
000003e0: 1280 a63d aa47 20bc beaa 813d bf7c a03d
000003f0: 7429 7d3c 2dcd 423d d9f3 20bc 917b 853d
0.04661677 0.057024546 0.009558213 0.11207352 -0.031959217 -0.09106523 -0.0046107676 0.03337344
-0.03273587 0.06663023 -0.047143687 0.030471101 0.06255945 0.02646129 0.05258141 -0.0042848247
-0.08519528 0.008041794 -0.07116823 0.012998289 0.0065387795 0.090582445 0.09611958 0.043033592
0.051686116 -0.0013128299 -0.013566194 -0.018425707 0.022742895 0.035730608 -0.023528015 0.053193398
-0.03030722 0.039859485 0.006435097 -0.0076109045 -0.05393443 0.08815921 0.025202183 -0.0017539774
-0.038276076 0.02267589 0.028334578 -0.07761023 -0.049763985 -0.008432446 0.058663964 0.019494943
-0.07686366 -0.018551711 0.07068306 -0.0044838223 -0.07040051 0.005368052 -0.026561623 -0.027119176
-0.027397651 0.069097765 -0.027444815 0.02777845 0.0044554807 -0.01956219 0.0011958175 -0.03395381
0.046670575 0.049080852 0.06279071 -0.013560515 -0.05369921 -0.06399096 -0.088895366 0.053585485
0.09427531 0.08020962 0.00020844548 0.028629165 -0.07049213 -0.05372753 -0.002894292 0.0132276025
0.08701006 -0.03350459 0.028712291 0.05614596 -0.0892513 -0.0217047 0.0805763 0.008810391
0.13353036 -0.03574466 -0.08410871 -0.102556735 -0.069132075 0.0538616 0.10572152 -0.08603576
0.039116815 0.05945504 -0.0002292951 0.019810345 0.07628038 0.10728365 -0.04406109 0.03753698
0.038779452 0.093639344 0.09623221 -0.021751275 0.041006703 -0.001969998 0.088332064 -0.05118119
0.025596553 0.10408648 -0.0060699107 0.023096193 -0.009759007 0.017307127 0.050761614 -0.021117525
0.05387734 0.029660404 0.06606157 -0.04637224 -0.062541224 -0.062445555 0.025120825 -0.022102745
0.048630774 -0.009110682 -0.012589313 0.0037350133 0.06802894 0.041981988 0.060088545 -0.010017827
-0.060306516 0.00514815 0.06664351 0.05909589 -0.0481911 -0.050064996 0.0062085167 0.044090904
0.025477245 -0.047238685 -0.05064361 0.017368764 0.02423162 -0.06410501 0.06893298 0.006424159
0.027641937 -0.0686445 0.014085479 0.041269265 -0.04795575 0.033223487 0.02330885 -0.046527207
0.02499862 0.043113686 -0.062531926 0.008451715 0.058164388 0.044995397 -0.05732218 -0.030080069
0.024043031 0.029254429 -0.017228093 -0.067418694 -0.051117003 -0.056495905 0.0052790493 0.07135108
-0.029623568 0.047032222 0.059522733 0.041617945 -0.03527078 0.042747587 -0.053989314 0.03821645
-0.0309303 -0.018426389 -0.0600553 0.038986422 0.05731836 0.05920598 0.05787404 0.01077684
-0.016291445 -0.07582155 0.0894415 -0.010034905 0.018498367 0.00036884978 0.0487828 0.11096619
0.030611027 0.009558307 -0.020271236 0.035577442 -0.048778728 0.08363047 0.06125759 0.051062528
0.013717114 0.0062609366 -0.014685751 -0.049457744 0.031851612 0.046934485 0.0024639885 -0.006014338
-0.07886451 0.012164889 -0.050775625 -0.047151316 0.053518318 0.064435326 -0.03325721 0.026230806
-0.0011713412 0.05851542 -0.025305487 0.052652016 -0.01435689 0.05674029 -0.0019871201 0.018153923
0.028099293 0.034388937 0.03575516 -0.037715048 -0.08677857 0.047458537 0.015051752 -0.01098507
0.083390385 0.016258955 -0.037284724 -0.03537367 0.06136205 0.09522225 0.07399424 -0.066800565
0.08129896 -0.009782711 0.063313946 0.078362934 0.015451778 0.047558952 -0.009823763 0.06517709

network_body.observation_encoder.processors.0.conv_layers.0.bias f4 [16]
00000000: df9b 873c 0385 c0bb e13a d93c fc11 22b8
00000010: 2b8b 923d db3f a83d 0dbe 673d 61a7 8b3c
00000020: ba16 423d 2774 87bc 0355 b33d 7d71 973a
00000030: cee0 523d 0199 373d 5401 313b 0847 bf3c
0.016553817 -0.005875231 0.026517333 -3.864056e-05 0.071554504 0.082153045 0.05657773 0.017047586
0.047384955 -0.016534878 0.08756449 0.0011554208 0.05148392 0.04482365 0.0027008848 0.0233493

network_body.observation_encoder.processors.0.conv_layers.2.weight f4 [32, 16, 4, 4]
00000000: 1d38 02bd c4e3 623d 7b2a 883a ac52 f4bc
00000010: 4f75 f13c bc4b e73c 1241 a73d 49ad 823d
00000020: 471c 23bd 24e1 c73c abdb 32bc ca9f 00bd
00000030: 2af7 53bd c963 1f3d 0616 bebd b9f8 903d
00000040: 5f73 47bc b1d8 e53d 1d4a 9ebd 89d7 f13c
00000050: de6a 4bbd f25d fc3b 12df 503d cb9b 4c3c
00000060: 7407 83bc d1b4 47ba f2d1 96bc b2f9 a73c
00000070: 62cb 843d 8e8a 62bd 1b7a 523d e89b c93c
00000080: c597 9f3c 142f ec3d ee11 7bbd ad6e 5cbd
00000090: aca6 90bc a503 423d b9d7 0fbc 9f6e 13bd
000000a0: a196 273d 142a 7abc b596 bc3d 11c0 4abc
000000b0: 4576 a23c c219 79bc 3200 8cbd f51c 283d
000000c0: a365 7e3d 57db 2a3c bb38 5d3d 9adb 943d
000000d0: 8923 01bd 066a 433d 18fe 30bd c11c 81bb
000000e0: 2a76 b53c 84bb 9b3d 67ec 8bbc 88fe a33c
000000f0: 72e8 c3bd 5457 5c3d 6187 2bbc 58cd 82bd
00000100: 594a 04bd 1b91 c3b9 ed43 7fbd 2046 433c
00000110: 03e0 973d 6bed 90bc b87d c73c cd8b 1a3d
00000120: fed4 04bd 89f3 ecbb 332b 13bd 47fc 6fbd
00000130: e5db f73c c0e5 0f3c 4e4e 063d f793 be3c
00000140: ee16 b53c 6bef 5a3d f71a 56bc 5435 8c3d
00000150: 4718 823d dd2e 78bd 3c2a 323d 9696 3bbc
00000160: 7952 2e3d 764c 90bd 3c5a 4dbd ab57 bf3c
00000170: f2a0 b43c 6617 843d f7af d7bb a6d8 653d
00000180: 3a8a d0bc aa58 3fbc bd19 a23b 79eb 023d
00000190: 1340 2cbc 4911 533d 211f 633d 0c34 2d3d
000001a0: bc7b f8bc 1d8d 6dbd ada2 433d 897a 5dbc
000001b0: 27cc 573d be17 69bd 2b2a e6bb b38e 8f3d
000001c0: 84b6 05bd dadf b63d b069 42bc e224 e1bc
000001d0: 27b7 063d 9121 b63c 4a2c 07bd 8c01 c6bc
000001e0: ca6c 10bb 2b28 463c ee5b d6bc 4cc7 8e3c
000001f0: 7169 da3b 063b edbd 13b0 f43c c70a 26bd
00000200: b775 ee3c 2283 ce3a d374 e13c d502 ae3c
00000210: dbe5 e63c cf54 a0bc 8c22 9ebc bf30 653d
00000220: 1712 efbc 8dac e93b efe9 9abc 1c03 453d
00000230: 6edf febc 4933 97bc 3071 213d 9e1b f93c
00000240: 1722 843d 7f39 c03c 2582 cc3c f48b 6abd
00000250: 68a0 823d 49d8 df3c ff1e 7b3d 8981 38bd
00000260: 61f0 273d 3788 53bc 86ec 73bc 462f 893b
00000270: 5704 4c3c 2452 16bd 6152 3abc 87fb e83c
00000280: 3f31 2c3d a37f 213b efa4 103d f5f4 203b
00000290: 23ce 863d fc2e cb3b ac27 e23c 90bc 163c
000002a0: c095 aa3d 55f0 bc3d 0b06 4c3d 7201 593b
000002b0: 981c 483d 458e 01bc 63e6 303d dcc0 13bd
000002c0: f0cb c83c 61e6 343d 4e33 b13c e7bd 523d
000002d0: 515c e9bc c03d 1d3c 85ec 173a 4b2c 353d
000002e0: de22 9bbd ccc8 423d 0796 d23c 0064 3ebd
000002f0: fd61 ebbc 3788 1d3d 81a8 4b3b 12eb 8a3d
00000300: 9639 5e3d b329 af3d 71d0 96bd 9784 a9bc
00000310: ba42 303d cfe5 bd3d 734c 52bd 195e 403c
00000320: f0a9 b23c bb01 8abd 49a7 a33d cdfc b23c
00000330: ad25 33bd cc48 14bc 642e 8f3c 8da9 a0bc
00000340: 9415 b2bb 029c 5d3d 0734 093d 2c9b 9cbd
00000350: 7e33 763d b45e ad3d 69e0 3e3d 3933 493d
00000360: fcb6 a13d 6f3a 89bc 889d 1a3c 2c6a 8bbc
00000370: 96cd 373d 6156 0abd bf72 bcbc 4527 1ebd
00000380: 40a1 2c3d d22d 613d fd1c e0bb 5770 b2bc
00000390: 4661 90bc 4189 bc3c e8db 6abd 1fbd c2bc
000003a0: 0d42 4f3d 1227 86bd e3b8 43bd ef96 293d
000003b0: f65f 093b 0404 1cbd 4027 4c3d 37a4 a23d
000003c0: d20c eb3a f8b2 e83d 0e93 a73c 04d4 3d3d
000003d0: 92e9 f5bb a579 723c b3e4 103d c37e 0abd
000003e0: 62a3 44bd e8ea 54bd c906 963c 3a5b d53c
000003f0: dfb8 5f3d f701 afbd d493 523d a299 1c3d
-0.031791795 0.055392995 0.0010388637 -0.029824577 0.029474882 0.028234355 0.08166708 0.06380708
-0.03982189 0.024399348 -0.010916631 -0.031402387 -0.051749386 0.038913522 -0.092815444 0.0707869
-0.012173503 0.11222971 -0.0772898 0.02952172 -0.049662463 0.007701629 0.050993986 0.012488316
-0.015994765 -0.00076181913 -0.018410657 0.020504806 0.06484105 -0.055307917 0.05138598 0.024610475
0.019481549 0.11532417 -0.061296396 -0.053816486 -0.0176576 0.047366757 -0.00877946 -0.03599417
0.040915135 -0.015268821 0.092084326 -0.012374894 0.019831786 -0.015203895 -0.06835975 0.04104324
0.062108647 0.010428271 0.05400918 0.07268448 -0.03152803 0.047708534 -0.043211073 -0.0039401953
0.022151072 0.07604125 -0.017080499 0.02001883 -0.0956582 0.05379422 -0.010469289 -0.063868225
-0.032297466 -0.0003730141 -0.06232064 0.011918575 0.07415774 -0.017691335 0.02435194 0.03773098
-0.032429688 -0.00723118 -0.03592987 -0.0585902 0.030256221 0.008782804 0.03278952 0.023263915
0.02210566 0.053450983 -0.013067952 0.06846109 0.06352287 -0.060591567 0.04349731 -0.011449477
0.04255912 -0.07045834 -0.050134882 0.023357233 0.022049401 0.064497754 -0.006582256 0.056114815
-0.025456537 -0.011678854 0.004946916 0.031962845 -0.010513323 0.051530156 0.05544961 0.042285964
-0.030332439 -0.057995904 0.04776256 -0.013517984 0.05268493 -0.056907408 -0.00702407 0.070096396
-0.032644764 0.08929415 -0.011866018 -0.027483407 0.03288951 0.022232803 -0.03300122 -0.02417066
-0.00220375 0.012094538 -0.026166882 0.017429017 0.0066654016 -0.115835235 0.029869115 -0.04053762
0.029108865 0.0015755633 0.027521526 0.021241585 0.028185776 -0.01957169 -0.019303583 0.05595469
-0.02918343 0.0071311654 -0.018910376 0.04809867 -0.031112399 -0.018457072 0.039414585 0.030408677
0.064518146 0.023464916 0.024964401 -0.057262376 0.06378251 0.027324812 0.061308857 -0.04504541
0.041000728 -0.012910894 -0.014887935 0.0041865436 0.012452207 -0.03669943 -0.01137218 0.02844025
0.042039152 0.0024642728 0.035313543 0.0024560068 0.06582286 0.0062006693 0.027606808 0.00920023
0.08329344 0.09225527 0.04981045 0.0033112434 0.048855394 -0.007907455 0.043188464 -0.036072597
0.024511307 0.04416502 0.02163091 0.051450636 -0.028486403 0.009597242 0.0005795437 0.044231694
-0.0757501 0.047554776 0.025706304 -0.046482086 -0.028733248 0.038459983 0.0031075778 0.06783117
0.054254137 0.08552875 -0.07363976 -0.020693107 0.043032385 0.09272348 -0.05134244 0.011741185
0.021809548 -0.06738611 0.079908915 0.02184906 -0.043737102 -0.009050559 0.017478175 -0.019612098
-0.005434701 0.05410386 0.033496883 -0.07646784 0.0601077 0.08465329 0.046600733 0.049121115
0.078962296 -0.016751496 0.009436972 -0.0170184 0.044873796 -0.033773784 -0.023003934 -0.03861167
0.042145967 0.05497534 -0.006839393 -0.021782083 -0.017624509 0.023014667 -0.057338625 -0.02377182
0.0506001 -0.06550421 -0.047783744 0.041403707 0.0020961738 -0.038089767 0.04984212 0.07941478
0.0017932898 0.113622606 0.020455863 0.046344772 -0.0075046504 0.01479951 0.035374355 -0.033812296
-0.048007376 -0.051981837 0.018313782 0.026044477 0.054619666 -0.08545297 0.05141051 0.038232453

network_body.observation_encoder.processors.0.conv_layers.2.bias f4 [32]
00000000: a566 383d e1a3 88bc c6cd 08bd ec7d 18bd
00000010: caa8 b4bc 1e65 4c3d 76d1 fe3c cb20 07bc
00000020: eab2 5abc d2e2 073c f53e 4abd 11a3 583d
00000030: d21f bfbb 6cdf 7d3d 9a2c a3bd 66ca 203d
00000040: 7dd1 89bd 584c d0bd 9a85 f7bc b2ef 0dbb
00000050: d756 a73b 8b4b 463d f407 edbc a92d fb3b
00000060: 3997 863d 390f 40bd fae3 e9bc 92bb 0cbd
00000070: 8e80 043c 41bd 763b 7ed4 c63c 94d8 96bd
0.045019764 -0.016679706 -0.033399366 -0.037229463 -0.022053141 0.04990112 0.031105738 -0.008247565
-0.0133483205 0.008293824 -0.049376447 0.052889887 -0.0058326507 0.06198065 -0.079674914 0.039255522
-0.0672941 -0.101708114 -0.030215073 -0.0021657762 0.0051067877 0.048411887 -0.028934456 0.007665355
0.06571812 -0.046889517 -0.02855109 -0.03435857 0.00808729 0.0037649425 0.024271246 -0.07365528

network_body.observation_encoder.processors.0.dense.0.weight f4 [128, 32]
00000000: c21e ac3e ba5f 6ebe b019 7f3e 39de a23e
00000010: c613 b4be 9b78 e13e 2174 42be a258 a03e
00000020: 06bb 50be ce9d a5be 1cd8 233e cc02 a9bd
00000030: 2c33 843e 07f9 863e 2c8e 9d3e 7ca4 1f3e
00000040: b176 eebd 4d7c d8bd 12fd c4be c4d7 2a3d
00000050: 69cb c53e 45d7 96bd f974 1cbe ef6c cf3c
00000060: 39c3 99be 3174 f5bd 562d 0d3e 052c 1a3c
00000070: 7e26 993d 5204 613d 3204 66bd 4380 893c
00000080: 7a8c 083e 3e93 ab3c 392e 99bd dc99 febd
00000090: 87c9 033e 6f84 1b3e 6dea 83be 4a34 c83e
000000a0: 67e6 e03d 93c3 863e c838 f5be a124 063e
000000b0: a204 53be a856 a43d 4268 f43d 2203 363e
000000c0: 8401 133d aab7 a2be 0016 813e 7355 b1be
000000d0: 4ed2 923d ecda 733e 3238 0bbe 1c32 1c3e
000000e0: 37df 99be 3bdc 883e 72c6 aa3e ec44 16be
000000f0: cb18 933b 7ffe c1be 9460 51be ee6b 03bd
00000100: 52e0 1dbd cc13 e4bd 4009 e8bd d257 82bd
00000110: 04a9 973c 90fa 3abd 979a f43e 70e4 dd3e
00000120: 6d1f 52be 233c b1be 6372 b0bc b08e 1a3e
00000130: 068d cebe b594 023e 8c89 aa3d 2a8c 24be
00000140: a67a 8d3e a855 ecbd 28b3 80bd c81f e43b
00000150: e699 2fbe 940f e63e 6f48 c4be 0242 1d3d
00000160: 27c0 433e 3231 1cbd a7c3 14be d2da 993e
00000170: 85dc 4abe 3948 f4bc f9a9 033f 3a79 113f
00000180: afbc 9e3d b3a2 59be f5c8 cc3e c8c9 df3c
00000190: 36a0 ddbe 9a26 1d3e 9343 c93e cb6d 3bbe
000001a0: 7e3c 063e 0e73 d03e d6b1 a0be 0471 9e3e
000001b0: 3834 f53d f77f 6dbe 34a7 cb3e 47b7 56be
000001c0: 3f85 b13d 11fb 39be 0cb7 273f 3b45 b43e
000001d0: 361b fa3d bafc 5abe e127 fcbd ec55 adbe
000001e0: 34a7 fabd 77ae a4be 6c75 0a3f 2cfc f23e
000001f0: f150 4cbe f197 853e f3ed d9bd 3aca 923e
00000200: 414f 513e ed5b 353d 766c 153e 59ea cdbd
00000210: ab10 ffbd 44ff 2abe 8b6b c6bc 5b3a dc3d
00000220: c7ab 93bc edd5 8f3d 2eb6 e73e dbc0 a9be
00000230: 719c d93d 0f30 ec3c 6c1b 1f3e a956 da3c
00000240: d143 203c e04d 923e cb06 bebe 970c 1dbd
00000250: 9925 7e3e 7e98 fd3d 4ea4 933e 44b7 0dbe
00000260: 5e7b a53e d0b5 5fbe be07 10bc a204 09be
00000270: e33e d43e cf5a 19be 6dd0 0d3e fca9 78be
00000280: fa2a fe3e 20fa 7fbc bbc5 42be cbce a43e
00000290: 01be 39bc 3e6e d63d 7aac 19be 1492 dd3d
000002a0: 4021 9c3e 7087 8d3e 1932 9d3d e55e 95bc
000002b0: 2dac 05bf e6ae 06bf 3e50 283e 7028 9e3e
000002c0: 4204 8ebe 5869 733e bae8 d33c b739 713c
000002d0: 46d5 f0bd c03f e83d 452f bc3d d901 89be
000002e0: 23d5 653e e119 313e a2de dbbd 25a1 af3e
000002f0: d459 38be 95f7 07bf 6486 73be 9ddf a73d
00000300: a3e7 993d e745 8e3e 40fd d53d 889e a1be
00000310: f67f ff3d 5dbe 6cbe 1436 dbbd 0bdc 393b
00000320: 23b0 75be 264b 533e 4bae 9cbe 9070 2dbd
00000330: 84b3 95be 7a81 8d3e d1ce 5cbe 5c88 c6bb
00000340: cbf9 dbbe a268 dd3d e98a d23d 0a11 c13e
00000350: 6784 c53e d28f 74bd 089e 98bd d29c 4b3e
00000360: a748 edbe 3f68 0e3f 83ad 4f3c 0871 ee3d
00000370: a033 c8be 57c1 23be 351e abbc 8f49 61bd
00000380: 5f08 e4bc 7526 893c 0eae 583d b848 a7bd
00000390: 325b fbbd c7ee 39bd d7d1 c13d e5fe e13c
000003a0: 450c 91be e82c 903c b4a4 1f3d 6196 fb3d
000003b0: 2019 093e 92bc 8a3e 3385 f23e a7b9 a6bd
000003c0: 385c 6c3e 7d89 153d 6ce8 79be 2fcd 3b3d
000003d0: bdf7 233e ce9c 8b3e 55cb 4dbe 397a acbd
000003e0: ce6c 2a3e 9d04 78be 8643 44be cfaf fc3d
000003f0: 0fd8 963d a775 9c3e 4b34 08bf ed7a 59be
0.33617216 -0.23278704 0.24912143 0.31810167 -0.35171336 0.44037327 -0.18989612 0.3131762
-0.20383844 -0.32346958 0.16000408 -0.082524866 0.2582029 0.26361868 0.3077253 0.1559009
-0.11643732 -0.105705835 -0.38474327 0.041709676 0.38631752 -0.07365278 -0.15278997 0.025320498
-0.30031756 -0.119850524 0.13786826 0.009409909 0.07478045 0.05493576 -0.056156345 0.016784793
0.13334838 0.020944234 -0.074795194 -0.1243169 0.12869845 0.15187238 -0.2576479 0.39102393
0.10981446 0.26321086 -0.47894883 0.1309991 -0.20607236 0.08024341 0.11933948 0.17774633
0.035890117 -0.3178075 0.25212097 -0.34635505 0.07169019 0.23813981 -0.13595656 0.1525349
-0.30053112 0.26730523 0.33354527 -0.14674729 0.0044890395 -0.37889478 -0.20446998 -0.03208535
-0.038544007 -0.111365885 -0.11329889 -0.06364407 0.01851321 -0.04564911 0.47774193 0.43338346
-0.205198 -0.34616193 -0.021538919 0.15093493 -0.40341967 0.1275204 0.08327016 -0.16069093
0.27632636 -0.11539775 -0.06284171 0.0069617964 -0.17148551 0.4493376 -0.38336512 0.038393028
0.19116269 -0.038132854 -0.1452776 0.3004976 -0.19810684 -0.029819595 0.5143123 0.568256
0.07750832 -0.21253471 0.39997068 0.027317896 -0.43286294 0.15346757 0.39309368 -0.18303601
0.13109013 0.4071278 -0.31385678 0.309456 0.119728506 -0.23193346 0.39776003 -0.20968352
0.08667993 -0.1816218 0.6551368 0.3520907 0.12212221 -0.2138547 -0.12312294 -0.33854616
-0.12238923 -0.32164356 0.5408542 0.47458017 -0.19952752 0.26092485 -0.10641088 0.28669912
0.20440389 0.04427712 0.14592156 -0.10054464 -0.12454351 -0.16698939 -0.024221202 0.10753318
-0.018026246 0.07023225 0.4525618 -0.3315495 0.10625542 0.02883151 0.15537804 0.02665265
0.009781794 0.2857504 -0.37114558 -0.038342085 0.2481903 0.12382601 0.28836292 -0.13839442
0.32320684 -0.218467 -0.008790908 -0.13380674 0.4145423 -0.14976047 0.1384904 -0.24283594
0.49642164 -0.015623599 -0.1902074 0.3218902 -0.011336804 0.10470246 -0.15007201 0.10818878
0.30494118 0.27642393 0.07675571 -0.018233726 -0.52215844 -0.52610624 0.1643686 0.30890226
-0.27737623 0.23770654 0.025867809 0.014723233 -0.11759429 0.11340284 0.091887034 -0.26759222
0.22444586 0.17295028 -0.10735823 0.3430263 -0.18003017 -0.53112155 -0.23781735 0.08196948
0.07514884 0.27787706 0.10448694 -0.31566262 0.124755785 -0.23119493 -0.10703674 0.0028359916
-0.23992972 0.20634136 -0.30601725 -0.042343676 -0.29238522 0.27637845 -0.21563269 -0.006058736
-0.42964014 0.10810973 0.10280401 0.37708312 0.38577577 -0.05970747 -0.07452017 0.19884041
-0.46344492 0.55627817 0.012675646 0.11642653 -0.39101887 -0.15991722 -0.020888427 -0.05500179
-0.027836023 0.01674197 0.052900366 -0.08168167 -0.122732535 -0.04539373 0.09463852 0.027587363
-0.28329673 0.017599538 0.038975433 0.12284542 0.1338849 0.27096993 0.47367248 -0.08140879
0.23082054 0.036508072 -0.24405068 0.045849975 0.16012473 0.2726807 -0.20097096 -0.084217496
0.16643068 -0.2422051 -0.19166383 0.1233822 0.07365429 0.30558512 -0.5320479 -0.21238299

network_body.observation_encoder.processors.0.dense.0.bias f4 [128]
00000000: a3c3 053d ff95 073d bde3 a53c ca9e ae3b
00000010: 1fde 2a3c aef1 983c 2a20 013d 3ce1 46bc
00000020: bf22 e93b 96d7 953c 2d3f 893c db7b f83c
00000030: a51c 593d 8cb3 9dbc 03b8 b73c 03c3 88bc
00000040: cab5 a53c 7e07 c43c c33f 86ba 7814 143d
00000050: 42b9 f13c 62e7 ed3c f0c9 243d d4c6 543d
00000060: 266b fb3b 0d40 aa3b 6412 eb3c 2cb0 513d
00000070: 9a33 a13c e4b6 41ba 92c5 b73c c248 473c
00000080: 448a e43c df71 013d 96aa 8d3c 82ec f23c
00000090: e9ff 0c3d 2c48 8b3c 908e 103d a340 053d
000000a0: 92ae a73d 52ea 693c 14a4 f53c 51c4 9b3d
000000b0: 3bcf ca3c 9d3e 313a 29c3 393d 51cc 243d
000000c0: b2e3 0c3d 546f b2b7 b33a ad3c ea21 773d
000000d0: 251d 29bb 29b6 2cbb 7b90 363d ad7a b33c
000000e0: 26f5 273d 4c92 183d 33c2 eb3c 8502 283d
000000f0: 9a3f 57bc ab46 ea3c ff56 873c d528 04bc
00000100: f130 813c 24ce 913a 7769 843c 283c c3ba
00000110: 74f0 7a3c f4f3 213c 084e b93c 02d8 5a3c
00000120: 1285 d33c 592c 693c e9c6 063c 81ab 173d
00000130: 2535 1f3d 3548 5dbd 3068 833c b193 773d
00000140: 46f7 d7bb 509c 1abc 9c17 263d dfe9 443d
00000150: 9ed3 2fbc 56c5 a1bc 0155 8f3c 635b b23c
00000160: 5cd1 cc3b b775 24bb 63cb 193c 3143 f6bc
00000170: adf8 1a3d 3894 073c a1f5 2aba 10e7 1f3d
00000180: 056f 94bc 8186 763d d09e 0a3d 064a d83c
00000190: 6372 7e3c d263 2c3b 4047 3ebb c4e0 1a3d
000001a0: 7810 25bc f979 1c3c 7d01 1b3d 26bd fa3c
000001b0: 69f8 633c bf5f 063b 98b3 293d 4085 703c
000001c0: aeb8 d63c d1c7 b5bb 0fc0 c3bc a771 063d
000001d0: 11d1 3d3c 7612 083c b068 6c3d 1ce6 063d
000001e0: 2d8b 90ba 6081 b5bc 3256 483d 1535 ca3c
000001f0: a62c 683d 93fc b33c 6d0c ad3c 6619 2e3d
0.032657277 0.03310203 0.020250196 0.0053289877 0.010428934 0.01866993 0.031524815 -0.012138661
0.0071147378 0.018291276 0.016753757 0.030332496 0.053005833 -0.019250654 0.02242661 -0.016694551
0.020228285 0.023929354 -0.0010242391 0.036152333 0.029507283 0.029040996 0.040231645 0.05194743
0.007672685 0.0051956237 0.028695293 0.0511934 0.019677926 -0.00073896185 0.022433076 0.012163343
0.027897961 0.031602737 0.017293256 0.029653791 0.034423742 0.017002188 0.03529221 0.032532346
0.081875935 0.014277058 0.029985465 0.07605804 0.024757018 0.0006761344 0.045352135 0.040233914
0.034396835 -2.1271095e-05 0.021146154 0.060335077 -0.0025804725 -0.0026353693 0.04457138 0.021909082
0.041005276 0.037248895 0.028779125 0.041018028 -0.013137722 0.02859815 0.016520975 -0.008066376
0.015770407 0.0011124057 0.01616357 -0.0014895247 0.015316118 0.009884823 0.022620216 0.013357164
0.025820289 0.014231765 0.008226135 0.037028793 0.038869042 -0.05402394 0.016040891 0.060443584
-0.0065907566 -0.009436682 0.04054986 0.0480746 -0.010731606 -0.019747417 0.017496588 0.021772092
0.0062505435 -0.0025094578 0.00938687 -0.030061336 0.037834812 0.008275084 -0.0006521587 0.039038718
-0.018119344 0.060186867 0.03384286 0.026402485 0.015530202 0.0026304615 -0.0029034168 0.03781201
-0.010074727 0.009550565 0.037843216 0.030607771 0.013914206 0.0020503846 0.04143104 0.014680207
0.026211109 -0.0055475016 -0.023895292 0.03282323 0.01158549 0.008305183 0.057717025 0.032934293
-0.0011027806 -0.022156417 0.048910327 0.024683515 0.056683205 0.021971023 0.02112409 0.04250469

network_body._body_endoder.seq_layers.0.weight f4 [128, 128]
00000000: c5cd a33d 10cf b7bd 57ab 5f3e 002e dabd
00000010: 5380 c63c 8c38 cfbd e611 173d 59b3 d53d
00000020: f6a0 223e 2dbb a1bd 6c71 8b3d ae0e 073e
00000030: 6c34 aa3d 052e 78bd f53f 89bc f162 6fbc
00000040: d6b2 593d a34e c63c 41b3 debc 3f5d 5a3e
00000050: 2eb1 d83d 3480 9f3e dd76 0a3e 7149 403c
00000060: 2d0d cf3c 7677 febc 0c2c 903d 478c 443e
00000070: 5857 5db9 8f3a 963d 091e b6bd 7a40 df3c
00000080: 6485 d2bc 8c97 c43d 212e c0bd 141a 31bd
00000090: 19d7 41bc 744b 93bd 3fca 623e 5e5f 2dbe
000000a0: 90aa 13bd 6b9f b13e 7f49 303d 125b 8c3d
000000b0: 0421 bcbd a20f 753d 3271 6cbd db5b 6dbd
000000c0: bfcb 61bd 83ee abbd 7426 d6bd 172c 4c3e
000000d0: 0a4e 953d dd94 e2bd a10c 0a3e 0946 703e
000000e0: 8e37 a0bd bcae dc3d ea7c 98bd f201 cd3c
000000f0: 9378 f43d 56d5 cfbd bd53 f23d f1f0 acbd
00000100: 747d 2bbd ecf2 883d 3b09 12bd 0b02 e93c
00000110: dce6 913d 000e 363d 0946 f03d 1893 a23c
00000120: 7a3f 36be b98b bcbd 01a9 803c 792b 613d
00000130: b158 ee3d 36c3 5fbe 82c1 dc3d 12b5 78bd
00000140: 892d 0abe f9c6 9d3d 0db7 9e3d 4b35 913c
00000150: 9157 7f3c 222b 93be d814 e2bc 1e31 b03b
00000160: d8e0 90bc c23e 413e 8e93 1e3e 6f64 c5bd
00000170: 03fd bfbd c270 953c 1c18 123c f468 1ebd
00000180: b1fd 94bd 51cf cf3d 2171 23bd 436b 073e
00000190: fe0a 1e3e b8d5 debd c145 7a3e 6200 943d
000001a0: e540 c3bd 8b7c 3a3d b58c 213d 7cf0 a93b
000001b0: a284 173d b057 adbd f523 093e b2f7 d8bd
000001c0: 1aa2 f53d e390 85be c81b ac3d a926 f3bd
000001d0: 2699 8dbd 1416 5b3b af3c 543d 0130 833e
000001e0: 0c5b 81bd f525 09be 76a7 803d a641 c13c
000001f0: a5cc 6b3d ab17 563d 34aa 033e 9a7d 2cbd
00000200: aa6d a0be c42c 563e 9e71 4cbd f5f2 8f3d
00000210: bb40 1cbd a93b fe3d 114f d93b 8537 3a3c
00000220: 478a 013d 53ff e73d 6440 763d e6a1 99bd
00000230: 7609 f3bd 8eba 743b 0406 f5bd ec02 a33c
00000240: e44a 0c3e ba4a 603e f4f8 853d 1df0 bfbe
00000250: bd4c 113e 05e6 0fbd 1a7a 8e3c 74d7 5abe
00000260: 4615 193d 0353 113d 5464 1fbd 9b06 94be
00000270: 2825 1fbe b4a8 033e b329 ff3d de72 cc3c
00000280: ed78 f0bd 26e6 0dbc ed2c 58bc 04a1 12be
00000290: 4106 20bc 6053 c6bd a187 3b3d 287b 5b3e
000002a0: 16f8 db3e 9f6b 98bd 1a18 933d 24a2 0ebe
000002b0: a212 913d 9f44 0dbe 202f 16be 5218 6c3e
000002c0: a236 81bc b34f c03d c42c 843d e19e 04bd
000002d0: e620 2a3d 6afa d1bc 4c7c b03d 0552 953d
000002e0: a805 1dbd eec9 91be e0bd f73d ba99 5ebc
000002f0: 50e8 79bd 801c 633d 5a43 debd f9d4 c23d
00000300: fcc9 243d 91cc 9bbd f14f 323e fcab 53bc
00000310: e13d 96bd 208e 113e 2595 48be 36a7 ecbd
00000320: 90b0 433e 610c 613d 5089 44bd 468f 1d3a
00000330: 43dc 783d 199a 1f3e 1967 bb3c f4b1 f7bd
00000340: 95b5 96bd c8e4 073d 57ba f8bb d9af 303e
00000350: 03e2 633d f87d 243e 469f 1abd da3b 1b3d
00000360: 57a0 c1bd 3360 9abd 845a c53c 33c8 bfbd
00000370: 4bcf 933b 5249 50bc 529b ef3c 0cd0 0fbe
00000380: e3ec a5bd 5d2e 08be 3ba4 3a3d 92fd 213b
00000390: fdc9 c9bd 38ca 3b3d c99d 8d3d cd7c 0bbe
000003a0: e1c8 ad3d 2511 523d 3063 22bd bb83 783e
000003b0: caac 6fbc 4f3d 18bd 5c6f 00bc 215c 11bb
000003c0: 5a75 4abe fde7 a83d ab6b 31be 6243 42be
000003d0: 6e3a c13c 1e8d e1bc 684a 3ebc 4790 debd
000003e0: 0386 4e3e b5c7 f13d dbb5 2a3e 874c f5bd
000003f0: e620 4ebe c388 60be 0ff7 3a3c 6864 263b
0.07998232 -0.08975041 0.21842705 -0.10653305 0.024231112 -0.10118207 0.036882304 0.104345985
0.15881714 -0.07897029 0.06808743 0.13189194 0.0831078 -0.060590763 -0.01675413 -0.014610992
0.053149067 0.024207419 -0.027185084 0.21324633 0.10580669 0.311525 0.13521905 0.01173626
0.025274837 -0.031062823 0.07039651 0.19194137 -0.0002110874 0.07335388 -0.088924475 0.027252425
-0.025698371 0.09599218 -0.093837984 -0.04323776 -0.011831068 -0.07192126 0.22147463 -0.16930911
-0.036051333 0.3469194 0.04303884 0.06853308 -0.09185985 0.05982936 -0.05772514 -0.05794893
-0.055125948 -0.08395102 -0.10456553 0.19938694 0.072902754 -0.1106355 0.1348138 0.23464216
-0.07823096 0.107755154 -0.074457005 0.025025342 0.1193706 -0.101481125 0.11832378 -0.084443934
-0.04186769 0.06686959 -0.035653334 0.028443357 0.07124111 0.044446945 0.11732108 0.01984553
-0.17797652 -0.092063375 0.015705587 0.0549731 0.1163801 -0.21851811 0.10779096 -0.060719557
-0.13493933 0.07703967 0.07749758 0.017725607 0.015584842 -0.28743845 -0.02759783 0.005376949
-0.017685339 0.18871596 0.15485975 -0.09638297 -0.0937443 0.018242244 0.008916881 -0.03867431
-0.0727495 0.10146964 -0.03990281 0.13224511 0.1543388 -0.10880607 0.24440672 0.072266355
-0.09533862 0.04552893 0.03944083 0.0051861387 0.036991723 -0.08463991 0.13392623 -0.10594119
0.11993809 -0.26087102 0.08403736 -0.11872608 -0.06913976 0.0033429908 0.051815685 0.25622562
-0.06316194 -0.13393386 0.06281941 0.023590874 0.05756821 0.052268665 0.12857896 -0.04211197
-0.31333667 0.20915514 -0.04991304 0.07028762 -0.03814767 0.12413723 0.00663174 0.011365776
0.031626012 0.11327996 0.06012 -0.07501583 -0.11867039 0.003734264 -0.11964038 0.019898854
0.13700444 0.21903506 0.06541625 -0.3748788 0.1418943 -0.035131473 0.017392207 -0.21371251
0.037373804 0.035479557 -0.03891404 -0.2891129 -0.15541518 0.12857324 0.12459125 0.024957117
-0.11741815 -0.008660829 -0.013194305 -0.14319235 -0.009767116 -0.09683871 0.045783643 0.21433699
0.42962712 -0.07442402 0.071823314 -0.13929039 0.07083632 -0.13795708 -0.14666414 0.23056152
-0.015773121 0.093902014 0.06453851 -0.03237808 0.04153528 -0.025632102 0.08617458 0.072910346
-0.038335472 -0.28474373 0.12096763 -0.013586456 -0.061012566 0.0554471 -0.1085269 0.095132776
0.04023169 -0.07607377 0.17413308 -0.012919422 -0.07336021 0.14214373 -0.19588144 -0.115553305
0.19110322 0.054943446 -0.047982514 0.0006010424 0.060756933 0.15586127 0.02287631 -0.12094489
-0.07358853 0.033177167 -0.007590573 0.1725458 0.055635463 0.16063678 -0.03774955 0.037898876
-0.094544105 -0.0753788 0.024091013 -0.09364357 0.004510795 -0.012712793 0.029248867 -0.14044207
-0.08101823 -0.13298936 0.04556678 0.002471779 -0.09852979 0.045847148 0.06914861 -0.13621826
0.0848558 0.05128588 -0.039645374 0.24269001 -0.0146285985 -0.037167843 -0.00783905 -0.0022180157
-0.19771329 0.08247373 -0.17326228 -0.18971017 0.023587432 -0.02753311 -0.0116144195 -0.108673625
0.20168309 0.11805669 0.16670935 -0.11977487 -0.20129737 -0.2192717 0.011411442 0.0025389437

network_body._body_endoder.seq_layers.0.bias f4 [128]
00000000: d1cc 013d ba8d 11bc 951e 833c a902 c53c
00000010: 60c5 243c e5be ff3b a80b 153c 39e6 753c
00000020: 382f 3d3b 7148 2a3c 4570 bc3c d04c 1c3c
00000030: b88f 263d 1bc8 873c 92b9 5f3c bbe0 c6bc
00000040: bcee 7f3c c963 ca3c 02c5 f63b e407 b2bb
00000050: 1fcd b1bc f801 753c 4f79 453c 5621 bf3c
00000060: 879c 0e3d 7f72 cf3c ddbf 5b3c ae54 aa3c
00000070: e799 9a3c d810 e53c a30c 353c 1e29 403c
00000080: 88fa b33b acc2 0d3b 429c adbc cb6f 4e3c
00000090: a236 49bc 044c 23bc 23a2 f3bb c7d2 833c
000000a0: b3ef a03c 8fea bc3c b7ea 79ba 1b30 0d3c
000000b0: bb20 3b3c 535d cabc 04c1 fdbb 0d49 06b9
000000c0: 8829 9c3c eebf 94bb 0b48 753c c3f6 163c
000000d0: 6c84 423d 6d4e 25bb 52d6 a53c eaa9 e1b7
000000e0: 6223 123c 0e42 063c 4012 113c 703d cd3c
000000f0: 2b3b 4c3d 8068 643c 2b24 a43c 327a 4a3c
00000100: 694e 803b e057 d93a ad65 6e3c fdab 123b
00000110: 6113 e73c 7da2 823c d9e1 933c 7551 bd3c
00000120: b6a5 12bc 5041 b53c 8b1f 803d abf4 8bbc
00000130: 8f0b bcbb 5d7f d9bb 7633 103c 6706 b33c
00000140: 82d5 20b9 56a3 f83c 78a0 8e3c c8b0 c33c
00000150: 4790 a33c f1a1 f93c e5e4 1c3d a225 eebb
00000160: 525e 383b 3e6c d43c 832e dd3a a03f a3b7
00000170: fc38 e3bb 99df aa3c d985 e7bc d18a 36bc
00000180: d4f1 78bb e9b7 ee3b 703e d33c 08ea 8fbc
00000190: e484 f73b 4544 74bc af96 103c acb3 a53c
000001a0: d1ca 823c 8554 4d3c e6de efbc 09f9 583c
000001b0: f1b3 cb3b 2985 a03c bbf7 973c bccd b23c
000001c0: 39fd 833c 1032 e8bb def5 b5bc fe02 113c
000001d0: 48fe 993b fe26 b63c 86de 813c 5587 c73c
000001e0: 587c 31bb c719 77bc a19c 7f3a 2498 9f3c
000001f0: 94dd f13c 5818 9a3c 9014 0d3d cf5d bc3c
0.03168947 -0.008883888 0.016005794 0.02404912 0.0100568235 0.007804739 0.009097017 0.015008503
0.0028867256 0.010393248 0.023002753 0.009539798 0.040664405 0.01657491 0.013655083 -0.024277082
0.015620884 0.024705784 0.0075308094 -0.0054330695 -0.021704255 0.014954083 0.012052848 0.023331326
0.034817245 0.02532315 0.013412443 0.020792332 0.018872214 0.027962133 0.011050376 0.011728553
0.005492512 0.0021630926 -0.021192674 0.012599896 -0.012281092 -0.009966854 -0.0074350997 0.016091717
0.019645547 0.023061065 -0.00095335714 0.008617426 0.011421378 -0.024702704 -0.0077439565 -0.0001280645
0.019062772 -0.0045394814 0.01497079 0.009214106 0.04748957 -0.0025223747 0.020243797 -2.6901213e-05
0.008919569 0.00819446 0.008854449 0.02505371 0.049861114 0.01394093 0.020036777 0.012358235
0.003915597 0.0016581975 0.014550609 0.0022380345 0.028207483 0.015946621 0.018052028 0.02311013
-0.008950641 0.02212587 0.06256016 -0.01708444 -0.0057386826 -0.0066374973 0.008801332 0.021853639
-0.00015338327 0.030351322 0.017410502 0.023888007 0.019966258 0.030472727 0.03830423 -0.00726767
0.002813239 0.02593052 0.0016874823 -1.9460742e-05 -0.0069342833 0.020858573 -0.028262066 -0.011141495
-0.0037985938 0.0072851074 0.025786608 -0.01756765 0.0075536836 -0.014908855 0.008824988 0.020227276
0.015965851 0.012532358 -0.029281091 0.013242968 0.006216519 0.019594746 0.018550744 0.021826617
0.016111957 -0.007086046 -0.022211965 0.008850811 0.004699502 0.02223539 0.015853178 0.024356524
-0.0027082171 -0.015081829 0.00097508176 0.019481726 0.029524602 0.018810436 0.034443438 0.02299395

network_body._body_endoder.seq_layers.2.weight f4 [128, 128]
00000000: 70a9 acbd 5e07 09be 831f f0bd fdcc 413e
00000010: 509e 043c 2228 ec3d f3f0 7ebe 46d3 9f3d
00000020: ca3f 0e3d 1546 3f3d 04ab e9bc 2354 193e
00000030: 72a2 a2bc a6af d33c 9171 32bd 097b c4bb
00000040: a9bf 0c3c 96d7 c4bd 9aed b73d ee2b c83d
00000050: 294c 163d 0571 cb3c 2a0d 183e 1c9b 3a3d
00000060: 5cd7 1a3e 54b6 fb3d 1209 30be b80f fd3c
00000070: 0849 843d 6cdc df3c 6457 16bd 6350 5fbe
00000080: c37d d4bd 889b 313d 1ef0 fabd af1b dbbd
00000090: 0a22 83bd 5695 ec3d 605d 96be a623 003e
000000a0: 163b 9c3e e2c9 4d3d bb88 fd3d 4e90 17be
000000b0: c6f8 073e 0369 edbd a14a d73b 33a6 b73d
000000c0: 7fbb 543e 145d 5cbd 7599 f93c 3c6d cabd
000000d0: c3c6 9cbd 21bd 2ebe adc8 39be 4d39 033e
000000e0: 15e5 1e3e 701e 253e a251 28bd 011a 61bd
000000f0: b89a 15be 3ff5 28be 9212 9abd 0879 36bd
00000100: c84f 11be 8052 dd3b 3e9f 0039 1eb2 10bb
00000110: 042d 76bd bd92 6f3e 24a7 17be 31e0 7d3c
00000120: cae1 783c a891 763d 6a54 00be 865a 27be
00000130: d3da 013a 287e 95be e429 d53d 98f1 20bd
00000140: dcf2 6bbe d8db febc b391 85bd f4b2 033e
00000150: 7e86 da3d 8548 3fbd 93c9 0f3e 8f61 efbd
00000160: 4abb 05bd 7023 46bd 41ec b43c 1a45 23be
00000170: 7f52 7cbd 20c6 acbd 04c0 00be e12f 773d
00000180: ec7a ccbd 5c36 0abd aa75 a33d b5c4 bb3d
00000190: 9cad 12bd 18f9 9a3d 16cb b03d be45 51bd
000001a0: 197c d2bc c593 823e cabd 24bc de90 9c3c
000001b0: 54f4 d33d e35d 10bd 0de4 5dbc 3425 cb3d
000001c0: 21ed 1b3e 0013 b1bd dbb0 6a3d 2abc 513d
000001d0: 03db 90bd d188 6fbe 77e0 2bbe 607a 3b3d
000001e0: e7fb b33d 28f1 903d 7339 b9bc 8d8b 0dbe
000001f0: 22fd 993d d11b c23d 01f1 18be 2962 b6bd
00000200: e57d 2cbe 9a2e 263e 91b5 74be db04 eb3a
00000210: 27dd 153e e0ee c43d ae84 ab3d f35c 893a
00000220: 02d5 953d aca3 8c3d c6e8 dc3d f26a d239
00000230: 513d 85bd 55c5 b2bd 8a40 d43d fbb2 fc3d
00000240: cdc8 d13d 43db 783c 9680 12be 34d1 acbd
00000250: e6e5 0abe 25a6 883d 54d3 f93c 1772 27be
00000260: 83ca cbbd a004 133d 66ac 0f3d b5e9 27bd
00000270: dbb0 ee3d 62cc 9abe 12d5 c4bb 4180 d03c
00000280: e3b8 9cbc ab8e bd3c b4d5 09be 7d4d 2c3d
00000290: 31f9 063e d644 8fbc 9ea6 0d3e db3b 113d
000002a0: 5b5b 9abd f720 55bc 779d 35bd 94fe 163e
000002b0: 3bb3 cb3d 01a0 923d 855f 1d3e f5da 373d
000002c0: af17 43bd ae48 99bd 5d88 96b8 aacb 693e
000002d0: 0cb2 63bc 7218 8a3d 0ac4 8fbd b192 66be
000002e0: 6cee cbbd 471d 13be 9800 8ebc 356b 6ebe
000002f0: 48ef 11bc 5708 8fbd 213c 24bd 28c6 ba3d
00000300: e21d 40bc 18d3 3a3e a7a3 c63c ffac 89bd
00000310: 1938 cd3b 080d 24be 47a6 43bd 5d50 37be
00000320: e1ae eebd 6ac0 bc3c 9628 633d 0379 903d
00000330: 0586 dabd 5ed1 423d 417e 8cbd 51fd b23d
00000340: 4af9 3f3e c0a9 a5bd 6fa3 27be af63 1dbe
00000350: 70da 99bd cdea 0abe d877 58be 46d8 083e
00000360: cc95 83bd 69ea 503d 3f30 87bb f80a 0b3e
00000370: 8857 2f3e 1250 5c3d da64 c53c 7b38 e33d
00000380: a236 ce3d cd25 d43d 3297 06be 9e13 4dbd
00000390: 5100 9e3d 4eef 3bbc da4d 113e 62b0 843d
000003a0: 7084 04be 982f 163d 5f32 973c 9271 a8bd
000003b0: 7f36 cc3c 0d32 cebc ac1a 9a3d ee5c 9cbd
000003c0: 5318 43bd 31ad ad3b 5140 9abb 23fb 41be
000003d0: 5d8d 1d3e b5d0 0c3d 01d8 6e3e 09a7 8a3d
000003e0: 68e8 aebc cf6d 6f3e 0b78 873d 1c16 b3bd
000003f0: 4d46 c6bd 51a6 85be 4d73 023e 4add cdbd
-0.08430755 -0.13381717 -0.117247604 0.18925853 0.008094385 0.11531092 -0.24896602 0.07803969
0.034728803 0.046697695 -0.02852393 0.14973502 -0.01985285 0.025840592 -0.043565337 -0.0059961122
0.008590617 -0.09611432 0.08980866 0.09774004 0.036693726 0.024834165 0.14848772 0.04555808
0.15121216 0.12290636 -0.1719096 0.030891284 0.06459242 0.027326785 -0.036704436 -0.21808009
-0.1037555 0.043361217 -0.1225283 -0.106986396 -0.06402977 0.11551921 -0.29368114 0.12513599
0.3051383 0.05024136 0.12379595 -0.14801142 0.13278493 -0.11592295 0.0065701758 0.08967247
0.20774649 -0.053799704 0.030468682 -0.09884116 -0.07655098 -0.17064334 -0.18142958 0.12814827
0.15517075 0.16124892 -0.041093476 -0.05495644 -0.14609802 -0.16499804 -0.07523073 -0.04454902
-0.1419059 0.0067542195 0.00012266354 -0.0022078822 -0.060101524 0.2339582 -0.14809853 0.015495346
0.015190551 0.060197502 -0.12532201 -0.16343126 0.0004953567 -0.29197812 0.10408381 -0.0392929
-0.23041862 -0.031110689 -0.065219305 0.12861234 0.106701836 -0.04670002 0.14041738 -0.1168853
-0.032649316 -0.04837364 0.02208531 -0.15944329 -0.061602112 -0.08436227 -0.12573248 0.060348395
-0.09984383 -0.033743247 0.07981427 0.09168378 -0.035810098 0.07567042 0.086324856 -0.051091902
-0.02569394 0.25503364 -0.010055015 0.019112047 0.10349336 -0.035245787 -0.013543141 0.09919205
0.15227176 -0.08646202 0.05729757 0.051204838 -0.07073023 -0.23392035 -0.16784845 0.045771003
0.08788281 0.07077247 -0.022610402 -0.13822766 0.075189844 0.09477962 -0.14935686 -0.08905441
-0.168449 0.16228715 -0.23897387 0.0017930524 0.14635144 0.09615874 0.08374916 0.0010479972
0.07316019 0.068671554 0.107865855 0.00040134002 -0.06505836 -0.08729044 0.10363872 0.12338825
0.10243378 0.015188995 -0.14306864 -0.0843834 -0.13564262 0.066723146 0.030496277 -0.16352116
-0.099507354 0.035893083 0.03507652 -0.040994365 0.11654826 -0.30234057 -0.0060068453 0.025451781
-0.01913113 0.023139318 -0.13460428 0.042066086 0.13180996 -0.017488878 0.1383309 0.035457473
-0.07536956 -0.013008348 -0.044339623 0.14745551 0.09946295 0.071594246 0.15368469 0.044886548
-0.04763001 -0.07484566 -7.177957e-05 0.22831598 -0.01389743 0.06742944 -0.07019813 -0.22516896
-0.09957585 -0.14366637 -0.017334267 -0.23283084 -0.008907147 -0.069840126 -0.040096406 0.091198266
-0.011725875 0.18244588 0.024247957 -0.067224495 0.006262791 -0.16020596 -0.047765996 -0.1790175
-0.11654449 0.023040969 0.055458628 0.07054331 -0.106700934 0.04756295 -0.068600185 0.087397225
0.1874744 -0.08089018 -0.16370939 -0.15370058 -0.07512367 -0.13566132 -0.21139467 0.13363752
-0.06425056 0.0510048 -0.0041256244 0.13578403 0.17123234 0.0537873 0.024095941 0.11094757
0.10069014 0.103587724 -0.13143614 -0.050067537 0.07714904 -0.011470629 0.14189854 0.06478955
-0.12941146 0.036666483 0.018456636 -0.08224787 0.02492833 -0.02517035 0.075246185 -0.076349124
-0.04763062 0.005300187 -0.004707374 -0.18943457 0.15385957 0.034378726 0.23324586 0.06770141
-0.021351054 0.23381732 0.06614693 -0.087444514 -0.096813776 -0.26103452 0.12739296 -0.10051973

network_body._body_endoder.seq_layers.2.bias f4 [128]
00000000: 5ac9 173c 39dc 46bc a248 cb3c c06b 623a
00000010: 9b92 51bc 714b 53bc 1eaa 00bb 6deb ab3c
00000020: 2684 963c 118a b4bb a66d 193d b12f 12bc
00000030: aa72 873b c7c7 d43b 8d98 39bc f64e ea3b
00000040: 7890 16bc 72ec 44bc 7d98 c0bb e3c2 253d
00000050: 8fec 9c3c ab43 29bc 0bfc 3d3c 8d31 60bb
00000060: dbeb e8ba ec46 0c3d d3c9 f63b 423b d0bb
00000070: a949 c53c e7e1 90bc 57a2 7dbc 721c e63c
00000080: 43e5 fabc 4aa8 d9bc a624 f63b 2351 a83b
00000090: 979f 563c 731c a23b 66a9 06bb a14e bb3a
000000a0: fc55 df3a 14cb b2b9 a978 bb39 2feb 99bc
000000b0: 7646 243d e0dc 61bb 49a9 7bbb 1149 d33b
000000c0: fe9f 00bc 6ac6 a53c b0f9 c3bb a6dc 193a
000000d0: 1647 a43d 129c 1d3c abc8 30bc 17fc b2bb
000000e0: 7c8c 65ba ff31 a639 90f2 503d 0f22 443c
000000f0: aa12 98bb 2d18 45bc 62b2 bebb 8714 b6bc
00000100: 232a 33b9 8f30 a93b 9d0d 133d dcf1 e1bc
00000110: cb0b bc3b ec83 863c 1abc 3d3c 996d ecba
00000120: ab0e 16ba 145d b13c 3072 163b 401c 4d3b
00000130: 38c7 efbb 793c e6bb 89f5 9f3c 3701 983c
00000140: fc76 c33b 526c d7bc cf9a 92ba 89eb 38bc
00000150: ebff 803c 2f95 07bc 1e39 653c 3ec3 05bd
00000160: 2f42 d1bc a7f7 b5bb f659 94bc 6cbe f73c
00000170: e26b 97bc f852 63bc bd45 4bbc 5c7e 7bbc
00000180: 41ad 4a3d 1714 483d ae1a d6bc 7317 ce39
00000190: c5d7 ce3d bf4f ea3c 5e19 37bc 8f19 c43b
000001a0: 8318 8e3a c4e4 e73b ac18 fe3b c3cf 333a
000001b0: 4dde 8d3d d548 873b 7711 ce3b f76b 84bc
000001c0: 1549 073d 1937 e93b eadd 44bc 876b 2cbc
000001d0: ab22 193c 6a99 b7bb f350 e2bb 76ec fb3c
000001e0: 8581 c6bc 1189 1ebc 83a6 133c a642 2b3b
000001f0: 1c9f 95bb 2049 d73b 251b 44bc 8218 953c
0.009264315 -0.012137466 0.024814907 0.0008637272 -0.012791301 -0.012896405 -0.0019632648 0.020986283
0.01837356 -0.005509623 0.037458085 -0.008922503 0.004133542 0.006493542 -0.011327875 0.007150526
-0.0091897175 -0.012019264 -0.005877553 0.04046906 0.019155769 -0.010331075 0.011595736 -0.0034209222
-0.0017770486 0.034247324 0.0075313835 -0.0063547203 0.024082975 -0.017685844 -0.015480599 0.028089736
-0.030626899 -0.026569504 0.007511693 0.0051366254 0.013099573 0.004947239 -0.0020547747 0.0014290401
0.0017039175 -0.0003410211 0.00035757318 -0.018788902 0.04010626 -0.0034463927 -0.0038400462 0.006447919
-0.007850645 0.020236213 -0.005980693 0.0005869366 0.08021371 0.00961973 -0.0107900305 -0.0054621804
-0.00087565905 0.00031699237 0.051012576 0.011971011 -0.004640897 -0.01202969 -0.0058196047 -0.022226585
-0.00017086467 0.0051632593 0.035901655 -0.027581148 0.0057387105 0.016420327 0.011580491 -0.0018038034
-0.00057242316 0.021650828 0.0022956245 0.0031297356 -0.00731745 -0.007026252 0.01952626 0.018555267
0.005965112 -0.026296768 -0.0011185053 -0.011286625 0.015747031 -0.008275314 0.013990669 -0.0326569
-0.025544254 -0.005553204 -0.018109303 0.030242167 -0.01848406 -0.013874762 -0.012406764 -0.015349951
0.049481634 0.048847284 -0.026135769 0.00039308853 0.100997485 0.028602479 -0.011175482 0.005984492
0.0010841045 0.0070768315 0.007754406 0.0006859267 0.06927166 0.0041285553 0.006288703 -0.016164763
0.03302868 0.007117164 -0.012015799 -0.010523683 0.009346644 -0.005603005 -0.0069066226 0.030752402
-0.024231682 -0.009676234 0.009011867 0.0026132255 -0.0045660865 0.0065699965 -0.011969362 0.018200163

action_model._discrete_distribution.branches.0.weight f4 [5, 128]
00000000: 8cea 0c3c 2c8c cf39 e83f 46bc 8671 a9bb
00000010: 9bea a23c f55c c13a 1eb2 1dbc 5851 d3bb
00000020: d1c1 f1bc bfea 6c3b f9be 65bc 2b0a 163d
00000030: ef7e 66bc 7c9a 68bb 35a0 313d 74f7 a33c
00000040: d030 223c 33fc a43c ed7a 223c ee0d 5fbc
00000050: 0c6d 6639 70de a93c dd65 623b 0879 773c
00000060: 8a66 c9bc 54c1 e3bc 3aa8 a33a e211 003d
00000070: 585d 05bb b276 e73b fab4 7b3c 9f51 48bc
00000080: 1e8c 233d 4635 f83c 724a 293c 3e1c b8bc
00000090: 30b8 55bc b19c 183c 89cc febb d46c 1cbb
000000a0: 02d6 9cbc 6b32 80bc 6057 3a3b 789c 113c
000000b0: 349d 0fbd a276 da3c bd61 f3bc 8a58 b4bc
000000c0: 1689 863c 8e5b 46bc 9fb6 5d3b 2187 1e3c
000000d0: aeac 1abd 2994 bdbc cdba 56bc e33a 9d3b
000000e0: 4ac6 d3bb d6a0 32bc 2e94 1bbd a9b8 1dbc
000000f0: 2956 833b 8df0 9f3c b362 4cba 35dc 6c3c
00000100: 5e60 623c d37a 79bc 41a8 09bd c481 2c3c
00000110: 7bae a83a d75d efb8 d8e8 abbb 4021 fabb
00000120: 933d d0b9 70b0 acbb ab05 3cbc f105 a03c
00000130: 9a7d b63c 78b5 c13c 9145 713b bf8e fdbc
00000140: ce9f 0b3b 4654 aa3c 7726 103c 64f4 1d3d
00000150: 974c ae39 89e6 a23c feba 18bd 4de2 063d
00000160: 8c58 f63b 618e adbb 643c d03c 44e3 e5bc
00000170: 8d9d e7ba 1655 8ebc dc22 e03c 77d4 e63a
00000180: b604 50bd c9bf 37bd c044 093d 141d dcbc
00000190: ac1b 16bd ee8f 323b 46e1 db3a a3f1 56bb
000001a0: 0853 bebb 00e8 863c 3235 0a3c 4f09 77bb
000001b0: aee6 23bd 419c 8dbc 9518 debb 5092 813c
000001c0: 30cd 59bc ac67 6a3c 26c0 7c3c ed2f 0d39
000001d0: 0ef6 c83b f36e d13b 06c2 30bc f9ee 94bc
000001e0: 3ce3 dc3c 56dc 443c c0c8 debc 1aab cebc
000001f0: 8440 933c 8a95 eebb 569c ab3c b14c 18bc
00000200: 906e fa3b 6bbe 373a 39cd 25bd 58a7 cbbb
00000210: 4b00 773c c031 1c3c f8a6 ffbb 9dc0 b13c
00000220: 697c 28bc 7aaa 39b9 21f7 913b fa45 26ba
00000230: 7c6b 99bc f985 e33c f6f7 273a bf7d e039
00000240: c855 733c 0fc7 823c 85b7 9c3c 6ab1 66bc
00000250: b2d4 0c3c 54cf a63b 93b3 843a 2c56 523c
00000260: 3676 8f3b eb26 b73a 7077 d6ba 7953 adbb
00000270: 32c5 86bb 1253 473c 9b68 a2ba 05b1 d73b
00000280: f9ab 013c 3dca 733c c37b 19ba 15e9 34bb
00000290: 69be 69bc 9f06 793c 18e7 95bc bcac 2c3c
000002a0: 3eb3 aabc 94ff 49bc 90bf ea3b 9c5c 97bc
000002b0: 0650 c8bc 3c38 90bc 3d12 a43c db17 8fbc
000002c0: b928 34bc af79 6e3a def6 66bc 411e 4abc
000002d0: a015 79bc 8799 9ebc ad54 bdbc 828e d4bb
000002e0: 4356 dcbb 2f05 45bc eed2 65bc 9e76 f73b
000002f0: 9325 febc 1780 a23b a78d 92bc 4478 b8ba
00000300: a912 3d3c ac06 44bc 22a0 e23b 8576 7d3c
00000310: c1f3 f9bb 6823 233a 69bd 93bb 50b5 263c
00000320: 865d e9bc 8ccd d33a e022 4fbc 5692 b8bb
00000330: f95d 0aba 0d21 883c c29c 1d3b 4743 633c
00000340: 283f ac3b 6df9 903c bf5f 5f3c 7aaf 97bc
00000350: 0868 273c dd4c 1c3c 4123 13bd e619 a63c
00000360: 3242 253c e354 9dbc 92b2 ee3b 628a 71bc
00000370: 6c15 433b 2825 6b3c 1f25 82bb 3b2c 4a3b
00000380: da82 67bc ce37 32bc dbc8 1f3c 3cbe 65bb
00000390: 039c 0fbd a02a b0bb b31c 36bc af6d df3b
000003a0: 3bda 82bc bfbd 2dbc 17db 95bc 4361 653b
000003b0: 25da 8dbc 846f b03b 7d38 023c 37f2 ec3b
000003c0: 4226 08bd e838 83bb 2d69 bc38 bae2 9ebc
000003d0: d63b c93b a389 7d3c 8bec 0bbc 8f21 34bb
000003e0: 804c a13c 2321 7c3c c208 58bc 969a 29bc
000003f0: 25a8 c2bc 5194 c93b e44f 9f3b 39e7 e8bc
0.008600842 0.00039586553 -0.012100197 -0.0051710038 0.01988726 0.0014752435 -0.009624986 -0.006448906
-0.029511364 0.0036150662 -0.014022582 0.03663079 -0.014068349 -0.003549247 0.043365676 0.020015456
0.009899333 0.02013979 0.009917003 -0.013614161 0.00021975132 0.02073595 0.0034545579 0.01510454
-0.024585027 -0.027802147 0.0012486049 0.031267054 -0.0020349827 0.00706371 0.015362972 -0.012226491
0.039928548 0.03029884 0.010332691 -0.022474404 -0.013044402 0.009314702 -0.0077758473 -0.0023868578
-0.019145016 -0.015649041 0.0028433427 0.008887403 -0.03506203 0.026667897 -0.029709691 -0.022014875
0.01642279 -0.012106789 0.0033830774 0.009675772 -0.037762336 -0.023141937 -0.01310606 0.0047982796
-0.006462847 -0.010902604 -0.037983112 -0.009626546 0.004008074 0.019523883 -0.000779669 0.014456798
0.013816921 -0.0152270375 -0.033607725 0.010528985 0.0012869382 -0.00011413887 -0.005246263 -0.0076333582
-0.00039718728 -0.0052700564 -0.011475961 0.019534083 0.022276688 0.023646101 0.0036815146 -0.030951856
0.0021304968 0.020792138 0.008798233 0.038563147 0.0003324493 0.019885318 -0.037287705 0.03293066
0.00751788 -0.005296514 0.025419421 -0.02806247 -0.0017670855 -0.017374557 0.027360372 0.0017610927
-0.050785743 -0.044860635 0.03351283 -0.026869334 -0.036647484 0.0027246433 0.0016775511 -0.0032797835
-0.005808238 0.016468048 0.008435534 -0.0037694757 -0.040014915 -0.017286422 -0.0067778328 0.015816838
-0.013293549 0.014306944 0.015426671 0.00013464662 0.0061328476 0.0063914 -0.010788446 -0.018180357
0.026963823 0.012015423 -0.027195334 -0.025228072 0.0179751 -0.00728101 0.02094857 -0.009295628
0.0076425746 0.00070092705 -0.04047892 -0.0062150173 0.015075753 0.009533346 -0.0078018866 0.02169829
-0.010283568 -0.00017706482 0.004454509 -0.0006342825 -0.01872801 0.027773844 0.00064074935 0.00042818298
0.014851995 0.01596406 0.019130478 -0.014080385 0.008595632 0.0050906334 0.0010124318 0.012837928
0.0043781055 0.001397339 -0.00163625 -0.0052894917 -0.004112863 0.012165802 -0.0012390794 0.0065823817
0.007914537 0.01487976 -0.0005854929 -0.0027604748 -0.014266589 0.0151993325 -0.01829867 0.01053923
-0.020837422 -0.012329001 0.0071639493 -0.018476777 -0.02445222 -0.01760494 0.020028228 -0.01746743
-0.010996037 0.0009097112 -0.014096944 -0.012336315 -0.01520291 -0.019360317 -0.023111666 -0.006486715
-0.0067241504 -0.012025162 -0.01402734 0.007551982 -0.031023776 0.004959117 -0.01788981 -0.0014073928
0.011540093 -0.011964481 0.006916062 0.015470152 -0.0076279347 0.00062232325 -0.0045086634 0.010175064
-0.028486978 0.001615928 -0.012642592 -0.005632679 -0.0005278285 0.016617322 0.0024049734 0.013871021
0.0052565522 0.01769706 0.0136336675 -0.018516291 0.010217674 0.00953981 -0.035922293 0.020276021
0.010086583 -0.019205516 0.007284471 -0.014742466 0.0029767407 0.01435212 -0.0039717103 0.0030849117
-0.014130319 -0.010877563 0.0097524775 -0.0035056015 -0.035060894 -0.005376175 -0.011115241 0.006818495
-0.015973201 -0.010604321 -0.018292947 0.00350006 -0.017315933 0.0053843874 0.007948038 0.0072310227
-0.03323961 -0.0040045865 8.984129e-05 -0.019395221 0.006141166 0.01547471 -0.008540283 -0.0027485823
0.019689798 0.01538876 -0.013185682 -0.010351798 -0.023761818 0.006151714 0.0048618186 -0.028430568

action_model._discrete_distribution.branches.0.bias f4 [5]
00000000: d2f8 99bc d499 e6bb c1d2 6bbc 833a 8cbc
00000010: 08ae 663d
-0.018795405 -0.0070373807 -0.014393509 -0.017117744 0.056318313
