results/AttackerDefender_Skill1_v1/Attacker/Attacker-1999994.onnx (onnx, 891078 bytes, 17 tensors)

discrete_act_size_vector f4 [1, 2]
5.0 3.0
00000000: 0000 a040 0000 4040

network_body.observation_encoder.processors.0.conv_layers.0.weight f4 [16, 5, 8, 8]
0.031876005 0.030743847 -0.0044037723 -0.036027726 0.07270931 0.008090104 -0.009881703 -0.026147394
0.055137128 -0.024232903 0.00024494933 -0.024916688 0.032130588 0.0022348166 -0.022175433 0.023310937
-0.053654734 -0.025347106 -0.003418655 -0.03176638 0.020250617 0.058576524 -0.0061628046 0.025565421
0.04203263 0.07162818 -0.09403506 0.07504608 0.048025135 0.009580021 -0.021711385 -0.024333298
-0.012249134 -0.0051046656 0.00070467667 0.046560653 0.051057678 -0.063084245 -0.0041463794 -0.014729358
-0.004164767 -0.04623939 -0.05028324 -0.091725625 -0.057395637 0.017199507 -0.010304333 -0.011637168
-0.063364044 -0.031562798 -0.0624531 -0.015124324 0.057774033 0.04791718 -0.05496324 -0.09225349
0.052933317 -0.10142723 0.023820397 -0.016500497 0.07204405 0.14836177 0.025988316 0.056498908
0.026770793 0.033846006 0.056529794 -0.018350486 0.0075084264 0.029783227 0.0128801875 0.107837886
0.14778009 0.07828464 -0.032472882 0.009905087 -0.0077082617 -0.01684311 -0.08160923 -0.016788492
0.018738402 0.018382832 0.035785187 0.051751997 0.12643369 -0.044589885 0.068103544 0.05369852
0.009654135 -0.08167572 -0.0725789 -0.03589253 -0.07348869 0.08463089 -0.009210722 -0.0803502
0.03767281 0.04757183 0.00059559377 -0.067013904 -0.047773037 -0.05109488 -0.022027073 -0.07810176
-0.031545382 -0.04616702 0.00903384 0.041193526 -0.05201043 -0.03652698 -0.065960266 -0.052235626
-0.005886902 0.04120538 0.027388707 0.045753676 0.09354249 0.028474027 -0.081829056 -0.059678726
-0.05052019 -0.007814289 -0.081185445 0.06586525 0.0028964598 0.10153179 -0.066768795 -0.05247527
0.11527585 0.039741352 0.16357686 0.080817714 0.03754058 -0.01880245 -0.0012476421 -0.058844842
0.077258885 -0.0016595867 -0.049778726 -0.020400738 -0.043044556 0.047463145 0.099744014 -0.08459831
0.006098637 -0.00327339 0.0019478584 0.060182363 -0.0122395 -0.039889235 -0.035597138 -0.07340358
-0.12276337 0.0006219775 -0.038387932 -0.01497821 -0.010122691 -0.03073244 -0.015599151 0.04396243
-0.05542081 0.035032187 0.03044702 -0.007260143 0.013703427 -0.11207409 -0.019410338 -0.00496525
0.038567163 0.011161578 -0.059995383 0.056270383 0.038311567 0.07234716 0.053065132 -0.05223171
-0.058698364 0.026110463 -0.003592416 -0.0046672784 0.026662987 0.012763132 0.016642135 -0.0051626717
-0.061374966 0.03804625 -0.038164053 0.004130861 0.06319816 -0.023527835 0.057946082 -0.017638473
0.054296438 -0.054275464 0.10319442 0.12818053 0.009106512 -0.044627275 -0.043612726 0.027715538
0.04688859 -0.005179964 0.12962925 0.13165022 0.047113042 -0.06563434 0.047943283 -0.050627522
0.09648563 -0.027904127 -0.0401229 -0.020550821 -0.029107943 0.090302706 -0.0072789867 -0.034218084
0.106337555 0.01066276 0.05142444 0.07554812 0.07082168 0.039282963 -0.1166036 0.02043925
0.05976725 0.0015408028 -0.043139588 -0.054607928 0.10949611 0.012144895 -0.013009506 -0.09393405
-0.036137097 0.050311595 0.06417689 0.07270759 0.07666425 0.02317652 0.024283664 -0.10722415
-0.0567653 -0.07432174 -0.09792131 0.105792 -0.00016805266 0.033741068 0.07097995 -0.044075727
0.009128283 0.036614027 0.035940606 0.053752493 0.07297071 0.002869814 -0.12977423 -0.121097535
00000000: 6a90 023d 85da fb3c 854d 90bb cf91 13bd
00000010: 9ee8 943d 5b8c 043c dee6 21bc 0f33 d6bc
00000020: 78d7 613d 1584 c6bc 8b6c 8039 151e ccbc
00000030: 5d9b 033d 0076 123b 41a9 b5bc 94f6 be3c
00000040: 11c5 5bbd bca4 cfbc 830b 60bb 771d 02bd
00000050: 9fe4 a53c f0ed 6f3d 5af1 c9bb 936e d13c
00000060: 682a 2c3d ccb1 923d 7495 c0bd c2b1 993d
00000070: 01b6 443d 85f5 1c3c 13dc b1bc a056 c7bc
00000080: 97b0 48bc 0a45 a7bb 0dba 383a 62b6 3e3d
00000090: db21 513d 5032 81bd 5ade 87bb 6853 71bc
000000a0: 9978 88bb 8465 3dbd ccf5 4dbd a5da bbbd
000000b0: b017 6bbd fbe5 8c3c 81d3 28bc d2a9 3ebc
000000c0: 02c5 81bd fe47 01bd d2ce 7fbd 03cc 77bc
000000d0: 77a4 6c3d ce44 443d 2221 61bd 66ef bcbd
000000e0: 9bd0 583d 14b9 cfbd fe22 c33c 0d2c 87bc
000000f0: d58b 933d 26ec 173e 73e5 d43c 666b 673d
00000100: 6c4e db3c 1ca2 0a3d c98b 673d c253 96bc
00000110: 3f09 f63b f4fb f33c 6c07 533c 1cda dc3d
00000120: aa53 173e b353 a03d 4902 05bd f248 223c
00000130: 9695 fcbb 90fa 89bc bd22 a7bd 0588 89bc
00000140: 4781 993c 9897 963c 7d93 123d e7f9 533d
00000150: d577 013e e2a3 36bd df79 8b3d fbf2 5b3d
00000160: 612c 1e3c 9a45 a7bd 3fa4 94bd 0c04 13bd
00000170: 3d81 96bd f652 ad3d 91e8 16bc a58e a4bd
00000180: ce4e 1a3d aeda 423d 9f21 1c3a 963e 89bd
00000190: a9ad 43bd dd48 51bd 1f72 b4bc d1f3 9fbd
000001a0: bb35 01bd a119 3dbd ac02 143c 8bba 283d
000001b0: e308 55bd 519d 15bd 2d16 87bd 06f5 55bd
000001c0: eae6 c0bb f9c6 283d 485e e03c 3568 3b3d
000001d0: 3493 bf3d 5d42 e93c fe95 a7bd ae71 74bd
000001e0: 42ee 4ebd 8107 00bc 8e44 a6bd 5ce4 863d
000001f0: 88d2 3d3b e6ef cf3d 14be 88bd 4ff0 56bd
00000200: bf15 ec3d d4c7 223d b180 273e c283 a53d
00000210: 27c4 193d 9807 9abc ec87 a3ba 4a07 71bd
00000220: e839 9e3d 7d86 d9ba c7e4 4bbd 731f a7bc
00000230: 7d4f 30bd b768 423d 9746 cc3d e141 adbd
00000240: 13d7 c73b 5f86 56bb 484f ff3a c881 763d
00000250: 2f88 48bc e562 23bd 4ece 11bd 9e54 96bd
00000260: 5d6b fbbd 340c 233a aa3c 1dbd 2b67 75bc
00000270: a5d9 25bc 99c2 fbbc 9593 7fbc f311 343d
00000280: ee00 63bd e97d 0f3d 076c f93c 7ee6 edbb
00000290: 5784 603c 1a87 e5bd 6e02 9fbc 89b3 a2bb
000002a0: 9af8 1d3d 0ddf 363c b8bd 75bd c67b 663d
000002b0: 97ec 1c3d bf2a 943d d35a 593d ebf0 55bd
000002c0: b26d 70bd 9ce5 d53c bd6e 6bbb f8ef 98bb
000002d0: 566c da3c 751c 513c 1655 883c a12b a9bb
000002e0: 5164 7bbd 62d6 1b3d e951 1cbd 2c5c 873b
000002f0: 096e 813d 72bd c0bc df58 6d3d 8f7e 90bc
00000300: f165 5e3d f34f 5ebd 9957 d33d c241 033e
00000310: 7b33 153c 17cb 36bd 42a3 32bd b20b e33c
00000320: 400e 403d b0bc a9bb 88bd 043e 51cf 063e
00000330: 9bf9 403d 4c6b 86bd 2d60 443d ce5e 4fbd
00000340: 429a c53d 3297 e4bc e957 24bd 325a a8bc
00000350: c873 eebc a0f0 b83d 9184 eebb 4328 0cbd
00000360: 81c7 d93d dbb2 2e3c 6fa2 523d f9b8 9a3d
00000370: f50a 913d 2ce7 203d decd eebd 3770 a73c
00000380: 81ce 743d c3f4 c93a 23b3 30bd 90ac 5fbd
00000390: 7f3f e03d 62fb 463c d325 55bc 7f60 c0bd
000003a0: 7e04 14bd 8813 4e3d 2c6f 833d b8e7 943d
000003b0: 2502 9d3d afdc bd3c 89ee c63c 5698 dbbd
000003c0: bb82 68bd ff35 98bd f88a c8bd 7aa9 d83d
000003d0: 4b37 30b9 1334 0a3d f05d 913d c088 34bd
000003e0: cb8e 153c 97f8 153d 7536 133d 932b 5c3d
000003f0: ab71 953d 7d13 3c3b 89e3 04be fc01 f8bd

network_body.observation_encoder.processors.0.conv_layers.0.bias f4 [16]
-0.056487847 -0.007613243 0.0041973977 0.013609413 0.012524933 -0.010472314 -0.0070660207 -0.023614435
0.04947437 -0.05299785 -0.051324915 -0.021890072 -0.015761763 0.0005498742 0.015765777 -0.016410546
00000000: cd5f 67bd 8378 f9bb 538a 893b 04fa 5e3c
00000010: 6035 4d3c 1294 2bbc 148a e7bb 0f73 c1bc
00000020: a3a5 4a3d 4614 59bd 133a 52bd cf52 b3bc
00000030: d01e 81bc 6f25 103a 3b27 813c 696f 86bc

network_body.observation_encoder.processors.0.conv_layers.2.weight f4 [32, 16, 4, 4]
0.023503108 -0.013468425 0.0018517874 0.01724314 0.017966472 0.030809 0.049637645 0.05198804
0.044644944 0.03078122 0.04641442 -0.050977554 0.0027794826 0.04937563 0.045560785 0.048129085
-0.061459024 -0.05589693 0.026956461 -0.014756926 0.011382103 -0.07199309 -0.028056607 0.018180307
0.01905535 0.067739494 0.0088701965 0.037839614 0.015926486 -0.06619432 0.020063255 -0.043046013
-0.0235408 -0.0664265 7.825402e-05 -0.021852719 0.018760866 -0.005835707 -0.025214635 -0.037923805
0.02985756 0.048003267 0.021176793 0.011846921 -0.033521757 0.030115403 0.036006726 -0.014954588
0.021028165 -0.041803934 0.009641326 0.07033704 0.040446628 -0.06356959 0.076448455 0.005394106
0.068764284 -0.030070918 -0.08167213 0.0028588916 -0.005282222 0.012805703 0.028724674 0.012201442
0.027244227 0.03968441 0.042890318 -0.03700657 -0.0028117024 -0.098160036 0.012811975 0.0525801
0.006378213 0.014800226 0.071389265 0.0027992537 -0.042125717 0.031045364 -0.01052263 -0.029813776
-0.047533747 -0.07324017 -0.026018785 0.03924201 -0.036371443 0.012410494 -0.04387589 -0.00027450535
-0.015328484 -0.08257399 0.066300675 -0.0555463 -0.043268148 -0.067603685 -0.07433214 -0.053532984
-0.040327933 0.029322147 -0.05506467 -0.03898997 -0.013413519 -0.06435572 -0.01821242 -0.01520383
0.041359074 0.06374916 0.062552854 -0.011605356 -0.008765474 -0.013214063 -0.052593917 -0.006865237
-0.032442626 -0.070094906 0.03401606 0.008989009 0.03150977 -0.013259221 0.01775632 -0.020010931
0.056623988 0.02450217 -0.0035991347 0.041647386 -0.019614158 0.05753759 -0.002873415 0.023788078
0.0035672935 -0.0010697733 0.01804491 -0.03943468 -0.011616586 -0.081018135 -0.02586401 0.022496436
0.040340245 0.10417048 -0.10763235 -0.005565525 -0.014692471 -0.04433964 0.013387122 0.0016015146
-0.03051535 -0.042352367 -0.011108475 -0.08202404 0.0152886445 -0.010364931 0.04053347 0.041565556
0.028166376 -0.0077995374 -0.069153465 0.01228941 0.020318685 0.057477992 -0.017258383 0.007857924
0.004095722 0.023901777 0.073686935 -0.013127217 0.04017032 -0.04546823 -0.04423316 -0.031130377
-0.005730991 -0.035658408 -0.009639457 -0.051011864 0.009309225 -0.04265317 -0.06500586 0.05050697
-0.05185999 -0.058704257 0.013137501 -0.04301476 0.028681714 -0.05765189 -0.044045944 0.03233769
0.028670466 0.030716622 0.012878705 0.015417952 -0.043052766 0.065184474 -0.016988862 0.0021985632
-0.05285863 -0.018342322 -0.040526044 -0.055721857 -0.033436824 -0.089639775 0.061511956 0.043548178
0.04121195 0.04970052 -0.09431445 0.028299775 -0.010925253 0.015759176 -0.06827033 -0.035240337
-0.051352937 0.042749617 0.05304699 -0.025423456 -0.027358884 0.069936484 -0.035770636 0.03923013
-0.06685194 -0.03871053 -0.026310897 -0.06253804 0.06762096 0.037159942 0.031073546 -0.027491871
-0.0062978417 0.019733468 -0.043212734 -0.041172598 -0.02327702 0.055528026 -0.035762895 -0.016218344
-0.012760876 0.029794114 -0.02500741 0.017911136 -0.05225552 0.031378698 -0.002284779 0.00910897
-0.054258272 -0.024832288 -0.0032361513 -0.018933473 -0.019819446 0.072510846 -0.047472384 -0.011546337
-0.0036933646 -0.012835124 -0.027311211 -0.0781721 0.021771953 -0.043114778 0.041207064 0.042598687
00000000: 9789 c03c abaa 5cbc adb7 f23a 7c41 8d3c
00000010: 6c2e 933c 2863 fc3c d850 4b3d 69f1 543d
00000020: 9edd 363d e628 fc3c 0c1d 3e3d d7cd 50bd
00000030: fb27 363b 1a3e 4a3d f29d 3a3d 0123 453d
00000040: 75bc 7bbd 2ef4 64bd ccd3 dc3c 09c7 71bc
00000050: 007c 3a3c 1d71 93bd f8d6 e5bc deee 943c
00000060: f719 9c3c 01bb 8a3d 4d54 113c b6fd 1a3d
00000070: 4378 823c e390 87bd b25b a43c 0451 30bd
00000080: a3d8 c0bc 9e0a 88bd 4f1c a438 7904 b3bc
00000090: 63b0 993c 7539 bfbb ec8e cebc fe55 1bbd
000000a0: d797 f43c 139f 443d f47a ad3c 9719 423c
000000b0: 1c4e 09bd 94b4 f63c ca7b 133d 1704 75bc
000000c0: 4243 ac3c 9a3a 2bbd a7f6 1d3c de0c 903d
000000d0: 5dab 253d c630 82bd 0291 9c3d 0ac1 b03b
000000e0: 4ad4 8c3d 4957 f6bc b843 a7bd 3e5c 3b3b
000000f0: 7d16 adbb 03cf 513c 0250 eb3c 8fe8 473c
00000100: 492f df3c 1f8c 223d c2ad 2f3d 3394 17bd
00000110: 8a44 38bb 2108 c9bd 51e9 513c 3b5e 573d
00000120: 5400 d13b a67c 723c 8934 923d af73 373b
00000130: 048c 2cbd d952 fe3c 1c67 2cbc 053c f4bc
00000140: bfb2 42bd f1fe 95bd 5925 d5bc 3bbc 203d
00000150: 39fa 14bd 6255 4b3c 35b7 33bd 7ceb 8fb9
00000160: 5224 7bbc 8d1c a9bd a6c8 873d 8484 63bd
00000170: f139 31bd cd73 8abd 733b 98bd 6745 5bbd
00000180: e72e 25bd 0035 f03c 7e8b 61bd f2b3 1fbd
00000190: 60c4 5bbc efcc 83bd 3732 95bc 7c19 79bc
000001a0: 2268 293d eb8e 823d b61b 803d 6424 3ebc
000001b0: 109d 0fbc cc7f 58bc b86c 57bd c8f5 e0bb
000001c0: 8fe2 04bd eb8d 8fbd 6d54 0b3d a346 133c
000001d0: 6310 013d 343d 59bc b475 913c f7ed a3bc
000001e0: 8eee 673d c6b8 c83c 76df 6bbb 7396 2a3d
000001f0: dfad a0bc 89ac 6b3d e74f 3cbb 37df c23c
00000200: 41c9 693b a337 8cba ebd2 933c 4286 21bd
00000210: 7e53 3ebc d6ec a5bd c3e0 d3bc 724a b83c
00000220: d03b 253d 5557 d53d 596e dcbd 025f b6bb
00000230: b1b8 70bc 7b9d 35bd a955 5b3c eae9 d13a
00000240: 54fb f9bc ad79 2dbd 5200 36bc 38fc a7bd
00000250: 397d 7a3c acd1 29bc 6d06 263d a540 2a3d
00000260: 2cbd e63c 4393 ffbb 55a0 8dbd 8659 493c
00000270: 5f73 a63c 0b6e 6b3d 7461 8dbc 86be 003c
00000280: 6835 863b a9cd c33c 2de9 963d 8a13 57bc
00000290: a289 243d e53c 3abd d42d 35bd 2205 ffbc
000002a0: 09cb bbbb 8d0e 12bd d0ee 1dbc d1f1 50bd
000002b0: b885 183c 17b5 2ebd cb21 85bd 66e0 4e3d
000002c0: 246b 54bd e073 70bd ac3e 573c 3f30 30bd
000002d0: eaf5 ea3c 6324 6cbd 8569 34bd 8774 043d
000002e0: 53de ea3c 6da1 fb3c 3401 533c 949b 7c3c
000002f0: 1958 30bd 707f 853d 3a2c 8bbc c515 103b
00000300: 4a82 58bd a342 96bc a3fe 25bd 9a3c 64bd
00000310: 0df5 08bd 0f95 b7bd f6f3 7b3d 935f 323d
00000320: ddcd 283d c692 4b3d ef27 c1bd eed4 e73c
00000330: d5ff 32bc 6319 813c 51d1 8bbd 2c58 10bd
00000340: 7557 52bd 391a 2f3d cd47 593d da44 d0bc
00000350: bd1f e0bc dc3a 8f3d 3b84 12bd c6af 203d
00000360: abe9 88bd ef8e 1ebd f389 d7bc f213 80bd
00000370: dc7c 8a3d 0635 183d f38d fe3c a236 e1bc
00000380: 205e cebb 15a8 a13c d6ff 30bd 99a4 28bd
00000390: 73af bebc 5b71 633d 1d7c 12bd 55dc 84bc
000003a0: fe12 51bc c912 f43c 57dc ccbc 60ba 923c
000003b0: e209 56bd f386 003d 3bbc 15bb ca3d 153c
000003c0: ec3d 5ebd 156d cbbc 9c15 54bb 5f1a 9bbc
000003d0: 645c a2bc 9180 943d 6772 42bd d92c 3dbc
000003e0: 600c 72bb 694a 52bc c3bb dfbc b218 a0bd
000003f0: 185b b23c 1f99 30bd bdc8 283d f67b 2e3d

network_body.observation_encoder.processors.0.conv_layers.2.bias f4 [32]
0.054210164 -0.025418445 -0.028895501 -0.008255968 0.002003371 0.06426025 -0.0019860743 -0.0042188857
-0.0029252816 0.032717858 -0.06303574 -0.0009497572 0.04129456 0.0443808 -0.05853537 -0.039538
-0.0026750118 -0.021483196 0.0067422087 -0.023489168 0.06488291 0.033633776 -0.025375485 -0.011447388
0.039166037 -0.0072140857 0.0057055275 0.0027884827 -0.03019591 -0.019095657 -0.029152112 0.04619616
00000000: 7a0b 5e3d 583a d0bc 42b6 ecbc 0a44 07bc
00000010: fd4a 033b e19a 833d cc28 02bb 943e 8abb
00000020: 15b6 3fbb 2903 063d e218 81bd 20f9 78ba
00000030: 7c24 293d a4c8 353d c9c2 6fbd 99f2 21bd
00000040: 404f 2fbb 87fd afbc bfed dc3b 5b6c c0bc
00000050: 55e1 843d 92c3 093d 40e0 cfbc d38d 3bbc
00000060: 916c 203d 2364 ecbb 6ff5 ba3b fabe 363b
00000070: 6a5d f7bc 7f6e 9cbc 69d0 eebc 2f38 3d3d

network_body.observation_encoder.processors.0.dense.0.weight f4 [256, 32]
0.24236412 -0.1941934 0.025906457 -0.27125353 0.107650906 0.11913843 -0.15450859 -0.36947456
-0.21031375 0.19757617 0.0902127 0.37975514 0.40867022 0.03589171 0.19129802 -0.11717779
0.18440521 -0.25748327 0.29698446 0.02977912 0.085554756 0.69492656 0.20225452 0.4838196
-0.34308645 -0.028268266 0.06567538 -0.49264002 0.36049658 0.12006309 0.08377774 -0.19532749
-0.18615176 -0.03269502 0.09958738 0.28146952 -0.23740454 0.29636502 -0.19278172 0.27785215
-0.057726476 -0.360193 0.4555842 0.13877973 0.25859055 -0.022820886 0.14895047 -0.47481903
-0.2771899 0.030969288 0.5906771 0.5360467 0.3338113 -0.16498803 0.19471332 -0.049818832
-0.36312282 -0.14378817 0.0067760283 0.004996041 0.21235164 -0.28349403 -0.41585368 0.1466106
0.13079311 0.016082913 0.10544642 -0.55155843 0.33231255 -0.26102918 -0.26180828 0.039676376
-0.17723003 0.10422064 0.109166846 -0.34906173 0.073354796 -0.03491684 0.06496402 0.011974103
0.036529053 0.46950403 -0.1705302 0.115274236 -0.35875636 0.13467012 0.031494588 0.27482328
-0.17488812 -0.0931019 0.05960354 -0.24115345 0.16433011 0.21506433 -0.14969483 -0.039678615
-0.06474707 0.28591844 -0.5196073 0.11051178 -0.08776544 0.041143145 0.16130292 -0.28240693
-0.025797637 -0.06437912 0.5057635 0.22618349 -0.032535307 0.10560605 0.38313583 -0.13566034
-0.40229103 0.5195893 -0.0037605697 0.14481434 0.41750336 -0.4451015 0.3211994 -0.2253682
0.30189142 0.06875995 0.09186391 0.043549586 -0.5819304 -0.016607549 -0.2916221 -0.28234035
0.14749233 0.04144839 -0.11429931 -0.4590141 0.32375008 -0.44824433 -0.3594235 -0.23825213
-0.077773966 0.24359456 -0.15194209 0.21433693 -0.13603826 0.23588526 -0.3768241 0.035152864
-0.51213676 -0.2547464 0.36379337 0.23709048 0.051448647 0.5389102 0.1787446 0.3861772
-0.030150732 -0.024204062 0.06459479 0.08387456 -0.19058555 0.1820239 0.38857993 -0.37845993
0.51632607 0.20105153 0.32607362 0.031712387 -0.16602874 0.14760716 -0.13449551 -0.26235962
-0.10589445 -0.09107808 -0.18207417 0.17448236 -0.03186986 -0.31991962 0.46361986 0.17131962
-0.12770355 -0.005176467 0.31581783 0.08250298 -0.1598361 0.15618797 -0.1677454 0.081891894
-0.33681637 -0.062667295 -0.017563036 -0.030822352 -0.20912814 -0.123832025 -0.23826933 -0.26695383
0.32381597 -0.13049531 -0.095189296 -0.2532864 0.121359035 0.10668552 0.11605035 -0.34520465
-0.015699446 0.3661649 -0.3346667 0.41828746 0.316587 0.12053771 0.22776386 -0.12099446
-0.14110833 -0.3123195 -0.1850424 -0.44555572 0.4736758 0.17917 -0.13803613 0.086359575
0.6854293 -0.1603002 0.03453028 0.23108189 0.07877868 -0.038466755 -0.39091307 0.13231252
-0.8432619 0.36162743 -0.26527554 -0.38689223 -0.020693786 -0.04482167 -0.13825218 0.39533046
-0.030575603 0.12987462 -0.09983266 0.22657953 0.023014635 0.13748997 -0.35048357 0.08241167
0.0026509904 0.24739787 0.10476176 0.28660688 0.19092838 -0.5523242 -0.05684579 -0.09605719
0.15003918 -0.45969915 0.31815436 -0.2209781 -0.066916846 -0.18408857 -0.34900108 0.5404648
00000000: 4d2e 783e a2da 46be c739 d43c bee1 8abe
00000010: 1478 dc3d d9fe f33d 8037 1ebe c52b bdbe
00000020: 7d5c 57be 6851 4a3e 70c1 b83d 446f c23e
00000030: 393d d13e 3003 133d a1e3 433e e9fa efbd
00000040: b8d4 3c3e d9d4 83be 590e 983e 57f3 f33c
00000050: 5537 af3d b5e6 313f cf1b 4f3e 34b7 f73e
00000060: 07a9 afbe da92 e7bc d080 863d 503b fcbe
00000070: 0293 b83e a3e3 f53d aa93 ab3d ee03 48be
00000080: 919e 3ebe 37eb 05bd 78f4 cb3d c61c 903e
00000090: 2d1a 73be 28bd 973e 9268 45be a342 8e3e
000000a0: 9972 6cbd 386b b8be 5542 e93e 461c 0e3e
000000b0: fb65 843e def2 babc 7986 183e 7b1b f3be
000000c0: d6eb 8dbe 4eb3 fd3c 9d36 173f 5b3a 093f
000000d0: 51e9 aa3e 9ff2 28be ee62 473e d50e 4cbd
000000e0: 3ceb b9be 353d 13be 7209 de3b d4b5 a33b
000000f0: b572 593e 2126 91be c6ea d4be 1721 163e
00000100: a1ee 053e 50c0 833c 4bf4 d73d ef32 0dbf
00000110: df24 aa3e 9ea5 85be bc0b 86be b283 223d
00000120: ca7b 35be a271 d53d de92 df3d 38b8 b2be
00000130: 0a3b 963d f604 0fbd db0b 853d 072f 443c
00000140: 7d9f 153d d562 f03e 789f 2ebe e614 ec3d
00000150: eaae b7be f7e6 093e 7800 013d a3b5 8c3e
00000160: df15 33be 35ac bebd d722 743d eef0 76be
00000170: 2746 283e d339 5c3e 9a49 19be 0b86 22bd
00000180: 1d9a 84bd e763 923e fc04 05bf 0054 e23d
00000190: 5ebe b3bd b785 283d 982c 253e a497 90be
000001a0: 9155 d3bc 33d9 83bd b779 013f a59c 673e
000001b0: be43 05bd fc47 d83d 612a c43e 8bea 0abe
000001c0: 17f9 cdbe ce03 053f e473 76bb 364a 143e
000001d0: 00c3 d53e 58e4 e3be 3f74 a43e ecc6 66be
000001e0: 8391 9a3e 04d2 8c3d 2523 bc3d 0d61 323d
000001f0: 64f9 14bf 8e0c 88bc 7e4f 95be ea8e 90be
00000200: 3b08 173e c9c5 293d c215 eabd e503 ebbe
00000210: 92c2 a53e 4880 e5be 5b06 b8be 5ef8 73be
00000220: f547 9fbd da70 793e b596 1bbe 247b 5b3e
00000230: 9d4d 0bbe e88b 713e 17ef c0be 73fc 0f3d
00000240: 651b 03bf 1f6e 82be 2043 ba3e d9c7 723e
00000250: d1bb 523d 05f6 093f d308 373e 05b9 c53e
00000260: abfe f6bc 9947 c6bc 464a 843d 6dc6 ab3d
00000270: dc28 43be 7964 3a3e f3f3 c63e 80c5 c1be
00000280: f22d 043f 74e0 4d3e 1ff3 a63e d9e4 013d
00000290: 7003 2abe 5526 173e 31b9 09be 0054 86be
000002a0: 30df d8bd 2587 babd a771 3abe 81ab 323e
000002b0: f889 02bd 81cc a3be 955f ed3e 696e 2f3e
000002c0: b8c4 02be 5a9f a9bb e0b2 a13e 53f7 a83d
000002d0: 13ac 23be bdef 1f3e 73c5 2bbe f0b6 a73d
000002e0: 3273 acbe b657 80bd 5be0 8fbc 287f fcbc
000002f0: b025 56be a59b fdbd e0fc 73be 2cae 88be
00000300: 35cb a53e 90a0 05be 9bf2 c2bd c1ae 81be
00000310: 168b f83d f07d da3d ceab ed3d aabe b0be
00000320: 209c 80bc f779 bb3e 6f59 abbe c629 d63e
00000330: b117 a23e 7adc f63d ee3a 693e f2cb f7bd
00000340: b47e 10be 57e8 9fbe c17b 3dbe e11f e4be
00000350: a285 f23e 5778 373e 5859 0dbe 4add b03d
00000360: 4b78 2f3f bc25 24be 9f6f 0d3d bba0 6c3e
00000370: b756 a13d 518f 1dbd c225 c8be ef7c 073e
00000380: 03e0 57bf 3b27 b93e 32d2 87be bd16 c6be
00000390: 0486 a9bc ed96 37bd fb91 0dbe c168 ca3e
000003a0: b079 fabc dafd 043e 1175 ccbd 7704 683e
000003b0: 3089 bc3c 2cca 0c3e 9572 b3be 73c7 a83d
000003c0: 3dbc 2d3b de55 7d3e 558d d63d 23be 923e
000003d0: bb82 433e 1e65 0dbf 22d7 68bd a2b9 c4bd
000003e0: dfa3 193e b05d ebbe 21e5 a23e 1548 62be
000003f0: b30b 89bd b781 3cbe 45b0 b2be e75b 0a3f

network_body.observation_encoder.processors.0.dense.0.bias f4 [256]
0.0089470465 0.022163488 0.03381091 0.027593885 0.032161865 0.041504987 0.022505175 0.0070803035
0.023201989 0.028583799 0.031880565 0.009646457 0.0058118994 0.020342689 0.023584673 0.021564195
-0.020843595 0.0052418467 -0.0014024301 0.007932236 0.00043174252 -0.014666058 0.0024959133 0.0053932373
0.053179312 -0.0054226066 0.014411977 0.023500677 0.013585995 0.026728787 0.009434779 0.046677113
0.0017201309 0.023474256 0.017648963 0.021808427 -0.0019279233 0.016273314 -0.016526636 -0.0046842317
0.027594054 0.0010760447 0.002019633 0.01078961 0.016094701 -0.008386271 0.015262973 0.01610684
0.00647994 0.032647338 0.017429417 0.009529386 0.015199844 0.0520395 0.0413279 0.023406506
0.025033137 0.0507885 0.036156897 0.039463904 0.03455609 -0.0036125365 0.022942174 0.034681875
0.018135097 -0.005210691 0.016570384 0.0043482324 0.04679881 -0.0043899147 -0.0077362545 0.0065950067
0.00091722293 0.01956493 0.009719486 0.03979633 -0.0016868592 0.021453006 0.014831052 -0.013065334
0.0030566135 0.023222528 0.01846181 -0.03763689 0.012715945 0.030255854 0.008306302 0.017040344
0.03522088 0.019586697 -0.00899446 0.04723771 0.0072610187 0.0143326465 0.02653715 0.010875229
-0.012024444 0.033499047 0.0012019904 0.024760503 0.019726008 0.005395977 0.0053439587 0.03217354
0.0050631287 0.011693814 0.021423519 -0.001763878 0.006460067 0.035591654 0.032756407 0.009153207
-0.0018693538 -0.006182693 0.031585854 -0.00938085 0.00860673 0.0040688664 -0.001536119 0.015433971
0.030666621 0.0020372435 -0.009169347 0.040235594 0.014116375 -0.034882065 0.002325725 0.022523107
-0.0063152825 0.020507583 -0.010610554 0.008194661 0.019871771 0.023337483 0.014969195 0.01584721
0.008907551 0.023419378 0.013201802 -0.00527365 0.017809063 0.013828599 -0.0009924197 0.008707055
0.0484535 0.02570985 -0.0009493852 0.016634796 -0.01185516 0.041222803 0.007218398 0.036727477
0.025168553 0.016764598 0.06413896 -0.002357183 0.052965537 0.050087377 0.03983008 0.032481957
0.036490165 0.0052337353 -0.016146926 0.025312083 -0.0011274968 0.0043876087 -0.0031417024 8.999856e-05
0.0422916 0.038283747 -0.0019990623 0.009076557 -0.00049933384 -0.010771391 0.029619116 0.038404293
0.020676203 0.05095925 0.004697663 0.028573453 0.012158193 0.029674783 0.020338409 0.03703979
0.02474053 -0.010228421 0.019459954 0.0028597494 0.024464212 0.009208541 0.017474271 0.016359078
0.003933064 0.041340332 0.039492138 0.016815515 0.016736941 0.015586486 -0.0066533615 0.020609634
-0.0074756322 0.0053168605 0.0021671443 0.0012135969 0.010225268 -0.0036581345 0.011656043 0.0065312767
-0.004394624 0.004766913 0.025105258 0.0061784326 0.0064016683 0.03623563 0.030102162 0.0077011017
0.025766078 -0.0012297139 0.015456601 0.009496326 0.0030176805 0.010734848 0.0044820774 -0.009083168
0.022884542 -0.0016678305 0.00081476074 0.00084331946 0.011113929 0.007984112 0.012893269 -0.011731395
-0.017132591 0.019335631 -0.00047155036 -0.005110012 0.0005668973 -0.009477107 0.013548555 0.030865261
0.0014118265 0.00675984 0.0074860305 0.024799934 0.029161047 0.015674215 -0.006224782 -0.0011400392
0.032465044 -0.0065630544 0.006471995 0.00608795 0.0067593753 0.0102142515 -0.0058563324 -0.0070572877
00000000: a296 123c 3490 b53c 4f7d 0a3d 920c e23c
00000010: 29bc 033d 2201 2a3d c65c b83c e401 e83b
00000020: 1912 be3c 9228 ea3c 3295 023d 2c0c 1e3c
00000030: bf71 be3b b6a5 a63c a534 c13c 65a7 b03c
00000040: 30c0 aabc ccc3 ab3b bfd1 b7ba 36f6 013c
00000050: 805b e239 e849 70bc 7a92 233b c1b9 b03b
00000060: 8dd2 593d 1fb0 b1bb 3620 6c3c 7e84 c03c
00000070: cb97 5e3c 54f6 da3c 5594 1a3c 8030 3f3d
00000080: 0476 e13a 154d c03c 8f94 903c 96a7 b23c
00000090: 5fb2 fcba 9d4f 853c de62 87bc 2f7e 99bb
000000a0: ed0c e23c 120a 8d3a d25b 043b e8c6 303c
000000b0: 09d9 833c 9266 09bc 8c11 7a3c 7ef2 833c
000000c0: ad55 d43b 37b9 053d 23c8 8e3c 2421 1c3c
000000d0: c408 793c 5f27 553d 7247 293d 00bf bf3c
000000e0: 4b12 cd3c 9a07 503d 4119 143d e7a4 213d
000000f0: b08a 0d3d 4ec0 6cbb 3af1 bb3c 950e 0e3d
00000100: 0e90 943c 72be aabb 9dbe 873c 9e7b 8e3b
00000110: 1cb0 3f3d 46d9 8fbb 6880 fdbb ed1a d83b
00000120: ca71 703a a246 a03c 7b3e 1f3c 7a01 233d
00000130: 9a19 ddba 37be af3c f1fd 723c fc0f 56bc
00000140: 7751 483b 2c3d be3c 393d 973c 2429 1abd
00000150: 8a56 503c 20db f73c 2817 083c 3198 8b3c
00000160: c543 103d 4874 a03c 805d 13bc 547c 413d
00000170: d7ed ed3b 7ad3 6a3c 7064 d93c 042e 323c
00000180: 2c02 45bc 4c36 093d 1b8c 9d3a 8ad6 ca3c
00000190: 7098 a13c bcd0 b03b 601c af3b 67c8 033d
000001a0: 9ae8 a53b 6997 3f3c 6080 af3c ed31 e7ba
000001b0: f8ae d33b 8ec8 113d 952b 063d 55f7 153c
000001c0: 1b05 f5ba 3098 cabb 2b60 013d 23b2 19bc
000001d0: 3e03 0d3c 2054 853b 9a57 c9ba c4de 7c3c
000001e0: 9138 fb3c 4683 053b 073b 16bc 14ce 243d
000001f0: 5e48 673c 7fe0 0ebd 316b 183b 6182 b83c
00000200: 6ef0 cebb 85ff a73c e4d7 2dbc e642 063c
00000210: 20ca a23c 402e bf3c 5b41 753c 02d2 813c
00000220: faf0 113c ffd9 bf3c 5f4c 583c 95ce acbb
00000230: 50e4 913c 5991 623c 1414 82ba 09a8 0e3c
00000240: 2d77 463d 779d d23c 2ae0 78ba b245 883c
00000250: 253c 42bc 3ed9 283d 5088 ec3b 8d6f 163d
00000260: 482e ce3c e955 893c 495b 833d f87a 1abb
00000270: 64f2 583d 6c28 4d3d de24 233d cd0b 053d
00000280: b676 153d c17f ab3b 8f46 84bc 495b cf3c
00000290: 84c8 93ba eec5 8f3b 05e5 4dbb 9cbd bc38
000002a0: f539 2d3d 6bcf 1c3d b302 03bb d7b5 143c
000002b0: bae5 02ba 7d7a 30bc caa3 f23c d24d 1d3d
000002c0: 2461 a93c a6ba 503d daee 993b e012 ea3c
000002d0: 2833 473c 8818 f33c bc9c a63c 09b7 173d
000002e0: a7ac ca3c 1b95 27bc 7b6a 9f3c a26a 3b3b
000002f0: 2c69 c83c 6cdf 163c 3426 8f3c 7903 863c
00000300: efe0 803b 7b54 293d 82c2 213d b1c0 893c
00000310: e91b 893c 765e 7f3c 7104 dabb 89d5 a83c
00000320: 26f6 f4bb 0f39 ae3b a606 0e3b 8e11 9f3a
00000330: e287 273c 50bd 6fbb fdf8 3e3c 5204 d63b
00000340: c700 90bb c433 9c3b 8ba9 cd3c 7374 ca3b
00000350: 16c5 d13b d06b 143d cf98 f63c 8659 fc3b
00000360: 6213 d33c 5a2e a1ba af3d 7d3c 7a96 1b3c
00000370: 47c4 453b 37e1 2f3c 64de 923b 91d1 14bc
00000380: 5d78 bb3c 1b9b daba ab95 553a 3612 5d3a
00000390: 3217 363c cbcf 023c 4a3e 533c 0935 40bc
000003a0: a659 8cbc c265 9e3c 6b3a f7b9 e371 a7bb
000003b0: d59b 143a de45 1bbc c2fa 5d3c 25d9 fc3c
000003c0: 090d b93a a681 dd3b 604d f53b 3b29 cb3c
000003d0: 26e3 ee3c 3667 803c 42f9 cbbb 5e6d 95ba
000003e0: 11fa 043d e40e d7bb 0713 d43b 6d7d c73b
000003f0: c07d dd3b ad59 273c 7ae6 bfbb d240 e7bb

network_body._body_endoder.seq_layers.0.weight f4 [256, 256]
0.021331044 -0.04986649 0.09350562 0.049472783 0.081943065 0.07639814 -0.11479554 -0.008094712
-0.1056472 0.06267752 0.049189024 -0.0013737797 -0.16252139 -0.033503264 -0.07114492 0.12723525
0.11762516 0.071712434 -0.019789634 -0.10683468 0.08278219 0.01498945 0.106458135 -0.026110042
0.004850343 0.07317895 0.01694777 0.038221505 -0.0040631383 -0.020626854 0.083152175 -0.16538943
0.07984485 -0.011061195 -0.08230664 0.030074049 -0.11078444 0.042036187 0.025362568 0.08031513
-0.12629801 -0.0374234 -0.11280646 0.13580988 -0.018211195 0.07954035 -0.043491196 -0.07501364
-0.033621762 -0.10713062 0.020631833 0.07302344 0.09332113 -0.035907716 0.02036555 -0.054093443
0.040338993 -0.04811184 -0.04829308 0.008815275 0.049796496 0.05022643 -0.07484833 -0.071527176
0.012498786 -0.033539988 -0.044434085 -0.096526146 0.06292671 0.060011853 -0.06296992 -0.013567366
0.024874665 -0.0013984243 -0.10480322 0.01359435 0.09834495 0.022567607 0.007532408 0.056913514
0.007285434 -0.18330076 -0.01176291 -0.024045624 -0.022847882 0.017320696 -0.08437145 0.0023203215
-0.10065285 -0.009030113 -0.039512757 -0.13394608 -0.00023876959 0.028557686 -0.085176446 0.047338497
-0.16276169 0.01991558 0.025646338 -0.11908101 0.018450964 -0.0009030751 -0.0571331 0.057372447
-0.023649737 0.013106718 0.015735188 0.0850091 -0.0052291322 0.16202068 0.096331276 0.026537875
0.054999076 -0.08789645 0.10347163 -0.05274314 -0.13320035 0.02686568 0.06031177 -0.121982336
0.018195821 -0.026821736 0.06687852 -0.0048283422 0.073871724 0.1462983 -0.041845616 -0.074257635
-0.034210034 0.06675089 -0.07636918 -0.050849564 -0.042034023 0.11481128 -0.0010021327 -0.008400316
-0.0024126375 -0.015291018 -0.08493074 -0.04934055 -0.021350214 -0.054891992 -0.07538299 -0.044667535
-0.04021736 -0.08579195 0.014946528 0.043454077 -0.03299005 -0.04028553 0.02338685 0.096331544
-0.12109325 0.052765176 0.051315825 -0.019171508 -0.051094815 0.041778173 0.058156192 -0.12351522
-0.015223296 -0.022920087 -0.0626294 -0.022560349 0.052784856 0.008363426 -0.034231022 -0.124202006
0.09106925 0.10759483 -0.017126525 0.0019436353 0.06829438 0.047801107 -0.0333926 0.14503771
-0.035085566 0.05589107 0.062917136 -0.0542178 -0.01229356 0.00015287707 0.009391733 0.0062518874
0.13418248 -0.013838338 -0.0344286 0.0047442443 -0.15623312 -0.028154505 -0.15641768 0.024992608
-0.032606013 0.12967557 -0.10478759 0.021874124 0.00653954 -0.030982133 -0.05547033 -0.074001305
0.048615687 0.08910664 -0.12452123 0.008069095 0.10221296 0.005513919 0.06860833 0.0016113787
-0.07965056 -0.07850551 -0.044777397 -0.07153528 0.025200885 -0.007180869 0.052773073 -0.019478073
0.05441728 0.047205407 -0.050172217 0.010036927 -0.017210348 -0.030512579 0.07255024 -0.12733404
-0.06123566 -0.036839757 0.009826614 0.045444936 -0.091772415 0.029198524 0.02541945 -0.15433772
0.004059052 0.044797342 0.020689202 -0.0005974101 0.044994276 0.054754753 0.077955134 0.0025324754
-0.047174025 -0.044121712 -0.009635795 0.072622344 -0.043097135 -0.06018333 0.026466975 -0.017831456
-0.021024903 0.117744826 0.040403556 -0.122518115 0.021700813 0.020419551 -0.03712476 0.063326865
00000000: 71be ae3c ce40 4cbd e07f bf3d f9a3 4a3d
00000010: c4d1 a73d a176 9c3d ed19 ebbd af9f 04bc
00000020: 8f5d d8bd 125d 803d 6e7a 493d 6610 b4ba
00000030: 026c 26be b83a 09bd 6eb4 91bd f549 023e
00000040: 76e5 f03d f8dd 923d df1d a2bc 24cc dabd
00000050: b589 a93d 4f96 753c b906 da3d bae4 d5bc
00000060: a0ef 9e3b d8de 953d 0dd6 8a3c 278e 1c3d
00000070: 1324 85bb a6f9 a8bc b04b aa3d d95b 29be
00000080: b285 a33d 043a 35bc 6290 a8bd da5d f63c
00000090: f4e2 e2bd 232e 2c3d 29c5 cf3c 427c a43d
000000a0: 4454 01be 4749 19bd 1307 e7bd bf11 0b3e
000000b0: a52f 95bc 0de6 a23d d323 32bd c0a0 99bd
000000c0: f9b6 09bd 4c67 dbbd 1704 a93c 508d 953d
000000d0: 261f bf3d f813 13bd a7d5 a63c 1691 5dbd
000000e0: 803a 253d ec10 45bd f7ce 45bd f16d 103c
000000f0: 69f7 4b3d 3bba 4d3d 154a 99bd d77c 92bd
00000100: b5c7 4c3c 3a61 09bd 8400 36bd 80af c5bd
00000110: b8df 803d fdce 753d 60f6 80bd a849 5ebc
00000120: f4c5 cb3c 554b b7ba 12a3 d6bd d6ba 5e3c
00000130: 1469 c93d b4df b83c 6bd2 f63b 251e 693d
00000140: a6ba ee3b 32b3 3bbe 38b9 40bc 54fb c4bc
00000150: 7b2b bbbc 22e4 8d3c f0ca acbd 8910 183b
00000160: 1523 cebd 0af3 13bc 21d8 21bd 2929 09be
00000170: 395e 7ab9 cff1 e93c fd70 aebd 03e6 413d
00000180: 00ab 26be 0026 a33c 4518 d23c bfe0 f3bd
00000190: 7a26 973c 58bc 6cba 6604 6abd 5fff 6a3d
000001a0: 18bd c1bc 8fbd 563c 15e7 803c 4019 ae3d
000001b0: 2459 abbb c0e8 253e 5549 c53d f565 d93c
000001c0: b646 613d 0e03 b4bd efe8 d33d 3109 58bd
000001d0: ac65 08be 6a15 dc3c 7909 773d e0d1 f9bd
000001e0: 670f 953c 42b9 dbbc 9bf7 883d 1237 9ebb
000001f0: 0f4a 973d 39cf 153e 4f66 2bbd 6314 98bd
00000200: d21f 0cbd b1b4 883d 7267 9cbd a247 50bd
00000210: de2b 2cbd 2d22 eb3d fe59 83ba 7ba1 09bc
00000220: 571d 1ebb 2e87 7abc 2bf0 adbd 5119 4abd
00000230: a5e6 aebc 6dd6 60bd 6662 9abd 4ef5 36bd
00000240: f5ba 24bd b1b3 afbd 48e2 743c e7fc 313d
00000250: 9320 07bd 7102 25bd c795 bf3c 7949 c53d
00000260: bdff f7bd 4c20 583d 8b30 523d 910d 9dbc
00000270: cc48 51bd 971f 2b3d 3035 6e3d 8cf5 fcbd
00000280: 226b 79bc e8c2 bbbc d843 80bd 7bd0 b8bc
00000290: ef34 583d c006 093c d435 0cbd 9f5d febd
000002a0: 8482 ba3d ae5a dc3d ed4c 8cbc 94c1 fe3a
000002b0: eddd 8b3d 18cb 433d aec6 08bd c484 143e
000002c0: e2b5 0fbd 09ee 643d b3da 803d 7c13 5ebd
000002d0: ee6a 49bc a04d 2039 c9df 193c a2dc cc3b
000002e0: 2267 093e 32ba 62bc 0105 0dbd 9b75 9b3b
000002f0: 93fb 1fbe 47a4 e6bc f52b 20be 4cbd cc3c
00000300: e28d 05bd acc9 043e e09a d6bd 5d31 b33c
00000310: a349 d63b 3ece fdbc db34 63bd ff8d 97bd
00000320: 3e21 473d 8b7d b63d fd04 ffbd 3d34 043c
00000330: 0755 d13d 1bae b43b 8682 8c3d e634 d33a
00000340: d51f a3bd 7fc7 a0bd 8168 37bd 1781 92bd
00000350: 1672 ce3c 7f4d ebbb 9428 583d 7b90 9fbc
00000360: a7e4 5e3d 755a 413d 6281 4dbd ec71 243c
00000370: b7fc 8cbc 84f5 f9bc 3895 943d db63 02be
00000380: 3ed2 7abd 49e5 16bd ceff 203c 7824 3a3d
00000390: 2df3 bbbd be31 ef3c 733c d03c b50a 1ebe
000003a0: cc01 853b 6b7d 373d 677c a93c 839b 1cba
000003b0: eb4b 383d 8546 603d f1a6 9f3d e3f7 253b
000003c0: 8d39 41bd f8b8 34bd 74df 1dbc 06bb 943d
000003d0: 9f86 30bd cc82 76bd 45d1 d83c 4613 92bc
000003e0: 6b3c acbc 3324 f13d 337e 253d c7ea fabd
000003f0: e7c5 b13c e746 a73c 2210 18bd 84b1 813d

network_body._body_endoder.seq_layers.0.bias f4 [256]
0.0077816504 0.01432937 -0.00021926982 0.009799151 -0.023268519 0.0049850466 0.016232353 -0.00519272
-0.003198342 -0.005252518 -0.002932205 0.016226936 0.02465784 -0.004575624 -0.0015853243 0.008197574
0.0012167523 0.0104373675 -0.0025423958 0.018158693 -0.0035409906 0.027962346 0.011992843 0.009258356
0.008928854 0.00016575641 -0.0024249456 0.01559531 0.007234213 0.008866147 0.006175048 0.010676052
0.008149667 0.013213277 0.020026194 -0.0033813557 -0.00467379 0.015717333 0.01534899 0.0038128982
0.004432744 -0.014047094 0.013307267 0.013777341 0.007135345 -0.012023006 0.010206835 0.0061380356
0.009375485 -0.003269704 0.008700761 0.009585288 -0.0054646647 0.011449378 -0.010153363 0.009351813
0.0051729577 0.000769903 -0.000900008 0.020069316 0.002962462 0.02370853 0.006499102 -0.00034203776
-0.0064528384 0.019255165 -0.024733076 0.011738533 0.005902726 0.008062589 0.00062662025 0.023021119
0.022100933 0.022374546 0.019215772 0.0071366495 -0.0055430243 0.00188903 -0.0016181789 0.011355376
0.0018639351 0.004181784 0.011543825 0.013669299 0.012974262 0.018153572 0.0022383912 0.0009802874
-0.002891091 -0.009021238 -0.0034277386 0.0125113325 0.010266829 0.008293586 0.006503213 -0.0016017947
0.005602967 0.002941405 0.015850458 -0.010838112 0.0003043329 0.004046646 0.013900766 0.0068259086
-0.009985422 -0.016215011 0.0029395358 -0.0025476438 0.012905096 -0.002542398 0.00087610295 0.021295251
0.0048843753 0.014628179 0.0068373564 -0.0067179715 0.0049721166 0.02637147 -0.0026104178 0.00308837
-0.0019431578 0.0028045124 0.02075787 -0.0037907457 0.0033237832 0.0150565505 0.0071004615 0.010642509
0.010164891 0.011310273 0.024498349 -0.00429672 -0.012689102 -0.005150494 0.014652428 -0.008245576
-0.00070946885 0.0005678665 0.008027532 0.004270896 0.0062013892 0.014528461 -0.011250017 0.0036635394
-0.013286333 -0.0033120832 -0.008406989 0.016182592 0.00028905575 0.0030149808 -0.0060591158 0.004021869
0.0009425172 0.0061814934 0.00832195 0.013050237 -0.0064311833 0.0049681906 0.006877736 0.0036334505
0.001586197 -0.0005100083 0.028717967 -0.0010374349 -0.0008088362 0.0148256915 -0.00026438956 0.0022020296
0.007740552 0.005900266 -0.006923115 0.0054934546 -0.005702379 0.0029387432 0.014712422 0.00065159175
-0.010275778 -0.0020667636 0.03000483 0.008484503 0.012062568 0.024154985 0.026951259 0.0063078417
-0.0014791694 0.013132686 0.0038004308 -0.005548565 0.015122293 0.001975102 0.011205125 -0.008450294
0.00048696777 0.0055109775 0.014753481 -0.004513788 0.0075650914 -0.011403927 0.009635728 0.004627905
0.0134318825 0.01199417 0.0049582617 0.0070928494 -0.0075518503 0.0030377228 -0.006729766 0.0113084
-0.004482107 -0.00085151964 0.003545822 -0.011013969 -0.008501243 0.005700969 -0.012026836 0.011498354
0.0049963295 -0.008551334 0.0019855213 0.00864375 0.011212131 0.008378895 0.012959614 -0.008840113
0.0048979 0.009629607 -0.0013150251 -0.0010454714 0.0047932924 0.011359397 0.039635412 0.0079325475
-0.00069562136 0.0041987146 -0.003321002 0.0013065378 0.0057423273 0.0019731813 0.0032728475 0.0047022686
-0.001150075 -0.011038252 0.011919742 0.005820498 -0.0013015687 0.002201762 0.018737292 0.0067037405
0.008927401 0.0036223142 0.01018456 0.015518232 -0.0016130457 -0.0042347466 0.020062318 0.018019931
00000000: 37fd fe3b bcc5 6a3c cbeb 65b9 9e8c 203c
00000010: 9f9d bebc 9a59 a33b b6f9 843c b127 aabb
00000020: 469b 51bb 511d acbb 3d2a 40bb 5aee 843c
00000030: 3dff c93c 1eef 95bb a8ca cfba 1e4f 063c
00000040: 6f7b 9f3a 7e01 2b3c 539e 26bb 8ac1 943c
00000050: f70f 68bb 4a11 e53c a17d 443c 5cb0 173c
00000060: 544a 123c e6ce 2d39 d6eb 1ebb 7983 7f3c
00000070: fa0c ed3b 5143 113c 0f58 ca3b 9cea 2e3c
00000080: 2e86 053c 807c 583c f90d a43c bc99 5dbb
00000090: 9826 99bb a3c1 803c 557a 7b3c d1e1 793b
000000a0: 8d40 913b c825 66bc b906 5a3c 5bba 613c
000000b0: 9dcf e93b 24fc 44bc 923a 273c 9321 c93b
000000c0: a29b 193c 8848 56bb a38d 0e3c 9d0b 1d3c
000000d0: ee10 b3bb 2c96 3b3c 4b5a 26bc 5938 193c
000000e0: ea81 a93b 51d3 493a 84ee 6bba 6868 a43c
000000f0: dd25 423b 6438 c23c 6bf6 d43b 8853 b3b9
00000100: 5572 d3bb 02bd 9d3c 059d cabc fa52 403c
00000110: a86b c13b f318 043c c643 243a c996 bc3c
00000120: 040d b53c d34a b73c 656a 9d3c 8eda e93b
00000130: 42a2 b5bb 5499 f73a 1319 d4ba e60b 3a3c
00000140: 494f f43a 5907 893b 5022 3d3c 32f5 5f3c
00000150: 0092 543c cdb6 943c f9b1 123b fd7c 803a
00000160: 7578 3dbb d1cd 13bc e9a3 60bb 55fc 4c3c
00000170: 3436 283c d2e1 073c e818 d53b 50f3 d1ba
00000180: 1899 b73b 96c4 403b d2d8 813c 5692 31bc
00000190: df8e 9f39 ba99 843b 0ac0 633c dfab df3b
000001a0: e599 23bc 58d5 84bc 3aa5 403b 5ff6 26bb
000001b0: e56f 533c 5c9e 26bb 46aa 653a 6173 ae3c
000001c0: 1c0d a03b 08ab 6f3c e70b e03b 6e22 dcbb
000001d0: 23ed a23b fb08 d83c 8b13 2bbb 4066 4a3b
000001e0: 8eb1 feba e9cb 373b 690c aa3c 296e 78bb
000001f0: d4d3 593b c0af 763c fdaa e83b eb5d 2e3c
00000200: a58a 263c b94e 393c c3b0 c83c 80cb 8cbb
00000210: f4e5 4fbc 7ac5 a8bb bd10 703c 7418 07bc
00000220: a6fb 39ba e0dc 143a e985 033c dff2 8b3b
00000230: 0635 cb3b c808 6e3c fe51 38bc fe17 703b
00000240: ebae 59bc 890f 59bb 78bd 09bc 5b91 843c
00000250: 688c 9739 fc96 453b 8c8b c6bb e2c9 833b
00000260: 4213 773a 208e ca3b ca58 083c a9d0 553c
00000270: adbc d2bb 34cc a23b a25e e13b 2f1f 6e3b
00000280: f0e7 cf3a 14b2 05ba f141 eb3c 8afa 87ba
00000290: 1408 54ba 75e7 723c c49d 8ab9 ed4f 103b
000002a0: 75a4 fd3b 0557 c13b 4cdb e2bb 7002 b43b
000002b0: 06db babb ee97 403b 5f0c 713c 95cf 2a3a
000002c0: bd5b 28bc 8a72 07bb b0cc f53c 9602 0b3c
000002d0: 14a2 453c ade0 c53c e3c8 dc3c 03b2 ce3b
000002e0: b0e0 c1ba 7a2a 573c a610 793b bdd0 b5bb
000002f0: 7ec3 773c b670 013b b395 373c 1a73 0abc
00000300: b54f ff39 6e95 b43b 96b8 713c 66e8 93bb
00000310: 96e4 f73b 89d7 3abc 2cdf 1d3c aea5 973b
00000320: 6611 5c3c 3283 443c ea78 a23b 226b e83b
00000330: 8375 f7bb 8814 473b 5e85 dcbb de46 393c
00000340: a3de 92bb 8438 5fba 0661 683b ef73 34bc
00000350: cc48 0bbc 32cf ba3b 350c 45bc 9863 3c3c
00000360: 40b8 a33b e51a 0cbc 851f 023b 849e 0d3c
00000370: 16b3 373c a247 093c 9054 543c 1fd6 10bc
00000380: 907e a03b 80c5 1d3c ec5c acba 3308 89ba
00000390: 0d11 9d3b c41c 3a3c be58 223d 84f7 013c
000003a0: 5c5a 36ba 5f95 893b 2ba5 59bb 2240 ab3a
000003b0: 222a bc3b 7d50 013b 457d 563b 7d15 9a3b
000003c0: 1dbe 96ba c9d9 34bc 064b 433c e0b9 be3b
000003d0: 6699 aaba 704b 103b f37e 993c 0dab db3b
000003e0: 3c44 123c 5964 6d3b 24dd 263c 2f40 7e3c
000003f0: d56c d3ba a1c3 8abb bb59 a43c 899e 933c

network_body._body_endoder.seq_layers.2.weight f4 [256, 256]
0.16903348 -0.12236422 -0.025306486 0.03597062 0.022312617 0.070665404 0.040167563 -0.0776153
0.12439533 -0.057887398 -0.055333685 -0.028846543 0.011524796 -0.017998662 -0.030192306 -0.017282551
0.13691245 0.1977161 -0.08300492 -0.020623304 -0.0663906 -0.08899746 -0.034578126 -0.114292316
-0.058871593 -0.14688568 -0.055100482 -0.0141872065 0.07870031 -0.13944738 0.050983477 -0.15627176
-0.023219535 -0.07593643 0.043134462 0.08633416 0.08755952 -0.035458326 0.05410861 0.111856975
-0.016451584 0.04785828 -0.15795448 0.053840138 0.07523076 0.175914 -0.09404632 0.0012649539
0.020843584 -0.060699742 -0.10419789 0.05276042 0.09144736 0.086411715 0.091778256 0.0075401925
-0.044216093 0.124885686 -0.042944696 0.040482454 0.05147675 -0.105883874 -0.07008251 -0.03268925
0.07756555 0.016314829 0.028657574 -0.041618284 -0.14564762 0.058378678 0.005817017 0.051585168
-0.015618418 -0.09801526 0.049925566 -0.05555733 0.057640743 0.025746843 -0.06721628 -0.10998575
-0.021034483 -0.031201398 0.06491626 0.20109732 -0.040045332 0.024755383 0.12935941 0.10119609
-0.025417155 0.074085414 -0.15935272 0.045816265 0.056743223 -0.13821185 -0.051021542 -0.072445154
0.03756251 -0.04207596 0.005531569 0.032355662 -0.05009989 0.05066702 0.08369384 -0.06564457
-0.07485719 0.10157723 0.044033293 -0.04281641 0.015406547 -0.03915459 0.046293058 -0.008687513
-0.15140569 0.009633214 0.045701195 0.10406823 -0.06740855 0.13516767 -0.054966457 0.10249164
-0.045073036 0.08090059 -0.059315994 -0.120265946 -0.0137481475 -0.080951445 0.10963544 -0.035402007
0.012729381 0.05665649 -0.19622438 0.1326071 0.04954737 0.01109288 0.026998237 0.0024148833
0.024672767 0.023459187 -0.05528011 0.03837661 0.06682245 -0.12564614 0.19296186 -0.2191935
-0.08595952 -0.07487873 0.06825426 0.010772619 -0.01496672 -0.12636629 -0.04213113 -0.016228192
0.084516525 0.03296929 0.05764339 0.035558455 -0.035540096 0.00034950636 -0.07082355 -0.054597974
-0.017893432 -0.054190982 0.05556987 -0.13143997 -0.04054892 -0.059472546 -0.018462092 0.027230456
-0.023991281 -0.0028185642 0.079039276 -0.009847928 0.10536747 -0.06770388 -0.12572956 0.089902334
-0.07368734 0.0025186443 0.09025087 -0.06345223 0.03328806 -0.006304975 0.0018951261 -0.016610831
0.021135094 -0.030920852 0.13837175 0.012330911 0.047453236 -0.07138961 0.0021334654 0.11580422
-0.06273825 -0.06702601 -0.009562399 0.043498475 -0.015470598 0.013122193 -0.011479296 0.07107272
0.012328136 0.14104645 -0.113650054 -0.029562544 0.021334762 -0.079534486 0.10742119 -0.067458354
0.057170425 0.0988369 -0.08940765 -0.05266811 0.08854133 -0.0052523133 -0.046265714 0.07559255
0.004090478 0.13332939 -0.025040295 -0.07498346 0.04630658 -0.022242283 -0.07546165 0.06974428
-0.04725828 -0.059539817 0.008183596 -0.08331558 -0.12794654 0.014099069 -0.0033909008 -0.08363682
-0.08410276 0.0847334 0.04183983 -0.030872606 0.00357356 -0.052998696 -0.00014901842 -0.024821939
0.13011695 0.13919385 -0.110523984 -0.009634752 -0.08381516 -0.035448775 -0.053920075 -0.108168624
-0.019623118 -0.09514669 -0.04196677 -0.0051685893 -0.053145602 -0.08310433 0.037158802 -0.058089856
00000000: 1d17 2d3e 189a fabd 8c4f cfbc ee55 133d
00000010: f3c8 b63c 06b9 903d be86 243d c5f4 9ebd
00000020: fbc2 fe3d 561b 6dbd 93a5 62bd 964f ecbc
00000030: 7fd2 3c3c ee71 93bc db55 f7bc 2394 8dbc
00000040: c732 0c3e 1776 4a3e 7cfe a9bd 34f2 a8bc
00000050: cbf7 87bd 4d44 b6bd cba1 0dbd 1712 eabd
00000060: 5723 71bd 3369 16be 0bb1 61bd 7571 68bc
00000070: a12d a13d 4bcb 0ebe 0dd4 503d b405 20be
00000080: e536 bebc 8f84 9bbd c3ad 303d f7cf b03d
00000090: 6852 b33d c03c 11bd fda0 5d3d 4515 e53d
000000a0: 79c5 86bc 0b07 443d d2be 21be 7a87 5c3d
000000b0: 9612 9a3d cd22 343e 5b9b c0bd cfcc a53a
000000c0: 2ac0 aa3c 4ba0 78bd b465 d5bd 4f1b 583d
000000d0: c148 bb3d a0f8 b03d 3df6 bb3d b813 f73b
000000e0: ef1b 35bd 11c4 ff3d c7e6 2fbd eed0 253d
000000f0: 49d9 523d a5d9 d8bd 6b87 8fbd 2ae5 05bd
00000100: b0da 9e3d ada6 853c 4ac3 ea3c ef77 2abd
00000110: a624 15be 7b1e 6f3d ad9c be3b f84a 533d
00000120: 65e4 7fbc 3abc c8bd c07e 4c3d 1590 63bd
00000130: b318 6c3d 0beb d23c b0a8 89bd 3540 e1bd
00000140: 8250 acbc 139a ffbc d1f2 843d 75ec 4d3e
00000150: 9306 24bd cdcb ca3c cb76 043e e53f cf3d
00000160: a337 d0bc 18ba 973d 5c2d 23be d6a9 3b3d
00000170: 956b 683d 6887 0dbe f7fb 50bd 205e 94bd
00000180: 26db 193d d857 2cbd 2a42 b53b 5f87 043d
00000190: 8b35 4dbd 3988 4f3d ad67 ab3d a970 86bd
000001a0: ba4e 99bd b907 d03d 415c 343d 4360 2fbd
000001b0: be6b 7c3c 9060 20bd ca9d 3d3d 1256 0ebc
000001c0: 180a 1bbe a1d4 1d3c 2d31 3b3d b921 d53d
000001d0: 7e0d 8abd 6569 0a3e 8224 61bd 23e7 d13d
000001e0: 819e 38bd 35af a53d 54f5 72bd fe4d f6bd
000001f0: e93f 61bc dfc9 a5bd 8c88 e03d b201 11bd
00000200: e58e 503c a310 683d 0bef 48be 28ca 073e
00000210: 2ff2 4a3d e9be 353c 682b dd3c 0543 1e3b
00000220: 8b1e ca3c 7b2d c03c 666d 62bd cb30 1d3d
00000230: 35da 883d 62a9 00be cb97 453e 4374 60be
00000240: 8b0b b0bd 055a 99bd e4c8 8b3d a47f 303c
00000250: f936 75bc 2a66 01be b191 2cbd fcf0 84bc
00000260: 0017 ad3d ce0a 073d 7a1b 6c3d bea5 113d
00000270: 7e92 11bd f33d b739 f00b 91bd 20a2 5fbd
00000280: 3f95 92bc 5df7 5dbd 3b9d 633d 3398 06be
00000290: a016 26bd 7c99 73bd d03d 97bc 6812 df3c
000002a0: 5d89 c4bc a9b7 38bb 58df a13d 3459 21bc
000002b0: e6ca d73d 55a8 8abd 40bf 00be b71e b83d
000002c0: 63e9 96bd d70f 253b 73d5 b83d 3ef3 81bd
000002d0: 1059 083d f799 cebb e165 f83a 7013 88bc
000002e0: 8123 ad3c ba4d fdbc 53b1 0d3e 9707 4a3c
000002f0: 535e 423d b734 92bd 9cd1 0b3b c32a ed3d
00000300: e97c 80bd ef44 89bd 9cab 1cbc 752b 323d
00000310: 6478 7dbc 77fe 563c a813 3cbc 938e 913d
00000320: f3fb 493c 7b6e 103e 5cc1 e8bd 262d f2bc
00000330: 3dc6 ae3c fae2 a2bd a4ff db3d 9b27 8abd
00000340: 892b 6a3d 006b ca3d 5c1b b7bd 84ba 57bd
00000350: 2855 b53d 991b acbb 1e81 3dbd 44d0 9a3d
00000360: 6b09 863b 8087 083e 4e21 cdbc ee90 99bd
00000370: f8ab 3d3d 7335 b6bc a38b 9abd 17d6 8e3d
00000380: e691 41bd 06e0 73bd 7d14 063c 5ca1 aabd
00000390: 6b04 03be c8ff 663c e039 5ebb c849 abbd
000003a0: 113e acbd b488 ad3d 3e60 2b3d 8ce8 fcbc
000003b0: 6332 6a3b 2915 59bd d441 1cb9 6157 cbbc
000003c0: 613d 053e d588 0e3e 665a e2bd 14db 1dbc
000003d0: 48a7 abbd bc32 11bd 4cdb 5cbd 8387 ddbd
000003e0: a9c0 a0bc 45dc c2bd 59e5 2bbd 455d a9bb
000003f0: 34af 59bd 9a32 aabd d433 183d a1ef 6dbd
