results/AttackerDefender_Skill1_v1/Attacker/Attacker-3000024.onnx (onnx, 891078 bytes, 17 tensors)

discrete_act_size_vector f4 [1, 2]
00000000: 0000 a040 0000 4040
5.0 3.0

network_body.observation_encoder.processors.0.conv_layers.0.weight f4 [16, 5, 8, 8]
00000000: b5c5 8c3d 796f 243d e6cf 66bd 40a4 85bd
00000010: cb04 053d 3b66 303d d564 193c 74b2 dabb
00000020: 414b d63d 6ca0 2bbb f2f0 233c 7d57 d83b
00000030: be49 99bb b3e1 983c 4ada d73a fe59 013d
00000040: c81a b4bd e586 b9bc 5874 3abc 4476 55bd
00000050: 5bce 353c 5aed c73d 7e2e 043b 8735 063d
00000060: f236 9e3d 35a4 cb3d b79d e0bd 9d7d b73d
00000070: f0e3 9a3c cafc 86bc cc15 b8bd 817b 8ebb
00000080: 4876 54bc 5ebd 763c 6ae4 89bb 3ea8 c8bb
00000090: 7bbf 2fbb 1b8e c9bc e17c e23c b46c a53c
000000a0: 16d2 6a3c d434 bdbc eeac 61bc ff63 07be
000000b0: 2aa1 84bd 0011 00bd 0c5f 8ebd 4e31 333d
000000c0: 3027 8ebd 9baf 36bd 985d b4bd 646a f83c
000000d0: d462 823d 8dea 553d ff2b d5bd 4dc1 87bd
000000e0: 6d1b 9f3d 26d9 ddbd 59f7 e23c f7f1 f43b
000000f0: b1c7 553d 3cca 1e3e b560 823c 70bf 593d
00000100: b5e1 743c ac34 e83c 1c49 953d 39ce 053d
00000110: 6c7b 783c c511 723c 63a4 6e3d fa1c 0b3e
00000120: be1e 0a3e abed 833d 691a 603c 3d7d 003c
00000130: d6dc e639 f90d 75bd 3646 59bd 31bd 11bd
00000140: bce4 c23c 5c0d 1f3c 1618 a93d 6f0a 173d
00000150: fa0f d83d bf88 99bd bac7 fd3d 0764 663d
00000160: 4969 8b3d 6540 17bd 97b4 d0bd 6eac c7bd
00000170: 9161 05bd 0115 083e 9c3a af3b 7b39 48bd
00000180: 5f6f f33c 5a26 4ebb 6677 02bd 0d9d f2bd
00000190: 9218 96bd 5206 babd 5664 6ebd 4bab d1bc
000001a0: 5a28 febd 14cf 6c3d d537 8b3c 37b0 b63b
000001b0: d41d b1bd 57e1 463c 3adb 17bd 93de a8bd
000001c0: 67be 413d 549d 723d b592 cd3b 6da6 823d
000001d0: d2fa a33c a49b f53c 533e 8abc 5de6 d8bc
000001e0: f58b 5abd 5132 80bc 09e1 1ebe 2e7f 283d
000001f0: 56c5 e33c bb22 b33d fb7f 8fbd 5df9 78bd
00000200: 9649 0b3e af8d c23c ef85 273e ed26 dc3c
00000210: 5918 06bd 5438 ef3c 55ed dcbc a2e1 56bd
00000220: 163e c23d 0fe4 a73c 33fe 0bbd 71e0 423c
00000230: 286f a4bd 6855 8f3d bc87 d93d b7fd abbc
00000240: 86dd 273d 4fde e3bb de61 8f3c 71a3 973d
00000250: adb7 a4bc 179a 04bd 4def cbbd f88f 05be
00000260: 23a4 24be be05 9fbc f1d2 6dbd 5446 34bd
00000270: 5dba 393d 6211 17bd 9480 283d aaeb bf3d
00000280: 2b0a ddbc 7ecf 1e3d 2738 da3c 490c 91bb
00000290: 9af1 41bc 4418 6cbd a23d 8e3d 11e3 4cbd
000002a0: c46d fb3d dd5a d83c 32bc 79bd 4167 993d
000002b0: 2fc5 273d ade0 513d f8c3 a33d 189f 62bd
000002c0: b0d9 a3bd 9874 383c 91c8 16bd 0e17 f8bc
000002d0: 362c 403c 242e 60bb bcf5 473c bb2d 37bc
000002e0: 47d3 62bd 12a6 bf3c 99a6 b3bd 4360 8ebb
000002f0: b8ca dd3d 933e a8bc 4da9 ee3d 39e9 28bd
00000300: 0d15 a73d 7de4 d4bd 152d 373e 1969 063e
00000310: 3a13 a5bd 13d1 aebd e978 35bc 310e c63c
00000320: b1ae 003d a37a 5abd a767 263e c055 363e
00000330: 10cd fc3c f48e 06bd bfa9 383d dc69 3bbd
00000340: e860 d23d d7b4 323c 9190 98bd a2c1 41bd
00000350: b9ff 82bd dca0 683d 56ef 4b3d 85d8 edbd
00000360: 1bb2 023e 0d73 dfbb 40c4 9e3d f501 7a3d
00000370: 04af f83d 2095 ef37 d8af c5bd 202b 5b3b
00000380: 6f36 213e 8e03 47bd a86a 34bd 6f08 5fbd
00000390: b9d4 a63d db96 89bd 08ae e53c 8c2c d4bd
000003a0: b31e d8bc 6f0d 4bbd d406 8c3d d1f1 013e
000003b0: 9f50 813d 8ab6 debb 3157 9b3d 9522 07be
000003c0: 7eab 7dbd ad9c 63bd 343d a7bd a5db 343e
000003d0: d098 79bb bc19 ce3c 8889 993d d1c7 82bd
000003e0: 4eca 113c 41f0 2b3d 0d18 68bc 88ea 673d
000003f0: e103 043e 2895 96b9 5968 f1bd 8b36 52be
0.06873647 0.04014537 -0.05635061 -0.06525469 0.032475274 0.043066245 0.009362419 -0.0066741053
0.10463572 -0.0026188148 0.010006176 0.0066022263 -0.00467798 0.01866231 0.0016468253 0.031579964
-0.087941706 -0.02264733 -0.011380278 -0.05211474 0.011096562 0.09762068 0.0020169313 0.03276589
0.07725324 0.099434294 -0.10967582 0.08959506 0.018907517 -0.016477961 -0.089885324 -0.004348219
-0.012967654 0.015059797 -0.0042081373 -0.0061235717 -0.0026817012 -0.024603894 0.027647438 0.020193435
0.014332315 -0.02309648 -0.01377414 -0.13221739 -0.06476052 -0.031266212 -0.069517225 0.043748192
-0.06941068 -0.044601064 -0.08806914 0.030324169 0.06366506 0.05222564 -0.10408782 -0.06628666
0.07768903 -0.108324334 0.027705835 0.0074751335 0.052192394 0.15506834 0.015915254 0.053161085
0.014946391 0.028345428 0.07289335 0.032667372 0.015166145 0.014774744 0.05826224 0.13585272
0.1348829 0.06441816 0.013678172 0.007842359 0.00044033554 -0.05982778 -0.053045474 -0.035580818
0.02379071 0.009707775 0.08256547 0.036875185 0.10549922 -0.07496785 0.123916104 0.056247737
0.06807191 -0.036926646 -0.10190695 -0.09749685 -0.03256375 0.13289262 0.005347563 -0.048882943
0.029716192 -0.0031455965 -0.03185215 -0.11846361 -0.07328905 -0.09083237 -0.058201157 -0.025594374
-0.1241004 0.057814673 0.016994396 0.0055752057 -0.086482674 0.012138686 -0.037074305 -0.08245578
0.047300722 0.05923207 0.0062735924 0.063793994 0.020017061 0.029981442 -0.016875422 -0.026477033
-0.05335613 -0.015648993 -0.15515532 0.041136913 0.027804058 0.08746859 -0.07006832 -0.060784686
0.1360229 0.0237492 0.16359685 0.02687403 -0.032738063 0.029201664 -0.026968637 -0.052461274
0.09484498 0.020494489 -0.03417797 0.011894331 -0.08029014 0.06998712 0.106215924 -0.020995004
0.040982746 -0.0069539915 0.017502721 0.07404221 -0.020107115 -0.032373514 -0.099577524 -0.13043201
-0.16078238 -0.019411918 -0.058062498 -0.044012383 0.045343745 -0.036881812 0.041138247 0.09371121
-0.026982388 0.0387721 0.026638104 -0.0044265133 -0.011837387 -0.05764033 0.06945349 -0.050021235
0.122767955 0.026410514 -0.060970493 0.07490397 0.040959533 0.05123966 0.079963624 -0.055327505
-0.08000505 0.011258267 -0.03681237 -0.03028443 0.011729291 -0.003420719 0.012204584 -0.011180337
-0.05537727 0.023394618 -0.0877201 -0.0043449714 0.10829681 -0.02053765 0.11653385 -0.041238043
0.08158312 -0.10395143 0.17888291 0.13126029 -0.08060308 -0.085359715 -0.0110761905 0.024176689
0.0314166 -0.05333961 0.16250478 0.17806149 0.0308595 -0.032851174 0.045083757 -0.045755252
0.1027239 0.010907373 -0.07449449 -0.047303803 -0.063964315 0.056794032 0.049788795 -0.116135634
0.12763254 -0.006819135 0.077522755 0.061037023 0.121427566 2.8560462e-05 -0.0965268 0.0033442453
0.15743421 -0.048587374 -0.044047028 -0.054451402 0.081460424 -0.067182265 0.028037086 -0.10360059
-0.026381826 -0.04957336 0.0683724 0.12689902 0.063142054 -0.0067966627 0.0758499 -0.13196786
-0.061931126 -0.05556934 -0.081659704 0.17661913 -0.0038085468 0.025158755 0.07496935 -0.06385768
0.008898331 0.04197717 -0.01416589 0.05662015 0.12892105 -0.0002872136 -0.11787481 -0.20528619

network_body.observation_encoder.processors.0.conv_layers.0.bias f4 [16]
00000000: 5a8f 39bd 5228 71bc 7ce5 f43c a5b6 513b
00000010: c242 843c 1526 aebc d60d ba39 207b d6bc
00000020: 30ad f63c e8f9 a0bd 4b4c 80bd 49f4 0cbd
00000030: 44ad f8bb 5e71 8bbc fb1e 3cbc 900c 1ebd
-0.045302726 -0.014719086 0.029894583 0.0031999734 0.016145114 -0.021258393 0.00035486993 -0.026181757
0.03011188 -0.07860166 -0.06264552 -0.034412656 -0.0075890142 -0.017021831 -0.011481996 -0.0385862

network_body.observation_encoder.processors.0.conv_layers.2.weight f4 [32, 16, 4, 4]
00000000: 3f99 703c c024 3fbc 3140 c13b 8dbf e33c
00000010: afcb 9a3c 4c45 803c 7d80 9a3d e6a1 993d
00000020: 80b3 1c3d 8b77 043d d535 0f3d 4913 16bd
00000030: 3ff4 bcbb a20f 873d d7b2 8b3d a985 103a
00000040: 2231 39bd cc80 9ebd 1da8 b73b 3752 22bd
00000050: e9ce 083d 3788 bdbd fec9 f1bc 9bd0 983b
00000060: b06a e23c 67f9 a93d c488 a13c db86 773c
00000070: 819d 2c3d cec0 a8bd f04c 463d 9c3f 4abd
00000080: 1452 1ebd ae92 b5bd a031 30bd 11ec fcbc
00000090: dbcc 3e3c 1900 87bc 8406 babc 63b3 50bd
000000a0: 1bf5 a03c c2ab a63d 98eb 0f3c b693 b8ba
000000b0: 723f 45bd 226c 993d bb5a 9e3d aa0f abbc
000000c0: 085e c73c f873 bfbb 8ffa 813c 0c5c a23d
000000d0: 3f1b 553d a03a 77bd 4e39 c33d 5b60 01bc
000000e0: c02d a03d b6e6 8fbd 7279 afbd 9214 86bc
000000f0: 6d11 d6bb 98d7 dcba e5cc 373d 29a6 ebbc
00000100: fb5f 913c 7503 a93c 98f1 c53c 53c5 88bc
00000110: 9a0c 3cbc 4065 03be 0a24 13bd 13ad 8b3d
00000120: 2a41 8bbc 171d b73c ecab 813d 653d 0e3d
00000130: d007 29bd 520d e93c 6da9 34bc 80ff c23a
00000140: ab19 16bd 6bf4 95bd 3fd6 0ebd becc 653c
00000150: d3ee babc 70f9 b23b fccf 75bd 65d7 37bb
00000160: 9254 b8bc 6018 c6bd 2b2a 7e3d e2b6 79bd
00000170: 9524 8dbd a611 b1bd 3e64 bfbd ce82 99bd
00000180: 0984 63bd ab64 103d 419c 7ebd 87dd 34bd
00000190: e873 c7bc d534 c1bd ff8b 94bc 3b5b a93b
000001a0: 5769 fc3c a307 ab3d 3a5e c13d 710a e8bc
000001b0: abba 43bc 9a91 4f3a d616 17bd 5b7e 3cbc
000001c0: f489 35bd 96bb 9dbd cb0d cc3c 59ae b23b
000001d0: f9bd 8e3c dc9c eebc 28e8 f4bb 3634 dabc
000001e0: 0b61 363d f5ed 783c 61ec d1bb de1d ee3c
000001f0: 1636 e9bc e506 8d3d 8e23 fb3b 295b 6d3c
00000200: a69d 443b e039 023c 53be bd3c 3e83 30bd
00000210: 37a4 34bc 910c a5bd 09e0 243b 46fa 103d
00000220: 7742 303d da44 e03d fd85 ebbd 749e 34bb
00000230: 8bde 85bc caa4 17bd 51eb 863c 0a91 313c
00000240: eef5 33bd 351f 1abd c279 d3bc 80f1 d6bd
00000250: cf87 0cbb ef1e f4ba f1a0 953c 4fd8 3f3d
00000260: 54d3 b43c 160a 96bc bc92 9dbd 740e a23c
00000270: 9950 a83c 218b 973d 8d79 f8bc 17c7 c83c
00000280: 9d2c 0a3c 738e 2e3d 23db d33d 0227 54b8
00000290: a891 593d 8740 17bd f6b5 64bd 95ce 1dbd
000002a0: 9feb 823c 3764 0ebd f6e7 99bc e527 31bd
000002b0: 8a7c 8e3c 33fc 7dbd 5f52 bebd 05ac 093d
000002c0: ac33 98bd bbc7 96bd 57b8 3bbd 3848 23bd
000002d0: 711e 0e3c 32d2 84bd 060c 2fbd b852 9b3d
000002e0: 1e45 a83b 475d 423d 19a2 b93c 95eb 293c
000002f0: 2800 3dbd abcf 873d 80c8 0bbd 1bae 553c
00000300: 33d2 27bd d957 b1bc b6f3 21bd 009c 80bd
00000310: 1096 46bd d3ac c1bd 7acc 103d 3dc8 4b3d
00000320: 14f3 a63c 7030 753d c2ba adbd e01e 373d
00000330: d9a4 41bc 824a 233d 2b6d 95bd 8f08 ddbc
00000340: 9022 8cbd aa53 0d3d fc58 783d ef67 c3bc
00000350: 8cfa 48bd b1b6 763d 494d 80bd aa92 a43c
00000360: 405a 92bd 585a 85bc 4f84 a8bd d867 acbd
00000370: 0ec4 523d 0ec1 0c3d da76 3b3c 744a 65bd
00000380: a149 513b ee63 923b 9c1f 82bd b139 34bd
00000390: ac61 11bd 452c 4b3d 4d81 d6bc 1706 c2ba
000003a0: ad60 19bc 186a ae3c 8496 d8bc 8eaa fe3b
000003b0: 3ec2 62bd 7f8e 163d 3c54 d2bb 2dce e73b
000003c0: 68f4 96bd b365 d1bc b993 fbbb 5981 8a3a
000003d0: 4653 b9bc 1196 8c3d 6f4b 0abd 35cc a3bc
000003e0: 85ca bf3b 5f50 7cbc e5a8 73bc 9c6e d0bd
000003f0: 9918 123d 16f9 91bd fab5 993c 579f a03c
0.014684974 -0.011666477 0.005897545 0.0278013 0.018895952 0.015658043 0.075440384 0.07501583
0.038257122 0.032340568 0.034963448 -0.036639486 -0.005766421 0.065947786 0.0682122 0.0005513081
-0.045212872 -0.0773941 0.0056047575 -0.039629187 0.03340045 -0.092544965 -0.029515263 0.0046635396
0.027638763 0.08299523 0.019718535 0.015107836 0.042142395 -0.082398996 0.048413217 -0.04937707
-0.038652495 -0.088658676 -0.043016076 -0.030874284 0.011645521 -0.016479539 -0.022708185 -0.050952327
0.019648125 0.08138229 0.008784197 -0.0014082107 -0.04815621 0.07491328 0.07732149 -0.020881493
0.02433683 -0.005842682 0.015866546 0.07927713 0.052027937 -0.060358644 0.095324144 -0.007896508
0.07821226 -0.070264265 -0.08568086 -0.01636723 -0.006532839 -0.001684892 0.044873137 -0.028765755
0.017745962 0.020631531 0.024163052 -0.016695654 -0.011477614 -0.12831593 -0.03592304 0.06820121
-0.016998846 0.022352738 0.063316196 0.03472652 -0.041267216 0.028448734 -0.011026722 0.001487717
-0.036645573 -0.0732201 -0.03487229 0.014025865 -0.022818958 0.005461864 -0.060012802 -0.002805197
-0.022501264 -0.09672618 0.062051933 -0.060965426 -0.06891743 -0.08645944 -0.093452916 -0.07495652
-0.05554584 0.035252254 -0.062160734 -0.044156577 -0.02434726 -0.09433905 -0.018133162 0.005168346
0.030811949 0.08351066 0.094418004 -0.028325291 -0.011946361 0.00079181197 -0.036887012 -0.011504735
-0.044321015 -0.07701795 0.02490892 0.0054529128 0.01742457 -0.02912753 -0.0074739642 -0.026636224
0.04452614 0.015193452 -0.0064063524 0.029066976 -0.028468173 0.06886081 0.0076641506 0.014487066
0.0030001192 0.007948369 0.023162043 -0.043093912 -0.01102548 -0.080590375 0.002515795 0.03539493
0.043032136 0.109506324 -0.115001656 -0.0027560266 -0.016341468 -0.03702239 0.01646963 0.010837803
-0.04393571 -0.037627418 -0.025814895 -0.10495281 -0.0021443253 -0.0018624942 0.01826522 0.046837147
0.022073425 -0.018315356 -0.07694003 0.019782282 0.020546244 0.073995836 -0.030331397 0.024508996
0.008433488 0.04261632 0.103445314 -5.0581068e-05 0.053117424 -0.036926772 -0.055837594 -0.03852709
0.015981494 -0.03476354 -0.018787365 -0.043250937 0.01739337 -0.062008094 -0.09293055 0.033611316
-0.07431731 -0.07362314 -0.045830097 -0.039863795 0.00867425 -0.06485404 -0.042736076 0.07584137
0.0051351925 0.047452237 0.022660302 0.010371109 -0.046142727 0.066314064 -0.03412676 0.013041998
-0.040971946 -0.021648334 -0.03953906 -0.06279755 -0.048482955 -0.09456792 0.035351254 0.04975151
0.02037958 0.059860647 -0.08482887 0.04470718 -0.011819088 0.039865978 -0.07296213 -0.02698162
-0.0684253 0.034503616 0.060631737 -0.02385327 -0.049067065 0.06023282 -0.06264741 0.020089466
-0.0714612 -0.01627843 -0.08228361 -0.08418244 0.051456504 0.0343638 0.011441911 -0.055979207
0.0031934755 0.004467479 -0.06353685 -0.04400033 -0.035493538 0.049602766 -0.026184702 -0.001480284
-0.009361428 0.021290824 -0.026438959 0.0077717965 -0.055361025 0.03675699 -0.006418733 0.0070741386
-0.073708355 -0.02556119 -0.007677522 0.0010567113 -0.022622716 0.068645604 -0.033763345 -0.019994834
0.0058529996 -0.015400021 -0.014871811 -0.10177347 0.03566799 -0.071275875 0.018763531 0.01960723

network_body.observation_encoder.processors.0.conv_layers.2.bias f4 [32]
00000000: 7b87 743d 7bf5 aabc eb73 d4bc f8b8 84bc
00000010: 268c 7fbb ff04 813d 91f8 11b9 d68b e2bb
00000020: 9d98 a5bb 56ab b93c 8a31 92bd 5e8d 63bc
00000030: 7641 0c3d 89a2 4d3d 2397 94bd 82e8 bfbc
00000040: ef14 183c e6c2 e6bc 4d27 dc3b 7b05 90bc
00000050: 8489 883d 35e8 253d 9771 e2bc b009 26bc
00000060: 0ab3 203d e5ca 7dbc 490b 0d3c 236e 37bc
00000070: 0698 aebc c7d8 88bc f719 fabb 25a5 553d
0.059699517 -0.020869007 -0.02593418 -0.016201481 -0.0038993447 0.06299781 -0.00013920876 -0.0069136424
-0.0050535933 0.022664707 -0.07138355 -0.013888685 0.034242116 0.050203834 -0.072553895 -0.023426298
0.009282335 -0.028169107 0.006718552 -0.017580738 0.06666854 0.040504653 -0.027642054 -0.010134146
0.039233245 -0.015490268 0.008608648 -0.011195692 -0.021312725 -0.01670493 -0.00763249 0.052159447

network_body.observation_encoder.processors.0.dense.0.weight f4 [256, 32]
00000000: 3c1c 583e 1998 5fbe d3e0 213d ef86 87be
00000010: e2e9 d33d 5985 cd3d 1c55 2abe 8011 c9be
00000020: 5cc3 60be d2f8 493e cdad c53d 3258 c33e
00000030: 5a7c d03e 1c3e da3c 2c4f 453e d384 ffbd
00000040: 2dd4 113e da5c 89be 94b2 9f3e 2af8 423d
00000050: b7c0 d33d 394c 2d3f aff9 593e 82af fe3e
00000060: fad1 aabe ed40 79bd d401 5c3d 8430 f5be
00000070: 03e7 bf3e 62a8 013e 1b22 a63d 2a7d 5fbe
00000080: 2dc4 44be 90de 1bbd 19f4 cf3d b464 943e
00000090: eb49 66be 990d 973e 1134 46be 01bf 8b3e
000000a0: 2f32 7abd a337 b9be 5ad3 ee3e e602 1e3e
000000b0: ce8a 823e c2f1 cdbc 6580 0a3e 33f5 f0be
000000c0: b7d6 91be 359b 043d bbb3 163f 0bd8 0b3f
000000d0: 2091 af3e 4583 44be 733c 4c3e 623e 73bd
000000e0: a895 b8be 0d9f 18be a518 8a3b dd6f 193c
000000f0: d81d 5b3e 8e04 88be dc8d d3be ad40 063e
00000100: 5bfd f93d 08ff 073d 422e c33d 63a7 10bf
00000110: 8d44 b13e c003 7fbe f680 81be 4185 263d
00000120: 0074 30be 8fb2 da3d 966d f43d e7df b5be
00000130: 06da ac3d 37ef 37bd 29a4 643d 9078 f4bb
00000140: 84f8 e63c 9bc7 f13e 1aca 29be 90b0 b83d
00000150: b40f bfbe 3204 0d3e cbc0 9e3c 2b8e 923e
00000160: 76e9 50be 8d75 d3bd 82b4 813d 5aa8 73be
00000170: 7fba f93d ed99 3c3e 1893 10be 5576 37bd
00000180: 2355 a7bd 9ff7 9a3e 7537 0abf de60 d03d
00000190: 8d41 a2bd 7b05 2c3d c6bb 183e 99da 93be
000001a0: b0cc 5abd 1d7a 9ebd 9200 023f 1140 693e
000001b0: 8039 94bc 772e b63d 043a ba3e 328b 2abe
000001c0: b93c d1be b8fd 053f 77a6 12bc 03e1 093e
000001d0: c58c ca3e a415 eebe a51b 9f3e beb5 6fbe
000001e0: 6350 843e c75e f53c f8fe b53d 6106 373d
000001f0: f6b1 20bf 7392 50bd 6b2d 9cbe 7368 9abe
00000200: 7cf6 003e ae38 173b b2ed f8bd 46de ebbe
00000210: 22e1 ac3e 33f6 e2be d5bb b2be 02e9 72be
00000220: cc9c a8bd 57b7 753e e5f7 30be 408a 643e
00000230: fb20 eabd a09a 823e 01c3 c5be be4b 3a3d
00000240: 8bb7 04bf d854 7ebe 0471 c23e d626 833e
00000250: e520 853d 0c65 043f d41b 4f3e c6f0 c63e
00000260: c48e ecbc 42c7 48bd cbaf b13d 6922 973d
00000270: b4a8 34be f812 443e 8a7e cd3e 8a63 d0be
00000280: df79 0e3f c019 843e c91a a23e 9a7c 503d
00000290: fbd9 31be 5776 0f3e 3f63 21be cf9c 67be
000002a0: 2513 e4bd 21b6 05be e7fc 39be bf56 1e3e
000002b0: fe97 d1bc a0da 9dbe 045c ec3e fed0 2b3e
000002c0: 971f b6bd 2d83 2abc 8649 9d3e d369 873d
000002d0: 8e2a 44be 4af8 143e 3da4 2bbe c45d 883d
000002e0: db5b c5be ab46 1ebd fa5e 6cbd 174f 5dbd
000002f0: b9c1 5dbe a20c 0cbe fa28 89be d4d7 79be
00000300: 6261 ac3e c122 ccbd f54f c9bd 3a5b 82be
00000310: 3cae 033e 246c ec3d 8e5c 013e 07a3 b3be
00000320: 47ef 7dbc 4633 c63e 99fe b5be 974f ce3e
00000330: 47e9 9b3e e2b3 f73d 4ed3 6e3e 6831 e1bd
00000340: 7950 07be 14f1 96be 3593 6cbe d06b e8be
00000350: a529 ee3e f8f0 423e 55ab 0bbe 8c1e 753d
00000360: 16a9 333f 726e 17be 9879 833d 130c 613e
00000370: 1faf a43d 655e 3bbd 8e81 cfbe 3a41 153e
00000380: 9097 60bf 08e1 ab3e 294c 80be d5d9 c9be
00000390: 852b e7bc ae9d 87bd 2cd1 27be e189 be3e
000003a0: efef f5bc 1744 e43d a904 7ebd bf89 793e
000003b0: 9a4f aa39 069b e13d d52d aebe 4e4a 653d
000003c0: c068 16bd 2052 6e3e 2b0c bf3d 58a1 8c3e
000003d0: 62e8 383e 65bd 17bf 7f40 92bd f5a8 f1bd
000003e0: 326e 033e f7b0 f9be b02d 983e c97c 47be
000003f0: 8c08 c3bd a0de 46be d815 babe edd5 003f
0.2110452 -0.21835364 0.03952105 -0.26470134 0.10347344 0.100352 -0.16634029 -0.39271164
-0.21949524 0.19723824 0.096522905 0.38153225 0.40719873 0.026640944 0.19268483 -0.12476506
0.14241095 -0.26828653 0.31190932 0.04759995 0.10339492 0.6769443 0.21286653 0.49743277
-0.33363324 -0.060852934 0.05371268 -0.47888577 0.37480935 0.12661889 0.08111974 -0.2182509
-0.1921546 -0.03805405 0.1015398 0.2898308 -0.22489135 0.29502562 -0.193558 0.27294162
-0.061083015 -0.3617526 0.46645623 0.15430793 0.25496525 -0.025139693 0.13525541 -0.47062072
-0.28484127 0.03237458 0.58867997 0.5462653 0.3429041 -0.191907 0.19944935 -0.059385665
-0.3605168 -0.14904423 0.0042143636 0.009365049 0.21398103 -0.26565975 -0.41319168 0.1311061
0.12206527 0.0332022 0.09530307 -0.5650541 0.34622613 -0.24903774 -0.25293702 0.040654425
-0.1723175 0.106785886 0.11934964 -0.35522386 0.08440022 -0.044905867 0.055820618 -0.007460661
0.028194673 0.472226 -0.16581002 0.090180516 -0.37316668 0.13771132 0.01937904 0.2862409
-0.20401558 -0.103251554 0.06333257 -0.2379469 0.121937744 0.18418093 -0.14118612 -0.044790585
-0.081705354 0.30267045 -0.5399087 0.10174726 -0.07922659 0.041997414 0.1491538 -0.28877714
-0.05341786 -0.07738135 0.5078212 0.22778346 -0.018093824 0.08895581 0.36372387 -0.16654661
-0.4086664 0.5234027 -0.008950821 0.13464741 0.39560524 -0.46500885 0.3107578 -0.23409173
0.2584258 0.02995242 0.08886522 0.044683818 -0.62771547 -0.050920915 -0.305034 -0.30157813
0.12594026 0.0023074555 -0.12154712 -0.4606802 0.33765513 -0.4432846 -0.3490893 -0.23721698
-0.08233032 0.2399572 -0.17282064 0.22318363 -0.11432072 0.25508595 -0.3862534 0.04548239
-0.51842564 -0.24837053 0.3797685 0.25615567 0.06500415 0.51716685 0.2022546 0.3885557
-0.02887667 -0.049018152 0.08676108 0.0737961 -0.1764248 0.19147861 0.40135604 -0.40700942
0.5565471 0.25800896 0.3166106 0.05090008 -0.17368309 0.14009987 -0.15760516 -0.22618411
-0.11136464 -0.13057758 -0.18162881 0.15462779 -0.02558517 -0.3083086 0.46163952 0.16778943
-0.08892744 -0.010407251 0.30720156 0.06611981 -0.19156858 0.1454784 -0.1676187 0.066585094
-0.38546643 -0.038641613 -0.057707764 -0.054030504 -0.2165593 -0.13676694 -0.26789075 -0.24398738
0.33668047 -0.09967566 -0.09829704 -0.25460225 0.12859434 0.11544064 0.12632963 -0.35085317
-0.015498943 0.38710994 -0.35545805 0.40295097 0.30451414 0.12094857 0.23322794 -0.109957516
-0.13214292 -0.29480803 -0.2310303 -0.45394754 0.46516147 0.19037235 -0.13639577 0.059843585
0.7017988 -0.14788225 0.064196765 0.21977262 0.08041214 -0.04574432 -0.4052853 0.14575663
-0.87731266 0.33570123 -0.25058106 -0.39424005 -0.028218994 -0.06621872 -0.16388386 0.37214568
-0.030021636 0.111457996 -0.062016163 0.24368952 0.00032484235 0.110158965 -0.34019342 0.055979066
-0.03672099 0.23273516 0.09328493 0.27466846 0.18057397 -0.5927337 -0.07141208 -0.11799804
0.12835005 -0.48767826 0.29722357 -0.19481196 -0.095231146 -0.19420862 -0.3634479 0.50326425

network_body.observation_encoder.processors.0.dense.0.bias f4 [256]
00000000: d8e2 35bb c687 a83c 1d1d 1f3d 10d5 093d
00000010: 58e2 2b3d be95 583d 82a5 f83c 116c 94bc
00000020: b7db 1a3d a686 e13c 322e 163d 7ecf 483c
00000030: 9a19 193c f785 923c bcd8 363d 0a6a c13b
00000040: 668b 15bd ece5 d13c 3337 f9bc c13b 6d3c
00000050: f088 2a3a 8a59 19bc 1bd5 dfbc f667 e1ba
00000060: 9c63 2c3d e0bb 93bc 4d2e f33b ce71 e03c
00000070: 8b66 623c 3add 8b3c 8f5b a33c a93b 723d
00000080: b1a2 4fbc a3dc 8d3b 7b54 93ba 4363 343c
00000090: 13e0 12ba ba3a c43c 1a41 c2bc b3a4 5bbc
000000a0: 2d9e 2f3d 0722 213c 2058 2f3c 0a20 55bc
000000b0: f4d6 113d af15 08bd a3b9 0c3b 6c44 913c
000000c0: e8bb 333d a1e4 4a3d 3950 733c 62fc 083c
000000d0: 0004 923c 37d6 523d 6049 453d 6ebb e93c
000000e0: e6b4 e83c 4c79 1a3d f713 0c3d 4efb 5a3d
000000f0: 01d7 e43c 8429 7bbc edcf ee3c 60f4 1e3d
00000100: fa92 98bb 1448 afba 6396 a63c c66d 433c
00000110: 6faa 583d 0c95 dfbb ab84 83bc 8986 8e3b
00000120: dc94 aebc 8466 c23c e03d aa3c a750 203d
00000130: f4d9 563c d0db 0f3d d8c4 dc3b 052d 80bb
00000140: 3934 4bbc cacc bf3c c095 a23c 6a23 c2bc
00000150: 38e1 393c a3ee 273d 1b70 013c 8515 a1bc
00000160: 428c dd3c a88a 123d 853d 1bba 8f37 733d
00000170: 65e4 c53c 84e0 aa3b d808 b33c ec86 d33c
00000180: 78b9 dfbc 5590 083d 0886 65bc 9294 8b3c
00000190: 16d3 d83c 2bbc e03b 9598 3b3c 4d28 973c
000001a0: 1084 0c3c b868 243d 7355 f93c 4555 68bb
000001b0: af8b dfbb dfb9 3b3d a338 a73c a077 a13b
000001c0: b2cb d63c 94ac eabb 22e2 123d 53c4 22bc
000001d0: 306c efb9 b40d a13b cd5e 2fbb 9465 0dbc
000001e0: c21d 383d d738 dd3b 11b2 aabc c184 d63c
000001f0: 9821 cf3c dcef 2bbb 827b 03bc 407e 053d
00000200: ecad da3b 25c3 4b3c 9ce8 9dbb 67c8 2cbc
00000210: c127 8f3c 8043 8c3c f2a1 cb3c 931f e33b
00000220: f58a 333c e711 903c b41d 8dbc ce27 aebc
00000230: af6a 133c 8dab 07bc c5fb 113b 1b62 023d
00000240: 631c 8b3d 4345 bd3c a332 2fbb e97d 643d
00000250: 1e37 6bbb e8c0 553d 2b80 3f3c 4b45 203d
00000260: 9371 483d e541 9d3c 4776 823d 8201 8e3b
00000270: faa2 8d3d 5ac5 4e3d b578 533d c4d0 c03c
00000280: aa5d ab3c 7f8b e73b d0be 283d cab1 153d
00000290: b864 ecbb 5050 b43b fc92 6bbc 217b da3b
000002a0: 0e03 203d ecbc 083d 524a 943d 94ea 843c
000002b0: 4f63 2b3a bf2d 40bc d305 c03c 4404 213d
000002c0: d8a2 723c 1022 3f3d 9d3d eb3b 6f73 103d
000002d0: d9b7 413c b9a9 a53c 7028 593c 286f 433d
000002e0: dbeb 273d c095 eabc df0a 0b3c 88ca fa3a
000002f0: 7568 0b3d 1e1f 16bb 54cf bf3c e487 ad39
00000300: 5879 f43b 14ce 563d 7fdf 003d ad7e 263c
00000310: f2a6 193d 8c7c 573d 2ae2 95bc b9a5 df3c
00000320: 2a7c 9db9 4764 98ba 6312 a43b 82f0 b13c
00000330: 0760 753c 07ab 28bc 1011 f93b d1f6 c73c
00000340: 363f 243c 08f2 303c 6a09 113d 3787 173c
00000350: c0c0 193c 5dfb 153d 5708 013d 005f 9c3c
00000360: 1c94 bf3b e484 9eb9 b927 d43c 9edd 3ebb
00000370: 562d e3bc 7870 d43b 8abc e13b 45e4 8abc
00000380: 63cb d43c b7e8 b83b 44d5 493b 50b2 cbb9
00000390: 2a4b a7bb 4521 793c 2d80 073c a3d9 66bb
000003a0: fe7b cabc ebb2 a83c d0c9 033d f6d8 33bc
000003b0: 534e 0cbd 9959 04bc 28c1 903c fe8c ad3c
000003c0: e7e0 173c 4d31 8c3c 190a 9f3c 3bf0 113d
000003d0: 95c0 413d fdfa 9a3c a935 72bc c8bc 22bb
000003e0: 75fa 7c3d f8e8 933c 7afb 393c 6c00 8f3c
000003f0: 90d1 70bb e8fc 253c ec51 5abc a608 d0bc
-0.0027753618 0.020572554 0.038846124 0.033650458 0.041963905 0.05287718 0.030352358 -0.018117936
0.037807193 0.027530026 0.03666515 0.012256501 0.009344483 0.017886145 0.044640288 0.0059025334
-0.036509894 0.02562233 -0.030421829 0.0144795785 0.00065053906 -0.009359727 -0.027323296 -0.001719712
0.042087182 -0.018033922 0.007421291 0.027398016 0.013818393 0.017073262 0.01994112 0.059138928
-0.012673066 0.0043292805 -0.0011240387 0.011009994 -0.00056028477 0.023953784 -0.023712683 -0.013405967
0.042875458 0.009834773 0.010702163 -0.013008127 0.035605386 -0.033223804 0.0021472953 0.017732821
0.043880373 0.049534444 0.01485067 0.008360954 0.017824173 0.051473822 0.04816568 0.028531756
0.028406572 0.037713334 0.034198727 0.05346232 0.027934553 -0.015329722 0.029151881 0.038807273
-0.004656193 -0.0013372921 0.020335382 0.0119280275 0.052896913 -0.0068231877 -0.016054472 0.004349534
-0.021311216 0.023730524 0.020781457 0.039139416 0.0131134875 0.03512174 0.006737333 -0.0039116167
-0.012402588 0.02341308 0.019846797 -0.023698527 0.0113452 0.040999066 0.007900263 -0.019663582
0.02704442 0.035776764 -0.0005921948 0.059379157 0.024156759 0.0052147526 0.021854803 0.025821172
-0.027310118 0.03334077 -0.014009006 0.017038617 0.026467841 0.006858369 0.011449953 0.018451834
0.008576408 0.04013893 0.030436253 -0.0035451215 -0.0068220715 0.045831557 0.020412749 0.0049275905
0.026220176 -0.007161686 0.03586019 -0.009934503 -0.00045666238 0.0049149636 -0.0026759387 -0.008630175
0.044950254 0.0067511606 -0.020836862 0.026186349 0.025284573 -0.0026235497 -0.008025052 0.032591105
0.006673565 0.012436663 -0.004818989 -0.0105458265 0.01747501 0.01712203 0.024857495 0.006931254
0.010958423 0.017586662 -0.017226078 -0.021259215 0.008997603 -0.008280647 0.002227531 0.031831842
0.06792524 0.023104316 -0.0026733063 0.05578414 -0.0035891007 0.052185923 0.0116882725 0.039128583
0.048936438 0.01919646 0.06370216 0.004333676 0.06915851 0.050481178 0.051628787 0.023537047
0.020918686 0.00706619 0.041197598 0.036546506 -0.007214155 0.005502738 -0.0143783055 0.00666751
0.039065413 0.033383295 0.07240738 0.016225137 0.00065379305 -0.011729657 0.023440277 0.03931071
0.014809333 0.046663344 0.0071789757 0.035266336 0.011823618 0.020222532 0.01325427 0.04771343
0.040996414 -0.02863586 0.008486479 0.0019133845 0.034035165 -0.002290673 0.023414291 0.00033098378
0.0074607544 0.052442625 0.031463142 0.010162038 0.037512727 0.05260901 -0.01829632 0.027300702
-0.00030037883 -0.0011626565 0.0050070747 0.021721128 0.014976508 -0.010294682 0.007600911 0.024409683
0.010024836 0.010799892 0.03540937 0.009248546 0.009384334 0.03661667 0.031502094 0.019088268
0.0058465134 -0.0003023512 0.025897847 -0.0029123793 -0.027731579 0.006483134 0.0068889307 -0.01695455
0.025975889 0.005642976 0.0030797282 -0.0003885203 -0.005105396 0.015205686 0.008270306 -0.0035224936
-0.024717327 0.020593127 0.032174885 -0.0109770205 -0.034254383 -0.008078002 0.01767023 0.021185394
0.0092699295 0.017113352 0.019413995 0.035629492 0.0473028 0.018918509 -0.014783301 -0.002483176
0.061762292 0.018055424 0.011351461 0.017456256 -0.0036746003 0.010131098 -0.013325196 -0.025394749

network_body._body_endoder.seq_layers.0.weight f4 [256, 256]
00000000: 32df 9f3c 0a0a 37bd f765 b43d 5044 473d
00000010: 351e b43d b86b 853d 629a 0abe 11ab 08bc
00000020: aec7 debd 596e 8f3d 4fa7 483d 1cf5 aa3a
00000030: 485a 27be 5f56 2dbd 1f86 a7bd 1725 f23d
00000040: 8f27 e13d 80e8 843d 7e42 14bd bb19 05be
00000050: e26e 9b3d 1413 8e3b 8ddc a63d 4e59 27bd
00000060: 3536 cb3c ca8b a73d 74d9 b13c 2471 173d
00000070: 623c 3abb 1b5d 8ebc f2ee 8e3d 4d38 4abe
00000080: bace 873d ccfe bbbc 265b 90bd c968 c33c
00000090: 9cf2 eebd b9e4 183d 2b3f 5c3c 932d 953d
000000a0: bc84 1ebe da0c 4bbd 1c55 fcbd c1a0 013e
000000b0: 4230 88bc 1dc1 c83d ecbb 1fbd 44af 9cbd
000000c0: 992a 913c 9372 26be b216 da3c 3de5 7f3d
000000d0: c7d6 d43d f048 52bd 9ee8 523d ec03 8abd
000000e0: 7563 aa3c e27b 1abd 6aeb 48bd 6125 adbb
000000f0: 46e0 473d de4a 263d fb5a c4bd 208c 97bd
00000100: 9428 923c 92a4 22bd df7a 7fbd c9c6 d2bd
00000110: 9b40 473d 925c 4f3d 30d3 9cbd 2ffa d4bc
00000120: 8bbf e63c da48 60bc 64fa 01be 7697 6738
00000130: 19a4 cc3d 48d2 bf3c 3e4b a7bb 632d 4d3d
00000140: a6e1 533c f2f3 44be ab75 4fbc c97b 1bbd
00000150: 2170 e5bc fd8e 7d3c b114 bcbd a1cb 1bbc
00000160: f526 0bbe 115a e339 827b 43bd debd 06be
00000170: 7c4a 2dbc fad8 0b3d 6cf6 c8bd 8708 d13d
00000180: 310e 2ebe 94a2 0e3b 88d2 e13c fbe3 03be
00000190: 9fef ff3b b615 f8bb 3263 8abd bcf5 8a3d
000001a0: adea 07bd a060 abbc 49fa 563c 4ac9 9a3d
000001b0: c5fc 073a 815c 183e 0315 cb3d a1d8 0a3c
000001c0: e2b0 1abc 58ea d0bd 6999 de3d 98bb 92bd
000001d0: c77e 32be acd7 ed3c c80c 713d 0f76 e0bd
000001e0: 0181 5c3c 517c 13bd 7c7b 5f3d 7a8a 0dbc
000001f0: 49cd c73d 2b54 f13d 1672 04bd 7a09 a8bd
00000200: 1bf2 34bd e001 6f3d 7a26 bbbd 67f7 a2bd
00000210: dd93 09bd ab3b a73d 3c98 cfbb 35de 02bc
00000220: 3f1a 463a e0a3 25bd 9585 b3bd 5ca2 7abd
00000230: 989e f6bc cb7d 84bd 598d b1bd 43ab 2bbd
00000240: c4d7 4dbd 356d b4bd b4ba 983a f219 2a3d
00000250: 1ccc a3bc e36e 47bd a3d8 483c 7214 b43d
00000260: 22d4 00be c0cf 4a3d e334 5f3d 6ff8 0bbd
00000270: e23d 8abd d496 5e3d 41ed 783d 691f 0bbe
00000280: 8af5 90bc e76d a9bc b211 bcbd c4d2 aa3c
00000290: 37e3 683d 5de7 b0bc e76a 42bd 3d07 13be
000002a0: cdfb d73d f547 e53d a18d debb c6e7 b4bc
000002b0: e234 853d 0ed7 103d 1440 45bd 971b 1c3e
000002c0: 5b00 28bd 6c73 943d c493 723d d5a5 a7bd
000002d0: d95e 88bc 5d0f 9ebc 9def 79bb dfc3 043c
000002e0: 60e9 043e fcdc e9bc 1c40 a2bd 4723 f0bb
000002f0: a816 2ebe 183f 243d dd43 2dbe f613 ff3c
00000300: c6c9 24bd 2fd9 033e 00f4 eabd 86f8 52bc
00000310: 1ff7 bdba dbf5 1b3c c4f5 85bd 5a98 a6bd
00000320: dcf4 193d 2c09 d03d 188c 0abe 577d 183d
00000330: 774f e73d e739 86bc 0362 7b3d dd57 813a
00000340: f92a ecbd ec61 c7bd 375a 72bd 9600 9cbd
00000350: 9351 10bd d0d6 58bc 613c 1c3d 89c1 b0bc
00000360: b880 133d ce78 6f3d ade9 75bd 8e10 bf3c
00000370: 79c3 31bc 123c 25bd 5cd5 983d 0caa 10be
00000380: 215b f6bc 15b1 03bd 975f 31ba c9a2 ae3c
00000390: e24f 03be ba5a b93c 6858 723c 8b6f 2dbe
000003a0: dce1 2c3b 8ff6 d03c d99d 8e3d b42e 99bb
000003b0: 7d42 7d3d 34af 553d 93d9 a73d b7a6 913a
000003c0: a577 4dbd 6a79 54bd 33a6 5dbc 6ba0 803d
000003d0: 9d6c b4bc 8618 7cbd 1994 d63c 1e65 e6bc
000003e0: 1ccb 243c ef0a c33d 24b1 eb3c 0c50 a8bd
000003f0: 4512 333d ecb4 923c cf3f e3bc 91c2 983d
0.019515608 -0.04468731 0.08808511 0.048649132 0.08794824 0.06514686 -0.13535455 -0.008341567
-0.1087793 0.07003469 0.048987683 0.0013043019 -0.16343033 -0.042318698 -0.081798784 0.118234806
0.10993873 0.06489658 -0.036196224 -0.12998097 0.075895086 0.0043357704 0.081475355 -0.040856652
0.024806121 0.081809595 0.021710135 0.036973134 -0.0028417339 -0.01737838 0.06979169 -0.1974804
0.06631227 -0.022948645 -0.07048635 0.023853676 -0.11667368 0.037327502 0.013442795 0.07284083
-0.15480322 -0.049572803 -0.12320921 0.12658979 -0.016624574 0.098024584 -0.038997576 -0.07650617
0.017720507 -0.16254644 0.02662215 0.062474478 0.10392528 -0.05133909 0.051491372 -0.06739029
0.020799378 -0.0377158 -0.049052633 -0.005283997 0.04879787 0.040598743 -0.09587666 -0.073997736
0.017841615 -0.039707728 -0.06237304 -0.102918215 0.048645597 0.05062539 -0.07657468 -0.025998203
0.028167507 -0.013689244 -0.12693173 5.521575e-05 0.09992237 0.0234157 -0.005105405 0.050092112
0.012932217 -0.19233683 -0.012662332 -0.037959848 -0.028007569 0.015475986 -0.09183634 -0.009508998
-0.1358908 0.0004336392 -0.047725208 -0.13158366 -0.0105768405 0.03414247 -0.09812626 0.102067046
-0.16997601 0.0021764385 0.02756621 -0.12879936 0.0078105475 -0.0075709475 -0.06757201 0.06785151
-0.03318279 -0.020920098 0.013121196 0.07557924 0.0005187507 0.14879037 0.09916117 0.0084745
-0.009441586 -0.102009475 0.108691044 -0.07164687 -0.17431174 0.029033504 0.05885008 -0.10960018
0.013458491 -0.03600723 0.054561123 -0.008638972 0.09755952 0.11783632 -0.032335363 -0.082049325
-0.044176202 0.058351398 -0.09138198 -0.079573445 -0.03358828 0.08165678 -0.0063352864 -0.007987549
0.00075570116 -0.040439487 -0.08765713 -0.061189994 -0.03010492 -0.064693056 -0.08669538 -0.041911375
-0.0502546 -0.08809892 0.0011652322 0.04152865 -0.019994788 -0.048689734 0.0122586815 0.08792962
-0.12580922 0.049514532 0.054493796 -0.03417247 -0.067500845 0.05434306 0.060773138 -0.13586201
-0.017695207 -0.020682288 -0.091830626 0.020852454 0.056857314 -0.021594698 -0.04746523 -0.1435823
0.10546074 0.11195365 -0.006791786 -0.022083174 0.06504227 0.035361342 -0.048156813 0.152449
-0.041015964 0.072485775 0.05922295 -0.08185927 -0.01664679 -0.019294435 -0.0038137205 0.00810334
0.1297965 -0.028547756 -0.07922384 -0.007328424 -0.1700083 0.040099233 -0.16920419 0.031137448
-0.04023149 0.12875818 -0.114723206 -0.012876635 -0.0014493203 0.009519066 -0.06541017 -0.081345275
0.03758703 0.101579994 -0.13530004 0.03722891 0.112944536 -0.016385032 0.061372768 0.0009868104
-0.11531634 -0.09735474 -0.059168067 -0.07617299 -0.035234045 -0.013234809 0.03814352 -0.02157666
0.036011428 0.058464818 -0.060037304 0.023323324 -0.010849827 -0.04034049 0.0746257 -0.14127368
-0.03007275 -0.0321513 -0.0006766258 0.021317856 -0.12823442 0.02262627 0.0147915855 -0.16937082
0.002637974 0.025508193 0.06963701 -0.004674757 0.061830986 0.05216904 0.08195796 0.0011112307
-0.05016293 -0.051873602 -0.0135283945 0.06280597 -0.022024447 -0.061546825 0.026193665 -0.028124388
0.010058191 0.0952357 0.02877099 -0.08218393 0.043718595 0.017908536 -0.027740387 0.074589856

network_body._body_endoder.seq_layers.0.bias f4 [256]
00000000: ebce 19ba b104 5e3c 0172 bc3b 5413 6ebb
00000010: 6dc6 bfbb a415 a33b 713b a93c 5e93 2ebc
00000020: 0c43 cd3b 7b49 55bc 749d 103c 516a 9d3b
00000030: 054f 9e3c 1473 813b 59ab abbb 1e62 8c3c
00000040: 250e 073c 5729 8eb9 bbd3 42bc cced 893c
00000050: fc3c cb3b ca68 133d 49dd 0f3c 0288 9a3b
00000060: 3067 883c e9c1 1b3c 66f1 f03b d7ef 0d3c
00000070: 7898 84ba b73d 873c 59be 93bb 1338 033c
00000080: 34a8 a03c cdbf cc3c a415 533c 9f6e 21bc
00000090: acce 8c3b 8576 583c 61b9 a63c b2e8 43bb
000000a0: 42fb 2a3b cc58 6abb aa4d bd3c 7854 993b
000000b0: 1754 283c 03d9 8bbc 2238 973c c0b6 893b
000000c0: 1649 0a3b f253 06bc 4db6 60bb 2ddd 793c
000000d0: 633b 29bb 8cb2 893c 5301 2d37 f6f1 db3a
000000e0: 8758 a93a 218b 9aba 3d56 0d3c 10a5 de3c
000000f0: 8d5a 0a3c 11ae 8c3c db07 213b 52fd 90bb
00000100: 03ca e43b 4b27 943c e48e c7bc 40a7 983c
00000110: 65df 4b3c 6ac8 873c e6d8 f6bb bcf4 ee3c
00000120: a574 8b3c c37d 6f3c 75b5 c23c 4b04 873a
00000130: d684 6dbc b130 ef3b 2c9f 45bc a1ca f33b
00000140: f3f0 d93b f59e f6bb 5528 8e3c 549f 2b3c
00000150: 81b6 8c3c b050 b53c ad1d 04bc 9f80 f1bb
00000160: 490a 2bbc d5c7 aebb 39c0 43bc 0a00 b83c
00000170: 3a62 8b3c e134 9b3b a000 6eba 7dbe 603b
00000180: 7634 113c 557e 54bb a89e a83c 0aa8 0cbb
00000190: 0541 afbb 9e81 9aba b204 0d3c 2b8c f6ba
000001a0: 8cfc 6fbc 86d0 e4b9 3852 05bc 4266 303c
000001b0: 6b85 c33c dbec eb3b 6210 37bc fdfb e23c
000001c0: 30f1 363c a6f7 953c 0602 393c debb a43b
000001d0: 5e04 3c3b 60c9 013d a17a 0bbc 18be 443c
000001e0: e456 d8bb d9be 293c 121f 7c3c d608 e6bb
000001f0: 2651 30bb 74e9 3a3c 3691 4e3c 8242 de3b
00000200: 1b00 fa3b f2b8 2e3c cac4 b03c b98c d03b
00000210: 3589 6bbb 2a21 343b 2b97 9c3b 2bb1 78bc
00000220: 885e 4a3b 52a3 b43b 806e 933c 5c6f a9bb
00000230: 7a03 4e3c c547 d33c 5cd3 90bc 4236 d0ba
00000240: 9730 bdbc 13ee e3bb 0e09 1ebc 3f73 d23c
00000250: 0b68 f03b 6f1c 7f3c e91c 133b 3929 2e3b
00000260: e03d 4abc 03b8 9c3b c9dd 943c a264 173c
00000270: b0d5 263b f803 353c acee 743c 56a9 8a3c
00000280: b10f 6f3c b6f8 29bc f87d 0a3d b95e 1f3c
00000290: ec2d 21bc dc17 443c 8c9d ae3b ecc5 ed3b
000002a0: 77f8 843c 1e73 283c cfdf 92bc dfed 923c
000002b0: 37a0 c13b 73bc d7b8 2b17 ca3c 04da 4c3c
000002c0: b117 483a 8dd7 eebb 8784 2c3d c557 e73b
000002d0: ef7f 8a3c db98 873c 55ba d63c 0256 4c3c
000002e0: c4a0 af3b 5716 2c3c da38 193c 80e8 0dbc
000002f0: 2d88 a53c e935 9bb9 8dad 773c 2093 81bc
00000300: 9f92 e0ba 7ea1 693b 9a1d a73c 972a fa3b
00000310: e706 783c 4fde aabc 6fe9 843c 9f69 093c
00000320: d2d1 bf3b aaf5 4f3c 5107 373a 9ed8 7f3c
00000330: 71b0 c7b9 6865 20bb 6116 b93a 0320 053c
00000340: 4238 7ebc b622 4f3a abb8 1f3c 0858 a1bb
00000350: 13e4 b23a 77e4 58ba 3817 9cbc da92 af3a
00000360: 760a 9dbb d007 b0bc 88ba f9ba 7e52 8e3c
00000370: 0c72 a03c ab06 b13b 946e c03c 6bd5 38bc
00000380: 53ae 6d3c bfbf 113c 2f1c b83b f833 ba3b
00000390: f00c 8c3c 6e4c 1d3c 903a 063d 0a32 673c
000003a0: 90fa 463c f7ba 2d39 9849 12bc 09ac d63b
000003b0: 3ae1 71ba 8277 1e3c 5369 09bb 49c4 30bb
000003c0: 991d a33b 5c7e 9abc 13d9 613b 4381 84bb
000003d0: f6f9 bfbb 5b48 fa3b a0df 783c b40e 5d3c
000003e0: 499d 923c 0f2d 503c d0fe 933c c2de aa3c
000003f0: 0571 65bc 153d d5bb 8fc3 e43c a43e b53c
-0.000586732 0.013550923 0.005750895 -0.0036327438 -0.0058525116 0.004976945 0.020658227 -0.010655252
0.006264096 -0.013018007 0.008826602 0.0048039337 0.019324789 0.003950486 -0.005238932 0.01713663
0.008243118 -0.0002711515 -0.011891301 0.016837023 0.0062023383 0.035988607 0.008780786 0.0047159204
0.016650766 0.009506681 0.0073529957 0.008663139 -0.001011624 0.01650892 -0.004508775 0.008008975
0.019611456 0.024993801 0.0128835775 -0.009853034 0.004297098 0.013211851 0.020352067 -0.0029893336
0.0026089703 -0.0035758493 0.023108322 0.004679259 0.010273955 -0.017071253 0.018459383 0.0042026937
0.0021100692 -0.008198725 -0.0034288347 0.015250486 -0.002582275 0.01680877 1.0311912e-05 0.0016780484
0.001292006 -0.0011790731 0.008626518 0.027178317 0.008444441 0.017172845 0.0024571333 -0.0044247294
0.0069820895 0.018085143 -0.024360128 0.018634439 0.012443398 0.016575057 -0.0075331805 0.029169433
0.017023394 0.014617386 0.023768166 0.0010300962 -0.014497003 0.0072995056 -0.012061875 0.0074399267
0.006651038 -0.0075262734 0.017353216 0.0104749985 0.017176868 0.022133201 -0.008063716 -0.007370069
-0.010439464 -0.0053338804 -0.011947685 0.022460956 0.017014612 0.0047365283 -0.00090790726 0.0034293227
0.008862605 -0.0032423933 0.020583466 -0.0021462464 -0.005348327 -0.0011787897 0.0086070765 -0.0018810084
-0.014647614 -0.0004364291 -0.008137278 0.010766568 0.02386733 0.007199866 -0.01117334 0.027708048
0.011165902 0.018306565 0.011291986 0.0050272783 0.0028689126 0.031686187 -0.008513124 0.0120082125
-0.006602155 0.010360443 0.015388267 -0.0070200963 -0.0026903837 0.011408199 0.012607863 0.0067828307
0.007629407 0.010664212 0.021578211 0.0063644317 -0.0035939936 0.0027485588 0.004778763 -0.015178959
0.00308791 0.0055126334 0.017997026 -0.005170746 0.012574071 0.025791058 -0.017678909 -0.0015885311
-0.023094459 -0.006955871 -0.0096457135 0.02568972 0.0073366216 0.015570744 0.0022447652 0.0026574864
-0.012343854 0.004782678 0.018172162 0.009240301 0.0025456958 0.0110483095 0.014949482 0.016926449
0.0145911435 -0.010374239 0.03381154 0.0097271735 -0.009837609 0.011968579 0.0053288396 0.00725626
0.016231759 0.010281352 -0.017928986 0.017935691 0.0059089917 -0.000102871 0.02466925 0.012503151
0.0007632925 -0.0072888792 0.042118575 0.0070600235 0.016906707 0.01655238 0.026211897 0.012471678
0.005359741 0.010503373 0.009351933 -0.008661389 0.020206535 -0.0002960407 0.015117061 -0.015817225
-0.001713354 0.0035649235 0.020399857 0.0076344716 0.015138364 -0.020857958 0.016224591 0.008386998
0.00585387 0.012692848 0.0006981986 0.01561561 -0.00038087697 -0.0024474505 0.0014121049 0.008125308
-0.015516343 0.00079015957 0.009748618 -0.004923824 0.0013648294 -0.000827379 -0.01905404 0.0013395206
-0.004792507 -0.0214881 -0.0019052783 0.01737332 0.019585632 0.005402406 0.023490228 -0.011281352
0.014506894 0.0088958135 0.005618594 0.0056824647 0.017096013 0.009600742 0.032770693 0.014111051
0.0121447 0.00016568216 -0.008928679 0.00655127 -0.0009226982 0.009672048 -0.002096732 -0.0026972464
0.0049778935 -0.018859081 0.0034461662 -0.0040437295 -0.005858655 0.00763802 0.015190035 0.013492275
0.017897265 0.012706055 0.01806584 0.020858172 -0.014003997 -0.0065075257 0.02792528 0.022124596

network_body._body_endoder.seq_layers.2.weight f4 [256, 256]
00000000: 1a04 1f3e 519b 3cbe bae6 1bbc 6a45 fa3c
00000010: 97f1 8c3d e8fa 823d 60b1 113d a035 8cbd
00000020: 79b7 1a3e c8be 85bd d749 1bbd be7b 7bbd
00000030: 5784 3cbc 15b7 b2ba 0b5b 3bbc 9795 12bc
00000040: a11f 193e 584a 3a3e b620 a7bd 6736 1dbd
00000050: 201f 80bd 55e7 d7bd 6727 8bbd 9eed e3bd
00000060: df80 6ebd 980c 05be 074e 33bd 7a07 eabc
00000070: 55c1 7c3d 69da 1bbe 324f 2d3d 6cf7 3abe
00000080: e59f 32bd 3c8a bfbd 9d3c e83c 6104 ab3d
00000090: 0f14 dd3d f398 94bd d540 463d f262 c33d
000000a0: f776 eebc 773e 933d 635f 37be 2686 123d
000000b0: 5786 a53d fa96 4a3e bf74 c7bd 457f 31bd
000000c0: ab36 b63c ad6d 6cbd 7eb8 0abe f2d9 643d
000000d0: fca0 b73d 816e f03d 3fea 013e 14c0 42bb
000000e0: ccad 91bd 7b8d 083e 2340 2bbd 3233 113d
000000f0: 2802 6b3d b095 13be 3f2b 0ebe 852f f2bc
00000100: 853f ca3d a757 1fbd 05bf 503d 5f5e 1fbd
00000110: d928 0bbe 2c6d 843d c400 be3b 3e75 443d
00000120: 2159 25bd 37fd 00be d722 523d abc3 b7bd
00000130: 9fb7 733d 0dba bd3c 3693 98bd 2593 15be
00000140: 55a1 ebbb 9a2f 0fbd 33da 653d 5f7c 323e
00000150: 2353 1abd 3fb5 083d c426 f83d 71bc b23d
00000160: 4614 86bc 6e00 c03d dd0d 2cbe 90da 163d
00000170: b66a 8e3d 2d2f 1abe 2903 71bd 995f 9abd
00000180: 948a 4f3d 28a0 4dbd 4d80 b73c c6b2 843d
00000190: 743a 2fbd 8ac4 0c3d 8e3d 5f3d 412d 8ebd
000001a0: b341 7bbd 2aa0 143e ae3b 203d 6b78 50bd
000001b0: f9ab e43b b34b 1bbd 95d8 563d d75f c2bc
000001c0: 34c3 17be 143f 3d3c 136b 363d 9313 f93d
000001d0: 690e a7bd 1c51 033e b69c 81bd 2221 dc3d
000001e0: f151 07bd 8c7b c23d 8836 aebd 42d8 0abe
000001f0: eeea 23bd 7e1c dbbd a2eb 043e 1121 58bd
00000200: 5d5b 54bc e127 6b3d 1d53 5ebe 0942 163e
00000210: 8dcb 873d ed45 a73c 857b 273c 6083 b03c
00000220: 355b b03c d492 e13c 17a0 b3bd 55d2 033d
00000230: 08fa a63d a198 24be cbc4 493e c566 7abe
00000240: 6f73 a9bd e455 aabd 71db 763d 622e a93b
00000250: 2267 bb3b 8c03 f6bd 6f62 b4bc 0a71 3abd
00000260: a7d7 aa3d d014 943c de88 8d3d a4fa 523c
00000270: 6052 dbbc 2919 953c 87fc 94bd 99af 81bd
00000280: f39c 5bbc 351b 70bd 26d2 3a3d 45b4 f9bd
00000290: 2600 43bd 2742 a6bd a515 09bc 4d1c 6a3d
000002a0: f229 71bc b1a6 bfba 4e10 8b3d e205 77bb
000002b0: a71f 0b3e fe40 99bd 1adf 07be b999 e63d
000002c0: 215c 76bd 4aaf 683c 598c 6a3d a50f ccbd
000002d0: 22d1 bd3c 79c0 9dbc 1d66 a5bc 88ec 4bbb
000002e0: 6bdc dc3c 978e 62bd 6d97 233e a5c2 913c
000002f0: 6948 2e3d e6e4 b8bd 350f 4a3c bfc3 ed3d
00000300: d3f2 b8bd 9b3f babd 06c7 873a d1fc 8c3d
00000310: e752 b73c a422 1a3c 3484 1bbc 8c8e a33d
00000320: c4ca b1bc 27d5 133e 68f6 f3bd 7530 01bd
00000330: ca54 293d cf02 a8bd c85f 003e ae95 e8bd
00000340: 5efb 593d aee5 c63d d1cc a2bd 9f6f 00bd
00000350: a8c5 dd3d 525a d23a e39e f4bc 06c6 853d
00000360: 4299 78bb 77f9 023e beec 03bd 45a4 8abd
00000370: f91f 4e3d 762f 0ebd 388b debd e27a 483d
00000380: 8922 6abd 4271 96bd 4f1f b03c 69be 91bd
00000390: 45c6 0fbe d483 eebc fa20 b4bc 5575 bcbd
000003a0: 1024 8abd 2dcb 8a3d ba0b 583d 3585 8bbc
000003b0: 91fb 81ba f0e5 1ebd a59b 0ebc 1016 bebc
000003c0: a050 253e 37c4 173e ab17 1bbe d923 97bc
000003d0: 396d e7bd dff6 8ebc f226 81bd 9729 c3bd
000003e0: 843c a6bc e9bd acbd 6a07 4cbd 3690 12bc
000003f0: f562 76bd 1e63 d4bd beee c63c 1979 68bd
0.15528908 -0.18418624 -0.009515459 0.030550677 0.06882017 0.06395513 0.03556955 -0.06846166
0.15109052 -0.06530529 -0.037912216 -0.061397307 -0.011506162 -0.0013634885 -0.011435281 -0.008946798
0.14953472 0.18192422 -0.08160536 -0.03838196 -0.062559366 -0.1054217 -0.06794625 -0.11129306
-0.05822837 -0.12993085 -0.043775585 -0.028568018 0.061707813 -0.15220036 0.042311855 -0.18258446
-0.04360952 -0.09352538 0.028349215 0.083504446 0.107948415 -0.07255735 0.048401672 0.09540357
-0.029109461 0.071896486 -0.17907481 0.035772465 0.08082264 0.19784155 -0.097390644 -0.043334264
0.022242865 -0.057721782 -0.1354694 0.05587191 0.08966252 0.11739827 0.12687014 -0.0029716538
-0.07113227 0.1333522 -0.041809212 0.035449214 0.057375103 -0.1441257 -0.13883685 -0.029563675
0.09875397 -0.03890195 0.05096342 -0.03890836 -0.13589801 0.064661354 0.005798431 0.047963373
-0.040368203 -0.12596594 0.051302757 -0.089728676 0.059501287 0.023160005 -0.07449953 -0.14606912
-0.007190863 -0.034957506 0.056116294 0.17430256 -0.03767694 0.033375975 0.12116769 0.087273486
-0.016367089 0.09375082 -0.16802163 0.03682953 0.06953947 -0.15057059 -0.058840904 -0.07537765
0.050669268 -0.050201565 0.022400046 0.06479411 -0.042780355 0.03436712 0.054502062 -0.06942225
-0.061341953 0.14514223 0.039119415 -0.05089609 0.0069785086 -0.03791399 0.052452642 -0.02372734
-0.14820558 0.0115506835 0.044535708 0.121619366 -0.081570454 0.1282391 -0.06328718 0.10748507
-0.03303713 0.09496221 -0.08506495 -0.13559058 -0.04001897 -0.10698794 0.12980512 -0.05276591
-0.012961236 0.05741108 -0.21711393 0.14673628 0.06630621 0.020419085 0.01022232 0.02154702
0.021527866 0.027535833 -0.08770769 0.03218301 0.081531584 -0.16073848 0.19703977 -0.24453266
-0.0827397 -0.083171636 0.06026787 0.005163 0.0057190815 -0.12012395 -0.022019593 -0.04551796
0.08341914 0.01807633 0.06910871 0.01287714 -0.026772678 0.018200474 -0.07274728 -0.06332321
-0.013404119 -0.058619697 0.04561057 -0.12192587 -0.047607563 -0.08118086 -0.008366977 0.057155896
-0.014719473 -0.0014621821 0.06790219 -0.0037692715 0.13586293 -0.074830994 -0.132687 0.11259789
-0.060146455 0.014201948 0.057262752 -0.099639215 0.023171011 -0.019256817 -0.020190293 -0.0031116325
0.026960572 -0.055311766 0.15975733 0.017793009 0.042549524 -0.09028034 0.012332727 0.11609601
-0.0903069 -0.09094163 0.0010358996 0.068841584 0.022378398 0.009407673 -0.009491969 0.07986173
-0.021703131 0.1443678 -0.11912233 -0.031540353 0.041340627 -0.08203661 0.12536538 -0.11356674
0.053218238 0.09711777 -0.07949222 -0.03135645 0.108287156 0.0016048646 -0.02986092 0.065319106
-0.0037933146 0.12790476 -0.032208197 -0.06769613 0.05032346 -0.03471323 -0.108663976 0.048945315
-0.05716184 -0.07345821 0.021499304 -0.07116396 -0.14040478 -0.029115595 -0.02198838 -0.09202067
-0.067451596 0.06777034 0.05274556 -0.017031291 -0.0009916892 -0.038793504 -0.008704101 -0.02320388
0.16144037 0.14820944 -0.15145747 -0.01844971 -0.113001294 -0.017451702 -0.06306256 -0.09529417
-0.020292528 -0.0843466 -0.049811758 -0.008945515 -0.060152967 -0.103704676 0.024283763 -0.056756113
