results/AttackerDefender_Skill1_v1/Attacker/Attacker-1999999.onnx (onnx, 891078 bytes, 17 tensors)

discrete_act_size_vector f4 [1, 2]
5.0 3.0
00000000: 0000 a040 0000 4040

network_body.observation_encoder.processors.0.conv_layers.0.weight f4 [16, 5, 8, 8]
0.05343218 0.02657574 -0.04986535 -0.059746422 0.04715097 0.032962766 0.018603293 -0.06373069
0.09301705 -0.018806439 0.009644906 0.0039151036 -0.008176707 0.007554282 -0.0113434745 0.04208582
-0.08651941 -0.017323762 -0.008543538 -0.054123044 0.010889259 0.086306795 0.010187057 0.0527197
0.084791735 0.0939222 -0.10403068 0.100021675 0.027621161 0.011017599 -0.06690396 0.01019022
-0.009848965 0.015696669 0.007276094 0.0026529755 0.0065229633 -0.048217736 0.00745377 -0.00025031462
0.009762769 -0.01772131 -0.016784418 -0.13742779 -0.06729807 -0.020634517 -0.059379637 0.042168036
-0.065749176 -0.052224766 -0.089148454 0.03177587 0.053436756 0.06782398 -0.077723905 -0.06757914
0.06129002 -0.09894414 0.0066003264 0.022878988 0.062153205 0.17082791 0.03678998 0.03935732
0.034394614 0.00017855989 0.06891892 0.02811756 -0.008329365 0.028008802 0.06401192 0.124563985
0.1504357 0.07548037 0.01111147 0.010139437 -0.021764768 -0.05728354 -0.053623244 -0.033826068
0.013552894 -0.0043513947 0.067898184 0.0353121 0.10254844 -0.059402056 0.11996535 0.08111849
0.06198056 -0.03158508 -0.09287547 -0.06310259 -0.033885434 0.1351195 0.0033406115 -0.08449385
0.029268967 0.0014475533 -0.03702759 -0.11237424 -0.07217469 -0.09156704 -0.055874705 -0.032118537
-0.12373885 0.05417224 0.008633508 0.009341474 -0.089048386 0.030636411 -0.039245836 -0.090881996
0.044132408 0.06238311 -0.0041326894 0.045751274 0.033305462 0.03308196 0.00022707004 -0.013686552
-0.059495628 -0.014749506 -0.14913858 0.06778454 0.030681532 0.1000855 -0.07851621 -0.088708974
0.13328883 0.0107115125 0.1357823 0.033494018 -0.019877788 0.027141545 -0.031621598 -0.049537838
0.08306577 0.020081185 -0.03336871 -0.013415622 -0.073115766 0.06650514 0.10761597 -0.022945551
0.021902751 0.0058565265 -0.014770158 0.078305766 0.0027953265 -0.038785476 -0.08673325 -0.120647706
-0.16436972 -0.022818055 -0.053097762 -0.039108668 0.039908376 -0.026089808 0.028592203 0.10989988
-0.028565956 0.042156793 -0.0011954717 0.005780544 0.004762602 -0.04705663 0.067592286 -0.041970056
0.1272348 0.019773612 -0.043289475 0.061201002 0.04001615 0.059196673 0.07814318 -0.061146695
-0.08029533 0.024234844 -0.012221297 -0.051897317 0.0124229435 -0.012378474 0.0040558917 0.00092429
-0.05951897 0.013068997 -0.06711683 -0.001601135 0.11626506 -0.017747099 0.11290404 -0.029440321
0.07829803 -0.11066553 0.17126855 0.11475551 -0.06469851 -0.071124844 -0.0030776537 0.032899577
0.037054516 -0.052692138 0.17254414 0.19602765 0.03090674 -0.038724985 0.042011227 -0.051793937
0.079640575 0.027052741 -0.09328922 -0.03025998 -0.06292936 0.042388808 0.057500202 -0.10708255
0.119469 -0.017263094 0.07604445 0.056133974 0.13150291 0.019395692 -0.10284874 -0.005621447
0.15554433 -0.014137216 -0.041704144 -0.024086421 0.09537311 -0.033975974 0.033082385 -0.10411063
-0.014341249 -0.039017078 0.058870245 0.090945095 0.04295332 -0.024564419 0.064601555 -0.11898901
-0.06654461 -0.06232451 -0.09188088 0.1339372 0.0027187443 0.035107985 0.06815206 -0.060064334
0.0065180887 0.036069244 -0.013113475 0.054920763 0.12293836 0.02728932 -0.12157909 -0.19955604
00000000: b4db 5a3d 5eb5 d93c 9c3f 4cbd aab8 74bd
00000010: 6021 413d f703 073d ef65 983c 3c85 82bd
00000020: b97f be3d f60f 9abc ab05 1e3c 454a 803b
00000030: 98f7 05bc e989 f73b fbd9 39bc 2e62 2c3d
00000040: 1731 b1bd 90ea 8dbc 32fa 0bbc 20b0 5dbd
00000050: dd68 323c 9ec1 b03d 9de7 263c 9df0 573d
00000060: 4aa7 ad3d 485a c03d 0a0e d5bd 2ad8 cc3d
00000070: c645 e23c 2983 343c f204 89bd e1f4 263c
00000080: 8e5d 21bc 4d96 803c 4d6c ee3b 8bdd 2d3b
00000090: 95be d53b f67f 45bd c13e f43b a93c 83b9
000000a0: 05f4 1f3c 482c 91bc 7a7f 89bc dfb9 0cbe
000000b0: 92d3 89bd b809 a9bc 1038 73bd 64b8 2c3d
000000c0: 81a7 86bd a3e9 55bd 7793 b6bd 6a27 023d
000000d0: 80e0 5a3d 4ce7 8a3d b62d 9fbd ef66 8abd
000000e0: 3e0b 7b3d 3aa3 cabd 8d47 d83b b76c bb3c
000000f0: 5c94 7e3d 83ed 2e3e 17b1 163d 2435 213d
00000100: 5ee1 0c3d ce3b 3b39 5d25 8d3d cc56 e63c
00000110: e477 08bc b772 e53c ae18 833d 671b ff3d
00000120: d10b 1a3e 7495 9a3d e20c 363c e21f 263c
00000130: 074c b2bc 25a2 6abd 0ca4 5bbd 348d 0abd
00000140: f50c 5e3c 2596 8ebb 340e 8b3d 6ca3 103d
00000150: eb04 d23d 924f 73bd 65b0 f53d 7321 a63d
00000160: 54df 7d3d 5b5f 01bd 7f35 bebd ee3b 81bd
00000170: 74cb 0abd c45c 0a3e 29ee 5a3b 1d0b adbd
00000180: 79c5 ef3c d4bb bd3a 3eaa 17bd 7724 e6bd
00000190: 53d0 93bd 8087 bbbd e0dc 64bd ba8e 03bd
000001a0: cb6a fdbd b6e3 5d3d 8f73 0d3c fb0c 193c
000001b0: 005f b6bd 36f9 fa3c 3ec0 20bd 5720 babd
000001c0: 2fc4 343d 6f85 7f3d 836b 87bb b065 3b3d
000001d0: 4f6b 083d f380 073d a619 6e39 8f3d 60bc
000001e0: b0b1 73bd e9a7 71bc c9b7 18be 9fd2 8a3d
000001f0: d657 fb3c a0f9 cc3d 1bcd a0bd 0dad b5bd
00000200: de7c 083e 577f 2f3c 840a 0b3e 0631 093d
00000210: bed6 a2bc f257 de3c a685 01bd 30e8 4abd
00000220: 631e aa3d 4c81 a43c a1ad 08bd 32cd 5bbc
00000230: b8bd 95bd d933 883d c365 dc3d 4ff8 bbbc
00000240: 666d b33c 1be8 bf3b 88fe 71bc c65e a03d
00000250: cc31 373b 85dd 1ebd 34a1 b1bd 2516 f7bd
00000260: 8950 28be eeec babc 0a7d 59bd 6930 20bd
00000270: f776 233d 4bba d5bc 323a ea3c 3013 e13d
00000280: 2703 eabc 9aac 2c3d 60b1 9cba b86a bd3b
00000290: 9a0f 9c3b 74be 40bd d36d 8a3d cbe8 2bbd
000002a0: d749 023e 45fc a13c 4e50 31bd e7ad 7a3d
000002b0: f9e7 233d 3678 723d 8809 a03d f574 7abd
000002c0: e171 a4bd 2788 c63c d63b 48bc 4892 54bd
000002d0: 9a89 4b3c 15cf 4abc 49e7 843b 0d4c 723a
000002e0: 2aca 73bd 591f 563c 8c74 89bd 2ddd d1ba
000002f0: 601c ee3d 5d62 91bc 3c3a e73d d42c f1bc
00000300: b85a a03d 9ca4 e2bd 0661 2f3e f004 eb3d
00000310: a780 84bd e7a9 91bd 76b2 49bb b5c1 063d
00000320: 7ac6 173d b6d3 57bd 69af 303e 79bb 483e
00000330: 2230 fd3c 179e 1ebd f713 2c3d e125 54bd
00000340: 991a a33d b69d dd3c 6b0e bfbd c7e3 f7bc
00000350: 1ce1 80bd e39f 2d3d 5585 6b3d 194e dbbd
00000360: 2aac f43d 556b 8dbc 31bd 9b3d bdec 653d
00000370: b3a8 063e b7e3 9e3c 5ca2 d2bd 1e34 b8bb
00000380: 0347 1f3e c89f 67bc f7d1 2abd e350 c5bc
00000390: fa52 c33d 642a 0bbd 6581 073d f437 d5bd
000003a0: 8ff7 6abc 5fd0 1fbd ed21 713d 6c41 ba3d
000003b0: d2ef 2f3d 523b c9bc d24d 843d 83b0 f3bd
000003c0: 8a48 88bd fc47 7fbd 0b2c bcbd d526 093e
000003d0: f62c 323b 64cd 0f3d 4f93 8b3d 0506 76bd
000003e0: b195 d53b 58bd 133d e7d9 56bc 98f4 603d
000003f0: 1bc7 fb3d da8d df3c 75fe f8bd 6b58 4cbe

network_body.observation_encoder.processors.0.conv_layers.0.bias f4 [16]
-0.05088628 -0.016547263 0.018430967 0.01612235 0.0050283857 -0.015133979 -0.008017643 -0.033637147
0.038394853 -0.07236548 -0.076192625 -0.02615063 -0.028658677 -0.01891518 -3.176042e-05 -0.03882164
00000000: 226e 50bd 208e 87bc 8afc 963c 0513 843c
00000010: 28c5 a43b 82f4 77bc 6f5c 03bc 1bc7 09bd
00000020: ec43 1d3d 5a34 94bd e10a 9cbd d939 d6bc
00000030: 9ac5 eabc 02f4 9abc 7e36 05b8 7103 1fbd

network_body.observation_encoder.processors.0.conv_layers.2.weight f4 [32, 16, 4, 4]
0.019794866 -0.019752085 -0.0017486606 0.026612159 0.023676973 0.01418433 0.06942012 0.06467095
0.044502463 0.031898607 0.028873606 -0.043557182 0.004131049 0.06343018 0.0616294 0.022904351
-0.056059472 -0.07516988 0.026551513 -0.032788716 0.025246788 -0.083349094 -0.032423265 0.011807982
0.01738109 0.096062854 0.014466146 0.022145359 0.03567298 -0.07069008 0.039290644 -0.041876063
-0.03297531 -0.079293236 -0.031066833 -0.020303758 0.017074898 -0.0129397325 -0.032565337 -0.03759515
0.025228746 0.07453923 -0.004657399 0.011894961 -0.03984791 0.057694748 0.06419438 -0.010058492
0.01486264 -0.016648345 0.01498321 0.08897443 0.042400327 -0.06068624 0.089251734 0.0016034164
0.07085911 -0.061641525 -0.07838289 -0.012381728 -0.011091692 0.0075454 0.0425409 -0.023816776
0.025686743 0.029562641 0.03236055 -0.02196483 -0.0057570133 -0.11924917 -0.024295554 0.06030998
-0.00014144795 0.030967537 0.07526056 0.027707089 -0.037402138 0.03548642 -0.018789241 -0.010440145
-0.03670827 -0.06431507 -0.024256554 0.025410688 -0.027130242 0.007857326 -0.054789826 -0.0036050603
-0.02474239 -0.09318334 0.06585424 -0.05080548 -0.054644175 -0.06734851 -0.079260476 -0.05430977
-0.04592214 0.036834758 -0.053808715 -0.03244079 -0.016222414 -0.07956853 -0.024989376 -0.0043330337
0.046266634 0.07278372 0.0829939 -0.017486341 0.00082051125 -0.011096319 -0.042032015 -0.0072166086
-0.03587031 -0.06805791 0.031223113 0.01356796 0.025691047 -0.020731995 0.0011325057 -0.018803293
0.052680373 0.016874285 0.0023435096 0.036722045 -0.016862325 0.07745128 0.0009453865 0.017398538
0.0010278645 -0.0021440038 0.016998908 -0.04830856 -0.020229673 -0.08919223 -0.0068813693 0.026670663
0.037008468 0.09917151 -0.11104047 -0.011214286 -0.01965728 -0.047782063 0.010786954 0.0032068042
-0.034348182 -0.0415233 -0.01857353 -0.08814552 0.006993686 -0.010081916 0.025253298 0.045463867
0.030411718 -0.022349263 -0.06932774 0.01720755 0.02773988 0.05889713 -0.022208784 0.016052108
0.005261319 0.03844566 0.09181471 -0.0083193695 0.04509862 -0.042689163 -0.045054313 -0.032100406
0.0051654023 -0.035461605 -0.027174227 -0.047259826 0.009522103 -0.052132044 -0.07839332 0.039679397
-0.065761365 -0.049399536 -0.04221003 -0.025183119 0.0153697515 -0.06932377 -0.03358622 0.06915981
0.012349107 0.042707704 0.012367103 0.020042637 -0.039041035 0.06848695 -0.015892433 0.02715851
-0.036472693 -0.012211423 -0.03541658 -0.06175127 -0.034036007 -0.09038997 0.04223924 0.046513095
0.03703799 0.054906707 -0.0784389 0.04087257 -0.0066853967 0.033942576 -0.060394835 -0.038583636
-0.055499464 0.04789498 0.0730549 -0.014194768 -0.040232718 0.06905935 -0.047494832 0.028738264
-0.061383527 -0.006713541 -0.0789024 -0.07543368 0.06178259 0.037418883 0.01955311 -0.047548916
-0.0048928224 0.0134005435 -0.04854269 -0.037312172 -0.03563459 0.061086304 -0.018793672 0.0032401907
-0.010430494 0.037608616 -0.021623932 0.013277445 -0.053561952 0.039398246 -0.0018473337 0.013404204
-0.05907981 -0.0076391245 0.0052744853 0.0021699849 -0.029837199 0.07253592 -0.024222653 -0.0121519845
-0.00049765134 -0.016282422 -0.024381299 -0.07976702 0.0290754 -0.049632374 0.041845735 0.040102594
00000000: d828 a23c 20cf a1bc 5033 e5ba be01 da3c
00000010: 36f6 c13c 6465 683c 232c 8e3d 3472 843d
00000020: 3748 363d 1da8 023d 5788 ec3c 0469 32bd
00000030: c05d 873b afe7 813d 1c6f 7c3d e8a1 bb3c
00000040: 9e9e 65bd abf2 99bd 8f82 d93c 764d 06bd
00000050: 5ad2 ce3c eeb2 aabd 42ce 04bd 4476 413c
00000060: ca62 8e3c 9abc c43d 6a03 6d3c 2f6a b53c
00000070: d51d 123d f6c5 90bd 3aef 203d 3c86 2bbd
00000080: 1e11 07bd 7e64 a2bd df7f febc 1154 a6bc
00000090: a8e0 8b3c 2c01 54bc 3b63 05bd 5ffd 19bd
000000a0: 84ac ce3c 06a8 983d 189d 98bb 15e3 423c
000000b0: 9037 23bd 5451 6c3d 5878 833d 60cc 24bc
000000c0: 6e82 733c 1c62 88bc 237c 753c 3a38 b63d
000000d0: f7ab 2d3d 2392 78bd 9dc9 b63d ba29 d23a
000000e0: 951e 913d d37b 7cbd 3587 a0bd bbdc 4abc
000000f0: eeb9 35bc 673f f73b 5e3f 2e3d 661b c3bc
00000100: 016d d23c 5a2d f23c 7f8c 043d 96ef b3bc
00000110: 54a5 bcbb e938 f4bd 7807 c7bc 9907 773d
00000120: a551 14b9 a2af fd3c 3522 9a3d faf9 e23c
00000130: fc32 19bd 355a 113d e5eb 99bc 240d 2bbc
00000140: 695b 16bd 9fb7 83bd aeb5 c6bc 132a d03c
00000150: 3e40 debc 04bc 003c 4c6b 60bd e042 6cbb
00000160: 8db0 cabc e8d6 bebd 96de 863d 6819 50bd
00000170: 92d2 5fbd 04ee 89bd 5153 a2bd ec73 5ebd
00000180: db18 3cbd 0be0 163d 8766 5cbd a2e0 04bd
00000190: dee4 84bc d3f4 a2bd 85b6 ccbc 1ffc 8dbb
000001a0: 1582 3d3d a20f 953d b5f8 a93d 843f 8fbc
000001b0: 9417 573a 56cd 35bc c329 2cbd 4d79 ecbb
000001c0: bfec 12bd f261 8bbd 9dc7 ff3c 264c 5e3c
000001d0: 0876 d23c 25d6 a9bc 9670 943a 5d09 9abc
000001e0: 60c7 573d f13b 8a3c 9195 193b db69 163d
000001f0: dc22 8abc c79e 9e3d d0d3 773a 6187 8e3c
00000200: 69b9 863a 6a82 0cbb 4b41 8b3c 32df 45bd
00000210: b3b8 a5bc 6aaa b6bd 1c7d e1bb 6f7c da3c
00000220: 3196 173d 6f1a cb3d 3069 e3bd 20bc 37bc
00000230: 4e08 a1bc 20b7 43bd c4bb 303c 3f29 523b
00000240: aeb0 0cbd 5614 2abd 8427 98bc a385 b4bd
00000250: 4a2b e53b 9f2e 25bc 01e0 ce3c 5238 3a3d
00000260: ff21 f93c cd15 b7bc b4fb 8dbd d9f6 8c3c
00000270: bf3e e33c 1e3e 713d 32ef b5bc b67f 833c
00000280: 2567 ac3b 3279 1d3d 5a09 bc3d f74d 08bc
00000290: 55b9 383d d5da 2ebd df8a 38bd b77b 03bd
000002a0: 8942 a93b 3040 11bd 7c9c debc 8593 41bd
000002b0: 9802 1c3c 6988 55bd ad8c a0bd dd86 223d
000002c0: e5ad 86bd 2b57 4abd 6de4 2cbd d44c cebc
000002d0: 69d1 7b3c 9ff9 8dbd b491 09bd a9a3 8d3d
000002e0: e953 4a3c 46ee 2e3d 649f 4a3c 7530 a43c
000002f0: 7ee9 1fbd e342 8c3d d930 82bc 867b de3c
00000300: 6464 15bd 6c12 48bc fa10 11bd e6ee 7cbd
00000310: 5769 0bbd 601e b9bd 0e03 2d3d 8484 3e3d
00000320: 26b5 173d dbe5 603d 93a4 a0bd ff69 273d
00000330: 2c11 dbbb 5f07 0b3d 9360 77bd e009 1ebd
00000340: 6853 63bd 872d 443d cf9d 953d 2c91 68bc
00000350: 10cb 24bd fd6e 8d3d f189 42bd 826c eb3c
00000360: 4b6d 7bbd 44fd dbbb 9597 a1bd f97c 9abd
00000370: be0f 7d3d 8b44 193d d82d a03c a7c2 42bd
00000380: f853 a0bb f48d 5b3c b3d4 46bd a6d4 18bd
00000390: 93f5 11bd a235 7a3d 30f5 99bc 6159 543b
000003a0: aae4 2abc 7e0b 1a3d ac24 b1bc a489 593c
000003b0: c763 5bbd 0e60 213d 3c22 f2ba 4e9d 5b3c
000003c0: acfd 71bd 9f51 fabb 97d5 ac3b 4e36 0e3b
000003d0: 246d f4bc b68d 943d 966e c6bc 1e19 47bc
000003e0: d174 02ba b762 85bc 4abb c7bc e45c a3bd
000003f0: 892f ee3c 514b 4bbd 6f66 2b3d 9e42 243d

network_body.observation_encoder.processors.0.conv_layers.2.bias f4 [32]
0.052528046 -0.021158597 -0.03235461 -0.009037621 0.0003081455 0.067018755 0.00374069 -0.013649926
-0.012605822 0.03087037 -0.06517025 -0.018353682 0.027465845 0.045202997 -0.06528144 -0.029782608
0.003624255 -0.020303365 0.011588201 -0.021965269 0.05982839 0.03164756 -0.027133191 -0.011274049
0.030673716 -0.007655072 0.0138371 -0.0077554043 -0.030424012 -0.02348891 -0.023353515 0.042770687
00000000: a627 573d cb54 adbc 4486 04bd 8812 14bc
00000010: 978e a139 2141 893d 5d26 753b f0a3 5fbc
00000020: a688 4ebc dce3 fc3c fb77 85bd 765a 96bc
00000030: 0d00 e13c c726 393d 47b2 85bd a8fa f3bc
00000040: e984 6d3b 3e53 a6bc 70dc 3d3c 82f0 b3bc
00000050: 9d0e 753d dfa0 013d 6d46 debc cab6 38bc
00000060: 7247 fb3c 66d7 fabb 01b5 623c 0c21 febb
00000070: c73b f9bc d16b c0bc df4f bfbc 5130 2f3d

network_body.observation_encoder.processors.0.dense.0.weight f4 [256, 32]
0.22477686 -0.21513985 0.03202061 -0.2731041 0.10647547 0.112833746 -0.1555565 -0.38006377
-0.21004839 0.20208445 0.09600486 0.3733372 0.40740252 0.03616488 0.1907103 -0.11624154
0.15759619 -0.25493518 0.30290967 0.03946988 0.09947962 0.6867679 0.20341745 0.4969993
-0.33612946 -0.048219975 0.059040885 -0.48958632 0.36035714 0.1270624 0.090755485 -0.20494355
-0.19637807 -0.027902748 0.09665202 0.29219767 -0.22262365 0.30193472 -0.18901104 0.2802638
-0.061390188 -0.35694835 0.46079773 0.1414695 0.26312268 -0.02294978 0.12959264 -0.4814695
-0.28403592 0.045749076 0.5909746 0.5433972 0.33701733 -0.18691953 0.19721228 -0.05397205
-0.36507127 -0.14965717 0.009075594 0.003617446 0.21121374 -0.27356726 -0.41555205 0.14510301
0.1248465 0.0103620365 0.10685395 -0.56312263 0.3303643 -0.2620491 -0.2630254 0.03484325
-0.16483013 0.10770824 0.1231774 -0.3428778 0.06632007 -0.051915064 0.060951404 -0.009889353
0.019663807 0.46250102 -0.17008547 0.09789751 -0.36971888 0.14031501 0.023691274 0.2834878
-0.1886885 -0.10149594 0.06180166 -0.22967808 0.13559525 0.18595944 -0.15137501 -0.04516972
-0.07656221 0.2847751 -0.5190965 0.099935696 -0.09245862 0.03267122 0.15020408 -0.28702894
-0.04358147 -0.074040495 0.5155766 0.2288613 -0.037567925 0.08172171 0.37365022 -0.15657453
-0.41653562 0.5076191 -0.009350272 0.13659355 0.40065822 -0.4629 0.31152394 -0.2268936
0.2705926 0.035678703 0.093173735 0.05238651 -0.61330307 -0.04002287 -0.3037922 -0.29987332
0.118500866 -0.0026105335 -0.106572986 -0.45895806 0.3243602 -0.45626912 -0.36529222 -0.2432192
-0.08576159 0.24856342 -0.14917278 0.21431087 -0.13620436 0.23795922 -0.37077618 0.026266133
-0.5485302 -0.26125166 0.36659178 0.2355601 0.055526655 0.512589 0.1820027 0.39058656
-0.037756857 -0.050370812 0.06962076 0.09127813 -0.19956659 0.17808567 0.3878517 -0.40712598
0.565122 0.24254572 0.30537507 0.051450826 -0.16512388 0.15316299 -0.14472736 -0.20910944
-0.08991337 -0.13744368 -0.19037013 0.16302942 -0.016753575 -0.287398 0.45940924 0.18429594
-0.07350459 -0.0038433517 0.32040647 0.08814282 -0.17361394 0.16374075 -0.15908411 0.068832606
-0.35771713 -0.027172793 -0.04181113 -0.06053051 -0.18686648 -0.12528095 -0.23675163 -0.24148223
0.32760495 -0.109275 -0.09226734 -0.24521114 0.12664245 0.10608946 0.12045081 -0.3585989
-0.026410853 0.37765595 -0.34792766 0.41545454 0.319755 0.116220675 0.23845418 -0.11257497
-0.1389942 -0.3039838 -0.21117644 -0.44051176 0.4601694 0.18254845 -0.13141285 0.061335642
0.68906176 -0.15791371 0.05135427 0.22635521 0.07600899 -0.05418949 -0.40619332 0.13379
-0.86744183 0.3369375 -0.25529873 -0.39638963 -0.028998995 -0.05413472 -0.15250154 0.3872925
-0.023351999 0.11644164 -0.07442854 0.23079117 0.00564537 0.12389583 -0.35258213 0.06415207
-0.026593449 0.23871778 0.1009698 0.275473 0.18671137 -0.5791868 -0.0712132 -0.10375722
0.13872182 -0.47627848 0.31169662 -0.20228563 -0.07988421 -0.18455417 -0.35483682 0.5184738
00000000: e82b 663e 9f4d 5cbe 0b28 033d 4dd4 8bbe
00000010: d00f da3d 6115 e73d 344a 1fbe b897 c2be
00000020: ed16 57be 3aef 4e3e 329e c43d 0e26 bf3e
00000030: 1097 d03e a021 143d 9049 433e 0b10 eebd
00000040: e560 213e dd86 82be fa16 9b3e 2bab 213d
00000050: f9bb cb3d 05d0 2f3f aa4c 503e b176 fe3e
00000060: 2919 acbe 4f82 45bd dbd4 713d 0fab fabe
00000070: bb80 b83e a51c 023e 03de b93d b9dc 51be
00000080: 5517 49be 4e94 e4bc 7ff1 c53d ef9a 953e
00000090: 74f7 63be 3097 9a3e 1c8c 41be bd7e 8f3e
000000a0: 4774 7bbd efc1 b6be aeed eb3e 61dd 103e
000000b0: 04b8 863e 2d01 bcbc efb3 043e 2c83 f6be
000000c0: 286d 91be 6263 3b3d 1d4a 173f 141c 0b3f
000000d0: 898d ac3e d567 3fbe 04f2 493e cc11 5dbd
000000e0: 9fea babe bb3f 19be cdb1 143c ac12 6d3b
000000f0: 6a48 583e 0211 8cbe 3dc3 d4be e295 143e
00000100: 86af ff3d 88c5 293c 3ed6 da3d ce28 10bf
00000110: 8225 a93e 4d2b 86be 44ab 86be ccb7 0e3d
00000120: 3bc9 28be 2396 dc3d 6f44 fc3d ae8d afbe
00000130: d1d2 873d e4a4 54bd 2ea8 793d f406 22bc
00000140: fe15 a13c efcc ec3e e32a 2ebe 7d7e c83d
00000150: cb4b bdbe bdae 0f3e 3414 c23c 5025 913e
00000160: 8f37 41be 1add cfbd bd23 7d3d bb30 6bbe
00000170: 7bd9 0a3e 276c 3e3e 0d02 1bbe e203 39bd
00000180: a6cc 9cbd 0bce 913e 82e3 04bf 16ab cc3d
00000190: f25a bdbd 42d2 053d 19cf 193e 75f5 92be
000001a0: 7c82 32bd 8ba2 97bd d4fc 033f 9e5a 6a3e
000001b0: d3e0 19bd b65d a73d 154f bf3e 1355 20be
000001c0: 2844 d5be 53f3 013f e231 19bc 2edf 0b3e
000001d0: 1323 cd3e 3b01 edbe 1180 9f3e cc56 68be
000001e0: 1d8b 8a3e d523 123d dfd1 be3d 3d93 563d
000001f0: 6e01 1dbf 05ef 23bd a78a 9bbe ff88 99be
00000200: 95b0 f23d 7c15 2bbb f042 dabd 8dfc eabe
00000210: 8a12 a63e 1b9c e9be 9507 bbbe 740e 79be
00000220: c6a3 afbd 6987 7e3e c0c0 18be 4f74 5b3e
00000230: 2879 0bbe 95ab 733e 60d6 bdbe 132c d73c
00000240: 7a6c 0cbf c7c2 85be ebb1 bb3e ab36 713e
00000250: eb6f 633d 0839 033f ea5e 3a3e f6fa c73e
00000260: efa6 1abd a051 4ebd 5495 8e3d 07f0 ba3d
00000270: 2f5b 4cbe 175c 363e 7f94 c63e d172 d0be
00000280: d6ab 103f e85d 783e 1f5a 9c3e 1abe 523d
00000290: 3c16 29be c2d6 1c3e 6933 14be c920 56be
000002a0: 8024 b8bd 09be 0cbe 63f0 42be 2ff1 263e
000002b0: cb3e 89bc d525 93be b037 eb3e 13b8 3c3e
000002c0: 9389 96bd bee0 7bbb 510c a43e 3984 b43d
000002d0: dac7 31be a8ab 273e f2e6 22be 1cf8 8c3d
000002e0: b326 b7be 7a99 debc 2642 2bbd d7ee 77bd
000002f0: ed59 3fbe a649 00be 056f 72be 1e47 77be
00000300: d6bb a73e 92cb dfbd a9f6 bcbd a118 7bbe
00000310: 8fae 013e 6e45 d93d eaae f63d 469a b7be
00000320: 935b d8bc 1f5c c13e 9323 b2be 75b6 d43e
00000330: edb6 a33e 1b05 ee3d 552d 743e b58d e6bd
00000340: 7f54 0ebe c4a3 9bbe a33e 58be c28a e1be
00000350: 539b eb3e fbed 3a3e 1791 06be 153b 7b3d
00000360: 5a66 303f 22b4 21be db58 523d a9c9 673e
00000370: 9aaa 9b3d ccf5 5dbd 92f8 cfbe 3f00 093e
00000380: ab10 5ebf 1283 ac3e 84b6 82be 95f3 cabe
00000390: 4d8f edbc 5ebc 5dbd 5d29 1cbe 344b c63e
000003a0: b14c bfbc f478 ee3d fe6d 98bd 8554 6c3e
000003b0: ccfc b83b 19bd fd3d a585 b4be 2962 833d
000003c0: 81da d9bc 6f72 743e 41c9 ce3d cc0a 8d3e
000003d0: 4431 3f3e 9645 14bf 3ad8 91bd aa7e d4bd
000003e0: 180d 0e3e c6da f3be b396 9f3e f723 4fbe
000003f0: 559a a3bd c5fb 3cbe 2cad b5be b3ba 043f

network_body.observation_encoder.processors.0.dense.0.bias f4 [256]
0.004908025 0.027340148 0.02914707 0.02314802 0.02588629 0.060750674 0.022831714 -0.0079043815
0.02605109 0.02470352 0.027638935 0.0048057972 -0.00054537866 0.022576656 0.041134104 0.00900406
-0.0372104 0.019677887 -0.021872964 0.018589161 -0.008576903 -0.013543375 -0.025195327 0.0020646302
0.047661263 -0.01445845 0.005309735 0.032912597 0.022718498 0.02722352 0.018732026 0.05596746
-0.019236378 0.012563652 0.014094335 0.0136856595 -0.013484887 0.021326754 -0.015188894 -0.009832109
0.03491423 0.002559447 0.004485638 -0.008337166 0.02920186 -0.021843322 0.0012095596 0.009186457
0.04671854 0.03374793 0.021137968 -0.00014858894 0.026243439 0.055846587 0.0356629 0.021438671
0.03497202 0.038726088 0.030398361 0.044234604 0.03348026 -0.0114458045 0.03219579 0.03496488
-0.000871115 -0.008242576 0.027982125 0.0166872 0.057412162 -0.0054677497 -0.011528901 0.009059391
-0.01848269 0.03175824 0.012669888 0.047087368 0.00622318 0.02627023 -0.003930209 -0.010232468
-0.0031805348 0.028189851 0.011536957 -0.031348918 0.007076295 0.033734642 0.0032269787 -0.009378905
0.033964567 0.033852164 0.00367427 0.05665056 0.012139092 0.0009634146 0.029022379 0.010670208
-0.015020377 0.044346564 -0.007968489 0.021790734 0.0144278845 -8.761839e-05 0.000957511 0.012480325
0.004830996 0.032535013 0.021796888 0.0029589857 0.0025871033 0.03834484 0.028424772 0.0072705443
0.027147284 -0.013771239 0.03954503 -0.00657624 -6.808665e-05 -0.0007539518 0.009498651 -0.0021109318
0.04471688 0.00076540996 -0.017653992 0.036137927 0.026970228 -0.0061768615 -0.0013056028 0.025748046
-0.004880262 0.01825505 -0.015897013 -0.002911401 0.008545901 0.007845374 0.016564786 0.009555576
0.0017416311 0.021246169 -0.0011365309 -0.0267343 0.01692818 0.0005894133 -0.0067149126 0.04083832
0.057022467 0.030237494 -0.0114241075 0.03977528 0.013227232 0.044006556 0.0038421527 0.045260925
0.055506095 0.020761983 0.060409065 -0.0051812152 0.061714012 0.05085944 0.0436321 0.03285706
0.027497763 0.004433895 0.036823418 0.016232982 -0.008857265 -0.0035816377 -0.008089308 0.011052733
0.047166437 0.033584442 0.07213639 0.0108176125 -0.0033894498 -0.015153536 0.0279659 0.041816723
0.018305583 0.058595814 -0.0018685401 0.022887431 0.016047077 0.02585451 0.018029017 0.03860925
0.02245861 -0.021216333 0.014665972 -0.005062871 0.041097723 0.012936086 0.015952298 0.008685272
-0.0005278823 0.046915933 0.040111292 0.0009710854 0.02960627 0.06186582 -0.008930307 0.03471174
0.0039666947 0.0044591366 0.009309967 0.028244665 0.015688349 0.0043950216 -0.0007256596 0.026341258
0.015210119 0.004235291 0.03938312 0.0022056522 0.014406363 0.04948691 0.0363231 0.014909219
0.019129736 -0.008102079 0.018951932 0.004119475 -0.01591207 0.010556464 -0.001043075 -0.013013296
0.031628665 -0.010206614 -0.005879285 0.0053820675 0.005640296 0.003828597 0.015080398 0.0052790535
-0.015788969 0.026150297 0.022852184 0.00047470533 -0.023557954 -0.018946579 0.0127457455 0.026426556
0.001796726 0.010618686 0.012557914 0.024440946 0.0486057 0.022383181 -0.044309832 -0.008482448
0.04606687 -0.0018719245 0.0004920738 0.01849925 -0.016504815 0.0033565008 -0.005009656 -0.014946662
00000000: 7fd3 a03b 72f8 df3c d6c5 ee3c eba0 bd3c
00000010: 7c0f d43c b3d5 783d 9309 bb3c 6181 01bc
00000020: 1869 d53c 095f ca3c 0c6b e23c f379 9d3b
00000030: bef7 0eba aef2 b83c 3c7c 283d c485 133c
00000040: ef69 18bd 8533 a13c ee2e b3bc 4c48 983c
00000050: 2386 0cbc 08e5 5dbc 6e66 cebc bf4e 073b
00000060: 7538 433d 22e3 6cbc 49fd ad3b 5ccf 063d
00000070: 251c ba3c dc03 df3c e873 993c 233e 653d
00000080: 9c95 9dbc c7d7 4d3c edeb 663c d139 603c
00000090: b7ef 5cbc 72b5 ae3c d7da 78bc db16 21bc
000000a0: 3902 0f3d 65bc 273b 42fc 923b 9c98 08bc
000000b0: bd38 ef3c c4f0 b2bc 168a 9e3a cb82 163c
000000c0: f15b 3f3d 453b 0a3d 8829 ad3c 8ace 1bb9
000000d0: 7bfc d63c 64bf 643d 4313 123d 27a0 af3c
000000e0: d23e 0f3d 3f9f 1e3d fc05 f93c 582f 353d
000000f0: 9922 093d 2f87 3bbc bcdf 033d 5637 0f3d
00000100: 8a5b 64ba df0b 07bc c53a e53c 98b3 883c
00000110: 0429 6b3d cf2a b3bb b7e3 3cbc d76d 143c
00000120: 0369 97bc ee14 023d 5d95 4f3c afde 403d
00000130: d1eb cb3b aa34 d73c fcc8 80bb 15a6 27bc
00000140: 8570 50bb 67ee e63c 8105 3d3c b967 00bd
00000150: 44e0 e73b 562d 0a3d b87b 533b fba9 19bc
00000160: 6e1e 0b3d 91a8 0a3d 05cc 703b 6b0a 683d
00000170: 0be3 463c a98d 7c3a 57c0 ed3c 19d2 2e3c
00000180: 0718 76bc bea4 353d 448e 02bc 7b82 b23c
00000190: ef62 6c3c c4bf b7b8 7a01 7b3a 477a 4c3c
000001a0: 554d 9e3b 6f43 053d 638f b23c 8beb 413b
000001b0: 648c 293b 7b0f 1d3d 11db e83c bf3d ee3b
000001c0: fb63 de3c c3a0 61bc f8f9 213d 807d d7bb
000001d0: bec9 8eb8 d9a4 45ba 3ba0 1b3c 8f57 0abb
000001e0: 0c29 373d cba5 483a 1b9f 90bc 5d05 143d
000001f0: abf0 dc3c 4567 cabb c320 abba 91ed d23c
00000200: 9bea 9fbb 9d8b 953c 743a 82bc 34cd 3ebb
00000210: 1b04 0c3c e289 003c e0b2 873c fe8e 1c3c
00000220: 7147 e43a 720c ae3c a6f7 94ba e401 dbbc
00000230: f7ac 8a3c db82 1a3a c508 dcbb 1546 273d
00000240: 6490 693d 9fb4 f73c 2e2c 3bbc 67eb 223d
00000250: 08b7 583c 3840 343d a0cc 7b3b 8563 393d
00000260: 5c5a 633d 0915 aa3c 7f6f 773d 2fc7 a9bb
00000270: d5c7 7c3d fd51 503d 93b7 323d 2095 063d
00000280: fd42 e13c 354a 913b 27d4 163d 08fb 843c
00000290: 101e 11bc e9b9 6abb 0489 04bc 8616 353c
000002a0: 9831 413d d78f 093d 3ebc 933d 5b3c 313c
000002b0: 8821 5ebb 8946 78bc be18 e53c 0348 2b3d
000002c0: 97f5 953c 2a02 703d cde9 f4ba 6c7e bb3c
000002d0: 2975 833c d6cc d33c 97b1 933c bc24 1e3d
000002e0: 1efb b73c e0cd adbc 8c49 703c 71e6 a5bb
000002f0: 1656 283d e1f1 533c 65ae 823c ac4c 0e3c
00000300: 9561 0aba ec2a 403d bd4b 243d 7090 7e3a
00000310: d988 f23c 0467 7d3d 6c50 12bc e62d 0e3d
00000320: 0cfb 813b f31d 923b d588 183c 5b61 e73c
00000330: da84 803c 1d04 903b 313a 3eba 9fc9 d73c
00000340: dd33 793c 32c8 8a3b 3250 213d b48c 103b
00000350: aa08 6c3c c9b2 4a3d 88c7 143d cc45 743c
00000360: f7b5 9c3c 95be 04bc 1541 9b3c a9fc 863b
00000370: 085a 82bc 05f5 2c3c cab7 88ba b835 55bc
00000380: 0f8d 013d a439 27bc 04a7 c0bb 0e5c b03b
00000390: 3bd2 b83b 33e9 7a3b c613 773c e9fb ac3b
000003a0: de57 81bc 2639 d63c 8134 bb3c dfe1 f839
000003b0: 9cfc c0bc db35 9bbc 88d3 503c 817c d83c
000003c0: 1f80 eb3a fff9 2d3c b5bf 4d3c 6138 c83c
000003d0: c516 473d ef5c b73c 3a7e 35bd f7f9 0abc
000003e0: 9db0 3c3d 5d5b f5ba 84fe 003a bd8b 973c
000003f0: 1b35 87bc bdf8 5b3b 0a28 a4bb d8e2 74bc

network_body._body_endoder.seq_layers.0.weight f4 [256, 256]
0.014086862 -0.044020526 0.093265586 0.046851162 0.07868225 0.07188237 -0.1222075 -0.0010889667
-0.11052549 0.06643248 0.05083177 -0.0066025853 -0.1551872 -0.04105237 -0.0836598 0.12073887
0.097791284 0.07079484 -0.026380396 -0.11994353 0.084438734 0.016014384 0.085414924 -0.032329686
0.025271026 0.07182554 0.017956499 0.033161346 -0.0013514976 -0.011729562 0.068481006 -0.18679102
0.078494355 -0.014697537 -0.06877288 0.028278917 -0.12221901 0.03444378 0.025276978 0.079778954
-0.14280729 -0.040207963 -0.11188485 0.13427807 -0.014087628 0.09164908 -0.043211453 -0.06501478
0.016455885 -0.15267539 0.0223818 0.07110371 0.11352256 -0.040312972 0.034856137 -0.058344178
0.032455806 -0.04787184 -0.046269808 -0.0005945766 0.054666158 0.048153453 -0.082484476 -0.07180798
0.019929789 -0.03135655 -0.05248352 -0.09423511 0.056355543 0.05850295 -0.07255552 -0.018169
0.023653802 -0.009036849 -0.1175087 0.008175193 0.09792948 0.020940287 0.0022339092 0.042123184
0.0075225593 -0.18323739 -0.007607761 -0.028681278 -0.027452834 0.017477304 -0.089209475 -0.018789673
-0.12482249 0.008538069 -0.040397204 -0.12804273 -0.0024863523 0.03031979 -0.08663214 0.075121395
-0.16072567 0.010734636 0.026461147 -0.1191673 0.025312666 -0.0007931001 -0.056129668 0.059332993
-0.027285535 -0.010363268 0.021381583 0.084499076 0.0041933013 0.1599994 0.09756777 0.0134658385
0.002821765 -0.09233958 0.11509148 -0.068586394 -0.16124524 0.025068281 0.07375537 -0.11455742
0.013952393 -0.02678841 0.06134816 0.010942422 0.09967533 0.13036257 -0.04367295 -0.07027255
-0.03591698 0.068129666 -0.078935035 -0.07279798 -0.03598614 0.09163091 0.0013085108 -0.0023579407
-0.0027580552 -0.027789328 -0.08925692 -0.0528798 -0.021905202 -0.05470951 -0.08233433 -0.034290347
-0.043375973 -0.07793076 0.0130472835 0.048976026 -0.028925573 -0.044487197 0.023841165 0.08015341
-0.11494055 0.051110636 0.052275963 -0.021298785 -0.05803153 0.049063794 0.060546167 -0.13466488
-0.009355148 -0.028368853 -0.099166386 -0.01170973 0.0581873 -0.006228504 -0.036145594 -0.13285385
0.108579405 0.10782936 -0.0024672234 -0.012766209 0.07397747 0.03758265 -0.03979973 0.1526146
-0.032370485 0.07676057 0.057567354 -0.07322275 -0.010529657 -0.006589242 0.0060795117 0.007667386
0.12304973 -0.019866986 -0.0778496 0.003469567 -0.15832973 0.033064358 -0.1573193 0.025765678
-0.03682523 0.13101028 -0.10420911 -0.0072371955 1.9910545e-05 0.002090315 -0.056433715 -0.07051785
0.047625177 0.10302594 -0.1256878 0.031611998 0.11081846 -0.0017364001 0.06992448 -0.004512908
-0.10185468 -0.08615534 -0.048307426 -0.06556598 -0.01853167 -0.0018652133 0.050845925 -0.015503625
0.038840458 0.061612945 -0.04896027 0.025861472 -0.009492336 -0.03134375 0.08228722 -0.12928042
-0.048150808 -0.03711235 0.0076927594 0.030395677 -0.120398186 0.031673077 0.020980807 -0.15615915
0.012139731 0.03319562 0.066300035 -0.0062003667 0.07176106 0.056685284 0.07491033 0.0012298787
-0.045540784 -0.042027105 -0.0050864555 0.06964375 -0.03405084 -0.05504767 0.032440998 -0.017618295
0.0046356022 0.11517368 0.038255367 -0.08351275 0.02646642 0.026141472 -0.03410395 0.06499496
00000000: 95cc 663c de4e 34bd 0702 bf3d 01e7 3f3d
00000010: 2924 a13d 1037 933d ed47 fabd a9bb 8eba
00000020: 305b e2bd c10d 883d f934 503d 805a d8bb
00000030: 65e9 1ebe 8826 28bd d455 abbd f145 f73d
00000040: cc46 c83d e3fc 903d b31b d8bc f4a4 f5bd
00000050: 37ee ac3d 9930 833c 05ee ae3d 226c 04bd
00000060: 2f05 cf3c 4519 933d 8219 933c 31d4 073d
00000070: bc24 b1ba 592d 40bc c53f 8c3d 2546 3fbe
00000080: a6c1 a03d f0cd 70bc ccd8 8cbd 30a9 e73c
00000090: f64d fabd ec14 0d3d aa11 cf3c 2663 a33d
000000a0: 133c 12be 1bb1 24bd e223 e5bd 3180 093e
000000b0: cbcf 66bc 83b2 bb3d 7efe 30bd 7826 85bd
000000c0: 7ece 863c f056 1cbe 095a b73c d29e 913d
000000d0: 847e e83d 371f 25bd 4fc5 0e3d 4efa 6ebd
000000e0: 61f0 043d 4315 44bd 6985 3dbd 5cdd 1bba
000000f0: 9fe9 5f3d 8e3c 453d 9fed a8bd 1010 93bd
00000100: cc43 a33c ba6f 00bd f6f8 56bd 56fe c0bd
00000110: 12d5 663d caa0 6f3d fd97 94bd 28d7 94bc
00000120: 9ec5 c13c 4b0f 14bc 67a8 f0bd 3ff1 053c
00000130: 408f c83d f78a ab3c c766 123b 5c89 2c3d
00000140: cd7f f63b 95a2 3bbe 864a f9bb 00f5 eabc
00000150: c4e4 e0bc 902c 8f3c 75b3 b6bd cdec 99bc
00000160: efa2 ffbd 42e3 0b3c 8a77 25bd a21d 03be
00000170: 12f2 22bb 3561 f83c 316c b1bd 3fd9 993d
00000180: 4595 24be 54e0 2f3c 0cc5 d83c fc0d f4bd
00000190: 825c cf3c 0ce8 4fba 39e8 65bd 2707 733d
000001a0: ea85 dfbc b2ca 29bc 6e28 af3c da0d ad3d
000001b0: f667 893b e2d6 233e 9cd1 c73d d29f 5c3c
000001c0: 5ced 383b 891c bdbd 15b5 eb3d 0677 8cbd
000001d0: 791d 25be ff5b cd3c 0e0d 973d 159d eabd
000001e0: 9498 643c 5e73 dbbc 3548 7b3d d847 333c
000001f0: 9422 cc3d c47d 053e 68e2 32bd 0eeb 8fbd
00000200: af1d 13bd 9187 8b3d b1a8 a1bd 1b17 95bd
00000210: 3466 13bd fda8 bb3d 5682 ab3a ae87 1abb
00000220: 7dc0 34bb 72a6 e3bc 55cc b6bd 7d98 58bd
00000230: 8a72 b3bc 1417 60bd e79e a8bd 0974 0cbd
00000240: 01ab 31bd 2a9a 9fbd 46c4 553c 169b 483d
00000250: 53f5 ecbc 3538 36bd 8c4e c33c 7927 a43d
00000260: f365 ebbd 6359 513d 521f 563d ca7a aebc
00000270: 78b2 6dbd 1ef7 483d 42ff 773d 97e5 09be
00000280: 5646 19bc cc65 e8bc bf17 cbbd 2bda 3fbc
00000290: ce55 6e3d 7a18 ccbb 670d 14bd d70a 08be
000002a0: e15e de3d a4d5 dc3d 24b1 21bb 5d29 51bc
000002b0: 8081 973d 44f0 193d 0b05 23bd 0047 1c3e
000002c0: ea96 04bd a534 9d3d bfcb 6b3d cff5 95bd
000002d0: 9584 2cbc 91ea d7bb a436 c73b b23e fb3b
000002e0: 7f01 fc3d 17c0 a2bc 9c6f 9fbd ad61 633b
000002f0: 3021 22be 7e6e 073d 5018 21be 8b12 d33c
00000300: 0dd6 16bd 8f27 063e 966b d5bd ff25 edbb
00000310: 9205 a737 abfd 083b 0a27 67bd aa6b 90bd
00000320: 9e12 433d 44ff d23d 4db4 00be 957b 013d
00000330: caf4 e23d eb97 e3ba 9134 8f3d 04e1 93bb
00000340: 3099 d0bd 3672 b0bd 02de 45bd 7547 86bd
00000350: bbcf 97bc 2c7a f4ba d143 503d eb02 7ebc
00000360: 2c17 1f3d db5d 7c3d 908a 48bd 70db d33c
00000370: be85 1bbc 4e62 00bd 3486 a83d 1662 04be
00000380: c839 45bd 1f03 18bd 8b13 fc3b 5b00 f93c
00000390: 5393 f6bd a1bb 013d f1df ab3c 2fe8 1fbe
000003a0: b9e5 463c 21f8 073d 50c8 873d 722c cbbb
000003b0: 76f7 923d d42e 683d 966a 993d e233 a13a
000003c0: f988 3abd 9d24 2cbd 48ac a6bb 62a1 8e3d
000003d0: e578 0bbd aa79 61bd dae0 043d 3e54 90bc
000003e0: 40e6 973b 2ee0 eb3d a9b1 1c3d bc08 abbd
000003f0: 1bd0 d83c a426 d63c 95b0 0bbd 141c 853d

network_body._body_endoder.seq_layers.0.bias f4 [256]
0.008981623 0.01642067 0.000797536 0.006886612 -0.009679002 0.0049568564 0.014359043 -0.0020619996
0.003048394 -0.002911747 0.00053127005 0.008323994 0.022310557 -0.0020736195 0.0039965548 0.006353159
0.0035981233 0.008734735 -0.000860243 0.020538611 -0.0014454892 0.02450039 0.013079411 0.011535466
0.0079068 0.004798866 0.0008733645 0.012274854 0.004618732 0.006714413 0.003812614 0.0106625
0.0074446267 0.012681193 0.01763103 1.3792309e-05 -0.0008408556 0.016420497 0.011721281 0.0031985373
0.006916593 -0.004887962 0.011223321 0.011284584 0.0046364334 -0.0041577183 0.008297646 0.008076138
0.008159947 0.00297012 0.00014229442 0.0066734483 -0.006681907 0.012254322 -0.0032225733 0.006109948
0.0057542333 -0.0006806764 -0.00045985146 0.01699657 0.0018983028 0.019990357 0.0059368773 0.0028616865
0.0029023273 0.020506227 -0.012473838 0.009883498 0.005148106 0.008054443 0.0020933559 0.021839067
0.020749316 0.017686076 0.016952973 0.0052908435 -0.0023727028 0.0005650593 -0.0029944 0.010741879
0.0015670334 0.0030423633 0.010031045 0.013986562 0.008649057 0.01680923 0.0024837349 -0.0013229734
0.0021299382 0.0008510422 -0.001559903 0.010809572 0.010080714 0.01002498 0.004796106 -0.002996761
0.0039776624 0.005383606 0.015581321 -0.005892516 0.006109703 0.0045878487 0.012046145 0.004727429
-0.005188502 -0.003280339 0.003534449 -0.00066316454 0.012330798 -0.0018261978 0.0020746638 0.01779664
0.004251382 0.010699836 0.006003822 -0.00015519008 0.0026843594 0.023143709 0.00013526312 0.005810073
0.0023783583 0.003975946 0.015272031 -0.003113912 0.00080002047 0.014563589 0.0069907694 0.01036018
0.010675439 0.0086747175 0.024557516 5.825967e-05 -0.007534872 -0.0032818587 0.0115642715 -0.0022833336
-0.0019638785 -0.0001148625 0.0062242267 0.002249486 0.0073304214 0.012180608 -0.0049035614 0.0036267617
-0.009690767 -0.0025935739 -0.0041881367 0.01312611 0.002186415 0.0047042477 -0.002158308 0.007154049
-0.00043639587 0.009033968 0.010805729 0.012578336 -0.0026492507 0.005650033 0.0034418835 0.004224487
0.004375008 -0.0013712788 0.025916489 0.0035476435 -0.0031521465 0.009153783 9.483156e-05 0.0040289676
0.008270661 0.0048115095 -0.006870353 0.009226143 0.0014152372 0.0048992224 0.013369116 0.009044047
-0.007159332 -0.0006473504 0.0291034 0.01114334 0.0064056483 0.020706337 0.030076126 0.006236676
-0.001614741 0.013420027 0.0048997113 0.0032423278 0.012524059 0.0051653828 0.009100046 -0.0038107247
0.0018063891 0.008554118 0.014468638 0.0033119682 0.012240947 -0.008242062 0.009401937 0.003003333
0.008958862 0.011215796 0.0072371643 0.005574661 -0.0023269476 0.0040181587 -0.002334531 0.0120852925
-0.0049019936 -0.003406649 0.003139966 0.00014484361 -0.003817114 0.00980904 -0.0061746994 0.009081213
0.0033229871 -0.008722248 -0.00040488702 0.0095726345 0.011619635 0.010692823 0.011830141 -0.004904249
0.003496003 0.013887201 -5.3701704e-05 -0.0011512187 0.0053936895 0.013414663 0.036243863 0.009852335
0.007872638 0.0048769335 0.0015382261 0.0012726126 0.005196622 0.0038077177 0.0030623672 0.00889727
0.0014982106 -0.005372029 0.006981211 0.0027157234 -0.002971105 0.0018615951 0.019121887 0.006247363
0.0075901225 0.0064553833 0.007462252 0.0143565675 -0.003979851 -0.0019991328 0.015717201 0.013391892
00000000: a827 133c a484 863c bc11 513a 17a9 e13b
00000010: ad94 1ebc 206d a23b 3142 6b3c 9d22 07bb
00000020: 91c7 473b 02d3 3ebb ee44 0b3a 5d61 083c
00000030: a1c4 b63c 90e5 07bb 88f5 823b 292e d03b
00000040: 7ece 6b3b 221c 0f3c ee81 61ba 9740 a83c
00000050: 9276 bdba 0bb5 c83c 074b 563c 40ff 3c3c
00000060: 868b 013c ce3f 9d3b 80f2 643a 781c 493c
00000070: bb58 973b 9404 dc3b 0cdd 793b c4b1 2e3c
00000080: 0ef2 f33b c7c4 4f3c f36e 903c 8465 6737
00000090: dd6c 5cba 4784 863c 9e0a 403c 8d9e 513b
000000a0: 96a4 e23b 322b a0bb 05e2 373c fae2 383c
000000b0: 39ed 973b 783d 88bb daf2 073c c751 043c
000000c0: 4cb1 053c 58a6 423b de34 1539 f1ac da3b
000000d0: e6f3 dabb 5ac6 483c cf31 53bb f535 c83b
000000e0: 028e bc3b 6c6f 32ba 3818 f1b9 643c 8b3c
000000f0: 79d0 f83a d1c2 a33c 238a c23b 228b 3b3b
00000100: f934 3e3b adfc a73c 125f 4cbc 65ee 213c
00000110: 71b1 a83b c8f6 033c af30 093b d8e7 b23c
00000120: 78fa a93c 64e2 903c f6e0 8a3c d05e ad3b
00000130: 597f 1bbb 7d20 143a b23d 44bb b5fe 2f3c
00000140: ea64 cd3a 6362 473b 4159 243c e527 653c
00000150: c6b4 0d3c 83b3 893c 28c6 223b 9f67 adba
00000160: 6f96 0b3b 7a18 5f3a a975 ccba a21a 313c
00000170: 9429 253c d03f 243c a728 9d3b 4e65 44bb
00000180: 0d57 823b f668 b03b cc48 7f3c 0216 c1bb
00000190: e733 c83b aa55 963b 325d 453c 8ce8 9a3b
000001a0: 4f04 aabb f5fa 56bb 37a2 673b 38d8 2dba
000001b0: 1e07 4a3c 085d efba 15f7 073b 42ca 913c
000001c0: 2d4f 8b3b 5d4e 2f3c b6bb c43b 85ba 22b9
000001d0: 14ec 2f3b e097 bd3c 6bd5 0d39 6d62 be3b
000001e0: 3bde 1b3b a748 823b 8a37 7a3c c612 4cbb
000001f0: 77b8 513a 1f9c 6e3c d312 e53b bfbd 293c
00000200: 09e8 2e3c 6720 0e3c d82c c93c d85b 7438
00000210: 16e7 f6bb 7414 57bb 1278 3d3c fba3 15bb
00000220: 6ab4 00bb 56e2 f0b8 99f4 cb3b 1d6c 133b
00000230: 0834 f03b 2c91 473c 0eae a0bb f7ae 6d3b
00000240: 06c6 1ebc f3f8 29bb a33c 89bb e50e 573c
00000250: f549 0f3b 1726 9a3b 6672 0dbb 836c ea3b
00000260: 10cc e4b9 3503 143c 830a 313c 5d15 4e3c
00000270: 0d9f 2dbb e923 b93b 3991 613b 916d 8a3b
00000280: 3a5c 8f3b 7bbc b3ba d14e d43c 957f 683b
00000290: 3e94 4ebb c0f9 153c 4ee0 c638 6e05 843b
000002a0: ab81 073c dea9 9d3b b320 e1bb 4029 173c
000002b0: 7b7f b93a a889 a03b 230a 5b3c 7c2d 143c
000002c0: d498 eabb f3b2 29ba 416a ee3c 8e92 363c
000002d0: 79e6 d13b 56a0 a93c 3562 f63c 085d cc3b
000002e0: b8a5 d3ba acdf 5b3c c28d a03b 3c7d 543b
000002f0: b631 4d3c 5f42 a93b 5c18 153c 5abd 79bb
00000300: 5cc4 ec3a 9226 0c3c de0d 6d3c 9b0d 593b
00000310: 418e 483c b709 07bc 950a 1a3c 91d3 443b
00000320: 31c8 123c 75c2 373c bc25 ed3b a5ab b63b
00000330: b47f 18bb c2aa 833b eefe 18bb 6401 463c
00000340: e7a0 a0bb 1642 5fbb e3c7 4d3b 29e1 1739
00000350: 8c28 7abb 19b6 203c 2255 cabb 5ec9 143c
00000360: 79c6 593b c2e7 0ebc 0447 d4b9 8ad6 1c3c
00000370: 4860 3e3c f330 2f3c 35d3 413c d3b3 a0bb
00000380: 331d 653b 2587 633c c43d 61b8 7de4 96ba
00000390: 8cbd b03b 2dc9 5b3c 7274 143d b06b 213c
000003a0: 3dfc 003c afce 9f3b 4e9e c93a cbcd a63a
000003b0: 6d48 aa3b e78a 793b ffb1 483b dbc5 113c
000003c0: 9b5f c43a d807 b0bb a4c2 e43b 47fa 313b
000003d0: dfb6 42bb c400 f43a 81a5 9c3c aeb6 cc3b
000003e0: 90b6 f83b ae87 d33b e885 f43b cf37 6b3c
000003f0: 6969 82bb e203 03bb 5cc1 803c ab69 5b3c

network_body._body_endoder.seq_layers.2.weight f4 [256, 256]
0.17385921 -0.18690054 -0.017621333 0.04502891 0.07138874 0.08210991 0.049083933 -0.085034
0.16515183 -0.05229788 -0.054375272 -0.06289409 -0.004009358 -0.015390728 -0.026778476 -0.02538103
0.14221655 0.19611245 -0.070741594 -0.0414362 -0.0793898 -0.09800675 -0.08132105 -0.11246936
-0.07334688 -0.14545846 -0.060174793 -0.017508842 0.074292995 -0.16849792 0.056382816 -0.17536668
-0.059166107 -0.10867121 0.038930725 0.09583476 0.09084061 -0.076948546 0.037765656 0.10923583
-0.027606357 0.08208697 -0.19592668 0.051135182 0.09017807 0.19743015 -0.113293424 -0.055138513
0.027558893 -0.049300123 -0.13582589 0.042352032 0.10708634 0.12918787 0.12470192 0.004884238
-0.0566356 0.14506927 -0.053529292 0.035068125 0.052516613 -0.14884302 -0.14820014 -0.046187166
0.08203613 -0.03389558 0.06216403 -0.05211283 -0.15008166 0.04757149 0.013046567 0.05550812
-0.031749535 -0.1321136 0.055497218 -0.10324936 0.07116209 0.039948434 -0.061288904 -0.15224764
-0.021323482 -0.017126078 0.07063923 0.18409497 -0.046427373 0.04253189 0.136515 0.098281525
-0.004881057 0.10893795 -0.15421566 0.020163296 0.056312013 -0.16636413 -0.04966618 -0.06720153
0.065396115 -0.03715348 0.027823646 0.06666775 -0.032036405 0.019691298 0.07034894 -0.06050778
-0.07780881 0.12528306 0.05210986 -0.065768644 -0.008233321 -0.05224067 0.067378975 -0.016386986
-0.1582624 0.0071320017 0.058361568 0.1060917 -0.06599373 0.13957396 -0.051317353 0.096628144
-0.04921695 0.07849049 -0.08864405 -0.1502218 -0.058509126 -0.10024708 0.11439817 -0.043396235
-0.0019234715 0.06833936 -0.21874785 0.13042884 0.056042094 0.007262529 0.024210073 0.024654217
0.03626792 0.035902817 -0.08728583 0.041750118 0.07126708 -0.17163923 0.21083914 -0.26244187
-0.066345036 -0.08631073 0.05561417 -0.006372104 -0.010832402 -0.13913414 -0.036124043 -0.054155543
0.097855985 0.024149613 0.052449472 0.022302859 -0.03641183 0.0013672275 -0.087943316 -0.07824297
-0.030581791 -0.044915393 0.056966286 -0.1353669 -0.03500384 -0.07260201 -0.015766071 0.06749659
-0.028591128 0.013282841 0.084153205 -0.020017417 0.14726856 -0.074680865 -0.14833805 0.12201997
-0.07714197 0.0015351385 0.054166086 -0.11147002 0.015822476 -0.009968784 -0.025695406 -0.017454617
0.01595941 -0.052422903 0.17447755 0.03166503 0.03625654 -0.10030113 0.012382292 0.13037203
-0.079542905 -0.099311784 0.007338101 0.073560424 0.035642933 0.026983447 -0.021870738 0.09327296
-0.023912186 0.15654887 -0.13522828 -0.04390798 0.05469398 -0.07756636 0.110695876 -0.1211594
0.06810526 0.11206577 -0.0928292 -0.020559506 0.09273921 0.008464091 -0.015291747 0.08022337
0.011121888 0.14553322 -0.017816538 -0.084056474 0.035503417 -0.04429244 -0.1252009 0.06245686
-0.06714269 -0.07811491 0.011183269 -0.08553161 -0.15623523 -0.041583672 -0.013616273 -0.1070539
-0.061671693 0.078659706 0.06724488 -0.026214488 0.0065899207 -0.054544043 3.6084355e-05 -0.011155307
0.17488295 0.16192791 -0.15552247 -0.0064335647 -0.100685 -0.03230681 -0.06564609 -0.10801738
-0.034717534 -0.100002386 -0.0696856 -0.001062894 -0.043529853 -0.0968543 0.015181809 -0.062158402
00000000: 2608 323e db62 3fbe 9d5a 90bc 3c70 383d
00000010: 4234 923d 3e29 a83d 3c0c 493d 4e26 aebd
00000020: 901d 293e 4d36 56bd 9bb8 5ebd 9ece 80bd
00000030: ef60 83bb 6429 7cbc 895e dbbc e1eb cfbc
00000040: 37a1 113e b4d1 483e f8e0 90bd 01b9 29bd
00000050: 1f97 a2bd c3b7 c8bd a78b a6bd 5656 e6bd
00000060: e436 96bd 10f3 14be d879 76bd b46e 8fbc
00000070: ed26 983d b88a 2cbe abf1 663d 5393 33be
00000080: 2958 72bd 038f debd d375 1f3d 0445 c43d
00000090: a40a ba3d 3397 9dbd 29b0 1a3d 09b7 df3d
000000a0: ba26 e2bc 371d a83d 01a1 48be 2073 513d
000000b0: 48af b83d 212b 4a3e 6206 e8bd ecd8 61bd
000000c0: 30c3 e13c edee 49bd f115 0bbe 5379 2d3d
000000d0: 1550 db3d d349 043e b863 ff3d f50b a03b
000000e0: bbfa 67bd 0a8d 143e 8841 5bbd 98a3 0f3d
000000f0: a91b 573d 4e6a 18be c7c1 17be c12e 3dbd
00000100: 8f02 a83d 17d6 0abd b69f 7e3d 4374 55bd
00000110: 02af 19be 53da 423d 45c1 553c 7c5c 633d
00000120: cd0b 02bd ca48 07be 0d51 633d 6774 d3bd
00000130: 6ebd 913d f8a0 233d 130a 7bbd cee6 1bbe
00000140: 95ae aebc fd4b 8cbc 4dab 903d 6483 3c3e
00000150: a12a 3ebd eb35 2e3d 97ca 0b3e d347 c93d
00000160: 46f1 9fbb dc1a df3d b6ea 1dbe 7f2d a53c
00000170: 6da7 663d 5c5b 2abe c46e 4bbd f5a0 89bd
00000180: 66ee 853d 3f2e 18bd 6aee e33c 1a89 883d
00000190: 9b38 03bd a54f a13c 1b13 903d 02d7 77bd
000001a0: 3a5a 9fbd 344a 003e 2671 553d b6b1 86bd
000001b0: 0de5 06bc 50fa 55bd fdfd 893d 003e 86bc
000001c0: 8a0f 22be 91b3 e93b 8a0c 6f3d 9b46 d93d
000001d0: b927 87bd 7aec 0e3e 2532 52bd fae4 c53d
000001e0: b697 49bd 9fbf a03d 038b b5bd bed3 19be
000001f0: 44a7 6fbd 574e cdbd 9649 ea3d 40c0 31bd
00000200: fe1c fcba 82f5 8b3d 70ff 5fbe 238f 053e
00000210: 658c 653d 82fa ed3b 3454 c63c a4f7 c93c
00000220: ac8d 143d d50e 133d eac2 b2bd 2c02 2b3d
00000230: 7af4 913d 32c2 2fbe 37e6 573e c85e 86be
00000240: e8df 87bd aec3 b0bd afcb 633d 15cd d0bb
00000250: 637a 31bc 2e79 0ebe cef6 13bd 34d2 5dbd
00000260: b868 c83d 69d5 c53c 42d5 563d 7cb4 b63c
00000270: 9224 15bd 8b34 b33a a01b b4bd da3d a0bd
00000280: aa86 fabc 34f9 37bd 7b55 693d 9f9d 0abe
00000290: 3060 0fbd 5db0 94bd d927 81bc a73b 8a3d
000002a0: f137 eabc 46a0 593c 8458 ac3d 91fb a3bc
000002b0: 92cd 163e 48f2 98bd eee5 17be 9be5 f93d
000002c0: 9cfc 9dbd b336 c93a 42dd 5d3d 654a e4bd
000002d0: 239e 813c 1c54 23bc 2c7f d2bc fcfc 8ebc
000002e0: 4fbd 823c 66b9 56bd 3eaa 323e 31b3 013d
000002f0: bd81 143d ae6a cdbd 19df 4a3c 3f80 053e
00000300: 64e7 a2bd fa63 cbbd 7474 f03b d9a6 963d
00000310: 53fe 113d 640c dd3c 432a b3bc e505 bf3d
00000320: 7de3 c3bc 594e 203e 4879 0abe dbd8 33bd
00000330: cb06 603d 1ddb 9ebd 85b4 e23d 6b22 f8bd
00000340: c57a 8b3d bd82 e53d 3c1d bebd 696c a8bc
00000350: 0eee bd3d f9ac 0a3c 3c8a 7abc 264c a43d
00000360: 9438 363c a906 153e fdf3 91bc cd25 acbd
00000370: 086c 113d fd6b 35bd aa34 00be c4d2 7f3d
00000380: 1b82 89bd b6fa 9fbd 083a 373c 322b afbd
00000390: 21fc 1fbe a453 2abd ca16 5fbc 133f dbbd
000003a0: 759b 7cbd 5718 a13d afb7 893d c4bf d6bc
000003b0: 43f0 d73b 9369 5fbd 4859 1738 c0c4 36bc
000003c0: 8414 333e 6ed0 253e 4841 1fbe a7d0 d2bb
000003d0: f033 cebd 2554 04bd 7571 86bd 3738 ddbd
000003e0: f933 0ebd 0dce ccbd 53b7 8ebd ce50 8bba
000003f0: 5c4c 32bd 8c5b c6bd 1fbd 783c cf99 7ebd
