results/JumpOver_v4/JumpOver/JumpOver-499990.onnx (onnx, 201284 bytes, 12 tensors)

network_body.observation_encoder.processors.0.conv_layers.0.weight f4 [16, 3, 8, 8]
0	0x3d2c9418	0.04213342
1	0x3d226c5e	0.03965413
2	0xbcb999e4	-0.022656389
3	0xbd8e53a8	-0.0694955
4	0x3c683f68	0.0141752735
5	0xbd2f9c0a	-0.04287342
6	0x3d0f061a	0.03491793
7	0xbca7e86a	-0.020496566
8	0x3d716290	0.058931887
9	0x3cd59f9c	0.026077084
10	0xbd0bff20	-0.034178853
11	0xbcbdfd6a	-0.023192126
12	0xbc7e1360	-0.015507549
13	0x3cfeac21	0.031087937
14	0x3ce92085	0.02845789
15	0xbd0ecd7e	-0.03486394
16	0x3d829252	0.06375565
17	0x3d5ec52c	0.054387257
18	0xbd21b1ae	-0.03947609
19	0xbb6d53a0	-0.0036213174
20	0x3d619544	0.05507399
21	0xbd3e36fd	-0.04643916
22	0x3d041be8	0.032253176
23	0xbd936e51	-0.071987756
24	0xbd7c5bc1	-0.06161094
25	0xbd3b5c44	-0.04574229
26	0x3d425f7c	0.047454342
27	0x3d6b2f54	0.057418182
28	0x3d47b9ac	0.048761055
29	0x3ce1df1c	0.027572207
30	0x3d7f7dd0	0.062375844
31	0xbce932b8	-0.028466567
32	0x3d5174f0	0.05113691
33	0x3b858410	0.004074581
34	0xbc43f590	-0.011960402
35	0x3c101ce8	0.008795954
36	0x3d25ce60	0.040480018
37	0x3d0e8c50	0.03480178
38	0xbcb6c8ac	-0.022312485
39	0xbcf4a722	-0.029864851
40	0xbd5ff064	-0.054672614
41	0xbd5b36c1	-0.053519014
42	0x3c0938f4	0.008375395
43	0xbca49a9c	-0.020093255
44	0x3d02ee68	0.031965643
45	0x3ce80f1f	0.028327523
46	0x3d1b0417	0.037845697
47	0xbccd32e2	-0.025048677
48	0x3c4d9690	0.012548104
49	0x3c7d4ce2	0.015460225
50	0xbd046228	-0.03232017
51	0xbd65f740	-0.056144
52	0x3cdc653c	0.026903741
53	0x3c18bde4	0.009322617
54	0xbd413488	-0.04716924
55	0xbcac3894	-0.021023072
56	0xbd22cb53	-0.039744686
57	0xbd03e6e4	-0.032202616
58	0x3cfd5e84	0.030928858
59	0x3c5edc88	0.013602383
60	0x3d7a6740	0.061133623
61	0x3d5d5ab0	0.054041564
62	0xbbbc5630	-0.005747579
63	0xbce2f6f6	-0.02770565
64	0xbcc63bf6	-0.024198513
65	0xbdc31958	-0.09526318
66	0xbe3e293e	-0.1857042
67	0xbd589630	-0.052877605
68	0x3b53d707	0.0032324211
69	0xbc58be63	-0.0132289855
70	0x3db1ea81	0.08687306
71	0x3dee78ac	0.1164411
72	0xbd8e7941	-0.06956721
73	0x3be0b1d0	0.0068571344
74	0x3db57f97	0.088622265
75	0xbe212fc7	-0.15740882
76	0x3d6873ca	0.05675105
77	0x3b34c85a	0.002758524
78	0x3bf9d94a	0.00762478
79	0xbe17e5fd	-0.14833827
80	0x3cc4e585	0.024035225
81	0x3d67910c	0.05653481
82	0x3d45b1b8	0.04826519
83	0xbda4ac36	-0.08040659
84	0x3d1bc421	0.03802884
85	0x3dab73c2	0.083716884
86	0x3dc99816	0.09843461
87	0x3b6c81f5	0.0036088203
88	0xbd2d4018	-0.042297453
89	0x3e0b7ac8	0.13621056
90	0x3d987558	0.074442565
91	0x3d7f434b	0.062320035
92	0x3d7361c2	0.0594194
93	0xbd931794	-0.071822315
94	0xbd928b47	-0.07155471
95	0x3df4b523	0.119486116
96	0x3d265c30	0.04061526
97	0xbcdab970	-0.026699752
98	0x3d624c29	0.055248413
99	0x3db15c41	0.08660174
100	0x3dcd594d	0.100267984
101	0x3de7e152	0.11322273
102	0xbc250ff2	-0.010074602
103	0x3dd38e8e	0.103299245
104	0xbca34b7f	-0.01993346
105	0x3b36617d	0.0027829104
106	0x3dd50b9b	0.10402604
107	0x3d2d909f	0.04237425
108	0x3d5ee53d	0.054417837
109	0x3dead76b	0.11466869
110	0xbd66cb0a	-0.056345977
111	0xbe26a4c5	-0.16273792
112	0xbd8ec51d	-0.0697119
113	0x3c60efaa	0.013729015
114	0x3d63e519	0.055638406
115	0xbca286bb	-0.019839635
116	0x3dac3834	0.084091574
117	0xbc97e2cf	-0.018540768
118	0x3cd9757e	0.026545282
119	0xbcd7ebd8	-0.026357576
120	0x3d18498b	0.03717951
121	0xbcf6a068	-0.030105785
122	0xbd041fea	-0.032256998
123	0x3d4a6b0e	0.0494185
124	0x3cba6cf6	0.022757035
125	0x3d1e607e	0.03866624
126	0x3d1d5079	0.038406823
127	0x3d3e86da	0.046515323
128	0x3d391b46	0.045192026
129	0x3d327085	0.04356434
130	0x3dce9b7e	0.100882515
131	0x3ca8aa7d	0.020589108
132	0x3baa32e9	0.0051940572
133	0x3bfd3e04	0.00772834
134	0x3d804e6a	0.06264956
135	0xbd8d92b7	-0.06912749
136	0xbd344a7e	-0.044016354
137	0x3d241c95	0.04006632
138	0xbb19e54f	-0.0023482626
139	0x3b7d3336	0.003863526
140	0x3d4e40e2	0.050354846
141	0x3d0e9311	0.034808222
142	0xbd837ead	-0.06420646
143	0x3d80b57c	0.062846154
144	0xbbbba7e2	-0.0057268003
145	0x3cb45803	0.022014624
146	0x3d10647a	0.035252072
147	0x3c63eb88	0.0139111355
148	0xbadbe4ab	-0.0016776522
149	0xbd106b43	-0.035258543
150	0x3d5bf4e8	0.053700358
151	0x3be8f050	0.0071087256
152	0x3c8afb24	0.016965456
153	0xb9b56f68	-0.00034606014
154	0xbcbd4e63	-0.023108667
155	0x3d7a69df	0.061136123
156	0x3cbc29bd	0.022969121
157	0xbd0dcaf1	-0.034617368
158	0xbc7877b9	-0.015165263
159	0x3ca8d3e7	0.020608855
160	0x3c398ae7	0.011324621
161	0x3cdef0ec	0.02721449
162	0x3d631c96	0.055447184
163	0xbd1c156e	-0.038106374
164	0xbc9b4c7c	-0.018957369
165	0x3cf272ce	0.029595759
166	0x3d804d48	0.0626474
167	0x3c04f3e6	0.008114791
168	0x3d3769a2	0.044778474
169	0x3b8aac6c	0.00423198
170	0xbd58e23c	-0.05295013
171	0x3d8d4e8b	0.068997465
172	0xbc06f6eb	-0.008237581
173	0xbd2bf49b	-0.04198132
174	0xbd266f22	-0.04063333
175	0x3dbbe814	0.09175125
176	0x3d867057	0.06564396
177	0xbd56b19e	-0.052415483
178	0xbd64b188	-0.05583337
179	0xbd5bba58	-0.053644508
180	0x3d80459d	0.06263278
181	0xbd8d72e7	-0.069066815
182	0x3cba94f7	0.02277611
183	0xbd2ec51e	-0.042668454
184	0xbc7dfe87	-0.015502579
185	0x3c469df1	0.012122617
186	0x3c947162	0.018120471
187	0xbc181afe	-0.009283779
188	0x3c64e115	0.013969679
189	0xbc440e34	-0.011966277
190	0xbc124ebc	-0.008929905
191	0xbce2b3b9	-0.027673589
192	0x3c0ec150	0.0087130815
193	0xbb910660	-0.004425809
194	0xbd74456e	-0.059636526
195	0xba90c280	-0.0011044294
196	0x3d3b65de	0.045751445
197	0x3d1cdda0	0.038297296
198	0xbd6874df	-0.056752082
199	0x3d74daf4	0.059779122
200	0xbc0905f8	-0.0083632395
201	0x3c5e6d72	0.0135758985
202	0x3db06f2a	0.08614953
203	0xbd0c7129	-0.034287605
204	0xbc66a91c	-0.014078405
205	0xbd19a11e	-0.03750717
206	0x3cab99dc	0.02094739
207	0x3d078b1e	0.033091657
208	0x3b8b7070	0.004255347
209	0xbcfe4cfa	-0.031042565
210	0x3d96ad03	0.07357218
211	0xbc7e633c	-0.015526589
212	0xbcc541c8	-0.024079219
213	0xbc65094d	-0.013979268
214	0x3d620ee6	0.05518999
215	0x3d0c1f0a	0.03420929
216	0x3ce6542c	0.028116308
217	0xbca1b31c	-0.019738726
218	0x3c0ed748	0.008718319
219	0x3c265f50	0.01015456
220	0x3d004990	0.031320155
221	0x3c9fcd9c	0.019507222
222	0x3d0d95de	0.034566753
223	0x3cc43ff4	0.023956276
224	0x3c3e8b48	0.011629887
225	0xbc76e8f4	-0.015070189
226	0xbd76c238	-0.060243815
227	0xbbd5a450	-0.0065198317
228	0x3ba3c1b0	0.0049974546
229	0xbc9edf74	-0.01939366
230	0x3d62de90	0.055388033
231	0xbd4c3aee	-0.049860887
232	0xbd2eb7bb	-0.042655688
233	0x3d751433	0.059833717
234	0xbc7d6cce	-0.015467836
235	0x3d4c8168	0.0499281
236	0x3d8671f0	0.065647006
237	0x3b1aaaa1	0.0023600238
238	0xbd5ce84e	-0.05393248
239	0x3d839c00	0.06426239
240	0xbd912ced	-0.07088647
241	0x3ca42422	0.02003676
242	0xbb4a1c30	-0.0030839555
243	0xb9b40e00	-0.00034342706
244	0xbc89d802	-0.016826633
245	0xbd536505	-0.05161001
246	0x3cf9d39f	0.030496417
247	0xbc29e83c	-0.01037031
248	0x3d247350	0.040149033
249	0xbd07efe1	-0.03318775
250	0xbb0e4980	-0.002171129
251	0xbba63d50	-0.005073227
252	0xbbd7a9c0	-0.006581515
253	0x3c011870	0.0078793615
254	0x3d3ce910	0.046120703
255	0x3c95afc4	0.018272288

network_body.observation_encoder.processors.0.conv_layers.0.bias f4 [16]
0	0x3c600386	0.013672715
1	0x3b670278	0.0035249274
2	0x3cf077ac	0.029353939
3	0x3d4b26ab	0.049597424
4	0xbc817b14	-0.015805759
5	0xbcc1c321	-0.023652615
6	0x3c8d5f43	0.017257338
7	0xbcda374f	-0.026637701
8	0xba8ba084	-0.0010652696
9	0xbd2e7c1a	-0.04259882
10	0xbd684825	-0.056709427
11	0x3c530e57	0.012881837
12	0xbd53d782	-0.051719196
13	0x3d1404cc	0.036137387
14	0x3b7b8bbe	0.0038382853
15	0x3c3fd370	0.0117081255

network_body.observation_encoder.processors.0.conv_layers.2.weight f4 [32, 16, 4, 4]
0	0x3a657b45	0.00087540253
1	0x3c0b9a93	0.00852074
2	0xbd44d23b	-0.048052054
3	0x3d336bc1	0.043803934
4	0x3cefcc39	0.029272186
5	0xbc1173b5	-0.008877684
6	0xbd700f65	-0.05860843
7	0xbc0ad319	-0.008473181
8	0xbd376e63	-0.044783007
9	0x3d7751d8	0.060380787
10	0xbce0bab2	-0.027432773
11	0x3c918402	0.017763142
12	0xbd095632	-0.033529468
13	0xbd2a026f	-0.041506227
14	0xbd4f61a8	-0.05063024
15	0x3cbdb2f0	0.023156613
16	0xbc2f0e27	-0.0106845265
17	0xbdb81c0e	-0.08989726
18	0xbc34d26c	-0.011036497
19	0x3defbf8c	0.117064565
20	0x3d3c47a8	0.045966774
21	0xbdac0bca	-0.08400686
22	0xbd061c2e	-0.032741718
23	0x3d13c683	0.036077987
24	0xbd9e068e	-0.07716094
25	0x3ba6a593	0.005085656
26	0x3cfb3fd8	0.030670092
27	0xbe2c79c5	-0.16843326
28	0xbc7f2550	-0.015572861
29	0x3b96cab3	0.0046018003
30	0x3c8cdf49	0.017196314
31	0x3d723022	0.059127934
32	0x3d699243	0.05702425
33	0x3dbb4212	0.09143461
34	0x3d90b009	0.07064826
35	0xbd6f2b21	-0.05839074
36	0x3c2a9bff	0.010413169
37	0x3db82ba9	0.089927025
38	0x3cc27246	0.02373613
39	0x3dc341ee	0.095340595
40	0x3cb6eceb	0.022329768
41	0xbd37dfae	-0.044891052
42	0xbb211453	-0.0024578765
43	0x3d499b7a	0.04922054
44	0x3a97fa83	0.0011595044
45	0xbd72b354	-0.059253052
46	0x3c255d8a	0.010093102
47	0xbce9cead	-0.028540934
48	0xbaba304e	-0.001420507
49	0xbbc5f809	-0.006041531
50	0x3d577a6a	0.052606978
51	0x3c1f7403	0.009732249
52	0x3c3a7c82	0.011382224
53	0x3cf1a41e	0.029497202
54	0x3b4091ea	0.0029383847
55	0x3d11ec5f	0.03562581
56	0x3d67080d	0.056404162
57	0xbd200119	-0.039063547
58	0x3ce0bb17	0.027432961
59	0x3b457d1b	0.0030134383
60	0x3d2e86ac	0.0426089
61	0xbceaa1e4	-0.028641649
62	0xbd4de5ca	-0.050267972
63	0xbc291553	-0.0103200255
64	0xbd082bf0	-0.033245027
65	0xbd248322	-0.04016412
66	0x3d3f5c19	0.04671869
67	0x3d2e8627	0.042608406
68	0xbccd11de	-0.025032934
69	0x3cb03b44	0.021512635
70	0x3da7c0d4	0.08191076
71	0x3d7b684b	0.06137876
72	0xba1b7a47	-0.00059310015
73	0xbd07fa46	-0.033197664
74	0xbcceb25b	-0.02523153
75	0xbd7585be	-0.059942
76	0xbce809ab	-0.028324923
77	0x3d333d9a	0.04375992
78	0xbcf49f01	-0.029860975
79	0x3c8eb34e	0.017419484
80	0xbd8b30e7	-0.06796437
81	0xbc689884	-0.014196519
82	0x3d88e4ff	0.066843025
83	0xbc9b5957	-0.018963499
84	0x3cde032b	0.02710112
85	0xbc5cca4d	-0.013475967
86	0xbc66db71	-0.014090405
87	0x3d7d26eb	0.061804693
88	0xbc75f55f	-0.015012114
89	0x3b87ba7b	0.0041421033
90	0xbc7d4373	-0.015457976
91	0x3cfe203f	0.031021236
92	0x3c2a2410	0.0103845745
93	0x3d1138a1	0.035454396
94	0xbd4f5408	-0.050617248
95	0xbb9b2333	-0.0047344207
96	0x3d298b8a	0.04139284
97	0xbb92ce0a	-0.004480128
98	0x3d137c42	0.036007173
99	0xbd402368	-0.046908766
100	0xbc77c45a	-0.015122497
101	0x3dd61017	0.10452288
102	0x3d717f56	0.058959328
103	0xbd2c4439	-0.04205725
104	0xbbc76690	-0.0060852244
105	0xbc49e9a2	-0.012323769
106	0xbc71991c	-0.014745977
107	0x3de222d8	0.11041802
108	0xbc17a9da	-0.009256804
109	0x3d056737	0.032569136
110	0x3b37e33d	0.0028059029
111	0xbccc5c8f	-0.02494648
112	0xbdbd2080	-0.092347145
113	0x3d13d2c1	0.036089662
114	0xbda403d5	-0.080085434
115	0x3d647121	0.05577195
116	0x3ccb7b6f	0.024839131
117	0xbd620ba2	-0.055186875
118	0xbbde3f65	-0.0067824596
119	0xbd6cea8a	-0.05784086
120	0x3d48a842	0.04898859
121	0xbda03552	-0.0782267
122	0x3d0b0a5f	0.033945438
123	0x3e3436bc	0.17599005
124	0x3c8c1b79	0.017102944
125	0xbcb5a9aa	-0.022175629
126	0x3c82a823	0.015949314
127	0x3c9f3b2c	0.019437395
128	0xbcdbbb31	-0.026822658
129	0x3d5d49e9	0.054025564
130	0x3d23bc67	0.039974596
131	0x3cf62ac1	0.030049684
132	0xbce54339	-0.027986156
133	0x3c6d25ca	0.014474342
134	0x3d839349	0.06424577
135	0xbc6c0b78	-0.014407031
136	0x3ce2f0c6	0.0277027
137	0xbd128426	-0.035770558
138	0x3c10666c	0.008813482
139	0x3d715ec1	0.058928255
140	0xbd15966b	-0.036520403
141	0x3c44e81c	0.01201823
142	0x3c8007ed	0.01562878
143	0xbc58c048	-0.013229437
144	0xbcff002c	-0.031128012
145	0x3d1fad2d	0.038983513
146	0xbd1c75c7	-0.03819826
147	0x3c8aadfb	0.016928663
148	0xbd80823f	-0.062748425
149	0x3be46f21	0.0069712554
150	0x3d210d69	0.03931943
151	0x3c236d72	0.009974824
152	0xbd9f440a	-0.07776649
153	0x3d8442fd	0.064580895
154	0x3d26ed46	0.040753625
155	0x3d5a1d8f	0.053250846
156	0xbcb8aa1b	-0.02254205
157	0x3cdffb66	0.027341556
158	0x3cbaf8c4	0.022823699
159	0x3cd7eb4e	0.02635732
160	0x3d2c5734	0.04207535
161	0xbccab407	-0.024744047
162	0x3d97ee0b	0.0741845
163	0x3d550fb9	0.052016947
164	0x3d19e68a	0.037573375
165	0x3cf6c0ae	0.030121174
166	0xbc5a9566	-0.013341283
167	0xbe0413fe	-0.12898251
168	0x3c2570cc	0.010097694
169	0x3d5faada	0.054606296
170	0x3d588b1c	0.05286704
171	0x3dceabe7	0.100913815
172	0x3c8eb8e4	0.017422147
173	0xbd231b99	-0.03982124
174	0x3d0573cc	0.032581136
175	0x3caf8860	0.021427333
176	0x3a4dd8c9	0.0007852433
177	0xbd0e0fcf	-0.034683045
178	0x3d43d742	0.047812708
179	0x3e08ff26	0.13378581
180	0x3cdaee3a	0.026724923
181	0xbd0f5641	-0.034994368
182	0xbda96ac1	-0.08272315
183	0xbe9186f9	-0.28423288
184	0xbdcd7d26	-0.10033636
185	0xbce62c07	-0.028097166
186	0xbccafb6c	-0.02477809
187	0xbcd3b03a	-0.025840867
188	0xbbcaf449	-0.006193672
189	0x3c1bcf1e	0.00950983
190	0x3d58d7fd	0.052940357
191	0x3d951150	0.07278693
192	0xbd28cae8	-0.04120913
193	0xbd6d4f12	-0.057936735
194	0xbd618ae0	-0.055064082
195	0x3db574ce	0.08860169
196	0x3d1460a8	0.03622499
197	0x3d1ab04f	0.037765797
198	0xbdf3a340	-0.11896372
199	0xbe40c515	-0.18825181
200	0x3cdabfe0	0.026702821
201	0xbc511e1c	-0.012763526
202	0xbd3862ce	-0.045016102
203	0x3d01edbb	0.031720858
204	0x3d09225c	0.033480033
205	0x3cef572a	0.029216368
206	0x3d3de15a	0.04635749
207	0xbcb6854c	-0.022280358
208	0x3d6cc0b0	0.05780095
209	0xbba7f226	-0.005125302
210	0x3d1832d2	0.03715784
211	0xbc8a4706	-0.01687957
212	0x3a1850ea	0.0005810397
213	0x3d91f81b	0.071274005
214	0x3dd97ef6	0.10619919
215	0x3af8cbca	0.0018981632
216	0xbc79ea67	-0.01525364
217	0xbd30fde8	-0.043210894
218	0x3d43ca29	0.047800217
219	0x3d70d7f5	0.058799703
220	0xbca4c4c9	-0.020113366
221	0x3a38d7e4	0.0007051213
222	0x3be62f4a	0.0070246803
223	0xbcf6b049	-0.030113356
224	0x3d6fb368	0.058520705
225	0xbd3b7fa2	-0.045776017
226	0xbd4b3cdd	-0.04961859
227	0xbc4614b8	-0.012089901
228	0xbd107b49	-0.035273824
229	0xbd39d02c	-0.045364544
230	0x3d64ef1d	0.0558921
231	0x3d8a9ca9	0.06768162
232	0x3d1c60d2	0.038178273
233	0x3b41eea5	0.0029591706
234	0x3d2eaf6e	0.04264777
235	0x3df7f6f8	0.121076524
236	0xbd38deca	-0.045134343
237	0x3ce230fe	0.027611252
238	0x3b8736ee	0.004126421
239	0x3c8674f3	0.016413188
240	0xbcb13446	-0.021631371
241	0xbb0edd8f	-0.002179954
242	0xbd5ccfdb	-0.053909164
243	0x3d91dab7	0.07121795
244	0x3d11d5cd	0.035604287
245	0xbc8154ee	-0.015787568
246	0x3bf271eb	0.007398834
247	0xbc5b64c1	-0.013390721
248	0x3d071822	0.032982
249	0x3d298c07	0.041393306
250	0x3cb785e3	0.02240271
251	0x3db295f5	0.08720008
252	0x3c623c37	0.013808302
253	0xbcc9a50b	-0.024614831
254	0xbc8f0aba	-0.01746117
255	0x3cf2fab8	0.029660568

network_body.observation_encoder.processors.0.conv_layers.2.bias f4 [32]
0	0x3c0a7744	0.008451287
1	0xbcb64004	-0.022247322
2	0x3d226ab4	0.03965254
3	0x3cafa7ba	0.021442283
4	0xbcc2019e	-0.023682412
5	0x3d736f62	0.059432395
6	0xbcf29654	-0.029612698
7	0xbd03534f	-0.03206187
8	0xbd948b71	-0.07253159
9	0x3c104d4d	0.008807492
10	0x3d71ef5b	0.059066158
11	0x3d156076	0.036468945
12	0x3cb32d6b	0.021872243
13	0x3d77460d	0.06036954
14	0x3d430184	0.047608867
15	0xbcfc775c	-0.030818634
16	0xbca974cb	-0.020685574
17	0x3d78b0d1	0.0607155
18	0xbd0bb04d	-0.03410368
19	0x3d34eb58	0.044169754
20	0xbc310005	-0.010803227
21	0x3c272967	0.010202742
22	0x3d2c8e31	0.04212779
23	0xbd9a16eb	-0.075239025
24	0xbd18bb56	-0.037288032
25	0xbc4f4256	-0.012650093
26	0x3cd1591c	0.025555186
27	0xbb810c9c	-0.0039382707
28	0x3d575c8f	0.052578505
29	0x3d7e4753	0.06207974
30	0xbcdc40ad	-0.026886309
31	0x3cf218f7	0.02955292

network_body.observation_encoder.processors.0.dense.0.weight f4 [128, 32]
0	0x3ea00df6	0.3126065
1	0xbeb35acf	-0.3503022
2	0x3df5a900	0.11995125
3	0x3d077945	0.033074636
4	0x3d1d09d9	0.03833947
5	0xb7744ba2	-1.4561143e-05
6	0x3e0ec8f0	0.13943839
7	0x3e7ce6aa	0.24697366
8	0xbea41bb7	-0.32052395
9	0x3ddd7ac0	0.10814428
10	0xbdb3f698	-0.087872684
11	0x3d7f6464	0.0623516
12	0x3f0f53c1	0.55987173
13	0xbcce5c94	-0.025190629
14	0x3eb2760e	0.34855694
15	0x3d56287e	0.05228471
16	0xbecc32fb	-0.39882645
17	0xbecc9b2b	-0.39962134
18	0x3e2694cd	0.162677
19	0x3e703c75	0.23460563
20	0x3ebe94bb	0.37222847
21	0xbf0570c4	-0.5212519
22	0x3e4e3acf	0.20139621
23	0x3d76c084	0.06024219
24	0x3e89363b	0.26799187
25	0x3f0e73e5	0.5564559
26	0x39c6a036	0.0003788487
27	0x3e678be5	0.2261196
28	0xbe70abd4	-0.23503047
29	0x3d4e5e9d	0.0503832
30	0x3c8df2a6	0.017327618
31	0x3cf19405	0.029489527
32	0x3d515fef	0.05111688
33	0xbd05fe99	-0.032713506
34	0x3d6b747b	0.05748413
35	0xbdfc4de8	-0.12319547
36	0xbc392028	-0.011299171
37	0xbc3f8954	-0.011690456
38	0xbe69edbf	-0.22844599
39	0x3e915011	0.28381398
40	0x3eb9c1d1	0.36280683
41	0xbe921b7a	-0.28536588
42	0x3f163142	0.5866891
43	0x3e874f2b	0.26427588
44	0x3d63a7a5	0.0555798
45	0x3eca0996	0.39460438
46	0xbdb4033f	-0.08789682
47	0xbea79f3f	-0.32738683
48	0x3dcccc98	0.09999961
49	0x3ed632e8	0.41835713
50	0xbe2990d5	-0.16559155
51	0x3eb15961	0.34638503
52	0x3d92abdd	0.071616866
53	0xbde05433	-0.1095356
54	0xbdfbf8ac	-0.1230329
55	0xbef7f821	-0.48431495
56	0x3e5b8eca	0.21441188
57	0xbbfa705d	-0.0076427893
58	0x3df93bf0	0.12169635
59	0xb96fa243	-0.00022853263
60	0xbd31397d	-0.043267716
61	0x3f1ced87	0.6129994
62	0xbe0d777c	-0.13815111
63	0xbe3712d2	-0.17878273
64	0xbcb5cfc6	-0.0221938
65	0x3ea6a7c1	0.3254986
66	0x3e4378bd	0.19089027
67	0xbe9b672d	-0.30352154
68	0x3e7e6fc7	0.24847327
69	0xbde67a67	-0.11253815
70	0x3e3d60f0	0.1849401
71	0xbcb18970	-0.02167198
72	0xbe9c27e2	-0.30499178
73	0x3e714bef	0.23564123
74	0x3e1db2f7	0.15400301
75	0xbecd0469	-0.40042427
76	0x3e261c26	0.16221675
77	0xbe73c685	-0.23806198
78	0x3ec1e28e	0.3786816
79	0x3eb59f61	0.3547316
80	0xbf03169f	-0.5120639
81	0x3e24d0ba	0.16095248
82	0x3d51b068	0.051193625
83	0x3d2f8c75	0.04285856
84	0x3e5afebe	0.21386239
85	0x3e2821d5	0.16419156
86	0x3e5f9f3e	0.2183809
87	0xbce562f9	-0.028001295
88	0xbd0e66a6	-0.034765862
89	0x3e757f6a	0.23974386
90	0xbbffaf95	-0.0078029134
91	0xbe3d1ef9	-0.18468846
92	0x3dda8afe	0.10671042
93	0x3c9fba1d	0.019497925
94	0x3e5dfca2	0.21678403
95	0x3dfa6347	0.12225967
96	0x3e1d22ff	0.15345381
97	0x3ea0bede	0.3139562
98	0xbd6f03e8	-0.058353335
99	0xbe7145b4	-0.23561746
100	0xbe754846	-0.23953351
101	0x3e815d68	0.25266576
102	0xbd68224e	-0.05667334
103	0x3e043b2d	0.12913199
104	0xbe18b69b	-0.14913408
105	0xbe417b08	-0.18894589
106	0x3f408204	0.7519839
107	0x3efc5f65	0.4929153
108	0xbeec0671	-0.46098664
109	0xbdf80a61	-0.121113546
110	0xbe301bbd	-0.17198081
111	0x3e1689c9	0.14700998
112	0xbd906766	-0.07050972
113	0x3d594b5b	0.05305038
114	0xbe281691	-0.16414858
115	0x3ed0f880	0.4081459
116	0xbcc895c7	-0.024485482
117	0x3e7ca695	0.24672921
118	0xbe94415d	-0.28956118
119	0x3e940a77	0.28914234
120	0xbce73d8b	-0.028227588
121	0x3e10ea08	0.14151776
122	0x3e5a7e21	0.21337177
123	0xbd61eb60	-0.05515611
124	0x3e42a21d	0.19007154
125	0x3e490e21	0.19634296
126	0xbea900ea	-0.3300851
127	0xbe7a9d0f	-0.24473976
128	0xbca943d4	-0.020662226
129	0xbe6b7ff6	-0.22998032
130	0x3eb9b61e	0.36271757
131	0xbb0555cf	-0.0020345335
132	0x3e9d5c99	0.3073471
133	0x3ee6c015	0.45068422
134	0x3d4c15c5	0.04982545
135	0x3e402a6a	0.1876618
136	0xbe59f3e3	-0.21284442
137	0x3eba5508	0.36393
138	0x3e49a3f0	0.19691443
139	0x3f4dab97	0.8033995
140	0x3e89eafe	0.26937097
141	0x3c84df5c	0.016219787
142	0x3efe0264	0.496112
143	0x3eee46ec	0.46538484
144	0x3df50f3b	0.119657956
145	0xbe8064c8	-0.2507689
146	0x3e8b3d5a	0.27195245
147	0x3d898b02	0.06715967
148	0xbe0358e5	-0.1282688
149	0xbe3e21aa	-0.1856753
150	0xbe86ccaf	-0.26328036
151	0x3dcd3be4	0.10021189
152	0x3cbed867	0.023296548
153	0xbe98f964	-0.2987777
154	0x3e5b8484	0.2143727
155	0x3f117360	0.56816673
156	0xbeb065ba	-0.3445261
157	0xbe9cbcc3	-0.30612764
158	0xbd810514	-0.06299797
159	0x3d5485d9	0.05188546
160	0x3f1f015c	0.6211145
161	0xbeaa1066	-0.33215636
162	0x3e3e4c96	0.18583903
163	0x3e3e6f10	0.18597054
164	0x3e23dcc3	0.16002183
165	0x3e3baf2b	0.1832854
166	0x3ed2e14b	0.4118751
167	0xbe8b2ec0	-0.27184105
168	0xbcc46c22	-0.023977343
169	0x3cdb6759	0.026782678
170	0xbe8e0ddf	-0.27744958
171	0x3de1a6b7	0.110181265
172	0xbe998b72	-0.299892
173	0xbf0a804c	-0.54102015
174	0x3da1a099	0.0789196
175	0xbd97da2a	-0.07414658
176	0x3e9239db	0.28559765
177	0xbeb18fb2	-0.34679943
178	0x3e613fdc	0.21997017
179	0xbecca6cc	-0.39971006
180	0xbce47426	-0.027887415
181	0x3e86c769	0.26324013
182	0xbddf5d15	-0.10906426
183	0xbc736870	-0.014856443
184	0xbf2d26a3	-0.6763708
185	0xbd87fc8d	-0.06639967
186	0x3e9c1cdd	0.3049077
187	0xbe420e10	-0.18950677
188	0xbca8856b	-0.020571431
189	0x3e8809a7	0.26569864
190	0xbd173104	-0.03691198
191	0xbcb3b1e8	-0.021935418
192	0xbe8ec215	-0.27882448
193	0xbe87ad85	-0.26499572
194	0xbeb0965a	-0.3448971
195	0x3ea31f3c	0.31859767
196	0x3e732ec9	0.23748316
197	0x3e0dad79	0.13835706
198	0x3d13f90d	0.036126185
199	0xbeb740ae	-0.35791534
200	0xbc3c9143	-0.0115092425
201	0x3ef36d57	0.47544357
202	0xbe618fd7	-0.22027527
203	0x3d564534	0.05231209
204	0x3d88f40c	0.06687173
205	0xbf1279de	-0.57217205
206	0xbed31f25	-0.412347
207	0xbebb8040	-0.36621284
208	0xbeab74cb	-0.33487543
209	0x3da983d9	0.08277101
210	0x3c7ac18e	0.015304936
211	0x3d8b3726	0.06797628
212	0x3a8bddaf	0.0010670925
213	0x3d9d33ca	0.076758936
214	0x3cc2bcaf	0.023771612
215	0xbe526768	-0.20547259
216	0xbeaecbe0	-0.3413992
217	0x3ea38de1	0.31944183
218	0xbd8e9ebb	-0.06963869
219	0xbe6d3a29	-0.23166718
220	0xbf0b1bb7	-0.54339164
221	0xbe85f795	-0.26165453
222	0x3e4ba931	0.1988876
223	0x3da12c93	0.0786983
224	0xbc99b3b5	-0.018762449
225	0x3e31aa82	0.173502
226	0xbee50b2d	-0.4473509
227	0x3d4b13c2	0.04957939
228	0xbd45d77a	-0.048301198
229	0x3dadbc99	0.08483238
230	0x3db29700	0.08720207
231	0x3dfb61f7	0.12274545
232	0x3d6414e0	0.05568397
233	0xbd507eb4	-0.050902084
234	0xbce311a7	-0.027718378
235	0xbc6471d6	-0.013943156
236	0xbe1005d9	-0.1406473
237	0x3df8935a	0.1213748
238	0x3f184549	0.5948072
239	0x3f0e3115	0.55543643
240	0x3e7d55a2	0.24739698
241	0x3ce87313	0.028375184
242	0xbdf44cc3	-0.11928704
243	0xbe670141	-0.22559072
244	0x3ace9021	0.0015759506
245	0x3e3b734b	0.183057
246	0x3e2801af	0.16406892
247	0x3e617cb9	0.22020234
248	0xbbcc1c7a	-0.0062289806
249	0x3e98a6b2	0.29814678
250	0x3d88785b	0.06663581
251	0xbea061b9	-0.31324556
252	0x3e2d7b77	0.1694163
253	0xbc404eda	-0.01173755
254	0xbd3a2b20	-0.045451283
255	0x3eae1a6b	0.3400453

network_body.observation_encoder.processors.0.dense.0.bias f4 [128]
0	0x3bcd5ade	0.0062669357
1	0x3c714c3d	0.014727649
2	0xbc5bb962	-0.013410898
3	0x3bbf304a	0.005834614
4	0xbbc4b8f5	-0.006003494
5	0x3d54f093	0.051987242
6	0xbc43203c	-0.011909541
7	0x3cd096c4	0.025462516
8	0x3c92811f	0.017883835
9	0xbcda6f6a	-0.026664454
10	0x3c44bc3b	0.012007768
11	0x3a92bf30	0.0011195894
12	0x3c860796	0.01636104
13	0x3cb6d7a1	0.022319617
14	0x3c88b088	0.01668574
15	0x3cb67c52	0.022276077
16	0x3d10e53f	0.035374876
17	0x3d519ee3	0.051176917
18	0x383c7e76	4.494047e-05
19	0x3ba69bec	0.0050845053
20	0x3cc0c407	0.023530973
21	0x3d8c0baa	0.06838162
22	0x3c5c9f73	0.01346575
23	0xbc8dd9d7	-0.017315788
24	0x3ce1eebd	0.02757966
25	0x3cb058d8	0.021526739
26	0x3caad6cf	0.020854382
27	0x3b9ee113	0.0048486083
28	0x3c5ae0bc	0.013359245
29	0x3d324d77	0.043530907
30	0x3cd9c2e6	0.026582193
31	0x3d103a8c	0.035212085
32	0x3c0edaf5	0.008719196
33	0x3d1044e7	0.03522196
34	0x3c8a411c	0.01687675
35	0x3cc4a648	0.02400507
36	0x3b7b312f	0.0038328876
37	0xbb9e46bf	-0.004830211
38	0x3bd83e7d	0.006599246
39	0x3cd48ce6	0.025946092
40	0xbbbe1a18	-0.0058014505
41	0x3cc74a62	0.02432746
42	0x3cc04107	0.023468507
43	0x3c1e0d56	0.009646734
44	0x3cc40f9e	0.023933228
45	0x3ce8d9c4	0.028424151
46	0x3cf308f4	0.029667355
47	0x3b9dce34	0.004815841
48	0x3cbe41a5	0.023224661
49	0x3c767a2b	0.015043776
50	0x3cb56dda	0.022147108
51	0x3d16f149	0.0368512
52	0x3c87c3e5	0.016572902
53	0x3bb8526a	0.005625059
54	0x3b969b44	0.004596146
55	0x3c92cc09	0.017919557
56	0xbcf7b85d	-0.030239278
57	0x3c2e517e	0.010639546
58	0xbcc1933f	-0.023629783
59	0xbc10f7ff	-0.008848189
60	0x3d07b947	0.03313568
61	0x3b8ad043	0.0042362525
62	0x3b0cd35b	0.0021488282
63	0x3c969ab8	0.018384323
64	0x3cc55013	0.024086034
65	0x3cfc96fe	0.030833717
66	0x3c880ccf	0.01660767
67	0xbcb73ac5	-0.02236689
68	0x3bf03f86	0.0073317913
69	0x3cf6966c	0.030101024
70	0x3d030849	0.031990323
71	0xbadd3a53	-0.0016878344
72	0x3c928944	0.017887719
73	0x3d22803e	0.039673083
74	0x3c9c2793	0.01906184
75	0x3c7bb6c9	0.015363404
76	0xbcb31a25	-0.021863053
77	0x3d1856ba	0.037192084
78	0x3c5bdb83	0.013419035
79	0x3b2abc5e	0.0026052217
80	0x3c8b0990	0.016972333
81	0x3d8368f8	0.064165056
82	0x3c8a8be8	0.016912416
83	0x3ca426a9	0.020037966
84	0x3c6fdaa8	0.014639534
85	0x3ce2c16c	0.027680121
86	0xbc029740	-0.007970631
87	0x3ce747b8	0.02823244
88	0x3cc96c64	0.024587817
89	0x3c89e38c	0.016832136
90	0x3d33eadc	0.04392515
91	0x3d0dd770	0.034629285
92	0x3c43c87a	0.011949653
93	0x3c85c14f	0.016327528
94	0x3c320fe3	0.0108680455
95	0x3d1fa408	0.03897479
96	0x3c9ef97f	0.019406078
97	0x3b8bfd13	0.004272112
98	0x3d915fef	0.07098376
99	0x3d115641	0.03548265
100	0x3cd10cae	0.025518741
101	0xbb8a7918	-0.0042258613
102	0xbba718c1	-0.0050993864
103	0x3bf50672	0.007477575
104	0x3bf12b99	0.0073599336
105	0x3cf4f5c8	0.029902354
106	0x3cb5be79	0.022185551
107	0x3bb2bda2	0.005454735
108	0x3ccfb8fb	0.02535676
109	0x3c18b91d	0.009321478
110	0xbc8e5ee6	-0.017379235
111	0x3bcb2f24	0.006200688
112	0xbc19e397	-0.009392641
113	0x3c9fa057	0.019485636
114	0x3c0f963e	0.008763848
115	0x3ce09e52	0.027419243
116	0x3c37d8f9	0.011221164
117	0x3be8ae15	0.0071008303
118	0xbba568a2	-0.0050478736
119	0x3c1c36dc	0.009534564
120	0x3c88948b	0.016672393
121	0x3c9fadbb	0.01949202
122	0xbcc4c6f6	-0.024020653
123	0x3d0c7769	0.034293566
124	0x3c736570	0.014855728
125	0xbc1bb7b0	-0.009504244
126	0x3d58b319	0.052905176
127	0x3d09142b	0.0334665

network_body._body_endoder.seq_layers.0.weight f4 [128, 128]
0	0xbe1125f0	-0.14174628
1	0xbc755446	-0.014973706
2	0xbb5449d3	-0.0032392635
3	0xbc4a728b	-0.012356411
4	0xbdce8702	-0.100843444
5	0xbd46817f	-0.04846334
6	0xbcb4cffc	-0.02207183
7	0xbbc4ba22	-0.006003634
8	0x3c0b4d33	0.008502292
9	0x3dbad02c	0.09121737
10	0x3d347eba	0.04406617
11	0xbde9cae8	-0.114156544
12	0xbdbd0ff5	-0.09231559
13	0x3d027fb1	0.031860057
14	0xbd9a0243	-0.07519963
15	0x3dabfe58	0.083981216
16	0x3b57160b	0.0032819535
17	0x3e225d9e	0.15856025
18	0x3de0bbc9	0.10973317
19	0x3d8f0fe2	0.06985451
20	0xbe2263fd	-0.15858455
21	0xbe2c18f5	-0.16806395
22	0x3e0bcbad	0.13651915
23	0x3e2c8957	0.16849266
24	0x3e7a139e	0.24421546
25	0xbd8f697f	-0.07002544
26	0x3e38a0de	0.18030116
27	0xbca701ea	-0.020386655
28	0x3cf00cf9	0.02930306
29	0x3e39047e	0.1806812
30	0x3db775d1	0.089580186
31	0x3e193d52	0.14964798
32	0x3d8969a8	0.067096055
33	0x3e071e42	0.13195136
34	0xbce64cc6	-0.02811278
35	0x3df4e2ca	0.11957319
36	0xbcf6f5bd	-0.030146474
37	0x3d92aa00	0.07161331
38	0x3cf0e4be	0.029405948
39	0xbd99ee63	-0.07516172
40	0xbd8cb53a	-0.06870504
41	0x3dc8a9ac	0.09797987
42	0x3e29e11c	0.16589779
43	0xbe2ff4a1	-0.17183162
44	0xbdc1b841	-0.09458972
45	0x3d730253	0.05932839
46	0xbde82cb9	-0.11336655
47	0xbda00f62	-0.07815434
48	0x3ddde258	0.10834187
49	0xbd0ec17e	-0.034852497
50	0xbcf56ae3	-0.029958194
51	0xbdbe7bb4	-0.09300938
52	0x3e0a7b2a	0.13523546
53	0xbc199352	-0.009373503
54	0x3e9490cc	0.2901672
55	0x3d0ed042	0.03486658
56	0xbe62da87	-0.22153674
57	0x3da24e30	0.07925069
58	0xbdac3d00	-0.08410072
59	0xbb0de083	-0.0021648712
60	0xbd31013c	-0.043214068
61	0x3d8cdd35	0.068781294
62	0xbbb9cb58	-0.0056699924
63	0xbcefacc7	-0.029257191
64	0xbe0b7aa8	-0.13621008
65	0x3dfbf389	0.1230231
66	0x3db4f278	0.0883531
67	0xbe0e6073	-0.1390398
68	0x3e185fb4	0.14880258
69	0xbcee477f	-0.029086826
70	0x3c7a1790	0.015264407
71	0x3c11ae76	0.008891692
72	0xbdd78966	-0.105242535
73	0xbe748adf	-0.238811
74	0xbdd3c51f	-0.10340332
75	0x3d0c3b52	0.03423626
76	0x3d840cad	0.0644773
77	0x3ca59f02	0.020217422
78	0x3cdaca96	0.026707929
79	0xbd123270	-0.035692632
80	0x3df4463d	0.119274594
81	0x3dad8cff	0.084741585
82	0x3dc628df	0.09675764
83	0x3db21cc7	0.08696895
84	0x3de3db8e	0.11125861
85	0x3dd8639f	0.10565876
86	0xbc1128a9	-0.008859792
87	0xbd9470f2	-0.07248105
88	0x3e009bae	0.12559387
89	0x3dec6db7	0.11544364
90	0xbd41b388	-0.047290355
91	0xbcd01b6a	-0.025403697
92	0xbd3fb801	-0.04680634
93	0xbd6dcd1c	-0.058056936
94	0xbd077412	-0.033069678
95	0x3e30e371	0.17274262
96	0x3d7b5cbf	0.061367746
97	0x3db90e0e	0.09035884
98	0x3d0fd399	0.035113905
99	0x3e42ec4b	0.19035451
100	0x3dd550f2	0.1041583
101	0xbca9626b	-0.020676812
102	0x3c9fcfc2	0.019508246
103	0xbe65c870	-0.22439742
104	0x3d8c87ba	0.06861825
105	0xbc5ea0fc	-0.013588186
106	0x3cc30ddc	0.02381032
107	0x3deac2a9	0.1146291
108	0x3d8b39d6	0.06798141
109	0xbe0b9ca4	-0.13633972
110	0x3d0c8462	0.034305938
111	0xbd380a52	-0.044931717
112	0xbd890381	-0.066901214
113	0xbe1dc542	-0.15407279
114	0xbdb8921a	-0.09012242
115	0xbdafd61e	-0.085857615
116	0xbdd2c23f	-0.10290956
117	0x3a5d4fb6	0.0008442359
118	0xbd5c962b	-0.05385415
119	0x3dff737a	0.12473197
120	0xbd748dde	-0.059705608
121	0x3da17bfd	0.07884977
122	0x3e082d38	0.132985
123	0x3d87f3e0	0.06638312
124	0x3dac5b2a	0.08415826
125	0xbdeabd89	-0.11461932
126	0xbc416cb7	-0.011805705
127	0x3d2a4111	0.04156596
128	0xbc891766	-0.01673479
129	0x3d1430d1	0.036179367
130	0x3c73567d	0.014852163
131	0x3e226379	0.15858258
132	0x3e632df2	0.22185495
133	0x3c9c3ce3	0.019072002
134	0xbdf2fff8	-0.118652284
135	0x3cf4c3e1	0.029878559
136	0x3dd80ad0	0.10548937
137	0xbd067042	-0.0328219
138	0x3c6f0714	0.01458909
139	0x3c903d77	0.017607434
140	0x3df04c3f	0.11733293
141	0xbda95701	-0.08268548
142	0xbcc0bc0b	-0.023527166
143	0x3c8fb272	0.017541144
144	0x3dd43dfd	0.10363386
145	0x3e2bdfbd	0.16784568
146	0xbc863bee	-0.016385999
147	0xbab3af5d	-0.0013708879
148	0x3c411db5	0.011786868
149	0x3df17dfa	0.11791606
150	0xbe164fc7	-0.1467887
151	0xbd049099	-0.03236446
152	0xbdb5943b	-0.08866163
153	0xbddfe747	-0.109327845
154	0x3c9d7658	0.01922147
155	0xbd247b06	-0.040156387
156	0xbdad2f84	-0.084563285
157	0x3cc30562	0.023806278
158	0xbe215ae9	-0.15757336
159	0x3b3ee500	0.0029128194
160	0x3cac007f	0.02099633
161	0x3dfb6468	0.1227501
162	0xbd889bb9	-0.06670327
163	0x3e0e25b2	0.13881567
164	0xbdd63ccb	-0.10460814
165	0xbdb1a0be	-0.08673237
166	0xbdd236a1	-0.10264326
167	0xbd7df65c	-0.062002525
168	0xbe1ebff1	-0.15502907
169	0xbe797fc9	-0.24365152
170	0x3d3b0acf	0.045664605
171	0x3d87b9df	0.06627249
172	0xbd95a6be	-0.07307194
173	0xbd4f8fc6	-0.050674222
174	0x3e034e25	0.12822779
175	0xbd4d04cb	-0.0500534
176	0x3c84cf13	0.016212022
177	0xbdeb2ad1	-0.11482776
178	0xbe23878c	-0.15969676
179	0x3b532cb0	0.003222268
180	0x3dc7a928	0.09749061
181	0xbda9b2dc	-0.08286068
182	0xbab04b02	-0.0013450088
183	0xbde29eb5	-0.11065427
184	0xbe0f5660	-0.13997793
185	0x3d48a929	0.04898945
186	0x3da2c4ee	0.079477176
187	0xbdc057d4	-0.09391752
188	0xbc821faa	-0.01588424
189	0xbd7ad378	-0.06123683
190	0xbdc9e53e	-0.098581776
191	0xbd899280	-0.06717396
192	0x3d123239	0.035692427
193	0xbe188eb6	-0.1489819
194	0x3decb1ca	0.11557348
195	0xbc33ff79	-0.010986202
196	0xbdb1d755	-0.086836495
197	0x3deffc2f	0.11718022
198	0x3c763c58	0.0150290355
199	0x3dedbbff	0.11608123
200	0x3e021a6c	0.12705392
201	0x3e078dab	0.13237636
202	0x3c99b4d5	0.018762985
203	0x3b654016	0.0034980825
204	0x3d1561f7	0.03647038
205	0x3e207e24	0.15673119
206	0xbc50eec5	-0.01275224
207	0xbd9e11c5	-0.07718233
208	0x3d0e3025	0.034713883
209	0x3e2520a7	0.16125737
210	0x3cd8b46f	0.026453225
211	0x3b710d39	0.0036781563
212	0x3d9dd4b3	0.07706585
213	0x3dc1629e	0.09442638
214	0xbcfd2e90	-0.030905992
215	0x3e56f998	0.2099365
216	0xbdb4f326	-0.088354394
217	0xbd685eda	-0.056731082
218	0xbc9564fe	-0.018236633
219	0x3dedb9f4	0.11607733
220	0xbd9da3fe	-0.07697295
221	0x3d520b96	0.05128058
222	0x3deae7f2	0.11470021
223	0xbe430941	-0.19046499
224	0x3d7a1153	0.061051678
225	0x3c651dba	0.013984138
226	0xbd0b61ec	-0.034028932
227	0xbe127d0f	-0.14305519
228	0xbc2046cf	-0.009782507
229	0x3dc8cd32	0.09804763
230	0x3cd9068d	0.026492381
231	0x3cc24a8c	0.023717187
232	0xbdabc2fb	-0.08386799
233	0xbc4982ca	-0.012299249
234	0x3dac6cea	0.08419211
235	0x3dc64264	0.09680632
236	0x3d94d18f	0.07266533
237	0x3ce7a87d	0.028278584
238	0xbc521bd6	-0.012824019
239	0xbca045d8	-0.019564554
240	0xbb369e27	-0.0027865262
241	0xbd5c22db	-0.05374418
242	0xbc56981d	-0.01309779
243	0x3c32a85f	0.010904401
244	0xbe18717d	-0.14887042
245	0x3e031683	0.12801556
246	0xbcd3033d	-0.02575838
247	0x3d3259a1	0.043542508
248	0xbcc4649d	-0.023973757
249	0xbe2a6e22	-0.16643575
250	0x3d0da1a0	0.034577966
251	0xbda83075	-0.082123674
252	0x3de3c40c	0.11121377
253	0x3d9cc7fe	0.07655333
254	0xbc54f730	-0.012998387
255	0x3e56a438	0.20961082

network_body._body_endoder.seq_layers.0.bias f4 [128]
0	0x3c22eebf	0.009944617
1	0x3c8d1041	0.017219665
2	0x3b838852	0.0040140534
3	0xbc422399	-0.011849307
4	0x3d1dc8c7	0.038521554
5	0x3c63a415	0.013894101
6	0x3c734832	0.014848756
7	0x3be924fd	0.007115005
8	0x3caf1709	0.021373289
9	0x3cd47b7d	0.02593779
10	0xbb24b3ab	-0.0025131505
11	0x3baa3f44	0.00519553
12	0x3cd9fa56	0.026608627
13	0x3cf19ceb	0.02949377
14	0x3ca2d4ad	0.019876802
15	0x3c54eb80	0.012995601
16	0x3cf2aefd	0.029624457
17	0x3c68483a	0.014177376
18	0x3bf3efb0	0.0074443445
19	0x3c8d0a2b	0.017216763
20	0x3cb816b5	0.022471765
21	0x3b842dc0	0.004033774
22	0x3c804ad4	0.01566068
23	0x3cbc7523	0.023005074
24	0x3c90c01c	0.01766973
25	0x3cb0dda5	0.021590063
26	0x3c72f1cf	0.0148281595
27	0x3c024127	0.007950104
28	0x3cf501d2	0.029908095
29	0x3ca7aa2d	0.020466888
30	0x3ce60f83	0.028083568
31	0xba2d7cc9	-0.00066180207
32	0x3c96d62c	0.018412672
33	0x3cc6e2ad	0.02427801
34	0x3c91a7b4	0.017780162
35	0x3c8494ec	0.016184293
36	0x3c69f36d	0.014279229
37	0x3be7c9c5	0.0070736133
38	0x3ca80c97	0.020513816
39	0xbc9bdf29	-0.01902731
40	0x3c3bf213	0.011471289
41	0xb84258c3	-4.633587e-05
42	0x3c9ccf95	0.019141952
43	0x3cc82ca4	0.024435349
44	0x3c20ccaf	0.009814425
45	0x3cb7d02f	0.022438137
46	0x3cbb6d5a	0.022879291
47	0x3c98f069	0.018669324
48	0xbb08f626	-0.002089867
49	0x399a52d2	0.00029434875
50	0x3c8e08a7	0.01733811
51	0x3cc8a65e	0.024493393
52	0x3c99566c	0.018717967
53	0x3c979428	0.018503264
54	0x3d0d6168	0.034516722
55	0x3c9b88a4	0.018986054
56	0x3c727767	0.014798976
57	0x3d0d2efa	0.03446863
58	0x3c368bcb	0.011141728
59	0x3cf40e20	0.029791892
60	0xbab8c416	-0.0014096524
61	0x3be4699c	0.0069705974
62	0x3c81f28c	0.015862726
63	0x3c09ed11	0.008418337
64	0x3c84e2b9	0.016221391
65	0x3c973ee0	0.018462598
66	0x3c980519	0.018557118
67	0x3c14ba6e	0.009077651
68	0x3d0d8cd9	0.03455815
69	0x3d152a60	0.036417365
70	0x3cf8a9e2	0.030354444
71	0x3ca4b7ac	0.020107113
72	0x3bc1056d	0.0058905394
73	0x3cbc4f37	0.022986991
74	0xbbde5cf6	-0.006785984
75	0x3a13d29b	0.00056389876
76	0x3cd47108	0.025932804
77	0x3c1813a6	0.009282028
78	0x3d1a6ced	0.037701536
79	0x3cbc532a	0.022988874
80	0x3cc34f3d	0.023841495
81	0x3c328454	0.010895807
82	0x3c935c6d	0.017988408
83	0x3cb11866	0.02161808
84	0x3c8372f5	0.016046027
85	0x3c7b8cb0	0.015353367
86	0x3ce76077	0.02824424
87	0x3cd8b0aa	0.026451427
88	0x3b75d828	0.0037512872
89	0xbb84c7d1	-0.0040521403
90	0x3c50a89a	0.01273551
91	0x3ce9c18d	0.028534675
92	0x3b53af40	0.0032300502
93	0x3c9ee2e6	0.019395303
94	0x3c832350	0.01600805
95	0x3d1fb37a	0.03898952
96	0xbafa47f9	-0.0019094936
97	0x3c38ba1d	0.011274842
98	0x3ac5de64	0.0015096185
99	0x3c4c3a6a	0.012465099
100	0x3c73ef20	0.014888555
101	0x3cca2407	0.024675382
102	0x3b910682	0.0044258246
103	0x3cf9564b	0.030436656
104	0xb9a5b9ba	-0.0003160963
105	0x3c2a466f	0.010392769
106	0x3c1b591f	0.009481697
107	0x3c237135	0.009975721
108	0x3cda74d9	0.026667045
109	0x3ce45ac2	0.027875308
110	0x3c8d995e	0.017285045
111	0x3c0054ef	0.00783275
112	0x3bc4cd22	0.006005899
113	0x3cbbdb32	0.022931669
114	0x3c1c0c2e	0.009524388
115	0x3b926dc3	0.004468651
116	0x385942cf	5.1799052e-05
117	0x3d1cd04b	0.03828458
118	0x3c936548	0.01799263
119	0x3b8e5a56	0.004344265
120	0x3ced0969	0.028935151
121	0x3c50e5bf	0.012750088
122	0x3cc7dca9	0.024397211
123	0x3cfab45c	0.03060358
124	0x3a21ff2b	0.00061796856
125	0x3b0d961a	0.002160436
126	0x3c78160c	0.015141975
127	0x3ce30710	0.027713329

network_body._body_endoder.seq_layers.2.weight f4 [128, 128]
0	0x3d6c67a1	0.057716016
1	0xbd8973aa	-0.06711514
2	0x3d8a4de0	0.06753135
3	0x3d09b2f5	0.033617932
4	0xbde069bc	-0.10957667
5	0x3e18c7c3	0.14919953
6	0x3e4f5fc6	0.20251378
7	0x3e333f93	0.1750472
8	0xbcf4700a	-0.02983858
9	0x3db73184	0.08944991
10	0x3e60f601	0.21968843
11	0x3daa38f3	0.083116435
12	0xbd26a0ce	-0.0406807
13	0xbd8b185e	-0.06791757
14	0xbd833825	-0.06407193
15	0xbc668972	-0.014070855
16	0xb9fc9141	-0.00048173408
17	0xbd2c2405	-0.04202654
18	0x3e0836a0	0.13302088
19	0xbe23580b	-0.15951554
20	0xbe5d27fa	-0.21597281
21	0x3d9985db	0.07496234
22	0xbe216d6d	-0.15764399
23	0x3e0db493	0.13838415
24	0x3be7863e	0.0070655635
25	0x3cd6a6f2	0.026202653
26	0x3d411dcd	0.04714756
27	0x3d8b5402	0.068031326
28	0xbc9e0fd1	-0.019294651
29	0x3c39c1c3	0.0113377
30	0xbdfa8359	-0.12232084
31	0x3e38a31f	0.18030976
32	0xbdcefa03	-0.1010628
33	0xbd8d49f7	-0.06898873
34	0x3c58dc98	0.013236187
35	0xbcd9ce2a	-0.026587564
36	0x3d1bbc08	0.038021117
37	0x3b573c4f	0.0032842343
38	0x3d0954f0	0.03352827
39	0x3d49c4ed	0.04926007
40	0x3d08033c	0.03320621
41	0xbd8b69cb	-0.06807288
42	0xbe321d73	-0.17394046
43	0x3df21fc0	0.11822462
44	0x3e009418	0.12556493
45	0xbdba6e5b	-0.0910308
46	0xbccab718	-0.024745509
47	0x3db00449	0.08594567
48	0x3dfe5687	0.124188475
49	0x3d4b2ce8	0.049603373
50	0xbe7631f9	-0.240425
51	0xbe307447	-0.17231856
52	0xbe2bf143	-0.16791253
53	0xbd6948ce	-0.056954198
54	0x3e35983e	0.17733857
55	0xbe6022b1	-0.21888234
56	0xbe28e29a	-0.16492692
57	0x3d20c3a8	0.039249092
58	0xbc9f5717	-0.019450707
59	0x3e3b5087	0.18292437
60	0x3bfb8bbd	0.00767657
61	0xbbb59253	-0.005541125
62	0x3d9a32ed	0.075292446
63	0x3cb782fb	0.022401324
64	0x3d3f66dc	0.046728954
65	0x3dc80c42	0.09767963
66	0xbc80d7ee	-0.015727963
67	0xbe07d7d1	-0.13265921
68	0xbc5060bf	-0.012718379
69	0xbd83bbbd	-0.064322926
70	0xbb8f6bce	-0.004376865
71	0xbcc5b2d9	-0.024133133
72	0x3e05308a	0.13006797
73	0x3d076a20	0.033060193
74	0xba77503a	-0.0009434257
75	0x3e3f0a65	0.18656309
76	0x3e66c977	0.2253779
77	0xbe283f7f	-0.16430472
78	0xbcbe9238	-0.023263082
79	0x3dc11816	0.09428422
80	0xbd0fd95b	-0.035119396
81	0xbddad30e	-0.10684787
82	0x3d2a4ea8	0.04157892
83	0x39d752b2	0.00041069608
84	0x3e04c055	0.12963994
85	0x3d31aa88	0.043375522
86	0x3ccdac30	0.02510652
87	0xbdae23d8	-0.085029304
88	0x3e2bdd2b	0.16783588
89	0x3ad5cb27	0.0016311154
90	0xbd2004bf	-0.039067026
91	0xbd54765a	-0.05187068
92	0x3eaa46f9	0.33257273
93	0xbd729bfb	-0.059230786
94	0x3d758b0a	0.05994705
95	0x3c97a77d	0.018512482
96	0x3de47d27	0.111566834
97	0xbd6054d8	-0.054768413
98	0xbde6188b	-0.1123515
99	0xbdec7837	-0.11546367
100	0xbbb000f6	-0.0053712083
101	0xbd67f277	-0.056627717
102	0xbddfa464	-0.10920027
103	0x3cbe5333	0.023233032
104	0xbc9badc7	-0.019003762
105	0x3e2b2ebb	0.16717045
106	0x3dcda864	0.100418836
107	0x3be9527f	0.00712043
108	0xbe13eaf9	-0.14445104
109	0xbe44d14b	-0.19220464
110	0x3da7d3e6	0.08194713
111	0x3d5183e5	0.051151175
112	0x3df695fb	0.12040325
113	0xbe57359a	-0.21016541
114	0x3e2bfd56	0.16795859
115	0x3d98d9d5	0.07463423
116	0x3e146e86	0.14495286
117	0xbc16f1ac	-0.0092128925
118	0x3d2e8dab	0.042615574
119	0xbdf4f044	-0.119598895
120	0x3dc6072e	0.09669338
121	0xbded3c41	-0.11583758
122	0xbe3b9443	-0.18318276
123	0x3d2a9cc0	0.041653395
124	0x3d0e1a51	0.034693066
125	0x3a8f4401	0.0010930301
126	0xbddd6edd	-0.10812161
127	0xbdbec17e	-0.093142495
128	0x3d8e6b6b	0.06954082
129	0xbda0d0f2	-0.07852353
130	0xbde59c78	-0.11211485
131	0xbdd18657	-0.102307014
132	0xbd946c55	-0.07247225
133	0x3d61cf60	0.05512941
134	0xbce17b97	-0.027524753
135	0x3cfeeef2	0.031119797
136	0xbd354c1c	-0.044262037
137	0xbd2c61b4	-0.042085364
138	0xbd830bd1	-0.06398738
139	0x3da6decf	0.08147966
140	0xbcca466c	-0.024691783
141	0xbdba0bda	-0.09084292
142	0x3d748034	0.059692577
143	0x3e259f41	0.16174032
144	0x3de622bc	0.11237094
145	0x3de32a0d	0.11092005
146	0x3c19119f	0.00934258
147	0x3d14904e	0.036270432
148	0x3d6e81d1	0.05822927
149	0x3cb7183d	0.022350425
150	0x3d610d34	0.054944232
151	0x3dc1372d	0.09434352
152	0xbdc2ba88	-0.09508234
153	0x3ce0e8de	0.02745479
154	0x3dcf4185	0.10119919
155	0x3e5d3788	0.21603215
156	0x3dfedeb3	0.1244482
157	0x3de7a4dd	0.11310742
158	0x3dd69e7c	0.10479447
159	0x3e11da52	0.14243439
160	0x3db4a21d	0.08819983
161	0x3d7708fa	0.060311295
162	0x3d22011a	0.03955183
163	0xbe89903d	-0.26867858
164	0xbdcbaa95	-0.09944645
165	0xbd5caffa	-0.05387876
166	0xbdc4fa35	-0.09618036
167	0x3da8d709	0.0824414
168	0xbcf07d90	-0.029356748
169	0xbdb97625	-0.090557374
170	0xbda7c485	-0.0819178
171	0x3d76a2e4	0.06021394
172	0xbdd709e9	-0.10499937
173	0x3c25cdaa	0.010119835
174	0x3d9cf40c	0.07663736
175	0x3de803bb	0.113288365
176	0x3de00fb8	0.10940498
177	0x3d217fc2	0.03942848
178	0x3bceb42b	0.006308099
179	0xbc90eb22	-0.017690245
180	0xbd328f47	-0.04359367
181	0x3e6ccb04	0.2312432
182	0x3d9252f1	0.07144726
183	0xbe2612d6	-0.16218123
184	0x3de2c3ec	0.110725254
185	0xbc619fd8	-0.01377102
186	0x3dbe5321	0.09293199
187	0x3e0e795f	0.13913487
188	0xbe20b11e	-0.15692565
189	0x3e394ab4	0.18094903
190	0x3d9c1430	0.07621038
191	0xbdd032d7	-0.10165947
192	0xbe57770d	-0.21041508
193	0xbd91e987	-0.0712462
194	0x3e670685	0.22561081
195	0xbb79dabc	-0.003812476
196	0x3d9ecf1a	0.07754345
197	0xbdaeb22f	-0.085300796
198	0x3c7f5f22	0.015586646
199	0xbcc0c644	-0.02353204
200	0x3e484147	0.19556151
201	0x3dc95fd0	0.09832728
202	0x3c9d1228	0.019173697
203	0x3dd2ad48	0.10286957
204	0x3e4338d6	0.1906465
205	0xbd6fefe3	-0.058578383
206	0x3d93e329	0.07221062
207	0xbd7b351d	-0.06132995
208	0x3bb17a0c	0.0054161604
209	0x3d353e71	0.044249002
210	0xbd3cd0d0	-0.046097577
211	0x3ddf7336	0.109106466
212	0xbe074bc8	-0.13212502
213	0xbdeeacbf	-0.116540425
214	0x3e4f91d8	0.20270479
215	0xbcce2e9f	-0.025168715
216	0xbdcb2d39	-0.09920735
217	0x3d14f2f0	0.036364496
218	0x3986b0e5	0.00025690268
219	0x3c52d5d4	0.012868363
220	0xbdd27fdb	-0.10278293
221	0xbe54b2b7	-0.207713
222	0x3a687135	0.0008866967
223	0xbdc4cd96	-0.09609525
224	0xbdf9dd02	-0.12200357
225	0x3d103b6f	0.03521293
226	0xbb3069e8	-0.0026918594
227	0x3dc9b09d	0.098481394
228	0x3d98161c	0.07426092
229	0xbd18a5e9	-0.0372676
230	0x3d757cae	0.059933357
231	0x3e3595c3	0.17732911
232	0x3d639892	0.055565424
233	0xbd92b510	-0.07163441
234	0x3db6c387	0.08924013
235	0xbe9bab38	-0.30404067
236	0xbdb2d825	-0.087326325
237	0x3c8a50f0	0.016884297
238	0xbda1942b	-0.07889589
239	0xbce40787	-0.02783562
240	0x3c6eba3a	0.014570767
241	0x3d08cd9f	0.03339922
242	0xbdac9158	-0.084261596
243	0x3d689d73	0.05679078
244	0x3e224891	0.15847994
245	0x3c769ed9	0.015052521
246	0x3e2e32a4	0.17011505
247	0x3e32e99f	0.17471932
248	0xbdb93b8a	-0.09044559
249	0x3ddac364	0.10681799
250	0x3d3f9bd8	0.046779484
251	0x3c43aa6c	0.011942487
252	0xbd657c53	-0.056026768
253	0xbda0cc49	-0.07851464
254	0x3becb192	0.0072233165
255	0xbe083e1f	-0.13304947

network_body._body_endoder.seq_layers.2.bias f4 [128]
0	0xbc14b314	-0.009075899
1	0x3d06c073	0.032898378
2	0x3c3831cf	0.011242344
3	0x3cb029d7	0.021504326
4	0x3c8989b6	0.016789299
5	0x3c64ee77	0.01397287
6	0x3d0d882c	0.03455369
7	0x3befcb97	0.007317971
8	0x3ccf1af8	0.025281414
9	0x3c95f856	0.018306892
10	0x3c27b01f	0.010234862
11	0x3cbe5e02	0.023238186
12	0x3c946c8c	0.018118165
13	0x3cb2b400	0.021814346
14	0x3c3f7a0d	0.011686814
15	0x3c2ec6a6	0.010667479
16	0x3cf61057	0.030037088
17	0x3b74b7a6	0.0037340908
18	0x3c4a1672	0.012334453
19	0x3c8beab5	0.01707969
20	0x3b58f741	0.003310636
21	0x3d0c1ffd	0.034210194
22	0x3b9b4a0d	0.004739052
23	0x3bafd7a3	0.005366282
24	0x3b910ccd	0.004426575
25	0x3c12476a	0.008928159
26	0x3c307589	0.01077021
27	0xbaf7eed3	-0.001891578
28	0x3c8437d6	0.016139906
29	0x3c278936	0.010225585
30	0x3c9d4f54	0.019202866
31	0x3cb44d42	0.022009496
32	0x3caf7cb0	0.02142176
33	0x3cae461b	0.021273663
34	0x3cb9ecda	0.022695947
35	0x3c729b05	0.014807467
36	0x3c987493	0.018610274
37	0x3b8f9722	0.00438203
38	0x3ce84ee8	0.028357938
39	0x3be0f709	0.0068653864
40	0x3b8bfc0f	0.004271991
41	0x3bd4f731	0.006499194
42	0x3cc956da	0.024577547
43	0xbc0f7898	-0.008756779
44	0x3baeb259	0.0053313193
45	0x3c98b076	0.01863883
46	0x3d18545e	0.037189834
47	0x3c2b5a69	0.010458567
48	0xbc33d846	-0.010976857
49	0x3a1f2df2	0.0006072215
50	0x3adb4280	0.0016728193
51	0x3bcc7d1f	0.0062405015
52	0x3ccd0bad	0.025029982
53	0x3cbe546a	0.023233611
54	0x3cb4ca94	0.022069253
55	0x3ce72c03	0.028219229
56	0x3c8ddfa4	0.017318554
57	0x3cd3eaf1	0.025868865
58	0x3cc59051	0.024116667
59	0x3cb6a3e8	0.022294953
60	0xbba81a6f	-0.0051301043
61	0x3be93a28	0.0071175285
62	0x3c197e62	0.009368511
63	0x39f59fae	0.00046849012
64	0x3cd24630	0.025668234
65	0x3d197874	0.03746839
66	0x3c890bc3	0.016729241
67	0x3c1a9f05	0.009437327
68	0x3ca7e6a2	0.020495716
69	0x3c8eefe1	0.017448368
70	0x3c1ef9a5	0.009703075
71	0x3cd38ffa	0.02582549
72	0x3a8f87cc	0.0010950505
73	0x3c4b141f	0.012394934
74	0x3ca5d42f	0.020242779
75	0x3c0e3833	0.008680391
76	0x3c2ace94	0.010425229
77	0x3c5dad7f	0.013530134
78	0x3c843441	0.016138198
79	0x3ca3220f	0.019913701
80	0x3cfa48fd	0.030552382
81	0x3c7abff7	0.015304557
82	0x3bc181c5	0.0059053623
83	0x3c54b76d	0.012983185
84	0xbbefebf1	-0.0073218276
85	0xbb5f4e5a	-0.00340738
86	0x3c66e608	0.01409293
87	0x3bc889e0	0.0061199516
88	0xbaa073f4	-0.0012241588
89	0x3d0e6415	0.034763414
90	0x3c9d2334	0.019181825
91	0x3cf5a52c	0.029985987
92	0x3c83406a	0.016021926
93	0x3c4fa359	0.012673222
94	0x396109f7	0.00021461384
95	0x3c93e773	0.0180547
96	0x3a85ecff	0.0010217725
97	0x3c827bc1	0.015928151
98	0x3c03ceef	0.008044942
99	0x3d01f51b	0.03172789
100	0x3c885f25	0.016646931
101	0x3be58045	0.0070038163
102	0x3c5a9246	0.013340538
103	0x3c2fedcf	0.01073785
104	0x3c843979	0.016140686
105	0x3cc56166	0.024094295
106	0x3c886749	0.016650813
107	0x3a03dc63	0.00050300936
108	0x3c8ac2c3	0.016938573
109	0x3c8be86a	0.017078597
110	0xbb3ab3e9	-0.0028488582
111	0x3c2d2335	0.010567476
112	0x3c1fdb35	0.009756853
113	0x3c9d2015	0.019180337
114	0x3b82be60	0.0039899796
115	0x3c06cc4c	0.008227419
116	0x3b6bd416	0.0035984567
117	0x3ccd19de	0.025036748
118	0x3c6df80b	0.01452447
119	0x3c640438	0.013917021
120	0x3c0df9b8	0.008665495
121	0x3b7e8f3d	0.00388427
122	0x3c532cc4	0.012889091
123	0x3d00eb56	0.031474434
124	0x3c5333f6	0.012890806
125	0x3b58b2ed	0.0033065632
126	0x3c3507df	0.01104924
127	0x3c6a1342	0.014286818
