results/GroupJumper_v1/GroupJumper/GroupJumper-500097.onnx (onnx, 627270 bytes, 12 tensors)

network_body.observation_encoder.processors.0.conv_layers.0.weight f4 [16, 6, 8, 8]
-0.04164915 -0.086206295 -0.08381267 -0.055223156 0.061337166 0.046320066 0.028827345 0.00068819243
0.031607624 0.021859689 0.038472347 0.041602273 0.032723345 0.017486611 0.022915937 -0.0040184637
-0.0034971368 0.02705818 -0.047235563 0.05548004 -0.03014034 -0.057828765 -0.025955768 -0.010824743
-0.0631994 -0.05834545 -0.094092086 -0.01782635 -0.013350407 0.028884005 -0.052168675 -0.0011033616
-0.052372348 -0.010707822 0.0015858202 -0.031547848 -0.06410866 -0.030518938 0.006877625 0.027503353
0.07465239 -0.032737326 -0.007986154 0.05951397 -0.0602633 -0.010538607 0.012840448 0.019595882
0.09959516 0.057980195 0.012616658 0.061867997 -0.018763259 -0.027254933 -0.001304378 -0.06495217
0.016028287 0.021069014 0.109350495 0.08271929 0.023521235 0.010287862 -0.005977518 0.04690316
0.050758753 0.055500746 -0.0057168254 -0.022234615 -0.006877729 0.030582363 0.022865374 0.028083712
0.027618892 0.018487547 -0.01364496 -0.042836905 -0.081185 -0.025433514 -0.067453265 0.024817666
-0.00022539654 0.042293865 0.056018025 -0.07267027 0.010037032 -0.109377675 -0.0052201813 0.00062482007
-0.025298074 0.024992581 -0.01969858 -0.024815185 -0.091325104 -0.07305001 0.026942465 0.077737816
0.07487362 -0.0022799438 0.0545348 0.10019067 0.06420251 -0.021705575 -0.08890694 -0.0049099065
0.038300645 0.06182862 0.03516625 0.08049991 0.025601743 0.082975745 0.10356244 0.01620986
-0.049816642 -0.053285882 0.027583031 -0.006288625 -0.0113349585 0.063218586 0.055067394 0.02449363
0.011012974 -0.066188864 0.010203036 -0.053271472 -0.023477066 0.03589786 0.08758409 0.020710625
0.051091317 0.017235812 0.0055518625 -0.01702243 -0.01680037 -0.049109504 0.02094724 0.03432374
0.021826515 -0.045514222 -0.030372098 0.05179128 0.014706354 -0.000674877 -0.02327238 -0.03296139
-0.020919066 -0.02292106 0.004967744 0.012914616 0.044441037 0.0020003694 0.016927637 -0.059632093
0.018747682 0.056835674 -0.0065674325 0.04619067 0.07055986 0.04102714 -0.036492407 -0.0012821222
0.013398893 -0.018312369 0.0019448105 -0.06655007 0.0021545987 -0.057942923 0.045819785 -0.009625559
0.03339396 0.057168808 0.063972965 -0.05386166 -0.05579747 -0.011095176 -0.06446123 0.02488488
0.0064531867 -0.028597036 0.059914265 -0.020828506 0.05358354 -0.041291054 0.021045178 0.051014923
0.014272918 0.070413254 -0.03951514 -0.042853054 -0.033287067 -0.09643997 -0.06685346 -0.032448918
-0.042727288 0.011996449 -0.07524989 -0.090172134 -0.079927556 0.0079638725 0.03205213 -0.038829654
0.00896061 0.030920625 -0.049999 0.09461749 0.031211283 -0.066099435 -0.0047616274 -0.1772289
-0.08358692 0.052592754 -0.0011546187 0.026510814 0.009196824 -0.04524804 -0.07132124 -0.10111155
-0.06878912 0.11914665 0.06989407 0.041406084 0.006124531 0.008873492 -0.06889437 -0.07961869
0.025504464 0.07504031 -0.00013761435 0.10439599 0.03959503 -0.046432372 0.027767936 -0.14397655
0.09215273 0.0307448 0.059207693 0.045859996 -0.064895764 0.065479055 -0.041410174 0.034382187
0.08446004 0.006463237 0.009963821 0.035451412 -0.039817937 -0.0007403064 -0.16998403 0.060908165
0.13719195 0.05986286 0.059211947 0.017278505 0.038316134 0.05280826 0.07182234 -0.039087575
00000000: 4d98 2abd ed8c b0bd faa5 abbd ad31 62bd
00000010: ae3c 7b3d 1cba 3d3d 5327 ec3c d067 343a
00000020: ff76 013d 1713 b33c 2e95 1d3d 2567 2a3d
00000030: ea08 063d 1540 8f3c 34ba bb3c 51ad 83bb
00000040: 3830 65bb 1ea9 dd3c 147a 41bd 0a3f 633d
00000050: e0e8 f6bc dbdd 6cbd 31a1 d4bc 435a 31bc
00000060: b06e 81bd a3fb 6ebd 5ab3 c0bd 9108 92bc
00000070: aabb 5abc 269e ec3c d2ae 55bd ac9e 90ba
00000080: 6384 56bd dc6f 2fbc 4cdb cf3a 5138 01bd
00000090: 674b 83bd da02 fabc b35d e13b b64e e13c
000000a0: 5ae3 983d 9317 06bd 5cd8 02bc ecc4 733d
000000b0: a6d6 76bd 1faa 2cbc be60 523c 8b87 a03c
000000c0: 8cf8 cb3d a47c 6d3d 19b6 4e3c 4c69 7d3d
000000d0: 68b5 99bc bd45 dfbc aaf7 aaba a505 85bd
000000e0: c14d 833c ed98 ac3c 27f3 df3d bb68 a93d
000000f0: 9baf c03c 6c8e 283c 0edf c3bb 871d 403d
00000100: 69e8 4f3d c054 633d 3554 bbbb 5e25 b6bc
00000110: 935e e1bb dd87 fa3c 2a50 bb3c d00f e63c
00000120: 0441 e23c 3273 973c 1c8f 5fbc c075 2fbd
00000130: 5244 a6bd f259 d0bc f024 8abd 6b4e cb3c
00000140: 6c58 6cb9 553c 2d3d 2873 653d 27d4 94bd
00000150: 5d72 243c 6701 e0bd 0e0e abbb f7ca 233a
00000160: e83d cfbc 3ebd cc3c eb5e a1bc 3749 cbbc
00000170: a808 bbbd 3e9b 95bd 72b6 dc3c 0135 9f3d
00000180: 5757 993d 1c6b 15bb e25f 5f3d c430 cd3d
00000190: 9b7c 833d e4cf b1bc d714 b6bd 48e3 a0bb
000001a0: 23e1 1c3d 0240 7d3d 7c0a 103d 23dd a43d
000001b0: bfba d13c 30ef a93d 8b18 d43d 8aca 843c
000001c0: 890c 4cbd 4c42 5abd cff5 e13c cf10 cebb
000001d0: 43b6 39bc bf78 813d 598e 613d dda6 c83c
000001e0: c36f 343c 078e 87bd a22a 273c 3033 5abd
000001f0: fa52 c0bc a209 133d 4a5f b33d 54a9 a93c
00000200: 2145 513d 1e32 8d3c 66ec b53b a072 8bbc
00000210: eea0 89bc 0c27 49bd 8c99 ab3c 0d97 0c3d
00000220: 85cd b23c 1f6d 3abd e8ce f8bc 1823 543d
00000230: ebf2 703c 3bea 30ba b8a5 bebc 8602 07bd
00000240: 765e abbc f2c4 bbbc 75c8 a23b d397 533c
00000250: ce07 363d a118 033b d4ab 8a3c c840 74bd
00000260: bd94 993c 86cc 683d 9e33 d7bb 6e32 3d3d
00000270: b081 903d 130c 283d 1079 15bd e20c a8ba
00000280: 0887 5b3c d203 96bc 03e9 fe3a 674b 88bd
00000290: 2b34 0d3b 8f55 6dbd 87ad 3b3d 85b4 1dbc
000002a0: 1bc8 083d d729 6a3d 4204 833d 0b9e 5cbd
000002b0: e38b 64bd 8bc8 35bc 4004 84bd 60db cb3c
000002c0: 4175 d33b 5544 eabc a968 753d 8ba0 aabc
000002d0: 6a7a 5b3d cf20 29bd f066 ac3c 06f5 503d
000002e0: f5d8 693c d334 903d a1da 21bd af86 2fbd
000002f0: 0558 08bd 5282 c5bd 78ea 88bd 28e9 04bd
00000300: cf02 2fbd c18c 443c 9d1c 9abd 2bac b8bd
00000310: 0fb1 a3bd e77a 023c 1849 033d d80b 1fbd
00000320: 86cf 123c 404d fd3c c0cb 4cbd d1c6 c13d
00000330: ceae ff3c 245f 87bd 6d07 9cbb 7e7b 35be
00000340: 9e2f abbd 806b 573d 9356 97ba 352d d93c
00000350: 47ae 163c 0256 39bd df10 92bd 9313 cfbd
00000360: 4fe1 8cbd 2903 f43d 9f24 8f3d 6d99 293d
00000370: 4ab0 c83b 1f62 113c 7e18 8dbd 200f a3bd
00000380: bdee d03c bcae 993d 924c 10b9 91cd d53d
00000390: 662e 223d df2f 3ebd 9579 e33c 976e 13be
000003a0: 92ba bc3d 85dc fb3c c483 723d b1d7 3b3d
000003b0: 12e8 84bd e219 863d b79d 29bd 56d4 0c3d
000003c0: 63f9 ac3d 90c9 d33b 4b3f 233c 8035 113d
000003d0: 2218 23bd 1f11 42ba 4b10 2ebe d77a 793d
000003e0: 0c7c 0c3e c232 753d 3a88 723d a78b 8d3c
000003f0: 61f1 1c3d 794d 583d 9717 933d 4b1a 20bd

network_body.observation_encoder.processors.0.conv_layers.0.bias f4 [16]
-0.041053668 -0.048568696 -0.0046670856 -0.030639965 0.02085135 0.029888753 0.034161508 -0.04246614
-0.051578794 -0.00026218695 -0.0044591096 -0.02680158 0.01530591 -0.011386861 -0.02664981 -0.020772394
00000000: e427 28bd f8ef 46bd 5aee 98bb aa00 fbbc
00000010: 73d0 aa3c 42d9 f43c f0ec 0b3d faf0 2dbd
00000020: 4944 53bd 2376 89b9 b91d 92bb fd8e dbbc
00000030: a4c5 7a3c f58f 3abc b450 dabc de2a aabc

network_body.observation_encoder.processors.0.conv_layers.2.weight f4 [32, 16, 4, 4]
-0.032414358 -0.050333638 -0.011823618 -0.026691468 0.019913021 -0.03587521 -0.052765634 0.07431193
-0.08550454 0.04187761 -0.00056407024 0.06585443 -0.087106295 -0.0039666183 -0.008208472 0.021977149
-0.06923626 -0.01632149 0.048464634 -0.109161675 0.04712704 -0.004295265 -0.030640664 -0.0760066
0.09017675 -0.0276839 0.013154109 -0.12357828 -0.02808623 0.15199347 0.021621438 -0.05552121
0.03251025 0.053901706 -0.02919826 -0.09574922 0.07861938 -0.0039872206 0.049347196 -0.040354393
0.010540042 0.05125096 0.010280297 -0.10585393 0.062433463 0.06325358 0.040992577 -0.06887585
-0.06430286 0.06761646 -0.052799728 -0.059479386 -0.065940574 -0.034192417 0.02263079 -0.04664227
0.06517828 -0.014786345 -0.008476177 0.03487546 0.101705104 0.06415265 0.07803784 0.07869803
0.0059994385 -0.006915724 -0.109924994 0.10936049 0.13501766 -0.07170346 -0.118302725 0.12785174
0.018144818 0.015556218 0.051732905 0.030935396 0.039809994 -0.08731954 0.020256689 -0.010207166
-0.024137123 0.05804583 0.060551256 0.07375319 0.04094041 0.011907926 0.026714224 0.0065423828
8.790713e-05 0.047432184 0.09621081 -0.0368742 -0.053415842 0.06307379 0.0070866058 -0.052047946
0.06267904 -0.005373902 0.006685813 0.01937454 0.028044209 -0.012230596 0.027734127 0.05048415
0.029734587 -0.042632725 0.050098427 0.024803745 -0.06633478 0.083730176 0.0029193312 0.04912048
0.003096199 0.052857526 0.0046044555 -0.09016489 -0.0035263903 0.09640595 -0.05175166 -0.07400549
-0.0033409742 0.005001496 -0.055923704 -0.031322483 0.0543896 0.013191086 -0.025910871 -0.015366527
-0.037830304 -0.091788255 0.035449818 -0.002533095 -0.020323526 0.025788164 0.049229793 -0.07019797
-0.029616116 0.06388655 -0.10717646 -0.08401473 0.0962809 -0.019641368 0.009168827 0.017899837
-0.097570844 0.03363434 -0.013477012 -0.052011408 -0.043941833 -0.045622233 0.08862905 -0.10377552
-0.104181305 -0.031868387 0.06688778 -0.10524686 -0.07150762 0.021601848 0.03144874 -0.087441295
0.016287161 0.038788635 -0.02065651 0.0034191117 -0.043743037 -0.08183502 0.076593585 0.035575945
0.014485693 -0.014817251 -0.11926832 -0.001477042 -0.047470935 -0.05710974 -0.11523607 0.01235587
0.0323327 0.06638918 0.013489485 0.009088863 -0.020100623 0.09196409 -0.02259879 -0.10324595
0.020593565 0.08876067 0.06788415 0.0014889396 0.09034763 0.08933995 -0.01803574 0.048175365
0.054632552 -0.014310334 0.014035193 -0.024266243 0.004096204 0.08782598 -0.11211866 0.022882316
-0.07296982 0.012196806 -0.052946016 -0.07232203 0.052540686 0.009920745 0.017884148 -0.041282803
-0.004516827 -0.0444797 -0.07246321 -0.02671147 -0.051907573 0.016607324 0.042791527 0.01315434
0.0036737674 -0.0338643 0.0044263173 -0.034054343 0.07592255 0.06043777 -0.010644955 -0.05094053
-0.006885922 0.059548214 0.046824515 -0.07652717 0.017777774 -0.09502137 0.07241993 -0.075893864
0.016490659 -0.017529445 0.019196652 -0.021161051 0.008645474 0.07210926 -0.0062079597 -0.033712875
0.04044161 -0.02617742 -0.050024725 -0.051435977 -0.07528853 0.03041654 -0.017120471 -0.06637298
-0.038508702 -0.014109596 0.08179519 -0.063096374 0.04818948 -0.030746879 -0.01892676 0.008094374
00000000: ebc4 04bd a52a 4ebd d9b7 41bc 11a8 dabc
00000010: a220 a33c e2f1 12bd c720 58bd da30 983d
00000020: 011d afbd db87 2b3d 1dde 13ba b0de 863d
00000030: c964 b2bd 68fa 81bb d47c 06bc 6c09 b43c
00000040: becb 8dbd a5b4 85bc da82 463d 2890 dfbd
00000050: 4808 413d 4bbf 8cbb 2102 fbbc 59a9 9bbd
00000060: 97ae b83d 59c9 e2bc 5584 573c 9c16 fdbd
00000070: 1815 e6bc 2da4 1b3e 711f b13c 356a 63bd
00000080: 7829 053d 09c8 5c3d 3031 efbc 2b18 c4bd
00000090: 3303 a13d 3ba7 82bb 4920 4a3d a64a 25bd
000000a0: 24b0 2c3c 87ec 513d b16e 283c f2c9 d8bd
000000b0: 3bba 7f3d 188b 813d d5e7 273d c80e 8dbd
000000c0: 38b1 83bd 807a 8a3d 8744 58bd a8a0 73bd
000000d0: da0b 87bd 590d 0cbd 3564 b93c f70b 3fbd
000000e0: 317c 853d 6d42 72bc aadf 0abc 92d9 0e3d
000000f0: c44a d03d 7762 833d 4ed2 9f3d 6f2c a13d
00000100: f096 c43b 4c9d e2bb 5b20 e1bd 65f8 df3d
00000110: 1242 0a3e 43d9 92bd b348 f2bd 91eb 023e
00000120: 71a4 943c 82df 7e3c e2e5 533d 3a6c fd3c
00000130: ce0f 233d 96d4 b2bd 5bf1 a53c f53b 27bc
00000140: 37bb c5bc 77c1 6d3d 9804 783d ea0b 973d
00000150: 22b1 273d 7619 433c cad7 da3c 7c61 d63b
00000160: c85a b838 4048 423d 2c0a c53d 6709 17bd
00000170: 92ca 5abd d52c 813d c236 e83b 3a30 55bd
00000180: de5d 803d 8f17 b0bb aa14 db3b 5bb7 9e3c
00000190: f8bc e53c d662 48bc ae32 e33c 78c8 4e3d
000001a0: f395 f33c a79f 2ebd 0234 4d3d 3931 cb3c
000001b0: 87da 87bd ba7a ab3d 4052 3f3b 8e32 493d
000001c0: 99e9 4a3b 2281 583d f9e0 963b 5fa8 b8bd
000001d0: 031b 67bb 7c70 c53d 8cf9 53bd 3190 97bd
000001e0: 3ff4 5abb 97e3 a33b 4110 65bd 014c 00bd
000001f0: a1c7 5e3d 6d1f 583c 0943 d4bc e3c3 7bbc
00000200: f3f3 1abd 7bfb bbbd d433 113d 4802 26bb
00000210: 867d a6bc b341 d33c 2ea5 493d f4c3 8fbd
00000220: 7f9d f2bc f4d6 823d 557f dbbd ea0f acbd
00000230: ec2e c53d efe6 a0bc d938 163c aea2 923c
00000240: 39d3 c7bd 29c4 093d afce 5cbc ea09 55bd
00000250: 5afc 33bd 61de 3abd 2683 b53d 4388 d4bd
00000260: 025d d5bd 6d88 02bd 76fc 883d aa8b d7bd
00000270: 9672 92bd 5cf6 b03c 65d0 003d 6c14 b3bd
00000280: a76c 853c d5e0 1e3d d737 a9bc 2d13 603b
00000290: e62b 33bd 1e99 a7bd 19dd 9c3d 15b8 113d
000002a0: 6655 6d3c 0ec4 72bc f342 f4bd 4e99 c1ba
000002b0: e270 42bd e7eb 69bd e300 ecbd 4670 4a3c
000002c0: 4b6f 043d 0df7 873d 0003 5d3c 74e9 143c
000002d0: 10aa a4bc ab57 bc3d 1921 b9bc 9d72 d3bd
000002e0: d6b3 a83c 27c8 b53d d806 8b3d 8628 c33a
000002f0: 2e08 b93d ddf7 b63d b0bf 93bc 8853 453d
00000300: 62c6 5f3d e475 6abc def3 653c 00ca c6bc
00000310: 7339 863b 1bde b33d 789e e5bd b273 bb3c
00000320: 3371 95bd 1dd5 473c ecdd 58bd 931d 94bd
00000330: e734 573d 9f8a 223c c781 923c 2818 29bd
00000340: e401 94bb 5930 36bd 9767 94bd 03d2 dabc
00000350: 099d 54bd 150c 883c 2b46 2f3d 4d85 573c
00000360: 97c3 703b 4bb5 0abd a40a 913b 917c 0bbd
00000370: 487d 9b3d 988d 773d 2d68 2ebc 04a7 50bd
00000380: 4da3 e1bb d4e8 733d 10cb 3f3d 47ba 9cbd
00000390: b2a2 913c 909a c2bd e650 943d 3e6e 9bbd
000003a0: 6b17 873c e999 8fbc 4c42 9d3c f159 adbc
000003b0: bfa5 0d3c 05ae 933d 246c cbbb 8316 0abd
000003c0: 1aa6 253d 0772 d6bc bae6 4cbd 88ae 52bd
000003d0: df30 9abd 1c2c f93c 3b40 8cbc 8fee 87bd
000003e0: 4dbb 1dbd ef2b 67bc 3d84 a73d ac38 81bd
000003f0: 5562 453d e1e0 fbbc 4b0c 9bbc 449e 043c

network_body.observation_encoder.processors.0.conv_layers.2.bias f4 [32]
0.036006156 0.049101073 0.021066591 -0.0020971384 0.053750347 0.009345786 0.026524225 -0.079834834
0.04830236 -0.027968409 -0.014051144 -0.018378409 0.03582099 -0.042973325 -0.019794794 -0.0355104
0.034793716 0.007833938 -0.0154673075 -0.045930877 0.06582304 0.012135255 -0.01099425 0.026926437
-0.048237838 0.04351105 0.05600412 0.0027154963 0.06295012 0.02360092 0.030495526 0.018002827
00000000: 317b 133d 351e 493d d893 ac3c 2570 09bb
00000010: 5329 5c3d 111f 193c 5549 d93c 7280 a3bd
00000020: b2d8 453d 011e e5bc c536 66bc 518e 96bc
00000030: 08b9 123d cc04 30bd b128 a2bc 5a73 11bd
00000040: db83 0e3d eb59 003c 976a 7dbc 0422 3cbd
00000050: 3bce 863d f3d2 463c 3a21 34bc d594 dc3c
00000060: 0a95 45bd a538 323d 9364 653d 78f6 313b
00000070: feeb 803d b756 c13c c1d1 f93c aa7a 933c

network_body.observation_encoder.processors.0.dense.0.weight f4 [256, 32]
0.4261427 0.059230268 0.14578067 -0.12427943 0.06131741 0.44222218 0.5084336 -0.3837529
-0.28752604 -0.179247 -0.35946772 0.81534535 -0.19769144 0.01598423 -0.1752641 -0.3300223
-0.038720936 -0.059830055 0.3024434 -0.25084287 0.14897446 0.19628137 0.4894017 0.1922882
-0.1933845 0.55169004 0.31852996 -0.072866865 0.23865217 -0.1427641 0.0040633497 -0.15507586
0.19220796 0.29590413 0.3045227 0.12227675 -0.14181781 0.09303767 0.056134876 -0.4577484
0.23077591 -0.2293824 -0.33309728 0.027847782 0.15398599 0.027637264 -0.23403278 -0.094822474
-0.28228545 -0.15188287 0.3749687 -0.12516968 -0.28849334 0.34783247 0.3274485 -0.24111368
0.2157818 -0.15754911 0.20883878 -0.10295377 0.0602162 0.12576324 -0.16414005 0.46487013
0.06198294 0.07184524 0.06402779 0.11379104 -0.5227219 -0.041651733 -0.07686202 -0.25477466
-0.18483187 -0.2346149 -0.20344622 -0.35045573 0.27670458 0.19341308 -0.15177436 0.25955805
-0.082330614 -0.050332442 0.17753749 -0.27223548 0.2640586 -0.24678428 -0.1616466 0.092484295
-0.20660129 0.07681071 0.14650431 -0.17968647 0.19020335 -0.19779514 -0.12672865 -0.24446525
-0.07122667 0.066496395 0.07133843 -0.09837742 0.048702832 0.06276041 -0.31798157 -0.6015066
-0.23552322 0.131625 -0.16664495 0.31207564 -0.20116228 -0.13464975 -0.034091145 -0.10695838
-0.057603188 -0.11129832 -0.24127358 0.0024081785 -0.5044456 -0.11059582 -0.07279348 -0.0003688456
-0.5699262 0.20094955 0.11492591 -0.33029386 -0.41035077 0.82649714 0.23798524 0.099776894
-0.24491604 0.094009325 0.40746406 -0.27398714 0.27597857 0.045656517 0.08895402 0.107642904
0.14077868 0.084010944 -0.6484302 0.04916562 -0.3147392 -0.1355022 0.048352808 -0.5233183
0.1474063 -0.21289746 -0.16544211 0.22768545 0.22925825 0.098769754 -0.22708787 0.16134644
0.15273437 -0.11878293 -0.24609716 -0.18721235 -0.0690304 0.10772455 -0.010168781 0.3035892
-0.49610695 0.47641146 0.13421418 0.22410455 -0.27430263 0.13479172 0.14963867 0.06442009
0.25453284 0.32528156 0.18092515 0.20242521 -0.4011626 -0.29596263 -0.070749864 0.28115585
-0.096552975 0.031796824 0.31580088 0.014896873 0.06319468 -0.2550288 -0.06947423 -0.23657386
0.25962162 -0.3069703 -0.027964076 0.6520943 0.56653905 0.3226594 0.08420885 -0.11483481
0.02085998 -0.15776013 -0.097316325 -0.18993011 -0.13879183 0.17957297 0.24460924 0.060629886
0.22218701 -0.027892098 0.49083257 -0.19044356 0.064992994 0.0902801 -0.23973808 0.34588486
0.23243336 -0.26014078 -0.15866458 -0.08993509 -0.11922024 -0.042068172 0.00475828 0.10077471
0.16814747 -0.5724567 0.23547953 -0.07398379 -0.28782073 -0.2896693 -0.06878043 -0.1790037
-0.11536752 -0.32947534 0.085890196 0.04498813 0.03452681 0.050931085 -0.3161931 0.017071811
0.36097077 -0.14044985 -0.59575784 0.08734416 -0.03011179 -0.058898605 -0.28884274 -0.28057575
0.20820564 0.049634676 -0.018990299 -0.06801433 0.4655232 0.09101829 0.22898704 -0.4621534
0.14314023 -0.0061318013 0.089336745 0.5509327 0.14308126 0.10788696 0.05856236 0.022671655
00000000: 602f da3e 709b 723d 8747 153e 3786 febd
00000010: f727 7b3d f26a e23e b428 023f 437b c4be
00000020: 9d36 93be 878c 37be 270c b8be 79ba 503f
00000030: a06f 4abe 5cf1 823c 6f78 33be aff8 a8be
00000040: d899 1ebd 5c10 75bd dcd9 9a3e 7a6e 80be
00000050: c38c 183e fcfd 483e dc92 fa3e 33e7 443e
00000060: 9606 46be 8f3b 0d3f 5c16 a33e 393b 95bd
00000070: 3c61 743e c130 12be d925 853b 35cc 1ebe
00000080: 2ad2 443e bf80 973e 66ea 9b3e 3c6c fa3d
00000090: b038 11be 898a be3d afed 653d 005e eabe
000000a0: 8550 6c3e 38e3 6abe ba8b aabe 0821 e43c
000000b0: 81ae 1d3e 8b67 e23c 4aa6 6fbe 4932 c2bd
000000c0: b887 90be 2f87 1bbe e6fb bf3e 7b2c 00be
000000d0: 66b5 93be 1917 b23e 54a7 a73e 81e6 76be
000000e0: e7f5 5c3e 8e54 21be d5d9 553e 6dd9 d2bd
000000f0: 43a5 763d 14c8 003e 5414 28be 7503 ee3e
00000100: d3e1 7d3d 9923 933d 0121 833d 470b e93d
00000110: 1ad1 05bf 029b 2abd d669 9dbd d371 82be
00000120: 9144 3dbe e33e 70be 3554 50be ef6e b3be
00000130: 39ac 8d3e 140e 463e bd6a 1bbe cbe4 843e
00000140: f49c a8bd 6429 4ebd 63cc 353e 7362 8bbe
00000150: b032 873e 05b5 7cbe b086 25be 6868 bd3d
00000160: 4a8f 53be ef4e 9d3d 3a05 163e bbff 37be
00000170: abc4 423e cf8a 4abe 28c5 01be 1955 7abe
00000180: 4adf 91bd 432f 883d e219 923d 1a7a c9bd
00000190: 9f7c 473d 8888 803d 7bce a2be 56fc 19bf
000001a0: 002d 71be b4c8 063e f9a4 2abe 61c8 9f3e
000001b0: 7cfd 4dbe a0e1 09be 28a3 0bbd ff0c dbbd
000001c0: 52f1 6bbd 60f0 e3bd 6c10 77be 88d2 1d3b
000001d0: 5923 01bf 1080 e2bd bf14 95bd 9e61 c1b9
000001e0: afe6 11bf b8c5 4d3e 475e eb3d 471c a9be
000001f0: 7f19 d2be 5195 533f 67b2 733e d457 cc3d
00000200: 45cb 7abe f687 c03d 219f d03e 0b48 8cbe
00000210: 104d 8d3e 5402 3b3d 862d b63d e273 dc3d
00000220: 4928 103e ee0d ac3d 86ff 25bf e461 493d
00000230: 7f25 a1be 17c1 0abe 980d 463d 30f8 05bf
00000240: adf1 163e cb01 5abe a869 29be 6026 693e
00000250: adc2 6a3e cc47 ca3d b989 68be 0038 253e
00000260: 6666 1c3e 7744 f3bd e500 7cbe 98b4 3fbe
00000270: cf5f 8dbd b09e dc3d f59a 26bc 0b70 9b3e
00000280: bb01 febe 34ec f33e 716f 093e aa7b 653e
00000290: 6571 8cbe d706 0a3e e13a 193e aeee 833d
000002a0: 2152 823e 4e8b a63e 7144 393e 8e48 4f3e
000002b0: 2f65 cdbe 6a88 97be 4ee5 90bd a9f3 8f3e
000002c0: 91bd c5bd 633d 023d a7b0 a13e 0412 743c
000002d0: 366c 813d 2393 82be 8148 8ebd 6b40 72be
000002e0: 20ed 843e 362b 9dbe eb14 e5bc a7ef 263f
000002f0: b408 113f 9d33 a53e b175 ac3d 832e ebbd
00000300: 8ce2 aa3c df8b 21be c84d c7bd 0a7d 42be
00000310: 721f 0ebe fae1 373e d87a 7a3e 0b57 783d
00000320: fe84 633e f87d e4bc 684e fb3e a303 43be
00000330: 0c1b 853d c6e4 b83d e67d 75be d217 b13e
00000340: 0303 6e3e 2c31 85be f878 22be e32f b8bd
00000350: be29 f4bd ad4f 2cbd 58eb 9b3b f962 ce3d
00000360: da2e 2c3e 868c 12bf 8c21 713e d084 97bd
00000370: 3d5d 93be 894f 94be c1dc 8cbd bf4c 37be
00000380: ce45 ecbd feb0 a8be 33e7 af3d 7945 383d
00000390: fc6b 0d3d 1d9d 503d 10e4 a1be 2fda 8b3c
000003a0: 29d1 b83e 16d2 0fbe 9683 18bf 7fe1 b23d
000003b0: 00ad f6bc aa3f 71bd 32e3 93be a0a7 8fbe
000003c0: dc33 553e bb4d 4b3d 8b91 9bbc 194b 8bbd
000003d0: 0f59 ee3e cc67 ba3d 947b 6a3e 5f9f ecbe
000003e0: 5a93 123e 47ed c8bb 2ff6 b63d ed09 0d3f
000003f0: e583 123e d7f3 dc3d 16df 6f3d e8b9 b93c

network_body.observation_encoder.processors.0.dense.0.bias f4 [256]
0.019687874 0.0059621027 0.01781136 0.064682186 0.044737235 0.022537744 0.011996236 0.020354768
0.03406992 -0.020087201 -0.0010571538 -0.005824834 0.02307294 -0.011814175 0.017768972 0.016088163
0.0107567 0.008773266 -0.0065325345 -0.0029999204 0.03060641 -0.08357359 -0.014382475 0.018023083
0.0286587 0.00767065 -0.0009100309 -0.02982943 0.0015437764 0.0008155904 -0.01897785 0.009182456
0.05887508 0.032264847 0.0298954 -0.01546429 -0.013946332 -0.011472009 0.037881717 -0.0003616787
-0.003628508 0.032068215 0.004120841 0.0017562733 0.015250872 0.026177606 -0.0023765229 -0.036717024
0.026129562 0.0076314025 -0.00205521 -0.029077265 -0.059856273 0.0065812888 0.012413176 -0.051662914
0.04266618 0.027577152 0.042793326 -0.015729785 0.008051353 0.009383738 0.0035703254 0.05701394
0.012418177 0.0489428 -0.0024919598 -0.025478447 0.017574534 0.0075134323 0.039160136 0.017679255
0.012706744 -0.024845008 0.022714801 0.007943651 -0.025309736 -0.034556292 0.005044673 0.02403009
0.039793573 0.008726548 0.007995945 -0.0070250733 -0.013951514 -0.0055253985 -0.0061855246 -0.03782366
0.042909857 -9.173593e-06 0.0015289581 0.011342014 0.01933417 -0.016551934 0.005433901 0.033097807
-0.059363186 0.029775351 0.044020426 0.025329504 -0.011895028 0.03666225 0.019402653 0.0007444291
-0.035136763 0.013868966 -0.015253196 0.0245072 0.023787856 -0.0009863842 -0.032563843 -0.01709283
0.000114240946 -0.0027920178 0.018401738 0.09368405 0.010364053 -0.028190326 0.060806815 -0.046799082
0.04216479 -0.013180849 0.027854411 0.052564926 0.023658503 0.033965133 0.020814938 -0.019162785
0.055803932 0.009850411 0.019979682 0.005840069 0.008013568 0.024807371 0.038023558 -0.01969905
0.0085131 -0.0021100251 -0.01894659 0.030862773 0.05645671 0.006813696 0.04677743 0.00736198
0.019175548 0.00362607 -0.011549879 0.00086322706 -0.007196559 0.020233668 0.033717815 -0.038357582
0.026442934 0.013652437 0.009638305 0.041488174 -0.0009181036 -0.0035057394 0.03780901 0.005973847
0.0013964726 0.0049432 0.04267354 -0.011931205 -0.0033478031 0.021089617 -0.009643665 0.013071821
0.07834785 0.024110569 -0.011110741 0.07070569 -0.0045237956 0.032212835 0.02183431 0.025740841
-0.020846838 -0.0097314445 -0.022661084 -0.027719533 0.008254634 0.023924047 0.065705456 -0.0033719765
0.018078428 0.02058638 -0.029493649 0.04884913 0.013507021 0.04098771 0.000770321 -0.02582062
0.018670391 -0.015415336 0.036117204 0.011694045 0.0015408903 0.017156214 0.024113907 0.042959582
0.054957584 0.013578386 0.00974477 0.013368631 0.024283797 0.023239171 0.009141833 -0.022079995
0.03887144 0.029286345 -0.03833818 0.0016106106 -0.0065405816 -0.008066639 0.02521633 -0.0013090417
-0.018377287 -0.0114051 -0.023369933 0.006968212 -0.008101853 0.018340854 0.000516375 -0.04980557
0.022146754 -0.01225397 -0.01475285 0.01160449 -0.0015899906 0.017450435 0.017158456 0.035747394
0.013092923 0.0016405284 0.014349921 0.020736631 -0.005794765 -0.0032316418 0.043313682 -0.009369624
-0.0005130636 -0.0048145205 -0.023885073 -0.036551636 -0.023215787 -0.015865453 0.06223729 -0.015230905
0.008276072 0.023306914 -0.02187551 0.005166217 0.021297479 0.016584331 -0.0038210484 0.03833792
00000000: 7748 a13c be5d c33b 21e9 913c 1878 843d
00000010: 643e 373d 13a1 b83c dc8b 443c 0bbf a63c
00000020: e78c 0b3d ea8d a4bc 3290 8aba 40de bebb
00000030: 7603 bd3c 3e90 41bc 3c90 913c 53cb 833c
00000040: df3c 303c bfbd 0f3c df0e d6bb 509a 44bb
00000050: 4bba fa3c a128 abbd 79a4 6bbc 25a5 933c
00000060: a6c5 ea3c 135a fb3b 248f 6eba d95c f4bc
00000070: 8a58 ca3a 58cd 553a 7077 9bbc 0372 163c
00000080: ff26 713d 2528 043d 33e7 f43c ef5d 7dbc
00000090: 287f 64bc 18f5 3bbc dc29 1b3d b29f bdb9
000000a0: 43cc 6dbb f659 033d 1f08 873b c132 e63a
000000b0: cbde 793c 6b72 d63c 70bf 1bbb 9764 16bd
000000c0: aa0d d63c d810 fa3b b4b0 06bb 7233 eebc
000000d0: da2b 75bd daa7 d73b a260 4b3c 7e9c 53bd
000000e0: bbc2 2e3d 7be9 e13c 0e48 2f3d c0db 80bc
000000f0: d2e9 033c 40be 193c 1ffc 693b 7387 693d
00000100: 9c75 4b3c 3f78 483d 2650 23bb 2db8 d0bc
00000110: 78f8 8f3c 3d33 f63b 6166 203d 16d4 903c
00000120: f22f 503c c287 cbbc 6414 ba3c 1626 023c
00000130: 5d56 cfbc e68a 0dbd c94d a53b c0da c43c
00000140: 96fe 223d ccf9 0e3c 6d01 033c 9632 e6bb
00000150: e494 64bc 670e b5bb f1af cabb fbec 1abd
00000160: 3fc2 2f3d 48e8 19b7 5267 c83a dbd3 393c
00000170: b162 9e3c ec97 87bc de0e b23b 9191 073d
00000180: d026 73bd 70eb f33c c34e 343d d27f cf3c
00000190: 5de3 42bc 282b 163d 50f2 9e3c cb25 433a
000001a0: 91eb 0fbd a93a 633c 8ae8 79bc 53c3 c83c
000001b0: c0de c23c 9049 81ba aa61 05bd 4306 8cbc
000001c0: a494 ef38 49fa 36bb 3ebf 963c 6cdd bf3d
000001d0: fdcd 293c 66ef e6bc 9110 793d 65b0 3fbd
000001e0: fdb4 2c3d 7df4 57bc ef2e e43c 524e 573d
000001f0: 7acf c13c 061f 0b3d 1784 aa3c 46fb 9cbc
00000200: aa92 643d 9e63 213c 6eac a33c 0d5e bf3b
00000210: 574b 033c d438 cb3c 97be 1b3d e75f a1bc
00000220: 887a 0b3c 5948 0abb e135 9bbc edd3 fc3c
00000230: 273f 673d 6d45 df3b b199 3f3d c43c f13b
00000240: 0a16 9d3c 5ca3 6d3b b43b 3dbc 304a 623a
00000250: 1dd1 ebbb 14c1 a53c b11b 0a3d d71c 1dbd
00000260: da9e d83c 79ae 5f3c fbe9 1d3c 81ef 293d
00000270: e4ac 70ba 8cc0 65bb 9fdd 1a3d 43c0 c33b
00000280: d809 b73a 91fa a13b 73ca 2e3d 1a7b 43bc
00000290: d166 5bbb 22c4 ac3c 7600 1ebc 312b 563c
000002a0: d674 a03d 8783 c53c d309 36bc 25ce 903d
000002b0: 593c 94bb 9bf1 033d dedd b23c 75de d23c
000002c0: fdc6 aabc a370 1fbc bda3 b9bc 1314 e3bc
000002d0: 723e 073c 5dfc c33c 9590 863d 61fc 5cbb
000002e0: 3619 943c c5a4 a83c aa9c f1bc 0616 483d
000002f0: 8d4c 5d3c bbe2 273d 5eef 493a c485 d3bc
00000300: a6f2 983c 9b90 7cbc a2ef 133d 6198 3f3c
00000310: b3f7 c93a 308b 8c3c 878a c53c 63f6 2f3d
00000320: 341b 613d e177 5e3c 87a8 1f3c 1a08 5b3c
00000330: d0ee c63c 1360 be3c a0c7 153c 1be1 b4bc
00000340: a937 1f3d ebe9 ef3c 7f08 1dbd 201b d33a
00000350: 6052 d6bb f029 04bc 7a92 ce3c 2794 abba
00000360: f78b 96bc 75dc 3abc 4d72 bfbc 9955 e43b
00000370: a2bd 04bc 8f3f 963c 575d 073a ed00 4cbd
00000380: 1c6d b53c e0c4 48bc f0b5 71bc c220 3e3c
00000390: 3b67 d0ba 37f4 8e3c e48f 8c3c dc6b 123d
000003a0: b383 563c 0007 d73a ee1b 6b3c dedf a93c
000003b0: 03e2 bdbb f4c9 53bb b069 313d 0d83 19bc
000003c0: 1e7f 06ba 20c3 9dbb a1aa c3bc 2bb7 15bd
000003d0: 092f bebc 44f8 81bc 87ec 7e3d 0c8b 79bc
000003e0: 5d98 073c 24ee be3c 4534 b3bc 5f49 a93b
000003f0: 0d78 ae3c dddb 873c 8e6a 7abb 3908 1d3d

network_body._body_endoder.seq_layers.0.weight f4 [256, 256]
-0.08835171 0.020534774 -0.023324613 -0.015263323 -0.117735855 -0.11777534 -0.011143607 0.05654757
-0.12198682 -0.048420522 -0.06962051 -0.027522499 0.05812922 -0.09832659 0.022047095 -0.021023106
-0.061645176 -0.14236082 0.07432307 0.020952001 0.048141953 -0.089391954 -0.014747223 -0.101381555
0.13578232 0.0018270133 -0.1304058 -0.05464157 0.011846301 -0.0112739075 -0.10622526 -0.0905764
0.008977188 -0.082873195 0.016992997 0.013179698 0.014516092 -0.071982175 0.037424654 -0.042601567
-0.026865961 0.080786034 -0.039795455 0.022108136 0.09903795 0.11266427 -0.0038129457 0.18343803
-0.058415573 0.07627164 -0.101983294 0.077980444 -0.012499466 0.07460537 -0.09167065 -0.10590548
0.008861787 -0.07070833 0.08592923 -0.06877603 0.034937747 0.004000082 -0.023905776 0.026236573
0.001385549 -0.02503948 0.09114752 -0.123624034 -0.111989096 -0.03933475 0.0010671333 0.15353142
0.028238045 -0.015661309 0.09016693 0.048630003 -0.18893072 0.030769354 -0.11655571 -0.12973249
0.001325148 -0.09224746 -0.003553517 -0.01353922 0.010010048 -0.008756606 -0.03700539 -0.01909773
-0.05273761 -0.004633391 -0.04135334 -0.10728358 0.050819207 0.06006609 0.16262525 0.08118025
0.095619455 0.074856676 0.12773906 -0.017427199 0.07817337 0.005966824 0.05715135 -0.00091298943
-0.06253784 -0.028214704 0.11369573 -0.0759449 0.1397179 -0.053249296 -0.04980377 -0.06785512
-0.0033319644 -0.14173579 0.06898595 -0.016449988 0.18650106 0.04410608 0.064489014 -0.074084826
-0.034286473 0.04648253 0.072993405 0.22289672 0.053964417 0.032569107 0.020192891 0.12523778
0.091892615 -0.0865989 -0.04577355 -0.024986057 0.08333518 0.0038585754 0.05194541 0.03334805
-0.041062173 0.032457307 0.075459085 -0.068749376 0.091567434 0.057149015 -0.11951812 0.024985662
-0.109515324 -0.010338692 -0.06036085 0.022808418 -0.021059217 -0.11902318 0.10871254 -0.011863049
0.02020799 -0.04797004 -0.07989777 -0.10080363 0.08055521 0.054150116 -0.057630893 -0.033205617
0.060726322 -0.15055475 -0.005014593 -0.12063532 -0.12206051 -0.073509626 -0.040753152 0.011199043
0.012884107 -0.02104886 0.0061754556 0.013433467 -0.023896864 0.18367943 0.02748788 0.105125315
-0.052078128 0.013349705 -0.092532374 0.042147852 -0.055563208 0.03290567 0.031616073 -0.02503041
-0.086422764 -0.013428981 0.027180364 0.06321172 0.033845555 0.0011377579 -0.13322468 -0.039269473
-0.012148673 -0.078708746 -0.035661127 -0.010009583 0.091298416 -0.036102165 -0.16120443 -0.10865613
0.01460292 0.24967578 -0.08188332 -0.03912804 -0.13330254 -0.08259658 -0.11139581 -0.04176631
0.00016271594 0.0018031944 -0.06721139 -0.08872492 0.03547327 0.11492987 0.005816995 -0.02578745
0.0069029047 -0.049985096 0.13153069 -0.03842709 -0.08155952 0.04429432 -0.106569685 0.040348697
0.018869285 0.08640748 -0.041338637 0.07292407 -0.016402777 0.08481841 -0.028157607 -0.09577621
0.021767361 -0.02422515 -0.025227949 0.04432875 0.036464706 -0.09315602 0.04362178 -0.024728656
-0.07035283 0.14603142 0.007281263 -0.06051702 0.019784177 -0.052692417 0.0799399 0.09903619
0.056025397 -0.02278811 -0.026632344 0.14660293 -0.15958612 -0.061057255 -0.015284852 0.0126030715
00000000: bef1 b4bd 8b38 a83c 4213 bfbc 0413 7abc
00000010: 7f1f f1bd 3334 f1bd ad93 36bc 6d9e 673d
00000020: 3ad4 f9bd 9954 46bd 3395 8ebd dd76 e1bc
00000030: e818 6e3d 745f c9bd 1c9c b43c a638 acbc
00000040: a77f 7cbd 09c7 11be b236 983d 88a3 ab3c
00000050: 7f30 453d 2113 b7bd 569e 71bc 22a1 cfbd
00000060: 850a 0b3e 6578 ef3a 1989 05be d7cf 5fbd
00000070: fd16 423c 32b6 38bc a18c d9bd 1f80 b9bd
00000080: 0e15 133c 6cb9 a9bd e634 8b3c a9ef 573c
00000090: e7d4 6d3c 646b 93bd 984a 193d fb7e 2ebd
000000a0: 0116 dcbc 2673 a53d 8f00 23bd 1f1c b53c
000000b0: 69d4 ca3d 86bc e63d 9de2 79bb 2ed7 3b3e
000000c0: 2b45 6fbd 4e34 9c3d 9edc d0bd 36b4 9f3d
000000d0: 8fca 4cbc b3ca 983d d2bd bbbd f9e4 d8bd
000000e0: 0731 113c 87cf 90bd aafb af3d 72da 8cbd
000000f0: e21a 0f3d 1f13 833b 0cd6 c3bc 15ee d63c
00000100: 4f9b b53a 981f cdbc 8dab ba3d 992e fdbd
00000110: 8a5a e5bd 7a1d 21bd 0ddf 8b3a 5737 1d3e
00000120: 7953 e73c 254c 80bc 70a9 b83d 4130 473d
00000130: 0e77 41be 0310 fc3c c3b4 eebd 98d8 04be
00000140: 97b0 ad3a 3cec bcbd 1fe2 68bb 9bd3 5dbc
00000150: 2f01 243c de77 0fbc f792 17bd d872 9cbc
00000160: 6403 58bd b3d3 97bb 1f62 29bd 7eb7 dbbd
00000170: cd27 503d dc07 763d 3c87 263e d541 a63d
00000180: 22d4 c33d 754e 993d 07ce 023e 7cc3 8ebc
00000190: 5c19 a03d 5985 c33b 8917 6a3d af55 6fba
000001a0: d713 80bd 8622 e7bc 4fd9 e83d 0089 9bbd
000001b0: 3612 0f3e ef1b 5abd 0aff 4bbd a0f7 8abd
000001c0: 165d 5abb 3023 11be 8148 8d3d 20c2 86bc
000001d0: 22fa 3e3e 94a8 343d d112 843d c9b9 97bd
000001e0: f96f 0cbd 7764 3e3d 917d 953d 0a3f 643e
000001f0: cb09 5d3d 2f67 053d 906b a53c 553e 003e
00000200: 3232 bc3d c45a b1bd 0c7d 3bbd 8faf ccbc
00000210: a3ab aa3d 27e0 7c3b b6c4 543d f797 083d
00000220: cf30 28bd f4f1 043d 4b8a 9a3d 79cc 8cbd
00000230: b587 bb3d 1615 6a3d ebc5 f4bd bbae cc3c
00000240: 9249 e0bd 9e63 29bc f03c 77bd b8d8 ba3c
00000250: 6184 acbc 6dc2 f3bd aea4 de3d 3c5d 42bc
00000260: 3a8b a53c 3c7c 44bd 71a1 a3bd 2272 cebd
00000270: 21fa a43d 83cc 5d3d 5f0e 6cbd 9d02 08bd
00000280: 2abc 783d 062b 1abe 7451 a4bb a70f f7bd
00000290: dcfa f9bd 378c 96bd c7ec 26bd 317c 373c
000002a0: dd17 533c a96e acbc 7a5b ca3b 0b18 5c3c
000002b0: 5bc3 c3bc 7616 3c3e 432e e13c f14b d73d
000002c0: e04f 55bd b9b8 5a3c 9d81 bdbd 3aa3 2c3d
000002d0: 3f96 63bd 19c8 063d db7f 013d 930c cdbc
000002e0: 6bfe b0bd 3b05 5cbc 5ba9 de3c 2575 813d
000002f0: a3a1 0a3d d220 953a 0d6c 08be 07d9 20bd
00000300: 3a0b 47bc 0d32 a1bd 6711 12bd 3cff 23bc
00000310: aafa ba3d dddf 13bd c612 25be 1b87 debd
00000320: 1641 6f3c 02ab 7f3e 71b2 a7bd b944 20bd
00000330: 7680 08be 6528 a9bd 7d23 e4bd 2613 2bbd
00000340: ba9e 2a39 2a59 ec3a 20a6 89bd 69b5 b5bd
00000350: 6b4c 113d 5a60 eb3d 7e9c be3b 3440 d3bc
00000360: c331 e23b 2cbd 4cbd fbaf 063e b965 1dbd
00000370: ad08 a7bd f66d 353d 3541 dabd ad44 253d
00000380: c293 9a3c 68f6 b03d b452 29bd 3759 953d
00000390: 1e5f 86bc 46b5 ad3d c8aa e6bc 5126 c4bd
000003a0: 7751 b23c d273 c6bc d8aa cebc 1092 353d
000003b0: 045c 153d 95c8 bebd c0ac 323d c093 cabc
000003c0: 2515 90bd 4389 153e a997 ee3b b2e0 77bd
000003d0: 6d12 a23c 01d4 57bd 88b7 a33d 7cd3 ca3d
000003e0: e37a 653d 21ae babc 132c dabc 141f 163e
000003f0: 8b6a 23be 2c17 7abd 516d 7abc 1d7d 4e3c

network_body._body_endoder.seq_layers.0.bias f4 [256]
-0.010185005 0.016503487 0.017507896 0.020394403 -0.0010132219 -0.011637981 0.008578648 0.005771604
-0.00081955583 0.010489782 -8.802196e-05 0.009977306 -0.038646072 -0.0055746287 -0.015492547 0.024115179
0.02002791 -0.00865839 0.022158384 0.0269367 -0.006368327 0.005583063 0.0036652049 0.008620166
-0.0021909499 0.0002999033 -0.008365768 0.010910135 0.006693801 -0.015857158 0.014664575 0.0133616375
0.0013231282 0.010596727 -0.010615472 0.012382012 0.0027702602 -0.014939145 0.036240797 -0.012494926
0.020580126 0.0023162153 -0.014955739 -0.003099387 0.0016350512 0.039767213 -0.030283358 -0.011112106
-0.008135756 -0.01046314 -0.07242073 -0.011480112 -0.033847984 -0.008768397 0.005968693 -0.0070457216
0.013889053 0.030294362 -0.0050049378 -0.00769094 1.7503695e-05 -0.00021793832 0.003922066 -0.017252412
-0.01309966 0.006268766 -0.024314577 0.0003521406 -0.0018151522 -0.015664304 -0.019318929 -0.018500527
-0.0011952042 0.014167563 -0.003421696 -0.072720535 -0.0042191325 -0.006023047 -0.032338716 0.0027583176
0.025200542 0.000988887 -0.0020935931 -0.0064227963 -0.010685759 0.028859304 0.035899278 0.0180789
-0.0043496503 -0.02549272 -0.012026189 0.024671044 -0.010283238 0.0018278757 0.016246932 -0.009913902
-0.0192469 0.017532606 0.026523909 0.007556723 0.021025619 0.008156092 0.03422278 -0.00744451
0.0053678355 0.010914984 0.015796889 -0.011954316 -0.009869375 0.0116377305 -0.0095286565 0.0027872615
-0.046827722 0.0052510398 -0.015773127 0.017115582 -0.0071969694 -0.016765768 -0.001159329 0.007932646
0.019279119 0.038429942 0.033715148 -0.004784314 -0.002848354 0.0023666157 -0.03956225 0.01496904
0.013004578 0.009801116 0.0045370753 -0.023048682 0.020139545 -0.013388054 0.014386909 0.00053923315
0.013528051 0.03119642 0.00441514 -0.014137399 -0.022809507 0.008277902 -0.0064128186 -0.014906407
-0.020074146 0.025661964 -0.014461622 0.024694666 0.01168771 0.010013325 0.0026667472 -0.0032319129
-0.0064835884 -0.013795821 -0.0073330794 0.0034377095 -0.020306785 0.003349937 -0.0044987584 -0.008398633
0.00060050684 0.013778461 -0.0102527 -0.002670557 0.023181794 -0.022896836 0.0029890982 -0.009231979
-0.0050204657 -0.01693145 -0.018984077 0.036878653 0.0066836155 -0.014076558 0.02933683 -0.025171883
0.0012797588 0.012063268 0.010326569 -0.0045259926 0.019171653 -0.017847663 -0.023748506 -0.00050213013
0.0012534662 0.016638154 0.0112714935 -0.01355692 0.010755391 0.008140007 -0.00668061 0.0097068455
-0.034082815 0.022584721 0.014895328 0.02554839 0.004050774 0.0016129966 -0.08059594 0.031025212
0.0051488457 0.00944803 0.011609924 -0.00280024 0.02894844 -0.009247262 -0.002041919 0.0040536947
-0.029680958 -0.0012199018 -0.005040862 0.0024437734 -0.0052145934 -0.00015926492 -0.0066471524 -0.00025603254
-0.008895917 0.011783737 0.03308625 -0.011167328 0.019009355 0.0050127995 -0.003784366 0.026698781
-0.009211111 0.010540577 0.014450002 -0.0034480598 -0.009721261 0.0017321991 0.01596029 0.037338182
0.015115665 0.010551095 0.0046760393 0.0116931405 -0.028582053 0.010553976 -0.017810479 0.00025862662
-0.021803657 -0.009793832 0.030535193 -0.0028244203 0.02086023 0.0026177883 0.014713757 -0.005485822
-0.007717541 0.021511989 0.019417776 0.018871142 -0.0002777024 -0.0027258727 0.006739673 0.0021069983
00000000: 02df 26bc 5232 873c b86c 8f3c 2a12 a73c
00000010: 16ce 84ba 3bad 3ebc 758d 0c3c b91f bd3b
00000020: 76d7 56ba 56dd 2b3c 6e98 b8b8 db77 233c
00000030: 584b 1ebd 60ab b6bb 74d4 7dbc 328d c53c
00000040: 9211 a43c ebdb 0dbc 8085 b53c 5baa dc3c
00000050: 66ad d0bb 20f2 b63b ef33 703b 993b 0d3c
00000060: 0a96 0fbb 573c 9d39 9310 09bc 6cc0 323c
00000070: ac57 db3b dfe6 81bc b043 703c c5ea 5a3c
00000080: d16c ad3a e59d 2d3c 84ec 2dbc ecdd 4a3c
00000090: 418d 353b 51c3 74bc 3b71 143d 85b7 4cbc
000000a0: a797 a83c a5cb 173b ea08 75bc 161f 4bbb
000000b0: 374f d63a f2e2 223d ce14 f8bc 8d0f 36bc
000000c0: d54b 05bc 976d 2bbc 5251 94bd 1417 3cbc
000000d0: 2fa4 0abd 53a9 0fbc 0795 c33b ccdf e6bb
000000e0: e98e 633c e22b f83c 7600 a4bb 4804 fcbb
000000f0: e6d4 9237 5f86 64b9 ad84 803b ee54 8dbc
00000100: f59f 56bc 386a cd3b 5d2f c7bc 839f b839
00000110: 67ea edba 6d52 80bc bb42 9ebc 6b8e 97bc
00000120: 66a8 9cba 111f 683c 883e 60bb 81ee 94bd
00000130: a640 8abb fb5c c5bb 9a75 04bd e4c4 343b
00000140: 5e71 ce3c 8b9d 813a aa34 09bb 5276 d2bb
00000150: 5213 2fbc 596a ec3c 1f0b 133d 341a 943c
00000160: 8387 8ebb 1cd6 d0bc 7e09 45bc ee1a ca3c
00000170: 077b 28bc 5595 ef3a 4918 853c eb6d 22bc
00000180: adab 9dbc 8aa0 8f3c ab48 d93c 639e f73b
00000190: eb3d ac3c 21a1 053c 302d 0c3d 13f1 f3bb
000001a0: abe4 af3b c3d4 323c 7a68 813c 09dc 43bc
000001b0: 29b3 21bc 2eac 3e3c 151e 1cbc 7daa 363b
000001c0: 6dce 3fbd ea10 ac3b a536 81bc fa35 8c3c
000001d0: 8ed4 ebbb 5d58 89bc a0f4 97ba eef7 013c
000001e0: 3eef 9d3c b768 1d3d e518 0a3d bcc5 9cbb
000001f0: 73ab 3abb 3919 1b3b 070c 22bd b440 753c
00000200: 2711 553c dc94 203c bfab 943b 97d0 bcbc
00000210: b0fb a43c 9259 5bbc 12b7 6b3c 535b 0d3a
00000220: c2a4 5d3c a28f ff3c e1ac 903b 8da0 67bc
00000230: 01db babc 0aa0 073c 9f22 d2bb 013a 74bc
00000240: 8972 a4bc 0a39 d23c 70f0 6cbc 784c ca3c
00000250: cf7d 3f3c ee0e 243c 98c4 2e3b 80ce 53bb
00000260: 4874 d4bb de07 62bc 544a f0bb 324b 613b
00000270: 6a5a a6bc 9e8a 5b3b 526a 93bb 6c9a 09bc
00000280: 556b 1d3a 0ebf 613c f1fa 27bc 8304 2fbb
00000290: bfe7 bd3c 2592 bbbc bfe4 433b ba41 17bc
000002a0: b882 a4bb d3b3 8abc 7f84 9bbc 120e 173d
000002b0: 3b02 db3b 5da1 66bc cb53 f03c 4435 cebc
000002c0: 94bd a73a 03a5 453c c530 293c c74e 94bb
000002d0: df0d 9d3c 4335 92bc 3a8c c2bc 62a1 03ba
000002e0: 594b a43a bd4c 883c 12ac 383c d81d 5ebc
000002f0: 6137 303c aa5d 053c 05e9 dabb 7609 1f3c
00000300: 6c9a 0bbd 9803 b93c 890b 743c db4a d13c
00000310: 5bbc 843b 2f6b d33a 7c0f a5bd 9628 fe3c
00000320: a6b7 a83b e9cb 1a3c 8d37 3e3c 3b84 37bb
00000330: 4725 ed3c d481 17bc b7d1 05bb dbd4 843b
00000340: 7b25 f3bc 1de5 9fba d12d a5bb b727 203b
00000350: 2edf aabb 5a00 27b9 5bd0 d9bb 1b3c 86b9
00000360: 2ec0 11bc 9310 413c 7385 073d 2bf7 36bc
00000370: 82b9 9b3c 6942 a43b 2003 78bb 67b7 da3c
00000380: 33ea 16bc 62b2 2c3c b4bf 6c3c d8f8 61bb
00000390: ed45 1fbc f50a e33a 27bf 823c ecef 183d
000003a0: b2a7 773c 80de 2c3c 7639 993b 9694 3f3c
000003b0: e924 eabc 95ea 2c3c 48e7 91bc 4798 8739
000003c0: 959d b2bc 4f76 20bc f124 fa3c e919 39bb
000003d0: 13e3 aa3c 338f 2b3b f811 713c 69c2 b3bb
000003e0: 6de3 fcbb e939 b03c 0712 9f3c a797 9a3c
000003f0: 9698 91b9 8ea4 32bb 7ad8 dc3b 9115 0a3b

network_body._body_endoder.seq_layers.2.weight f4 [256, 256]
-0.15384996 -0.030928003 -0.0005278036 0.024663541 0.022596678 0.019998547 0.12304949 0.09870921
0.02112162 -0.0866726 0.03510828 -0.08169631 0.016149657 -0.09295356 -0.011327929 0.10024288
0.06560984 -0.015978491 0.057306055 0.03126738 -0.013727105 -0.052508175 0.017993934 0.008952627
-0.002009294 -0.0512088 -0.013862794 0.10026889 -0.0060528778 0.07394354 0.020387057 -0.027597258
-0.026256653 -0.09737558 0.00142415 0.019102886 0.0066821543 0.060368296 0.017518833 0.0668704
0.07707961 0.04642891 -0.10966458 -0.10648749 0.07769268 0.0036612875 -0.024727978 0.028087901
-0.053310465 0.024655359 0.0059459074 -0.18554409 -0.045453843 -0.15589793 0.095676586 -0.086040296
-0.039574876 0.050321948 0.045176882 8.7434935e-05 -0.11644311 -0.15220383 0.02224751 -0.037715998
0.0707185 -0.12757145 0.07713255 0.0008878709 -0.10028315 -0.0052865916 -0.0004945156 0.015659288
0.13479227 -0.030211773 0.039464075 0.01006633 0.049729727 -0.041572202 0.109556876 -0.13283359
-0.10602782 -0.05333726 0.026299423 -0.06465696 0.056588024 0.04899945 0.017094346 0.018029463
0.10679137 -0.05439473 0.07976068 0.14470094 0.032082427 -0.07143056 0.0016811559 0.014952813
0.008312209 -0.016754003 0.00895394 0.11494606 0.011084481 -0.1221906 0.06652631 0.03797347
-0.10542381 0.04871619 -0.1536477 0.0546975 0.01960943 0.056824353 -0.047198772 -0.04438956
-0.030649114 0.017257074 0.019856157 0.01649131 -0.052935027 0.11180586 -0.10168862 -0.0052517117
-0.018894581 -0.11620751 0.031310808 -0.024175968 -0.08397528 0.012420824 -0.045496795 0.056567073
0.012400104 0.10511494 0.035617903 0.1531415 0.0953485 0.025542703 0.12409888 0.025940515
-0.113915235 -0.10316926 -0.060794838 0.05425537 0.061803415 -0.019468766 0.12477331 -0.07476868
0.018075492 -0.035892267 -0.024089208 0.027571332 0.017729664 0.12705219 0.14548984 -0.054683957
0.03929178 0.023672665 0.011835008 0.001123384 -0.050849635 0.01693533 -0.06410538 0.004141771
0.09727396 0.06925355 -0.07296148 0.022265233 -0.074520096 0.045428533 0.06597714 0.13481903
-0.12315695 0.113002285 0.11696605 -0.004979757 0.045813 -0.047061946 3.9673814e-06 0.10915898
0.068137735 0.012831153 -0.10213431 -0.050780535 0.075381905 0.04800981 0.021023843 -0.12044239
-0.062285442 -0.013999176 -0.105753444 -0.027399546 0.023625663 -0.12058942 -0.019847795 -0.050661925
0.09453091 -0.06585928 0.13397627 0.046923492 -0.00086158706 -0.022120629 0.0767437 0.0038330753
-0.038170364 -0.01405687 0.051152207 -0.107771635 0.02485757 -0.0024456198 0.0146896895 -0.09792824
0.041289132 -0.043297995 0.03580896 0.043204263 -0.19532663 0.12274086 0.07594388 0.07514161
0.062981665 -0.0023935712 -0.027271638 -0.018565055 0.06238969 0.07390111 -0.05517551 0.1179424
-0.04418346 -0.012085771 -0.07251972 -0.09847135 0.01759826 -0.010727591 -0.16153638 -0.08204557
-0.11643777 -0.040213734 -0.04142004 -0.006212919 0.01595088 -0.13106039 0.011847939 -0.0009410888
0.08658054 -0.04398361 0.010236324 0.052903533 0.13097002 -0.026601484 -0.068431385 -0.061631616
-0.072691016 0.05019635 0.033594534 0.09906697 0.024202397 -0.123653814 0.038597092 0.018793352
00000000: d88a 1dbe b95c fdbc 4d5c 0aba 320b ca3c
00000010: ab1c b93c fed3 a33c 5f01 fc3d 0e28 ca3d
00000020: 3f07 ad3c 6781 b1bd b3cd 0f3d 6550 a7bd
00000030: 494c 843c 705e bebd c798 39bc 244c cd3d
00000040: 745e 863d 53e5 82bc c1b9 6a3d 3912 003d
00000050: a7e7 60bc d012 57bd 0468 933c 0aae 123c
00000060: 5cae 03bb 52c0 51bd c620 63bc c759 cd3d
00000070: 3857 c6bb b66f 973d c202 a73c a513 e2bc
00000080: 3118 d7bc d96c c7bd 8baa ba3a a87d 9c3c
00000090: f9f5 da3b bf44 773d a883 8f3c 59f3 883d
000000a0: eadb 9d3d 3e2c 3e3d d397 e0bd 1d16 dabd
000000b0: 571d 9f3d 36f2 6f3b 5492 cabc 9918 e63c
000000c0: 135c 5abd 09fa c93c e3d5 c23b 45ff 3dbe
000000d0: cf2d 3abd b5a3 1fbe 16f2 c33d e535 b0bd
000000e0: 4419 22bd 631e 4e3d 650b 393d 465d b738
000000f0: ba79 eebd 52db 1bbe 6940 b63c 177c 1abd
00000100: dcd4 903d 17a2 02be acf7 9d3d 02c0 683a
00000110: 4161 cdbd 253b adbb 61a2 01ba e847 803c
00000120: fc06 0a3e ae7e f7bc 15a5 213d 40ed 243c
00000130: 66b1 4b3d 9d47 2abd 5b5f e03d 8705 08be
00000140: 1d25 d9bd 2c78 5abd e371 d73c de6a 84bd
00000150: d8c8 673d a6b3 483d 7109 8c3c 86b2 933c
00000160: 6fb5 da3d 02cd 5ebd 9159 a33d 7c2c 143e
00000170: dd68 033d 2f4a 92bd 3b5a dc3a a5fc 743c
00000180: ee2f 083c b13f 89bc 8cb3 123c d768 eb3d
00000190: af9b 353c 113f fabd f23e 883d 128a 1b3d
000001a0: 70e8 d7bd a18a 473d d355 1dbe 7c0a 603d
000001b0: f5a3 a03c a7c0 683d 8053 41bd d4d1 35bd
000001c0: da13 fbbc b55e 8d3c 61a9 a23c c918 873c
000001d0: 66d2 58bd 79fa e43d 2042 d0bd 8d16 acbb
000001e0: cfc8 9abc 34fe edbd c33f 003d ae0c c6bc
000001f0: 3bfb abbd b680 4b3c d95a 3abd e0b2 673d
00000200: ce29 4b3c 8046 d73d 14e4 113d 20d1 1c3e
00000210: 1346 c33d ee3e d13c 8e27 fe3d 3481 d43c
00000220: 644c e9bd 684a d3bd 0204 79bd e13a 5e3d
00000230: 9425 7d3d f67c 9fbc 2689 ff3d 5220 99bd
00000240: 0e13 943c c503 13bd bb56 c5bc 46dd e13c
00000250: cd3d 913c f819 023e 4afb 143e 49fc 5fbd
00000260: 6bf0 203d 2ded c13c 9fe7 413c 833e 933a
00000270: b547 50bd f6bb 8a3c ae49 83bd b1b7 873b
00000280: 9237 c73d ced4 8d3d d46c 95bd 9465 b63c
00000290: fe9d 98bd 4513 3a3d 061f 873d 000e 0a3e
000002a0: b639 fcbd be6d e73d e58b ef3d 3b2d a3bb
000002b0: 6aa6 3b3d 07c4 40bd 8c1f 8536 be8e df3d
000002c0: cc8b 8b3d c239 523c cb2b d1bd 40ff 4fbd
000002d0: d461 9a3d efa5 443d 323a ac3c 80aa f6bd
000002e0: 051f 7fbd cd5c 65bc 4395 d8bd 0375 e0bc
000002f0: 9b8a c13c 96f7 f6bd d897 a2bc e182 4fbd
00000300: 6c99 c13d 3be1 86bd 1331 093e d932 403d
00000310: 21dc 61ba 5236 b5bc cd2b 9d3d 5534 7b3b
00000320: 8758 1cbd c94e 66bc fa84 513d 60b7 dcbd
00000330: 1aa2 cb3c b146 20bb 06ad 703c 9a8e c8bd
00000340: cb1e 293d 3d59 31bd 6bac 123d f4f6 303d
00000350: b403 48be 8f5f fb3d 7788 9b3d d8e3 993d
00000360: 88fc 803d 76dd 1cbb c568 dfbc be15 98bc
00000370: 558c 7f3d 7759 973d b7ff 61bd c98b f13d
00000380: b7f9 34bd 6603 46bc 3885 94bd 59ab c9bd
00000390: 3a2a 903c c7c2 2fbc cb69 25be 8207 a8bd
000003a0: ed76 eebd 28b7 24bd 0fa8 29bd be95 cbbb
000003b0: 6bab 823c b234 06be dc1d 423c 66b3 76ba
000003c0: 2351 b13d 2828 34bd 41b6 273c 60b1 583d
000003d0: 011d 063e 5beb d9bc c125 8cbd 6f71 7cbd
000003e0: 07df 94bd b09a 4d3d 6c9a 093d a0e3 ca3d
000003f0: 1b44 c63c 363e fdbd fc17 1e3d 84f4 993c
