results/ppo/BasicXZ/BasicXZ-500002.onnx (onnx, 201284 bytes, 12 tensors)

network_body.observation_encoder.processors.0.conv_layers.0.weight f4 [16, 3, 8, 8]
000000 f8 db bf 3d b6 3d 9e bd 94 00 b2 bd 41 49 c5 3c
       0.093681276 -0.07726614 -0.086915165 0.024082782
000010 26 a7 1f bd 0d e0 d5 3c 9e c9 62 3d 18 b7 b9 bb
       -0.038977765 0.026107812 0.05536806 -0.0056675784
000020 cc 19 e2 3c f0 4d bd 37 d2 7f 98 bd e9 bb 9e bc
       0.027600192 2.2566848e-05 -0.07446255 -0.019376712
000030 93 3e 8f bc 67 f9 7d bc ef a1 49 3b 42 df a6 bc
       -0.017485892 -0.015501357 0.0030766686 -0.02037013
000040 f2 14 07 bb c7 48 8b 3d 93 f6 73 bd 81 c9 d3 3c
       -0.002061185 0.068009906 -0.059561323 0.02585292
000050 f7 4c 68 3c d7 76 a9 bc 49 5e 46 bc 31 66 9c 3c
       0.014178506 -0.02068655 -0.01210744 0.019091697
000060 cd df 96 3b 5d d9 77 bd bf 8f ea bd 0f 14 d3 bd
       0.004604316 -0.06051003 -0.11453199 -0.1030656
000070 17 fb 47 bd 21 0f 07 bc 93 be 69 3d 60 4c 04 bd
       -0.048823442 -0.008243353 0.05706651 -0.0322994
000080 27 a6 98 bc e0 a6 5e 3d 9f 79 92 bc 47 46 63 3c
       -0.018633915 0.054358363 -0.01788026 0.013871736
000090 20 bd af 3d d2 5b 63 3d 93 84 6a 3d 6f eb dd bc
       0.085809946 0.05550749 0.05725534 -0.027089803
0000a0 ad ac 1f 3d 4b 09 30 3d 48 6e 95 bd c4 f0 ae 3d
       0.038983036 0.042977612 -0.07296425 0.08542016
0000b0 33 fb 06 3d a5 30 d2 3c 0d 99 10 3b be 8d 39 bd
       0.032954406 0.025657961 0.0022063882 -0.04530119
0000c0 36 91 89 3c b3 1e 48 3d f7 91 a6 3c 9f 9e 70 bc
       0.016792875 0.048857402 0.020333273 -0.014686256
0000d0 9a 8b 4d 3d 7e 34 89 bd 36 65 8a bd b1 48 f6 3b
       0.050181963 -0.06699465 -0.06757586 0.0075159897
0000e0 d7 0e 97 3c c2 4f db bd 7b ad b1 bd 69 84 26 bb
       0.018439693 -0.10708572 -0.08675667 -0.0025408512
0000f0 0d 7a 71 3d bb 30 92 bd f4 67 65 bc 28 bc 33 3d
       0.058954287 -0.07138201 -0.014001835 0.04388061
000100 a7 ff 70 bd 92 99 a3 bd cc ef 56 3c 10 09 20 3d
       -0.05883756 -0.079882756 0.0131186955 0.039071143
000110 e9 e4 63 bd 22 78 a4 bd c8 e6 a8 b9 ea d0 92 bd
       -0.055638228 -0.08030726 -0.00032215402 -0.071687534
000120 db b0 00 bc d9 f7 31 bd 5c 0b 3e bd d1 e8 af 3d
       -0.007854666 -0.043449257 -0.046397552 0.08589328
000130 d3 d2 bb 3d aa 3b e2 3d 5a 34 a3 3d 41 e0 a9 3b
       0.09171071 0.11046536 0.0796897 0.005184204
000140 50 e3 d2 bc df 57 86 bd d9 ab ac 3c f5 72 08 bd
       -0.025743157 -0.06559729 0.021078037 -0.033312757
000150 79 77 c0 3c e7 ac 00 3e e0 35 81 ba 30 50 cd 3c
       0.023494469 0.12565957 -0.0009857975 0.02506265
000160 7a 5c c9 bb f3 72 40 3d 55 76 97 bd e2 be 95 3d
       -0.0061450573 0.046984624 -0.07395617 0.07311799
000170 fe a8 b9 3c fd f1 05 bd ae 4c 4e 3d 57 03 6b bd
       0.02266359 -0.03270148 0.050366096 -0.057376232
000180 54 0f 2c bd 6e f2 c3 bd 83 63 8e bd e5 cf f5 3c
       -0.042006806 -0.09567724 -0.06952574 0.030006358
000190 13 4a d6 bc 66 4b 27 bd 8f 8e 2a 3c 6b f6 e6 bd
       -0.026158368 -0.04084339 0.010409965 -0.11277469
0001a0 a8 31 6d 3d a4 60 84 3d 87 ba 25 bd 1f 5d b5 bd
       0.057908684 0.06463745 -0.04046109 -0.08855652
0001b0 59 c4 94 bd da 2f 26 bc 12 a6 ee bd 20 73 3d bd
       -0.07264013 -0.010143245 -0.11652769 -0.04625237
0001c0 2e 2c 82 bc 8f 34 34 3c c2 5e ca bd 0c 2a ca bd
       -0.015890207 0.010998859 -0.09881355 -0.09871301
0001d0 de 2e b7 bd cd 8e cf 3d 16 cc 04 3d 09 83 97 bd
       -0.08944486 0.10134659 0.032421194 -0.0739804
0001e0 ff 25 88 3d 05 f0 c9 bd fd 38 1b bc 76 02 24 3d
       0.06647872 -0.09860233 -0.009474036 0.04004141
0001f0 26 bb 03 be 0d 43 14 3e d0 12 34 3e 87 97 1a bd
       -0.1286436 0.14478703 0.17585301 -0.037742164
000200 68 82 86 3d 3a aa 4c bd fe 30 a4 bc 26 38 50 bd
       0.06567842 -0.04996703 -0.020042893 -0.050834797
000210 e8 6c 84 3d f8 0e 4e 3c 10 a9 a4 3b 24 1f c4 3c
       0.06466085 0.012576811 0.0050250366 0.02394063
000220 14 22 2c 3d f8 5e 40 3d f4 84 b0 3c d0 fc 98 3b
       0.042024687 0.04696557 0.021547772 0.0046688095
000230 62 c2 78 bd 4e 2f 80 bc 30 b4 2b 3c 70 61 36 3c
       -0.060732253 -0.015647557 0.010479972 0.011131629
000240 67 7f 90 bd 72 1d 89 bd 90 49 97 3c fc ab db 3c
       -0.0705555 -0.066950694 0.018467695 0.026815407
000250 94 f1 86 3d 85 64 83 bd 78 84 44 3d f4 eb d7 3c
       0.06589046 -0.06415657 0.047977895 0.026357628
000260 64 36 bc 3c f6 fa 89 bd 8e 1c 93 bc 60 cf 20 bb
       0.022975154 -0.0673732 -0.017957952 -0.0024537668
000270 cc 74 ec bc b7 b3 53 bd 50 af e4 3b c0 c5 a7 3c
       -0.028864287 -0.05168506 0.0069789067 0.020480037
000280 74 9e a5 bc ca 62 8e bc 5a e5 09 bd 20 09 f1 3c
       -0.020217158 -0.01738109 -0.033665992 0.029423296
000290 60 d3 b8 3b 36 ba 22 bd 70 b1 12 bc 88 bc 27 3c
       0.0056404322 -0.039728366 -0.008953437 0.01023782
0002a0 06 46 37 bd 0c da 51 3d 1c 12 76 bd 78 9e c1 3c
       -0.044744514 0.051233336 -0.060075864 0.023635134
0002b0 38 47 b2 3c 35 24 92 bd 17 8f 89 bd 44 f7 52 3d
       0.021762475 -0.07135812 -0.06716745 0.051505342
0002c0 64 b9 71 3d b4 4f 6c 3d c8 a0 57 bc e0 66 73 bb
       0.059014693 0.0576932 -0.013160892 -0.0037140176
0002d0 b0 d9 6a 3c b0 6b 71 3c 50 6a d7 bc aa e5 20 bd
       0.014334127 0.014735147 -0.026295811 -0.039281525
0002e0 d0 d9 0d bc 30 91 5f 3d 16 32 8d 3d 3c 54 38 3d
       -0.008657888 0.05458182 0.06894319 0.045002207
0002f0 c0 84 2c bb 46 2f 49 3d 58 d9 ca 3c 00 6f ed 3b
       -0.0026324242 0.04911735 0.02476184 0.0072458982
000300 a6 58 23 3d c1 e1 53 bd 1c b5 8b bc 2c 9a 11 3e
       0.039879464 -0.051728968 -0.017054133 0.14218968
000310 a8 95 17 3d 23 55 13 3c c5 9c 72 3c 43 03 3b bd
       0.037007958 0.008992466 0.014807885 -0.045657407
000320 ec a9 e5 3d e5 8e b4 3d 32 ba 8d 3c 70 c6 b7 bd
       0.11214051 0.088163175 0.017300699 -0.08973396
000330 5c 20 91 3d c6 7f 68 3d c9 9d 18 bc 3f ae fb 3c
       0.0708625 0.05676248 -0.009314963 0.030722735
000340 6e f4 5b 3d d4 fc b1 3c 9e 7f 23 bd dd da b4 bb
       0.053699903 0.021727003 -0.039916627 -0.0055192546
000350 da 3b 59 3d 32 8e 81 3c 1f 41 15 bd 74 67 75 bd
       0.053035595 0.015814874 -0.036439057 -0.059913114
000360 52 b3 7a bd 60 cf 39 bd a7 46 1a bd 0c b0 83 bd
       -0.06120617 -0.045363784 -0.037665036 -0.06430063
000370 72 c4 ca bc c8 6f b1 3c 81 83 ee 3c 8b 66 45 3d
       -0.024751876 0.021659747 0.02911544 0.048193496
000380 56 1e 80 3c 54 a7 6b bb 10 1e 4f bd 1e 16 89 3b
       0.015639465 -0.003595789 -0.05056578 0.004183545
000390 b5 97 e4 3c b7 44 58 3d a1 dc aa bb 92 61 5a 3b
       0.02790437 0.052799907 -0.0052142893 0.0033322317
0003a0 22 7f 07 3d 10 c0 85 bd 46 59 29 3c 02 9b 3d 3d
       0.033080228 -0.06530774 0.010336226 0.046290405
0003b0 10 fe 0b 3d cf 62 b3 3d 46 c3 a3 bd 07 7b 12 bc
       0.03417784 0.087590806 -0.0799623 -0.008940465
0003c0 a0 3c ae bd 9f 38 22 3d 1b 07 b8 3b 5f 01 16 3d
       -0.08507657 0.03960478 0.0056160814 0.0366224
0003d0 6f 16 b7 3d 89 60 4b 3d 43 96 3e 3c 35 58 17 bd
       0.08939826 0.04965261 0.011632505 -0.036949355
0003e0 a7 dd 60 bc 18 58 47 bd 1b 55 67 3d ab 5d 48 3d
       -0.013724721 -0.048667997 0.056477647 0.048917454
0003f0 0d 79 a0 3d ef 14 9c bd 80 00 09 3d 93 8a 5c 3d
       0.078355886 -0.0762118 0.033447742 0.053843092

network_body.observation_encoder.processors.0.conv_layers.0.bias f4 [16]
000000 da 7d 20 bd db 8b 43 ba eb 36 9f bb 55 e2 38 3d
       -0.03918252 -0.00074595 -0.0048588417 0.045137722
000010 4c 14 e8 3c fd 05 40 39 80 70 a6 3d 8a 3b f1 b7
       0.02832999 0.00018312778 0.081269264 -2.8757164e-05
000020 8f b0 77 bb ba 0b 27 3d 70 67 05 3b 01 6b be bc
       -0.0037794446 0.040782668 0.0020355843 -0.023244383
000030 24 cb 8c bc 84 74 89 bd 1d de e7 3c 89 62 87 3d
       -0.017186709 -0.06711677 0.028304154 0.06610591

network_body.observation_encoder.processors.0.conv_layers.2.weight f4 [32, 16, 4, 4]
000000 32 56 99 bd 76 f1 9e bd d1 80 8b 3d 77 9e 8f 3d
       -0.074871436 -0.07760899 0.06811679 0.07012647
000010 1c 04 94 3d 5a 73 a1 bd 07 98 c0 3d 7a 11 fb 3c
       0.07227346 -0.0788333 0.09403997 0.030647982
000020 58 7a 1a 3d 54 28 aa 3d 34 f3 8a bc 08 44 79 3d
       0.037714332 0.08308473 -0.016961671 0.060855895
000030 8d d7 e1 39 1f 05 d4 bc 22 c5 67 bd 06 82 88 bc
       0.00043075942 -0.025881348 -0.056584485 -0.016663563
000040 3b 1d 4b 3d d2 4b 7d bd 1b 78 95 bb e3 0e 13 3d
       0.049588423 -0.061839886 -0.004561437 0.03590287
000050 52 b7 21 3c 95 a4 a2 3d 90 59 28 bd da ab a9 3c
       0.009870367 0.07941548 -0.04110104 0.020711828
000060 37 63 3c 3c 63 ab b1 3d 39 ca c5 3c 34 d5 61 bd
       0.011498264 0.086752675 0.024144279 -0.055134967
000070 b0 1f 37 3d 87 32 a1 3d e5 4a 43 bd 2f e4 62 bd
       0.044707954 0.078709655 -0.047678847 -0.055393394
000080 62 0e c4 3b a7 3e 6d bd 94 a2 a7 3c 5a 6e ab 3b
       0.00598316 -0.057921078 0.020463265 0.005231661
000090 b7 a7 2c 3e bf b7 6e 3d 31 2d cd bd 3c c6 2a 3c
       0.16860853 0.058280703 -0.10018385 0.010423239
0000a0 61 03 ba 3d e9 1d 63 3d ac 02 b6 3c 5f f3 05 3d
       0.09082676 0.055448446 0.02221807 0.0327028
0000b0 34 19 a3 3d 5c 72 c1 3d 06 39 6d bc b9 e4 a7 3d
       0.079637915 0.094456404 -0.0144789275 0.08197922
0000c0 a8 cb 12 bd 4c 9b 02 bd a8 9d fd bc 6a f6 9b 3c
       -0.035838753 -0.031886384 -0.030958965 0.019038398
0000d0 91 19 23 3d f9 73 a2 3c a6 a2 20 bd f1 4d ce 3c
       0.039819304 0.01983069 -0.039217614 0.02518365
0000e0 59 b5 60 3c 48 fe 0f 3d 73 30 14 bd de 94 87 3c
       0.013715112 0.03515461 -0.036179017 0.016550478
0000f0 ec 29 7e bc 93 df 7a 3d 26 93 74 3c 8e c4 27 3d
       -0.015512925 0.061248373 0.014927661 0.040958934
000100 14 ab a3 3d cc 02 2c 3c dd 43 45 ba f1 75 ca 3d
       0.07991615 0.010498714 -0.0007525066 0.09885777
000110 94 03 07 bc 83 31 4f 3d ba 86 8d bd 7c 0c 2d 3d
       -0.008240599 0.050584327 -0.06910463 0.042248234
000120 f9 e3 3c 3d c1 60 38 bd 56 ad 8b ba 13 6c 09 3d
       0.04611585 -0.045014147 -0.0010656517 0.033550333
000130 ae 95 dd b9 51 27 8a 3d 8f 3a 36 bd 81 7b 39 bd
       -0.00042263925 0.0674578 -0.04448944 -0.045283798
000140 2b 00 7b 3d 7d c0 d8 bd 76 d0 20 3d 0a 0b 5c 3c
       0.061279457 -0.10583589 0.039261304 0.013430366
000150 8a d8 f7 3d 26 00 d3 3d a5 eb c0 bd af 6b 15 3c
       0.121018484 0.10302763 -0.094199456 0.009119912
000160 ce 9c 19 3d c6 9e 35 3e 5a 54 19 3e 14 91 8c 3c
       0.037503056 0.17736349 0.14973584 0.017159022
000170 9d 61 1a 3d 23 5b 0c bc 9a e0 0d bd c8 74 d0 bc
       0.037690748 -0.008566651 -0.034638025 -0.02544631
000180 e5 c8 66 bb 48 28 2b 3d 4c 73 68 3c 95 af 37 3d
       -0.0035214957 0.041786462 0.014187645 0.044845182
000190 67 71 11 3d af cf d0 3c f7 81 08 bd ca 04 34 3d
       0.03550854 0.025489656 -0.03332707 0.04394988
0001a0 01 bb 45 3d 1c ee 03 bd db 71 04 3d ff db 30 3d
       0.048274044 -0.0322095 0.032335144 0.043178555
0001b0 49 db ee bc 8b 97 8e 3d bf 0a 73 3d f8 3c 24 3d
       -0.029157298 0.06962498 0.05933642 0.040097207
0001c0 93 d4 de bc 7a d6 96 3c 74 52 a3 3c 61 f7 85 3d
       -0.027200973 0.018412817 0.019936778 0.065413244
0001d0 c4 1b 4d 3d f5 fb ef 3d 36 54 46 3d fc 35 85 3d
       0.050075307 0.11717979 0.048420154 0.06504437
0001e0 57 e6 aa 3d c7 08 15 3d c6 1d 35 3c 02 af 68 3d
       0.08344715 0.036385324 0.011054462 0.056807525
0001f0 1c e3 97 bb 94 49 a8 3c 3b 64 83 bc d3 4e 97 3d
       -0.004635228 0.020542897 -0.016039005 0.073880814
000200 81 77 e2 bd 5e bd 0e 3d c1 77 2f ba 91 30 98 bc
       -0.1105795 0.034848563 -0.0006693565 -0.018577846
000210 2f ed 21 3e 3e e2 df 3c 19 d0 0b bd 4a b7 b4 3c
       0.15813135 0.02732956 -0.034134004 0.022060055
000220 14 02 a9 3d 3b 0f 64 bb 5f 05 c7 3c 50 4e 20 bd
       0.082523495 -0.0034799117 0.024294553 -0.039137185
000230 ee 44 a4 bb 36 09 dd bc d6 07 70 bd 67 05 93 bd
       -0.0050131 -0.026981931 -0.058601223 -0.07178765
000240 35 a7 03 bd a1 09 7a 3c 2f ce 26 3d f8 77 03 3c
       -0.032141883 0.015261085 0.040723976 0.008024208
000250 3d ed ab 3d ed 2a 5f bd bf c9 53 bd b3 cd 73 3c
       0.08394859 -0.054484297 -0.051706072 0.0148805855
000260 a8 20 a8 3d 5e cc 9d ba c0 8f 56 3d bf 7a 2a bd
       0.08209354 -0.0012039056 0.052383184 -0.041620966
000270 83 d1 bc 3b bd a8 45 bc 5e e7 67 3d 5a 89 67 bc
       0.0057622804 -0.012064156 0.056617133 -0.014131868
000280 3e 48 63 3d 7c 08 09 3d 9a 35 9e bd 6c e5 96 3d
       0.055488817 0.033455357 -0.077250674 0.073679775
000290 8a d7 e0 3d 03 74 c5 3d bc fb 5f bd ef ba 00 3b
       0.10978611 0.09641268 -0.054683432 0.001964267
0002a0 b5 a6 ad 3c 86 58 2c bd 1f 8a ab 3d 72 2e cc bc
       0.021197656 -0.04207661 0.08375954 -0.02492449
0002b0 35 df 88 3c b1 b2 3b 3d 3c 15 30 bd 49 a0 13 3d
       0.016707996 0.04582471 -0.042989 0.03604153
0002c0 5f 01 46 3d 9b dc e6 bc 7a 0b a2 3b f1 71 49 bd
       0.04834115 -0.028181365 0.004945216 -0.04918093
0002d0 cf 05 11 3d d9 00 ab 3c a5 45 e0 3d 80 1d 8d bd
       0.03540593 0.020874428 0.10950784 -0.06890392
0002e0 de 6c 4e bd 70 9b d1 3c 43 2b 02 39 a2 ae 65 bc
       -0.050396793 0.025586814 0.00012413882 -0.0140186865
0002f0 23 7c 88 bc 87 ae 55 3d 98 d5 0a 3d 47 3f 25 bd
       -0.016660756 0.052168395 0.033895105 -0.04034355
000300 e5 bc 8d bd f3 a2 11 3d 52 82 17 bc 79 1c 44 bd
       -0.069207944 0.03555579 -0.009247379 -0.047878716
000310 9b db e5 3d d1 6b 41 3d ab 8b 93 3d aa 03 49 39
       0.11223527 0.047221962 0.07204374 0.00019170219
000320 0d 24 6a 3d f9 3b 07 3d 9c 8d 88 3c 11 2c a5 3d
       0.057163287 0.03301618 0.016669087 0.080650456
000330 94 0f c6 3d df af 50 3d ce 23 45 3d 7a f3 02 bd
       0.0967094 0.050948974 0.04812985 -0.03197048
000340 10 2f 7a bd d4 49 b0 bd db dd 15 bc 84 26 0a bd
       -0.06108004 -0.086078316 -0.009147133 -0.033728138
000350 53 82 0e 3d 76 f3 c2 3a 14 1d c2 3c 47 75 28 bd
       0.034792256 0.0014873582 0.023695506 -0.04112747
000360 ba 90 b4 bb b6 70 e0 bc 44 97 b0 3c 11 d8 a0 bd
       -0.005510417 -0.027397495 0.021556504 -0.078537114
000370 df 2e 90 bd 23 80 00 bc fd 54 5e 3c c2 43 d0 bc
       -0.0704019 -0.00784305 0.0135700675 -0.025422934
000380 dd f9 a2 3d 22 90 71 bd ad e1 66 3c 21 00 30 3c
       0.07957814 -0.058975346 0.014091891 0.010742218
000390 61 7b 0a 3c d3 cb 01 3d 04 b3 9a bc 67 b3 ab 3d
       0.008452267 0.031688523 -0.01888419 0.08383828
0003a0 94 dd 35 3c 83 af 47 bd 9b 61 8f 3c db 31 23 bd
       0.011100192 -0.048751365 0.017502597 -0.039842468
0003b0 57 a7 8d 3d c3 c0 0a 3d 72 95 10 bd 65 fd 50 3d
       0.06916683 0.03387524 -0.035298772 0.051022906
0003c0 bc 58 c9 bb 20 49 27 bd 7c 80 88 3d e4 3f 1e bc
       -0.006144611 -0.04084122 0.066651314 -0.009658787
0003d0 6c cc 99 3d 7d 29 4c 3d 0f 52 01 3c e9 29 04 bd
       0.075096935 0.049844254 0.007893099 -0.03226653
0003e0 d5 85 c9 bc 42 9c 24 3c 67 5b 85 3d 9d 64 6b bd
       -0.024599949 0.01004702 0.06511574 -0.057469
0003f0 a9 01 06 3c 5b 15 90 3d b0 61 88 3d 59 c3 6e 3d
       0.008179107 0.07035323 0.066592574 0.058291767

network_body.observation_encoder.processors.0.conv_layers.2.bias f4 [32]
000000 6d a1 bb bc 9f 84 63 bd 47 13 f8 bc 4c f9 a0 3d
       -0.022904122 -0.0555464 -0.03028263 0.078600496
000010 fc d9 a9 3c 17 21 5c 3d 69 e3 2f bd e0 7f 87 bc
       0.020733826 0.053742494 -0.042941485 -0.016540468
000020 f9 0c 4e 3d 87 73 e4 bc dd 29 2d bb c5 f8 c5 bc
       0.05030534 -0.027887119 -0.0026422658 -0.024166474
000030 ea 27 84 bc 7c 27 76 3d 97 3f dd bb d0 21 61 3d
       -0.016132314 0.06009625 -0.0067519653 0.054963887
000040 f7 55 29 3d 79 db 74 3d c8 c9 fb 3c 34 a8 4e 3c
       0.041341748 0.059779618 0.030735865 0.012613345
000050 35 cb 7e 3d db ec 7f 3d 6d f6 49 bc 43 9f b0 bb
       0.062205512 0.062481742 -0.012326819 -0.005390079
000060 0a 93 d4 bc 67 cc 2a 3d c1 f5 da 3c 72 4a 8d 3d
       -0.02594902 0.04169884 0.026728513 0.06898965
000070 72 87 38 39 0a 53 cd bc ad 01 03 bd 2d bf ec bd
       0.00017598065 -0.02506401 -0.03198402 -0.115599014

network_body.observation_encoder.processors.0.dense.0.weight f4 [128, 32]
000000 80 1e 9d 3e 56 cd 4a 3c ed 63 ae 3e 51 ef 9c 3e
       0.30687332 0.012378057 0.34060612 0.30651334
000010 2f 31 84 3d 7d 91 a3 3d 5a 86 09 be ea 23 ab be
       0.064546935 0.07986734 -0.13430157 -0.33425838
000020 0b 6f 8c be 39 10 9d bd a5 7f 81 bd c4 dd 26 3d
       -0.2742847 -0.0766911 -0.063231744 0.040738836
000030 80 ab 85 3e be 63 c7 bd c1 70 8c be 3b 01 c9 be
       0.26107407 -0.09735821 -0.27429774 -0.3925875
000040 52 af 0a 3d 06 b0 a9 bd 54 81 05 3d 24 fd ca 3d
       0.033858605 -0.08285527 0.03259404 0.09911564
000050 b0 2f fe bd 6e 94 39 bd f9 c3 9b be af 64 05 3e
       -0.124114394 -0.04530757 -0.30422953 0.13026689
000060 e0 c0 a4 bc a8 d0 29 bd 2e cb f8 3e 75 63 94 be
       -0.020111501 -0.041458756 0.48592514 -0.2898213
000070 f9 22 17 3f bf 91 b9 3e b8 a0 91 3d 78 b1 a6 be
       0.5903774 0.36244008 0.07110733 -0.32557273
000080 67 12 6f 3e 1d 92 65 be cc 9c 42 bd 16 12 94 3b
       0.23346864 -0.22419019 -0.047512814 0.0045187576
000090 8f 4f 30 3d 6b 3e d1 3e 70 c2 a5 be e1 2e 28 3d
       0.043044623 0.40867934 -0.32374907 0.041060332
0000a0 eb 9d 67 be 9c e7 a0 3e 9a a4 f2 3e 6d 2f 5f 3e
       -0.22618835 0.31426704 0.47391206 0.21795435
0000b0 b3 fe 0d be bf 95 ec 3e dd 10 3b 3c 7a 3f b2 3b
       -0.13866691 0.46207997 0.011417595 0.005439696
0000c0 ce 32 82 3d 14 08 0d 3e 83 bb 82 3d 6b 13 e7 3e
       0.063573465 0.13772613 0.06383421 0.45132002
0000d0 d8 92 b0 3d 92 28 88 be 8a 9e 52 3e 7c a4 b5 be
       0.08621758 -0.26593453 0.2056829 -0.35477054
0000e0 dd eb c2 be d5 b3 82 bd 15 8d d7 3d 49 aa ea bd
       -0.38070574 -0.063819565 0.10524956 -0.114582606
0000f0 2e 59 3a be 75 99 06 be 1e d0 47 bd 54 d7 01 3f
       -0.18198082 -0.13144477 -0.04878246 0.5071919
000100 9c 52 76 be c1 2f 9e 3e aa 6f de bc c7 c6 c6 be
       -0.2405495 0.30895808 -0.027152855 -0.3882353
000110 1e 23 11 be 46 24 f5 bd aa ef ab 3e 6c 51 d5 3e
       -0.14173552 -0.11969809 0.33581287 0.41663682
000120 3d 6b 60 3e 5b ed fb be f0 6a fa 3c 7c 1e ae be
       0.21915908 -0.49204525 0.03056857 -0.34007633
000130 93 7a 78 3e 9a 16 91 3e a9 90 5c be 66 93 42 3e
       0.24265508 0.28337556 -0.21539558 0.1900154
000140 ab 16 83 bd bf 34 66 be 76 ef b4 3d c5 99 ad be
       -0.06400808 -0.22481059 0.08834736 -0.3390638
000150 67 19 10 3e 99 ca 2a 3e ec a1 52 bd 5e 9b 85 3e
       0.1407219 0.16678847 -0.051423952 0.26095098
000160 30 7e 8e 3e 96 e6 d4 bd 17 d1 1a 3e 63 42 9f 3e
       0.27830648 -0.10395543 0.15118824 0.31105337
000170 24 b7 28 3e 03 da 1a 3e da 15 c0 3e 66 bc a1 3d
       0.16476113 0.15122227 0.3751667 0.07897262
000180 6a b8 c0 bd 6e 1a a3 3e 81 8f 02 3e f4 66 15 be
       -0.09410174 0.31856102 0.12750055 -0.14590055
000190 ee 87 bc 3e d1 29 8b 3e cf 0a 76 be 69 0d ca be
       0.36822456 0.2718034 -0.2402756 -0.39463356
0001a0 1f 75 d9 bd db 62 ea bd 22 c3 ba bd 58 93 a6 be
       -0.10618042 -0.114446364 -0.0911925 -0.3253429
0001b0 97 f0 0d be 9a 17 f0 be d6 c9 06 be fb 71 92 3e
       -0.13861309 -0.46893007 -0.13162932 0.28602585
0001c0 34 11 f9 bd 2e a4 41 3d b1 84 81 3e 14 9c f9 bc
       -0.12161484 0.047275715 0.25296548 -0.030469932
0001d0 72 33 a7 3d 36 95 41 bd bd f3 29 be ba c8 8b be
       0.08164109 -0.04726144 -0.16596885 -0.2730158
0001e0 fd ea d8 3e e7 37 b1 be a8 d0 d8 bd 72 71 9d 3d
       0.42366782 -0.34612963 -0.10586673 0.076876536
0001f0 6a 03 5f 3c e3 00 3b 3d 0e 91 a4 be 01 dd 29 3f
       0.013611654 0.045655143 -0.32141918 0.6635285
000200 a5 9e 0e be c9 88 13 bf 71 48 71 3e 45 2e 8b 3c
       -0.13927706 -0.5763059 0.2356279 0.016989836
000210 95 29 f4 3d f5 1a 1f 3e b1 d8 02 3d 4b dd 29 3e
       0.11921994 0.15537627 0.031944934 0.16588323
000220 06 1e 8e bd 66 2e 4d 3e 76 12 0d 3f 7d 27 7b 3d
       -0.0693932 0.20037231 0.55106294 0.061316956
000230 48 85 3f be 16 e8 64 3b dc ed d0 3e be 18 8e 3e
       -0.18703187 0.0034928373 0.40806472 0.27753252
000240 0f 42 00 3e f9 60 3c bd a9 e6 0d be 3d a0 07 be
       0.125252 -0.045990918 -0.13857521 -0.1324472
000250 2f fd 15 3e 77 6d 8d 3d 8a 1b 64 3e ae c4 e9 be
       0.14647363 0.069056444 0.2227613 -0.45657867
000260 8d 62 92 be c5 70 b3 3c c9 7b 31 3f ee c1 59 be
       -0.28590813 0.021904359 0.69329506 -0.21265385
000270 b8 7b f9 bd 15 94 0e bf 61 fc f0 bd 21 95 c7 bd
       -0.121818006 -0.55694705 -0.117668875 -0.09745241
000280 72 b1 01 3f 75 4f 64 3d d2 a3 27 be 95 6d 2d be
       0.50661385 0.05573984 -0.16371086 -0.16936333
000290 c3 fc fd 3c 8a 25 21 bf 81 1f d7 be 6a 73 12 be
       0.031004315 -0.62947905 -0.42016223 -0.1430184
0002a0 a0 81 06 bf 51 71 df 3e 4a e4 cc 3e 6d 5f 45 bd
       -0.5254154 0.4364114 0.4001792 -0.04818671
0002b0 b0 5e 6e bc fc 50 2a 3d 64 3c 2c 3e 08 9b 67 3d
       -0.014548942 0.04158114 0.16819912 0.056544334
0002c0 04 98 a7 3e 32 50 3f 3e 83 2e 8a be a9 63 6f 3e
       0.32733166 0.18682936 -0.2698861 0.23377861
0002d0 30 23 47 3e 68 a0 a3 bd db 65 c0 3e e8 4f 12 3e
       0.19447017 -0.079895794 0.3757771 0.14288294
0002e0 56 a5 66 3e be 51 49 3e f3 d9 1d 3e f2 b5 be be
       0.22524008 0.19660088 0.15415172 -0.37248188
0002f0 99 1e d0 3d 38 a1 0a be b1 ae d0 3d 82 d2 bd bd
       0.10162086 -0.13538063 0.1018957 -0.09268667
000300 12 5d 22 3e 4c b8 80 be 56 87 3b 3e 62 ca 63 be
       0.15855816 -0.25140607 0.18313345 -0.22245172
000310 7d 3d 86 be b8 63 68 3e c5 89 a6 3e 22 e5 97 bd
       -0.26218787 0.2269429 0.32526985 -0.074167505
000320 bd 22 9b 3e 72 dd b7 be 2d b8 4e 3d 60 c7 07 be
       0.3029994 -0.35911137 0.050468612 -0.1325965
000330 8e 3d c9 3e c8 0f ac 3d 61 5b 90 be da 58 39 3e
       0.39304775 0.084014475 -0.28194717 0.181003
000340 30 5c f7 3e f8 9f 2f be d2 2b 7a 3d f6 37 dc 3d
       0.4831252 -0.17150867 0.061076947 0.10752861
000350 ce 19 96 3d 6b 63 95 3e 30 08 ab bd 0f a2 3b be
       0.073291406 0.29177412 -0.08351171 -0.18323539
000360 f7 08 73 be 09 df a5 be 6a e4 94 3d 78 65 c8 3c
       -0.23733889 -0.32396725 0.07270129 0.024462447
000370 ea b0 47 3c e4 c2 ab 3e d3 07 8d be 24 ac 81 bd
       0.012188176 0.33547127 -0.27545032 -0.06331661
000380 ad 2c 3f bc 8b 4a 89 be 55 06 5c 3d 36 2f 72 3e
       -0.011668366 -0.26814684 0.053716976 0.23650822
000390 8a e0 f1 3d 5d 12 80 bc 1f ec 99 3d 2c 42 da bd
       0.118104056 -0.015633756 0.0751574 -0.106571525
0003a0 f7 62 14 3d 93 26 f0 3e b0 99 df 3e 08 28 6a be
       0.036227193 0.4690443 0.43671942 -0.22866833
0003b0 09 07 03 3e b9 fd 7a be cb 12 82 3e f9 75 b1 3e
       0.12795652 -0.2451085 0.25404963 0.34660318
0003c0 9a 4c 86 3e 8e 12 1d 3f 3f 76 8d 3e fe 38 ff bb
       0.26230317 0.6135644 0.27629277 -0.0077887764
0003d0 68 0d 7e 3e 77 55 59 be 28 89 08 be e3 d7 bb be
       0.24809802 -0.21224009 -0.13333571 -0.36688146
0003e0 e5 7e 13 bf ae 72 72 3e 2d 19 a3 3e 38 9b b6 be
       -0.576155 0.2367656 0.31855145 -0.35665298
0003f0 d1 e7 dd 3e 00 aa 40 be 7e 5e 18 be eb de 65 bd
       0.43340924 -0.1881485 -0.14879796 -0.056120794

network_body.observation_encoder.processors.0.dense.0.bias f4 [128]
000000 ae 27 56 3d 88 41 c9 3b 14 99 f2 3c 2c 63 c0 bb
       0.052283935 0.006141845 0.029614009 -0.005871197
000010 1e dc c0 3c 95 7c b5 3b 9a f5 b1 3c 35 ef 5e 3c
       0.02354246 0.005538533 0.021723557 0.013606836
000020 27 f3 94 3b 06 52 b6 3c 5e 3a 54 3c 9e 8b fd bb
       0.0045455876 0.022255909 0.012953369 -0.007737591
000030 71 52 9b 3c 05 12 bc 3c 10 7f a2 bc 80 c5 3d 3d
       0.01896021 0.022957811 -0.019835979 0.04633093
000040 3b b7 bb 3c e0 37 6f 3d 8f d2 e4 3c 2d c7 f5 3c
       0.02291452 0.058402896 0.027932433 0.030002201
000050 ee 55 61 3c d9 33 5a bc a9 95 1e 3d 2f cc b2 3c
       0.013753397 -0.0133180255 0.038716946 0.021825878
000060 71 3e ae 3c 8a 67 f8 3c 00 3d ed 3c ba 2c e2 3c
       0.021270009 0.030322809 0.028959751 0.027609218
000070 24 7c 07 3d ac c2 93 3c b4 6e d6 3c f5 4d d6 3c
       0.033077374 0.018037163 0.026175834 0.02616022
000080 22 11 d6 3c 92 68 5c bc 6b c9 d8 3c 83 ea a2 3c
       0.026131216 -0.013452666 0.026463231 0.019887215
000090 93 1d d9 3c 99 bf e7 3c e8 07 de 3c be 87 8a 3c
       0.02650336 0.028289603 0.02710338 0.01691043
0000a0 bc e7 b9 3c 9e ac c7 3c e8 db c5 3c 7b 50 a0 3c
       0.022693507 0.024374302 0.024152711 0.019569626
0000b0 9b a8 f3 3c 04 91 04 3d 6b 80 f6 3c 7c d9 97 3c
       0.029743483 0.03236486 0.030090531 0.018536322
0000c0 f6 df 6a 3d 77 42 de bc 80 c8 f4 3c d5 35 3a 3c
       0.057342492 -0.027131302 0.029880762 0.011365374
0000d0 95 5f 2f bc 77 15 5a 3c 33 90 7a 3c af 61 eb 3c
       -0.010703941 0.013310782 0.015293169 0.028733103
0000e0 e3 72 3e 3d 8c b6 eb 3c 2a ea ad 3c 29 e9 97 3d
       0.046496283 0.028773569 0.021229822 0.07417519
0000f0 1c 21 cd 3c 2b 27 0e 3d 78 19 02 3d 02 95 d8 3c
       0.025040202 0.034705322 0.03176257 0.02643824
000100 cd 4d c5 3c f8 e9 21 3d ce 0c 03 bd 61 d2 1c 3d
       0.02408495 0.03952977 -0.031994633 0.03828657
000110 dd 5b a6 3c fc 27 a4 3b 76 b2 ed 3c 33 cb 9f 3c
       0.020307476 0.0050096493 0.02901576 0.019506073
000120 ee 1f cf 3c f6 7d b1 3c b7 3d 13 bb 85 75 f9 3c
       0.02528378 0.021666508 -0.0022467205 0.030451545
000130 4e 47 53 3d ef 0e 50 bc 6f df a9 3c d4 32 d5 3c
       0.051581673 -0.012698873 0.020736424 0.026025213
000140 82 a4 2f 3c ac 3f 0d 3c 15 56 0e 3d 4d e5 1c 3d
       0.010720374 0.008621138 0.034750063 0.038304616
000150 24 9d b5 3c 5b 93 89 3d 49 68 00 bd 98 c3 bb 3c
       0.022169657 0.06717559 -0.031349454 0.022920415
000160 7b dc cc bc a1 4b e1 3c 62 b2 0f 3d 57 95 81 3d
       -0.025007477 0.027501883 0.03508223 0.063273124
000170 ce b6 c2 3c dc 61 6f 3c 5e 4c 0d 3d 56 a3 80 3c
       0.023768809 0.014610734 0.034496658 0.015702885
000180 9c 5d 09 3d 12 a5 cb 3c a1 be f8 3c 33 36 63 bc
       0.03353654 0.024858985 0.030364336 -0.013867903
000190 a7 1e 37 3d 70 11 bb 3c ad 0b b5 3c 83 43 59 3c
       0.044706967 0.022835463 0.022100294 0.013260725
0001a0 ea b4 0f bd 0f 2b 97 3c cb 4b 59 3b 68 d8 23 3d
       -0.035084642 0.01845315 0.0033156748 0.040001303
0001b0 f4 07 33 3c bb 71 e3 3b df b7 22 3d b4 54 dd 3a
       0.010927189 0.006941048 0.039726134 0.0016886205
0001c0 44 aa de 3c 88 b0 b4 3c 1f 91 a7 3c e4 f1 d7 3c
       0.027180798 0.022056833 0.020454941 0.02636046
0001d0 c7 b4 60 3c ca ee 8b bc 97 b5 6f 3c 61 b8 01 3c
       0.013714976 -0.017081637 0.014630697 0.0079174945
0001e0 9e c4 a9 3c e6 bb b8 3c a0 ae e1 3c 4a 36 8b 3d
       0.020723637 0.022550534 0.027549088 0.06797464
0001f0 94 0b b5 3d 24 76 a9 3c 87 1e 48 bc 45 6f cd 3c
       0.08840099 0.020686217 -0.01221431 0.025077472

network_body._body_endoder.seq_layers.0.weight f4 [128, 128]
000000 37 d2 10 be 93 35 08 3d 78 49 ff 3d 59 46 d3 bd
       -0.1414269 0.033254217 0.12465185 -0.10316152
000010 28 7e 02 3e 2e cc a6 bd 43 92 84 3c 79 ef 84 3d
       0.12743437 -0.08144413 0.016183024 0.06490988
000020 f8 25 5d 3e 82 1a a3 3c 75 e2 58 3d 32 38 d6 3b
       0.21596515 0.0199101 0.05295034 0.0065374607
000030 29 7c 94 bc 66 ec ef 3d f0 9a 80 bd c6 37 69 be
       -0.01812561 0.11715011 -0.06279552 -0.22775182
000040 dc a4 03 3b 52 9a 3d 3e 4c c5 01 bd e0 01 65 3e
       0.0020087278 0.185159 -0.031682298 0.22363997
000050 61 18 dc bd 22 63 ae bd 7c 95 8b bd 37 66 4e bd
       -0.107468374 -0.08515002 -0.06815621 -0.05039045
000060 90 c7 ca 3d b2 bc 47 3e f9 e2 59 bc 46 38 b7 3c
       0.09901345 0.19505575 -0.013298743 0.0223657
000070 cb 8d 21 3d 5d 6f 0f 3c 6d b5 68 bd 92 c7 10 bc
       0.039441865 0.008754578 -0.056813646 -0.008836644
000080 84 94 91 3c 34 d1 06 3e 3d 66 18 3d 86 86 c4 3d
       0.017771013 0.13165742 0.037206877 0.09595971
000090 22 1d 0a 3e 68 84 a5 3d ca 42 72 bd 7d ad 82 3d
       0.13487676 0.08081895 -0.059145726 0.063807465
0000a0 1b 46 c5 3d 4a ea 33 bd 6d e3 12 3e 81 f1 92 bd
       0.09632512 -0.043924607 0.14344569 -0.071749695
0000b0 2b b9 62 bd ab be 02 3d 3a e5 25 3e 3e e9 22 3e
       -0.05535237 0.031920116 0.16200724 0.15909287
0000c0 47 e6 e6 3c a9 60 8e bd f0 0e 14 3e 43 34 14 be
       0.028185977 -0.0695203 0.14458823 -0.14473061
0000d0 b8 a1 e4 3b 76 73 0e be 07 09 71 bd ac fc a9 3d
       0.006977286 -0.13911232 -0.0588465 0.083001465
0000e0 e3 d7 4b 3e 2c 61 8a 3d 87 b1 b0 bd ad 01 91 bd
       0.19906573 0.06756815 -0.08627611 -0.07080398
0000f0 c9 7b 92 3c d0 54 24 bc 63 99 7b 3d d3 6e 70 3d
       0.017881291 -0.0100299865 0.061425578 0.05869944
000100 2a 95 4f 3a 7d 77 d8 3d b2 64 44 be d6 e9 44 ba
       0.00079186505 0.105696656 -0.19179037 -0.0007511651
000110 c1 a5 84 3c 29 96 06 bd d5 4f 42 bc 36 17 a2 bd
       0.016192319 -0.032858048 -0.011859854 -0.079145834
000120 a0 07 44 be 9a 1d 8b bc de 2b 67 3e 11 3b 17 3e
       -0.19143534 -0.016981889 0.22575328 0.14768626
000130 2e ee 53 bc 20 0d 2c 3d 27 b0 90 3e 9e 54 5a 3d
       -0.012935204 0.042004704 0.28259394 0.053303353
000140 c1 cf db 3d 75 37 f4 3b 7b cc dd bd 08 59 ad be
       0.10732985 0.0074529 -0.10830017 -0.33856988
000150 76 7e a1 3d e8 f9 31 3e be b2 44 3d 0c dd a0 3c
       0.07885449 0.17380488 0.048022024 0.019636653
000160 c3 f8 40 bd 19 1e 08 bd ed a0 3f 3e 6b 37 ee bc
       -0.047112238 -0.03323183 0.18713732 -0.02907916
000170 6c a7 e1 3c b6 b4 94 bd f8 2f ca bd 45 82 9c 3d
       0.027545653 -0.072610304 -0.098724306 0.076420344
000180 77 53 bf 3d 1d bc 1a 3e 70 56 0d 3e d6 85 fb 3d
       0.093420915 0.15110822 0.13802505 0.122813866
000190 be 82 61 3c 6b a7 0a 3e bf 0c a4 3d 24 23 e7 3d
       0.0137640815 0.13540427 0.080102436 0.112859994
0001a0 1c 02 f2 bd b7 a0 ab bd a9 ba 8b 3b 88 8e 25 3e
       -0.118168086 -0.08380263 0.004264195 0.16167653
0001b0 9e 13 87 3d b1 46 95 3d 7c 4b 3b 3c 83 a8 fb bd
       0.065955386 0.07288874 0.011431571 -0.122880004
0001c0 26 55 9d bc 0c f5 16 3d 01 91 5d bc 18 f9 31 3e
       -0.019205641 0.03685479 -0.013523341 0.17380178
0001d0 fb d5 17 3e b1 d4 f0 bd 96 b6 35 be d6 56 62 3d
       0.14827721 -0.11759318 -0.17745432 0.055258594
0001e0 b0 ef 2e bd 3c 72 03 be ce b6 a2 3d d5 2c 70 3e
       -0.042709053 -0.12836546 0.079450235 0.23454602
0001f0 7e 2c fa 3d 85 b9 b5 3d a0 33 10 bd c0 c1 fe 3c
       0.122155175 0.08873276 -0.035205483 0.031098247
000200 7a c8 a3 3e f0 cf 77 bd 4d fa e4 3d 49 be 40 3d
       0.3198889 -0.06050104 0.111805536 0.04705647
000210 f6 f3 a8 bb ed 15 2d 3e 87 c1 91 bd 9a 1d b9 3c
       -0.0051560355 0.16902895 -0.071169905 0.022597123
000220 d1 63 0b 3e a6 04 c6 3d 81 87 89 3d b3 fb 8d bd
       0.13612296 0.09668855 0.067152984 -0.069327734
000230 82 48 a0 bc fb 3a 61 bd cb 7b 22 bc fb 3f f7 3b
       -0.019565824 -0.05498789 -0.00991721 0.007545469
000240 29 83 ab bd 57 23 fb 3c 4c 28 2a 3d 8b bd ca 3b
       -0.08374626 0.0306565 0.041542336 0.006187146
000250 1d 76 95 3c a9 bf 97 bb 25 b0 95 bd 05 4d 08 be
       0.018244797 -0.004631002 -0.073089875 -0.1331063
000260 c2 e3 e6 3d b2 a7 2d bd 9c d4 c2 bd 39 ec 65 3d
       0.1127391 -0.042396255 -0.09513208 0.056133483
000270 e6 68 04 3e f1 f2 4e be ee fe 0e be c5 c2 1c bd
       0.1293064 -0.20209862 -0.13964435 -0.038271684
000280 5c 05 cf bc 11 a3 d9 3d 10 f3 80 bd aa 0f ba 3d
       -0.02527111 0.106268056 -0.062963605 0.09085019
000290 31 dc 38 3c 17 da c7 bd ea 7d 24 3c e6 20 c2 3c
       0.0112829665 -0.09758394 0.010039786 0.023697328
0002a0 ee 2b a2 3c a7 9f a7 bb 45 3f 00 be f9 f8 0e 3e
       0.019796338 -0.0051154676 -0.12524135 0.13962163
0002b0 a5 7f 21 3d 55 20 87 3d 9f a2 1a 3e b3 1e 05 be
       0.039428372 0.06597964 0.15101098 -0.12999992
0002c0 80 75 f4 3c fa 41 dd 3d 78 b0 18 3e aa 73 11 3d
       0.029841185 0.108036 0.14911067 0.035510696
0002d0 ed 6e 11 3d e8 b6 03 bc 01 e6 10 be 5f 70 58 3c
       0.035506178 -0.008039214 -0.1415024 0.013210385
0002e0 8d 5a 99 3e 65 98 d9 bd 6a d7 08 3e 81 a7 b1 bc
       0.29951897 -0.1062477 0.13363424 -0.021686317
0002f0 d6 fa 59 3e fa 10 53 3e c8 5c 77 3e 3c ed 38 3e
       0.21287093 0.20611945 0.24156487 0.18059248
000300 bc 0f c0 bc 0a 90 39 3e ad d1 84 3d e9 56 34 be
       -0.023445003 0.18121353 0.06485305 -0.17611279
000310 35 5f 65 3d 71 e2 e3 3c 1e fb 50 be d4 6a ae 3d
       0.055999 0.027817937 -0.20408294 0.085164696
000320 41 03 0d bb e7 93 63 bc dc be 0f be 8f ae 9b 3c
       -0.0021516832 -0.013890243 -0.14037651 0.019004134
000330 c3 27 49 3e 90 1f 43 3d 56 7f e8 bd e0 7e 39 bd
       0.19644074 0.047637522 -0.113524124 -0.045287013
000340 b2 c9 c6 3d 76 62 7d 3e cd 22 e0 bd d1 3f 98 3c
       0.09706439 0.24744591 -0.10944138 0.018585118
000350 c9 c0 26 3e 99 fb 7f 3e 9e e1 4f 3d 23 cc 39 3d
       0.16284479 0.2499832 0.050752275 0.045360696
000360 55 3c a6 bc 00 ec 19 3d 97 40 48 3e 36 ae c8 bd
       -0.02029244 0.037578583 0.19555889 -0.09798853
000370 66 d1 9b bd 58 fb e2 3d 76 e5 1a be 1d 6c 05 3d
       -0.07608299 0.11083096 -0.15126595 0.032573808
000380 e5 82 a1 bd 15 1f 30 be cb 0f fe bd 95 83 2e 3d
       -0.07886294 -0.17199357 -0.12405356 0.042605955
000390 52 22 28 3e 0f a2 4b 3e 82 a4 b8 bc 85 ad 25 3e
       0.16419342 0.19886039 -0.022539381 0.16179474
0003a0 8a b6 c7 3d 19 f6 ff 3d 31 91 93 3d 8c 5a 3c 3c
       0.097516134 0.12498111 0.072054274 0.011496197
0003b0 d2 03 e2 bd bb 6e d0 bd 4a 65 50 3d 8c db 87 bd
       -0.11035885 -0.1017737 0.050877847 -0.06633672
0003c0 c7 a8 d5 bc f2 92 a0 bd 11 5a d8 bd 14 77 48 bd
       -0.026081456 -0.078405276 -0.10564054 -0.048941687
0003d0 24 bc 63 3b 85 ce c2 3d 03 b0 24 be 4a 31 a0 3d
       0.0034749592 0.09512047 -0.16082768 0.07821901
0003e0 1a e6 c4 b7 5e cb 07 bd 47 64 6e bd 68 04 e3 3d
       -2.347217e-05 -0.03315293 -0.0582011 0.11084825
0003f0 0c 38 e3 3d 78 8a d0 3a 87 63 5c bd 25 a8 79 3d
       0.110946745 0.0015910408 -0.053805854 0.06095137

network_body._body_endoder.seq_layers.0.bias f4 [128]
000000 52 1e 27 3d ae 59 29 bc 34 e8 c5 ba 3e f8 a0 3c
       0.0408004 -0.010336323 -0.0015099109 0.019649621
000010 34 96 57 3b 2c 72 aa bc 87 6d 8d 3c c7 56 1c 3d
       0.0032895925 -0.020806395 0.01726414 0.038168695
000020 05 be d0 3b aa c8 76 bc 3f 16 24 b9 3d 9e c9 3c
       0.0063703083 -0.0150624905 -0.00015648546 0.024611587
000030 43 cb e1 bc c1 c6 18 bb 35 6d bc 3c ab 3d c6 3c
       -0.027562743 -0.0023311826 0.023001293 0.024199327
000040 d4 73 b4 3c 75 32 bd 3b 91 06 a2 bb e3 12 da 3c
       0.022027887 0.005773837 -0.0049446304 0.026620334
000050 2c 46 73 bc 7c 44 bb 3c 32 64 1a 3c 0e b7 2a 3d
       -0.014848273 0.022859804 0.0094233025 0.04167848
000060 9f bf 82 bb 31 5e a1 3c 8f dd 67 39 ba 95 33 3c
       -0.003990128 0.019698234 0.00022112414 0.010960991
000070 a4 a1 7e bc ce 6d 8e 3c d0 6b 11 3d 31 77 8e bc
       -0.015541468 0.017386343 0.03550321 -0.01739082
000080 50 bd 87 3c e8 e1 53 3c b2 ec 01 3c 88 56 c7 bc
       0.016569763 0.012932278 0.007929968 -0.024333254
000090 db 8c e0 39 4e 7c 73 ba f8 b4 4d 3c 89 a1 c6 bc
       0.00042829555 -0.0009288237 0.012555353 -0.024246948
0000a0 8c ba 7d bc 3e cd f5 3c 6f f6 cb 3c 14 ec 19 bc
       -0.015486371 0.030005094 0.024897782 -0.009394664
0000b0 81 da df bb e7 f3 1b 3d 6b fc a3 3c 4f 81 58 3d
       -0.0068314676 0.0380744 0.020017823 0.052857693
0000c0 fe 68 1e 3c cc 11 f3 3c 9e 1c d3 3c 97 a6 e1 3c
       0.009668587 0.029671572 0.025770482 0.027545257
0000d0 00 11 45 3c 94 66 02 3d 91 36 36 bc 8d f2 8f bc
       0.012027979 0.031836107 -0.011121408 -0.017571712
0000e0 13 24 a7 3c 44 ec 67 bc d3 18 d9 3c fc 22 de 3c
       0.020402944 -0.014155451 0.026501095 0.027116291
0000f0 c6 a2 1d 3c 49 05 db 39 5b 5e 91 3c 1f fa 86 3c
       0.009621328 0.00041774873 0.017745188 0.016476689
000100 b7 9e 43 3c 0f 2e c8 3c a1 f0 15 3d a5 27 7b 3c
       0.011939696 0.024436025 0.036606435 0.015329276
000110 55 f3 57 bc 2a df 0e 3c 6b 30 89 3c 18 81 02 3d
       -0.0131805735 0.008720199 0.01674672 0.031861395
000120 97 bb 9b 3c 0d 37 48 bc e9 cb 86 bc 42 fa d0 3b
       0.019010348 -0.012220156 -0.016454654 0.0063774893
000130 ca 99 db 3b ab 7a 8a 3c b5 21 f3 3c ef 7e a0 bc
       0.0067016827 0.016904196 0.029679159 -0.019591777
000140 ac 49 c2 bc c0 be 1e 3d 0e ef 6f bb 77 13 ce bb
       -0.02371677 0.038756132 -0.0036610994 -0.0062889415
000150 69 14 23 bc 02 23 15 3c a3 e3 b4 3c 5c d3 37 3d
       -0.009953597 0.009102585 0.022081202 0.044879302
000160 e5 6b 21 bb b9 8c 4e 3c 9d b5 d2 3c d6 f7 1b bc
       -0.002463096 0.012606793 0.025721366 -0.009519538
000170 31 3e 98 bc 30 72 83 bc 22 25 c0 bc 52 ec 53 3d
       -0.018584343 -0.01604566 -0.023455206 0.051739044
000180 2f 20 44 bc 14 13 0a bc 0c 8b a9 3c 1c fc fd 3c
       -0.011970564 -0.0084274 0.020696186 0.031004004
000190 c9 9a 01 3d f0 55 92 3c 48 dd e2 3c b1 ec 41 bc
       0.031641755 0.017863244 0.027693406 -0.011836217
0001a0 f3 7f 86 3c 26 44 7b 3c 22 09 be 3c c3 e9 af bb
       0.016418433 0.015336072 0.023197714 -0.0053684427
0001b0 70 32 c2 3c ba 57 04 3d 96 ee 07 3d 33 18 d5 3c
       0.023705691 0.032310225 0.033186518 0.026012516
0001c0 84 34 37 3d 59 32 ae 3c 11 06 a5 3c 52 1b bf bc
       0.044727817 0.021264242 0.020144494 -0.023328457
0001d0 4e 3b f7 3c 79 ac 01 bc 59 75 a7 3c a0 aa 18 bc
       0.030179646 -0.007914656 0.020441698 -0.009318024
0001e0 92 b2 80 3c c6 88 ac 3c 5c 80 de bc c5 2a 66 3c
       0.015710149 0.021061312 -0.027160816 0.014048283
0001f0 b8 d9 bc 3c ee 0d ca 3c 7a 96 d7 3c 95 d5 cb bc
       0.023053035 0.024664845 0.02631687 -0.024882117

network_body._body_endoder.seq_layers.2.weight f4 [128, 128]
000000 45 6c 6c be 27 33 32 be 42 a4 e9 bd 0c 7a 82 3d
       -0.23088177 -0.17402326 -0.11408283 0.06370935
000010 4f 39 f4 bd 37 60 ca bd 83 4b 97 3d b2 d6 b5 3d
       -0.11924993 -0.09881633 0.073874496 0.088788405
000020 17 47 c7 bd 9c 39 a6 bd 63 b2 0b bd 1c b4 78 3d
       -0.09730356 -0.08116457 -0.03410567 0.06071864
000030 b3 97 27 bd 9d 62 bd bd a3 7b 5a 3e fb 78 b1 3d
       -0.040916156 -0.092473246 0.21336226 0.08665653
000040 a8 2e 1b bc 3c 79 86 3c 1d 42 3a 3c 8b b0 de 3d
       -0.009471573 0.01641523 0.011368302 0.10873517
000050 a9 3f c2 3c f6 0b 88 3d 40 c9 b8 bd ef cc d3 3d
       0.023711996 0.06642906 -0.090227604 0.10341822
000060 d9 de ff bd 55 40 00 3e af 61 0d 3c 9c ca 32 3e
       -0.12493677 0.1252454 0.008629247 0.17460102
000070 df bd 98 bc ca dc 13 3d 53 f7 2c 3d 2d 9f f1 bc
       -0.018645225 0.036099233 0.042228054 -0.029494846
000080 0d b3 ba bc a1 b0 ae 3d c7 d6 ab bd b3 48 dc bd
       -0.022790456 0.08529783 -0.08390575 -0.10756054
000090 bd ec 05 bd e9 2d d8 bc ff 2a 18 be 40 62 e9 bc
       -0.032696474 -0.02638908 -0.14860152 -0.028489232
0000a0 4b 16 32 bb ec ba 59 3a 2f 97 96 3d 14 ce 87 bc
       -0.0027173932 0.00083057466 0.07353055 -0.016577758
0000b0 35 d0 5a bd 3e 29 b0 bc e0 e3 44 3d ca ca aa 3c
       -0.053421218 -0.02150404 0.04806888 0.02084865
0000c0 de eb 3a bd b5 9c 1a bd c3 6e 68 bc 2d ff 18 bc
       -0.045635097 -0.037747104 -0.014186564 -0.009338182
0000d0 07 fc d4 bc 0a 99 5a 3e 10 78 02 be 57 a2 3c bd
       -0.025999082 0.21347442 -0.12741113 -0.046053257
0000e0 78 a1 9b 3d 10 8e af 3d 23 95 f0 bd 6b 3e 1a bd
       0.07599157 0.08572018 -0.117471956 -0.037657183
0000f0 92 99 88 3c 3d 7d 66 bd 58 c6 cf bc 03 63 19 3d
       0.01667479 -0.05627178 -0.025363132 0.03744794
000100 48 da 9e bd d5 b5 8c 3d f4 cc b1 3c 38 9c 53 3d
       -0.077564776 0.06870619 0.021704175 0.051662654
000110 8e ad ad bd ca d2 a7 bd 73 81 19 3d 34 a0 e7 3d
       -0.084803686 -0.08194502 0.037476968 0.11309853
000120 84 73 ba bc aa 02 0f be a8 9e 86 bd 8b 8c 4c 3d
       -0.02276016 -0.1396586 -0.0657323 0.04993872
000130 b7 06 f3 3c 7d 11 ad 3d 5b 7a 36 3e e8 e6 9d bd
       0.029666288 0.08450601 0.17820112 -0.077100575
000140 2f 21 cf bd da cf f1 3d 42 d4 c8 bc 53 1d c4 bd
       -0.10113751 0.11807223 -0.024515275 -0.09575906
000150 72 6d 38 be 16 73 13 bd 14 49 09 be ba 9b d9 bd
       -0.180105 -0.035998426 -0.13406783 -0.106254056
000160 19 ba 50 bc d4 63 e3 3d 39 db ad 3d 00 1f ee bc
       -0.012739682 0.11103025 0.08489079 -0.029067516
000170 46 a5 15 3d 9e ff 1d bd 8a ae 67 be 58 7b 5d 3d
       0.03653457 -0.038573854 -0.22625175 0.054072708
000180 50 d7 73 3d ab 04 6d bd 7c a7 b6 3d 80 04 b8 bd
       0.05953151 -0.05786578 0.08918664 -0.08985233
000190 42 3b ed 3d 47 be d8 bc 49 b2 1e 3e 5a d9 16 bd
       0.11583568 -0.026457919 0.15497698 -0.036828376
0001a0 0d 12 40 bb a8 21 ce bd 02 47 e8 3d 67 f2 0a be
       -0.0029307634 -0.10065013 0.11341669 -0.13569032
0001b0 07 ae a6 3d 29 d2 0d 3d 63 68 e9 bd 25 53 2f bd
       0.08138662 0.034624252 -0.11396863 -0.042803902
0001c0 c0 05 54 3c 74 b4 1d be 44 15 45 bc ba cf be bd
       0.012940824 -0.15400869 -0.012028996 -0.093169644
0001d0 10 a0 60 bc 05 25 ac 3d ef c5 4b 3e de 0c d9 bc
       -0.013710037 0.084054984 0.19899724 -0.026495393
0001e0 c0 4d 0b bd 45 bd 69 3e 1c 59 7f be 08 c1 49 be
       -0.034009695 0.22826107 -0.24936336 -0.19702542
0001f0 3b d5 81 3d d4 23 59 3c ba a8 00 3e f6 f4 4f be
       0.063394986 0.013253171 0.12564364 -0.20308289
000200 98 ec 17 bd fa 98 42 be 0e 49 19 be a9 24 60 3d
       -0.037090868 -0.19003668 -0.14969274 0.05472246
000210 04 9c c9 bb a3 7a a1 bc 6b 5e 64 3d 0c df 7a 3d
       -0.0061526317 -0.019711798 0.055754106 0.06124787
000220 a2 74 82 3c 8f fa a0 bd 7b 85 db bd 8b b8 9e 3c
       0.015924755 -0.0786029 -0.10718819 0.019375106
000230 fe 67 27 be 46 56 2f bd eb 98 c8 3d 50 d2 ad bc
       -0.16348264 -0.042806886 0.09794792 -0.021218449
000240 be 36 20 3e 41 f2 ff bd 16 94 2c be 7c 94 5a bd
       0.15645882 -0.12497378 -0.16853365 -0.053364262
000250 4e 1d cf bd 2b d6 0a 3d 83 7f a8 bd 3f 03 07 bd
       -0.10113011 0.033895653 -0.08227446 -0.03296208
000260 98 93 14 3d aa a8 b6 3d 0b f4 fe 3c d3 ca 1d 3d
       0.03627357 0.08918889 0.031122228 0.038523506
000270 48 c7 0c be ca eb 2c 3e aa c1 de 3d 0a 5d 65 bd
       -0.13747895 0.16886821 0.10876782 -0.055996932
000280 e7 6a 19 3e 4a 66 14 be b3 10 97 3d 01 f1 79 3d
       0.14982186 -0.14492145 0.07376232 0.061020855
000290 f4 b3 c2 3c 5b 2e b2 bc 84 0e 24 be 85 cd f9 bb
       0.023767449 -0.02175062 -0.16021162 -0.007623377
0002a0 a7 b6 5c bd fb 16 af 3a a3 2f c5 bd ac 9d 7b 3d
       -0.05388513 0.0013358289 -0.096282266 0.061429664
0002b0 48 93 ee bd 99 e4 1a be 53 4d 3a be 10 b6 a6 bd
       -0.116491854 -0.15126266 -0.1819356 -0.081401944
0002c0 94 b8 93 3c 08 39 da 3d 55 f7 22 bd 99 bc 18 3d
       0.01803235 0.10655409 -0.039786655 0.037289236
0002d0 87 e7 05 3d ac 56 d2 bd 7e 9f 3d bb 11 ef 0e bc
       0.032691505 -0.102704376 -0.0028934176 -0.00872399
0002e0 1e 10 23 3d c2 94 cb bd db 00 45 3e 33 15 34 3e
       0.039810292 -0.09940483 0.19238608 0.17586212
0002f0 98 06 23 3d 10 3a 94 bd e4 39 b7 bd cc 01 8e bc
       0.03980121 -0.07237637 -0.08946589 -0.017334841
000300 f8 c8 f8 bd c5 bb f4 bd 24 14 87 bd bb 2d e5 bd
       -0.12147707 -0.11949877 -0.065956384 -0.11190363
000310 d2 17 55 ba 83 20 b8 3c c2 ca 2c 3c 42 1a 53 bd
       -0.00081288547 0.02247644 0.010546388 -0.051538713
000320 e5 97 3f 3d 07 69 e0 bd f4 94 b3 bd 1b 7d 0b 3d
       0.046775717 -0.109575324 -0.08768645 0.034054857
000330 d5 0c 34 be d1 4b 64 3c ee 25 72 3d bc f0 31 bc
       -0.1758302 0.013934092 0.059118204 -0.010860618
000340 88 e0 02 be 72 5c 08 3e 8b 59 f1 ba c7 cd d3 bc
       -0.12780964 0.13316515 -0.0018413527 -0.025854958
000350 4f 4e c1 3d 25 f7 5c bd 2d b5 02 3e a6 09 e7 3c
       0.09438764 -0.053946633 0.12764426 0.028202843
000360 43 e0 15 be 7d fe 93 bd 2d c5 3e bd 8c 7a f6 bc
       -0.1463633 -0.07226274 -0.04657476 -0.030087732
000370 2a 82 a0 ba 2a 15 9a bd e7 3a c4 bd 97 ff ca bd
       -0.0012245823 -0.07523568 -0.09581547 -0.09912031
000380 4d ff 9a be 32 e9 d7 bd 39 fa 9e 3d 7b 63 98 3b
       -0.30272904 -0.10542525 0.0776257 0.004650531
000390 2b aa 05 3d 3a 60 7a bd a3 c7 19 3d 0c 7b a0 3c
       0.032632988 -0.061126925 0.037543904 0.019589923
0003a0 7e 27 b0 bc 27 bd 28 3d 5d f6 23 3d ca df c5 bd
       -0.021503206 0.041196015 0.040029872 -0.09661825
0003b0 d7 f3 6a 3d c7 7a 6e 3d 46 4d af bd a1 7b b2 bd
       0.05736145 0.05822256 -0.085596606 -0.087149866
0003c0 0f ba ca bd d6 51 71 bd ae 00 6e bc 49 b8 1e be
       -0.09898769 -0.058915935 -0.014526529 -0.15499987
0003d0 82 49 4e 3e a9 ae d0 bd b7 e4 f1 3d 7a 75 16 bd
       0.20145229 -0.10189564 0.11811202 -0.036733128
0003e0 3d a5 03 3d 13 85 26 3d 4e 23 ee 3d 77 f8 97 3d
       0.032140005 0.040654253 0.116278276 0.07420438
0003f0 ea 16 9d 3d 07 b4 35 3d d0 30 e9 3d 30 51 66 bd
       0.07670386 0.04436114 0.11386263 -0.05622977

network_body._body_endoder.seq_layers.2.bias f4 [128]
000000 6b 67 c9 3c 87 3c a0 3c fa c6 85 bc 4b 05 b5 bc
       0.024585446 0.019560112 -0.016330231 -0.02209725
000010 a6 94 bc 3c 8d 9c 96 3c fe 13 16 bc ac 08 1e 3c
       0.0230201 0.018385196 -0.00916004 0.009645622
000020 41 87 53 3c a1 48 d4 3c 76 c3 92 3c 4b c5 0d 3d
       0.012910665 0.025913538 0.017915469 0.03461198
000030 d2 b7 b8 3c e4 22 06 3d c2 04 9f 3c fc 62 e3 3c
       0.02254859 0.032748118 0.019411448 0.02775716
000040 2d 9e ea 3c d9 5c b5 3c 80 1c 27 3d a1 ef 13 3d
       0.028639877 0.022139 0.040798664 0.0361172
000050 c4 5c df bb 78 5a c5 3c b2 5c a7 bc e5 58 d9 3c
       -0.0068164784 0.02409099 -0.020429943 0.026531646
000060 d3 a9 be 3c 17 4f c4 3c fe 14 14 3d c3 e7 d4 3c
       0.023274338 0.023963494 0.036152832 0.025989419
000070 81 5d 99 3c 72 5a cb 3c 25 3b 89 bb c1 4c e1 3b
       0.018721344 0.024823401 -0.004187959 0.006875605
000080 cf ed 59 3d 6f 80 b2 3c 11 29 c6 bb 63 77 2e 3c
       0.053205308 0.021789758 -0.006047376 0.010648581
000090 64 98 e5 3b d8 b9 91 3c 76 87 cb 3c 83 0d 4c bc
       0.007006692 0.017788813 0.024844866 -0.012454393
0000a0 55 1a ce 3c 38 71 d9 ba d9 10 38 3c 3b 8c dc 3c
       0.02515904 -0.0016589528 0.011234486 0.026922336
0000b0 cd ee d4 3c 55 79 ce 3c 37 6c 74 3c 2e 16 07 3c
       0.025992775 0.02520434 0.014918379 0.008245034
0000c0 90 da c5 bb 19 82 b2 3c 20 ca c5 3c 3a 76 ab bc
       -0.0060380176 0.021790551 0.024144232 -0.020930398
0000d0 db a2 0b 3b cd 1f bd 3c a6 58 ce 3c f3 23 b2 3c
       0.0021306786 0.023086453 0.025188755 0.021745658
0000e0 6a e7 cb 3c 52 27 2b bd 29 3b fb 3c 7f 6f 11 3c
       0.02489062 -0.041785546 0.030667858 0.00887668
0000f0 7f fc 7e 3c fd a5 17 bc 58 2c a0 3c 6f d5 12 3d
       0.015563129 -0.009255883 0.019552395 0.035848077
000100 42 44 93 3b 5e 91 c9 3c 48 9f 08 3d 28 6d e2 3b
       0.004494221 0.02460545 0.033355027 0.006909985
000110 3d 07 00 3d 08 b0 a3 3c c2 1a f0 3c 7b 89 5a 3c
       0.031256903 0.0199814 0.029309634 0.013338442
000120 c5 13 5c ba 7f 6d 4b bc a6 8d a0 3c 74 7a bc 3c
       -0.000839528 -0.012416243 0.019598793 0.023007609
000130 3f 15 e9 3c 95 b2 97 bc f0 2f 33 bc 9e ec 32 3d
       0.028452514 -0.018517772 -0.010936722 0.043682687
000140 05 9f 8b 3c d7 97 47 bc 87 24 c4 bc 36 90 a3 3c
       0.0170436 -0.0121821975 -0.023943199 0.019966226
000150 5c 8a 53 3c 61 01 10 3d a0 f6 f1 bb 56 dc 0c 3d
       0.012911405 0.035157565 -0.0073841363 0.034389816
000160 e3 53 00 bc cb e0 83 3c 9a 19 b2 bc b1 20 68 bc
       -0.0078325 0.0160984 -0.021740723 -0.0141679505
000170 5d b1 e5 bc d7 c0 93 3c 89 5d d3 3a e5 50 30 3c
       -0.028038675 0.01803629 0.0016125898 0.010761474
000180 62 95 44 3c 1c 56 98 ba d4 c7 08 3c bb a3 5b 3d
       0.011998506 -0.0011622342 0.008348424 0.053622942
000190 e7 86 e7 3c 00 ec b0 3c b6 92 d7 3c 94 48 8d 3c
       0.028262569 0.021596909 0.026315074 0.017246522
0001a0 a0 dc 9a 3c b7 50 07 bc f6 84 9c 3c 70 b1 25 3d
       0.01890403 -0.00825899 0.01910637 0.04045242
0001b0 1c c3 cd 3c ba bb b5 bc 80 05 07 3c 5d d5 92 3c
       0.02511745 -0.022184242 0.008241057 0.017924005
0001c0 33 79 bc 3c 53 4e 7f bc db 3a 69 3c 2b 9c 45 3b
       0.023007011 -0.015582639 0.014235224 0.0030152898
0001d0 46 4b d5 3c 0c 6b 5e b9 e8 78 81 3c b1 9c 09 bb
       0.02603687 -0.00021211448 0.015804723 -0.0020997936
0001e0 ff ca 60 3c 09 60 29 bc 44 71 f4 3b f9 ca 36 3c
       0.013720273 -0.010337838 0.0074597914 0.011156791
0001f0 91 b0 c1 3c 50 1d c6 3c 9c 4f 1a 3d 04 2f b7 3c
       0.023643764 0.0241839 0.037673578 0.022361286
