results/ppo/BasicXZ/BasicXZ-71632.onnx (onnx, 201284 bytes, 12 tensors)

network_body.observation_encoder.processors.0.conv_layers.0.weight f4 [16, 3, 8, 8]
0	0x3d209117	0.03920087
1	0xbd727e6a	-0.05920259
2	0xbd9edadc	-0.07756588
3	0x3d0750ec	0.033036157
4	0xbd04c05a	-0.032410003
5	0x3d5ee624	0.054418698
6	0x3da91b96	0.08257215
7	0x3c9649db	0.018345764
8	0xbcebd05b	-0.028785875
9	0xbd14ae0c	-0.036298797
10	0xbdc5777f	-0.09641933
11	0xbbb47770	-0.005507402
12	0x3c0522e0	0.008125991
13	0xbd860172	-0.065432444
14	0x3b4b0114	0.0030975984
15	0x3c9a3d39	0.018828021
16	0xbd429a0c	-0.04751019
17	0x3d9d646a	0.07685168
18	0xbd88bdba	-0.066768125
19	0x3d124af1	0.035716
20	0x3cd76af2	0.026296113
21	0xbd64f1bc	-0.0558946
22	0xbd26757b	-0.04063938
23	0x3b0f7418	0.0021889266
24	0xbbf0dea4	-0.0073507596
25	0xbd234132	-0.039857097
26	0xbda1abd3	-0.07894101
27	0xbdb230b8	-0.087006986
28	0xbd924d57	-0.07143658
29	0xbd136896	-0.035988413
30	0x3d1bb8d3	0.03801806
31	0xbd68bfa9	-0.056823406
32	0xbd4ceaf4	-0.050028756
33	0x3cf67899	0.030086802
34	0xbc2a79d0	-0.010405019
35	0xbd870b81	-0.06593991
36	0x3d361597	0.044454183
37	0x3c8def47	0.01732601
38	0x3c4a7063	0.012355897
39	0xbd194f10	-0.037428916
40	0xbccc3a38	-0.024930105
41	0x3d33b968	0.04387799
42	0xbcce35c6	-0.025172126
43	0x3c4bd19b	0.012440111
44	0x3cd6bb2e	0.026212301
45	0xbc3aa7c3	-0.011392537
46	0xbdca6d22	-0.09884097
47	0xbde1a9d6	-0.11018722
48	0xbc18a845	-0.009317462
49	0x3d554263	0.052065264
50	0x3d8e42c1	0.06946326
51	0xbca7a7eb	-0.020465812
52	0x3d016229	0.031587753
53	0xbd3cf0ff	-0.04612827
54	0xbd331958	-0.04372534
55	0x3d0eb131	0.03483695
56	0x3cf7ae10	0.030234367
57	0xbd9cf6c7	-0.076642565
58	0xbd8b0ad2	-0.06789173
59	0xbcffcaf1	-0.0312247
60	0x3cbdaffa	0.023155201
61	0xbddc064f	-0.10743391
62	0x3d32c476	0.04364439
63	0x3dae6529	0.085153885
64	0xbd15dd8c	-0.036588237
65	0x3c355c54	0.011069376
66	0x3c11dad5	0.008902271
67	0x3d6d518f	0.05793911
68	0xbcda6ba7	-0.02666266
69	0xbd79a8d1	-0.06095201
70	0x3cd1cbc6	0.025609862
71	0xbd41f4b3	-0.047352504
72	0xbc00bd39	-0.007857614
73	0x3cde23a3	0.027116602
74	0xbcea3fa3	-0.028594797
75	0x3d91d30e	0.071203336
76	0x3d82a0bb	0.06378313
77	0x3d32e76f	0.043677744
78	0x3d491400	0.04909134
79	0x3d840a6e	0.06447302
80	0xbd5321fe	-0.05154609
81	0xbd6d2c66	-0.05790367
82	0xbb9b5c54	-0.004741231
83	0xbd3a137f	-0.04542875
84	0xbbdca4a6	-0.006733495
85	0x3d45edd8	0.04832253
86	0xbd70d768	-0.058799177
87	0x3dadb41c	0.08481619
88	0xbd14be6b	-0.03631441
89	0x3d600ccf	0.054699715
90	0xbdc06b8b	-0.09395512
91	0x3d12ed04	0.035870567
92	0x3c423138	0.011852555
93	0xbc87c3cb	-0.016572854
94	0x3c394dd8	0.011310063
95	0xbda65ed4	-0.08123556
96	0xbd2885e9	-0.04114333
97	0xbd5e726d	-0.054308344
98	0xbd6267f4	-0.05527492
99	0xbbf7f523	-0.0075670644
100	0xbd6c348c	-0.0576673
101	0xbd806266	-0.06268768
102	0xbd7d96e3	-0.061911475
103	0xbd908964	-0.07057455
104	0x3c82d6dd	0.015971595
105	0x3b0b05d4	0.002121319
106	0xbd2a6d94	-0.041608408
107	0xbd0a5f2a	-0.03378216
108	0xbd21ae61	-0.03947294
109	0x3da08800	0.0783844
110	0xbce5dd53	-0.028059637
111	0x3befb7a9	0.007315595
112	0xbd5e86cd	-0.054327775
113	0x3cc5bcc5	0.024137864
114	0xbd96256b	-0.07331356
115	0xbd2f83db	-0.042850357
116	0xbc888376	-0.016664248
117	0x3dc06d60	0.093958616
118	0x3c7f2d18	0.015574716
119	0xbd5c496d	-0.05378096
120	0x3dc226ca	0.09480055
121	0x3bf25b43	0.007396133
122	0x3d3050b7	0.043045726
123	0x3d8439be	0.06456326
124	0xbd8796e6	-0.066205785
125	0x3cd55178	0.026039824
126	0x3da63cc3	0.08117058
127	0xbc45d084	-0.01207364
128	0x3d7fcb66	0.062449835
129	0xbd627b35	-0.05529328
130	0xbd5a4de7	-0.05329695
131	0xbd67204e	-0.056427293
132	0x3d835534	0.064127356
133	0x3c2bf4a9	0.010495343
134	0xbc8b8e04	-0.017035492
135	0x3b11be50	0.002223868
136	0x3d5aa382	0.05337859
137	0x3d82f8e0	0.063951254
138	0xbbcc30c4	-0.0062313993
139	0x3c8819db	0.016613891
140	0xbd0f3a4e	-0.034967713
141	0xbba03e68	-0.004890252
142	0xbab0b6af	-0.0013482178
143	0xbb3c9010	-0.0028772391
144	0xbd1553d8	-0.036456913
145	0xbd2518ac	-0.040306732
146	0xbbdaa735	-0.0066727647
147	0x3ac37577	0.0014912327
148	0x3d734dc2	0.059400328
149	0xbd76e003	-0.060272228
150	0x3d158bb6	0.03651019
151	0x3c413802	0.011793138
152	0x3bed3a06	0.007239583
153	0xbd96e221	-0.073673494
154	0xbd369d3c	-0.044583544
155	0xbd48c094	-0.04901178
156	0xbd627a69	-0.05529252
157	0xbd2e3fb7	-0.042541232
158	0xbcd90ffd	-0.026496882
159	0xbb5bdfbf	-0.003355011
160	0xbbc2f50e	-0.005949623
161	0x3c013958	0.007887207
162	0xbc8bb413	-0.01705364
163	0xba1a56ec	-0.0005887586
164	0xbcaaa88f	-0.020832328
165	0xbbf1132b	-0.0073570213
166	0x3cccd0ff	0.025002
167	0x3d10de30	0.035368145
168	0xbc918d58	-0.017767593
169	0x3da5ce0e	0.080959424
170	0xbcf8b045	-0.03035749
171	0x3d5d1a14	0.05397995
172	0x3d4dbffd	0.050231922
173	0xbdb97908	-0.09056288
174	0xbbf9befc	-0.007621644
175	0x3db362c5	0.08759073
176	0x3d90b7f1	0.07066334
177	0x3da8b64f	0.082378976
178	0x3cad6dba	0.021170486
179	0x3ca4f868	0.02013798
180	0x3d179a88	0.037012607
181	0x3c34934a	0.011021445
182	0xbcee3dcb	-0.0290822
183	0xbcc21a7a	-0.023694266
184	0x3c8b9e13	0.01704315
185	0x3dad8cc2	0.08474113
186	0x3db9ed04	0.0907841
187	0x3d2fa765	0.04288425
188	0x3c6d1b3b	0.014471824
189	0x3d33e8b0	0.04392308
190	0xbca864db	-0.020555904
191	0xbce1dd7c	-0.027571432
192	0x3c4ee6ba	0.012628252
193	0xbd6706a5	-0.05640282
194	0xbc67af9f	-0.014140992
195	0x3d779b12	0.06045062
196	0xbd7fa82c	-0.06241624
197	0x3b5fea4a	0.0034166747
198	0x3d99faba	0.075185254
199	0xbca0e295	-0.019639293
200	0x3d87a2be	0.066228375
201	0x3da70eec	0.08157143
202	0x3d3b3d57	0.045712795
203	0xbd66af85	-0.056319732
204	0x3d0bbb0e	0.034113936
205	0xbbc8adc1	-0.0061242287
206	0xbd0608d2	-0.032723255
207	0x3c45f8a3	0.012083205
208	0x3cc695ae	0.024241295
209	0x3d0d64cb	0.03451995
210	0xbd161ed6	-0.0366505
211	0x3c845e4a	0.016158242
212	0x3d2fc6d2	0.04291422
213	0xbccafdf3	-0.024779296
214	0xbd501d55	-0.050809223
215	0xbd51caea	-0.051218905
216	0xbd0eeec2	-0.034895666
217	0x3c3b7330	0.011441037
218	0xbd39cf5f	-0.04536378
219	0xbd7c277b	-0.06156109
220	0xbd23304e	-0.03984099
221	0x3d0a261e	0.033727758
222	0x3d934eea	0.07192786
223	0x3d3e4fe9	0.046462927
224	0x3c2b28c9	0.010446736
225	0x3d296771	0.041358415
226	0xbd87933f	-0.06619882
227	0xbd953df2	-0.07287206
228	0xbd07a98d	-0.03312068
229	0x3d1f5c53	0.038906407
230	0x3c9c137b	0.019052258
231	0xbb482771	-0.0030541087
232	0x3cd0488f	0.025425224
233	0xbcccb375	-0.024987916
234	0xbc88bbf1	-0.01669118
235	0x3bd897f2	0.00660991
236	0xbce7ad4c	-0.028280877
237	0x3d874d0a	0.06606491
238	0xbd9bed3d	-0.07613609
239	0xbb9eb140	-0.004842907
240	0xbda251d3	-0.07925763
241	0x3d128e0a	0.03577999
242	0xbcc1e43a	-0.023668397
243	0x3cdd6f6c	0.02703067
244	0x3d48cb6c	0.049022123
245	0x3d8a61e4	0.067569524
246	0x3d5c6c8b	0.053814452
247	0xbceceb6d	-0.028920854
248	0x3ceb4653	0.028720057
249	0x3ba25879	0.0049543944
250	0x3d49b947	0.04924896
251	0x3c8cde38	0.017195806
252	0x3d9ea2c5	0.077458896
253	0xbd94fc31	-0.07274664
254	0x3d1dfdac	0.038572
255	0x3d31da65	0.043421168

network_body.observation_encoder.processors.0.conv_layers.0.bias f4 [16]
0	0xbdae7003	-0.08517458
1	0xbd3ef2e9	-0.046618376
2	0xbce58d51	-0.028021486
3	0x3d2205a0	0.039556146
4	0x3cc5f793	0.024165904
5	0xbc71205c	-0.014717188
6	0x3d9bf0e9	0.07614309
7	0xbd36c341	-0.044619802
8	0xbd54b70e	-0.051932387
9	0x3d1473be	0.036243193
10	0xbd8d0682	-0.06886007
11	0xbd1a9524	-0.037739888
12	0xbd1b5b9d	-0.037929166
13	0xbd9a275d	-0.07527039
14	0x3cbde628	0.023181036
15	0x3d7bf7a7	0.061515477

network_body.observation_encoder.processors.0.conv_layers.2.weight f4 [32, 16, 4, 4]
0	0xbd71d907	-0.059044864
1	0xbd134f4f	-0.035964306
2	0x3d6f1233	0.058366966
3	0x3db89b27	0.09013968
4	0x3d942ec0	0.07235479
5	0x3c9c0418	0.01904492
6	0x3d8159a2	0.06315924
7	0x3d48995f	0.04897439
8	0x3c9b20aa	0.018936474
9	0x3bd813d3	0.00659416
10	0xbc85e8cf	-0.016346363
11	0x3cac35ae	0.02102169
12	0xbc012a80	-0.007883668
13	0xbd24fd5e	-0.040280692
14	0xbd630770	-0.055427015
15	0xbd234c20	-0.03986752
16	0x3c85a4be	0.016313907
17	0x3d1c6abe	0.038187735
18	0xbd84d6dd	-0.064862944
19	0x3df215fa	0.11820598
20	0xbd0a4dd1	-0.033765618
21	0xbd0b5520	-0.03401673
22	0xbccedeb2	-0.025252674
23	0x3b3c639a	0.002874589
24	0xbcdbe063	-0.026840394
25	0x3cf9135d	0.030404741
26	0xbb9ebea8	-0.0048445053
27	0xbd7f8fd3	-0.06239302
28	0xbccb6fc6	-0.024833571
29	0x3d2b6cc0	0.04185176
30	0xbce27f90	-0.027648717
31	0xbd80b3e1	-0.06284309
32	0xbca8b9c2	-0.020596389
33	0xbc4abccd	-0.012374115
34	0x3d77b1a9	0.060472164
35	0x3b63d1a4	0.0034762407
36	0x3daca7dc	0.08430454
37	0x3d8f970e	0.07011233
38	0xbd1bef66	-0.038070105
39	0x3c5eedfe	0.013606546
40	0x3d5a12b9	0.05324051
41	0x3cf770e0	0.03020519
42	0x3d9225d3	0.07136121
43	0x3ccf2e12	0.025290523
44	0xbcb0189e	-0.021496113
45	0x3d85fc90	0.06542313
46	0xbc830c85	-0.01599718
47	0x3dcacd32	0.09902419
48	0xbd2aa113	-0.04165752
49	0xbd5635da	-0.05229745
50	0xbd5f947a	-0.054584958
51	0xbd21555a	-0.03938804
52	0x3b92ff98	0.0044860356
53	0xbc4458fd	-0.011984107
54	0xbc9d1435	-0.019174675
55	0x3c2ca118	0.010536455
56	0xbcb10c35	-0.021612266
57	0x3c892da7	0.016745402
58	0x3c846894	0.016163148
59	0x3b153146	0.0022764965
60	0xbd5851cb	-0.05281238
61	0x3c9b4618	0.018954322
62	0xbbe136d1	-0.0068729897
63	0x3bffbce4	0.0078045
64	0x3d86be0a	0.06579216
65	0x3be6ace6	0.007039654
66	0xbce21d34	-0.027601816
67	0x3d0047e0	0.031318545
68	0xbcb4c3c6	-0.022066008
69	0x3d061e85	0.03274395
70	0xbd82a442	-0.06378986
71	0x3c281139	0.010258012
72	0x3afce65f	0.001929473
73	0xbd1e926f	-0.03871387
74	0x3c4072b1	0.011746095
75	0x3cb31baa	0.021863777
76	0xbcfe2252	-0.031022225
77	0x3c63b32b	0.013897697
78	0xbccf9f36	-0.025344472
79	0xbd56170a	-0.052268066
80	0x3d8d4070	0.06897056
81	0xbd46c297	-0.04852542
82	0xbcb4bb25	-0.022061894
83	0x3cb33dfe	0.021880146
84	0x3d87e302	0.06635095
85	0x3d243777	0.040091958
86	0xbce3f72f	-0.027827827
87	0x3c378c34	0.011202861
88	0x3c8205d4	0.01587192
89	0x3dd49755	0.10380427
90	0x3cd5c691	0.02609566
91	0x3d8c8b05	0.06862453
92	0xbcf3f322	-0.02977902
93	0xbc2f375b	-0.01069435
94	0x3d1836a7	0.037161496
95	0xbca9e311	-0.020738157
96	0xbcdb8af5	-0.026799658
97	0x3cac625d	0.021042997
98	0xbace4845	-0.0015738091
99	0x3b50868f	0.0031818484
100	0x3ba4ee78	0.0050333105
101	0x3d162b99	0.03666267
102	0xbcb80b58	-0.022466347
103	0x3d04d97b	0.032433968
104	0x3c8dee65	0.01732559
105	0xbc91c47a	-0.017793883
106	0x3c836e57	0.016043825
107	0x3cded0dc	0.027199201
108	0xbd841a04	-0.064502746
109	0x3d23f476	0.040028058
110	0x3cbc9ef0	0.023025006
111	0x3c35d249	0.011097499
112	0x3c1aa026	0.009437596
113	0x3c5c6e3f	0.013454019
114	0x3d5ec15a	0.054383613
115	0x3aace77f	0.001319155
116	0x3c9243ff	0.017854689
117	0x3d3791cb	0.044816773
118	0x3d482f68	0.048873335
119	0x3cc8d3eb	0.024515113
120	0x3d716bdf	0.058940765
121	0xbd7107f6	-0.058845483
122	0xbc748644	-0.01492459
123	0x3d22d4dc	0.03975378
124	0xbd0282d0	-0.031863034
125	0x3bdaa1a3	0.0066721006
126	0xbce27973	-0.027645802
127	0x3d3a475b	0.045478206
128	0xbdb52da2	-0.088465944
129	0x3aa6533c	0.0012689601
130	0x3c1d95c8	0.00961823
131	0xbc988288	-0.01861693
132	0x3d83f364	0.064429075
133	0xbd017e52	-0.03161461
134	0x3aabf075	0.0013117926
135	0xbc31f950	-0.010862663
136	0xbd07c489	-0.033146415
137	0xbdb25d11	-0.08709157
138	0xbd421cbc	-0.047390684
139	0xbcf98be6	-0.030462217
140	0xbc5b6236	-0.0133901145
141	0xbd54bdd3	-0.051938843
142	0xbbc22f5d	-0.0059260563
143	0xbccfe4c9	-0.025377648
144	0xbcd47694	-0.025935449
145	0xbc4b5464	-0.012410257
146	0x3c8aca5a	0.016942192
147	0xbd3eee31	-0.046613876
148	0x3d8b8a81	0.06813527
149	0xbd2ed50b	-0.042683642
150	0xbd45e7fd	-0.048316944
151	0x3be3f915	0.006957183
152	0x3d592c3b	0.053020697
153	0xbca12ce0	-0.019674718
154	0x3d7e7406	0.062122367
155	0xbd4eb11f	-0.050461885
156	0xbd001f6b	-0.031279963
157	0xbd53b937	-0.051690307
158	0x3d75a333	0.059970092
159	0xbd27bb40	-0.04095006
160	0x3d3e9c37	0.046535697
161	0xbc8743dd	-0.016511852
162	0xbdd058f7	-0.10173219
163	0x3e14effe	0.14544675
164	0x3d1b7f19	0.037963007
165	0xbbba4c3e	-0.0056853583
166	0x3d3e06ef	0.04639333
167	0x3ba39697	0.004992317
168	0x3b0c5277	0.0021411458
169	0xbc113a77	-0.008864037
170	0xbbc15506	-0.005900028
171	0x3c189cfc	0.009314772
172	0x3cb0e229	0.021592217
173	0xbce49a37	-0.027905567
174	0xbc2fa064	-0.010719392
175	0x3da3640c	0.07978067
176	0x3d4a9faf	0.049468692
177	0xbc8a3456	-0.016870659
178	0xbb8e9f4a	-0.004352485
179	0x3d2c8b74	0.04212518
180	0xbd254ce8	-0.040356547
181	0xbc1665d4	-0.009179551
182	0x3d8ba6d2	0.06818928
183	0xbc38f443	-0.011288705
184	0xbc4b2ef2	-0.012401329
185	0xbc30486f	-0.010759457
186	0xbd1de501	-0.038548473
187	0x3b8c75c5	0.0042865
188	0xbdaa0a7b	-0.0830278
189	0xbcd09b14	-0.025464572
190	0x3d0ed341	0.034869436
191	0xbd3ff487	-0.04686406
192	0xbd62e55a	-0.055394508
193	0x3c48e303	0.012261155
194	0xbc1e3208	-0.009655483
195	0x3d26f950	0.040765107
196	0x3dadd798	0.08488387
197	0xbc86847e	-0.0164206
198	0x3da79923	0.081835054
199	0xbb4e8711	-0.0031513611
200	0x3b06e41c	0.002058274
201	0x3d5ca24d	0.05386572
202	0x3cd898cf	0.026440052
203	0x3d5da127	0.054108765
204	0x3d91ed9c	0.071253985
205	0x3d128ee4	0.035780802
206	0xbc33b8dd	-0.010969368
207	0xbc8ae98c	-0.016957067
208	0xbd1e9040	-0.038711786
209	0xbcdb5b57	-0.026776953
210	0x3c87f04f	0.01659408
211	0x3d095086	0.03352406
212	0x3d617e92	0.055052347
213	0xbd88726c	-0.06662449
214	0xbd2d8c2e	-0.042370014
215	0x3c9c6647	0.019091738
216	0x3ca8c424	0.02060134
217	0xbd4f007f	-0.050537582
218	0xbcabf3ec	-0.020990334
219	0xbcef4fee	-0.029212918
220	0xbc8b0ae7	-0.016972972
221	0xbdccfa42	-0.100086704
222	0xbcd3dd5b	-0.025862386
223	0xbdbac560	-0.091196775
224	0x3d0bff41	0.034178976
225	0xbd2d5256	-0.04231485
226	0x3bc485a8	0.0059973784
227	0x3c4ed90a	0.012624988
228	0x3cd33cab	0.025785765
229	0xbc5bcea4	-0.013415966
230	0xbcf6325a	-0.030053306
231	0x3cd43da3	0.025908297
232	0x3c9bf4c8	0.01903762
233	0xbc31d6ff	-0.010854482
234	0x3d16b1a5	0.03679051
235	0xbd414512	-0.04718501
236	0x3ce9bf38	0.028533563
237	0x3c3fc761	0.0117052505
238	0xbd215a3f	-0.039392706
239	0x3d449c96	0.048000894
240	0xbcc88f5c	-0.024482422
241	0xbd3553b2	-0.04426927
242	0x3d7a2a01	0.061075214
243	0xbcfbfbf5	-0.03075979
244	0x3d5dc842	0.05414606
245	0x3d2da3bd	0.04239248
246	0xbcd91d33	-0.026503181
247	0xbd825821	-0.063644655
248	0xbd64347e	-0.055714123
249	0x3c7454dd	0.014912811
250	0x3d3b3168	0.045701414
251	0xbd883126	-0.06649999
252	0xbc3d1145	-0.011539762
253	0x3d18d0b1	0.0373084
254	0x3d419ed2	0.047270603
255	0x3ce65951	0.028118761

network_body.observation_encoder.processors.0.conv_layers.2.bias f4 [32]
0	0xbd366a31	-0.044534866
1	0xbd9ae5cc	-0.075633615
2	0xbd169f54	-0.03677304
3	0x3d8e0b79	0.06935782
4	0x3c2160e1	0.009849758
5	0x3d55b502	0.052174576
6	0xbd231c9d	-0.03982221
7	0xbca5c2ed	-0.02023455
8	0x3d383e02	0.04498101
9	0xbd716f80	-0.058944225
10	0xbcc482f2	-0.02398822
11	0xbd3f9854	-0.04677613
12	0xbd5fddff	-0.05465507
13	0x3d825e12	0.06365599
14	0xbce70b90	-0.028203756
15	0x3d665ff1	0.05624384
16	0x3d24a8b6	0.040199958
17	0x3d54c04f	0.051941212
18	0x3c416fc4	0.011806432
19	0x3c350a47	0.011049814
20	0x3d65d7c8	0.05611399
21	0x3d901214	0.07034698
22	0xbc46b70e	-0.012128605
23	0xbc9f019c	-0.019409947
24	0xbd36886c	-0.044563696
25	0x3d2736d6	0.04082378
26	0x3cb7bc67	0.022428704
27	0x3d8fc73d	0.070204236
28	0xbcb5dc86	-0.02219988
29	0xbd2e09d3	-0.042489838
30	0xbcc69b58	-0.024243996
31	0xbd867b08	-0.06566435

network_body.observation_encoder.processors.0.dense.0.weight f4 [128, 32]
0	0x3e685183	0.22687344
1	0x3d83e8ad	0.06440864
2	0x3ea483c7	0.32131788
3	0x3e862e8e	0.26207393
4	0x3cb7e0d3	0.022446072
5	0x3ca3ce83	0.019995933
6	0xbdbcf1eb	-0.0922583
7	0xbebd9b18	-0.3703239
8	0xbea9855f	-0.33109567
9	0xbe26e535	-0.16298373
10	0xbe27c383	-0.16383176
11	0xbd54ac12	-0.05192191
12	0x3e1f873b	0.1557893
13	0xbe0a9031	-0.13531567
14	0xbe86c3e4	-0.26321328
15	0xbed7b829	-0.4213269
16	0xbc0375ed	-0.008023721
17	0xbdfca088	-0.123353064
18	0x3d837f90	0.06420815
19	0x3da8119c	0.08206484
20	0xbe39fd5b	-0.18163054
21	0xbdb07cd1	-0.08617557
22	0xbe99efe8	-0.30065846
23	0x3c95bc04	0.01827813
24	0xbdce365f	-0.10068964
25	0xbdae7a03	-0.08519366
26	0x3ee358bb	0.44403633
27	0xbeb0fc3e	-0.34567446
28	0x3efa8d7d	0.48936072
29	0x3e921b50	0.28536463
30	0x3dea72ea	0.11447699
31	0xbe87397e	-0.2641105
32	0x3e91c63a	0.28471547
33	0xbe7872d2	-0.2426255
34	0xbd5101e7	-0.051027205
35	0x3aa48273	0.0012551084
36	0x3d2630dc	0.04057394
37	0x3ecf086f	0.40436122
38	0xbea59c7d	-0.32345954
39	0x3d0406ae	0.032232933
40	0xbe6b5c40	-0.2298441
41	0x3ec877c7	0.39153883
42	0x3ef8e061	0.48608688
43	0x3e9dc410	0.30813646
44	0xbdf4f655	-0.119610466
45	0x3ee996b2	0.45622784
46	0x3cb7c0eb	0.022430858
47	0x3bb96588	0.0056578554
48	0x3d7ed875	0.06221815
49	0x3e01c62d	0.12673254
50	0x3a96602c	0.0011472753
51	0x3ee5641f	0.4480295
52	0x3da5de54	0.08099046
53	0xbe860632	-0.26176602
54	0x3e170abb	0.14750187
55	0xbe93ea7d	-0.28889838
56	0xbea9b58b	-0.3314632
57	0xbd8fd48c	-0.07022962
58	0x3dd5c811	0.1043855
59	0xbde78b8f	-0.113059156
60	0xbdb5436e	-0.08850752
61	0xbddc45d9	-0.1075551
62	0xbd3888be	-0.045052283
63	0x3f024330	0.5088377
64	0xbe91d506	-0.28482836
65	0x3ea0c40e	0.31399578
66	0xbd889fd0	-0.06671107
67	0xbeccbcb3	-0.39987716
68	0xbe1945aa	-0.14967981
69	0xbdddb32e	-0.108251914
70	0x3eb2401f	0.34814546
71	0x3ed8796f	0.42280146
72	0x3e60bd5b	0.21947233
73	0xbf006cbb	-0.5016591
74	0x3dc3d703	0.095624946
75	0xbea71b26	-0.326379
76	0x3e91a76d	0.28448048
77	0x3e8c1397	0.27358696
78	0xbe80ab6e	-0.2513079
79	0x3e380db8	0.17973983
80	0xbd812ca0	-0.0630734
81	0xbe645424	-0.22297722
82	0xbdc0e7b0	-0.09419191
83	0xbeb47c0f	-0.352509
84	0x3e0df623	0.13863425
85	0x3e19fe29	0.1503836
86	0xbe102976	-0.14078316
87	0x3e8fb1ef	0.2806544
88	0x3e8e6fc3	0.27819642
89	0xbde0c18c	-0.10974416
90	0x3e0dc199	0.13843383
91	0x3e96d24e	0.29457325
92	0x3e095813	0.13412504
93	0x3e05b65e	0.13057849
94	0x3ec33477	0.38125965
95	0x3dd431cb	0.1036106
96	0xbda33556	-0.079691574
97	0x3ea7780f	0.32708785
98	0x3e0af971	0.13571717
99	0xbe228eac	-0.15874738
100	0x3eba1853	0.36346683
101	0x3e829303	0.25502786
102	0xbe6779ac	-0.22605008
103	0xbec3629b	-0.38161168
104	0xbde498a9	-0.1116193
105	0xbe01f45c	-0.12690872
106	0xbe16de96	-0.14733347
107	0xbebb44b1	-0.36575845
108	0xbe46a154	-0.1939748
109	0xbef2b3e3	-0.47402868
110	0xbdd20459	-0.102547355
111	0x3e8a43b3	0.27004775
112	0xbdffef9c	-0.12496874
113	0x3d7ba6ac	0.061438248
114	0x3e8503b5	0.2597939
115	0xbd35303b	-0.04423545
116	0x3d80dce8	0.062921345
117	0xbd886182	-0.06659223
118	0xbe22ffb0	-0.1591785
119	0xbe97c350	-0.296412
120	0x3eccd3c6	0.4000532
121	0xbeaf15c7	-0.34196302
122	0xbdd0352b	-0.10166391
123	0x3d5cf4ab	0.05394427
124	0xbd45d411	-0.048297945
125	0x3d19b037	0.037521567
126	0xbea63bdc	-0.32467544
127	0x3f2a4c80	0.6652298
128	0xbdddd499	-0.108315654
129	0xbf17d1da	-0.59304583
130	0x3e6e918e	0.23297712
131	0x3c377eb5	0.011199643
132	0x3de9578a	0.1139365
133	0x3e13424a	0.14380756
134	0x3d1c7700	0.038199425
135	0x3e1c475c	0.15261596
136	0xbda18584	-0.07886794
137	0x3e663798	0.22482145
138	0x3f079e43	0.52975863
139	0x3dfabb87	0.12242799
140	0xbe492d9f	-0.1964631
141	0xbb8e1f07	-0.004337195
142	0x3ed94792	0.42437416
143	0x3e8d2dba	0.2757395
144	0x3df50105	0.11963085
145	0xbd7f31dc	-0.06230341
146	0xbe37dc42	-0.17955115
147	0xbe0c179f	-0.13680886
148	0x3e0ba3e6	0.13636741
149	0x3d94713f	0.072481625
150	0x3e2af479	0.16694821
151	0xbedcbf7f	-0.4311485
152	0xbe84c30d	-0.25930062
153	0x3c496c53	0.012293893
154	0x3f30c2bb	0.69047135
155	0xbe5b8755	-0.21438344
156	0xbd33db06	-0.04391005
157	0xbf0cf6c6	-0.55064046
158	0xbdce0b16	-0.10060708
159	0xbdb21803	-0.08695986
160	0x3ee57f03	0.44823465
161	0x3d9d6db7	0.07686942
162	0xbe3612ec	-0.17780656
163	0xbe465bae	-0.1937091
164	0x3c7c4d16	0.015399238
165	0xbf2c2cd5	-0.6725591
166	0xbecadbdf	-0.39620873
167	0xbe21ad5e	-0.1578879
168	0xbf0d9529	-0.55305725
169	0x3eb5ef30	0.35534048
170	0x3eb4aa1d	0.35286036
171	0xbde298a4	-0.1106427
172	0xbd5e5266	-0.0542778
173	0x3d065919	0.032799814
174	0x3e2e1be3	0.17002825
175	0x3d472cf8	0.04862687
176	0x3e9e28d3	0.3089052
177	0x3e3ae88d	0.18252774
178	0xbe136541	-0.14394094
179	0x3e614725	0.21999796
180	0x3e3cf2c8	0.18451989
181	0xbdabc9d4	-0.08388105
182	0x3ee8c8cf	0.45465705
183	0x3d9233d0	0.07138789
184	0x3e38bd0d	0.18040867
185	0x3e43aabf	0.19108103
186	0x3e1e29f9	0.15445699
187	0xbec2eec3	-0.38072786
188	0x3d6210b9	0.05519173
189	0xbe2e17a5	-0.17001207
190	0x3dfda045	0.123840846
191	0xbd96d58b	-0.07364949
192	0x3e3578d4	0.17721874
193	0xbe8786b2	-0.26469952
194	0x3e2df1ea	0.16986814
195	0xbe6d38d7	-0.23166214
196	0xbe8afa34	-0.27144015
197	0x3e5f3a09	0.21799482
198	0x3eab1f95	0.33422533
199	0xbdb0dfcd	-0.086364366
200	0x3e95fa5d	0.29292575
201	0xbea4c426	-0.321809
202	0x3d2ef444	0.04271342
203	0xbd8b36e3	-0.06797578
204	0x3ec9523e	0.39320558
205	0x3d9855ae	0.07438217
206	0xbe929f55	-0.28637186
207	0x3e346fe6	0.17620811
208	0x3ef4154c	0.47672498
209	0xbe3f903d	-0.18707366
210	0x3b2490ad	0.0025110648
211	0x3dc951c5	0.098300494
212	0x3d7fcda7	0.062451985
213	0x3e94f5ce	0.29093784
214	0xbe15aefa	-0.1461753
215	0xbe12b62b	-0.14327304
216	0xbe5cf81c	-0.21579021
217	0xbeab6258	-0.33473468
218	0x3d8521b9	0.06500573
219	0x3c9584eb	0.018251857
220	0x3d95ab08	0.07308012
221	0x3eb1f3d1	0.3475633
222	0xbe84d652	-0.25944763
223	0xbd425a43	-0.04744936
224	0x3cfe5e82	0.031050924
225	0xbe8d2e45	-0.27574363
226	0x3d05f9f0	0.032709062
227	0x3e68880b	0.22708146
228	0x3ddd2bdc	0.10799381
229	0xbcb17a80	-0.021664858
230	0x3daa19f5	0.08305732
231	0xbdef4a2a	-0.116840675
232	0x3ce92351	0.028459223
233	0x3f08b028	0.53393793
234	0x3ee6c062	0.4506865
235	0xbe35535f	-0.17707585
236	0x3e11bae5	0.14231451
237	0xbe841151	-0.2579446
238	0x3e7d5a95	0.24741586
239	0x3ead8dec	0.3389734
240	0x3e8371e1	0.2567282
241	0x3f196e08	0.5993352
242	0x3e3b8fc5	0.18316562
243	0xbca21331	-0.019784542
244	0x3e74a9be	0.23892877
245	0xbe5f3241	-0.21796514
246	0xbe556fe4	-0.20843464
247	0xbea753f2	-0.32681233
248	0xbf0b66f1	-0.5445395
249	0x3e66495f	0.22488926
250	0x3e9e773a	0.30950338
251	0xbeba9a85	-0.36446014
252	0x3eff7668	0.49895024
253	0xbe32745c	-0.174272
254	0xbe0bf5a7	-0.13667928
255	0xbd3d450c	-0.046208426

network_body.observation_encoder.processors.0.dense.0.bias f4 [128]
0	0xbc90bf95	-0.017669478
1	0x3c2f6b31	0.010706709
2	0x3ca9b4af	0.02071604
3	0xbd106369	-0.035251055
4	0x3caecf88	0.021339193
5	0xbbebeebf	-0.0072000916
6	0x3c94d2d8	0.018166944
7	0x3c40517b	0.011738176
8	0x3be91ab1	0.0071137776
9	0x3c869452	0.016428147
10	0x3ca22ad4	0.019795813
11	0xbc6bb5c8	-0.014386602
12	0x3c2e61e8	0.01064346
13	0x3c3f4353	0.011673766
14	0xbc8931ee	-0.016747441
15	0x3b36374b	0.0027803953
16	0x3cc666f8	0.024219021
17	0x3c19d82d	0.009389919
18	0x3cb36728	0.021899775
19	0x3cc793b9	0.024362432
20	0xbbefa57a	-0.0073134275
21	0x3c1c0c66	0.00952444
22	0xbc9fa207	-0.01948644
23	0x3c9a2d3a	0.018820394
24	0x3c871ccb	0.016493222
25	0x3cb5a146	0.022171628
26	0x3cb2f39c	0.021844678
27	0x3cb413f5	0.021982173
28	0xbbd7045b	-0.0065617985
29	0x3cafeadf	0.0214743
30	0x3ca171be	0.019707557
31	0x3cd5db56	0.026105564
32	0x3cd7d697	0.026347442
33	0xbca52afb	-0.020162096
34	0x3c1b9a29	0.009497204
35	0x3c689300	0.014195204
36	0x3c76ef64	0.015071724
37	0x3cad124b	0.021126887
38	0x3cbb8129	0.022888737
39	0x3c99dd21	0.0187822
40	0x3ccbd214	0.024880446
41	0x3cd428a9	0.025898295
42	0x3c8cb98a	0.017178316
43	0xba28e19e	-0.0006442311
44	0xbc943993	-0.01809386
45	0xbc5173ba	-0.012783939
46	0xbcd10112	-0.025513206
47	0x3cc277e7	0.023738815
48	0x3d183607	0.0371609
49	0x3c0af7e3	0.008481952
50	0x3c729e9e	0.014808325
51	0xbd00f0e6	-0.03147974
52	0xbc2aefa0	-0.010433108
53	0xbc298dc9	-0.010348746
54	0x3c5e4b59	0.013567769
55	0x3ca993bf	0.020700334
56	0x3bad2e39	0.005285051
57	0x3cbd301f	0.023094235
58	0xbce325c1	-0.027727963
59	0x3cc3716a	0.023857791
60	0x3cb0a3b6	0.021562438
61	0xbbfd0327	-0.007721323
62	0xbc2bdd7e	-0.01048982
63	0x3bfc929d	0.0077079074
64	0x3cb89a23	0.022534436
65	0xbcb3cfd9	-0.021949695
66	0xbb098ecb	-0.0020989652
67	0x3c5a60bb	0.013328726
68	0x3ccc44db	0.024935177
69	0xbc6f3545	-0.014600103
70	0x3ce244c2	0.027620677
71	0xbca55d58	-0.020186111
72	0x3ca586ea	0.020205934
73	0x3c9dbdcf	0.019255547
74	0xbca481dd	-0.020081455
75	0x3cdb87f8	0.026798233
76	0x3c0d6fcc	0.0086326115
77	0x3ac1da05	0.0014789706
78	0x3c2d117c	0.010563251
79	0x3cba0d3f	0.022711394
80	0x3c8ef2a6	0.017449688
81	0xbc860253	-0.01635853
82	0x3cd412c8	0.025887862
83	0x3b82d5c4	0.003992768
84	0xbc324c39	-0.010882431
85	0x3b0a0750	0.0021061487
86	0xbcc2b928	-0.02376993
87	0x3c56c19e	0.013107685
88	0xbcdb0087	-0.02673365
89	0x3cb18a40	0.021672368
90	0xbc5c37ea	-0.013441065
91	0xb99a15f1	-0.00029389517
92	0x3cb0e7c0	0.021594882
93	0xbccde423	-0.025133198
94	0xbb0d5a22	-0.0021568616
95	0xba806ba8	-0.0009797709
96	0x3d03de16	0.03219422
97	0xbcd5dd89	-0.026106613
98	0x3cce35d9	0.025172161
99	0x3b83a921	0.0040179645
100	0x3b86bb75	0.004111702
101	0x3ca1cf68	0.01975222
102	0x3c81f33b	0.015863052
103	0xbbbbc6ae	-0.0057304716
104	0xbc8044f7	-0.015657885
105	0x3c8e46fb	0.01736783
106	0xbc820761	-0.01587266
107	0xbcc08225	-0.023499558
108	0x3c7a16b9	0.015264207
109	0xbc5b243e	-0.01337534
110	0x3b9f1c4e	0.004855669
111	0xbd04653c	-0.032323107
112	0x3c96f396	0.018426698
113	0x3ca3a2ff	0.019975184
114	0x3cbd9727	0.023143364
115	0x3cb232eb	0.021752795
116	0x3bd533a6	0.006506401
117	0x3b77d2a6	0.0037814765
118	0x3c9cebbc	0.019155376
119	0xbc191392	-0.009343045
120	0x3cb0cc1f	0.021581708
121	0x3cb40caa	0.021978695
122	0x3cbb6362	0.022874538
123	0xbac9560b	-0.0015360726
124	0x3d2eff60	0.042724013
125	0x3cb37c25	0.021909783
126	0xbce200f3	-0.027588343
127	0x3cd2f843	0.025753146

network_body._body_endoder.seq_layers.0.weight f4 [128, 128]
0	0xbde4461a	-0.11146183
1	0xbcbf246d	-0.023332799
2	0x3ddea4e8	0.10871297
3	0xbbac477d	-0.0052575455
4	0x3d9cc6af	0.076550834
5	0xbdeb6fcf	-0.11495935
6	0xbb8e9f49	-0.0043524844
7	0x3c921937	0.017834289
8	0x3d2168d8	0.039406627
9	0x3d37e2c4	0.044893995
10	0x3d57083d	0.05249809
11	0xbc5a310c	-0.013317358
12	0x3caf7995	0.02142028
13	0x3dc742ff	0.09729575
14	0xbd58ab75	-0.05289789
15	0xbe380574	-0.1797083
16	0x3b6e50c8	0.0036364067
17	0x3d2639b1	0.040582363
18	0xbd4c4a64	-0.049875632
19	0x3e6459c9	0.22299875
20	0xbc5e9e49	-0.013587543
21	0xbd5287ca	-0.05139903
22	0x3c72c9a9	0.014818587
23	0xbb679c91	-0.0035341124
24	0x3de766a9	0.11298878
25	0x3e1996db	0.14998953
26	0xbd690929	-0.0568935
27	0xbb297867	-0.002585912
28	0x3d59bb3e	0.053157084
29	0xbbb7f1ff	-0.005613565
30	0xbd2a9959	-0.04165015
31	0x3b4fa66b	0.0031684886
32	0x3d60d362	0.05488909
33	0x3e16312c	0.14667195
34	0x3cdc90e1	0.026924552
35	0x3d43240f	0.04764181
36	0x3df56410	0.11981976
37	0x3db6490a	0.0890065
38	0xbd02503f	-0.03181481
39	0x3d288095	0.04113825
40	0x3d6e6cb4	0.058209136
41	0xbdc43be6	-0.09581737
42	0x3e331372	0.17487887
43	0xbdda3add	-0.106557585
44	0x3d9001a2	0.070315614
45	0x3d137bea	0.036006846
46	0x3d284f9f	0.041091558
47	0x3df50e9c	0.11965677
48	0x3d98d4a5	0.07462434
49	0x3c80f0f1	0.01573989
50	0x3ddb16fb	0.106977426
51	0xbd407757	-0.04698881
52	0xbc95033c	-0.018190019
53	0xbcd8e5af	-0.02647671
54	0xbd81b9c0	-0.06334257
55	0x3db6ddcc	0.08929023
56	0x3cad4ab6	0.021153789
57	0x3d4c6bbc	0.04990743
58	0xbe3042e9	-0.17213024
59	0xbdae1af0	-0.08501232
60	0x3ca78d92	0.020453248
61	0xbc3466c6	-0.011010831
62	0x3ce1384e	0.027492668
63	0x3cedf8ba	0.029049266
64	0xbd1ab46f	-0.03776973
65	0x3e04b40d	0.12959309
66	0xbe1b3658	-0.15157449
67	0x3d7efd91	0.06225354
68	0xbcb096d3	-0.021556294
69	0xbd292c3e	-0.04130196
70	0x3c924db5	0.01785932
71	0xbdd91776	-0.10600178
72	0xbe3f588a	-0.18686119
73	0xbc501604	-0.012700561
74	0x3d4fe994	0.050759867
75	0x3df8c6bc	0.121472806
76	0xbd8e1597	-0.06937712
77	0x3b857c65	0.004073667
78	0x3e899f5c	0.26879394
79	0x3d512802	0.051063545
80	0x3daf7ebf	0.08569097
81	0xbd23257a	-0.039830662
82	0xbda12543	-0.07868435
83	0xbe61b537	-0.22041784
84	0xbdb7a393	-0.08966746
85	0x3e09ad83	0.13445096
86	0x3dad6fa8	0.08468562
87	0x3d3d36c6	0.046194814
88	0xbd91485e	-0.07093881
89	0xbd57efd9	-0.05271897
90	0x3e2a680d	0.16641255
91	0x3dcc306b	0.099701725
92	0xbc61f408	-0.013791092
93	0xbc26e94b	-0.010187457
94	0xbda64e7e	-0.0812044
95	0x3d808548	0.062754214
96	0x3cca296e	0.024677958
97	0x3b25f6b2	0.0025324044
98	0x3e031c30	0.12803721
99	0x3e152d15	0.14567979
100	0xbbcd8cad	-0.0062728734
101	0x3df11a55	0.117726006
102	0x3dd74b78	0.105124414
103	0x3e218b82	0.15775874
104	0xbdb5dd66	-0.08880119
105	0xbdc3b9be	-0.09556912
106	0x3d32ea30	0.04368037
107	0x3d083ee6	0.03326311
108	0x3cf5979d	0.029979521
109	0x3ccb1132	0.024788473
110	0xbd640984	-0.055673137
111	0xbda7f400	-0.08200836
112	0xbda7429b	-0.08167001
113	0xb9abeddf	-0.0003279289
114	0xbba1bebf	-0.004936069
115	0x3ddb73bc	0.10715434
116	0x3cc69733	0.02424202
117	0xbdd146b8	-0.10218567
118	0xbe09b4ee	-0.13447925
119	0xbcfdb9c1	-0.030972363
120	0xbd82a697	-0.06379431
121	0xbdd94436	-0.10608713
122	0x3d935d04	0.07195476
123	0x3dd4ddcd	0.10393868
124	0x3c82aba6	0.015950989
125	0x3d6891b3	0.056779575
126	0x3bbd84e8	0.005783666
127	0x3ac0525b	0.0014672981
128	0x3e817fa0	0.25292683
129	0xbd8a5493	-0.067544125
130	0x3dd755f3	0.105144404
131	0x3d4309de	0.047616832
132	0xbbd99ade	-0.006640776
133	0x3dc34dd9	0.09536333
134	0xbda04d9a	-0.07827301
135	0x3ca7de9d	0.020491892
136	0x3df1b281	0.11801625
137	0x3dcbbbae	0.099479064
138	0x3d850437	0.064949445
139	0xbd969eeb	-0.0735453
140	0xbd1cf042	-0.038315065
141	0xbd9464b7	-0.07245772
142	0x3c2fdc60	0.010733694
143	0xbd81ba93	-0.06334414
144	0xbdab0dc0	-0.08352232
145	0x3c28bfff	0.010299682
146	0x3d190022	0.037353642
147	0x3c03ccbd	0.008044419
148	0x3d8774e2	0.066140905
149	0x3d406c4a	0.046978272
150	0xbde524d4	-0.11188665
151	0xbdfde618	-0.123974025
152	0x3df76a27	0.12080794
153	0xbd3baf35	-0.045821387
154	0xbddb34a7	-0.10703402
155	0x3d4acac0	0.049509764
156	0x3dcd8b6f	0.100363605
157	0xbe4ede53	-0.20201997
158	0xbe0728bb	-0.13199131
159	0xbd2b9e06	-0.04189875
160	0xbca496a8	-0.02009137
161	0x3de1d7be	0.11027478
162	0xbd91c5f8	-0.07117838
163	0x3db3f322	0.08786608
164	0x3c56ceba	0.013110811
165	0xbdba9a15	-0.0911142
166	0x3cbb4848	0.022861615
167	0x3c416503	0.011803868
168	0x3c5c22ee	0.013436062
169	0xbbf87d40	-0.0075832903
170	0xbdf66b8b	-0.12032231
171	0x3d9e46db	0.07728358
172	0x3d5019ab	0.05080573
173	0xbcebf9ff	-0.02880573
174	0x3db335e7	0.087505154
175	0xbe0d5430	-0.13801646
176	0x3d2c34be	0.042042486
177	0x3e1454d1	0.1448548
178	0x3de4eb2d	0.11177669
179	0xbc83ca1c	-0.016087584
180	0x3d206757	0.039161053
181	0x3c5668de	0.013086526
182	0xbe0d43d9	-0.13795413
183	0xba13f23e	-0.0005643702
184	0x3e8f07b1	0.27935556
185	0xbdd96339	-0.10614628
186	0x3e00764e	0.1254513
187	0xbdc7974c	-0.097456545
188	0x3e572633	0.21010666
189	0x3deef437	0.11667674
190	0x3e0b5ffe	0.13610837
191	0x3dd844a3	0.105599664
192	0xbcbb545e	-0.022867378
193	0x3dd2af95	0.10287396
194	0x3d9c18f0	0.07621944
195	0xbe0096d5	-0.12557538
196	0x3d5ca789	0.05387071
197	0x3c611488	0.013737805
198	0xbe498dfa	-0.19683066
199	0xbc106604	-0.008813385
200	0xbb101373	-0.002198425
201	0xbc94d155	-0.018166224
202	0xbdd95b8b	-0.106131636
203	0x3c60d5aa	0.0137228165
204	0x3e0929ae	0.13394806
205	0x3cf7f093	0.030266082
206	0xbdebe12c	-0.115175575
207	0xbd3ae937	-0.045632567
208	0x3dc1aa07	0.09456258
209	0x3e311412	0.17292812
210	0xbdc81e76	-0.09771435
211	0x3d59c221	0.05316365
212	0x3e114ade	0.14188716
213	0x3e14b31f	0.14521454
214	0x3d8f1a95	0.06987492
215	0x3c4ba891	0.012430326
216	0xbb033f72	-0.002002683
217	0x3ce8ebf3	0.028432822
218	0x3dcd1ebf	0.1001563
219	0xbd1c9338	-0.038226336
220	0xbda0b36b	-0.07846721
221	0x3d472afc	0.048624977
222	0xbd88e668	-0.066845715
223	0x3d142fa0	0.03617823
224	0xbdad328f	-0.08456909
225	0xbe1cf839	-0.15329064
226	0xbdfb0711	-0.12257207
227	0x3d4de068	0.05026284
228	0x3d917316	0.07102029
229	0x3e4d3e7c	0.20043367
230	0xbcad8827	-0.021183087
231	0x3db8088e	0.08986007
232	0x3dd4f06c	0.10397419
233	0x3e01f15e	0.1268973
234	0x3d8506ce	0.064954385
235	0x3c24d904	0.010061506
236	0xbde897e8	-0.11357099
237	0xbdce0f4f	-0.10061514
238	0xbb2a3087	-0.0025968866
239	0xbd4438f8	-0.047905892
240	0xbd03d979	-0.03218982
241	0xbda50c28	-0.08058959
242	0xbdd42b4d	-0.103598215
243	0xbd56e57c	-0.052464947
244	0x3d269f79	0.04067943
245	0x3de1c36e	0.110236034
246	0xbe286086	-0.16443071
247	0x3da7ef41	0.08199931
248	0xb9c7ca2a	-0.00038106862
249	0xbcde32a6	-0.02712376
250	0xbd859a20	-0.06523538
251	0x3d9f506b	0.077790104
252	0x3ca1f42c	0.01976975
253	0x3b38c3ec	0.002819295
254	0xbd49c403	-0.049259197
255	0x3d6dc32b	0.058047455

network_body._body_endoder.seq_layers.0.bias f4 [128]
0	0x3cb89b8f	0.022535114
1	0xbcda8499	-0.026674556
2	0xbcc7c003	-0.02438355
3	0x3c94eb0f	0.01817849
4	0xbc458b5f	-0.012057154
5	0xbccd9a77	-0.025098069
6	0x3cb39569	0.02192183
7	0x3ccbfd40	0.024901032
8	0xbc90eb53	-0.017690336
9	0xbc8d3c30	-0.017240614
10	0xbcb5f626	-0.0222121
11	0x3cdb587d	0.026775593
12	0xbcce9280	-0.025216341
13	0xbbb1703c	-0.0054149907
14	0x3c823201	0.015892984
15	0x3cdc1728	0.02686651
16	0x3cbd6a7f	0.02312207
17	0xbc9114f6	-0.01771019
18	0xbcb6b430	-0.022302717
19	0x3c8c9b3e	0.017163869
20	0xbcb8b19f	-0.022545634
21	0x3ca1178d	0.01966455
22	0xbc97a9e3	-0.018513625
23	0x3bb4f169	0.0055219424
24	0xbc473f38	-0.012161069
25	0x3c552d3a	0.013011271
26	0x3c551671	0.013005839
27	0x3ca08f2a	0.019599516
28	0xbc8f95f1	-0.017527552
29	0x3cb9000a	0.022583026
30	0x3cb50655	0.022097746
31	0xbc8fab40	-0.017537713
32	0x3c15b8c2	0.009138288
33	0x3cb923c9	0.022600072
34	0x3c66d5be	0.014089046
35	0xbc39a354	-0.011330444
36	0xbbf707d4	-0.007538775
37	0xbcc7ba36	-0.024380784
38	0xbbe6bcf9	-0.0070415703
39	0xbcb54c6a	-0.022131164
40	0xbccab260	-0.024743259
41	0x3cbcb9d1	0.023037823
42	0x3cd35ac7	0.025800122
43	0x3becd1c6	0.0072271554
44	0xbccdb89c	-0.025112443
45	0xbc4f40a3	-0.012649688
46	0xbbb4dddb	-0.0055196113
47	0x3a8d5308	0.0010782192
48	0xbc6c57d8	-0.01442524
49	0x3cd2ab1f	0.025716363
50	0x3cb695c8	0.022288218
51	0x3cebc5a3	0.028780764
52	0xbc38740a	-0.011258135
53	0x3ca535a6	0.020167183
54	0xbcb4f397	-0.022088809
55	0xbcbca639	-0.02302848
56	0x3c7079ce	0.014677478
57	0xbcab2ed4	-0.020896353
58	0x3cddba42	0.027066354
59	0x3ccdfc3e	0.025144693
60	0x3c21111d	0.00983074
61	0xbc98a2a4	-0.01863224
62	0x3caaf57a	0.020869005
63	0x3c2649b4	0.010149408
64	0x3c5c37a0	0.013440996
65	0xbc66fad7	-0.014097891
66	0x3cdc1738	0.02686654
67	0xbb643991	-0.0034824351
68	0xbce45419	-0.027872132
69	0x3b5d8677	0.003380207
70	0xbc8639c3	-0.016384965
71	0x3cd70445	0.026247153
72	0x3cc1236f	0.023576466
73	0xbcef6e33	-0.029227352
74	0xbc92ed48	-0.01793541
75	0xbc0b1e54	-0.0084911175
76	0xbc9701d1	-0.018433483
77	0x3cb6b9f8	0.022305474
78	0x3cbbe535	0.022936443
79	0xbcb85666	-0.022502135
80	0xbc9cc584	-0.019137152
81	0x3cec5341	0.028848292
82	0xbc7bec04	-0.015376095
83	0xbca62d73	-0.020285344
84	0xbcae1489	-0.021250026
85	0x3c88f801	0.01671982
86	0x3cafa845	0.021442542
87	0x3caa7ffd	0.020812983
88	0xbcc3d05b	-0.023903063
89	0xbc88483b	-0.016636005
90	0x3ce047f0	0.027378052
91	0xbc73ff58	-0.014892422
92	0xbc732874	-0.014841188
93	0xbcba7cd7	-0.022764606
94	0xbc80b6a9	-0.0157121
95	0x3d0b0a68	0.03394547
96	0xbc7fdc64	-0.01561651
97	0xbcd1e03e	-0.025619622
98	0x3cb17ab5	0.021664957
99	0x3cb5a40f	0.022172956
100	0x3ccb3aca	0.024808306
101	0x3c8a0dff	0.016852377
102	0x3ccaac76	0.024740439
103	0xbca61040	-0.02027142
104	0x3c4c3333	0.012463379
105	0xbca04430	-0.019563764
106	0x3ce0d72a	0.027446348
107	0xbc9ee02e	-0.019394007
108	0x3cc92748	0.024554864
109	0x3cf683e0	0.03009218
110	0xbc27334d	-0.010205102
111	0x3cae4e00	0.021277428
112	0xb9d65cf6	-0.00040886522
113	0x3cbd59b6	0.023114067
114	0x3c9b4c9a	0.018957425
115	0xbcc79558	-0.024363205
116	0xbbee3486	-0.007269445
117	0xbca86177	-0.020554287
118	0x3cb22cb0	0.021749824
119	0xbcbadea8	-0.022811249
120	0x3c8b68bc	0.017017715
121	0x3cde8f12	0.02716783
122	0xbcce8e4b	-0.025214335
123	0x3c5ff0e1	0.01366827
124	0x3cbdd6fc	0.023173802
125	0x3c40eb72	0.011774885
126	0x3cc1f77e	0.023677584
127	0xbcc650af	-0.024208395

network_body._body_endoder.seq_layers.2.weight f4 [128, 128]
0	0xbe6be6c6	-0.23037252
1	0xbe2b6c72	-0.16740587
2	0xbddf3876	-0.10899441
3	0x3d7442a6	0.059633873
4	0xbdf1497b	-0.117815934
5	0xbdc09c6c	-0.09404835
6	0x3d8c68b2	0.068559065
7	0x3da00bbe	0.0781474
8	0xbdc1a5ab	-0.09455427
9	0xbd9ffe96	-0.0781223
10	0xbd03c079	-0.032165978
11	0x3d60382e	0.054741077
12	0xbd1c7a8c	-0.038202807
13	0xbdb3240a	-0.08747108
14	0x3e53d634	0.20687181
15	0x3da7be61	0.08190609
16	0xbc82f699	-0.015986728
17	0x3cb0b559	0.021570848
18	0x3c82775a	0.015926052
19	0x3dd044a0	0.10169339
20	0x3cdd3745	0.027003894
21	0x3d810df4	0.063014895
22	0xbdd4b045	-0.10385183
23	0x3de7c863	0.113175176
24	0xbdfb9511	-0.122842915
25	0x3de81364	0.113318235
26	0x3b88e2e2	0.004177437
27	0x3e2c6ebe	0.1683912
28	0xbc6173bd	-0.013760504
29	0x3cfc44c6	0.030794512
30	0x3d0bbd3a	0.034116007
31	0xbcd9349f	-0.02651435
32	0xbcf4df03	-0.029891497
33	0x3da42d85	0.08016495
34	0xbdb654b1	-0.08902872
35	0xbdd6def2	-0.10491742
36	0xbcfe787b	-0.031063309
37	0xbc9870c9	-0.018608468
38	0xbe0e2f48	-0.13885224
39	0xbcbc7d16	-0.023008864
40	0x3b578026	0.003288278
41	0xbbb37237	-0.005476262
42	0x3d8b39c9	0.06798131
43	0xbca29e27	-0.019850804
44	0xbd50f5ca	-0.051015653
45	0xbca7a4e4	-0.020464368
46	0x3d26ea1b	0.040750604
47	0x3c6edb4a	0.01457865
48	0xbd417921	-0.04723466
49	0xbd36cda9	-0.044629727
50	0xbc8e7ab6	-0.017392498
51	0xbc50fce9	-0.012755611
52	0xbcc28009	-0.023742693
53	0x3e5331be	0.20624444
54	0xbdfdae15	-0.12386719
55	0xbd36372c	-0.04448621
56	0x3d917d40	0.07103968
57	0x3db4c5f4	0.08826819
58	0xbdfcaf0a	-0.123380736
59	0xbd38618b	-0.0450149
60	0x3bbd799d	0.0057823197
61	0xbd5a7cb7	-0.053341594
62	0xbcdfcfa9	-0.0273207
63	0x3d0b5dd1	0.034025017
64	0xbda96ab2	-0.08272304
65	0x3d60cd98	0.05488357
66	0x3c67a0b5	0.014137437
67	0x3d3084b4	0.043095306
68	0xbda476e2	-0.080304876
69	0xbdbb2db2	-0.09139575
70	0x3d0a7828	0.033805996
71	0x3ddeadff	0.10873031
72	0xbce80c21	-0.028326096
73	0xbe0a165c	-0.13485092
74	0xbd8178a8	-0.063218415
75	0x3d19ebc5	0.037578363
76	0x3ce04bb4	0.027379848
77	0x3da54ea4	0.0807164
78	0x3e3078a0	0.17233515
79	0xbd97e5d5	-0.07416884
80	0xbdcaaa68	-0.09895784
81	0x3de53bfc	0.11193082
82	0xbcc5bc7a	-0.024137724
83	0xbdb9129b	-0.09036752
84	0xbe36d5ba	-0.17854968
85	0xbd2375a4	-0.039907113
86	0xbe0da011	-0.13830592
87	0xbdf4ab23	-0.11946704
88	0xbc130bd9	-0.008974993
89	0x3dcfd91e	0.10148834
90	0x3da2a132	0.07940902
91	0xbcdf2420	-0.027238905
92	0x3d29dc10	0.041469634
93	0xbd0c68d6	-0.034279667
94	0xbe64165d	-0.22274156
95	0x3d4019b5	0.046899516
96	0x3d7c478e	0.061591677
97	0xbd5f1455	-0.05446275
98	0x3dab5dec	0.083675236
99	0xbdbebeb8	-0.093137205
100	0x3de62d86	0.11239152
101	0xbd0427cc	-0.032264516
102	0x3e1cb3e5	0.15303
103	0xbd152ffe	-0.036422722
104	0xbc45abf8	-0.012064926
105	0xbdc43f27	-0.09582358
106	0x3ddf1e97	0.108945064
107	0xbe05338c	-0.13007945
108	0x3d9a93a8	0.075476944
109	0x3ce944dd	0.02847522
110	0xbddb3230	-0.10702932
111	0xbd4b5d05	-0.049649257
112	0x3b86cdd3	0.0041138916
113	0xbe22ee46	-0.15911207
114	0xbc6b2e0e	-0.014354242
115	0xbdb53a2d	-0.08848987
116	0xbce17b1b	-0.027524522
117	0x3db290e9	0.08719046
118	0x3e48d21e	0.19611403
119	0xbcb1bacb	-0.021695515
120	0xbd1a948e	-0.03773933
121	0x3e64f2e3	0.22358279
122	0xbe7ce845	-0.24697979
123	0xbe4fc052	-0.20288208
124	0x3d70cc21	0.058788422
125	0x3c508a7a	0.012728328
126	0x3df20cdd	0.1181886
127	0xbe4bfc1c	-0.19920391
128	0xbcfa08b9	-0.030521737
129	0xbe343aa4	-0.17600495
130	0xbe108617	-0.14113651
131	0x3d4ea0a5	0.05044617
132	0xbb2745a9	-0.0025523698
133	0xbc41ddfc	-0.01183271
134	0x3d4de365	0.05026569
135	0x3d3b033f	0.045657393
136	0x3ce067e3	0.027393287
137	0xbd9a1300	-0.07523155
138	0xbdcde73d	-0.10053871
139	0x3c1d5d52	0.009604769
140	0xbe23ed94	-0.16008598
141	0xbd0408b8	-0.032234877
142	0x3dc5b9c5	0.09654573
143	0xbcebbbac	-0.028776012
144	0x3e144cf6	0.14482483
145	0xbdebbd36	-0.115106985
146	0xbe25008d	-0.16113491
147	0xbd88cbd1	-0.066795
148	0xbdc6b773	-0.09702959
149	0x3cfba1f5	0.030716876
150	0xbdea22b9	-0.11432404
151	0x3b189e8d	0.0023287863
152	0x3d297049	0.04136685
153	0x3d89689a	0.06709404
154	0x3cc88ba0	0.02448064
155	0x3cdd0c4c	0.026983403
156	0xbe069c5b	-0.13145582
157	0x3e24c69b	0.16091387
158	0x3dc6f070	0.097138286
159	0xbd590a6c	-0.052988455
160	0x3e0e9748	0.13924897
161	0xbe1bf8e1	-0.15231659
162	0x3d8771a2	0.066134706
163	0x3d811959	0.06303663
164	0x3cdc1ff8	0.026870713
165	0xbbac6354	-0.0052608643
166	0xbe0d1f32	-0.13781431
167	0x3a4f4927	0.0007907324
168	0xbd330914	-0.04370983
169	0xbc27dd8b	-0.010245691
170	0xbdd13c1f	-0.10216545
171	0x3d6612f9	0.056170437
172	0xbde6fa0b	-0.11278161
173	0xbe15613c	-0.14587873
174	0xbe2859a4	-0.16440445
175	0xbdbc3d1b	-0.091913424
176	0x3ca488e6	0.02008481
177	0x3dc3bf32	0.09557952
178	0xbd2c40f7	-0.042054143
179	0x3d0a60b7	0.03378364
180	0x3d1a4b4f	0.037669476
181	0xbde923e6	-0.113838
182	0x3b2f549f	0.002675332
183	0xbbd7d2bc	-0.006586401
184	0x3d0e7560	0.034779906
185	0xbdc5183f	-0.09623765
186	0x3e3c7ae4	0.18406254
187	0x3e28b87d	0.16476627
188	0x3ca9c03a	0.020721544
189	0xbd88596a	-0.066576794
190	0xbdbeaff3	-0.093109034
191	0xbca6778b	-0.020320674
192	0xbe02abd6	-0.12760863
193	0xbe150a3b	-0.14554684
194	0xbd9f52e2	-0.077794805
195	0xbdd1b4bf	-0.10239553
196	0x3bba2a24	0.005681293
197	0x3b923ab2	0.0044625634
198	0x3c3c8bf0	0.011507973
199	0xbd648da9	-0.05579916
200	0x3d216061	0.039398555
201	0xbdd03152	-0.10165657
202	0xbdac138b	-0.08402165
203	0x3c6ce273	0.014458287
204	0xbe32b348	-0.17451203
205	0x3c20ebd7	0.009821854
206	0x3d592e2b	0.053022545
207	0xbbbe6019	-0.0058097956
208	0xbdffa0b6	-0.12481825
209	0x3dfef0f2	0.124483004
210	0xbb145738	-0.0022634994
211	0xbc91970a	-0.017772216
212	0x3dc5a015	0.09649674
213	0xbd724125	-0.059144158
214	0x3dfd26c5	0.1236091
215	0xb8a4766c	-7.842187e-05
216	0xbe0f5b1c	-0.13999599
217	0xbdacef95	-0.08444134
218	0xbd5e11a3	-0.05421604
219	0xbce01205	-0.027352342
220	0x3bd517a2	0.0065030614
221	0xbd8c80ed	-0.06860528
222	0xbdbc4aee	-0.09193979
223	0xbde3dc39	-0.111259885
224	0xbe99cb1a	-0.30037767
225	0xbdce062b	-0.1005977
226	0x3d8dffd4	0.06933561
227	0x3b6c241f	0.0036032272
228	0x3cf6e2c3	0.030137425
229	0xbd936893	-0.0719768
230	0x3d170889	0.036873374
231	0x3ca9efab	0.020744165
232	0xbd169ed9	-0.036772583
233	0x3d76af2c	0.06022565
234	0x3d093e94	0.033506945
235	0xbdaf3e8d	-0.085568525
236	0x3d452227	0.048128273
237	0x3d43daf5	0.047816236
238	0xbd8f5034	-0.069977194
239	0xbdca8ca8	-0.09890109
240	0xbdf7c97a	-0.120989755
241	0xbd85e491	-0.06537736
242	0xbc83c543	-0.016085273
243	0xbe17d3f3	-0.14826946
244	0x3e2a62c8	0.16639245
245	0xbdc7a472	-0.09748162
246	0x3dee232c	0.11627802
247	0xbceed325	-0.029153416
248	0x3cec7719	0.028865384
249	0x3d0ba8f3	0.03409667
250	0x3df341bc	0.11877772
251	0x3d858043	0.065186046
252	0x3d94aab6	0.07259123
253	0x3d53e5c7	0.051732805
254	0x3dcd4972	0.10023774
255	0xbd52fcff	-0.051510807

network_body._body_endoder.seq_layers.2.bias f4 [128]
0	0x3cd7b404	0.026330955
1	0x3cbd9234	0.023141004
2	0xbcc027ac	-0.023456417
3	0xbb300d7d	-0.0026863508
4	0x3cd9783d	0.026546592
5	0xbca6c5e0	-0.020358026
6	0xbca358d6	-0.019939821
7	0x3bc30e67	0.0059526446
8	0xbc80a288	-0.015702501
9	0x3caf1b6b	0.021375379
10	0xbcbcb139	-0.023033725
11	0x3cc84639	0.024447547
12	0x3cc8fe15	0.024535218
13	0xbc26f03c	-0.010189112
14	0x3cb504dc	0.022097044
15	0xbbaf40b2	-0.0053482885
16	0x3c44dd1e	0.012015609
17	0x3ccf5244	0.025307782
18	0x3cf11be0	0.029432237
19	0xbc97531b	-0.018472245
20	0xbcb11008	-0.02161409
21	0xbcaf2a7f	-0.021382568
22	0xbcb9e0e7	-0.02269025
23	0x3cdb142d	0.026743019
24	0x3be08b46	0.00685254
25	0x3cc93ec0	0.024566054
26	0x3cbf4be2	0.023351613
27	0x3ccd029a	0.025025655
28	0x3c1b43c2	0.009476604
29	0x3cc0e07c	0.023544542
30	0xbc5ea21b	-0.013588454
31	0x3c2c4234	0.010513831
32	0x3beadae7	0.0071672085
33	0xbc8800e3	-0.016601985
34	0xbca2d643	-0.019877559
35	0xbca5eb1d	-0.020253712
36	0x3bca2784	0.0061692614
37	0xbc74263b	-0.014901693
38	0x3ce5bc7b	0.028043976
39	0xbcc848ac	-0.024448715
40	0xbc87e753	-0.016589796
41	0x3c15cb6f	0.009142741
42	0x3c7a7d08	0.015288599
43	0x3cd08490	0.025453836
44	0xbc437906	-0.01193071
45	0x3ce04aa6	0.027379345
46	0x3c6dc0e6	0.014511323
47	0xbc430987	-0.011904127
48	0xbc73e815	-0.014886876
49	0x3cce4fac	0.025184475
50	0x3cc6500f	0.024208097
51	0xbc7abb74	-0.015303481
52	0xbc003883	-0.007825973
53	0x3c6e3fc7	0.014541573
54	0x3ce1be35	0.027556518
55	0x3c2803b5	0.01025479
56	0x3c70fb02	0.014708282
57	0xbc800108	-0.015625492
58	0xbc044834	-0.008073855
59	0xbca276bb	-0.019832006
60	0xbc6bc919	-0.014391207
61	0xbc67b1d6	-0.0141415205
62	0x3c40496b	0.011736254
63	0xbc9cdf89	-0.019149559
64	0x3abdff26	0.0014495596
65	0x3cc265eb	0.023730239
66	0x3ba0882f	0.004899047
67	0x3bd41a51	0.0064728637
68	0x3c43bad9	0.011946403
69	0x3c8bcb22	0.017064635
70	0x3ccd7d68	0.025084212
71	0xbc8d9e58	-0.017287418
72	0xbcbc4a30	-0.022984594
73	0xbc902ec5	-0.017600426
74	0x3cc67557	0.024225874
75	0x3cb493a5	0.022043059
76	0x3b97900f	0.0046253274
77	0xbcad9361	-0.02118844
78	0xbc42f830	-0.011899993
79	0xbb5f9090	-0.0034113266
80	0x3c879336	0.016549688
81	0xbca14402	-0.019685749
82	0xbbe772cd	-0.007063246
83	0x3ccd4cf8	0.025061116
84	0x3ca45514	0.0200601
85	0x3c390f5d	0.011295167
86	0xbaab2f85	-0.0013060427
87	0xbc034d6b	-0.008014063
88	0xbcc775b4	-0.024348117
89	0x3cac8095	0.021057406
90	0xbcbd2a39	-0.023091422
91	0xbc9ed474	-0.019388415
92	0xbb93e984	-0.004513921
93	0x3cb22787	0.021747364
94	0xbc95283b	-0.01820766
95	0x3c7b7376	0.015347352
96	0x3c9f6442	0.019456986
97	0xbca8c7b2	-0.020603035
98	0x3c1f1c2f	0.009711309
99	0xbc088316	-0.008332035
100	0x3b9ecfce	0.0048465496
101	0x3cd3280d	0.025775934
102	0xbc3229af	-0.010874196
103	0x3c9d3e9c	0.019194894
104	0x3cbd0001	0.02307129
105	0xbcc7de38	-0.024397954
106	0x3caef9c5	0.021359334
107	0x3cc039f8	0.023465142
108	0x3cba328e	0.022729184
109	0xbc93473a	-0.0179783
110	0x3c641078	0.013919942
111	0x3c899263	0.016793435
112	0x3cc0f381	0.023553612
113	0xbca7b593	-0.020472324
114	0x3c00cf43	0.007861915
115	0xbcc24586	-0.023714792
116	0x3c4f44a7	0.012650645
117	0xbcb9007d	-0.02258324
118	0x3ca82258	0.020524189
119	0xbc7a6c07	-0.015284545
120	0x3c914135	0.017731288
121	0xbc650c1d	-0.013979939
122	0xbc91a691	-0.01777962
123	0x3beb3dad	0.007178983
124	0xbc9cebdd	-0.019155437
125	0x3c982c55	0.018575827
126	0xbc9a828d	-0.01886108
127	0x3cad3544	0.021143563
