Assets/MAIN_TestML/JumpOverTurnBase/Models/SquareArea.onnx (onnx, 891078 bytes, 17 tensors)

discrete_act_size_vector f4 [1, 2]
000000 00 00 a0 40 00 00 40 40
       5.0 3.0

network_body.observation_encoder.processors.0.conv_layers.0.weight f4 [16, 5, 8, 8]
000000 bd d9 88 bc 18 66 b8 bc c3 5d 80 3d 91 21 59 3c
       -0.016705388 -0.02250962 0.06267884 0.013252632
000010 4b 6d ab 3d bc d4 30 bd 30 e6 62 bd 97 c9 86 3d
       0.08370455 -0.04317163 -0.055395305 0.06581419
000020 f5 79 8f bd 30 10 05 bd 66 2d d2 bd 29 8b d5 bd
       -0.07005683 -0.03248614 -0.10262565 -0.10426933
000030 3f c6 53 3d 3d f6 86 3d ed e2 1d 3d 84 b5 f3 bd
       0.051702734 0.06589935 0.03854649 -0.11899856
000040 93 33 d7 bc 36 64 89 3b cb 3f 97 3d 30 81 98 3d
       -0.02626971 0.0041928543 0.073852144 0.074465156
000050 d2 77 b6 bc 4d cc 28 be ea 4e a9 ba 2e 67 ab 3d
       -0.022273932 -0.16484185 -0.0012917195 0.08369289
000060 90 ff 33 3d a0 28 84 bd d8 63 01 3d bb 64 b0 bd
       0.043944895 -0.06453061 0.03158936 -0.08612963
000070 c6 1b 0e bd 87 5e 29 bc 90 0b dc 3a 30 79 1d 3d
       -0.034694456 -0.0103374785 0.0016788114 0.03844565
000080 99 03 b7 3d 8a 02 49 3c 32 49 86 bc c7 c7 91 bc
       0.08936233 0.012268672 -0.016392324 -0.017795457
000090 b1 dc 7c bd f4 ae 42 3c 52 fc 44 3d 12 e3 24 3d
       -0.061733905 0.011882532 0.048092194 0.040255614
0000a0 df 9f fd 3c 98 1b 0c 3d 43 f1 9b 3d 8d 15 c1 3d
       0.030960022 0.034206003 0.076143764 0.094279386
0000b0 4b 4f 83 bd 7a 2e 6d bd d6 48 c6 3d 7f b5 66 3d
       -0.06411608 -0.05790565 0.09681861 0.056325432
0000c0 9d 14 6e bd f2 21 5a 3d 54 2b 42 bd 15 3a a0 3d
       -0.058125127 0.05325503 -0.047404602 0.07823578
0000d0 dc 43 50 bd 5c d6 87 3c 0e b6 62 bc 72 4c 03 3e
       -0.050845966 0.016581707 -0.0138373505 0.1282213
0000e0 b1 bb 1a bc 26 8b 9a 3d 83 f7 81 bd 2a 18 5a 3c
       -0.009444163 0.07546072 -0.06346037 0.013311425
0000f0 53 ba e0 bd dc c9 62 3c 19 1b c3 bb 78 fa ae 3c
       -0.109730385 0.013842072 -0.005954158 0.021359667
000100 34 0a bd 3d dd 72 9e bc 3d 6e cb 3d 2b 27 a6 3d
       0.09230462 -0.01934188 0.09933136 0.081129394
000110 9e a1 33 bc b7 de 7a bd c7 0a 79 3d fd 5e 28 3d
       -0.0109638255 -0.061247554 0.060801294 0.041106213
000120 5c 28 99 3d 8a 98 0a bd 5b 38 7c bc 7c 1a d2 3d
       0.07478401 -0.03383688 -0.015394296 0.10258958
000130 05 3c 8f 3d c5 06 88 3c a9 72 86 bc 08 9c 6f bd
       0.0699387 0.01660479 -0.016412096 -0.058498412
000140 34 87 f2 bd 59 cc 9d bc 8a 06 8f 3d db 0e 5c 3d
       -0.11842194 -0.01926248 0.06983669 0.053725105
000150 91 bb f3 bc 5f d5 0e be ff 06 00 3d ce 38 a2 3c
       -0.029752525 -0.13948582 0.031256672 0.019802477
000160 70 1f a9 bd 3b 51 78 b9 c6 e1 c0 bc 48 2b d6 bd
       -0.08257949 -0.00023681384 -0.023545157 -0.10457474
000170 c5 62 f8 bc d4 a4 6d bd 6a e6 a4 bd 46 19 61 bd
       -0.030320534 -0.05801852 -0.080517605 -0.054955743
000180 c9 88 07 bd d6 64 04 3d 12 f6 ba bd b2 a6 81 3d
       -0.033089433 0.032322727 -0.091289654 0.06330623
000190 22 bc 32 3d 1f 4e ac bc 8d 31 d3 3c 2d d0 1c bc
       0.04363645 -0.021033345 0.025780464 -0.009571117
0001a0 7c 2a 18 3d bd 5e 53 3d cf d7 c1 bc 84 d3 89 bd
       0.03714989 0.05160402 -0.023662476 -0.067297965
0001b0 d9 17 1a 3d c4 c3 15 3b 18 28 67 bd 4d 0f 13 bd
       0.0376204 0.002285228 -0.05643472 -0.035903264
0001c0 77 8f 31 bd 2d 4b 35 3d fa b7 34 3d 7d d9 ef bd
       -0.04334971 0.044261146 0.044120766 -0.117114045
0001d0 d6 b0 03 3d 9c bb a6 bd fc d1 ef 3d 79 16 fd 3a
       0.032151066 -0.081412524 0.11709973 0.0019309066
0001e0 68 b3 be 3d 4b 37 a5 3d 95 a8 4d 3b bb 17 9c bd
       0.09311563 0.08067187 0.0031381 -0.07621714
0001f0 e7 ba 85 3d 14 0d d4 3d a3 fa c4 ba 3f 35 99 3d
       0.065297894 0.10354057 -0.0015028309 0.07480859
000200 3f 54 4a bd 0e d1 a7 3c 42 04 61 3d 8a e7 c8 bd
       -0.04939675 0.020485427 0.0549357 -0.098097876
000210 2c 9d b8 3c a8 45 82 bd 6c 04 92 bc 15 9f 0e be
       0.022535883 -0.06360942 -0.017824374 -0.13927872
000220 30 20 30 bb 50 62 10 bd 21 59 72 bd ee 28 1e 3d
       -0.0026874654 -0.035250008 -0.05916703 0.038613252
000230 a1 1b 84 3c 12 c9 b4 bd 50 f3 06 be 75 b1 95 bc
       0.016126456 -0.088274136 -0.13178754 -0.018273095
000240 f0 0c f8 3a 1d 08 c7 ba 7a 73 e5 3b 0d 47 e8 3d
       0.0018924754 -0.0015184913 0.0070022913 0.11341677
000250 f2 6e 40 bd 66 b5 d3 3d 54 c5 38 3d 7b 3d d6 bd
       -0.046980806 0.103373334 0.04511006 -0.10460945
000260 fe bd cc bc f0 0f 9a bd d4 c7 11 be 23 f5 1b bd
       -0.02499294 -0.07522571 -0.14236385 -0.038075577
000270 a2 85 cb bd 8c 6f 97 bd f4 bf b9 bd 11 e2 90 3d
       -0.09937598 -0.07394323 -0.09069815 0.07074369
000280 ea c4 77 3c 35 5d 19 3d ef 49 8a bd b2 90 e6 bd
       0.015122632 0.037442405 -0.06752383 -0.11258067
000290 3b cd 06 3d 6a a9 8f 3c 1d 71 e8 3c 32 ba 2a bc
       0.032910567 0.017536838 0.02837425 -0.010420369
0002a0 ab 6e 87 3c bd bb c4 3c bc 2b 81 bd 83 b9 d7 3c
       0.016532263 0.024015302 -0.0630717 0.026333576
0002b0 84 0e 9b bd 01 44 96 bd e8 ad a9 3d ee 06 9c 3d
       -0.07571128 -0.073371895 0.08285123 0.07618509
0002c0 45 86 05 3d 67 8a 1d bd 16 eb fd bd 2a 46 c6 bc
       0.032598753 -0.03846207 -0.12398355 -0.024203379
0002d0 53 f4 5f bd 63 38 ce bc 55 f9 9e bd 82 1d 18 3d
       -0.054676365 -0.025173372 -0.077624 0.037137516
0002e0 92 97 1d 3d 94 77 b3 3c b9 15 36 bc 6e c6 6a bd
       0.038474627 0.021907605 -0.0111135775 -0.057318144
0002f0 b1 67 e2 3d ff a6 0b bd 50 11 07 ba 60 68 49 bd
       0.11054934 -0.034094807 -0.0005152421 -0.049171805
000300 ef b2 9d 3c d1 03 ca bd 73 84 05 3d d7 d1 e5 3c
       0.019250361 -0.09864009 0.032597017 0.028054161
000310 61 da d7 3d 47 fa db bc a0 ff 80 bd 97 3b 2f 3c
       0.10539699 -0.02685274 -0.062987566 0.01069536
000320 ce 42 83 3d 66 18 2e be cf 07 0d be a4 c8 53 3d
       0.06409226 -0.17001495 -0.1377251 0.051705018
000330 7d 87 05 3e d2 31 c8 3d c1 40 40 be 74 d1 15 bd
       0.13039966 0.097751275 -0.18774702 -0.036576703
000340 3a 14 db bd 91 5e 8a 3d 53 49 b2 bd 1f dc 8c bc
       -0.10697217 0.06756318 -0.08705392 -0.017194806
000350 8b 46 74 bc 49 1c 95 3c 31 21 4b 3d 36 43 ec 3d
       -0.014909397 0.018201964 0.0495922 0.11536257
000360 f2 ee 94 3c 68 2e 12 be b1 8f ea bd 2b b1 d3 bd
       0.018180344 -0.14275515 -0.11453188 -0.103365265
000370 a9 2c 5f bd 94 d6 6b bd 75 4b 1d bd 26 bd 52 bd
       -0.05448595 -0.057577685 -0.03840204 -0.051449917
000380 65 49 ae 3d bb cc 2b bd 7c d1 2f be 16 f7 82 bd
       0.08510093 -0.041943293 -0.17169756 -0.06394784
000390 85 cb ef bd f1 ba a7 3d 75 70 35 3d 74 21 1a bb
       -0.1170874 0.08189953 0.0442967 -0.0023518475
0003a0 f2 ad 4e bd d2 ef 89 3d 6f 01 df bd 39 23 19 bd
       -0.050458856 0.06735195 -0.10888945 -0.037387107
0003b0 92 61 1c bc cb d8 57 bc 99 af c1 bd 6d 7e 1d be
       -0.009544747 -0.013174246 -0.09457321 -0.15380259
0003c0 32 03 8d 3d c9 f7 df bd f6 d2 b5 3a c9 8a 94 bc
       0.06885375 -0.10935933 0.0013872075 -0.018132584
0003d0 5d aa a6 bd 9b d1 f4 3d f7 cb 1c be a1 65 07 be
       -0.08137963 0.119540416 -0.15312181 -0.13222362
0003e0 5b f2 ed 3d c0 72 5e bd e3 ac dc bd 1f 7c e6 3c
       0.11618491 -0.054308653 -0.10775163 0.028135357
0003f0 21 0d c8 3c e1 c0 04 3e 03 16 48 be 70 16 3d bd
       0.024420323 0.12964202 -0.19539647 -0.046163976

network_body.observation_encoder.processors.0.conv_layers.0.bias f4 [16]
000000 5b 1e 20 b9 ab 9d 17 3c 55 6b 8a bd fe b9 15 bd
       -0.00015270097 0.0092539 -0.06758753 -0.03655433
000010 54 bd c6 bc bb d3 ad bc 44 45 53 3c 33 c4 6f 3c
       -0.0242602 -0.021219125 0.012894932 0.01463418
000020 ee 3d a9 bc 9f 09 3f bd 8f 17 a2 bd 6c 92 31 bd
       -0.020659413 -0.046640035 -0.0791465 -0.04335253
000030 51 0b b4 3c a4 d8 d1 bc ef 31 2a bd 85 de 7b bd
       0.021978052 -0.025615998 -0.041551527 -0.061491508

network_body.observation_encoder.processors.0.conv_layers.2.weight f4 [32, 16, 4, 4]
000000 be c5 e4 bc c7 c1 de 3c ff 49 a7 3c c9 a4 f8 3d
       -0.027926322 0.02719201 0.020421026 0.12140805
000010 c7 ab 21 3d 92 4f 2e bd 17 7a 8d bd 20 fc 40 3d
       0.03947046 -0.042556353 -0.069080524 0.047115445
000020 bb 56 2c 3d 3c 63 4c bc bf 65 7a 3b e6 de 24 bd
       0.0420749 -0.012474831 0.0038207618 -0.040251635
000030 a7 6a 09 3d d6 b2 6c bc e7 f9 dc 3c b5 0a 2c 3c
       0.033548977 -0.014446935 0.026974631 0.0105006
000040 51 dd 78 bd f1 ee 3b bd 90 db 7b 3d d9 33 56 3d
       -0.06075794 -0.04588217 0.061488688 0.05229554
000050 df 98 a1 bd de 8c 5c bd 8b 4f 3e 3d ec e4 83 ba
       -0.07890486 -0.05384528 0.046462577 -0.0010062731
000060 58 9f e6 b9 40 c2 d1 bc 29 1d de 3c 92 40 bf 3b
       -0.0004398774 -0.02560532 0.027113514 0.005836555
000070 28 1c a5 3c 7e 63 a3 3d fb 53 9f 3d 8b d7 b3 bc
       0.020155028 0.07977961 0.0777969 -0.021953365
000080 7c 04 6c 3d b9 5a b8 bb 24 e2 5f 3d 56 d4 f0 b9
       0.057621464 -0.0056260494 0.054659024 -0.0004593457
000090 af df af 3c 73 d0 62 bd 52 96 7c 3d 30 08 00 bd
       0.021468965 -0.055374574 0.061666794 -0.03125781
0000a0 c6 32 b3 3c 5e b7 a7 bd ed b5 f6 3c d0 42 6e ba
       0.021874797 -0.081892714 0.030116046 -0.00090889353
0000b0 2d 49 7d 3d 23 7f fd bc 0b 9d 9f bd 69 46 e7 3c
       0.061837364 -0.030944413 -0.077936254 0.028231816
0000c0 a5 7c 01 bc 6c 60 d5 bd 29 74 71 3c 92 5e cd 3c
       -0.007903253 -0.10418782 0.014737167 0.025069509
0000d0 b7 0b 27 3d 70 f7 68 bd 34 c5 0e 3c 07 78 1b 3d
       0.040782657 -0.0568766 0.008714009 0.037956264
0000e0 a2 5c 4b 3b 07 82 d5 3b 6a ed a9 bc 70 92 66 bc
       0.0031030555 0.0065157446 -0.02074309 -0.014072999
0000f0 b3 04 09 3d be bb 51 bd fa 49 5b 3b ff 97 49 3c
       0.033451747 -0.051204436 0.0033460842 0.012304305
000100 b8 6a 5e bc 17 df 40 bd b1 9a d1 3d f6 1a 29 3d
       -0.013575248 -0.047087755 0.10234583 0.041285478
000110 03 2e 6e 3d 67 32 93 bc ab ab e9 bd db db 08 bd
       0.05814935 -0.01796837 -0.11409696 -0.033412796
000120 39 d2 f3 3b 35 fc 41 bc 14 0c 06 be c6 9e 85 bd
       0.007440832 -0.011839916 -0.13090545 -0.06524424
000130 3d 46 12 3d e3 9d 12 3c 79 93 fa bc a9 85 3c bd
       0.035711516 0.008948776 -0.030587899 -0.046025906
000140 51 41 61 3d 1e 51 55 bc 75 da d1 3c e1 f5 21 bd
       0.05499393 -0.013019828 0.025616864 -0.03954113
000150 0b 9e 2d 3d 92 60 cb b9 70 e1 00 3d eb 6a 7a bb
       0.04238705 -0.00038791128 0.031464994 -0.00382107
000160 42 ec 62 3d 79 fa 50 3d 10 55 d1 3c 28 f7 6a 3c
       0.055401094 0.05102012 0.025553256 0.014341153
000170 25 52 44 3d 63 7c 9d bd 90 cc 68 bd 96 3a 16 3d
       0.0479299 -0.076897405 -0.05683571 0.036676966
000180 a0 cc 00 3c 1a d2 cd 3c dd cf 07 bd 48 1c d9 3c
       0.007861286 0.025124598 -0.03315722 0.026502743
000190 22 2b 1e bd 81 cd a1 bc 19 50 d7 3c f9 0a 87 3d
       -0.038615353 -0.019751312 0.02628331 0.0659389
0001a0 86 be 62 3d b0 8f d8 bd dd 74 e3 3d d0 68 bf bc
       0.05535748 -0.10574281 0.11106274 -0.023365408
0001b0 f0 bd 1c 3b bd 0c 55 3d 13 7f ad bc ac 56 7f bc
       0.0023916923 0.0520141 -0.021178758 -0.015584629
0001c0 15 c7 b1 3c 7c 01 48 bd 98 3f 40 bb 35 a2 0d bd
       0.021701375 -0.04882954 -0.002933478 -0.03457852
0001d0 28 5a 21 3d 7a cd c1 bb 4b c6 b0 bd b5 ed 24 3c
       0.03939262 -0.0059143873 -0.086315714 0.010066439
0001e0 c3 95 b6 bc 0c 00 82 3d 79 1f 7c 3d 0f 4b 1d 3d
       -0.022288209 0.06347665 0.061553452 0.03840166
0001f0 df 02 94 3d 1e ac 8a 3d 35 89 0e 3d 6e 92 65 3d
       0.0722711 0.0677111 0.03479882 0.05604785
000200 7a 7a 48 bc cf 4c fa bc 9a 52 c1 3c 93 d2 9e bd
       -0.012236232 -0.030554203 0.023598958 -0.077550076
000210 a5 e7 a6 3c 1c ef b9 bd 69 92 04 bd 0f 31 50 3d
       0.020374129 -0.090788096 -0.03236619 0.050828036
000220 3e 18 84 3d 14 b5 db 3d 40 7c f2 bd f6 83 d5 bd
       0.06449936 0.10727897 -0.11840105 -0.1042556
000230 2d 4c d3 3d 89 03 a5 bc ef 01 c0 bc 43 38 8d 3d
       0.10317264 -0.020143287 -0.023438422 0.06895497
000240 47 d3 d1 bc 15 a1 54 3d bb 5c 31 bd 8e 8a 22 3d
       -0.02561344 0.051911432 -0.043301325 0.039682917
000250 49 99 95 bc b9 dc 57 3d 52 81 63 bc 45 f1 2e bc
       -0.018261569 0.052700732 -0.013885813 -0.01067764
000260 00 47 22 3c 4b c2 c2 bc 28 1c 1e 3e 1d de 57 bd
       0.009904623 -0.023774287 0.15440428 -0.052702058
000270 ff 15 cf bd f3 a3 36 3d 2e 1f 76 bd 76 69 32 3c
       -0.10111617 0.044589948 -0.06008833 0.010889402
000280 93 f3 ad bb e2 90 02 bd 11 06 41 bd d3 1b 31 bd
       -0.0053085773 -0.031876452 -0.047124926 -0.043239426
000290 1e 9e 99 bd 38 9f a1 bd 43 5b be 3d c2 0c f7 bc
       -0.075008616 -0.07891697 0.092947505 -0.03015745
0002a0 8d 1c bf 3d a4 33 7c 3c 1c 40 29 3e d2 4f 9a 3c
       0.093316175 0.015393171 0.16528362 0.01883689
0002b0 79 23 60 bd 22 f7 0c bd 78 de a3 bd 74 da b3 bc
       -0.05472133 -0.03441537 -0.08001417 -0.021954753
0002c0 fc 16 ab 3c f3 f0 d1 3c 1e d1 92 3d 7a 16 06 3b
       0.020884983 0.025627589 0.07168792 0.0020460174
0002d0 b7 15 72 bd 6a 90 07 3d 86 33 ca bc c4 f9 59 bd
       -0.05910274 0.03309671 -0.024682771 -0.05321671
0002e0 1d b4 58 3d 08 2b ad 3c fe 09 bf 3d ab cd 82 bd
       0.052906144 0.021138683 0.09328078 -0.06386884
0002f0 3f 08 4c bd 0d 7b 38 bd 3a a3 b4 3d cf f5 6b 3c
       -0.04981255 -0.045039225 0.088201955 0.014401867
000300 52 8a 85 bd 28 b2 b3 bc 89 9a e9 bb da 6f 4c bb
       -0.06520523 -0.021935537 -0.0071290177 -0.0031194598
000310 b3 41 c8 bc b8 25 43 3b fa 42 95 3d 97 05 57 bd
       -0.02444539 0.002977712 0.072881654 -0.052495565
000320 93 c8 7f 3d 2a f9 3e 3d ff d3 90 3d 1b c6 6e 3c
       0.06244714 0.04662434 0.07071685 0.014573599
000330 e3 74 34 bd 2b ad 34 bd 68 16 2a 3c 54 c8 54 3d
       -0.044056784 -0.04411046 0.010381319 0.05194886
000340 d3 4c 09 3d 5e 57 60 bd 94 ff a3 bc 3a 5b 59 bd
       0.03352053 -0.05477082 -0.02001933 -0.053065516
000350 f2 a2 ea 3c ff 97 a2 b8 cb 4d ba bd 5b c3 02 bd
       0.028642152 -7.7530734e-05 -0.09096869 -0.031924587
000360 31 be 28 bd 48 13 b0 bc b5 db bc 3d 80 5a eb bc
       -0.041197006 -0.021493569 0.09221593 -0.028729677
000370 86 d9 89 3b cf de 75 bd 2f cf a3 3d 93 87 39 bc
       0.004206839 -0.06002694 0.079985015 -0.011323827
000380 1f 4e 30 3d 36 e2 c8 3d 76 25 cf 3b ef 4e 91 3d
       0.043043252 0.09808771 0.0063216044 0.070951335
000390 f0 eb cc bd bc 3c 9d 3d cc 3c d2 3d c0 e3 9c 3d
       -0.10005939 0.076776 0.10265502 0.07660627
0003a0 2e ec 5e bd 9c ff 3b bc dc 5b 0b 3e 4d ab 84 3c
       -0.054424457 -0.011474516 0.1360926 0.016194964
0003b0 73 68 ba bd ad e2 17 3d fa 33 32 3c cb e5 b0 3c
       -0.09101953 0.03708141 0.01087665 0.021593949
0003c0 01 1f 04 bd d7 ac eb bc 28 b1 3c bd 7d b3 8d 3d
       -0.03225613 -0.02876894 -0.046067387 0.06919
0003d0 0a f0 1c bd 9b 23 a9 3c 70 3f 9f 3d e3 ab ec bd
       -0.038314857 0.02064686 0.077757716 -0.11556222
0003e0 0e ed 12 3a a3 34 18 bb 3b 7f 6d bc 31 d1 2c bd
       0.0005604782 -0.0023224733 -0.014495666 -0.042191688
0003f0 b5 b0 c0 3c c4 7b 8b 3d ef 05 8c bd 46 c4 97 bd
       0.02352176 0.06810716 -0.06837069 -0.07410483

network_body.observation_encoder.processors.0.conv_layers.2.bias f4 [32]
000000 23 13 1f bd c6 07 12 3d 6d c7 50 bd ea e4 2d bc
       -0.03883661 0.035651945 -0.050971437 -0.010613659
000010 09 d3 17 3d ae 57 2c 3d 2d 4b b2 bc 92 33 45 3d
       0.037066493 0.042075805 -0.021764362 0.048144884
000020 46 c7 05 bd c8 22 4f bd 7d db e2 3c fb 92 fc 3c
       -0.032660745 -0.05057028 0.02769255 0.030831804
000030 41 bf 18 3d ac 63 41 3c 17 84 fd 3c 29 51 8a 3c
       0.03729177 0.011803549 0.030946774 0.016884403
000040 39 2d 86 bc 12 93 0f bd eb bc c2 3c ea 70 5f 3a
       -0.016378986 -0.035052367 0.023771724 0.00085236004
000050 89 fa f3 bc 76 41 9d 3c 41 82 84 3d de 4e 5d bc
       -0.02978255 0.019196253 0.064701565 -0.013507573
000060 70 f3 a8 3c 92 00 28 ba 98 2f 0a bd ad 23 8b bc
       0.020623893 -0.00064087764 -0.033736795 -0.016984785
000070 e8 fb 71 3c 08 1b 56 bd 6b 25 86 bc a2 e4 0c bc
       0.014769532 -0.052271873 -0.016375264 -0.008599432

network_body.observation_encoder.processors.0.dense.0.weight f4 [256, 32]
000000 d0 9f 62 3e a1 ee 77 3e 62 d6 ac 3d 40 df e6 bd
       0.22131276 0.24212123 0.08439328 -0.1127305
000010 9a bb a0 be f2 c9 6d 3e 4f 9a c6 be 74 eb 3e be
       -0.3139313 0.23221567 -0.38789603 -0.18644506
000020 4a da 96 bc 38 b9 ed 3d c0 2f a7 be 25 a2 6b be
       -0.018414635 0.11607593 -0.32653618 -0.23011072
000030 e8 3d 68 be 86 cd b5 3e 92 a5 df be 2b 19 05 3d
       -0.22679865 0.35508364 -0.43681008 0.032494705
000040 ca 00 a6 be 8c 62 5a be 43 f1 4a 3f c8 12 f8 bc
       -0.32422477 -0.21326655 0.79274386 -0.030282393
000050 85 20 ae be c3 ab b1 be 41 ff 45 3b 78 33 d8 be
       -0.34009185 -0.34701356 0.0030211958 -0.42226768
000060 3b 1c 7e bd 68 9a fe 3d b0 2b a2 3d 8c 04 dc 3e
       -0.06203864 0.124317944 0.07918489 0.4297222
000070 34 43 0a 3e 77 15 6f be e6 4c 35 3e f7 f4 db 3e
       0.13502198 -0.23348032 0.17705116 0.4296033
000080 39 6b 11 be 6f 4d 5a bd 2f 83 93 be 11 b9 5a 3e
       -0.14201058 -0.053296503 -0.28811023 0.2135966
000090 df 27 c7 3d 5e 30 31 3e 86 bb cd bc 37 3f b3 3d
       0.09724402 0.17303607 -0.025113832 0.08752292
0000a0 2e a7 ec be a3 27 fc 3a df 4b b3 3e 17 74 82 bd
       -0.46221298 0.0019237887 0.35018823 -0.06369799
0000b0 7b dd e9 bd e7 d1 aa 3e 50 37 40 3e f9 8d e0 3d
       -0.11419197 0.33363268 0.187711 0.10964579
0000c0 6f be 0d 3f fa 5c 47 3c 55 79 49 3e 87 65 7f be
       0.55368704 0.012168163 0.19675191 -0.24941073
0000d0 fc f6 63 be 1c be 53 be e0 91 f8 be 7d 54 05 3f
       -0.22262186 -0.2067799 -0.48548794 0.52082044
0000e0 d5 02 46 3c ec 82 cd bd ea 47 84 3e f3 c7 32 be
       0.012085636 -0.10034737 0.25836116 -0.17459087
0000f0 9f b8 73 3e d4 7f 15 be 91 2f 27 3e 72 45 db bd
       0.23800896 -0.14599544 0.16326739 -0.10706605
000100 e5 b2 ac be 3b f2 05 be 7e 89 cf be 7f f9 25 bf
       -0.33730236 -0.13080685 -0.40534586 -0.64833826
000110 4e da 6b be ba 11 6c bd ec cb bb bc b6 76 ff 3c
       -0.23032495 -0.057634093 -0.022924386 0.031184535
000120 ef 7a ca be 6f 34 af 3d 5a ef 64 3e 81 60 d6 3e
       -0.39546916 0.08554923 0.2235693 0.41870502
000130 2e 85 94 3d 3b ef 33 bc 01 6c 57 3e d6 80 f7 bd
       0.072519645 -0.01098233 0.21037294 -0.120851204
000140 c4 c8 ad 3e 40 12 13 bf 21 17 d7 3e 06 2f c8 be
       0.33942235 -0.5744972 0.42009833 -0.39098376
000150 97 6c b2 3c 9e 9f a2 be 97 ec 82 3d 4e dc 97 bb
       0.021780295 -0.31762403 0.06392782 -0.0046344167
000160 1a f1 58 3e 02 a4 cb 3c fc f6 12 3e dd c4 37 bd
       0.21185723 0.024858478 0.1435203 -0.044865478
000170 d9 05 d4 bb 93 25 c6 3c b7 27 6c be b8 98 04 bf
       -0.0064704237 0.024187839 -0.23062025 -0.5179553
000180 9f c3 40 3e d1 09 69 be 4c c0 ad 3e 9f fd 66 3e
       0.18824624 -0.22757651 0.33935773 0.22557686
000190 52 52 10 3e 50 ef a6 3e 8e fb e6 bd f2 39 80 3d
       0.14093903 0.32604456 -0.11278449 0.06261052
0001a0 ce 70 c5 bd 85 b6 f6 bd 96 ca a1 be f0 8d ba be
       -0.096406564 -0.120465316 -0.31599873 -0.36436415
0001b0 2d 7b ae bd c5 80 ca 3d 1f a9 b2 3c 9e 52 39 be
       -0.08519588 0.09887842 0.021809159 -0.18097922
0001c0 06 e2 37 bc 9d 46 38 3e 7e 90 b8 3c 26 8d 24 3e
       -0.011223322 0.17995687 0.022529837 0.16069469
0001d0 b6 7a bc 3e 46 53 51 3e 33 df db 3e c0 33 77 be
       0.3681237 0.20441923 0.42943725 -0.24140835
0001e0 87 6b ad 3d d9 13 0f be 03 d2 49 3e eb e2 f8 3d
       0.08467775 -0.13972415 0.1970902 0.12152656
0001f0 2c 3f a8 3d 12 d2 ae 3e f2 a3 98 bc d1 6b bc 3d
       0.08215174 0.34144646 -0.018632863 0.09200252
000200 54 b5 90 be 7e 05 21 3d c3 e0 9f 3d df 54 bb be
       -0.28263342 0.03931188 0.07806542 -0.3658819
000210 82 e5 33 be 4d 2a 90 be 19 41 85 3e b4 6a 1c 3e
       -0.17568019 -0.28157273 0.26026228 0.15275079
000220 7a fb 3c 3d b7 08 49 be 43 a2 35 bd b0 1e 5a bd
       0.046138264 -0.1963223 -0.044344198 -0.053251922
000230 bb a0 ca bd c5 f1 97 be 5e 29 33 3e c2 43 4c bf
       -0.09893938 -0.29676643 0.17496249 -0.7979089
000240 3c 21 ae 3d c6 6b 60 3d 0b 26 22 3e 08 f1 0c be
       0.08502433 0.05479028 0.15834825 -0.13763821
000250 53 ff 9c 3e c9 33 16 be ec 39 6c 3e 0d 64 24 be
       0.30663547 -0.14668192 0.2306897 -0.16053791
000260 e8 19 5c 3d ab 99 6e 3d c6 55 2b be 7a 0c 83 be
       0.053735644 0.058252018 -0.16731939 -0.25595456
000270 3d 43 5c 3e b7 48 80 be 11 96 b3 be 4a 00 23 3d
       0.21510024 -0.25055477 -0.3507543 0.039795198
000280 ce 09 4e 3e 92 d5 a1 3d d8 6c 8a bd ca 32 c1 3c
       0.20120928 0.079020634 -0.067590415 0.023583788
000290 57 20 39 bd 72 8a 50 3c b0 82 d5 be e7 5a aa 3d
       -0.045196857 0.01272832 -0.4170127 0.083181195
0002a0 4c 84 78 be e4 9a 00 3f 84 d6 7f 3e fd a5 92 be
       -0.24269217 0.50236344 0.24984175 -0.28642264
0002b0 82 12 f5 bd 52 04 af bc 53 24 88 3e 4e 22 1d be
       -0.11966421 -0.021364365 0.26590213 -0.15345117
0002c0 9b f9 a1 bd 50 36 55 be 84 2a a5 be b7 f6 6e 3e
       -0.079089366 -0.208215 -0.32259 0.23336302
0002d0 13 32 2a 3d f3 22 0c 3f 7c a6 a9 3c 32 aa d0 bd
       0.04155166 0.5474083 0.020709269 -0.10188712
0002e0 d4 5c 6b be 91 7b 6b 3e 94 3c 08 3f 61 10 10 3a
       -0.2298463 0.22996356 0.53217435 0.0005495605
0002f0 0f 89 90 bd 54 4f a8 3e b8 16 fc bd 4e 2c c3 bd
       -0.07057392 0.32873023 -0.12309021 -0.09529935
000300 6d e9 08 3e 4f e4 c7 3d 83 4f 18 bd 6a ff be 3d
       0.13370295 0.09760343 -0.037185203 0.0932606
000310 dd a0 1e 3d 86 2f 83 bd 29 f7 e8 bd f0 48 41 3d
       0.03872763 -0.06405549 -0.11375267 0.0471887
000320 7d 5d 89 be 0c 11 5f be ff c1 5b bd 83 44 c4 be
       -0.26829138 -0.21783847 -0.053651806 -0.3833352
000330 da b5 ba 3e 1d d8 8e be 39 81 89 3d 64 73 3c be
       0.36466867 -0.27899256 0.067141004 -0.18403393
000340 f0 0f 8c be 9e c9 93 3e 19 ae 10 3e 0a 06 7b 3d
       -0.2735591 0.2886476 0.14128913 0.061285056
000350 03 6a 2c 3d 23 ef 42 3d 5f 4b 19 3e be 52 99 3c
       0.04209329 0.04759134 0.14970158 0.018716212
000360 df eb 6d 3e a2 37 0c be fc 00 85 bd 52 ee 55 be
       0.23234509 -0.13693097 -0.064943284 -0.20891693
000370 48 2f c4 be 77 31 2b be f8 a5 79 bd a4 89 52 be
       -0.38317323 -0.16718088 -0.060949296 -0.20560318
000380 3f 17 c2 bd 3d 86 e9 bd 31 06 cf 3d 2b 4f 9e 3e
       -0.0947709 -0.11402557 0.10108603 0.30919775
000390 d7 7b a7 3e f0 5a e6 bb 13 72 2a 3e 10 7a ca be
       0.3271167 -0.0070298836 0.16645078 -0.3954625
0003a0 b7 6d ab 3e 67 50 49 3d 75 7f 0e 3e 41 9b 0b be
       0.33482143 0.049148943 0.13915808 -0.13633443
0003b0 6f 2b 8b 3e 7d ab 6d be a4 49 d2 bc 2f 7d 7d 3d
       0.27181575 -0.23209949 -0.02566988 0.061886963
0003c0 be c5 0c bd b0 17 4e 3e 5e 78 1c 3f e7 e4 8f bd
       -0.03436827 0.20126224 0.61121166 -0.070260815
0003d0 8f 2f 98 3e 53 f1 dc bd 3f 29 02 3d 6d 12 65 3e
       0.29723784 -0.107882164 0.031777617 0.2237031
0003e0 f9 7a 07 3f 14 89 2d 3f 0d 4d 4e 3e 1d 6d 1e bd
       0.52922016 0.6778729 0.2014658 -0.038678277
0003f0 a3 ad 07 be 89 ea ba 3e 7b 5a 4e 3e be 94 fd 3e
       -0.13249831 0.3650706 0.20151703 0.49527544

network_body.observation_encoder.processors.0.dense.0.bias f4 [256]
000000 df ab 30 bd 7b 32 18 3d f6 62 37 bb 75 26 ca bc
       -0.04313266 0.037157517 -0.002798257 -0.02467654
000010 62 16 78 bd a1 3e 1b 3d cf c2 b0 bc 44 6b 7e 3b
       -0.06056822 0.037901524 -0.021577267 0.003882126
000020 be 27 1f bc 19 aa e9 3a 72 eb f1 bb 67 d6 35 3d
       -0.009714065 0.0017827182 -0.0073828036 0.044393923
000030 23 4b f0 3c d9 cf cb 3c 0e 58 f4 3c c8 7b cc 3c
       0.029332703 0.024879383 0.029827144 0.024961367
000040 22 e9 4c bc 66 0b 0b 3d 7d 18 a3 3d 52 44 a5 3c
       -0.012506755 0.033946417 0.07963655 0.02017418
000050 6a f7 70 bd ce a3 a8 3c 6f 2e 91 bc 16 53 e6 3c
       -0.058829702 0.02058592 -0.017722337 0.02811579
000060 db f5 90 3a 20 59 f7 bc 0d 54 bf 3c b8 1e 90 bc
       0.0011059599 -0.030193865 0.023355508 -0.017592773
000070 16 83 12 bb f2 e1 87 3c 6b 0c 68 bc d0 f6 bb bc
       -0.0022355965 0.016587231 -0.014163117 -0.022944838
000080 ff a4 de 3a f2 31 01 3d 79 40 13 3c 7f 8c 52 bc
       0.0016986429 0.031541772 0.008987539 -0.01285088
000090 62 5a 2d bd 44 de 9a 3d 02 f2 e3 3b a2 fe 8e 3c
       -0.042322524 0.07561925 0.00695634 0.017455403
0000a0 a4 8c c7 bc 3f 35 1f bd 78 0c 2f 3d 2f fd 9a 3c
       -0.024359055 -0.03886914 0.0427365 0.018919555
0000b0 2a d1 96 3c 25 37 a0 3c a6 e9 b5 bc c8 33 a6 3b
       0.018410284 0.019557545 -0.022206139 0.005072091
0000c0 94 ad 41 3a 5f c0 84 bc 54 d2 3f 3d dc 7b 2d bd
       0.0007388231 -0.016205011 0.046831444 -0.04235445
0000d0 ad b5 c1 3b 07 1a 31 3c 64 66 8e 3d c9 a7 3a bd
       0.00591155 0.010809428 0.06953123 -0.04557017
0000e0 b1 ed 7a 3d 69 2d aa bc bb fb 22 bc dd 44 05 3d
       0.061261836 -0.020773606 -0.0099477125 0.032536376
0000f0 f7 45 d1 bc ea fb ca bb dc f7 d9 3c eb e2 13 3d
       -0.025546057 -0.0061945813 0.026607446 0.036105078
000100 e2 5f 4b 3c 2a 33 93 3c 48 b2 d6 bc 32 24 03 3d
       0.012412997 0.017968733 -0.026208058 0.03201694
000110 c9 69 c1 bc 46 a8 9a bb ab 27 78 3d 9a 0c 2e 3c
       -0.023610013 -0.004719767 0.060584705 0.010623122
000120 e7 f2 04 3d ec e6 64 bd 02 ad 46 bb 57 39 0d bc
       0.032458212 -0.055884287 -0.0030315523 -0.008619628
000130 97 1a 66 bc 3d a0 1a bd a2 ef b3 3c 81 41 b9 3c
       -0.014044425 -0.03775047 0.021964852 0.022614243
000140 e1 92 74 3c 7b 6b 42 3b b6 89 37 ba ee 4f cb bc
       0.014927597 0.0029666114 -0.00070014165 -0.024818387
000150 05 24 85 3d 5d 05 b6 3c 45 c2 98 3c 03 d5 e9 3c
       0.06501011 0.022219354 0.018647322 0.028543955
000160 36 ef a3 bc d7 fb 6d bd 83 68 73 bd 7a b7 07 bd
       -0.020011526 -0.0581015 -0.059425842 -0.03313396
000170 54 05 a2 bc 10 ff 92 3c 66 f2 a3 bb 1d cf a1 bc
       -0.019777931 0.017943889 -0.0050032614 -0.01975208
000180 40 9a 85 3a 5c 53 44 bd 98 c5 72 3d a5 d1 3d 3b
       0.0010193065 -0.04793106 0.05927047 0.002896407
000190 b4 ff 13 3d c5 14 55 3c a3 b7 88 bb 0f 9c 45 3c
       0.03613253 0.01300544 -0.004172282 0.012061133
0001a0 bd 07 2c bd 38 55 32 3d 1e 86 c8 3b 64 61 b2 bc
       -0.041999567 0.043538302 0.0061195036 -0.021774955
0001b0 a6 a5 05 3d d6 75 39 b9 06 bb 9e bc 5c 0d e3 3c
       0.032628678 -0.00017686872 -0.01937629 0.027716331
0001c0 16 48 82 bb 2e 3d 2f bc 57 26 07 ba c3 13 55 3c
       -0.0039758785 -0.010695739 -0.00051555544 0.0130052
0001d0 65 93 33 3b 19 a9 c5 3c 89 48 a0 bc 79 ec 54 3c
       0.0027401086 0.024128484 -0.019565837 0.012995833
0001e0 b9 62 5f 3b 33 cc 9c bc 3c d4 90 bc 6f 77 fa 3b
       0.0034085943 -0.019140339 -0.017679326 0.007643632
0001f0 86 e4 63 bc fd 9c fc bc 3f db 95 3c c8 77 3d 3c
       -0.013909465 -0.030836577 0.018293021 0.011564203
000200 3d 8f b1 bb c9 d9 05 3c e5 67 00 bd 92 98 a1 bc
       -0.0054186867 0.0081696 -0.03134908 -0.019726072
000210 9a 91 c1 3b bb 77 2a bc b5 f0 34 3c d5 3c b8 bc
       0.0059072496 -0.0104045225 0.011043717 -0.022489944
000220 4b cc b4 3c e2 23 d2 3c 9e 70 97 bc b0 5b 0a bd
       0.02207007 0.025651876 -0.018486317 -0.033778846
000230 e4 28 30 3b b7 b1 43 bd 59 fe 16 bc 4b 76 42 3c
       0.0026879841 -0.047776904 -0.009215915 0.011869024
000240 ba 7f 3a 3d 78 1b 25 bd ac f6 29 bb 9d bf e9 ba
       0.045531966 -0.0403094 -0.0025934381 -0.0017833594
000250 a1 c4 46 3d 8d 10 65 3d 00 13 9c 3b 47 e5 ce 3c
       0.048527364 0.055923987 0.004763007 0.025255812
000260 7d 49 e2 bc 0f ad 5f bc ef 5e 25 3c 28 cb 10 3d
       -0.027622933 -0.0136521 0.010093435 0.035349995
000270 eb ca 0a 3d de 99 c1 3c 9e de 42 bb b2 b5 f5 bb
       0.033884924 0.02363294 -0.002973474 -0.0074984664
000280 ac 14 f3 3c 61 23 43 3d a1 99 d5 bc 34 13 ed 3a
       0.029672943 0.04764116 -0.026074233 0.0018087388
000290 1d ab 38 bc 5e b6 fa bc 20 12 d9 bb 0a 8e 85 bb
       -0.011271265 -0.030604538 -0.006624475 -0.0040757703
0002a0 7c a9 18 3c fe f2 3a bd ee 11 90 3c 43 9f 5d bc
       0.009317752 -0.04564189 0.017586675 -0.0135267405
0002b0 fd 53 9a 3c de eb 5a 3d 8e 19 52 3c df 37 81 3c
       0.018838877 0.053447597 0.0128234755 0.015773712
0002c0 50 47 43 ba 2d 52 2c bc b8 c1 05 3d 6c c3 2f 3b
       -0.0007449286 -0.010517639 0.032655448 0.0026819361
0002d0 95 28 c9 3c fd 5d 9d 3a 06 9f df 3a 38 ed 28 bd
       0.024555484 0.001200616 0.0017060942 -0.041241854
0002e0 88 d8 d9 bb 53 6a 24 bc da 42 16 3d a6 df a5 bc
       -0.006648127 -0.010035115 0.03668485 -0.020248245
0002f0 55 82 4f 3c 40 95 cb bb 25 fc f3 bc 21 6a 27 3d
       0.012665351 -0.0062128603 -0.029783318 0.040872697
000300 9d d7 ef ba b9 bd b5 3a ab e3 dc bb 9f 23 51 3c
       -0.0018298511 0.0013865746 -0.0067410073 0.01276484
000310 3a d3 5e bb 5c f8 f3 3c 6f 0f ea 3c 88 fa 27 bc
       -0.0034000413 0.029781513 0.028571812 -0.010252602
000320 8c 02 89 3c c5 db 0b 3d 1f 28 49 3c 30 f8 8f bc
       0.016724847 0.034145135 0.012277632 -0.0175744
000330 77 81 a7 bc 1f 20 07 3d b0 8f b2 bb 39 19 e8 3c
       -0.020447476 0.032989617 -0.005449258 0.02833234
000340 bf 0e 0c bc bd 84 9e 3c 8c a3 ab 3c b6 22 05 bc
       -0.008548438 0.019350404 0.020952009 -0.0081259515
000350 98 83 a6 3c c2 be 01 3b 50 23 53 3d d0 e7 9f bc
       0.02032642 0.0019797538 0.05154735 -0.019519717
000360 91 4c 7b 3b f6 39 b3 bb 25 6c 66 3c 33 6f d5 3c
       0.0038345198 -0.005469556 0.01406387 0.026054
000370 71 5c 93 3c bf 78 6b 3b e0 bd 3c 3d cc 1f 03 3c
       0.017988415 0.0035930125 0.046079516 0.008003186
000380 b9 6b a6 39 f3 42 c6 3c 53 da 8e ba 4c a0 92 3c
       0.00031742247 0.024201846 -0.0010898806 0.017898701
000390 a8 7d 98 3c 53 c7 88 3c 31 9d a0 3b 83 64 d2 3c
       0.018614605 0.016696608 0.004901551 0.025682693
0003a0 ed 3d a6 3c fd 18 1a bd 35 e0 9c 3c 8e a8 2c 3b
       0.0202932 -0.037621487 0.019149879 0.0026345584
0003b0 09 38 1f 3c e3 6f fd 3c d4 74 cc bb 65 f9 e6 3b
       0.00971795 0.03093714 -0.006239513 0.007048773
0003c0 1b 70 93 bc 78 92 9b 3b 44 4e 16 bd b6 5e 2f 3c
       -0.017997792 0.004747685 -0.036695734 0.010703733
0003d0 23 23 2d bd 61 3a 21 3d 3f c7 23 3b a2 03 2e 3d
       -0.042269837 0.039362315 0.0024990586 0.042483933
0003e0 b1 ea 2b 3d 50 9f 6e 3c 69 1b 85 bd 27 e8 bd 3b
       0.041971866 0.01456435 -0.06499369 0.005795497
0003f0 6e 99 89 bc fb d3 7a bb c0 81 a2 3c 97 e9 ab 3b
       -0.016796794 -0.0038273323 0.01983726 0.005246352

network_body._body_endoder.seq_layers.0.weight f4 [256, 256]
000000 08 ba 2f bd c7 4f 27 3e 3e 0e ac ba 2b 91 45 3d
       -0.042902023 0.16339026 -0.0013126803 0.048234146
000010 21 e3 49 3c d8 11 70 3c 82 14 61 3d 5f d7 2f be
       0.012322218 0.014652692 0.0549512 -0.17172001
000020 25 6f 79 bd f6 1b 8a bc 2b 9e 5e 3c 94 db be 3c
       -0.06089701 -0.016859036 0.013587515 0.023298062
000030 93 af 2e bd 9d df 7a 3d 20 07 04 bb 9d 81 22 bd
       -0.04264791 0.06124841 -0.0020145848 -0.03967439
000040 15 71 cb 3d f0 a3 16 3e 58 d3 b2 3d 7b 37 4b bc
       0.09933678 0.14710975 0.08731717 -0.012403364
000050 7f 0b 5f bd f5 99 39 bd a2 77 a9 3d c7 bf ac 3d
       -0.054454323 -0.04531284 0.08274771 0.08435016
000060 db e7 11 3c 20 37 42 bc 92 6d b3 3c 2d f6 ce 3c
       0.008905376 -0.011853963 0.021902833 0.02526387
000070 e3 eb e1 3b d4 e5 cb 3c 8f 58 84 be 91 d2 13 be
       0.006894575 0.024889864 -0.25848815 -0.14435793
000080 54 63 58 3e 23 36 f5 bc 42 fd ed 3d f1 5b b2 3d
       0.2113164 -0.029933041 0.11620571 0.08708943
000090 66 f9 5d bd 67 6f b8 3d 5c f8 a2 3d eb 9b f7 3b
       -0.054192923 0.09005623 0.07957527 0.0075564287
0000a0 d1 65 7f 3d 73 37 9c bd c5 3c 6f 3d d2 a6 34 3e
       0.06235296 -0.076277636 0.058407564 0.17641762
0000b0 27 74 04 3e 74 a2 f0 3c 1f 2d 05 3e 75 e6 86 3d
       0.12934934 0.029374339 0.13005494 0.06586925
0000c0 29 a1 aa 3d c9 10 98 bd b1 a5 61 bc 8b ec 70 bd
       0.0833152 -0.074250765 -0.013772414 -0.058819335
0000d0 80 50 38 3d fc fa e4 bd ca ab 39 bd 18 77 ae bd
       0.044998646 -0.11180684 -0.045329846 -0.08518809
0000e0 6e b3 47 3d 2d 53 67 3d 6e 5a e9 3d 5b b4 a5 3d
       0.0487551 0.056475807 0.11394201 0.08091041
0000f0 be 07 52 bd f3 2f 3c 3d f3 73 9e bd 03 6a a3 3d
       -0.051276915 0.045944165 -0.07736959 0.079792045
000100 6e 47 fc 3c ef 30 09 3e 9d be c1 3d 9c bc 00 3e
       0.03079578 0.13397573 0.09460185 0.12571949
000110 83 e8 0f bc c8 19 17 bd 85 3d 3a bd d8 62 2c bd
       -0.008783462 -0.03688982 -0.045468826 -0.042086452
000120 ae 5c a6 bc ae 9b 86 bc c7 9b fd 3d 6b 16 99 bd
       -0.020307865 -0.016431656 0.12383228 -0.07474979
000130 79 eb 2e bd b6 c5 01 3e fa 86 88 3d 19 2d 45 be
       -0.042705033 0.12673077 0.0666637 -0.19255485
000140 00 a7 d0 3d 60 ce 99 3c 8b ee 13 3d 0f a4 67 3e
       0.10188103 0.018775165 0.036116164 0.22621177
000150 b5 c6 a1 3d 62 20 a1 bd e4 b2 95 3e 87 69 d2 3c
       0.078992285 -0.07867505 0.29238045 0.025685085
000160 84 48 53 bd a7 59 04 3d 43 70 9b 3d b7 48 a8 bd
       -0.05158283 0.03231206 0.075897716 -0.08216994
000170 36 2f 2a bc f9 bd 5a bd 0f c4 da bd cd dd f4 bd
       -0.0103872325 -0.05340383 -0.106819265 -0.11956368
000180 a5 c5 23 bd cb bc b1 bd e3 9a f5 3d e0 e1 c0 bd
       -0.03998341 -0.086785875 0.11992433 -0.09418082
000190 4d 20 c2 bd 3e a7 1c bd e8 bb 20 bd 06 c6 0f 3c
       -0.09478817 -0.038245432 -0.0392417 0.00877524
0001a0 93 d9 ad bd 3f 68 9f 3d ad 1f 8b bc 40 f6 1f 3d
       -0.084887646 0.07783555 -0.016982878 0.0390532
0001b0 15 f0 ab bd 74 44 4d 3c ad 41 60 bd ee c1 5b 3d
       -0.083954014 0.0125285275 -0.054750133 0.053651743
0001c0 5a f1 6b 3d b7 44 b4 bc 71 c1 93 bd e0 2f 73 3c
       0.057603218 -0.022005422 -0.072146304 0.014842957
0001d0 7f b2 4b bd 80 57 07 3d b2 5c 38 be a8 de 0d bd
       -0.049730774 0.03304243 -0.1800411 -0.03463617
0001e0 e3 4e 78 bb 0d 37 85 3d 39 a9 8b bc 74 67 29 bd
       -0.0037888817 0.06504641 -0.017048465 -0.041358426
0001f0 d0 f0 ee 3d 87 7e e3 bd 03 95 37 bd f8 90 3e bd
       0.11667025 -0.111081176 -0.044819843 -0.04652497
000200 98 18 6f 3c ef 07 1f 3e 39 d6 17 be eb d4 9c bd
       0.014593266 0.1553037 -0.14827813 -0.076577984
000210 f3 f6 c4 3d ac 79 f2 3b 65 2a 1b 3d 9c eb 89 3d
       0.09617414 0.0073997583 0.037882227 0.06734392
000220 ca a7 ed 3d ad 6f cc bc dd 29 3c bd f3 dc bb 3d
       0.11604269 -0.024955595 -0.04593836 0.09173002
000230 3e 36 55 bc 43 eb 32 3d 65 e6 41 be 07 84 44 bd
       -0.013013421 0.043681394 -0.18935545 -0.047977474
000240 4d f5 da 3d 85 3f 25 3c de 3d 06 bc e0 d1 66 bd
       0.10691319 0.010085945 -0.008193461 -0.056352496
000250 4d 17 1e 3d 0e 27 b4 3d f8 c0 28 3d 16 1a 29 3e
       0.03859644 0.087965116 0.041199654 0.16513857
000260 22 b5 85 3b dd 78 ca 3c d8 71 82 bc 71 35 86 bc
       0.0040804306 0.024715835 -0.015923426 -0.016382905
000270 95 27 5a 3d 3c aa de bd 9d 44 de 3b d8 99 67 3d
       0.053260405 -0.108723134 0.0067830817 0.0565432
000280 f8 fd d1 3d b9 96 03 3e 26 b9 a5 bd 11 21 81 3d
       0.10253519 0.12850465 -0.08091955 0.06305135
000290 af 85 ac 3d c8 29 6e be 09 98 cc bb 66 4d eb 3b
       0.084239356 -0.23258126 -0.00624371 0.0071808575
0002a0 28 f6 48 bc 4f 94 e7 3c 2b 7b 03 bd 73 99 fa 3b
       -0.0122657195 0.028268961 -0.032099884 0.007647687
0002b0 b8 af c4 3d 12 9b 02 bd bc 2b 3b 3e cd ed d7 3c
       0.09603828 -0.031886168 0.18278402 0.02635851
0002c0 49 f6 83 b7 d6 4c d3 bd 85 54 8c 3d d9 f7 8f 3d
       -1.5731102e-05 -0.1031739 0.06852058 0.07029695
0002d0 d5 7b 4a 3d b2 63 25 bc c8 af 94 3d 56 6c 2c 3e
       0.0494345 -0.01009457 0.0726009 0.16838202
0002e0 00 35 ad bc fb da 74 3b bb aa e5 bd 6c 10 1b be
       -0.021143436 0.0037361968 -0.11214205 -0.15142983
0002f0 e9 bb c7 bc a8 c4 5d bd af 1a 42 be 46 ff e5 3d
       -0.024381595 -0.054142624 -0.18955491 0.1123033
000300 82 f1 da 3c f4 35 87 bb 42 b6 0f be 12 2c 29 bd
       0.026726488 -0.0041263048 -0.1403437 -0.041301794
000310 28 06 9e b9 54 96 af 3d fe 75 db 3c 48 50 bb bb
       -0.00030140695 0.08573595 0.026789661 -0.0057163574
000320 80 83 0a 3e 45 27 3d bd c1 bf c5 bc 66 6b 53 3d
       0.13526726 -0.04618003 -0.024139287 0.051616095
000330 55 c4 ba 3c 30 af b3 3b 9f bc 9d bd 9e db b2 3d
       0.022798697 0.0054835305 -0.07701992 0.08733295
000340 4d e1 09 3d 11 1b e9 bd 40 6f 9c 3d 9b 26 05 be
       0.03366213 -0.11382116 0.07638407 -0.13003008
000350 5c 38 55 bc c7 b6 ac bc 29 30 33 bd 0d 63 98 bd
       -0.013013925 -0.021083249 -0.0437471 -0.074407674
000360 fc 29 a2 3c 23 69 35 be 6b a3 54 3d 8c 12 26 bd
       0.01979541 -0.17715888 0.05191366 -0.04054503
000370 04 bc 1a bc 23 71 1c 3d 24 fa 92 3c 33 39 59 bd
       -0.0094442405 0.038193833 0.017941542 -0.053033065
000380 16 f8 59 3d ab 00 a7 bd 8c 46 d3 bd 74 15 3f 3d
       0.05321511 -0.08154424 -0.1031619 0.04665132
000390 6a 3a 14 bc 2f 37 02 be 11 cb 24 3d 10 33 57 bd
       -0.00904713 -0.12716363 0.04023272 -0.05253893
0003a0 c3 f0 a2 3c bd 9f f2 bb 3b 55 45 3d 42 35 d4 bd
       0.019890195 -0.007404296 0.048176985 -0.103617206
0003b0 4e e8 a7 3c ae 71 5e be a1 9d 10 bb 01 c4 06 bd
       0.020496514 -0.21723053 -0.002206661 -0.032901768
0003c0 18 43 70 3c 8d 22 d1 3c df 94 da bd 33 46 13 bd
       0.014664434 0.02552917 -0.10672926 -0.03595562
0003d0 2c 79 be 3d c9 fe 2f 3c 06 d9 d9 3c 75 56 13 3d
       0.093004555 0.010741898 0.026592743 0.035971124
0003e0 74 47 48 3c 0f f5 37 3d 46 95 8e ba 56 a6 f1 3d
       0.012224067 0.04491144 -0.0010878227 0.11799304
0003f0 02 3b d9 3b f3 a4 c6 3c c7 14 b8 bd 6f 75 3d be
       0.0066293487 0.024248576 -0.08988338 -0.18501829

network_body._body_endoder.seq_layers.0.bias f4 [256]
000000 7c cd 50 3c 55 3e 3c bc 1d 89 65 3b 52 a3 99 3c
       0.012744304 -0.0114894705 0.0035024353 0.018754635
000010 33 d4 57 3c c4 e2 12 bb 21 02 01 3c d4 f0 6d bc
       0.013173151 -0.0022412995 0.007874043 -0.01452275
000020 28 b5 1f 3c 5e 58 1b bb ce 06 06 bc cd 4a 0a bb
       0.009747781 -0.0023703794 -0.008180333 -0.0021101714
000030 5e f7 fe bb 4f 65 d6 3b 0c 88 1c bc 22 aa 46 bb
       -0.0077809533 0.0065428386 -0.0095539205 -0.003031381
000040 b5 bf 68 bc c5 3b 26 3b 18 d7 26 3c 19 76 40 bc
       -0.014205863 0.0025365215 0.010183118 -0.011746907
000050 b9 40 86 3b 7e 18 1d 3c 5d 2c 0a 3c c9 25 96 bc
       0.004097071 0.009588359 0.008433429 -0.018328564
000060 42 2b 08 bc da f2 a4 3b 28 21 57 3c 89 47 ac 3c
       -0.008311095 0.005033833 0.013130464 0.021030204
000070 8d ca 8c 3c e8 99 0d 3b 78 1d 9b bc 2d 00 b7 bb
       0.017186427 0.0021606628 -0.01893495 -0.0055847378
000080 0e 94 23 3c e3 18 bf 3c 94 4a b7 3b ad a3 65 3c
       0.009984029 0.023327297 0.005593607 0.014016074
000090 dc 31 15 bc 50 a7 2d 3c 34 ae 30 3c 64 02 8c 3c
       -0.009106126 0.010598972 0.010783721 0.017090984
0000a0 80 b3 85 3c d3 69 c5 3b e6 28 6f 3c be 1a 9e 3c
       0.016320944 0.006024578 0.014597153 0.019299861
0000b0 3f 21 14 bc 07 16 f2 3b ec 34 9b 3b 59 a0 2b 3c
       -0.00904113 0.00738788 0.0047365334 0.010475242
0000c0 4b bc 1c 3c b9 e6 75 bc 1d ab 5f bc f8 25 4f 3c
       0.009566377 -0.015008622 -0.013651636 0.01264333
0000d0 55 66 22 bb 9b 2d b0 bb ed db 6a 3c 86 60 ae 3b
       -0.0024780233 -0.0053765303 0.014334661 0.005321565
0000e0 3e 09 72 bc d6 2d 2c bc 25 9d 16 3c a4 4b da bb
       -0.014772711 -0.010508975 0.00919274 -0.006661849
0000f0 82 1b 99 bb 63 c6 80 bb 31 4f 5e 3b eb b9 a1 bb
       -0.0046724686 -0.0039298995 0.0033921713 -0.004935493
000100 c1 65 56 bc 3d 98 0d 3c 49 cd be 3c 3d 59 2d 3c
       -0.013085783 0.0086422535 0.023291247 0.010580358
000110 a2 bf e7 3c e0 d2 58 3c 5f 11 9f 3b 3d 74 5d 3c
       0.02828962 0.01323387 0.0048543657 0.013516483
000120 40 05 a8 bc e3 9e 33 3c 51 74 af 3a 48 78 d6 bb
       -0.020510316 0.0109631745 0.0013386105 -0.0065451004
000130 86 88 6f bb 69 1d 0e bc b1 72 90 3b 26 c1 7e 3b
       -0.003654988 -0.008674004 0.0044082035 0.003887245
000140 fa 9b f3 bb aa cb a4 ba 4f da 79 ba 9f e5 32 3c
       -0.0074343653 -0.0012572904 -0.00095311267 0.010919004
000150 6a 6c 16 3c 5c a1 90 3c e8 16 a9 3c e9 4c 06 3c
       0.009181121 0.017655067 0.020640805 0.008197048
000160 5f 89 98 bb 7b 5b 79 3c 1e 22 60 3c 5a 63 e1 3c
       -0.004655048 0.015219565 0.013680009 0.027513195
000170 75 4b 0b 3b b3 19 1b 3c d6 39 5e bc 8c 4f b4 3c
       0.0021254693 0.009466576 -0.013563594 0.022010587
000180 47 37 46 3c 16 4c 63 3c bf 64 23 bc 2d 97 59 bc
       0.01209814 0.013873121 -0.00997275 -0.013280672
000190 c8 fb 1c 3a cf ad c1 ba a4 ac 30 3c 15 2f e4 3c
       0.0005988446 -0.001477653 0.010783348 0.027854482
0001a0 bc 43 78 3c 29 b6 2a 3c f5 32 7b 3c bb ef e5 3b
       0.015152868 0.010419407 0.015331973 0.0070171035
0001b0 b4 5e 0d 3c eb c1 8c 3c 17 60 70 3c 50 93 bd 3c
       0.008628536 0.017182311 0.014671347 0.023141533
0001c0 1d 2c 9e bb ec a1 09 3b be 47 35 3c f9 65 6a 3a
       -0.004827036 0.0021001054 0.011064468 0.0008941587
0001d0 4d 04 4c ba 3d f2 66 3c 34 aa 5e bc 9d e7 1c bc
       -0.0007782623 0.01409584 -0.013590384 -0.009576705
0001e0 8d c1 81 3b 6c c7 16 3a 47 13 b8 3c 91 c8 69 3c
       0.0039598406 0.0005751762 0.02247013 0.01426901
0001f0 96 0c 8d 3c d8 7e 0a 39 86 15 9d 3b 30 1f 6e bc
       0.017217916 0.00013207959 0.0047938256 -0.014533803
000200 1f 8e b0 bb 75 c8 69 3c a2 a0 43 3c 6d 35 f9 bb
       -0.005388036 0.014268984 0.011940153 -0.007605246
000210 e8 29 72 3a 0c f1 fd bb fb 89 6e 3c 80 09 a1 bb
       0.0009237812 -0.0077496823 0.014559264 -0.0049144626
000220 1c 66 11 bc 09 2b 84 bb 08 ea 9b 3c 45 c0 61 3c
       -0.008874442 -0.0040334505 0.019032493 0.013778751
000230 fc b8 06 3c 2e 47 d4 3a 8a 87 49 bb 77 3f af 3b
       0.008222815 0.001619553 -0.0030750954 0.005348142
000240 27 0a 5a 3c fd b8 11 3c a6 d2 8c bc 2e d9 cb bb
       0.013308085 0.008894202 -0.017190289 -0.006220958
000250 0e f5 0d bb 86 4a a0 3c 83 c8 74 3c ba 63 16 3c
       -0.0021660957 0.019566786 0.014940384 0.00917905
000260 2c c5 c4 3b 35 5d cf 3b 84 80 a3 3c b4 0e 45 bc
       0.00600495 0.00632825 0.019958742 -0.012027431
000270 6e e1 67 3c 81 e7 01 bc 2c 18 72 bb 5a 1b 8d 3c
       0.014152868 -0.00792873 -0.0036940677 0.017224956
000280 87 32 61 ba 6c 0b 2b 3b 46 6b 17 bc 4b 8f 4e bc
       -0.0008590598 0.0026099337 -0.009241885 -0.012607406
000290 a5 58 37 bb 52 a0 9d 3c a0 fd 86 3b 2d 16 b9 3c
       -0.002797642 0.019241486 0.00411959 0.022593582
0002a0 37 28 3f bc a6 2e 51 3c 34 fe ba 3c cd 92 41 bc
       -0.011667303 0.0127674695 0.022826292 -0.011814785
0002b0 8c 95 f9 bb e8 0f 00 3b 14 34 38 bc 49 52 99 3c
       -0.0076167043 0.001954073 -0.011242885 0.018715994
0002c0 c9 57 1e ba a9 f4 af 3c 72 fb 9f 3c 7a 5e 85 3c
       -0.00060403027 0.021478968 0.019529078 0.016280401
0002d0 ab cb bf bb a7 02 65 3c 27 f9 c3 3b 08 9d 84 3b
       -0.0058531365 0.013977683 0.005980629 0.00404704
0002e0 53 66 31 bc 0b 0c b7 3c 30 15 27 3c 57 67 9f 3b
       -0.010827619 0.02234461 0.010197923 0.004864614
0002f0 da d8 36 3c 8c ec 4e 3c 45 25 09 bc 34 24 88 3c
       0.0111601 0.012629639 -0.008370702 0.016618825
000300 7e 20 6d 3c 23 f3 b8 3c 9c 6d 72 3c af fe 0c 3b
       0.014473079 0.022576874 0.014796641 0.0021514108
000310 be b1 71 3c 92 d5 b4 bb 0b d9 f1 3b 4a cd b8 3c
       0.01475185 -0.0055186236 0.00738061 0.022558827
000320 15 f1 6a b9 9d b5 1a bc 31 26 10 bc d2 28 3c bc
       -0.00022405789 -0.009442714 -0.008798168 -0.011484342
000330 b8 a5 5f ba 12 eb 8a bb d5 04 c3 3c e1 53 bb 3c
       -0.0008531469 -0.0042394483 0.023806015 0.022867145
000340 07 2d fd 39 5a a8 90 bc ae 1f 68 3c bc 53 42 3c
       0.00048289468 -0.017658401 0.014167709 0.011860784
000350 4e 2c 17 3c 5d fd e9 3b c8 d6 b2 3c e8 8a a0 3c
       0.009226872 0.007140799 0.021830931 0.019597486
000360 ef 7e 04 bc 8b 0b 4e 3c b2 e3 cc 3a bc 57 80 bb
       -0.008086904 0.012575994 0.0015631823 -0.0039167088
000370 df a8 37 bc f5 ad 3e 3c c8 05 70 bc 7c 25 37 3c
       -0.011209696 0.011638154 -0.014649816 0.011178371
000380 f3 95 92 3b c9 69 4a 3c 58 66 88 3c 95 e7 6b 3c
       0.0044734417 0.012354323 0.016650364 0.014398475
000390 42 d9 1a 3c cb 51 bf 3b 12 e7 01 3c c1 c1 0e bc
       0.009451212 0.005838608 0.007928627 -0.008713187
0003a0 67 75 3c bc 59 1b 9e bc 5e 25 0a 3c b8 ef 4e 3c
       -0.0115026 -0.01930015 0.008431761 0.012630396
0003b0 6c 0d 92 3c b4 88 55 3b 73 d1 8c bc bc c7 ab 3b
       0.017828666 0.0032582702 -0.017189717 0.005242316
0003c0 b0 9d 6c 3b 4f d3 db 3c da 6b d0 bb 19 e5 88 ba
       0.0036104731 0.026834158 -0.006360513 -0.0010444253
0003d0 b1 9d 5d bc ca 23 f4 bb 69 7d bb 3b 6a 38 84 3c
       -0.013526366 -0.0074505555 0.005721737 0.016140182
0003e0 44 08 22 3b a5 f1 98 3c 8e 69 10 3c 7a ff 0c bc
       0.0024724165 0.018669913 0.008814229 -0.008605832
0003f0 c5 a9 f7 ba ed 86 52 bb 2b a7 a7 ba 20 b0 23 3b
       -0.00188952 -0.003212388 -0.0012790909 0.0024976805
