results/AttackerDefender_Skill1_v2/Attacker/Attacker-499980.onnx (onnx, 891078 bytes, 17 tensors)

discrete_act_size_vector f4 [1, 2]
5.0 3.0
00000000: 0000 a040 0000 4040

network_body.observation_encoder.processors.0.conv_layers.0.weight f4 [16, 5, 8, 8]
0.09701779 0.020694802 -0.05080504 -0.076608576 0.026429262 0.016494682 0.011632393 0.0033356762
0.09657081 0.00592274 0.011591647 0.011704624 0.012488469 0.016385501 -0.006602166 0.037188046
-0.09476268 -0.015408123 -0.007076726 -0.05384706 0.015815571 0.098500356 -0.0013410648 0.034569476
0.077249035 0.098779105 -0.12170545 0.09745157 0.018758167 -0.018920485 -0.105124354 0.0073609594
-0.012533568 0.014428701 -0.011824429 -0.015526265 0.004759995 -0.037411343 0.025781864 0.0103795575
0.009741684 -0.018150492 -0.0060662124 -0.1275942 -0.06543837 -0.039139386 -0.074205816 0.042060275
-0.061792873 -0.039651193 -0.09051303 0.03126753 0.06989917 0.05976734 -0.10703685 -0.06660715
0.07752034 -0.10886729 0.026043193 0.008256834 0.05206955 0.14726247 0.0034539737 0.053157285
0.0134775555 0.030150881 0.069667764 0.033811264 0.012575028 0.0101292785 0.069674976 0.13147505
0.13993171 0.071006894 0.01761964 0.0065270993 0.0002448747 -0.05278369 -0.06297654 -0.02276569
0.011745161 0.002611142 0.077277705 0.034207173 0.1101983 -0.08028707 0.1154332 0.06279587
0.06893151 -0.027117562 -0.10190584 -0.11156757 -0.03707598 0.1318044 0.0053412276 -0.06345729
0.042775016 -0.011368922 -0.03240642 -0.11269143 -0.06505915 -0.082884744 -0.06573038 -0.019413987
-0.122443855 0.06180753 0.018740524 0.00036105476 -0.08674356 0.024017306 -0.033253957 -0.06793721
0.04404777 0.05912726 0.0045743324 0.054843456 0.012270562 0.028295906 -0.020652294 -0.021750838
-0.05415522 -0.010805433 -0.15515502 0.030961871 0.017691957 0.08250994 -0.069850534 -0.07990307
0.1415881 0.017706593 0.16661134 0.023017243 -0.031211503 0.034162305 -0.030962005 -0.04866105
0.08946454 0.013533708 -0.03901949 0.019076403 -0.0777886 0.07565044 0.107024126 -0.02595106
0.029057823 -0.0068016103 0.017849017 0.06797197 -0.023219517 -0.03237323 -0.09318715 -0.12772883
-0.15840647 -0.01929825 -0.055090684 -0.039940033 0.03681531 -0.042133704 0.03843545 0.091938905
-0.02506247 0.038199097 0.035745833 -0.0047836425 -0.004033087 -0.050588638 0.06703664 -0.051795885
0.12276295 0.034792118 -0.06740345 0.07879824 0.04547629 0.056087602 0.085483916 -0.055817444
-0.080280796 0.011174407 -0.022574775 -0.038243797 0.013848107 -0.0050574024 0.0032139048 -0.014461058
-0.04884779 0.010046517 -0.08733649 -0.005411268 0.11400929 -0.022246044 0.11311342 -0.038487323
0.07748117 -0.11026768 0.18321683 0.11739806 -0.08698492 -0.08208319 -0.02134791 0.010998042
0.03226336 -0.056530837 0.16374628 0.18300018 0.022847716 -0.032817584 0.030590868 -0.04493158
0.095115565 0.019542286 -0.08197568 -0.046145223 -0.067713164 0.06531231 0.04464128 -0.11199164
0.13447195 -0.0085332235 0.07685503 0.06736745 0.11983876 -0.00022376493 -0.097625256 -0.0021198574
0.160385 -0.04546875 -0.05208808 -0.05306422 0.07768256 -0.070139766 0.02855487 -0.10608596
-0.026863357 -0.013172152 0.06837197 0.12465121 0.06126185 -0.004857143 0.07586475 -0.13408911
-0.06198278 -0.05645403 -0.09062974 0.18354034 -0.018666433 0.024471462 0.08529422 -0.0633931
0.004971744 0.04014576 -0.01326384 0.059835304 0.12541205 -0.0042026024 -0.114505365 -0.20963804
00000000: 43b1 c63d 2588 a93c f218 50bd f5e4 9cbd
00000010: 2e82 d83c db1f 873c cb95 3e3c 5c9b 5a3b
00000020: ebc6 c53d 8b13 c23b e4ea 3d3c c0c4 3f3c
00000030: 6f9c 4c3c e33a 863c fc56 d8bb 7e52 183d
00000040: f012 c2bd 5a72 7cbc e1e3 e7bb bc8e 5cbd
00000050: a88f 813c 8eba c93d abc6 afba b998 0d3d
00000060: be34 9e3d b34c ca3d b540 f9bd b094 c73d
00000070: baaa 993c 22ff 9abc 704b d7bd 3434 f13b
00000080: 9859 4dbc 5c66 6c3c 40bb 41bc e061 7ebc
00000090: bbf9 9b3b a33c 19bd 7d34 d33c 050f 2a3c
000000a0: 969b 1f3c 57b0 94bc 14c7 c6bb 0ea8 02be
000000b0: 8d04 86bd 9f50 20bd 38f9 97bd 6547 2c3d
000000c0: 861a 7dbd 4a69 22bd e55e b9bd 6212 003d
000000d0: 4c27 8f3d 99ce 743d 2336 dbbd 5469 88bd
000000e0: fcc2 9e3d d0f5 debd 8958 d53c ac47 073c
000000f0: e146 553d f9cb 163e 105c 623b 74bb 593d
00000100: f7d0 5c3c fbfe f63c f9ad 8e3d ae7d 0a3d
00000110: 7e07 4e3c 46f5 253c c1b1 8e3d 65a1 063e
00000120: 424a 0f3e 106c 913d 1057 903c 47e1 d53b
00000130: 8762 8039 b633 58bd d8f9 80bd 1d7f babc
00000140: c76e 403c b11f 2b3b c643 9e3d d21c 0c3d
00000150: a5af e13d 8c6d a4bd 3e68 ec3d 1f9b 803d
00000160: f72b 8d3d a625 debc 02b4 d0bd 8a7d e4bd
00000170: fcdc 17bd bcf7 063e 7705 af3b e5f5 81bd
00000180: db34 2f3d b744 3abc 98bc 04bd c4ca e6bd
00000190: bb3d 85bd 7abf a9bd a69d 86bd 150a 9fbc
000001a0: d8c3 fabd e429 7d3d ba85 993c f34b bd39
000001b0: 9ca6 b1bd f1bf c43c 4d35 08bd aa22 8bbd
000001c0: 6f6b 343d 6d2f 723d 48e4 953b 88a3 603d
000001d0: 780a 493c d1cc e73c 002f a9bc d02e b2bc
000001e0: ddd1 5dbd 4509 31bc f5e0 1ebe c0a3 fd3c
000001f0: b9ee 903c f9fa a83d cc0d 8fbd 39a4 a3bd
00000200: 79fc 103e 6b0d 913c 2a9c 2a3e a88e bc3c
00000210: 44af ffbc c6ed 0b3d 08a4 fdbc cf50 47bd
00000220: 2f39 b73d 7cbc 5d3c e7d2 1fbd 1e46 9c3c
00000230: a14f 9fbd 9eee 9a3d 772f db3d 5197 d4bc
00000240: ac0a ee3c 0be0 debb 1a38 923c e334 8b3d
00000250: db36 bebc cb99 04bd e8d8 bebd 59cb 02be
00000260: 4e35 22be 5d17 9ebc c5a6 61bd 2998 23bd
00000270: a7cb 163d 6494 2cbd 7e6e 1d3d 774a bc3d
00000280: cf4f cdbc a876 1c3d 396a 123d 1ac0 9cbb
00000290: fc27 84bb 0836 4fbd 824a 893d ec27 54bd
000002a0: 246b fb3d 2e82 0e3d d20a 8abd f960 a13d
000002b0: 5945 3a3d 1dbc 653d 3112 af3d d5a0 64bd
000002c0: 426a a4bd dc14 373c bcee b8bc 87a5 1cbd
000002d0: 2ce3 623c 91b8 a5bb 60a0 523b 13ee 6cbc
000002e0: 9f14 48bd 259a 243c 79dd b2bd 0251 b1bb
000002f0: b47d e93d 563d b6bc 02a8 e73d e2a4 1dbd
00000300: 73ae 9e3d 05d4 e1bd 319d 3b3e 656e f03d
00000310: 2625 b2bd 3b1b a8bd d0e1 aebc 2231 343c
00000320: 9626 043d e18c 67bd 1bad 273e 6664 3b3e
00000330: 222b bb3c bb6b 06bd b399 fa3c 2d0a 38bd
00000340: f3cb c23d 2517 a03c dee2 a7bd c602 3dbd
00000350: 33ad 8abd 76c2 853d c6d9 363d df5b e5bd
00000360: 04b3 093e efce 0bbc 2c66 9d3d f2f7 893d
00000370: 066e f53d 71a2 6ab9 c0ef c7bd 4eed 0abb
00000380: f73b 243e 713d 3abd 505a 55bd de59 59bd
00000390: 0918 9f3d 70a5 8fbd e7eb e93c 9943 d9bd
000003a0: 8b10 dcbc 03d0 57bc 9a06 8c3d 2249 ff3d
000003b0: b5ed 7a3d ab28 9fbb fa5e 9b3d a84e 09be
000003c0: a8e1 7dbd 573c 67bd 169c b9bd 00f2 3b3e
000003d0: 59ea 98bc 6078 c83c bcae ae3d 3ed4 81bd
000003e0: 03ea a23b e16f 243d 9450 59bc dd15 753d
000003f0: 046c 003e fcb5 89bb ca81 eabd 5bab 56be

network_body.observation_encoder.processors.0.conv_layers.0.bias f4 [16]
-0.045262985 -0.01526524 0.02974483 0.003257418 0.021059388 -0.023223694 0.0009332996 -0.02705553
0.03004103 -0.078601815 -0.0630388 -0.03392009 -0.0077577466 -0.01598849 -0.011927683 -0.039714422
00000000: ae65 39bd 0f1b 7abc 6eab f33c 687a 553b
00000010: bd84 ac3c 9e3f bebc ada8 743a 8fa3 ddbc
00000020: 9b18 f63c fdf9 a0bd 7d1a 81bd cbef 0abd
00000030: b234 febb 4bfa 82bc 546c 43bc 97ab 22bd

network_body.observation_encoder.processors.0.conv_layers.2.weight f4 [32, 16, 4, 4]
0.014775014 -0.011785618 0.0054802205 0.03155657 0.020300955 0.009850326 0.076495714 0.075524285
0.03924572 0.03268813 0.036332965 -0.036368374 -0.0059785736 0.06589014 0.06826408 0.0037630554
-0.045149256 -0.07600094 0.007435065 -0.03969743 0.034391936 -0.08995226 -0.029445466 0.0046465606
0.028944533 0.08459619 0.019859327 0.015071389 0.04131062 -0.082016885 0.048462626 -0.049509212
-0.038603485 -0.087710574 -0.048087414 -0.027178837 0.0116617065 -0.013997729 -0.02265593 -0.04771179
0.019613959 0.0814802 0.008898222 0.0019570556 -0.048544746 0.07491007 0.07732895 -0.01807904
0.024423929 -0.005827655 0.015751043 0.07892286 0.052075632 -0.056519803 0.09547564 -0.0088914335
0.07827838 -0.07080428 -0.08609457 -0.013889298 -0.006588335 0.0032993353 0.04466304 -0.029919175
0.021640092 0.022429006 0.028224485 -0.017036473 -0.008042305 -0.12649529 -0.034253694 0.06804181
-0.014504778 0.030326016 0.06255226 0.03462161 -0.040435996 0.02821228 -0.012318377 0.0014416734
-0.036006607 -0.07331932 -0.03318945 0.016010057 -0.02284991 0.0036173812 -0.058724202 -0.0008256456
-0.021883689 -0.09027464 0.068640895 -0.05799921 -0.06725416 -0.089867696 -0.098026566 -0.07822321
-0.052914053 0.038084034 -0.06291488 -0.043152153 -0.022765033 -0.094193056 -0.018241407 0.0052686906
0.03166926 0.083562374 0.09456513 -0.026636505 -0.011660893 0.00079657295 -0.036882676 -0.009685283
-0.04448254 -0.07641342 0.021453638 0.005662056 0.017319582 -0.028465545 -0.007731407 -0.026366774
0.044434525 0.016970498 0.0017354458 0.02925298 -0.028190972 0.06914223 0.008416469 0.015118994
0.0026765435 0.007948058 0.023172561 -0.043099638 -0.011051472 -0.08064649 0.0025121802 0.03539196
0.04320169 0.10952869 -0.11792872 -0.0027594625 -0.01641127 -0.037020575 0.016374944 0.01083842
-0.04416546 -0.03767967 -0.025900556 -0.10502716 -0.002126161 -0.0018333291 0.018275443 0.046821866
0.021524798 -0.018391304 -0.07692029 0.019824032 0.020451102 0.07398533 -0.030395206 0.024427734
0.008617694 0.042686734 0.103498004 6.338312e-05 0.053420853 -0.03686699 -0.049777906 -0.03710929
0.016206846 -0.033762325 -0.018580403 -0.040665954 0.018021118 -0.059723534 -0.08968889 0.03498282
-0.07263515 -0.073811285 -0.046003435 -0.040797774 0.010160752 -0.06501211 -0.04513813 0.07584052
0.005992543 0.047948506 0.022759981 0.010039518 -0.04619589 0.06627046 -0.034845315 0.014184
-0.038982052 -0.023454458 -0.03972816 -0.06267657 -0.04674563 -0.09355701 0.03450165 0.05003524
0.025639478 0.059827235 -0.082661256 0.044862956 -0.0114317 0.039840605 -0.08623854 -0.026957225
-0.064146325 0.03410734 0.0629734 -0.023884593 -0.04500357 0.06423861 -0.0602658 0.020010231
-0.06861034 -0.017323768 -0.07667468 -0.08424394 0.059071913 0.03869346 0.016985001 -0.053272862
0.0031915794 0.004067451 -0.06732062 -0.04390389 -0.035863042 0.051424023 -0.026477804 0.008039259
-0.009126224 0.022888888 -0.026065595 0.00824382 -0.055584308 0.03822017 -0.0043465616 0.005829499
-0.07111603 -0.015617082 -0.0017161361 0.008078202 -0.022055335 0.06761456 -0.024857678 -0.015293156
0.0064078225 -0.011196799 -0.014791893 -0.098721944 0.036414955 -0.066498764 0.025321415 0.02787695
00000000: e612 723c 7718 41bc 6c93 b33b 7641 013d
00000010: 304e a63c 4363 213c c9a9 9c3d 7aac 9a3d
00000020: 1fc0 203d fde3 053d e0d1 143d 01f7 14bd
00000030: e9e7 c3bb 69f1 863d 0ace 8b3d 989d 763b
00000040: 6dee 38bd 61a6 9bbd d9a1 f33b c699 22bd
00000050: 8fde 0c3d e438 b8bd 9e37 f1bc 2d42 983b
00000060: 161d ed3c c440 ad3d 07b0 a23c fded 763c
00000070: 5335 293d 78f8 a7bd bf80 463d 2cca 4abd
00000080: b01e 1ebd 9aa1 b3bd 4ff7 44bd 27a6 debc
00000090: be10 3f3c bb56 65bc ee98 b9bc 706d 43bd
000000a0: 74ad a03c 17df a63d d9c9 113c f241 003b
000000b0: dbd6 46bd 736a 993d a45e 9e3d 7f1a 94bc
000000c0: b114 c83c eaf5 bebb 5508 813c 4fa2 a13d
000000d0: 424d 553d 4f81 67bd bb88 c33d 60ad 11bc
000000e0: 6a50 a03d d601 91bd 5a52 b0bd f08f 63bc
000000f0: f6e2 d7bb a939 583b 98f0 363d 0f19 f5bc
00000100: 9046 b13c 09bd b73c 0937 e73c 1390 8bbc
00000110: dfc3 03bc fb87 01be 9a4d 0cbd 8159 8b3d
00000120: 73a5 6dbc 446e f83c 661b 803d 64cf 0d3d
00000130: 37a0 25bd 701d e73c 05d3 49bc 88f6 bc3a
00000140: aa7b 13bd 7128 96bd a9f1 07bd 8627 833c
00000150: bc2f bbbc 9611 6d3b ca88 70bd 2370 58ba
00000160: 6c45 b3bc e9e1 b8bd 9993 8c3d 9490 6dbd
00000170: 8dbc 89bd 8e0c b8bd 27c2 c8bd 7e33 a0bd
00000180: 68bc 58bd 01fe 1b3d 84d9 80bd 50c0 30bd
00000190: bc7d babc 4ae8 c0bd 016f 95bc fba4 ac3b
000001a0: a0b7 013d c022 ab3d 5dab c13d cd34 dabc
000001b0: 550d 3fbc 1bd1 503a 4a12 17bd 05af 1ebc
000001c0: 5333 36bd a47e 9cbd 8abf af3c c588 b93b
000001d0: cce1 8d3c 9330 e9bc be57 fdbb 22ff d7bc
000001e0: fa00 363d b705 8b3c e677 e33a f2a3 ef3c
000001f0: c1f0 e6bc 719a 8d3d 3be5 093c a8b5 773c
00000200: f368 2f3b 9238 023c 62d4 bd3c 3f89 30bd
00000210: 3c11 35bc fd29 a5bd 64a3 243b 29f7 103d
00000220: 41f4 303d 9450 e03d 9d84 f1bd 19d8 34bb
00000230: ed70 86bc e3a2 17bd bf24 863c a193 313c
00000240: d7e6 34bd ff55 1abd 672d d4bc 7b18 d7bd
00000250: 1057 0bbb 514c f0ba 62b6 953c 49c8 3f3d
00000260: c654 b03c 5ca9 96bc 6388 9dbd 0266 a23c
00000270: 1289 a73c 9f85 973d 5eff f8bc ac1c c83c
00000280: 3a31 0d3c 49d8 2e3d c3f6 d33d 8eec 8438
00000290: d3cf 5a3d d701 17bd ebe3 4bbd e9ff 17bd
000002a0: 38c4 843c 5d4a 0abd ee35 98bc 5891 26bd
000002b0: 06a1 933c aaa0 74bd cfae b7bd 254a 0f3d
000002c0: bdc1 94bd 5f2a 97bd 196e 3cbd 911b 27bd
000002d0: 4879 263c 1225 85bd c3e2 38bd 4652 9b3d
000002e0: 185d c43b a765 443d 2473 ba3c ca7c 243c
000002f0: e737 3dbd cfb8 873d f6b9 0ebd 0264 683c
00000300: a5ab 1fbd 9023 c0bc ffb9 22bd 935c 80bd
00000310: 5978 3fbd d19a bfbd 9a51 0d3d c0f1 4c3d
00000320: e209 d23c 670d 753d 4e4a a9bd 38c2 373d
00000330: 064c 3bbc e72f 233d d59d b0bd 66d5 dcbc
00000340: 265f 83bd 23b4 0b3d 33f8 803d 9fa9 c3bc
00000350: aa55 38bd 888f 833d 46d9 76bd 7fec a33c
00000360: 9483 8cbd 93ea 8dbc 9d07 9dbd 1688 acbd
00000370: 64f5 713d 097d 1e3d 2124 8b3c a534 5abd
00000380: d129 513b 4148 853b 65df 89bd 91d4 33bd
00000390: 20e5 12bd ffa1 523d fbe7 d8bc 19b7 033c
000003a0: 2886 15bc 7a81 bb3c 8487 d5bc 1611 073c
000003b0: 5fac 63bd c18c 1c3d 9a6d 8ebb 6205 bf3b
000003c0: 48a5 91bd cade 7fbc f9ef e0ba 6f5a 043c
000003d0: 64ad b4bc 8179 8a3d 54a2 cbbc 2590 7abc
000003e0: b6f8 d13b c772 37bc b259 72bc bb2e cabd
000003f0: d927 153d 8130 88bd db6e cf3c 345e e43c

network_body.observation_encoder.processors.0.conv_layers.2.bias f4 [32]
0.059853822 -0.018782895 -0.025711674 -0.016134355 -0.0039890446 0.0630149 -0.00032604125 -0.0069181253
-0.00511686 0.022640398 -0.07060616 -0.013506805 0.03323888 0.049916193 -0.07248187 -0.023478253
0.009363446 -0.028263703 0.0063867327 -0.017522445 0.06660991 0.04051434 -0.031116921 -0.009873695
0.039158795 -0.015558586 0.008649974 -0.011318977 -0.021232693 -0.016715419 -0.0077652624 0.05212531
00000000: 4829 753d 96de 99bc 4aa1 d2bc 322c 84bc
00000010: 88b6 82bb f50d 813d 84f0 aab9 71b1 e2bb
00000020: 55ab a7bb 5b78 b93c f699 90bd a54b 5dbc
00000030: 7e25 083d ec74 4c3d 6071 94bd 7755 c0bc
00000040: 2469 193c 4889 e7bc cc47 d13b 3b8b 8fbc
00000050: c76a 883d 5df2 253d eae8 febc 47c5 21bc
00000060: f964 203d 71e9 7ebc 9fb8 0d3c 3b73 39bc
00000070: 2ff0 adbc c6ee 88bc be73 febb 5981 553d

network_body.observation_encoder.processors.0.dense.0.weight f4 [256, 32]
0.20462349 -0.22285822 0.045250364 -0.26371443 0.10095833 0.09819784 -0.16660348 -0.3934995
-0.21970575 0.19727637 0.10058557 0.3873731 0.40584713 0.025583839 0.2002259 -0.1207076
0.14173537 -0.27102804 0.31004158 0.047990624 0.09816844 0.6763816 0.21080248 0.49071088
-0.3331757 -0.063780025 0.04787367 -0.47512028 0.3722885 0.12915921 0.081048705 -0.22293662
-0.1843424 -0.03293994 0.104238264 0.28992164 -0.22567913 0.29109496 -0.19520582 0.2684186
-0.061263103 -0.36126864 0.4650442 0.15664832 0.2542781 -0.02891099 0.13381362 -0.47352117
-0.27552655 0.03284691 0.5880619 0.5487309 0.3388284 -0.19650151 0.1982078 -0.062229715
-0.3603419 -0.15054333 0.0011359649 0.0066447263 0.2083527 -0.26685497 -0.41518632 0.13250864
0.12081974 0.028858654 0.09436564 -0.5629971 0.34566206 -0.24907726 -0.25441256 0.04022775
-0.17190245 0.10559001 0.11964992 -0.35666186 0.08402115 -0.044586085 0.057084803 -0.00897477
0.029353943 0.47141555 -0.16507657 0.09189808 -0.37189382 0.13737755 0.017566368 0.28909945
-0.20373645 -0.10352353 0.064786434 -0.23685686 0.12274382 0.18365647 -0.1416151 -0.04373264
-0.08252686 0.30263534 -0.54130113 0.102322 -0.07774874 0.04087477 0.14609775 -0.28936768
-0.053436823 -0.07873999 0.50414795 0.22693379 -0.016582783 0.0883288 0.36310062 -0.16771103
-0.39992455 0.5236823 -0.009691157 0.1373565 0.3953524 -0.46624318 0.30832136 -0.23550458
0.25873283 0.03065531 0.09100264 0.04353872 -0.6271446 -0.05083826 -0.30528623 -0.29808962
0.123382345 0.0016737592 -0.118238285 -0.4602336 0.33989432 -0.44431025 -0.34682718 -0.24103469
-0.08042368 0.23918687 -0.17269835 0.22599155 -0.11424941 0.25192207 -0.38453615 0.04490925
-0.5169799 -0.24557595 0.37888846 0.2588356 0.06088357 0.5160574 0.19905414 0.38432506
-0.028035192 -0.053184915 0.0857972 0.07283717 -0.1822737 0.19132136 0.40040842 -0.40948012
0.563817 0.26287508 0.32108268 0.05101406 -0.18469375 0.1350773 -0.16408466 -0.22736067
-0.11018359 -0.1301954 -0.17953856 0.15271516 -0.030856447 -0.3080409 0.46238118 0.16653065
-0.08645048 -0.01773034 0.30451533 0.057901736 -0.19615637 0.1459698 -0.170295 0.06902285
-0.38534266 -0.033916473 -0.063107096 -0.051135413 -0.21439081 -0.13717698 -0.27636358 -0.23975761
0.3366786 -0.09826724 -0.098619774 -0.25478032 0.13018034 0.11543381 0.12644278 -0.35128877
-0.015577529 0.38715386 -0.35537705 0.40250143 0.30841017 0.12093009 0.23357713 -0.10992239
-0.13269566 -0.29450226 -0.23048392 -0.4564754 0.46278444 0.19034578 -0.13249862 0.0575976
0.7017454 -0.1478528 0.064209 0.2196157 0.08036638 -0.04577096 -0.40539172 0.14569405
-0.8804726 0.33614582 -0.25128356 -0.39262933 -0.028275138 -0.06781166 -0.16577703 0.37132084
-0.027907616 0.11042284 -0.0653644 0.24602152 0.002013343 0.10922795 -0.33889848 0.057970393
-0.02503514 0.23389591 0.095839284 0.27985492 0.17869705 -0.59227085 -0.07306652 -0.12582432
0.13120921 -0.48932448 0.2961786 -0.19732194 -0.094649106 -0.19470888 -0.36169085 0.5056319
00000000: d288 513e f234 64be 7258 393d 9405 87be
00000010: 3ec3 ce3d f31b c93d 1a9a 2abe c478 c9be
00000020: 8bfa 60be d102 4a3e cfff cd3d c455 c63e
00000030: 32cb cf3e 3395 d13c 0508 4d3e 8c35 f7bd
00000040: 1423 113e 30c4 8abe c5bd 9e3e d191 443d
00000050: 890c c93d 5827 2d3f 9bdc 573e 753e fb3e
00000060: 0196 aabe 1a9f 82bd 2e17 443d f742 f3be
00000070: 999c be3e 5042 043e ddfc a53d 7f49 64be
00000080: 41c4 3cbe 08ec 06bd df7a d53d 9c70 943e
00000090: 6e18 67be 660a 953e 09e4 47be 2a6e 893e
000000a0: 05ef 7abd 34f8 b8be 461a ee3e 6b68 203e
000000b0: bd30 823e bed6 ecbc 7006 093e 5e71 f2be
000000c0: d111 8dbe 7b8a 063d 3a8b 163f a179 0c3f
000000d0: eb7a ad3e b137 49be fcf6 4a3e 96e4 7ebd
000000e0: bc7e b8be 0828 1abe a8e4 943a 01bc d93b
000000f0: 695a 553e 37a1 88be 4d93 d4be 58b0 073e
00000100: 5770 f73d fc68 ec3c c642 c13d 9420 10bf
00000110: 9efa b03e 1c0e 7fbe 5d42 82be dac5 243d
00000120: 3207 30be 933f d83d 040b f53d 629c b6be
00000130: 4813 ac3d e69f 36bd c1d1 693d ea0a 13bc
00000140: ae77 f03c 615d f13e d509 29be 1035 bc3d
00000150: de68 bebe b3ac 0c3e 58e7 8f3c d804 943e
00000160: 4aa0 50be 2504 d4bd c0ae 843d 9b8a 72be
00000170: 1d61 fb3d 7110 3c3e 8c03 11be ff20 33bd
00000180: d803 a9bd 05f3 9a3e b692 0abf 328e d13d
00000190: bb3a 9fbd 4e6c 273d a69a 153e 0028 94be
000001a0: 92e0 5abd 6f42 a1bd d70f 013f 5561 683e
000001b0: 9ed8 87bc bbe5 b43d 53e8 b93e 71bc 2bbe
000001c0: e9c2 ccbe 0b10 063f a9c7 1ebc 2fa7 0c3e
000001d0: a16b ca3e 6db7 eebe 4cdc 9d3e 1d28 71be
000001e0: a178 843e d820 fb3c 985f ba3d a855 323d
000001f0: 8c8c 20bf c83b 50bd 7a4e 9cbe 349f 98be
00000200: e2af fc3d 0a62 db3a ea26 f2bd bda3 ebbe
00000210: a106 ae3e a27c e3be 5593 b1be ccd1 76be
00000220: 2cb5 a4bd 67ed 743e d6d7 30be 546a 673e
00000230: 98fb e9bd eefb 803e ece1 c4be c3f2 373d
00000240: cb58 04bf 4378 7bbe abfd c13e 1a86 843e
00000250: 0d61 793d 561c 043f d9d4 4b3e 41c6 c43e
00000260: 0faa e5bc 6dd8 59bd 71b6 af3d a72b 953d
00000270: f5a5 3abe bfe9 433e 5502 cd3e 61a7 d1be
00000280: 5056 103f 9097 863e f364 a43e 1ef4 503d
00000290: 5c20 3dbe b451 0a3e cf05 28be 3cd1 68be
000002a0: efa7 e1bd f151 05be f5d8 37be 5d61 1c3e
000002b0: a9c6 fcbc 89b7 9dbe 3abd ec3e 0387 2a3e
000002c0: f30c b1bd 383f 91bc 6fe9 9b3e 5f2a 6d3d
000002d0: 37dd 48be 1b79 153e d061 2ebe da5b 8d3d
000002e0: a24b c5be 00ec 0abd 4b3e 81bd 5e73 51bd
000002f0: 4489 5bbe 1f78 0cbe 877f 8dbe 0583 75be
00000300: 2361 ac3e 5640 c9bd 2af9 c9bd 9172 82be
00000310: ff4d 053e 9068 ec3d 377a 013e 1fdc b3be
00000320: e438 7fbc 0839 c63e fbf3 b5be ab14 ce3e
00000330: f0e7 9d3e 32aa f73d d82e 6f3e fd1e e1bd
00000340: 5fe1 07be 00c9 96be fa03 6cbe 25b7 e9be
00000350: 15f2 ec3e 01ea 423e b8ad 07be 76eb 6b3d
00000360: 96a5 333f b966 17be 0280 833d f0e2 603e
00000370: 2197 a43d 557a 3bbd 818f cfbe d230 153e
00000380: a766 61bf 4e1b ac3e 3da8 80be b606 c9be
00000390: 43a1 e7bc d7e0 8abd 74c1 29be c41d be3e
000003a0: 839e e4bc 5f25 e23d c5dd 85bd 11ed 7b3e
000003b0: 4af2 033b e7b2 df3d 1a84 adbe 5d72 6d3d
000003c0: 7e16 cdbc 6982 6f3e 6347 c43d 2549 8f3e
000003d0: 5cfc 363e 109f 17bf e6a3 95bd 17d8 00be
000003e0: b55b 063e bd88 fabe b9a4 973e c30e 4abe
000003f0: 64d7 c1bd c461 47be 8b2f b9be 1871 013f

network_body.observation_encoder.processors.0.dense.0.bias f4 [256]
-0.0072546084 0.021104537 0.03835724 0.03434046 0.041621428 0.050649587 0.030307226 -0.016949067
0.037189297 0.025664883 0.036280394 0.01395836 0.0093892375 0.017826814 0.04307492 -0.0035100714
-0.036749452 0.025770701 -0.030413955 0.01479947 0.00051922555 -0.008926869 -0.023905372 -0.0018007875
0.04414748 -0.018374015 0.0051905606 0.030876724 0.01386292 0.014397894 0.018921617 0.05949793
-0.012746518 0.0046307067 -0.0009228779 0.01097345 -0.0005611661 0.021059982 -0.02372908 -0.0136804115
0.042780217 0.009669151 0.010785219 -0.013549288 0.0356645 -0.023143305 0.004647305 0.017889433
0.050247923 0.052149367 0.015114762 0.008222676 0.017321762 0.05135216 0.052117363 0.02848193
0.028274948 0.03522139 0.036311887 0.051581904 0.027837824 -0.0154542 0.029372416 0.037321642
-0.009048452 -0.0012386834 0.020990858 0.011994306 0.05275296 -0.0068194396 -0.016035419 0.0043818457
-0.020740354 0.023679959 0.02033694 0.038821768 0.020118028 0.034185197 0.0066334787 -0.0039500613
-0.010381654 0.023297047 0.019782113 -0.023456097 0.008942476 0.04103833 0.007896392 -0.016756
0.026803369 0.039532714 -0.00052282144 0.06283842 0.023774713 0.0036534718 0.02167146 0.04382445
-0.027369978 0.033427093 -0.01098678 0.017094996 0.026822021 0.006842343 0.011663977 0.018057164
0.008688354 0.04089259 0.030404966 -0.0037113286 -0.00970916 0.045574788 0.019934757 0.004839098
0.026016667 -0.0072457273 0.041599263 -0.0075438684 0.009282262 -0.0028535617 -0.0026525608 -0.012003875
0.050117757 0.006556116 -0.020971611 0.02624071 0.031459127 0.0017939244 -0.010911846 0.032476284
0.0066736047 0.012410188 -0.0048645954 -0.012796544 0.016143313 0.017175712 0.02481859 0.008094832
0.008826685 0.01748542 -0.016821727 -0.02328845 0.008815141 -0.0089551695 0.0022206341 0.032190442
0.06796391 0.023121472 -0.0026719423 0.05590314 -0.0034252787 0.052179508 0.011783556 0.035531007
0.048885785 0.020952813 0.06601511 0.0042127306 0.06644392 0.052148774 0.051527794 0.026446862
0.02094964 0.006348981 0.03766391 0.050883837 -0.0070432657 0.00481982 -0.014884811 0.0067863967
0.034487046 0.033584364 0.07530663 0.016422445 0.00074014795 -0.011624038 0.023396945 0.0447742
0.014880461 0.052743014 0.007457002 0.033858445 0.011860059 0.019620022 0.013137342 0.04686001
0.034173194 -0.028776696 0.008644013 0.0019109069 0.03403781 -0.0043735374 0.023347938 0.0025288954
0.0077800644 0.05230883 0.03116082 0.010217978 0.037283566 0.047791697 -0.01869328 0.027461024
-0.00034696868 0.00046667794 0.004906675 0.021549333 0.012114296 -0.010182922 0.007472938 0.024092091
0.009903302 0.010793938 0.03495543 0.009239846 0.009358923 0.037124105 0.031548437 0.019180562
0.0070377826 -0.0054040668 0.025971 0.0012546179 -0.025725774 0.006434461 0.006748987 -0.01715844
0.030998973 0.0039417255 0.0029632614 -0.00072180625 -0.0049266694 0.015141003 0.0082867695 -0.003565998
-0.024674183 0.020510627 0.032322176 -0.010998187 -0.034242682 -0.007857354 0.012695275 0.024441775
0.009255349 0.017131884 0.01941808 0.03507153 0.054748915 0.018926071 -0.014842131 -0.0024557677
0.06391253 0.018385839 0.011116567 0.016179781 -0.006467125 0.010108564 -0.015065164 -0.025433157
00000000: 11b8 edbb 6ce3 ac3c 7b1c 1d3d 95a8 0c3d
00000010: 3b7b 2a3d f175 4f3d dc46 f83c c5d8 8abc
00000020: ce53 183d 293f d23c c09a 143d 9bb1 643c
00000030: 51d5 193c 8a09 923c 546f 303d 3a09 66bb
00000040: 9886 16bd 141d d33c b026 f9bc 7a79 723c
00000050: a31c 083a 0142 12bc 33d5 c3bc 6708 ecba
00000060: fdd3 343d 1a85 96bc 9415 aa3b 2ff1 fc3c
00000070: 4d21 633c 25e5 6b3c 8201 9b3c 1ab4 733d
00000080: c5d6 50bc 2fbd 973b 4aed 71ba fcc9 333c
00000090: 381b 13ba fc85 ac3c 7d63 c2bc ce23 60bc
000000a0: 4f3a 2f3d 5c6b 1e3c 7db4 303c d5fd 5dbc
000000b0: f014 123d 0797 bdbc 6b48 983b dc8c 923c
000000c0: c4d0 4d3d 939a 553d e8a3 773c 67b8 063c
000000d0: 5ee6 8d3c a456 523d 0479 553d f052 e93c
000000e0: dda0 e73c 4e44 103d c6bb 143d 8c47 533d
000000f0: 260c e43c 9d33 7dbc 6c9e f03c 94de 183d
00000100: f53f 14bc 515b a2ba 05f5 ab3c c483 443c
00000110: 7d13 583d 9b75 dfbb b65c 83bc 9695 8f3b
00000120: ade7 a9bc 79fc c13c a899 a63c 9303 1f3d
00000130: 90ce a43c c705 0c3d a75d d93b 846f 81bb
00000140: d017 2abc 73d9 be3c 190e a23c 0027 c0bc
00000150: 7683 123c cf17 283d de5f 013c e143 89bc
00000160: bd92 db3c 0eed 213d f40d 09ba 6eb1 803d
00000170: 30c3 c23c 166f 6f3b 5888 b13c 4481 333d
00000180: 0137 e0bc d9ea 083d e501 34bc ce0a 8c3c
00000190: dbb9 db3c bc35 e03b 441a 3f3c 9eec 933c
000001a0: 9959 0e3c fd7e 273d d613 f93c c339 73bb
000001b0: 2b13 1fbc a1ac 3a3d 374e a33c 4c91 9e3b
000001c0: e820 d53c 916d edbb fd63 2a3d 8e32 f7bb
000001d0: a114 183c d202 3bbb 96d6 2dbb e7ab 44bc
000001e0: 4748 4d3d b0d4 d63b a8cc abbc c2f6 d63c
000001f0: 49db 003d 1d22 eb3a 99c7 32bc da05 053d
00000200: 41ae da3b 1a54 4b3c 2f67 9fbb 98a8 51bc
00000210: fb3e 843c 14b4 8c3c 5b50 cb3c 30a0 043c
00000220: cd9d 103c 953d 8f3c b8cd 89bc 6bc7 bebc
00000230: 626d 103c b4b8 12bc 0f88 113b 20da 033d
00000240: aa30 8b3d 3e69 bd3c c11b 2fbb b1fa 643d
00000250: a47a 60bb 2eba 553d d10f 413c f688 113d
00000260: 763c 483d 3ca5 ab3c ee32 873d f20a 8a3b
00000270: c013 883d f499 553d cf0e 533d 17a7 d83c
00000280: 949e ab3c 1d0b d03b 7945 1a3d 926b 503d
00000290: 32cb e6bb 95ef 9d3b 6cdf 73bc 6c60 de3b
000002a0: 4a42 0d3d c28f 093d 5d3a 9a3d 5d88 863c
000002b0: 7d06 423a c072 3ebc f3aa bf3c 2765 373d
000002c0: 2dcd 733c 0f09 583d de59 f43b 27af 0a3d
000002d0: b150 423c 2bba a03c 023e 573c 48f0 3f3d
000002e0: 31f9 0b3d 1bbd ebbc 9e9f 0d3c 6577 fa3a
000002f0: 3b6b 0b3d e44f 8fbb 2d44 bf3c d3bb 253b
00000300: e9ef fe3b c941 563d fa44 ff3c 4e69 273c
00000310: a7b6 183d 3ac1 433d a622 99bc f1f5 e03c
00000320: 59e9 b5b9 74ac f439 2cc8 a03b 3a88 b03c
00000330: 0a7b 463c 45d6 26bc 8cdf f43b c75c c53c
00000340: 7641 223c 0fd9 303c 6d2d 0f3d b962 173c
00000350: 2b56 193c 720f 183d ef38 013d 8e20 9d3c
00000360: 339d e63b 9914 b1bb 22c1 d43c fe71 a43a
00000370: dcbe d2bc 2cd8 d23b 9b26 dd3b db8f 8cbc
00000380: 8ff1 fd3c 9729 813b 4733 423b 9937 3dba
00000390: e66f a1bb f811 783c 3bc5 073c 85b3 69bb
000003a0: 8321 cabc e705 a83c 4264 043d bd31 34bc
000003b0: 0e42 0cbd 22bc 00bc d8ff 4f3c 1e3a c83c
000003c0: bfa3 173c 2a58 8c3c aa12 9f3c 2aa7 0f3d
000003d0: 6640 603d d90a 9b3c 692c 73bc f2f0 20bb
000003e0: 93e4 823d e69d 963c 4322 363c 768b 843c
000003f0: 2dea d3bb 649e 253c e1d3 76bc 3259 d0bc

network_body._body_endoder.seq_layers.0.weight f4 [256, 256]
0.016003491 -0.046502553 0.092945494 0.051419742 0.08608723 0.07233587 -0.13558261 -0.008537816
-0.106600665 0.06755796 0.04800337 0.00036712465 -0.16360319 -0.04277812 -0.08107839 0.11418197
0.11326645 0.06851358 -0.038328316 -0.13000764 0.07586801 0.01061427 0.079472505 -0.039478824
0.02980696 0.08222889 0.024167445 0.040680256 -0.004152985 -0.017446024 0.06682193 -0.19770505
0.066982284 -0.02372788 -0.06994557 0.023203852 -0.11743488 0.037654612 0.012843341 0.066874385
-0.15417278 -0.049608774 -0.12298007 0.12603702 -0.0090930825 0.10513136 -0.044427536 -0.07606417
0.034114074 -0.1533574 0.026258266 0.061558183 0.094917975 -0.049445193 0.047182523 -0.068458155
0.02164325 -0.040415667 -0.039057266 -0.004703543 0.046391774 0.040121134 -0.096259095 -0.072002575
0.014078838 -0.04015075 -0.06285834 -0.104218714 0.048022803 0.05014952 -0.07762299 -0.026916
0.027107324 -0.013974296 -0.12642632 0.00040355168 0.11913427 0.022384742 -0.0037692771 0.046862397
0.014534323 -0.19252597 -0.0146001745 -0.0390309 -0.028529627 0.014374304 -0.09133018 -0.011387525
-0.13605013 0.013163287 -0.049249765 -0.12445287 -0.010823841 0.03032985 -0.09720188 0.11960938
-0.16996954 0.004414174 0.030045073 -0.12956047 0.0053363796 -0.007315546 -0.0685699 0.071312554
-0.029795809 -0.021258183 0.010832144 0.07577647 -0.00360617 0.1484473 0.100515015 0.0111453375
-0.008552629 -0.101946846 0.11586649 -0.06706384 -0.17815886 0.025769912 0.05868266 -0.10518506
0.023490181 -0.034927152 0.054663673 -0.008480345 0.106931806 0.12322173 -0.032497067 -0.078623764
-0.045009162 0.057994373 -0.09132765 -0.086409524 -0.033522855 0.08144413 -0.007772577 -0.010187198
-0.00011226353 -0.040307827 -0.09260152 -0.060580283 -0.030037032 -0.06494081 -0.088756114 -0.041407194
-0.049691167 -0.088666156 0.001853716 0.04413874 -0.020466207 -0.05115832 0.011687709 0.08570443
-0.12767355 0.04966129 0.05592044 -0.034496624 -0.066416785 0.056487713 0.061651614 -0.14055578
-0.020051228 -0.01927294 -0.09276782 0.022194201 0.061304882 -0.021992013 -0.046486333 -0.14441784
0.1009667 0.11136534 0.0035112437 -0.02263764 0.06671233 0.03427665 -0.046806976 0.15956493
-0.042706918 0.077055894 0.059702504 -0.08108858 -0.017133024 -0.018702686 -0.0037604314 0.0138297565
0.13207357 -0.028165726 -0.07580694 -0.006265866 -0.17067331 0.04169393 -0.16788109 0.029215628
-0.044403 0.12948781 -0.11508608 -0.014093145 -0.00034568927 0.0052472916 -0.064841285 -0.07710814
0.037040193 0.10707456 -0.13556871 0.03694876 0.11246509 -0.016405141 0.057460543 0.00043743473
-0.1154274 -0.09729871 -0.05861854 -0.07639004 -0.03609518 -0.0057172566 0.03578223 -0.024162054
0.038142763 0.052277885 -0.05845294 0.03591953 -0.011238709 -0.039609823 0.07271899 -0.14514786
-0.019182855 -0.031582534 -0.0006031995 0.021555366 -0.12612644 0.021344757 0.015069171 -0.17048767
0.0027021137 0.025031114 0.08550776 -0.0053120363 0.061641257 0.050098058 0.0825415 -0.0001919802
-0.05298998 -0.052659914 -0.014486853 0.06345635 -0.019018304 -0.06148008 0.026182212 -0.028113937
0.0039541973 0.08572219 0.029175458 -0.085465275 0.038820215 0.017378852 -0.032020587 0.073600136
00000000: c119 833c 7679 3ebd 355a be3d 829d 523d
00000010: 804e b03d d424 943d 2bd6 0abe 32e2 0bbc
00000020: 7351 dabd d45b 8a3d 2f9f 443d a37a c039
00000030: 9887 27be 1c38 2fbd 6d0c a6bd 3dd8 e93d
00000040: 3ef8 e73d d950 8c3d 27fe 1cbd b920 05be
00000050: b060 9b3d 7ae7 2d3c 7bc2 a23d 8cb4 21bd
00000060: ba2d f43c 9f67 a83d cefa c53c 57a0 263d
00000070: c315 88bb f7ea 8ebc f0d9 883d 3173 4abe
00000080: 022e 893d f960 c2bc 9f3f 8fbd 0116 be3c
00000090: b381 f0bd b93b 1a3d e06c 523c 70f5 883d
000000a0: 78df 1dbe 9232 4bbd fadc fbbd d90f 013e
000000b0: 27fb 14bc 1c4f d73d a6f9 35bd 88c7 9bbd
000000c0: 33bb 0b3d b909 1dbe 931b d73c 6f24 7c3d
000000d0: 5b64 c23d 0b87 4abd 7642 413d ca33 8cbd
000000e0: 2f4d b13c e68a 25bd 83fa 1fbd 2e20 9abb
000000f0: 4d05 3e3d 0f56 243d 7d23 c5bd 1676 93bd
00000100: edaa 663c 1d75 24bd e0bb 80bd 9f70 d5bd
00000110: 8fb3 443d 9569 4d3d cdf8 9ebd f17e dcbc
00000120: 2e10 de3c 72f4 64bc e775 01be ca93 d339
00000130: abfc f33d 3560 b73c fa05 77bb c9f2 3f3d
00000140: 5e21 6e3c 8725 45be 9235 6fbc ddde 1fbd
00000150: f7b6 e9bc 3382 6b3c 510b bbbd be92 3abc
00000160: ba50 0bbe d4aa 573c 1fba 49bd 25e1 febd
00000170: 7b56 31bc 4e76 f83c c711 c7bd c3f5 f43d
00000180: 7f0c 2ebe c6a4 903b 1621 f63c 80ab 04be
00000190: ccdc ae3b 3fb7 efbb 606e 8cbd 510c 923d
000001a0: 5716 f4bc a425 aebc 4e79 313c b230 9b3d
000001b0: 7e55 6cbb 9202 183e d1da cd3d ef9a 363c
000001c0: 5320 0cbc 82c9 d0bd 694b ed3d c458 89bd
000001d0: 476f 36be 6c1b d33c 3b5d 703d 446b d7bd
000001e0: 7b6e c03c c60f 0fbd 04e7 5f3d 25f1 0abc
000001f0: 10ff da3d ad5b fc3d a51b 05bd 7f05 a1bd
00000200: 875b 38bd 828b 6d3d fe09 bbbd 7af7 b0bd
00000210: 434f 09bd 2ecc a63d 1ab1 febb 35e8 26bc
00000220: 066f ebb8 d219 25bd dea5 bdbd 0823 78bd
00000230: 3910 f6bc b0ff 84bd c4c5 b5bd 979a 29bd
00000240: f788 4bbd 9a96 b5bd 63f8 f23a d3ca 343d
00000250: bfa8 a7bc 638b 51bd ce7d 3f3c ce85 af3d
00000260: dbbc 02be a369 4b3d d50c 653d 554c 0dbd
00000270: 8605 88bd a95f 673d 6786 7c3d dbed 0fbe
00000280: 7942 a4bc 49e2 9dbc 0efd bdbd 9dd0 b53c
00000290: d41a 7b3d 9828 b4bc 7468 3ebd 45e2 13be
000002a0: a1c7 ce3d 8313 e43d e51c 663b 9272 b9bc
000002b0: 79a0 883d ac65 0c3d acb8 3fbd fd64 233e
000002c0: 73ed 2ebd 7bcf 9d3d 9d8a 743d c511 a6bd
000002d0: 8e5a 8cbc 6036 99bc 9271 76bb 3496 623c
000002e0: 4b3e 073e cfbb e6bc ab40 9bbd e551 cdbb
000002f0: fcc4 2ebe 41c7 2a3d 05e9 2bbe 9d55 ef3c
00000300: ecdf 35bd 7498 043e 40b2 ebbd efe6 66bc
00000310: a13d b5b9 79f1 ab3b 82cb 84bd dfea 9dbd
00000320: 75b7 173d e849 db3d 86d2 0abe 9557 173d
00000330: 1954 e63d 1364 86bc bf5b 6b3d 7f57 e539
00000340: 3365 ecbd 8c44 c7bd ff19 70bd 6272 9cbd
00000350: 8ad8 13bd d357 bbbb 6390 123d 80ef c5bc
00000360: 963b 1c3d 5621 563d 5a6c 6fbd 5b20 133d
00000370: 9022 38bc e93d 22bd b2ed 943d a4a1 14be
00000380: 5d25 9dbc b05c 01bd 0920 1eba e194 b03c
00000390: 4a27 01be 33db ae3c afe4 763c 5294 2ebe
000003a0: f215 313b 0d0e cd3c b11e af3d 9710 aebb
000003b0: 8b7b 7c3d 9f33 4d3d 850b a93d 4b4e 49b9
000003c0: 050c 59bd ecb1 57bd 445a 6dbc 67f5 813d
000003d0: 46cc 9bbc 89d2 7bbd 147c d63c 334f e6bc
000003e0: 3692 813b 1e8f af3d 5f01 ef3c 6b08 afbd
000003f0: f201 1f3d 185e 8e3c 0528 03bd abbb 963d

network_body._body_endoder.seq_layers.0.bias f4 [256]
0.00047455568 0.0134453 0.0057734754 -0.002916534 -0.0044498006 0.006217645 0.020645583 -0.010812922
0.0069524343 -0.012899732 0.0091818115 0.004052384 0.019205375 0.0039451546 -0.005200082 0.017048707
0.008290472 0.00028215075 -0.011563869 0.016781937 0.006153752 0.03585747 0.008609815 0.004730899
0.01657159 0.009609945 0.007374851 0.008524168 -0.0010794307 0.014661361 -0.004347613 0.007933109
0.019366212 0.023505775 0.012813271 -0.0096909255 0.0043476466 0.013097254 0.020299809 -0.0030243534
0.0025493605 0.0024868606 0.021663597 0.0037014603 0.010374179 -0.016722722 0.01839806 0.0040946724
0.0021170687 -0.007898792 -0.0076945024 0.015169838 -0.0018024207 0.016874395 0.00019523653 0.0016350222
0.001232217 0.0019848188 0.008430419 0.027099427 0.008441209 0.0169111 0.0022222248 -0.0044823014
0.0071837474 0.018000605 -0.02224695 0.018597718 0.012423273 0.016538078 -0.007421919 0.02907736
0.016266681 0.014344734 0.02375062 0.00061122025 -0.014068706 0.0077550565 -0.011786975 0.0072893896
0.0066803056 -0.006124321 0.01718874 0.010324071 0.01710928 0.022144472 -0.0076170648 -0.00740824
-0.009875678 0.0007007088 -0.011663495 0.022169532 0.017028805 0.0044320393 -0.0008761222 0.00332329
0.009967127 -0.003031452 0.020646501 -0.002044862 -0.0046006157 -0.0016699126 0.008117572 -0.0018642076
-0.014708657 7.9122265e-06 -0.007235826 0.010688114 0.023729678 0.0071409135 -0.010457679 0.02760693
0.011181741 0.018292049 0.011399984 0.0052246945 0.0039803805 0.03163556 -0.008370136 0.012043652
-0.006214917 0.010392755 0.011240491 -0.007118652 -0.0028729995 0.01132606 0.01263117 0.006713324
0.0075198635 0.012375283 0.021480946 0.0063990676 -0.0034891826 0.002776645 0.0043711904 -0.01480959
0.003376827 0.0055199997 0.01797649 -0.0050716265 0.012617095 0.025279962 -0.017521933 -0.0018411498
-0.022615997 -0.007025685 -0.009679317 0.02558851 0.007422353 0.01556945 0.0023415685 0.0025507514
-0.01097748 0.004736536 0.018172966 0.009101396 0.0026035863 0.0111048175 0.014877784 0.016831655
0.014312685 -0.010374464 0.033708315 0.009768657 -0.009757526 0.0060032327 0.005345111 0.007717849
0.016253447 0.010609358 -0.017537944 0.017877258 0.007986536 -0.000142276 0.024593985 0.0134409545
0.00069453445 -0.0073094126 0.04090356 0.0069400063 0.016813196 0.016398752 0.026139472 0.012493736
0.005350891 0.010419517 0.00979044 -0.0061466866 0.020209158 -0.00035245123 0.015120387 -0.015313505
-0.0017924394 0.0034930483 0.02045845 0.010553452 0.015534321 -0.020005308 0.016241262 0.008650891
0.0053844485 0.01598157 0.000428227 0.015550773 0.0032560353 -0.0024634933 0.0015199372 0.007973236
-0.015351184 0.0016491885 0.009761261 0.0012849718 0.0014242291 -0.000701023 -0.01847333 0.001320589
-0.0046899086 -0.021261806 -0.00018621756 0.017369578 0.019550826 0.0053250743 0.021550402 -0.011343651
0.01438717 0.00885379 0.0056473142 0.0056850924 0.016892316 0.009434274 0.03224666 0.01187404
0.01337149 0.00017067713 -0.0054226248 0.0065896995 -0.0008947815 0.009714095 -0.0021051061 -0.0022006417
0.005319991 -0.018195787 0.0029509054 -0.004072561 -0.0059714816 0.0076743052 0.015134958 0.013498012
0.017813131 0.012713603 0.015044298 0.020863716 -0.013859718 -0.0065763406 0.027757704 0.02210715
00000000: c9cd f839 ad49 5c3c 6c2f bd3b 5223 3fbb
00000010: a2cf 91bb 63bd cb3b ed20 a93c af28 31bc
00000020: 3fd1 e33b 6659 53bc 4f6f 163c dcc9 843b
00000030: 9754 9d3c 5b46 813b 7365 aabb bba9 8b3c
00000040: c3d4 073c a2ed 9339 6276 3dbc 467a 893c
00000050: 6aa5 c93b 48df 123d 2e10 0d3c a805 9b3b
00000060: 25c1 873c 0873 1d3c bca8 f13b f4a8 0b3c
00000070: af7b 8dba 3536 703c 6c76 8ebb dff9 013c
00000080: e4a5 9e3c 2f8f c03c c1ee 513c b0c6 1ebc
00000090: b476 8e3b dd95 563c c94b a63c 3b34 46bb
000000a0: 2c13 273b 99fa 223b db77 b13c 3394 723b
000000b0: 76f8 293c 17fe 88bc 87b7 963c 9a2c 863b
000000c0: 85be 0a3b ef69 01bc 2a22 fcbb ea8a 783c
000000d0: 343f ecba 2c3c 8a3c 68b8 4c39 3e4e d63a
000000e0: 5782 a13a bc13 023b bd1f 0a3c 9eff dd3c
000000f0: ff4c 0a3c 2689 8a3c bfa2 113b 45e0 92bb
00000100: a465 eb3b 0176 933c 3c3f b6bc 3e5a 983c
00000110: fc8a 4b3c dd7a 873c 9233 f3bb a533 ee3c
00000120: b441 853c 2d06 6b3c a990 c23c 4c3a 203a
00000130: 6e80 66bc 211e fe3b 281e 41bc d5db ee3b
00000140: 77e6 da3b 87ae c8bb 67cf 8c3c 4b26 293c
00000150: c328 8c3c 5368 b53c 9298 f9bb d2c0 f2bb
00000160: 99cd 21bc c6af 373a 3e18 3fbc e19c b53c
00000170: fe7f 8b3c a43a 913b 91ab 65ba 8ecb 593b
00000180: 294d 233c 53ab 46bb da22 a93c 1703 06bb
00000190: c3c0 96bb f8e0 daba 91ff 043c 6d58 f4ba
000001a0: 94fc 70bc c1be 0437 821a edbb 331d 2f3c
000001b0: be64 c23c 53fe e93b af56 2bbc ee27 e23c
000001c0: 9f33 373c 35d9 953c 00c7 3a3c ea33 ab3b
000001d0: da6d 823b 4a94 013d e522 09bc bd52 453c
000001e0: 81a6 cbbb 6046 2a3c 092a 383c 9543 e9bb
000001f0: ef48 3cbb f090 393c f8f2 4e3c 72fb db3b
00000200: 3069 f63b b3c1 4a3c cff8 af3c 45af d13b
00000210: c5aa 64bb 5ff8 353b 343c 8f3b eca3 72bc
00000220: c24d 5d3b 1de1 b43b 6f43 933c e32f a6bb
00000230: efb7 4e3c ec17 cf3c 288a 8fbc bc52 f1ba
00000240: 2f45 b9bc b837 e6bb ff95 1ebc ff9e d13c
00000250: 3637 f33b 0217 7f3c 0075 193b 822a 273b
00000260: e3da 33bc f234 9b3b 79df 943c 061e 153c
00000270: eea0 2a3b fbf0 353c f3c1 733c 8ae2 893c
00000280: c07f 6a3c a8f9 29bc bb11 0a3d b80c 203c
00000290: 08de 1fbc c4b6 c43b 0a26 af3b 03e6 fc3b
000002a0: f325 853c dfd2 2d3c bcab 8fbc 5473 923c
000002b0: f6d9 023c ec2f 15b9 5379 c93c 7337 5c3c
000002c0: 6b11 363a cc83 efbb 7e8a 273d fe68 e33b
000002d0: d4bb 893c ad56 863c 7222 d63c 87b2 4c3c
000002e0: 8756 af3b 9fb6 2a3c 1568 203c 256a c9bb
000002f0: ad8d a53c 34c9 b8b9 80bb 773c 7fe5 7abc
00000300: 49f0 eaba a0eb 643b 7b98 a73c 63e8 2c3c
00000310: aa83 7e3c 2ce2 a3bc 650c 853c 77bc 0d3c
00000320: 0770 b03b c8eb 823c a883 e039 abc8 7e3c
00000330: 3563 553b 8f72 21bb a138 c73a 2da2 023c
00000340: 8883 7bbc 9529 d83a b2ed 1f3c 806c a83a
00000350: 33ad ba3a dbc4 37ba 6255 97bc 9d17 ad3a
00000360: cead 99bb 3d2d aebc 6543 43b9 a54a 8e3c
00000370: 0e29 a03c f67d ae3b 788a b03c b9da 39bc
00000380: 2ab8 6b3c 7d0f 113c 1b0d b93b 034a ba3b
00000390: c161 8a3c 3792 1a3c 1315 043d 558b 423c
000003a0: 1814 5b3c cbf7 3239 46b0 b1bb 68ee d73b
000003b0: c58f 6aba de27 1f3c d2f5 09bb a438 10bb
000003c0: 5253 ae3b 550f 95bc fa63 413b 1e73 85bb
000003d0: 6bac c3bb bd78 fb3b 9df8 773c c426 5d3c
000003e0: d8ec 913c b74c 503c 5c7c 763c 62ea aa3c
000003f0: df13 63bc 587e d7bb 2064 e33c 0e1a b53c

network_body._body_endoder.seq_layers.2.weight f4 [256, 256]
0.15190679 -0.18466118 -0.00857977 0.027665826 0.078147046 0.06045071 0.029309582 -0.06233598
0.15349706 -0.063222565 -0.03251586 -0.06948064 -0.014467335 0.0034975116 -0.0057150647 -0.009519952
0.15117142 0.17642067 -0.07849868 -0.03640079 -0.058894992 -0.11623113 -0.066927366 -0.103523776
-0.060025226 -0.12679774 -0.038232457 -0.032668196 0.057861347 -0.15296601 0.03975702 -0.18613367
-0.04519857 -0.094408825 0.02349433 0.08590831 0.113517895 -0.06993128 0.041718442 0.09151745
-0.025822433 0.07951364 -0.18144791 0.028999725 0.07810224 0.21019281 -0.098177515 -0.041866917
0.022233551 -0.054102648 -0.14239424 0.054418493 0.08741054 0.11181981 0.13047305 -0.0057839504
-0.07369192 0.1326169 -0.04324232 0.026708752 0.053310636 -0.1466516 -0.13932346 -0.024995824
0.10620149 -0.04377002 0.060612675 -0.041045062 -0.13483094 0.06633686 0.0073180962 0.04009933
-0.04860664 -0.12878348 0.043495312 -0.09233619 0.060646143 0.017471602 -0.07512993 -0.14639159
-0.0034396036 -0.038613748 0.04811891 0.16941597 -0.044111826 0.02608249 0.120804906 0.0846399
-0.013067866 0.098183975 -0.16665481 0.03740855 0.06795257 -0.14850415 -0.061661508 -0.08263989
0.049822178 -0.050689243 0.015882105 0.067996 -0.03907988 0.03474398 0.04576581 -0.06989046
-0.054500714 0.15776777 0.037462983 -0.0495535 0.005588584 -0.036952127 0.05461533 -0.033155255
-0.15070598 0.0041087857 0.03685242 0.1275042 -0.086512916 0.121131346 -0.06216291 0.1086658
-0.028127925 0.09819572 -0.093640886 -0.134933 -0.040327936 -0.106993556 0.13291088 -0.05649615
-0.017766058 0.054867055 -0.21670288 0.15255195 0.07167458 0.023062732 0.0043568076 0.02899791
0.016663654 0.021193445 -0.097809866 0.031171761 0.08039971 -0.16439086 0.202311 -0.24239439
-0.08215979 -0.08120192 0.06692684 0.00082542707 0.012861379 -0.11772875 -0.018351328 -0.042401943
0.08219166 0.020265961 0.07128871 0.007832969 -0.023140559 0.02265727 -0.075347126 -0.06420258
-0.009710978 -0.057787832 0.037598837 -0.118188724 -0.049445137 -0.09201539 -0.007979003 0.05947111
-0.01646356 -0.0062535284 0.068642065 -0.0008864523 0.14035317 -0.068610795 -0.13507104 0.1158444
-0.054689337 0.019033091 0.05190813 -0.09741174 0.01653401 -0.023588587 -0.018111536 -0.003538518
0.026333475 -0.056801256 0.157245 0.021274975 0.035767622 -0.08674917 0.005823465 0.11966298
-0.093027994 -0.087917335 -0.00570659 0.07557917 0.024343375 0.011861865 -0.011032021 0.07577169
-0.02901853 0.14368445 -0.117191106 -0.03594609 0.0427436 -0.07585996 0.13089587 -0.11268669
0.053837083 0.09366845 -0.07826171 -0.02537696 0.11413374 0.010864337 -0.026112603 0.061068363
-0.0060376027 0.12845539 -0.03675777 -0.06644138 0.050483514 -0.031656776 -0.11014167 0.053541183
-0.0593066 -0.06725755 0.024066819 -0.07124576 -0.14011088 -0.027711017 -0.027528102 -0.090885386
-0.062069524 0.0662705 0.05462805 -0.017464984 -4.290663e-06 -0.036097694 -0.0085582705 -0.020780196
0.15904176 0.15407932 -0.1537146 -0.021958565 -0.1163703 -0.01486085 -0.06148963 -0.09409896
-0.021582386 -0.080454305 -0.049399685 -0.017105648 -0.06375986 -0.10043704 0.016838666 -0.065954715
00000000: 748d 1b3e d217 3dbe 2a92 0cbc 71a3 e23c
00000010: 8f0b a03d 2a9b 773d a61a f03c 0354 7fbd
00000020: 552e 1d3e d57a 81bd 5a2f 05bd de4b 8ebd
00000030: 6708 6dbc 8236 653b 7045 bbbb 93f9 1bbc
00000040: aecc 1a3e 9fa7 343e eac3 a0bd ff18 15bd
00000050: e03b 71bd 960a eebd 3711 89bd 4604 d4bd
00000060: 03dd 75bd 44d7 01be a399 1cbd 16cf 05bd
00000070: 0500 6d3d 1fa3 1cbe 42d8 223d d399 3ebe
00000080: 2322 39bd 6a59 c1bd 2e77 c03c b2f0 af3d
00000090: 127c e83d 2238 8fbd f5e0 2a3d 806d bb3d
000000a0: 9189 d3bc 0cd8 a23d 7bcd 39be d590 ed3c
000000b0: 11f4 9f3d c93c 573e 4b11 c9bd a57c 2bbd
000000c0: 2323 b63c bd9a 5dbd cccf 11be ede5 5e3d
000000d0: 4c04 b33d c901 e53d ba9a 053e 4b87 bdbb
000000e0: caeb 96bd bacc 073e dc1e 31bd 50cc da3c
000000f0: 415c 5a3d d62b 16be cfaa 0ebe 0bc4 ccbc
00000100: 2b80 d93d 3148 33bd ff44 783d de1e 28bd
00000110: 1f11 0abe 9fdb 873d a4cc ef3b 323f 243d
00000120: c217 47bd d1df 03be 2428 323d c21a bdbd
00000130: 1768 783d 9b20 8f3c b9dd 99bd ade7 15be
00000140: f96a 61bb 7329 1ebd 5618 453d 617b 2d3e
00000150: 9aae 34bd f2aa d53c 9068 f73d af57 ad3d
00000160: 9a1a 56bc ae14 c93d 8fa7 2abe b539 193d
00000170: b82a 8b3d 7911 18be c790 7cbd 1a3f a9bd
00000180: 5712 4c3d 869f 4fbd 301b 823c 7d41 8b3d
00000190: 3912 20bd b44f 0e3d ee74 3b3d bb22 8fbd
000001a0: 243c 5fbd e08d 213e c972 193d 9cf8 4abd
000001b0: 7120 b73b 1d5b 17bd 53b4 5f3d cecd 07bd
000001c0: ab52 1abe fea2 863b 90f2 163d 7690 023e
000001d0: af2d b1bd b613 f83d 899e 7ebd 2d8c de3d
000001e0: 896c e6bc d61a c93d cbc6 bfbd e02b 0abe
000001f0: e82e 25bd 701f dbbd ca19 083e 8268 67bd
00000200: 208a 91bc 47bc 603d 5ce7 5dbe 9436 1c3e
00000210: 1fca 923d 0eee bc3c 8dc3 8e3b 068d ed3c
00000220: 3782 883c e09d ad3c 8a50 c8bd ec5b ff3c
00000230: 9aa8 a43d 1456 28be 9d2a 4f3e 3c36 78be
00000240: 6443 a8bd 314d a6bd f010 893d 7961 583a
00000250: 89b8 523c c51b f1bd 8655 96bc a9ad 2dbd
00000260: 1a54 a83d cd04 a63c d1ff 913d da55 003c
00000270: 4591 bdbc bd9b b93c 984f 9abd a47c 83bd
00000280: cb1a 1fbc efb2 6cbd 3d01 1a3d ee0c f2bd
00000290: fc86 4abd 9172 bcbd 5dba 02bc fb97 733d
000002a0: 96de 86bc 66ea ccbb 3694 8c3d cf60 68ba
000002b0: beb8 0f3e d183 8cbd 1050 0abe d43f ed3d
000002c0: ed01 60bd 49eb 9b3c 9f9d 543d ce7f c7bd
000002d0: 5572 873c da3c c1bc a55e 94bc 7be6 67bb
000002e0: 4db9 d73c 6fa8 68bd d504 213e db48 ae3c
000002f0: 1281 123d 8da9 b1bd c4d2 be3b dd11 f53d
00000300: 7685 bebd 010e b4bd 59fe babb 40c9 9a3d
00000310: c26b c73c 4558 423c a6bf 34bc 302e 9b3d
00000320: 45b8 edbc 0422 133e e401 f0bd 353c 13bd
00000330: ea13 2f3d 775c 9bbd 9109 063e 48c8 e6bd
00000340: 4684 5c3d 3fd5 bf3d ad47 a0bd 58e3 cfbc
00000350: f3be e93d 5500 323c 19ea d5bc d222 7a3d
00000360: 15d7 c5bb cf89 033e 518f 16bd 6b12 88bd
00000370: cdc7 4e3d 89aa 01bd f591 e1bd 004e 5b3d
00000380: 7aeb 72bd 54be 89bd c727 c53c 4ce9 91bd
00000390: 3a79 0fbe 3702 e3bc 9d82 e1bc 1e22 babd
000003a0: 9d3c 7ebd d4b8 873d aac1 5f3d ba12 8fbc
000003b0: 84f8 8fb6 2ddb 13bd fd37 0cbc 3b3b aabc
000003c0: d8db 223e f8c6 1d3e 5c67 1dbe 73e2 b3bc
000003d0: 8d53 eebd ec7a 73bc 8ddc 7bbd f5b6 c0bd
000003e0: 8bcd b0bc 3ac5 a4bd 5357 4abd 2521 8cbc
000003f0: 8894 82bd efb1 cdbd 3ef1 893c 4413 87bd
