results/GroupJumper_Skill1_v4/GroupJumper/GroupJumper-2499998.onnx (onnx, 216343 bytes, 15 tensors)

discrete_act_size_vector f4 [1, 2]
5.0 3.0
00000000: 0000 a040 0000 4040

network_body.observation_encoder.processors.0.conv_layers.0.weight f4 [16, 6, 8, 8]
-0.16491045 -0.1916436 0.5265341 -0.057891328 0.37548262 -0.15620613 -0.57303685 0.35063043
0.25431284 -0.4332228 0.33592147 0.1414986 0.22468854 0.57878155 0.1710815 0.3049292
-0.9249618 0.15544888 -0.4017265 -0.19463041 0.45827433 0.29966673 0.2667854 -0.09822006
0.5379993 -0.15465589 -0.090483986 0.63314956 0.25469977 0.15253332 -0.14801002 0.041554492
0.5050334 0.977806 0.21353672 -0.529144 0.17515303 0.21122791 0.10713837 0.014869431
-0.034681533 0.08633345 -0.6808474 -0.041975457 -0.0355295 0.43214992 -0.050947722 0.30362955
-0.011394284 0.17972384 -0.051589087 0.11315088 -0.042503923 0.30055872 0.37208393 -0.26634383
-0.7622739 -0.40682173 0.4636013 -0.34491462 -0.29311976 -0.23177482 -0.09528366 0.025614046
-0.089652605 -0.09983905 -0.49478158 0.1598654 0.018838085 -0.26991647 -0.04696517 -0.28653687
0.20651947 -0.038793914 -0.23431596 -0.048270427 0.32749763 0.24179666 0.9667902 0.0039615263
0.3569692 -0.64217633 -0.052462034 0.57339597 0.086931504 0.08794375 -0.5060525 -0.3619098
0.49596098 0.012571315 0.40686607 0.11068719 0.29709402 -0.05395526 0.32198524 0.6215624
-0.17128338 -0.15219508 0.17936124 0.39815587 0.16804574 0.4236004 0.022863772 -0.019340351
0.19409706 0.60263973 0.5922854 0.25109145 0.06278641 0.048274193 0.24151997 -0.18546928
0.36698803 -0.43369585 0.48482567 -0.54054356 0.053423725 0.15483683 -0.39795032 -0.108599715
-0.1565862 0.6730578 -0.022425149 -0.27373776 -0.5028956 0.51248926 0.169908 -0.51119244
0.048643682 0.081293955 -0.18911125 -0.05864381 -0.1092848 0.12112965 0.07646645 -0.054951403
0.0333146 0.027500417 -0.5231352 -0.40049556 -0.34917718 0.091033906 0.09829159 -0.043761253
0.030277865 -0.016543582 -0.31736657 -0.12222389 -0.21837126 0.1925085 0.12588306 -0.057881605
0.09639398 -0.07677998 -0.32803926 -0.14899655 -0.23011573 0.17017767 0.0878866 -0.039133955
-0.039449956 -0.18349563 -0.23867686 -0.18365157 -0.32877135 0.03048945 0.023447372 -0.095305786
-0.06438631 -0.16980082 -0.020806614 -0.14886355 -0.18941455 -0.093402945 0.09262257 0.023942739
0.06852278 0.029071225 0.06091974 0.079113096 0.0022603525 0.106381744 0.107231036 -0.0039903135
0.062092498 -0.044951923 -0.15002218 -0.16447486 -0.31814116 -0.15817955 0.035279218 -0.09822828
1.007411 -0.006700051 0.25828347 0.24593686 -0.40572208 -0.57151985 -0.63214016 -0.03866535
0.28691152 -0.22949287 -0.33564717 -0.24644284 0.04919728 0.5451441 -0.27570677 -0.23956206
-0.72727853 0.08724729 -0.07750037 -0.27352244 0.5223792 0.36528543 0.7968395 1.251524
-0.5052051 0.58718204 0.1900993 -0.47978646 -0.79703873 1.0861487 -0.32805848 -0.1841501
0.12676081 0.057375893 0.4074729 -0.37813437 -0.12548038 -0.22726211 0.49786463 -0.068051204
0.30907536 0.5772415 0.12146141 0.20034792 -0.026404006 0.41012776 -0.46901512 -0.60277957
-0.5033845 0.044883993 -0.58184475 -0.07660762 0.09740868 0.25819376 -0.13816476 -0.21607603
0.32018712 -0.34870896 -0.33558157 0.39617985 -0.22595076 -0.5244684 -0.01790574 -0.34472507
00000000: 49de 28be 383e 44be f0ca 063f 751f 6dbd
00000010: 423f c03e 80f4 1fbe 8bb2 12bf d585 b33e
00000020: 4b35 823e 61cf ddbe e6fd ab3e 02e5 103e
00000030: c114 663e 072b 143f fd2f 2f3e ae1f 9c3e
00000040: 4cca 6cbf fe2d 1f3e 19af cdbe 324d 47be
00000050: efa2 ea3e eb6d 993e 1998 883e 9927 c9bd
00000060: 52ba 093f 1d5e 1ebe ab4f b9bd 1716 223f
00000070: 0268 823e b231 1c3e f08f 17be 0b35 2a3d
00000080: de49 013f 7e51 7a3f 5fa9 5a3e fb75 07bf
00000090: 515b 333e 214c 583e 5d6b db3d ea9e 733c
000000a0: 390e 0ebd 98cf b03d 044c 2ebf 75ee 2bbd
000000b0: 6287 11bd c142 dd3e 8fae 50bd 5575 9b3e
000000c0: 17af 3abc 8709 383e 144f 53bd a6bb e73d
000000d0: 9818 2ebd d5e2 993e c981 be3e 385e 88be
000000e0: 6224 43bf f04a d0be 265d ed3e a698 b0be
000000f0: cb13 96be 6156 6dbe 1424 c3bd 8cd4 d13c
00000100: c99b b7bd 6a78 ccbd 0354 fdbe c1b3 233e
00000110: 5452 9a3c 7e32 8abe 8d5e 40bd f6b4 92be
00000120: d779 533e 5ee6 1ebd 86f0 6fbe 36b7 45bd
00000130: c5ad a73e 8b99 773e 907f 773f b1cf 813b
00000140: abc4 b63e ab65 24bf 6ee2 56bd 14ca 123f
00000150: 2509 b23d da1b b43d a88c 01bf 3e4c b9be
00000160: 99ee fd3e ebf7 4d3c c050 d03e f7af e23d
00000170: b51c 983e 3100 5dbd 40db a43e b71e 1f3f
00000180: e964 2fbe 07d9 1bbe 79aa 373e 16db cb3e
00000190: 2f14 2c3e 27e2 d83e ce4c bb3c a86f 9ebc
000001a0: 61c1 463e 9946 1a3f 04a0 173f 0f8f 803e
000001b0: 2996 803d 29bb 453d 0351 773e a9eb 3dbe
000001c0: dbe5 bb3e 620d debe 123b f83e 1061 0abf
000001d0: d6d2 5a3d 8c8d 1e3e 25c0 cbbe 8769 debd
000001e0: 2258 20be 844d 2c3f f2b4 b7bc 5b27 8cbe
000001f0: c4bd 00bf 7f32 033f 5dfc 2d3e 82dd 02bf
00000200: 993e 473d 727d a63d 61a6 41be 7e34 70bd
00000210: b6d0 dfbd d212 f83d 719a 9c3d b914 61bd
00000220: e474 083d 8e48 e13c 30ec 05bf c10d cdbe
00000230: 5ac7 b2be fc6f ba3d 1a4d c93d 003f 33bd
00000240: 4909 f83c 6886 87bc df7d a2be 8550 fabd
00000250: b79c 5fbe f320 453e 7de7 003e 4315 6dbd
00000260: 356a c53d d23e 9dbd c3f4 a7be 8d92 18be
00000270: 75a3 6bbe 0e43 2e3e e4fd b33d ed4a 20bd
00000280: 4796 21bd 47e6 3bbe b567 74be 280f 3cbe
00000290: b854 a8be 03c5 f93c b414 c03c ae2f c3bd
000002a0: f8dc 83bd 44e0 2dbe a272 aabc b06f 18be
000002b0: e3f5 41be 0b4a bfbd e7b0 bd3d 9023 c43c
000002c0: ac55 8c3d c726 ee3c fa86 793d 0c06 a23d
000002d0: 6c22 143b acde d93d f29b db3d 2dc1 82bb
000002e0: b454 7e3d 821f 38bd 6a9f 19be 196c 28be
000002f0: 66e3 a2be d2f9 21be f180 103d e92b c9bd
00000300: d8f2 803f 1a8c dbbb bb3d 843e dfd6 7b3e
00000310: ceba cfbe 204f 12bf f0d3 21bf 8f5f 1ebd
00000320: 11e6 923e 2e00 6bbe f2d9 abbe 835b 7cbe
00000330: 1683 493d 908e 0b3f 7029 8dbe c24f 75be
00000340: ed2e 3abf b5ae b23d 84b8 9ebd 220b 8cbe
00000350: a5ba 053f b106 bb3e acfd 4b3f f031 a03f
00000360: 1f55 01bf 9051 163f 64a9 423e 92a6 f5be
00000370: bb0a 4cbf ec06 8b3f 48f7 a7be d891 3cbe
00000380: 96cd 013e fc02 6b3d 4aa0 d03e d49a c1be
00000390: ee7d 00be 66b7 68be 1de8 fe3e 6e5e 8bbd
000003a0: 203f 9e3e 19c6 133f c2c0 f83d 0128 4d3e
000003b0: 374d d8bc 44fc d13e c022 f0be c34f 1abf
000003c0: cedd 00bf 47d8 373d c7f3 14bf 75e4 9cbd
000003d0: 347e c73d f931 843e 107b 0dbe 0943 5dbe
000003e0: 91ef a33e fb89 b2be 59d1 abbe 16d8 ca3e
000003f0: a35f 67be 9043 06bf 0faf 92bc ce7f b0be

network_body.observation_encoder.processors.0.conv_layers.0.bias f4 [16]
-0.29877594 -0.35213488 -0.28488553 -0.28050178 -0.470879 -0.21301012 -0.16619898 -0.2822418
-0.6906764 -0.42963597 -0.38504222 -0.40334848 -0.55555254 -0.7167565 -0.5127764 -0.4471368
00000000: 29f9 98be 064b b4be 84dc 91be ee9d 8fbe
00000010: 0d17 f1be 531f 5abe 1130 2abe ff81 90be
00000020: 2bd0 30bf 3ff9 dbbe 4124 c5be b183 cebe
00000030: b138 0ebf 5b7d 37bf 5045 03bf 1def e4be

network_body.observation_encoder.processors.0.conv_layers.2.weight f4 [32, 16, 4, 4]
-0.04266934 -0.07660116 -0.15594222 0.05582178 0.12221571 0.12457418 0.08495358 -0.063171245
0.08757146 0.072848625 -0.4483288 -0.24699561 0.48235613 0.15155926 -0.89960295 -0.30247906
0.16001941 0.15505522 0.3594593 0.022279777 -0.083351694 -0.116237804 0.0032479314 0.11345208
-0.14800762 -0.5863554 -0.26683125 -0.2083989 0.011063287 -0.23078674 -0.22104394 0.08200743
-0.28460053 0.505574 0.040241797 0.4111394 0.12826164 0.046469092 0.062372293 -0.05110621
-0.14351636 -0.12661284 0.2508533 0.30993772 -0.056550954 -0.4371664 0.12952845 0.017830707
0.26535603 0.28575125 -0.30836964 -0.062206388 -0.40858737 0.40323943 -0.770257 -0.25038058
-0.10729436 0.32181066 0.04366832 -0.70014817 0.23556496 0.18323016 0.37383217 -0.37615895
0.062495098 -0.30750692 -0.20978741 0.08383876 0.41450778 0.1942439 0.33293086 -0.18190113
0.21277346 0.50730604 -0.039857112 -0.43431026 0.16105826 -0.47540638 -0.10256932 -0.027743837
-0.023963379 -0.15741037 -0.2566199 -0.015703553 -0.5386415 0.25256556 0.1295469 -0.0023448486
-0.80008525 -0.07816081 0.08842389 0.16295512 0.06291221 0.020048007 -0.3929987 0.04264644
-0.030764524 0.07908716 0.112186775 0.17182733 -0.30918247 0.66705525 0.3729858 0.19814233
-0.66109633 -0.056372914 -0.1518968 0.053528402 -0.73381394 -0.29391342 -0.047482584 -0.0630689
0.40225396 0.040292468 0.07470326 -0.103408426 -0.26348984 0.2572083 0.08657548 -0.3928339
-0.025017332 -0.3411945 -0.33804095 -0.27214476 0.5363259 0.24529147 0.05637526 -0.23825167
-0.20056678 -0.27570343 0.20967174 0.15851425 -0.48944524 -0.08271709 -0.37008476 -0.0008354008
-0.0885976 -0.0007505731 0.53005403 -0.19219033 -0.23314916 0.17060097 -0.32809094 -0.11961835
0.028640682 -0.0075682863 0.22375792 0.24522933 -0.053464096 -0.10912798 -0.3090702 0.09542905
-0.51820564 0.15852018 0.0218451 -0.033015475 -0.10616647 0.053947795 -0.45456755 0.42686987
-0.16488004 0.1038101 -0.29970306 -0.22642872 -0.45630988 -0.8957609 0.17368792 -0.15465268
-0.012468054 -0.120921746 -0.18033329 -0.035134085 -0.2863091 -0.40784392 0.17563242 0.28452572
-0.30880895 -0.059125047 0.39701286 0.007543791 0.024156775 -0.30204147 0.29244697 0.20423584
-0.12962101 0.13147455 -0.22920302 0.061053257 0.1090593 0.1669336 0.3859333 -0.27481553
0.05286757 -0.21800649 -0.66620076 0.15121014 -0.042402122 -0.4467551 -0.5274742 -0.18202253
-0.50418246 -0.094224945 -0.5703062 -0.22564784 0.12916419 0.010192008 -0.115281075 0.0524026
0.41976595 0.14624275 0.14143932 -0.1699216 -0.040739406 0.44426018 0.021480244 -0.1713928
-0.7483372 -0.14865255 -0.0505085 -0.22566801 -0.16391326 -0.53848493 -0.39489087 -0.055177737
0.042796288 0.07820618 -0.6916102 0.005090435 -0.15290123 -0.2956269 -0.46782088 -0.06246285
0.117140494 -0.14843516 0.4306313 -0.27832144 -0.0035465877 -0.08459402 -0.0852692 -0.21809106
0.33990598 0.029249733 0.388497 0.28034866 0.07751501 -0.30504012 0.2148261 -0.0047813514
-0.06907172 -0.3739558 -0.72009665 -0.13238807 0.19250754 0.02873292 -0.28167912 -0.17532049
00000000: 0cc6 2ebd 12e1 9cbd 51af 1fbe 61a5 643d
00000010: 3b4c fa3d bf20 ff3d 24fc ad3d ed5f 81bd
00000020: aa58 b33d a931 953d 5a8b e5be 6bec 7cbe
00000030: 62f7 f63e 5a32 1b3e 614c 66bf 89de 9abe
00000040: 21dc 233e ccc6 1e3e 0d0b b83e 1484 b63c
00000050: 4bb4 aabd 160e eebd 3fdb 543b 9059 e83d
00000060: 4f8f 17be 631b 16bf 1b9e 88be 8566 55be
00000070: ca42 353c 5c53 6cbe 5859 62be 83f3 a73d
00000080: 29b7 91be 4c6d 013f 95d4 243d dd80 d23e
00000090: 0557 033e 6056 3e3d 177a 7f3d bf54 51bd
000000a0: f4f5 12be cca6 01be d86f 803e 28b0 9e3e
000000b0: f9a1 67bd 46d4 dfbe 1ba3 043e b411 923c
000000c0: bfdc 873e fd4d 923e a0e2 9dbe 20cc 7ebd
000000d0: 5d32 d1be 6675 ce3e 902f 45bf e231 80be
000000e0: 25bd dbbd 5ec4 a43e 8ddd 323d e93c 33bf
000000f0: f137 713e b0a0 3b3e ee66 bf3e e897 c0be
00000100: dcfa 7f3d 8c71 9dbe 83d2 56be a8b3 ab3d
00000110: 5d3a d43e dfe7 463e ea75 aa3e 4a44 3abe
00000120: 49e1 593e cfde 013f 3641 23bd ea5d debe
00000130: 75ec 243e 7768 f3be dd0f d2bd 0b47 e3bc
00000140: d94e c4bc 2f30 21be af63 83be bda4 80bc
00000150: 69e4 09bf 4650 813e f1a7 043e 08ac 19bb
00000160: 63d2 4cbf c612 a0bd 9617 b53d b5dd 263e
00000170: 1ed8 803d b83b a43c 2037 c9be 09ae 2e3d
00000180: e205 fcbc 73f8 a13d 2ec2 e53d 81f3 2f3e
00000190: 2a4d 9ebe 22c4 2a3f fff7 be3e d3e5 4a3e
000001a0: 9c3d 29bf 49e7 66bd d68a 1bbe 9940 5b3d
000001b0: 3bdb 3bbf d27b 96be 197d 42bd 442a 81bd
000001c0: 3bf4 cd3e b709 253d 06fe 983d ccc7 d3bd
000001d0: 24e8 86be ceb0 833e 7c4e b13d 8621 c9be
000001e0: 26f1 ccbc 0cb1 aebe b413 adbe 8f56 8bbe
000001f0: a74c 093f b02d 7b3e bfe9 663d 3ff8 73be
00000200: 6161 4dbe 0029 8dbe 30b4 563e 8f51 223e
00000210: 9198 fabe 9467 a9bd c07b bdbe ccfe 5aba
00000220: a972 b5bd 1cc2 44ba 9fb1 073f 8bcd 44be
00000230: a7be 6ebe 05b2 2e3e 89fb a7be 77fa f4bd
00000240: dd9f ea3c 63ff f7bb cc20 653e 661d 7b3e
00000250: 2bfd 5abd 7e7e dfbd 733e 9ebe 4e70 c33d
00000260: 20a9 04bf 1d53 223e 7ff4 b23c 3c3b 07bd
00000270: ce6d d9bd 5df8 5c3d 14bd e8be b08e da3e
00000280: 50d6 28be 649a d43d ae72 99be eedc 67be
00000290: 73a1 e9be 9650 65bf 3fdb 313e 465d 1ebe
000002a0: cf46 4cbc d2a5 f7bd 4aa9 38be c2e8 0fbd
000002b0: 1b97 92be ebd0 d0be fcd8 333e 5bad 913e
000002c0: 351c 9ebe 1b2d 72bd 4545 cb3e e831 f73b
000002d0: 6ee4 c53c 2ea5 9abe 9cbb 953e 3323 513e
000002e0: 5fbb 04be 44a1 063e 32b4 6abe fb12 7a3d
000002f0: 7b5a df3d a4f0 2a3e 0d99 c53e 9fb4 8cbe
00000300: aa8b 583d 183d 5fbe 228c 2abf d5d6 1a3e
00000310: d9ad 2dbd 16bd e4be 8d08 07bf 1d64 3abe
00000320: 1a12 01bf 02f9 c0bd 96ff 11bf 3a10 67be
00000330: 9e43 043e 61fc 263c 7c18 ecbd 1ca4 563d
00000340: 90eb d63e a9c0 153e 78d5 103e eeff 2dbe
00000350: 5dde 26bd 1276 e33e 56f7 af3c 9881 2fbe
00000360: 0793 3fbf 6038 18be 00e2 4ebd 8415 67be
00000370: e1d8 27be 26da 09bf 232f cabe 0d02 62bd
00000380: 294b 2f3d 902a a03d 5e0d 31bf aacd a63b
00000390: 2492 1cbe 695c 97be 3886 efbe 0cd9 7fbd
000003a0: 5be7 ef3d 63ff 17be b57b dc3e 2680 8ebe
000003b0: de6d 68bb a13f adbd 9ea1 aebd 4353 5fbe
000003c0: 2808 ae3e 239d ef3c 14e9 c63e dc89 8f3e
000003d0: 31c0 9e3d 382e 9cbe 60fb 5b3e e2ac 9cbb
000003e0: 7975 8dbd 2277 bfbe 4158 38bf bd90 07be
000003f0: b220 453e 4d61 eb3c 3f38 90be 3787 33be

network_body.observation_encoder.processors.0.conv_layers.2.bias f4 [32]
-0.08451764 -0.40021354 -0.036499087 -0.24763113 0.23242003 -0.228775 -0.05129348 -0.20719042
0.033268232 -0.4495758 -0.017803524 -0.10838974 -0.015313506 -0.008707693 -0.080338955 0.09403897
-0.28071976 0.09564987 -0.056889474 0.05959254 0.062010467 -0.15602362 -0.3242552 -0.16640645
-0.086923994 -0.19947897 -0.12186709 -0.18181533 -0.23767382 -0.40753233 0.24229929 -0.27016816
00000000: 9617 adbd cae8 ccbe 1180 15bd 0493 7dbe
00000010: 84ff 6d3e fe43 6abe 1d19 52bd ba29 54be
00000020: 4544 083d cd2e e6be b2d8 91bc 71fb ddbd
00000030: 80e5 7abc b6aa 0ebc c088 a4bd 8197 c03d
00000040: 80ba 8fbe 14e4 c33d f004 69bd 4f17 743d
00000050: b0fe 7d3d a8c4 1fbe c704 a6be 7466 2abe
00000060: 3505 b2bd 3744 4cbe 7495 f9bd cc2d 3abe
00000070: c460 73be 14a8 d0be 4e1d 783e 7b53 8abe

network_body.observation_encoder.processors.0.dense.0.weight f4 [128, 32]
-0.034916665 -0.21832275 -0.14765319 -0.12676482 0.044731475 0.37582904 0.4312613 0.22854398
0.21796118 0.19633293 0.09500269 0.076812185 0.46430603 -0.91807055 0.34078208 0.23652798
0.20787598 0.32104608 0.3442027 -0.09695835 -0.24350323 0.665549 -0.739502 0.0067642704
-0.2981143 0.3521643 -0.99565816 -1.4500668 -0.010134459 -0.041329604 -0.13696922 0.120021574
0.23876198 0.44427922 0.031336635 0.14550446 0.29929847 -0.1403324 -0.37350547 0.57190466
-0.109594636 -0.27817217 -0.553338 0.3085789 0.36168814 0.43173608 0.030499939 0.41587713
0.26051164 -0.38993558 0.075130805 -0.04612093 0.15207751 0.11787123 0.1065621 -0.25634232
0.054031044 0.38860425 -0.11048354 0.5242121 -0.51329607 0.6720247 -0.3121792 0.3188491
-0.2242105 -0.4245093 0.31306952 0.33198947 -0.4884535 0.48635212 0.07371912 -0.041684926
-0.5487795 0.17437452 -0.027138524 -0.3473688 -0.58880764 0.08467095 -0.51854736 -0.051497847
0.21111578 -0.020364735 0.038459983 -0.78119767 0.2757576 -0.14780582 -0.35056558 -0.2383179
-0.47028598 0.29050228 -0.16228327 -0.24119514 0.20867534 0.24166282 0.3621042 -0.07693426
0.3354611 0.3282519 -0.35974526 0.670493 -0.12549505 0.5008388 0.08092032 0.03089305
-0.025838634 -0.4706179 -0.98770446 -0.048030626 0.65009195 -0.45364606 0.20019889 -0.118747965
-0.31170642 -0.036607318 -0.14258464 0.60999805 -0.5551412 0.29957366 -0.14458 -0.057106413
0.16885152 0.2525311 -0.53198516 0.14229704 0.16621153 0.27491885 -0.6206867 -0.27583286
0.46686792 0.059192322 -0.45574033 0.033418737 -0.030641163 0.2790512 -0.4509832 -0.6433641
0.46345863 -0.9486101 0.85479087 -0.25402436 0.21394992 0.21619985 0.17074089 0.6869511
0.7273644 0.2019367 -0.33963522 -0.4876086 -0.16710863 -0.38596538 0.46260452 0.15220055
-0.114850864 0.46548527 -0.32188204 -0.209699 0.4385032 -0.47839305 -0.88881975 -0.33314297
-0.5208405 0.027892787 -0.8943821 -0.37304595 -0.30809936 -0.8202559 -0.35105816 0.73289514
-0.4863593 0.42891073 -0.053487014 -0.4473144 0.22064134 -0.79128325 0.06919922 -0.09771448
-0.11255675 0.025832906 -0.8541724 0.13309512 0.35728166 -0.7016694 -0.084862 0.01983087
-0.51383936 -0.6794013 0.012605518 0.24100943 0.19596334 0.26412427 0.5694976 -0.17791538
-0.914924 -0.360961 0.3839907 0.36567968 -0.7753432 0.21184963 -0.39313388 0.20025988
-0.42496508 0.099287525 -0.12332127 0.19442359 -0.18476874 -0.17785901 -0.67331266 -0.17444262
-0.022156214 -0.27525893 -0.09230914 0.11410413 0.12523583 -0.100832805 -0.34218612 0.15743989
0.49368382 0.7831251 0.1745289 -0.8676899 -0.49987537 0.049045324 -0.30795076 -0.53266484
0.41907737 0.23926651 -0.12690519 -0.052830763 -0.104016475 -0.32530898 0.5339461 0.18167019
-0.010617315 -0.08456731 0.12174833 0.72189856 0.29082486 -0.56516105 0.15972218 0.32081544
-0.5090116 -0.31606558 0.40360138 -0.44544744 -0.5633486 -0.2400123 -0.24582882 -0.36722156
-0.25291383 -0.21800853 0.06982293 -1.1341909 -0.26168442 -0.20647776 -0.15149228 -0.37745306
00000000: c704 0fbd 0090 5fbe 6632 17be a3ce 01be
00000010: 5a38 373d aa6c c03e 48ce dc3e 6f07 6a3e
00000020: 3731 5f3e 800b 493e c590 c23d b54f 9d3d
00000030: 85b9 ed3e ac06 6bbf fd7a ae3e 6434 723e
00000040: 71dd 543e 2760 a43e 563b b03e 1992 c6bd
00000050: e958 79be 6b61 2a3f 0150 3dbf d0a6 dd3b
00000060: 70a2 98be e14e b43e 74e3 7ebf ca9b b9bf
00000070: 000b 26bc 3b49 29bd a941 0cbe dfcd f53d
00000080: 057e 743e 9178 e33e d85a 003d 1fff 143e
00000090: a63d 993e 4cb3 0fbe 1c3c bfbe 5868 123f
000000a0: 2773 e0bd 956c 8ebe 8fa7 0dbf 0efe 9d3e
000000b0: 302f b93e 830c dd3e 02db f93c d9ed d43e
000000c0: c861 853e a3a5 c7be 2ede 993d 4de9 3cbd
000000d0: 35ba 1b3e 7966 f13d 3b3d da3d 4d3f 83be
000000e0: a84f 5d3d 23f7 c63e 3245 e2bd c432 063f
000000f0: 5f67 03bf d009 2c3f f4d5 9fbe 3040 a33e
00000100: 7097 65be 4859 d9be a64a a03e 86fa a93e
00000110: 9416 fabe 2503 f93e 0dfa 963d d0bd 2abd
00000120: d07c 0cbf 3c8f 323e 9c51 debc 53da b1be
00000130: 19bc 16bf f767 ad3d 85bf 04bf 68ef 52bd
00000140: bc2e 583e f2d3 a6bc 3788 1d3d 92fc 47bf
00000150: 1a30 8d3e 695a 17be 557d b3be 9c09 74be
00000160: 53c9 f0be b7bc 943e 962d 26be dcfb 76be
00000170: fdae 553e 7576 773e b965 b93e b68f 9dbd
00000180: 8fc1 ab3e a210 a83e 8830 b8be 6ea5 2b3f
00000190: c681 00be f936 003f 8db9 a53d 6c13 fd3c
000001a0: 8bab d3bc d4f4 f0be 33da 7cbf c3bb 44bd
000001b0: 6d6c 263f 4c44 e8be f000 4d3e 2232 f3bd
000001c0: fc97 9fbe 8ef1 15bd b501 12be d528 1c3f
000001d0: bc1d 0ebf b861 993e c80c 14be 6ae8 69bd
000001e0: 6ae7 2c3e c24b 813e 2e30 08bf 51b6 113e
000001f0: 5b33 2a3e 2ac2 8c3e 53e5 1ebf f739 8dbe
00000200: 5009 ef3e a673 723d cc56 e9be 16e2 083d
00000210: 2d03 fbbc cddf 8e3e 45e7 e6be 82b3 24bf
00000220: 734a ed3e 1dd8 72bf 93d3 5a3f 7b0f 82be
00000230: b015 5b3e 7e63 5d3e b3d6 2e3e 07dc 2f3f
00000240: 8e34 3a3f 7fc8 4e3e abe4 adbe d6a7 f9be
00000250: 861e 2bbe 419d c5be 80da ec3e 76da 1b3e
00000260: ee36 ebbd 1654 ee3e b9cd a4be 56bb 56be
00000270: 7e83 e03e efef f4be b189 63bf b791 aabe
00000280: ce55 05bf 6a7f e43c 3af6 64bf e1ff bebe
00000290: 33bf 9dbe 4afc 51bf e5bd b3be 049f 3b3f
000002a0: 1604 f9be 309a db3e 3315 5bbd 6506 e5be
000002b0: ceef 613e 8a91 4abf 52b8 8d3d 871e c8bd
000002c0: 2784 e6bd 889f d33c 0bab 5abf 164a 083e
000002d0: 9fed b63e 9ba0 33bf 21cc adbd 5974 a23c
000002e0: fa8a 03bf 3eed 2dbf 6087 4e3c 2dcb 763e
000002f0: 9daa 483e 4c3b 873e 98ca 113f 732f 36be
00000300: 7638 6abf e1cf b8be 6e9a c43e 5e3a bb3e
00000310: e47c 46bf 1cef 583e d848 c9be ed10 4d3e
00000320: 0695 d9be 4257 cb3d dd8f fcbd fa16 473e
00000330: 0434 3dbe ac20 36be 385e 2cbf 16a1 32be
00000340: f380 b5bc bdee 8cbe 930c bdbd 6daf e93d
00000350: d23d 003e 6e81 cebd 0533 afbe ec37 213e
00000360: 20c4 fc3e e37a 483f b4b7 323e ed20 5ebf
00000370: aaef ffbe c0e3 483d b9ab 9dbe b95c 08bf
00000380: 4f91 d63e 4802 753e 6ff3 01be 1265 58bd
00000390: 9706 d5bd e68e a6be b1b0 083f c007 3a3e
000003a0: 3ff4 2dbc a031 adbd 3057 f93d 58ce 383f
000003b0: ffe6 943e 65ae 10bf 368e 233e ec41 a43e
000003c0: 964e 02bf 59d3 a1be d7a4 ce3e b011 e4be
000003d0: 9d37 10bf c9c5 75be 8dba 7bbe 7704 bcbe
000003e0: ec7d 81be a13d 5fbe 53ff 8e3d 2b2d 91bf
000003f0: 80fb 85be e86e 53be cb20 1bbe 8741 c1be

network_body.observation_encoder.processors.0.dense.0.bias f4 [128]
0.17511053 -0.1005055 -0.20532063 -0.07950424 -0.26195508 0.38729224 -0.33091012 -0.1744447
-0.32284847 -0.41300732 -0.053534534 0.06364301 -0.3474845 -0.2849787 0.01641682 -0.097874254
-0.30584347 0.14548406 -0.05790614 -0.21097349 -0.6579269 0.06446572 -0.43964434 -0.31678712
-0.28989363 -0.30541065 -0.51373005 -0.46517876 -0.2546533 0.07943319 -0.077153385 -0.4776258
-0.3912758 -0.029259535 0.4288285 -0.39186773 -0.0989503 0.10487677 -0.107074186 -0.47367093
-0.29784197 -0.25634623 0.07781072 -0.21006301 -0.43280283 -0.1689579 -0.15314086 -0.20858084
-0.27714467 -0.47637692 -0.0485846 0.2337125 -0.16681576 0.21077543 -0.15903325 -0.070771344
-0.25447267 -0.0759998 -0.03958476 -0.01649412 -0.12105689 -0.2548731 -0.041579135 -0.316682
-0.3038766 -0.104192995 0.29409465 -0.24492139 -0.123346284 -0.14048764 -0.16984236 -0.13920781
-0.50763 -0.21948603 -0.0804266 0.037999056 -0.1650785 -0.11353918 -0.3241564 -0.54450125
-0.28071502 0.06612 0.39281732 0.07506099 -0.07746954 -0.52656883 -0.07591393 0.12955813
-0.26691538 -0.10602083 -0.08912148 -0.19511129 -0.32501867 -0.035103522 -0.029924933 -0.2382202
0.3498486 -0.16009085 -0.4303946 -0.2028629 -0.23637636 -0.16956961 -0.45867318 -0.09566738
-0.021388792 0.24892716 0.22452073 0.1324383 -0.33206582 -0.071725704 -0.40460497 -0.08915879
-0.25810835 -0.31265628 -0.4296453 -0.18115978 0.030681858 -0.099185206 -0.37163976 0.09411303
-0.14070876 -0.09329358 -0.2366972 -0.029578561 -0.3653388 -0.5162786 -0.4007878 -0.24328502
00000000: 2d50 333e d4d5 cdbd 923f 52be 1ed3 a2bd
00000010: fa1e 86be 2b4b c63e 0d6d a9be a2a1 32be
00000020: 654c a5be b275 d3be 0747 5bbd 4457 823d
00000030: 7de9 b1be bae8 91be 917c 863c 4c72 c8bd
00000040: 8497 9cbe c6f9 143e fd2e 6dbd 6f09 58be
00000050: e66d 28bf 9a06 843d 1019 e1be ec31 a2be
00000060: f06c 94be c95e 9cbe d083 03bf e92b eebe
00000070: eb61 82be dead a23d 9802 9ebd 5e8b f4be
00000080: 4d55 c8be b1b1 efbc 698f db3e e3a2 c8be
00000090: 74a6 cabd a2c9 d63d b649 dbbd ff84 f2be
000000a0: be7e 98be d03f 83be 3a5b 9f3d c21a 57be
000000b0: 5598 ddbe 4d03 2dbe f5d0 1cbe 3796 55be
000000c0: e8e5 8dbe ade7 f3be a500 47bd 5452 6f3e
000000d0: c0d1 2abe 84d5 573e 9dd9 22be 91f0 90bd
000000e0: 3e4a 82be c8a5 9bbd a123 22bd ad1e 87bc
000000f0: adec f7bd ba7e 82be e24e 2abd 2524 a2be
00000100: b795 9bbe 2363 d5bd 9393 963e accc 7abe
00000110: fa9c fcbd fedb 0fbe 28eb 2dbe 7e8c 0ebe
00000120: 0af4 01bf f2c0 60be b4b6 a4bd e6a4 1b3d
00000130: 570a 29be 3b87 e8bd d4f7 a5be 6f64 0bbf
00000140: e1b9 8fbe ec69 873d 5a1f c93e 94b9 993d
00000150: 5aa8 9ebd 37cd 06bf c378 9bbd e3aa 043e
00000160: 22a9 88be 7321 d9bd 5385 b6bd 41cb 47be
00000170: d968 a6be b6c8 0fbd 2225 f5bc ffef 73be
00000180: 5b1f b33e dbee 23be ae5c dcbe 4bbb 4fbe
00000190: a50c 72be a8a3 2dbe 36d7 eabe 42ed c3bd
000001a0: 8c37 afbc c3e6 7e3e c3e8 653e e89d 073e
000001b0: 8804 aabe ede4 92bd 6228 cfbe e298 b6bd
000001c0: c726 84be 7c14 a0be 78fa dbbe f381 39be
000001d0: 8558 fb3c 9d21 cbbd 9147 bebe 55be c03d
000001e0: f515 10be b410 bfbd c060 72be bd4e f2bc
000001f0: b00d bbbe d62a 04bf 0f34 cdbe b51f 79be

network_body._body_endoder.seq_layers.0.weight f4 [128, 128]
0.29658368 0.08675067 0.39709362 0.07029529 -0.13584395 -0.17095347 -0.2103591 0.31314328
0.13861813 0.4142162 -0.042088218 0.14346352 -0.34066308 0.25404352 -0.032181446 0.2876407
-0.5449721 -0.21165936 0.0392373 0.005334265 -0.43650737 -0.18629864 -0.23840344 -0.26378295
0.3235169 -0.02984893 -0.44416523 -0.18336543 0.10811641 0.32029876 -0.06967179 0.30534008
-0.10331783 -0.10574662 -0.2085616 0.27932298 -0.029021733 -0.038535565 -0.54658586 0.19775371
-0.23176993 -0.10204962 0.24444546 -0.0049593966 -0.3548114 -0.03353718 -0.5141532 0.31344125
-0.15362945 -0.013212499 0.47884402 0.59047765 0.24424088 0.59277076 0.110246375 0.20272182
-0.07566927 0.642094 0.38816229 -0.448855 0.4378752 0.2366682 -0.13151786 0.20958793
-0.15396604 -0.18045154 0.09683761 -0.03909942 0.11346055 0.37288636 0.008877603 0.07404867
0.44294983 -0.2432803 0.27455175 -0.30294225 -0.24726504 0.22671938 -0.33226 0.47132534
0.00023068371 0.20059338 -0.20410977 -0.64362967 0.59324074 -0.064742155 0.28450018 0.07068228
0.37738037 0.17621604 -0.22296871 0.080098465 0.23544803 -0.63905704 0.24121554 0.082936786
0.016008984 -0.54221463 0.33984843 0.2495615 -0.14058012 -0.022492647 -0.027194008 -0.1418722
0.16543922 -0.33011082 -0.41890055 -0.26198292 0.052186634 -0.1172458 0.3269864 0.31910408
-0.28158435 -0.41520762 0.5141156 0.6925373 -0.0579927 0.3291557 -0.5105749 -0.27538338
-0.3477815 -0.26376423 0.52309453 0.28740185 -0.2501478 -0.11484969 0.067450054 -0.087323286
-0.049135838 -0.02581969 0.09329917 -0.10009198 0.22336566 0.06859271 -0.18511467 0.31953067
0.529615 0.08762393 -0.3565377 0.54447025 -0.06678319 -0.27342173 -0.24437912 -0.20791495
-0.06435225 0.07795481 -0.4101202 -0.07589485 -0.3143439 -0.9120922 0.48506334 -0.34682915
-0.5329728 -0.012370886 -0.37450042 -0.052271437 0.28466737 -0.021124825 0.29091614 0.05984254
-0.81105876 0.7184286 -0.13690063 -0.88274235 -0.24077815 -0.21651751 -0.06033173 0.19898139
-0.57575357 0.4581731 -0.13964322 -0.20171711 0.47495475 -0.16577418 0.24331345 -0.3967348
0.03766456 -0.24301712 -0.589593 -7.424528e-05 -0.028928684 0.6924685 0.10450229 -0.11272223
-0.22487353 -0.11267985 -0.048013337 0.006170994 -0.09925709 0.0947589 -0.05473949 -0.38316312
-0.2970695 -0.016719166 -0.23661697 0.23387738 0.685445 -0.33855537 0.15249401 -0.38709044
-0.6411091 -0.43118086 0.15824024 -0.52799743 -0.050837502 0.20656419 -0.28471136 -0.41662008
-0.05467944 0.3449067 -0.083636425 -0.07335805 -0.4244645 -0.24005231 -0.25263852 0.26464158
-0.81315464 -0.046293065 -0.16134518 -0.41345352 0.053137306 -0.21360746 0.2774262 -0.047943927
0.2705572 0.038167037 -0.25687784 -0.059459664 0.28334832 -0.37474948 0.039801624 -0.64034367
0.22169118 -0.0077471584 -0.09701397 -0.12467427 -0.11533972 -0.17253688 0.581892 0.028824598
-0.029863713 -0.046881497 0.24246308 -0.0648839 -0.8705446 -0.57519054 -0.27488795 -0.15636753
-0.19692962 -0.011400334 -0.017147735 0.016548775 -0.54470503 -0.3087047 0.45801958 0.04250932
00000000: d1d9 973e 56aa b13d db4f cb3e faf6 8f3d
00000010: ad1a 0bbe 6d0e 2fbe 6068 57be 5154 a03e
00000020: e9f1 0d3e 2514 d43e b264 2cbd 1ae8 123e
00000030: 646b aebe fe11 823e b1d0 03bd a445 933e
00000040: 4b83 0bbf 3bbd 58be 4bb7 203d 0fcb ae3b
00000050: e57d dfbe 12c5 3ebe 0820 74be 8f0e 87be
00000060: 02a4 a53e be85 f4bc a069 e3be 26c4 3bbe
00000070: 236c dd3d 33fe a33e 15b0 8ebd 8955 9c3e
00000080: 4c98 d3bd af91 d8bd 2c91 55be 6c03 8f3e
00000090: fcbe edbc 78d7 1dbd 0ded 0bbf f37f 4a3e
000000a0: 1955 6dbe 64ff d0bd e94f 7a3e 6f82 a2bb
000000b0: d7a9 b5be 485e 09bd 8b9f 03bf 5f7b a03e
000000c0: 0a51 1dbe 3d79 58bc 0b2b f53e 8b29 173f
000000d0: 481a 7a3e d3bf 173f dac8 e13d 4f96 4f3e
000000e0: 7df8 9abd 4660 243f 35bd c63e 53d0 e5be
000000f0: 2e31 e03e 2659 723e 9eac 06be 389e 563e
00000100: 46a9 1dbe 4ac8 38be cc52 c63d b726 20bd
00000110: 015e e83d f6ea be3e 5e73 113c d4a6 973d
00000120: 52ca e23e 791e 79be 0c92 8c3e 3f1b 9bbe
00000130: 0c33 7dbe 2029 683e fc1d aabe 8e51 f13e
00000140: b0e3 7139 5a68 4d3e 2702 51be eac4 24bf
00000150: a0de 173f 8997 84bd 02aa 913e dfc1 903d
00000160: 0038 c13e fa71 343e e951 64be aa0a a43d
00000170: 4a19 713e 3e99 23bf 3501 773e c3da a93d
00000180: 4625 833c 94ce 0abf 9d00 ae3e 0d8d 7f3e
00000190: 3cf4 0fbe 8042 b8bc f8c5 debc f246 11be
000001a0: e668 293e 4904 a9be 227a d6be a022 86be
000001b0: a7c1 553d 911e f0bd c36a a73e 9c61 a33e
000001c0: d32b 90be 1896 d4be 149d 033f 204a 313f
000001d0: c189 6dbd 1987 a83e 09b5 02bf 0dff 8cbe
000001e0: 6b10 b2be 1b0c 87be 86e9 053f 5626 933e
000001f0: 5f13 80be 5036 ebbd 4123 8a3d 8dd6 b2bd
00000200: a942 49bd d183 d3bc a313 bf3d 06fd ccbd
00000210: f8b9 643e 567a 8c3d b38e 3dbe 8699 a33e
00000220: d994 073f 2d74 b33d 1c8c b6be 6762 0b3f
00000230: a0c5 88bd effd 8bbe 853e 7abe a8e7 54be
00000240: 1dcb 83bd c5a6 9f3d 46fb d1be c26e 9bbd
00000250: aff1 a0be e07e 69bf 395a f83e 9793 b1be
00000260: e870 08bf 42af 4abc 85be bfbe 931a 56bd
00000270: ecbf 913e f80d adbc f6f2 943e 741d 753d
00000280: 8ca1 4fbf f0ea 373f ae2f 0cbe 67fb 61bf
00000290: 8c8e 76be c4b6 5dbe 671e 77bd c7c1 4b3e
000002a0: 9664 13bf aa95 ea3e a2fe 0ebe ee8e 4ebe
000002b0: 452d f33e b5c0 29be 2927 793e d320 cbbe
000002c0: 2746 1a3d 7bd9 78be 91ef 16bf 22b4 9bb8
000002d0: d9fb ecbc 9e45 313f 4c05 d63d eada e6bd
000002e0: 3f45 66be b1c4 e6bd a2a9 44bd 0d36 ca3b
000002f0: 4d47 cbbd f410 c23d 8436 60bd f52d c4be
00000300: 7e19 98be a2f6 88bc b84b 72be 8d7d 6f3e
00000310: 5379 2f3f 2157 adbe 6427 1c3e b830 c6be
00000320: ba1f 24bf bdc3 dcbe bb09 223e d72a 07bf
00000330: fc3a 50bd 9085 533e b0c5 91be 3a4f d5be
00000340: 8cf7 5fbd 9c97 b03e 9349 abbd bf3c 96bd
00000350: 6953 d9be 46d0 75be d659 81be 1a7f 873e
00000360: e72a 50bf cc9d 3dbd ac37 25be 2eb0 d3be
00000370: 81a6 593d eabb 5abe cf0a 8e3e da60 44bd
00000380: 7986 8a3e 0a55 1c3d 7e85 83be fa8b 73bd
00000390: 0813 913e 2adf bfbe 0707 233d 90ed 23bf
000003a0: 0303 633e e0db fdbb 43af c6bd 3955 ffbd
000003b0: 3b37 ecbd 82ad 30be e0f6 143f 9021 ec3c
000003c0: bfa4 f4bc d006 40bd 3e48 783e dae1 84bd
000003d0: 03dc 5ebf b03f 13bf 1dbe 8cbe cf1e 20be
000003e0: eba7 49be 77c8 3abc 6879 8cbc 4c91 873c
000003f0: ca71 0bbf 8b0e 9ebe 8b81 ea3e 411e 2e3d

network_body._body_endoder.seq_layers.0.bias f4 [128]
0.041579776 0.24677753 -0.52992517 -0.10505321 -0.079772316 0.37082925 0.16868423 0.25879002
0.40437725 0.030109275 0.21424322 0.22085342 -1.254304 -0.17773703 -0.1771605 0.104008645
-0.06702203 0.122147076 0.5577593 0.14334197 0.06480872 0.16545227 0.03648231 -0.3376206
0.035916544 -0.6822079 -0.06108953 -0.040630054 0.2267873 0.27172005 0.37752438 0.22084415
-0.08988695 0.16684172 -0.15754494 0.22440813 -0.030585427 0.195113 0.28760037 0.12133389
0.24267928 0.12944637 -0.30884588 0.1871248 -0.023223178 0.22026278 -0.48931503 -0.021992894
-0.039999332 -0.015414118 0.10183388 -0.035230525 -0.08146896 -0.021218127 0.14434248 -0.15673698
-0.014506485 0.056597855 -0.98253506 -0.022973798 -0.2271819 0.039635357 0.16928668 0.021968577
0.11895996 -0.24429385 -0.29892004 -0.53673524 -0.057549387 0.145104 0.13790129 0.22077033
-0.022641491 0.0010294897 0.23206702 0.32684398 -0.5047314 -0.0835382 -0.00030635655 -0.037522364
0.26140064 -0.32909253 0.123593055 -0.097132765 0.17905769 0.2696603 -0.7963743 -0.1637418
0.07013206 -0.10741464 -0.17198764 0.13438487 0.16080281 0.19458273 0.2740354 0.14374417
-0.24108191 0.10550778 -0.5142948 0.267594 0.26281303 -0.21885866 0.34056824 0.21084563
0.04702233 -0.225136 -0.07381171 -0.10714036 0.094081566 0.19423684 0.13166884 0.14961208
-0.25806406 0.075257115 -0.09737096 0.084559254 -0.10488502 -0.7836945 0.055122033 -0.21825843
-0.045608748 0.060238022 0.17953579 0.12461319 -0.3786047 0.110390924 0.35786143 0.3363093
00000000: 8e4f 2a3d 40b3 7c3e 2da9 07bf 2326 d7bd
00000010: ab5f a3bd 55dd bd3e 8fbb 2c3e 2080 843e
00000020: 890a cf3e baa7 f63c 9362 5b3e 6627 623e
00000030: 098d a0bf b200 36be 9069 35be 7c02 d53d
00000040: d942 89bd 3f28 fa3d 50c9 0e3f 3dc8 123e
00000050: 6fba 843d 526c 293e 7a6e 153d 9bdc acbe
00000060: 3a1d 133d 2da5 2ebf 0439 7abd b36b 26bd
00000070: ee3a 683e e41e 8b3e e04a c13e f824 623e
00000080: a616 b8bd 8ed8 2a3e 7653 21be 3fcb 653e
00000090: 4a8e fabc b4cb 473e 5b40 933e e77d f83d
000000a0: eb80 783e 978d 043e 0c21 9ebe a59d 3f3e
000000b0: 893e bebc 918c 613e 8087 fabe 712a b4bc
000000c0: 57d6 23bd 7f8b 7cbc 488e d03d e24d 10bd
000000d0: 33d9 a6bd a3d1 adbc 84ce 133e a97f 20be
000000e0: 9cac 6dbc 27d3 673d 6b87 7bbf 8c33 bcbc
000000f0: 5fa2 68be af58 223d 7d59 2d3e 72f7 b33c
00000100: 48a1 f33d 2b28 7abe 0c0c 99be 7b67 09bf
00000110: e8b8 6bbd 2596 143e ff35 0d3e 9e11 623e
00000120: a67a b9bc f1ef 863a faa2 6d3e 1858 a73e
00000130: 1436 01bf 1316 abbd 7b9e a0b9 0db1 19bd
00000140: 4ed6 853e d17e a8be 5b1e fd3d 8bed c6bd
00000150: e65a 373e ea10 8a3e 30df 4bbf eeab 27be
00000160: 66a1 8f3d 35fc dbbd 871d 30be 309c 093e
00000170: 7ea9 243e b240 473e 5e4e 8c3e ac31 133e
00000180: 2dde 76be 7714 d83d d3a8 03bf 1502 893e
00000190: 6e8f 863e 7c1c 60be f65e ae3e ebe7 573e
000001a0: 7d9a 403d 0d8a 66be 982a 97bd 686c dbbd
000001b0: d6ad c03d 06e6 463e 32d4 063e e933 193e
000001c0: f920 84be 6720 9a3d 6d6a c7bd 672d ad3d
000001d0: f5cd d6bd 34a0 48bf a4c7 613d 237f 5fbe
000001e0: 3dd0 3abd 25bc 763d 3bd8 373e 3335 ff3d
000001f0: 7ad8 c1be a314 e23d 9d39 b73e bc30 ac3e

network_body._body_endoder.seq_layers.2.weight f4 [128, 128]
0.059263647 -0.37654915 0.26545152 0.07599596 0.12074609 -0.16244288 0.16968758 -0.20188318
0.08113493 -0.055779178 0.41819376 0.087872215 -0.4881605 -0.0651691 -0.09196399 0.07649865
0.23486029 -0.68125534 -0.45208773 -0.23606114 -0.1100262 -0.16119899 0.43027332 -0.12572722
-0.24526496 -0.27626336 0.0064717936 -0.15265569 -0.34227565 -0.5853641 0.38188893 0.08225259
0.17515202 -0.19105045 -0.09651973 -0.05532955 0.32794634 -0.20671563 -0.12089456 -0.006074892
0.30367777 0.20623244 -0.047322083 -0.11208271 -0.2681747 -0.23273413 -0.28172955 -0.020056885
0.10312312 -0.20961438 -0.19466655 -0.126925 -0.37502062 0.19608913 0.12993506 0.31718862
0.057685964 -0.27052057 -0.45854777 0.18953475 -0.15431401 0.33420607 -0.1325678 -0.07733085
0.17643684 -0.20141037 0.06051732 -0.01663598 -0.3199892 -0.24917974 0.50604826 -0.48549318
0.100017875 -0.0025022968 0.043788128 -0.61584693 0.12534323 -0.053095907 0.09569489 -0.37234113
0.114507504 -0.08428416 -0.3077733 0.39464298 0.17711267 0.23527004 0.035819817 -0.024786273
0.20402545 -0.12545156 -0.22980788 -0.5624513 0.10002951 0.16008213 -0.043311704 0.11849379
-0.16402164 -0.10590499 0.47302034 0.26861775 -0.04747996 -0.99093866 0.61855 -0.19811557
0.32845578 0.44744074 0.49801102 -0.18091574 0.3287036 -0.314286 0.0005324555 -0.13454239
0.023417348 0.34093827 -0.34851906 0.21335135 0.3905752 -0.26399985 -1.0961058 -0.2599375
-0.26247898 -0.36820704 0.13604078 -0.1659716 -0.5375242 -0.010519264 -0.18034843 -0.16996075
-0.3254489 -0.30025384 0.30028242 0.051932484 0.12902647 -0.49911776 -0.2461254 0.7098282
0.15970175 0.44416508 0.23077422 0.24453273 0.36620924 0.1286284 -0.33332506 -0.22772267
0.14476779 -0.13585997 -0.19140244 -0.0357473 0.52978414 0.16959473 -0.30600578 0.18523799
0.384529 0.5618464 0.46610558 0.035369504 -0.2272115 0.26313424 -0.15136118 -0.20309328
0.5587992 -0.30404484 -0.18357892 0.11159394 0.035043757 -0.5575287 0.028296376 -0.28554052
-0.061663438 0.58669865 0.8143487 -0.58065176 0.23835205 -0.11479897 0.30619794 0.04281532
-0.2423431 0.190085 -0.15611081 0.11452725 0.46171245 0.08278411 0.536401 -0.13085778
-0.29767892 -0.24909474 0.32320434 -0.12991887 0.376347 -0.061508697 0.03322572 0.024671176
0.25215495 0.74517107 -0.21822031 0.41798225 -0.011188663 -0.38422126 0.10225597 -0.049893145
-0.032878757 0.15092666 -0.07939094 0.5147228 -0.14702065 -0.01185235 0.7419895 0.020000106
0.2398669 0.6538359 0.038812798 0.16153532 0.09453608 0.38359258 0.8632434 -0.207555
0.139864 0.32863548 0.0021202655 0.060178846 -0.6358465 0.38112035 0.37066644 -0.37633675
0.90644234 0.10182816 -0.11967165 -0.07683665 0.32298678 0.13453092 0.111545876 -0.15780856
-0.056224227 0.46363494 0.058238305 -0.053974126 -0.06895444 -0.0516928 0.24327923 -0.40676975
0.29998392 -0.4586575 0.33232194 0.21754326 0.29634842 0.70117927 0.049454823 0.0320712
-0.22317295 0.2270586 -0.07193632 0.063564055 0.4563616 0.04316027 0.32308292 0.19944327
00000000: 70be 723d 0dcb c0be 43e9 873e c5a3 9b3d
00000010: ba49 f73d 6d57 26be 95c2 2d3e 77ba 4ebe
00000020: 122a a63d b578 64bd 7e1d d63e 59f6 b33d
00000030: 2cf0 f9be 6177 85bd 9e57 bcbd 53ab 9c3d
00000040: 377f 703e c066 2ebf 0b78 e7be 03ba 71be
00000050: 6b55 e1bd 5911 25be c94c dc3e a3be 00be
00000060: bd26 7bbe 6472 8dbe 5711 d43b c651 1cbe
00000070: c13e afbe 6cda 15bf f286 c33e 0c74 a83d
00000080: 0d5b 333e bba2 43be 23ac c5bd 3da1 62bd
00000090: 95e8 a73e 43ad 53be 9197 f7bd e30f c7bb
000000a0: a77b 9b3e 992e 533e cdd4 41bd 9f8b e5bd
000000b0: 324e 89be db51 6ebe db3e 90be 564e a4bc
000000c0: 3732 d33d 27a5 56be ab56 47be a1f8 01be
000000d0: b402 c0be 97cb 483e b20d 053e 8c66 a23e
000000e0: 1e48 6c3d ac81 8abe c6c6 eabe 6615 423e
000000f0: 7e04 1ebe 0f1d ab3e dabf 07be a35f 9ebd
00000100: dcab 343e 853e 4ebe 02e1 773d 2e48 88bc
00000110: a0d5 a3be f928 7fbe 618c 013f 9092 f8be
00000120: 2cd6 cc3d 93fd 23bb 2e5b 333d 25a8 1dbf
00000130: fa59 003e 187b 59bd affb c33d 7fa3 bebe
00000140: e982 ea3d 2c9d acbd 7694 9dbe a50e ca3e
00000150: 065d 353e a1ea 703e cdb7 123d 950c cbbc
00000160: 0cec 503e 6076 00be c252 6bbe cffc 0fbf
00000170: 46dc cc3d 92ec 233e 9d67 31bd dfac f23d
00000180: 4af5 27be b7e4 d8bd b92f f23e 4488 893e
00000190: 597a 42bd 28ae 7dbf 4b59 1e3f cfde 4abe
000001a0: 5b2b a83e f416 e53e 4dfb fe3e fa41 39be
000001b0: d74b a83e 18ea a0be 7c94 0b3a 7bc5 09be
000001c0: bdd5 bf3c 768f ae3e 1771 b2be c778 5a3e
000001d0: 79f9 c73e fd2a 87be 324d 8cbf 8716 85be
000001e0: a563 86be a285 bcbe 464e 0b3e 76f4 29be
000001f0: 309b 09bf fe58 2cbc 42ad 38be 310a 2ebe
00000200: 3da1 a6be dfba 99be 9ebe 993e 28b7 543d
00000210: 841f 043e 5d8c ffbe 4c08 7cbe 4db7 353f
00000220: db88 233e 9b69 e33e 1450 6c3e ca66 7a3e
00000230: c77f bb3e 2ab7 033e 95a9 aabe 2230 69be
00000240: 023e 143e e01e 0bbe 00ff 43be c36b 12bd
00000250: ef9f 073f 3eaa 2d3e caac 9cbe 07af 3d3e
00000260: fce0 c43e 2ad5 0f3f 64a5 ee3e 9ddf 103d
00000270: 22aa 68be 88b9 863e 6dfe 1abe aff7 4fbe
00000280: 770d 0f3f c4ab 9bbe 1dfc 3bbe 5d8b e43d
00000290: 0b8a 0f3d 33ba 0ebf cdcd e73c 5e32 92be
000002a0: cd92 7cbd e231 163f 2879 503f 98a5 14bf
000002b0: 8f12 743e b91b ebbd fac5 9c3e 1e5f 2f3d
000002c0: ca28 78be a4a5 423e 83db 1fbe 438d ea3d
000002d0: 9365 ec3e b78a a93d 9351 093f 95ff 05be
000002e0: 5f69 98be b112 7fbe 0a7b a53e 7409 05be
000002f0: 8eb0 c03e 8bf0 7bbd b117 083d 351b ca3c
00000300: 741a 813e 88c3 3e3f 2575 5fbe c501 d63e
00000310: a750 37bc a6b8 c4be 946b d13d c15c 4cbd
00000320: e0ab 06bd 858c 1a3e b897 a2bd e0c4 033f
00000330: 958c 16be 5c30 42bc 06f3 3d3f 43d7 a33c
00000340: ab9f 753e ca61 273f 2bfa 1e3d 8469 253e
00000350: 229c c13d 3f66 c43e 85fd 5c3f 4c89 54be
00000360: 8238 0f3e e942 a83e 27f4 0a3b 187e 763d
00000370: d6c6 22bf 3522 c33e fec7 bd3e 36af c0be
00000380: 9b0c 683f 488b d03d 6916 f5bd 895c 9dbd
00000390: 865e a53e 79c2 093e 2a72 e43d 9198 21be
000003a0: 604b 66bd 8f61 ed3e 4a8b 6e3d f913 5dbd
000003b0: fc37 8dbd d4bb 53bd 311e 793e 2044 d0be
000003c0: 7e97 993e 28d5 eabe 1a26 aa3e a9c3 5e3e
000003d0: fbba 973e 7c80 333f 2491 4a3d 175d 033d
000003e0: 7387 64be 0d82 683e 5953 93bd df2d 823d
000003f0: 3aa8 e93e d3c8 303d 206b a53e db3a 4c3e

network_body._body_endoder.seq_layers.2.bias f4 [128]
-0.09896324 -0.23724371 -0.1713372 -0.26578343 0.06968072 -0.39128122 -0.42786777 -0.04736649
-0.21671464 -0.2190577 -0.3460086 -0.02089005 -0.054568905 -0.28689477 -0.53503346 -0.18403171
-0.5233102 -0.27409622 -0.20756869 -0.14281787 -0.124112956 -0.0072573787 -0.11611666 0.05979896
-0.09315084 -0.24289244 -0.46859863 -0.17242788 0.007405525 -0.053304225 -0.36611357 -0.1408324
-0.19856483 -0.61127156 -0.27675402 -0.16832271 -0.43687916 -0.9450718 -0.10341677 -0.5674477
-0.087889776 -0.15433331 -0.74171966 0.11467416 -0.03694833 0.16223104 -0.2841036 -0.6366815
-0.85430056 -0.11712837 -0.28168905 -0.4958313 -0.05103189 -0.2964589 -0.3367045 -0.32499892
-0.23256971 -0.52911246 -0.56615365 -0.12524574 -0.43473932 -0.33930597 -0.45621794 -0.20600867
-0.06439871 -0.12544529 -0.18214233 -0.23676534 -0.35841963 -0.012208453 -0.13916999 -0.41323456
-0.035478096 -0.24465571 -0.27508458 -0.15656559 -0.48195368 -0.2665389 -0.26709396 -0.16577862
0.033899263 -0.4311358 0.04808548 -0.040819567 -0.14077443 -0.35129502 -0.42236996 -0.004153755
-0.28468603 -0.08706568 -0.38725927 -0.24229655 -0.2936474 -0.33842194 -0.13219987 -0.25243065
-0.016156862 -0.063109435 -0.05476448 -0.0044714143 -0.36636 -0.41733724 -0.42588648 -0.066413686
-0.59165806 -0.05898236 -0.04823104 -0.3104595 -0.8004271 -0.4161074 -0.014528625 -0.39914274
-0.47760162 -0.18814692 -0.3787661 -0.11319913 0.26614538 -0.37181705 -0.26343912 -0.4709205
-0.084221 -0.21241099 -0.03741788 -0.65145665 -0.3374655 0.12635413 0.029173553 -0.67002994
00000000: 3dad cabd 04f0 72be 0573 2fbe c414 88be
00000010: c4b4 8e3d 0356 c8be 7c11 dbbe 5d03 42bd
00000020: 71ea 5dbe a950 60be 0a28 b1be 9c21 abbc
00000030: a583 5fbd dfe3 92be f4f7 08bf cf72 3cbe
00000040: a8f7 05bf 5756 8cbe e38c 54be d93e 12be
00000050: ef2e febd 4ecf edbb 92ce edbd c1ef 743d
00000060: dec5 bebd ccb8 78be 29ec efbe ef90 30be
00000070: 0caa f23b 8855 5abd 3d73 bbbe 5e36 10be
00000080: 9454 4bbe 4b7c 1cbf b4b2 8dbe ca5c 2cbe
00000090: a0ae dfbe 3af0 71bf 2ccc d3bd 4144 11bf
000000a0: 8eff b3bd 8d09 1ebe 57e1 3dbf 49da ea3d
000000b0: 2257 17bd e51f 263e 0776 91be 8ffd 22bf
000000c0: 71b3 5abf 00e1 efbd 8c39 90be 9add fdbe
000000d0: d106 51bd 76c9 97be 8864 acbe 4266 a6be
000000e0: c126 6ebe ea73 07bf 72ef 10bf 6b40 00be
000000f0: 2796 debe 83b9 adbe 6695 e9be f0f3 52be
00000100: 79e3 83bd bb74 00be 8583 3abe 9d72 72be
00000110: c782 b7be f705 48bc 9482 0ebe 7b93 d3be
00000120: 7b51 11bd 0787 7abe e3d7 8cbe bb52 20be
00000130: a2c2 f6be c977 88be 8ac0 88be dfc1 29be
00000140: f4d9 0a3d d5bd dcbe 48f5 443d 6b32 27bd
00000150: 2c27 10be f1dc b3be e040 d8be 391c 88bb
00000160: 5ec2 91be 7e4f b2bd d946 c6be 961c 78be
00000170: f458 96be a445 adbe 675f 07be 973e 81be
00000180: 655b 84bc 853f 81bd b850 60bd f184 92bb
00000190: 8a93 bbbe 3aad d5be cb0d dabe e603 88bd
000001a0: e776 17bf 7d97 71bd e98d 45bd 8cf4 9ebe
000001b0: cae8 4cbf 070c d5be 7809 6ebc 705c ccbe
000001c0: 3388 f4be 96a9 40be a1ed c1be f2d4 e7bd
000001d0: 3544 883e ce5e bebe 7ee1 86be 7e1c f1be
000001e0: 0f7c acbd 4482 59be 7e43 19bd ddc5 26bf
000001f0: 47c8 acbe fa62 013e 60fd ee3c 1587 2bbf

action_model._discrete_distribution.branches.0.weight f4 [5, 128]
0.3117892 -0.72670925 0.2136529 0.42693692 0.16117579 0.41832018 -0.16854437 0.54315233
0.27938852 0.0024289198 0.34251806 0.50149006 -0.0031665305 0.12711497 0.19825625 0.27886298
-0.24076124 -0.1280198 0.5512165 0.18403335 -0.07785781 0.37703702 -0.31559756 0.5624693
0.5120099 0.3043618 0.21363415 -0.13441806 0.07147995 0.55804974 0.114437304 0.21126465
-0.26714882 -0.4989305 -0.041857503 -0.13833275 -0.6123402 -0.1971519 -0.22529197 0.0423069
0.1476144 0.37078533 -0.33195633 0.5070652 0.45676458 0.25268194 0.17454346 -0.62899166
0.22393695 0.1097476 0.19431679 -0.5698077 0.4513143 0.38742948 0.5926858 0.35266244
0.12836628 0.40555716 0.08051364 0.6321776 0.42737654 0.061075807 -0.23958048 0.35723191
0.35378924 -0.043244667 -0.26465788 0.085111745 -0.21890278 0.070962265 0.07195491 -0.124823414
0.47281182 -0.05873016 0.050753135 -0.61704826 0.33523893 0.24852052 0.22163053 0.18913157
0.2343527 -0.13574319 0.14688277 0.18265359 0.6856384 0.43859455 -0.57423055 0.40927774
-0.18230662 -0.06175652 0.068505585 0.34370616 -0.20207052 -0.5762594 0.055707406 0.011707751
0.035567787 0.22456534 0.22824268 0.15473102 -0.08326785 -0.17403235 -0.56799036 0.2219867
-0.4404305 0.18417248 -0.010371015 0.2565306 0.27491477 -0.33805892 0.21966483 0.45228392
-0.12338372 0.34258592 -0.10047644 -0.47074774 0.5027653 -0.14728215 -0.029240638 -0.44022214
0.22988224 0.08820797 0.3452805 -0.73134506 -0.1824986 0.018849846 -0.05568491 0.023435254
0.3423328 0.413977 0.45329183 0.44472152 0.13718444 0.34548202 0.005679557 0.2960195
0.4850337 -0.03226368 0.29423204 0.4662471 0.0029625504 0.05999705 0.2166676 0.15380414
0.2469179 -0.12334735 0.3437984 0.410412 -0.20623676 0.16893905 -0.08516406 0.60286874
0.2679764 0.17620504 0.09002899 0.13943866 0.15804023 0.3098293 -0.6548873 0.29761285
-0.030103859 -0.079647265 0.14145888 -0.5048911 0.020550039 -0.31409904 0.30088863 0.19956197
0.3532991 0.07375725 -0.22547638 0.47602177 0.42244953 0.25421083 0.12567635 -0.32105944
0.043914247 0.10066687 0.30924875 0.100255035 0.69729656 0.36268649 0.25247884 0.14478116
-0.06950581 0.20741825 -0.2583258 0.7914276 0.41653803 -0.36588067 -0.13079008 0.58624285
0.5298005 0.2099947 0.17830679 0.49677655 0.38663086 0.47824866 0.2124238 0.11643469
0.17445502 0.23151422 0.11558398 0.047932707 0.40701732 0.29678357 -0.27407295 -0.16679564
0.36817586 -0.31057155 0.30408633 0.22660062 0.73015964 0.32820392 0.110065214 0.13845287
0.14899391 0.1586372 -0.31479308 0.1043625 0.26032186 -0.003100827 -0.17604584 0.19618735
0.29379615 0.2710051 0.4347052 -0.06632442 0.114579014 -0.43758774 -0.19037005 0.20968093
-0.120202586 0.2831863 0.12999888 -0.16920131 -0.108608834 -0.20992446 0.29941332 0.35840166
-0.23001273 0.5157363 0.34225702 0.0050552567 0.3590539 0.109489806 0.018122932 -0.16933833
0.14752387 0.32448247 0.06579289 -0.24052323 -0.06862637 -0.09163706 0.36494297 -0.12792441
00000000: d6a2 9f3e 9e09 3abf d3c7 5a3e 7a97 da3e
00000010: 440b 253e 102e d63e e596 2cbe 080c 0b3f
00000020: 030c 8f3e 832e 1f3b 875e af3e a761 003f
00000030: 9185 4fbb 6d2a 023e b003 4b3e 21c7 8e3e
00000040: 1d8a 76be 9f17 03be 861c 0d3f 3d73 3c3e
00000050: ea73 9fbd ff0a c13e 0196 a1be fdfd 0f3f
00000060: 1513 033f 4fd5 9b3e e9c2 5a3e e3a4 09be
00000070: 1464 923d 59dc 0e3f 1b5e ea3d c355 583e
00000080: bbc7 88be d273 ffbe c672 2bbd 1aa7 0dbe
00000090: 54c2 1cbf 30e2 49be f0b2 66be 004a 2d3d
000000a0: 3b28 173e 93d7 bd3e 2ef6 a9be 06cf 013f
000000b0: 0cdd e93e 875f 813e 85bb 323e 9905 21bf
000000c0: ba4f 653e 5ac3 e03d fbfa 463e ebde 11bf
000000d0: ab12 e73e 285d c63e 42ba 173f 2c90 b43e
000000e0: 7372 033e 30a5 cf3e 56e4 a43d 64d6 213f
000000f0: 19d1 da3e a02a 7a3d 9654 75be 1ae7 b63e
00000100: dd23 b53e 5221 31bd 3d81 87be 114f ae3d
00000110: 0d28 60be aa54 913d 195d 933d 6ba3 ffbd
00000120: 6414 f23e 098f 70bd 85e2 4f3d e0f6 1dbf
00000130: 70a4 ab3e 2a7c 7e3e 1df3 623e b5ab 413e
00000140: 27fa 6f3e 4300 0bbe 7068 163e 8b09 3b3e
00000150: 0086 2f3f 778f e03e c600 13bf da8c d13e
00000160: 96ae 3abe 68f4 7cbd a84c 8c3d 41fa af3e
00000170: 93eb 4ebe bc85 13bf 732d 643d ded1 3f3c
00000180: 87af 113d 75f4 653e 73b8 693e cf71 1e3e
00000190: 5688 aabd 8935 32be d167 11bf 7b50 633e
000001a0: 1b80 e1be b697 3c3e 31eb 29bc fb57 833e
000001b0: a1c1 8c3e 0f16 adbe d1ef 603e c291 e73e
000001c0: 9bb0 fcbd 6c67 af3e 97c6 cdbd d905 f1be
000001d0: 3ab5 003f 22d1 16be 108a efbc cc64 e1be
000001e0: 4066 6b3e 61a6 b43d 9bc8 b03e 6e39 3bbf
000001f0: eae0 3abe fe6a 9a3c dc15 64bd 4afb bf3c
00000200: 3f46 af3e cbf4 d33e de15 e83e 8ab2 e33e
00000210: 147a 0c3e 05e3 b03e 941b ba3b de8f 973e
00000220: 5656 f83e ec26 04bd 95a5 963e f1b7 ee3e
00000230: 5927 423b 77bf 753d 1dde 5d3e d57e 1d3e
00000240: 0cd8 7c3e 899d fcbd 5806 b03e 8621 d23e
00000250: bb2f 53be 5cfe 2c3e 7f6a aebd 9b55 1a3f
00000260: 3434 893e 186f 343e 1e61 b83d 02c9 0e3e
00000270: 4cd5 213e f2a1 9e3e b2a6 27bf b660 983e
00000280: 5e9c f6bc 1b1e a3bd 99da 103e 8b40 01bf
00000290: 8e58 a83c 97d1 a0be 130e 9a3e f959 4c3e
000002a0: 9fe3 b43e 0b0e 973d 48e3 66be 20b9 f33e
000002b0: 4e4b d83e ec27 823e 4db1 003e e761 a4be
000002c0: 6ddf 333d 6f2a ce3d da55 9e3e 8352 cd3d
000002d0: 0782 323f 0bb2 b93e e844 813e 8341 143e
000002e0: 1059 8ebd 7365 543e 4743 84be 009b 4a3f
000002f0: 7944 d53e b654 bbbe d6ed 05be 0314 163f
00000300: 01a1 073f da08 573e 0e96 363e 7f59 fe3e
00000310: 7bf4 c53e 02dd f43e a085 593e 5075 ee3d
00000320: 56a4 323e 1012 6d3e 4bb7 ec3d 1655 443d
00000330: 9364 d03e 04f4 973e 4a53 8cbe 7acc 2abe
00000340: 8c81 bc3e 3c03 9fbe 34b1 9b3e fe09 683e
00000350: beeb 3a3f 580a a83e df69 e13d 97c6 0d3e
00000360: dc91 183e ca71 223e 8f2c a1be 02bc d53d
00000370: e848 853e 3f37 4bbb 5c45 34be 56e5 483e
00000380: 736c 963e 2ec1 8a3e ae91 de3e 19d5 87bd
00000390: 67a8 ea3d 800b e0be 5ef0 42be 99b6 563e
000003a0: c62c f6bd cbfd 903e 6d1e 053e 1c43 2dbe
000003b0: 4f6e debd 70f6 56be b44c 993e 6c80 b73e
000003c0: 7588 6bbe 4b07 043f 503c af3e 91a6 a53b
000003d0: ead5 b73e 313c e03d 8b76 943c 0767 2dbe
000003e0: 7f10 173e 9122 a63e 6cbe 863d b94b 76be
000003f0: fb8b 8cbd 36ac bbbd ced9 ba3e 9efe 02be

action_model._discrete_distribution.branches.0.bias f4 [5]
-0.18287842 0.2767604 -0.11740229 0.23625436 0.45612684
00000000: 7b44 3bbe 8ab3 8d3e 9d70 f0bd aaec 713e
00000010: 7589 e93e
